rlgpu/logs/cut_407/model_150.pt (torch, 868312 bytes, 16 tensors)

log_std f4 [3]
000000 d2 8c a7 be db 33 33 be 93 c6 15 bd
       -0.32724625 -0.1750025 -0.03656633

actor.0.weight f4 [256, 259]
000000 03 0a 14 3d 81 4b 30 3d 49 6e 62 3d 3f 2c d8 bc
       0.03614236 0.043040756 0.055280957 -0.026388286
000010 12 e4 84 bd 30 c6 98 3d 57 3e 5d 3d 89 f2 99 bd
       -0.064888135 0.07459676 0.05401453 -0.07516963
000020 43 2e fd 3c f2 87 04 3d 3d 22 99 3c 17 c4 a9 bd
       0.030905848 0.03235621 0.018693084 -0.08289354
000030 e3 6e 8f 3d ab cf bf bd 68 44 c3 bc bf b3 ab bd
       0.07003572 -0.093657814 -0.02383633 -0.08383893
000040 6d a2 d7 bc d1 83 0b bd 59 b8 1f be 36 b4 08 3d
       -0.026322568 -0.034061257 -0.15597667 0.033374988
000050 2c 39 78 3d 80 28 a2 bd 0e 4c c6 bd 1a da 87 3c
       0.0606014 -0.07917881 -0.09682475 0.016583491
000060 fa 23 d7 3d b3 da 43 3b 01 d9 90 3d 1e bb 5f bc
       0.10504909 0.0029884994 0.0707264 -0.013655452
000070 77 66 88 bb 06 a6 4d bd 9d c8 53 3c e4 3c b3 bd
       -0.0041626054 -0.05020716 0.012926248 -0.08751848
000080 20 13 df 3c f4 48 da 3d ad 05 bb 3d db a3 09 bd
       0.0272308 0.10658446 0.09131942 -0.03360353
000090 f1 27 68 3d 3e c0 24 bc 63 d1 66 bd 23 5f 4a 3c
       0.056678716 -0.0100556 -0.05635203 0.012351784
0000a0 d3 9d 69 bc 43 30 c0 bc 01 3c 30 3e f3 b3 1b 3e
       -0.01425882 -0.023460513 0.1721039 0.15205364
0000b0 3d e8 cd bd c4 28 1f 3e 9e 03 a3 3d f6 2d a1 bd
       -0.100540616 0.15542895 0.07959674 -0.078700945
0000c0 c1 2a c5 3c f5 ba 96 bd c7 8b ff bc c0 b2 0f be
       0.024068238 -0.07359878 -0.03119458 -0.14033031
0000d0 34 95 28 bd a9 e3 c5 3d 67 1d 6f bd 30 19 68 3d
       -0.041157916 0.09662563 -0.05837765 0.056664646
0000e0 7c 07 63 3e 66 e3 be 3d 27 e1 69 3c c8 60 1b be
       0.22170824 0.093207166 0.014274872 -0.15173638
0000f0 15 be 88 3c 9b 1b 27 bd ad 50 c4 bb f7 f5 81 3c
       0.0166922 -0.04079781 -0.0059910626 0.015864355
000100 fa 34 33 bd d7 50 00 3d c6 a6 bf bd 9c 1e aa 3d
       -0.043751694 0.031327095 -0.093579814 0.083066195
000110 8f a8 d6 bc b9 56 21 bd 9b 08 a1 bd bb f8 92 3d
       -0.026203422 -0.039389346 -0.078629695 0.07176348
000120 bf 88 ac bd b5 87 c6 bc ae ea ad bc fe f7 32 bd
       -0.0842452 -0.024234632 -0.021230068 -0.043693535
000130 08 08 81 be 3a be 04 bc 41 04 0e 3d 97 0a 74 bc
       -0.2520144 -0.008101994 0.034672026 -0.014895103
000140 d6 0e 20 3d 4d 54 04 3e 4c 84 c9 bd 72 f1 f9 3b
       0.03907665 0.12922783 -0.09839687 0.0076276595
000150 70 85 5e bd 01 b2 0a 3e e4 52 87 bd cc cf 05 be
       -0.054326475 0.13544466 -0.06607607 -0.1306755
000160 04 ea bd bd 63 2d d3 bd 42 cd 8d 3d 93 0d 87 3d
       -0.092731506 -0.10311391 0.069239154 0.06594386
000170 c4 06 14 3c c3 72 0c 3d a6 8a 32 3e 15 6c 03 3e
       0.009034816 0.034289133 0.17435703 0.12834199
000180 42 4d 01 bd 93 0b 92 bd 06 b7 a4 bc d9 2c b1 3d
       -0.03156782 -0.07131114 -0.020106804 0.08651132
000190 be 0a 90 3d 3c 29 bb bd 20 ff 6a bc 6d 91 2d bc
       0.07033299 -0.09138724 -0.014343053 -0.010593754
0001a0 ba f9 d9 3d 74 f7 4c bd f2 8a 4d bd 29 43 d2 3d
       0.10643335 -0.050040677 -0.050181337 0.10266716
0001b0 b5 9e 87 bb 48 69 51 3e 8a 05 05 bd af ae f0 3d
       -0.0041387924 0.20450318 -0.032475986 0.11752068
0001c0 51 3f d1 3c f0 68 2c bd d6 fb e1 bd 18 50 d6 bd
       0.025542887 -0.042092264 -0.11034362 -0.104644954
0001d0 8d b2 54 bd 5b 49 d4 3d a2 e6 9a bd c8 2f 76 bc
       -0.05192809 0.10365554 -0.07563521 -0.01502604
0001e0 3d d1 95 bd 9c 0c 1e 3e 40 fb c2 bd e9 07 30 3c
       -0.073153 0.15434498 -0.095205784 0.010744073
0001f0 39 d1 3f 3d 05 7b e1 3d 4b 32 86 3c 3f de 42 bd
       0.04683039 0.11009792 0.016381403 -0.04757523
000200 bf 27 6a 3d 94 e0 dd 3d 66 dd 8c 3d 41 3e 90 3d
       0.05716681 0.108338505 0.06878166 0.07043124
000210 2d 12 91 bd 54 4b 72 bd 6d b1 80 bd c2 0b 46 3e
       -0.07083545 -0.05915387 -0.06283841 0.19340423
000220 cb 0f 80 bd c9 80 c0 bd 40 bf 91 3d 1b b1 cb bd
       -0.06253012 -0.09399564 0.07116556 -0.099458896
000230 d3 d7 28 3d 48 54 40 be 5d 21 87 bc ef 5b 71 bc
       0.04122145 -0.18782151 -0.016495401 -0.014731391
000240 7a f9 bf bd 1a c3 72 3c 30 b2 07 3e 1e 44 bb bb
       -0.09373756 0.014817024 0.13251567 -0.0057149073
000250 eb c4 9c bd 7b 10 9e bd 1e f1 07 be bf 16 ad 3d
       -0.076547466 -0.07717987 -0.13275573 0.08451604
000260 f1 6a 26 be 83 b3 b0 3c 3b e4 54 bc 54 df 00 3e
       -0.16251732 0.021569973 -0.0129938675 0.12585193
000270 d6 d1 1f 3e a5 e9 84 3d 51 3f 3b bd 3a e2 00 3e
       0.1560739 0.06489877 -0.04571468 0.12586299
000280 e0 88 fa 3d ff ae 35 3d c2 53 fe bd 09 26 aa bd
       0.12233138 0.044356342 -0.12418319 -0.08308036
000290 f5 71 88 38 cf a6 3c 3d dc c9 6f bd 5e 60 e8 bc
       6.5062115e-05 0.04605752 -0.058542117 -0.028366264
0002a0 bf a8 43 be db d8 6e bd ae c0 90 3d ca dd 21 be
       -0.1910734 -0.05831228 0.07068001 -0.15807262
0002b0 88 9e 7d 3d 6f 5e d6 3d 97 13 84 3d a8 a3 31 bd
       0.061918765 0.104672305 0.06449049 -0.043368965
0002c0 44 a6 01 3e ec fe 8f bd 29 b7 b3 bd 59 06 7b bc
       0.12661082 -0.07031044 -0.087751694 -0.015321338
0002d0 e6 b0 0a 3e d4 ac 22 3d bf a9 af bd 00 f5 c7 3c
       0.13544044 0.039715603 -0.085772984 0.024408817
0002e0 21 16 4d be 47 c6 b8 bc 2f 26 3a 3d ca 4a 1b bd
       -0.20027973 -0.022555484 0.04544657 -0.03791312
0002f0 af 4e ea bd 86 54 9d bd 97 bc 21 be ca 8c 58 bd
       -0.11440789 -0.07682137 -0.15794598 -0.052868642
000300 74 4a ce bc 2e 32 31 bd 9b 71 28 3e ee 4a 55 3d
       -0.025181986 -0.043260746 0.16449587 0.05207341
000310 94 45 ff 3d 95 88 b6 bc d7 45 9c bc 22 88 20 3e
       0.12464443 -0.022281924 -0.019076271 0.1567693
000320 0a 12 15 bd 8e af 69 be da 52 ab 3c 73 e0 c2 3d
       -0.036394157 -0.22820875 0.02091353 0.095154665
000330 15 0f be 3d e2 a6 10 bd 2b ae b9 3d cc b0 b6 bc
       0.092802204 -0.0353154 0.09066423 -0.0223011
000340 e8 c6 c4 bd 47 f4 44 be 9c 2f 4c bd c8 11 5c 3d
       -0.09608251 -0.1923381 -0.04985009 0.053727895
000350 08 42 5a bd ae bc ab bd aa aa ab bc bd cd 52 3e
       -0.05328563 -0.08385597 -0.020955402 0.20586295
000360 99 71 95 3d 95 1a 30 3d b9 3a 86 bd 20 b5 a6 3d
       0.07297058 0.0429941 -0.06554169 0.081400156
000370 af 2b 88 3d 5e 71 1e bc eb 24 4d bb 6a 82 23 bb
       0.06648957 -0.0096705835 -0.0031302522 -0.002494956
000380 d9 ba f7 bd ac 45 8b 3d c8 c4 2e bd 16 38 e8 bd
       -0.12096185 0.06800398 -0.042668134 -0.113388225
000390 e0 7d cd 3d 10 69 54 3d e8 54 a0 3d 41 a9 00 3d
       0.100337744 0.051858008 0.078286946 0.031411413
0003a0 99 ea c6 3d a9 89 97 3d 3e 2b c4 bd 50 31 db 3c
       0.09712715 0.073993035 -0.0957856 0.026756912
0003b0 a1 e9 de bd b7 18 22 be 0d 1d 11 3d 17 6a 74 bd
       -0.10884405 -0.1582974 0.035428096 -0.059671488
0003c0 37 70 a5 bc f6 21 1c be 56 da 0e 3e 27 04 07 bc
       -0.02019511 -0.1524733 0.13950476 -0.008240736
0003d0 bb c8 e9 3d d7 2c ad 3d 93 c9 04 3c 5b ac 97 3c
       0.114152394 0.08455818 0.0081047 0.018514803
0003e0 8c 29 22 3e 60 34 db bc a4 cc d0 3d ce 8c 04 bc
       0.15836161 -0.026758373 0.10195282 -0.008090211
0003f0 6c c2 bb bd 6a ac ae 3d 91 4d 51 bc 1e e7 22 3d
       -0.091679424 0.08528979 -0.012774841 0.03977119

actor.0.bias f4 [256]
000000 9f 9a a4 bc ca 7d 56 bd 0b 1e a3 bc 5e e0 95 bc
       -0.02009326 -0.052366056 -0.019911787 -0.018295463
000010 44 74 96 bc 7e 3d 10 3c 8b fc 84 3d 16 91 e4 3c
       -0.018365987 0.008803723 0.06493481 0.027901214
000020 a0 c6 96 bc 72 b2 33 3d 96 07 61 3d 6a 90 d3 3c
       -0.018405259 0.04387135 0.054938875 0.025825698
000030 e3 82 9d 3d 9f 1e ed 3b ea 3c 87 bc a4 62 be 3b
       0.0769098 0.0072363163 -0.016508538 0.0058100987
000040 1b 96 8e 3b 57 00 07 3c c2 e1 b8 3c 2d a1 4d bd
       0.00435139 0.008239827 0.022568587 -0.050202537
000050 bd 5d 90 3c 76 77 de bb 7c 77 35 3d 23 d0 79 bd
       0.017622823 -0.006789143 0.044303402 -0.06098951
000060 02 52 10 3d 90 fe 87 bd 0f c3 a5 bc 67 53 bc 3c
       0.03523446 -0.06640351 -0.020234613 0.022988988
000070 6a d9 75 bd a3 d8 24 bd 58 6a f9 3b 1f 68 af bc
       -0.060021795 -0.040245663 0.007611554 -0.021411953
000080 f6 56 59 3c d0 ca 5a 3d e8 bd cc 3b 7f 5c eb bc
       0.013265362 0.053416073 0.0062482245 -0.028730629
000090 d9 e3 6f bd ac 9a f3 3c cd 8b 3f 3d b3 45 e2 bc
       -0.0585669 0.02973684 0.046764184 -0.027621126
0000a0 13 23 83 3d 28 6e 19 3a d2 b1 7c 3d eb 50 37 3d
       0.06403174 0.00058529014 0.06169302 0.044754904
0000b0 9f fb 3c bd 8f 2f 5a 3d 93 f3 0b bd b4 39 41 3d
       -0.046138402 0.05326801 -0.034167837 0.04717417
0000c0 83 ba 1e 3d 98 3e f0 bc 10 53 1c bd 50 3b 35 3d
       0.03875209 -0.029326722 -0.038165152 0.044246018
0000d0 ca cf 22 3b 50 46 1e 3d 8a 99 4b bd f4 10 2f bd
       0.002484309 0.038641274 -0.049706973 -0.042740777
0000e0 36 db 34 bc 45 b6 6a 3b ba d3 f2 b9 b6 8d 8f 3c
       -0.011038592 0.0035814208 -0.00046315585 0.017523628
0000f0 4c 44 9b 3c b8 9e 67 bd 11 7b 92 bd 19 55 99 3d
       0.018953465 -0.05654785 -0.07152379 0.07486934
000100 52 3d 86 bd c3 19 62 bd 9c 72 d1 bc 7f 29 00 3c
       -0.06554665 -0.05520035 -0.025567345 0.007822393
000110 d4 37 b6 3c b0 69 8e bc f2 8d c2 bc 40 e2 65 bc
       0.022243418 -0.01738438 -0.023749325 -0.014030993
000120 fd ed 04 3d 45 af 5e bc 57 89 d1 3c e1 1c 70 bd
       0.032453526 -0.013591592 0.025578184 -0.05862129
000130 23 70 91 bb f0 6f e5 3c 34 ec 32 bd dc 6a 1a bd
       -0.0044384166 0.028007478 -0.043682292 -0.037699565
000140 27 f8 05 3d 8a 21 69 bd 69 58 9b bd db ca 4f 3d
       0.03270736 -0.05691675 -0.07585222 0.050730567
000150 25 ee 18 3d 26 bd 6a bd ec cb 83 bd 5b 86 55 bd
       0.037336487 -0.057309292 -0.064353794 -0.052130084
000160 91 33 e7 3c 1d 1e 28 bd 26 9b 76 bd 3e 8f f6 3c
       0.028222831 -0.041044343 -0.060206555 0.0300976
000170 36 5d e3 bc ac 69 57 bc c5 36 fe bc de 20 dc 3c
       -0.027754407 -0.013147753 -0.031031976 0.026871141
000180 46 49 0b 3d 70 f6 6c 3d 2b 8a 4f bd bf b5 6d 3c
       0.034005426 0.05785221 -0.050668877 0.014508664
000190 8f 08 f5 bb 6b 5e 27 bb ad cc 8b bd 61 c0 54 bd
       -0.007477827 -0.0025538455 -0.06826148 -0.05194128
0001a0 36 89 e2 bb 56 1b 07 bd b2 09 25 3d e9 13 05 3b
       -0.0069133295 -0.032985054 0.04029245 0.0020306057
0001b0 1d aa 42 3c 75 5d ce 3a f7 11 0c bc 7b df 0d 3c
       0.0118813785 0.0015744405 -0.008549205 0.008659239
0001c0 f2 d8 09 3d 77 85 24 bd 5a e6 01 3c ff c5 de 3c
       0.03365416 -0.040166344 0.007928455 0.027194021
0001d0 1e 9a c8 bc 22 c2 0d bd ff 6b b9 bc 25 95 76 bd
       -0.024487551 -0.034608968 -0.022634504 -0.06020083
0001e0 b6 73 eb bc ec 9c 9b bc 52 30 ba bc 91 1f 54 bd
       -0.028741699 -0.018995725 -0.022728119 -0.051787917
0001f0 d1 c4 6e 3c 71 1e 75 3d 48 86 01 bd 37 43 37 bd
       0.014573292 0.059843484 -0.0316222 -0.044741835
000200 d7 c3 7e bc 7a b9 ce bc 56 5e 1f 3d 12 90 ea 3b
       -0.015549622 -0.025234926 0.038908325 0.007158288
000210 37 b4 5e bd 74 9e 78 bc 4c 7e ab bc 9f e2 3e bd
       -0.054371085 -0.015174497 -0.020934246 -0.04660284
000220 38 7f 29 bd 41 cf 54 bd 95 9b cd bc 7f c7 02 ba
       -0.04138109 -0.051955465 -0.025098601 -0.00049888337
000230 0e 35 83 bd 21 ed 0e 3d 92 2a 22 3d 6e 16 3c 3d
       -0.06406604 0.034894112 0.03959138 0.045919828
000240 1a 73 44 3d f5 0f 2a 3c f9 18 2e 3d c4 e6 6b 3c
       0.047961332 0.010379781 0.042504285 0.0143982805
000250 65 fb 18 3c aa eb eb 3c 9b 36 48 3d a9 39 05 3d
       0.009337281 0.028798897 0.0488802 0.032525692
000260 17 fc b4 bc 56 98 3f 3d 1b 2b 44 3d 40 7e 47 3d
       -0.022092862 0.04677614 0.04789267 0.048704386
000270 52 21 2b bd 0c 4a d3 3c 8b af ba bb 38 c6 21 bd
       -0.041779824 0.025792144 -0.005697196 -0.039495677
000280 fb 98 60 bd ae 0f c4 3c 88 72 b0 3c e0 ea b7 3c
       -0.054833394 0.023933258 0.021538988 0.022450864
000290 d8 8e 15 bd 17 bb 78 bd 2f eb 84 3d 48 91 7b 3c
       -0.03651318 -0.060725298 0.0649017 0.015354462
0002a0 d4 39 f4 3c eb 7d f7 bb 27 b9 2b bd a1 23 04 3d
       0.02981273 -0.0075528524 -0.041924622 0.03226054
0002b0 f8 07 28 3c 76 89 68 3d 03 f7 01 bd 6d 57 7f bb
       0.010255806 0.056771718 -0.03172971 -0.0038962022
0002c0 bc e6 ef 3c 9c a8 4a 3d c7 44 c1 3c 9e 18 83 3d
       0.029284827 0.049477205 0.023592366 0.0640118
0002d0 87 83 31 bd db 95 6d bd e9 25 1a bd c1 e6 2a 3d
       -0.043338325 -0.05800424 -0.03763381 0.04172397
0002e0 54 13 de 3c 94 52 65 3b 32 38 42 3d 71 78 90 bc
       0.027108826 0.0034991847 0.047416873 -0.017635556
0002f0 47 dc 2f bd bf c2 57 bc 6f d4 93 bc 52 9f 20 bd
       -0.042934682 -0.01316899 -0.018045632 -0.03921444
000300 40 0f 06 bd 53 8b 57 bd d1 a9 42 bd 11 75 03 bd
       -0.032729387 -0.052623104 -0.04752523 -0.032094065
000310 66 0a 21 3d 53 83 8a 3d f8 f8 b5 3c 2d ff 9f 3d
       0.039316557 0.06763329 0.022213444 0.07812343
000320 3b 34 75 bd 89 25 ab 3c 9c 9b 2f 3d dd 20 28 bc
       -0.059864264 0.020891922 0.04287301 -0.0102617415
000330 77 3d 3d bd 34 96 f7 3c e4 39 91 bc 18 c2 c3 bc
       -0.046201196 0.03022299 -0.0177278 -0.023896262
000340 fd 3d 07 3d 1b 12 87 bc 0f 53 0b bd 92 06 93 bc
       0.0330181 -0.016488126 -0.034014758 -0.017947469
000350 19 75 28 3d b0 f6 a4 bc 92 68 70 3d c7 12 04 3d
       0.041127298 -0.020137161 0.058693476 0.03224447
000360 2b 3a 2f 3c af 3a 5d bc c1 97 54 bc 4f 74 0d bd
       0.010695021 -0.013502761 -0.012975634 -0.03453475
000370 43 ea 3b bd 60 49 29 bd 8c 4e 8a bc 2d bd 7f 3b
       -0.045877706 -0.04132974 -0.016883157 0.003902267
000380 af cb 33 3d 8e 0a 29 3d cd c8 9c bb 38 7d 80 3c
       0.04389542 0.04126983 -0.0047846795 0.015684709
000390 97 fc 54 3d e5 45 90 3d 35 c5 8e bd 63 4a 25 bd
       0.0519987 0.07044581 -0.06971208 -0.040354144
0003a0 c0 46 b0 3c 47 d4 e7 bc b3 67 e8 3a 5d fe 77 bd
       0.021518111 -0.028299464 0.00177311 -0.060545314
0003b0 44 74 69 bd 7a ef 60 3c 28 79 56 bd 67 9c 82 bd
       -0.056995645 0.013728971 -0.052361637 -0.06377488
0003c0 f6 be 75 bb f0 a4 cb 3c 39 d9 68 bd 47 a9 66 bc
       -0.0037497855 0.024858922 -0.056847785 -0.014078445
0003d0 7c f5 59 bd b2 27 6e 3d 93 b9 1c 3d a0 61 f2 bc
       -0.053212628 0.058143325 0.038262915 -0.029587567
0003e0 5a e6 7b 3b 88 02 53 bb ff 35 1c 3d 5d f8 fd 3c
       0.003843686 -0.0032197554 0.038137432 0.031002218
0003f0 62 66 60 3d 8b 6d 1e 3d b8 4c 9e 3c b5 41 3d 3d
       0.05478514 0.038678687 0.019323692 0.04620524

actor.2.weight f4 [128, 256]
000000 56 9d 36 bd 66 ff 31 3e 04 12 23 be 1c 2a 2b 3c
       -0.04458364 0.17382583 -0.15924841 0.010447051
000010 da 4d a1 bd a5 38 fb bd 16 03 a2 3c 87 67 cb 3d
       -0.07876177 -0.122666635 0.019776862 0.09931856
000020 2b 79 1b 3d 65 d8 35 3e a8 6f 6f bd 93 ef 81 bd
       0.03795735 0.17758329 -0.058456093 -0.06344523
000030 06 61 ab bd 3e 48 ef 3d 13 71 47 3c d0 7b 74 3d
       -0.08368115 0.11683701 0.012172955 0.05968839
000040 53 8d 14 be ba eb 83 bd ed 53 d9 bd 4d f3 12 3e
       -0.14507036 -0.06441446 -0.10611711 0.14350624
000050 24 28 74 3e e8 47 cb bc d1 d0 04 be 5e dc b6 3d
       0.23843437 -0.024814561 -0.12970282 0.089287505
000060 b2 74 2c be f5 07 0d be 76 19 b0 3c 3d 22 84 3d
       -0.1684139 -0.13772567 0.021496516 0.06451843
000070 84 c9 84 bd 78 50 34 3d 12 64 d4 bc 56 37 88 bc
       -0.064837486 0.044022053 -0.025926623 -0.016627949
000080 b1 a1 83 3c 9e 1f 11 bc 9e b7 a8 3d b0 f7 ab 3c
       0.016068311 -0.008857636 0.08238147 0.02099213
000090 d2 43 41 be c0 97 36 3c 5b 17 96 3d 58 6e 45 bd
       -0.18873528 0.011144578 0.073286735 -0.048200935
0000a0 e7 0f ae 3d 93 fa 0b 3e c1 0b a9 bd 03 61 ad 3c
       0.08499127 0.13669805 -0.08254195 0.021164423
0000b0 e1 14 79 3d ec 0e b2 bd be cb 5f 3d fa 61 52 3d
       0.060810927 -0.08694252 0.054637663 0.05136297
0000c0 02 bb 34 3d 32 d1 4f be ca 58 97 3b 6d c6 a0 3d
       0.044123657 -0.20294645 0.004618739 0.07850347
0000d0 4b 73 4a bc 76 4e cf bd da 7f 56 3d af 1f 18 bd
       -0.01235659 -0.10122387 0.052368023 -0.03713959
0000e0 6a 4e 16 be 63 f0 b1 3c 01 b9 f9 3c 08 ad 60 bd
       -0.1467835 0.02172107 0.030483725 -0.054852515
0000f0 aa 8b e4 bb 02 33 09 3e 82 66 d9 3d 01 91 60 be
       -0.006974657 0.13398364 0.10615255 -0.21930315
000100 47 be a8 3d 02 e9 e8 bd f0 ec 29 3d 53 4c 80 bd
       0.082394175 -0.11372568 0.041485727 -0.06264558
000110 fc 1a 4f bc fa 40 99 bd 60 34 c8 bd b8 00 6d bd
       -0.012640711 -0.074830964 -0.09775615 -0.057862014
000120 d4 a6 8b bd 6f d5 15 bd f6 7c 29 bd aa 41 0d 3e
       -0.06818929 -0.0365805 -0.041378938 0.1379458
000130 72 59 07 be 89 e5 93 3b 60 70 74 bc d4 a1 98 3d
       -0.13217714 0.0045134467 -0.01491937 0.07452741
000140 37 ef 2c 3d 7c 6e 50 bc 6c 7f d2 3d f3 44 51 be
       0.04222032 -0.012721654 0.1027821 -0.20436458
000150 59 75 59 3d d7 8e 67 3b 92 25 cc bd b7 f6 7a 3e
       0.053090427 0.0035332942 -0.099681035 0.24508177
000160 da ae 0a bd a8 65 da bd 03 5c 8e bb ff 4b f2 3c
       -0.033858158 -0.10663921 -0.0043444647 0.029577253
000170 f5 8c 72 3d da ab 48 3d aa 04 ad bc 28 64 40 3d
       0.05921646 0.048992015 -0.021120388 0.046970516
000180 2d fe 81 3c ca 83 93 3c c4 de ee bc 2e 23 47 3c
       0.01586827 0.018007178 -0.029158957 0.012154384
000190 3e 9f ed bd 87 1f 1c 3e fa 70 b8 3d e5 cd 09 3e
       -0.11602639 0.15246402 0.090059236 0.13457449
0001a0 24 5e 50 3d 01 c8 53 bd 8d ea 54 3d 38 52 89 3d
       0.05087103 -0.05170441 0.051981498 0.06705135
0001b0 07 1f b2 bd 3b a5 15 3d 4f fd 70 3d 8a 7d 0c 3d
       -0.08697324 0.03653453 0.058835324 0.03429941
0001c0 2f 2d a4 bd 1d ae 98 3b 23 f6 ef bd 65 c2 06 be
       -0.080164306 0.004659428 -0.11716869 -0.13160093
0001d0 16 85 ae 3d 54 24 b9 bc 90 77 c0 bd 7e fa e5 bb
       0.08521478 -0.02260033 -0.09397805 -0.0070183864
0001e0 83 30 0b bd 13 bc 1e 3e 1c 12 57 3d 3f 24 ae bd
       -0.03398181 0.15501432 0.052507505 -0.08503007
0001f0 15 e2 86 bd 91 f5 87 3d 26 a0 14 3d 82 27 d8 3d
       -0.065860905 0.06638635 0.036285542 0.105544105
000200 56 a4 6f 3d 37 1f 15 3c c8 f9 5a 3d cc cd 8c 3d
       0.058506332 0.0091016805 0.053460866 0.0687519
000210 99 00 2d bd 43 f8 25 3e 90 d7 7b bd cb a0 02 3d
       -0.042236898 0.16207986 -0.061484873 0.031891625
000220 a5 58 03 bd 00 19 01 3e 25 4e f1 bd 12 e6 1a be
       -0.03206696 0.12607193 -0.11782483 -0.15126827
000230 07 00 d2 3d 3a f3 8b 3b 7d 5c fe ba 0b ef 2c be
       0.102539115 0.004270938 -0.0019406226 -0.16888063
000240 2a 54 90 bb 55 94 b8 bd 54 15 34 3d ad c0 ac 3c
       -0.0044045644 -0.09012667 0.043965653 0.021087969
000250 a7 b1 7e 3d 40 80 a5 3d 3a 85 ab 3d 0b f4 80 3d
       0.06218114 0.08081102 0.0837502 0.062965475
000260 96 f7 fe bc de c1 19 3e f9 78 7f bc a0 3d 7d 3b
       -0.031123918 0.1501536 -0.015592807 0.0038641468
000270 ad bb 02 3d 0b 51 b8 bd d5 cb 90 bc 37 d4 8d bd
       0.031917263 -0.08999833 -0.01767532 -0.069252424
000280 c0 4e 6a 3e 76 a5 21 be c5 9b 80 bb 39 20 20 bd
       0.22881603 -0.15785775 -0.003924819 -0.03909323
000290 f9 af e2 3c ba 62 4b be b2 8f f1 3c d9 81 0b be
       0.0276718 -0.1986188 0.029487465 -0.13623752
0002a0 b2 22 8f 3d 8e 3c a3 bc 2f 52 df 3c 97 0a 93 3d
       0.069890395 -0.019926336 0.027260868 0.07179754
0002b0 a6 7d dd bd d9 6e 75 3d bf c1 77 bc 2e 9e b5 3c
       -0.10814981 0.059920166 -0.015121876 0.022170153
0002c0 7a e4 b4 bd 69 02 2f 3e 1b 65 f8 3d a6 c8 0d 3d
       -0.08832641 0.17090763 0.12128659 0.03461518
0002d0 19 ab 4b bd 33 0e 99 bd 90 a0 05 be ce 10 0f 3e
       -0.04972372 -0.074734114 -0.13049531 0.13971254
0002e0 e1 40 20 3c af 62 ac 3d 1e 98 ab 3b 3a 48 f0 3d
       0.009781093 0.0841726 0.0052366396 0.11732526
0002f0 65 6e 25 bd 77 7b df bc 74 4d c5 3c a3 45 ff 3d
       -0.040388484 -0.027280552 0.024084784 0.12464454
000300 53 ad 66 3d 91 77 a0 3d a3 74 0c 3d 03 98 68 bc
       0.05631764 0.078353055 0.03429092 -0.014196399
000310 cc d0 c5 3c 78 a3 82 bc ce 9f ab 3d 72 00 bf 3a
       0.024147414 -0.015947089 0.0838009 0.0014572276
000320 e4 a1 62 3d 5d 3d 50 3c 4d 2d d8 bd ee e7 c9 bc
       0.055330172 0.012709943 -0.105555154 -0.024646726
000330 4f 2f 57 bb 99 26 79 bd 38 4a 5e 3c 57 f8 8a 3d
       -0.0032834595 -0.060827825 0.0135675 0.06785648
000340 5a dc b7 3d df ea 75 bd 32 f8 22 3b 77 7e 28 be
       0.089775756 -0.060038444 0.0024867174 -0.16454493
000350 ee 4a 85 3d 52 13 e3 bd 81 65 65 3d 5b 79 02 be
       0.06508432 -0.110876694 0.056005005 -0.12741606
000360 18 e0 37 3c 21 89 1c be fd 4d a7 3d 2e 7f c9 bd
       0.011222862 -0.15286686 0.08169172 -0.09838711
000370 96 4f 8c 3d 6a bb 5c bd f3 44 67 3c 04 26 b2 3d
       0.06851117 -0.05388967 0.01411556 0.08698657
000380 9c 9f 81 3d 1e 4d b1 bd aa 50 df 3d 22 12 85 bd
       0.06329271 -0.08657287 0.10904057 -0.06497599
000390 82 50 95 3d a7 a6 ad bd dc d1 2a 3e 4e f4 01 be
       0.07290746 -0.08479052 0.16681617 -0.12690851
0003a0 70 05 db 3c 01 fe ae bb 0a 3e 9a bd 53 71 35 3c
       0.026735991 -0.005340338 -0.07531364 0.011074382
0003b0 d6 f0 a3 bd f8 42 81 3d 18 81 f5 bc 62 bc 5c bd
       -0.0800492 0.063116014 -0.029968783 -0.053890593
0003c0 4b ee 8a 3d e5 ac b9 bc 13 3c 05 3d a6 a3 2d be
       0.06783732 -0.02266545 0.032527994 -0.16956958
0003d0 49 4f a8 3c 29 97 60 3e 64 bc ca bd c6 75 15 be
       0.020545619 0.21932663 -0.09899214 -0.14595708
0003e0 2f fa f1 3d 42 82 09 3d d8 1d 71 bc c2 ef 01 be
       0.11815297 0.03357149 -0.014716588 -0.12689117
0003f0 37 c0 07 be 33 ed 3f bd 80 71 06 3e 3d 98 9b bd
       -0.13256918 -0.04685707 0.13129234 -0.075973965

actor.2.bias f4 [128]
000000 5d 56 25 bd a6 ea b4 3c 6b ca 28 bd cc ef 2f bd
       -0.040365566 0.022084545 -0.041208666 -0.042953297
000010 9e ad 02 bd 11 7b 2d 3d 49 d9 1e bc 6a ef fe bc
       -0.031903856 0.042353693 -0.0096953595 -0.03112002
000020 b1 fe 58 bb da c5 2a 3d 66 14 b5 39 40 25 1e 3d
       -0.0033110792 0.041692592 0.00034538208 0.038609743
000030 b5 b9 8d bd 34 eb 79 bd d1 b5 4e 3b eb f4 80 bd
       -0.069201864 -0.061015323 0.0031541476 -0.062967144
000040 9e 80 04 3b b7 35 20 bd 80 83 ca bc 4e da 37 3c
       0.0020218263 -0.039113726 -0.024720907 0.0112214815
000050 56 ae e6 3c d0 4e 2e bd bf a8 85 bd 18 e8 c1 3c
       0.028159302 -0.04255563 -0.065263264 0.023670241
000060 4c 29 01 bd d0 d6 15 bd ad 8c 6a 39 33 b8 0c 3d
       -0.031533524 -0.036581814 0.00022368385 0.034355354
000070 a9 9c 04 bd 93 3d 36 3c 59 b5 dd 3c bd 0c 21 3d
       -0.032375965 0.011123079 0.027064012 0.03931879
000080 4f 8b db b8 61 f0 80 bd 2d 63 3d 3d 02 31 71 3b
       -0.00010468682 -0.06295849 0.04623716 0.0036802893
000090 4e 11 2d bc e6 5d 2f 3d f0 a9 1e bb 78 d2 1d bd
       -0.010563208 0.042814158 -0.0024210177 -0.038530797
0000a0 f5 e6 0f 3c d4 54 fa 3a 17 3a 1b bd 44 4e 78 bc
       0.008783092 0.0019098767 -0.037897196 -0.015155379
0000b0 3e ed b8 ba 0e 98 4e bd 0b 8f dc 3c a8 79 85 bd
       -0.001410879 -0.05043798 0.026923677 -0.06517345
0000c0 4a 6d b3 bc 2d 30 1c 3d 1d bb 7b bd 53 f2 9d bc
       -0.021902699 0.03813188 -0.061457742 -0.019280588
0000d0 81 69 07 bd f3 9e 8f bc 0a af a7 3c 51 f8 43 3d
       -0.0330596 -0.017531848 0.020469207 0.047844235
0000e0 bd 42 26 bd 09 c1 42 3d 1a 3b cf bc e1 be 6b bc
       -0.04059099 0.047547374 -0.025296737 -0.014388771
0000f0 3b 51 26 3d 82 0c 88 bb 45 71 ec 3c 28 26 00 3d
       0.04060481 -0.0041518817 0.028862605 0.03128639
000100 a8 b3 90 3c 02 2e 2b 3d 9e 45 76 bc 48 dc a0 3b
       0.017663792 0.041791923 -0.0150312465 0.004909072
000110 6b 57 56 3d 62 86 93 bc 60 01 0e 3d da 66 a0 bc
       0.052329462 -0.018008415 0.03466928 -0.019580293
000120 5e 87 25 3c 2a 4c 85 bc 13 f1 8f bd 9b c0 eb 3c
       0.010103075 -0.01627167 -0.07028403 0.028778365
000130 c5 ef aa bb 3a 4a c6 3c 3f 3c 90 bc 68 e8 34 bc
       -0.005216571 0.024205316 -0.017606853 -0.011041738
000140 de 56 8c 3a 0f cd 8a bd ce 59 af 3c ec 7b f5 bb
       0.0010707041 -0.06777393 0.021405127 -0.0074915793
000150 52 b8 47 bd bb c1 87 3d 91 6a 82 3d 8b c4 82 bd
       -0.048759766 0.06628748 0.06367982 -0.06385144
000160 0a 08 4e 3d ba 1f 0e bd a4 07 90 bd 82 32 ca bc
       0.050300635 -0.034698226 -0.07032707 -0.024682287
000170 6e 4d 6c bd 6b 82 36 bd 4e 17 07 3d 92 7f dc 3c
       -0.05769103 -0.04455797 0.03298121 0.026916299
000180 e6 41 3d bd e3 e4 28 3c 93 fe 6e bb f5 ff d6 3c
       -0.046205424 0.010308477 -0.0036467656 0.026245097
000190 f3 21 c2 3c 1c f8 8c 3c b5 a1 54 bd d1 19 65 bd
       0.023697829 0.017208152 -0.05191203 -0.055932824
0001a0 33 8c 7c bd 36 88 45 bc 8b c2 51 3d 77 a1 86 bb
       -0.061657142 -0.012056401 0.05121092 -0.0041086036
0001b0 4a f5 16 bd 40 5e 41 bd 9b 6b 20 3c a5 7e d7 bc
       -0.03685502 -0.047209024 0.00979128 -0.026305506
0001c0 07 90 c7 bc 57 cc 35 bd 02 f6 f1 3c ca cd ef 3c
       -0.02436067 -0.044384327 0.029536251 0.029272933
0001d0 f5 21 73 bc 11 d6 17 3b 2e 72 59 3d f7 2f 09 bd
       -0.014839639 0.0023168365 0.053087406 -0.03349301
0001e0 2f 34 69 bd 72 9f c9 bc 76 f4 f6 bc 33 e0 78 bd
       -0.05693453 -0.024612162 -0.030145865 -0.060760688
0001f0 97 b3 4a bd 42 c3 f0 bc 75 ac d6 bb f1 24 d1 3b
       -0.049487676 -0.029389981 -0.00655132 0.0063825776

actor.4.weight f4 [64, 128]
000000 92 3e 7d bd 2e 88 35 bc 9e cd da 3d 69 d0 cf bd
       -0.06182725 -0.011079831 0.106837496 -0.10147173
000010 c2 8f da bd 11 49 ed bc f7 c2 ac 3d 42 6e 84 be
       -0.10671951 -0.028965505 0.08435624 -0.2586537
000020 85 ec 2c 3d c6 ee 81 be 44 69 06 3e b2 8f 36 3e
       0.04221775 -0.25377482 0.13126093 0.17828253
000030 9b 56 b1 bd e6 e3 26 3d 72 3d ce 3c e0 51 bd bd
       -0.08659097 0.040744685 0.025175784 -0.09244132
000040 5a 3f 23 3e 2b 57 75 bd a8 e3 43 3e 6c c7 ab bd
       0.15942135 -0.059897583 0.19129813 -0.08387646
000050 86 d9 4c bd a6 b4 05 3b 57 35 0f 3e d0 a2 c9 3a
       -0.050012134 0.0020401864 0.13985191 0.0015383605
000060 ab 67 e1 bd a5 ff 52 3d ca ae 9f 3d f3 77 49 be
       -0.11006101 0.051513333 0.0779701 -0.19674663
000070 32 dc 56 3d ca 5e 73 bd 9c c4 16 3d d6 3b 04 3e
       0.05245609 -0.05941657 0.036808595 0.1291345
000080 62 51 90 bc 04 7c 96 3e 3b cb 55 bd 20 cb 20 3d
       -0.017616931 0.2939149 -0.05219577 0.039256215
000090 84 78 de 3c 99 b8 82 3c 46 24 88 bc 63 c2 c4 bd
       0.027157076 0.015957164 -0.016618859 -0.09607389
0000a0 74 74 c1 bc 14 6f ac bc 73 af 46 be 4b 5c 3f be
       -0.0236151 -0.02104906 -0.19402866 -0.1868755
0000b0 0a 10 71 3a e4 11 bd 3d d5 cb 22 3d ff 66 8d bd
       0.00091958104 0.09231928 0.03974517 -0.069044106
0000c0 ff 83 6b bd 4f ca a2 3d 4c 77 dc 3d 95 72 a1 3d
       -0.05749893 0.079487436 0.107649416 0.07883183
0000d0 8f 8b a1 3e 07 66 04 be b7 24 d6 3a 4b 2f 28 bd
       0.31551787 -0.12929545 0.0016337846 -0.041060727
0000e0 29 e8 2c 3e 31 22 8b be aa 5b 20 3d be be 89 bd
       0.16885437 -0.27174523 0.039149918 -0.06725834
0000f0 18 ea c7 bc 5e 86 97 3b d3 82 53 3e 45 7a d8 3d
       -0.024403617 0.004624172 0.20655374 0.10570196
000100 92 38 91 3e 90 ea 78 3c 89 dc b7 be 39 2d cb 3d
       0.28363472 0.015192643 -0.35910442 0.09920735
000110 2e 88 e7 bd 49 b9 92 bd bf 38 87 bd 0d 0c 05 3e
       -0.11305271 -0.071642466 -0.0660262 0.12992878
000120 de e5 6e 3e 65 18 a0 3e e3 b2 68 3e 71 2d 69 3d
       0.23329875 0.31268612 0.2272449 0.056928102
000130 a1 a8 02 be b7 24 c1 3c 8a 1e 2d 3e b2 32 0e be
       -0.1275964 0.023577077 0.16906181 -0.13886526
000140 14 9a ee bd 54 28 b6 3c 67 dc d9 3d 0d 8b b3 3b
       -0.11650482 0.022236027 0.106377415 0.0054792226
000150 d4 bb 70 be 0e c0 ff bd 79 f1 bd bd f7 26 a5 bd
       -0.2350915 -0.124878034 -0.09274573 -0.080640726
000160 97 56 1b 3e b0 b6 6c be f3 42 29 bd 92 88 c7 bd
       0.1516975 -0.23116565 -0.041323613 -0.097428456
000170 14 c2 ef bb 91 dc 91 3d c2 c9 5b 3d 7f ed a3 bc
       -0.007316837 0.07122148 0.053659208 -0.020010708
000180 d3 5a c9 3c dc 28 c0 bd ed 9b 3a 3d c0 b1 c6 bd
       0.024579441 -0.09382793 0.04555886 -0.09701872
000190 5a f8 36 3c 20 76 84 bd 52 cb 3f bb 15 b2 80 3d
       0.01116761 -0.06467843 -0.0029265475 0.062839665
0001a0 1f 4d 7e bd d4 b2 bc bd 52 9d 5c bd cd f3 06 bd
       -0.062085267 -0.09213796 -0.05386097 -0.03294735
0001b0 b4 94 40 3d 41 f0 0b 3e c9 c8 1e 3e 4f aa f3 3d
       0.047016814 0.13665868 0.15506281 0.11897718
0001c0 d4 d4 05 3e 8c f8 da 3d 1d 5f 50 be 2d 0b b8 3d
       0.13069469 0.10691938 -0.20348783 0.089865066
0001d0 cf 52 67 3d 13 c4 e6 bc 26 4e 01 be 6c 8c 2a be
       0.056475457 -0.028169667 -0.12627468 -0.16655129
0001e0 c1 57 5c be 0e 2a 2b 3e 75 0c e1 bd d3 f6 85 3c
       -0.2151785 0.16715261 -0.10988704 0.016353047
0001f0 3c b5 1d 3e 5b 93 35 3e 3b e0 83 bc 29 97 9c 3d
       0.15401167 0.17731993 -0.016098132 0.07646019
000200 12 7f 40 3d 75 94 07 bd 9e b4 38 3e c0 ca 03 3d
       0.046996184 -0.033100564 0.1803765 0.03217578
000210 1e ff 88 3c a4 ef 24 be a0 c8 3b be 09 f7 c8 bd
       0.016723212 -0.1610704 -0.18338251 -0.09812743
000220 09 00 32 3e 4f 45 db 3d a5 6d ed 3d 8c 7f e9 bd
       0.17382826 0.10706579 0.11593179 -0.11401281
000230 11 9e 21 3e 8d 2f 2c 3e 7c fb b7 bd e0 d6 d7 bd
       0.15782954 0.16815014 -0.08983514 -0.10539031
000240 38 d1 ad 3e 83 c8 34 3e bc aa ab 3d cc 65 3a be
       0.33948684 0.17654614 0.083821744 -0.18202895
000250 3d ad 01 bd 5e 75 5b 3d 3f 61 c3 bd a2 09 93 be
       -0.031659354 0.053578727 -0.095400326 -0.28718287
000260 83 1b a5 3b ce 7b b4 3c 8f ff bd bc e5 6d 9e 3c
       0.00503868 0.02203169 -0.023193149 0.019339511
000270 f4 c3 8e 3d e2 81 c4 3d ae bc 39 be 62 d2 d7 bc
       0.06970969 0.09595086 -0.18138382 -0.026345436
000280 35 7b 87 3d f7 bf 3c 3e 90 28 81 3d c2 cc b9 3d
       0.06615297 0.18432604 0.06306565 0.090722576
000290 de 2f 7b 3d 7e 89 20 3d b2 28 1e 3e c9 64 3e 3e
       0.061324947 0.039193623 0.15445212 0.18593134
0002a0 ec ae 1b be 76 e6 50 be a1 dd 7a 3b c9 96 cd 3d
       -0.15203446 -0.20400414 0.0038279074 0.100385256
0002b0 68 bc 58 3e 63 42 92 bc 3f 7b 11 be 20 dc 77 3c
       0.21165621 -0.017853921 -0.14207171 0.0151281655
0002c0 57 9f 23 3e 93 01 00 3e 71 2d b6 bd e5 30 03 be
       0.15978752 0.125006 -0.08895386 -0.1281162
0002d0 50 15 7b 3a 52 f1 36 be 86 84 53 bd 4e 35 47 3d
       0.0009578066 -0.17865494 -0.051640056 0.04863482
0002e0 0f 45 c6 bc 8d f7 4c 3d 63 7e ad bd 99 80 2e 3e
       -0.024202852 0.05004077 -0.08471372 0.17041244
0002f0 e1 6d cb 3c 67 8a 26 be 82 12 82 be 15 23 2d bd
       0.024832668 -0.16263734 -0.25404745 -0.042269785
000300 83 89 92 bc e1 03 92 bd 57 db 3d 3e 0c 98 e9 3c
       -0.017887836 -0.07129646 0.18540703 0.028514884
000310 2d a7 29 bd 44 51 1c be 25 5f 04 be 32 5d f0 3d
       -0.041419197 -0.15265375 -0.1292692 0.117365256
000320 aa 47 df bd 37 20 c3 3d 82 1b 17 be 4c 6f 8d be
       -0.10902341 0.09527629 -0.14756587 -0.27623975
000330 46 26 99 3d 42 73 c5 bd 81 05 c9 3d a3 b4 92 3c
       0.07478003 -0.09641124 0.09815503 0.0179084
000340 73 e2 6b bd 74 4a 54 be 6f fd 69 3d ff 1d 8d 3d
       -0.057589006 -0.20731527 0.05712646 0.06890487
000350 61 af 7b bd 04 c0 60 be 85 a8 9c bd 1b 82 a0 3e
       -0.06144655 -0.21948248 -0.0764933 0.31349263
000360 45 97 a6 3d c7 72 86 bc c1 ec e5 bc 9f ed 80 bd
       0.08134321 -0.016412152 -0.028066995 -0.062953226
000370 c2 c2 7f bc d4 01 2c bd 61 56 9b bd 74 50 64 3b
       -0.015610399 -0.04199393 -0.07584835 0.0034837993
000380 09 e4 02 3d c1 63 b8 3d 4e 2f 00 3d 61 fc 3a be
       0.031955753 0.090034015 0.031295113 -0.18260337
000390 65 d4 e5 bc a6 74 70 be 61 f7 c3 3d 00 d8 44 3e
       -0.02805538 -0.23481998 0.09568668 0.19223022
0003a0 a6 b1 2b be 44 81 d2 3d ca 52 b1 bd 23 b9 a7 bd
       -0.16766986 0.10278562 -0.08658369 -0.08189609
0003b0 0d 09 bf 3d b7 8d f8 bd f1 31 62 bc f9 ff af 3d
       0.09327898 -0.12136405 -0.013805852 0.08593745
0003c0 b5 67 14 3d aa 62 fe 3d 73 f5 82 3d 73 ca 06 3e
       0.036231715 0.124211624 0.06394472 0.13163166
0003d0 da db 16 be bf 09 d9 bd 13 fb d1 bd 7b 67 e3 bc
       -0.14732304 -0.10597562 -0.10252967 -0.027759304
0003e0 7e cd 99 bc f3 7b 17 be 14 58 1e bd da d0 49 3e
       -0.018774744 -0.14793377 -0.038658217 0.19708577
0003f0 29 5b ce 3c 4a d3 2f be 82 71 45 be f6 64 3d 3d
       0.025189953 -0.17170444 -0.19281581 0.046238862

actor.4.bias f4 [64]
000000 5d 56 69 bb ab 6b 40 3b f6 d3 94 bd 63 f7 03 bc
       -0.0035604455 0.002936105 -0.07266991 -0.008054587
000010 e0 80 c8 bd 15 49 0a 3d 8c f9 12 3d 8b 32 5e 3d
       -0.09790206 0.033761103 0.035882518 0.05424742
000020 f3 ea be bd ae 7a 8d 3c 0e 52 42 3c 6c 2b 1c bd
       -0.09322157 0.017270412 0.011860384 -0.038127348
000030 55 97 1b 3d 2d 8b eb 3c 0f c1 03 bc f8 a2 93 3d
       0.03798612 0.028752888 -0.008041634 0.07208818
000040 b8 8f a1 3c b5 3c 9f bc 8f 28 a2 3c 35 10 32 bd
       0.01972185 -0.019438127 0.01979473 -0.043472487
000050 f9 e8 d1 3c cb 90 b0 bd ea 10 9a bc 94 fb 9c bc
       0.025623785 -0.08621367 -0.018806893 -0.01916293
000060 92 5d 86 3d 0b 36 92 3d 01 fb 69 3d 47 d3 d1 3a
       0.06560816 0.07139214 0.05712414 0.00160084
000070 a2 8c 87 3d 58 f8 67 3d 16 f0 85 bd 8f ed bf bd
       0.066186205 0.056633323 -0.065399334 -0.093714826
000080 34 03 ae bd 5f 44 75 3d 4d 81 f1 bc 62 16 4c bc
       -0.08496705 0.059879657 -0.0294806 -0.012456508
000090 4a 5c 58 3d c6 2e 01 bc a6 3b 02 3c 85 b7 5e 3d
       0.05282239 -0.007884687 0.007948792 0.054374237
0000a0 2e 2e d4 bc 8e 88 23 bd 1e 56 92 bd 39 ac 32 bd
       -0.025900926 -0.03992515 -0.07145332 -0.043621276
0000b0 8b c7 1c bd 6d cf 34 bd bc 9e a2 3d 95 2a ca bd
       -0.038276237 -0.04414313 0.079404324 -0.09871403
0000c0 e1 41 6e bc 09 81 1d bd dc f2 ff 3c f3 d6 99 3d
       -0.014542074 -0.038453136 0.031243734 0.075117014
0000d0 d2 9d c7 bc 19 fb d1 bd 16 23 72 3d df 4f fc 3c
       -0.024367247 -0.10252971 0.05911549 0.030799804
0000e0 16 ca 5e 3d cc 84 66 bd 23 57 67 bc fb b8 86 bd
       0.054391943 -0.05627899 -0.014119896 -0.06578251
0000f0 99 30 a3 bd fd 79 79 3d bf 23 f0 3c 43 da 80 bd
       -0.07968254 0.060907353 0.02931392 -0.0629163

actor.6.weight f4 [3, 64]
000000 57 1a e8 3a 66 38 4d bb 04 77 bf 3b 9b 14 1b 3b
       0.0017708045 -0.0031314134 0.005843045 0.0023663405
000010 d5 c4 24 3a 55 83 23 3c d4 37 04 3c a7 be 1c 3c
       0.0006285434 0.009980042 0.008069951 0.009566939
000020 62 2c 1b ba b6 8d 55 ba 86 19 f7 bb 8e 61 00 ba
       -0.00059193943 -0.0008146422 -0.0075408844 -0.0004897349
000030 e7 aa 07 3b ac 92 b8 ba 7b d9 6a 3b 86 7f ee bb
       0.002070123 -0.0014081798 0.0035835195 -0.0072783856
000040 ac 12 8c bc b5 05 36 ba af 10 af bb 8f 2b d4 bb
       -0.017098747 -0.00069435994 -0.005342565 -0.006474919
000050 52 f9 34 39 ce 1a 09 3b 7f e0 35 3b cd 6d 33 3c
       0.00017259017 0.0020920518 0.0027752218 0.0109514715
000060 fa b4 1f 3c 82 99 a2 3a e1 c0 5b 39 a8 1e 66 bc
       0.009747738 0.0012405368 0.0002095732 -0.014045395
000070 a6 ef 90 bb 0a 8d 87 ba ea 15 13 b9 35 bb 0d 3c
       -0.0044230996 -0.0010341716 -0.00014027176 0.008650591
000080 f0 d5 88 3a c8 ce 86 bb 0d cf c3 bb 82 f4 05 3c
       0.0010439735 -0.0041140057 -0.00597561 0.008175971
000090 26 13 c8 b9 cc fd 08 ba f1 e6 c8 3b f4 54 e3 3b
       -0.0003816124 -0.0005225807 0.006131046 0.0069376174
0000a0 69 2d e5 3b 7b 29 82 b9 53 f8 ab 39 bf 03 a2 39
       0.0069939387 -0.00024826438 0.00032800678 0.0003090184
0000b0 60 c0 0a 3c 29 ce 17 3b a7 12 aa 3c eb 48 79 39
       0.008468717 0.0023163653 0.020760847 0.00023773655
0000c0 c9 63 67 bb 85 5b 8a 3a 32 e7 a6 3a d2 ae 70 bc
       -0.003530728 0.0010555839 0.0012733696 -0.014690118
0000d0 9e 7b 6c ba 70 76 23 3a ef b9 53 3a 97 b4 d4 b9
       -0.0009021106 0.0006235605 0.00080767175 -0.0004057034
0000e0 cf fa 9c 3a 87 27 13 3c cc af f2 b9 73 2c 8e bc
       0.0011976602 0.008981592 -0.00046288816 -0.01735518
0000f0 14 e6 9b 3b dd 67 45 bb 5c 38 07 3b 18 31 35 3c
       0.004757652 -0.0030121722 0.0020632958 0.011059068
000100 7a 87 46 bb 06 69 9e b9 53 06 2c bc a2 ce dc ba
       -0.0030293153 -0.00030214357 -0.010499555 -0.0016846249
000110 8b e2 5d bb 19 61 3e bc 64 0d 0f bc 3c 64 13 bc
       -0.0033856954 -0.01161983 -0.00873122 -0.008996066
000120 15 e2 41 bb 92 b3 9d ba d9 af dc b9 5d c1 b7 bb
       -0.0029584218 -0.0012031666 -0.00042092687 -0.0056077675
000130 eb cb 86 bb 27 74 84 3b 3a 70 82 bc 86 7d 02 3c
       -0.0041136644 0.0040421668 -0.015922654 0.007964497
000140 85 01 94 bb ea 51 22 bb 2f c2 a5 ba 8e 62 bf 3b
       -0.0045167827 -0.0024768063 -0.0012646372 0.005840606
000150 d6 23 c3 bb e3 e1 21 bb be 67 bd bb b7 a8 2f bc
       -0.0059551997 -0.002470129 -0.0057801893 -0.010721377
000160 91 84 d5 bb ed c2 a8 bb 55 72 65 bb 41 37 51 bb
       -0.0065160473 -0.00515019 -0.0035010774 -0.0031923803
000170 3d e4 b3 39 d1 01 24 bb a2 77 9e bb bd c3 03 bc
       0.0003431159 -0.0025025497 -0.0048360387 -0.008042273
000180 96 21 92 bb d3 c8 bf 3a 70 4d c5 39 db 24 49 bc
       -0.00445957 0.0014631994 0.00037632463 -0.012276853
000190 d9 97 48 bb 87 83 7b bb c2 84 26 bb 28 36 d9 bb
       -0.0030608086 -0.0038377957 -0.002540872 -0.0066287704
0001a0 0b 02 12 bc 50 cc 51 bb a5 19 9e bb 93 ef 49 bb
       -0.00891162 -0.003201265 -0.0048248344 -0.0030812963
0001b0 14 e5 25 bc 2c fa 8a bb 97 96 37 3c 86 9f b9 bb
       -0.010125417 -0.0042412486 0.011205337 -0.0056647686
0001c0 c7 78 96 bb ff 22 a0 bb 68 04 69 bb da 91 c7 bb
       -0.0045920345 -0.0048869844 -0.0035555605 -0.006090385
0001d0 8d b1 46 bb dc ab 86 bb 64 a2 2f bb 92 20 95 bb
       -0.003031823 -0.0041098427 -0.0026799673 -0.004551002
0001e0 3c 3e 92 bb 64 7f 45 bc 76 31 58 ba d7 15 8a bb
       -0.0044629853 -0.012054298 -0.00082471163 -0.0042140293
0001f0 a5 f1 4c bb b7 83 e0 ba e9 bf 86 bb 85 f1 32 bb
       -0.003127196 -0.0017129098 -0.004112233 -0.0027304601
000200 58 fd ff 3c 66 fe df bb 02 4d e5 3c 13 77 d2 3c
       0.031248733 -0.0068357466 0.027990822 0.025691545
000210 8e 49 cb 3c 66 5d 0c 3d 9c f1 b0 3c e6 e1 e2 3c
       0.024815347 0.03426876 0.021599583 0.027695607
000220 69 31 06 3d 55 5a c6 3c 86 69 95 3c 53 e5 d4 3c
       0.032761965 0.024212996 0.018238794 0.025988257
000230 11 2b 93 3c 49 b1 87 bc d5 05 b8 3c 3d e7 22 bd
       0.017964872 -0.016564028 0.022463718 -0.039771307
000240 f5 50 8a 3c ec 5e b6 3c 78 07 8b 3c 62 fa 07 bd
       0.016884306 0.02226206 0.016971335 -0.033197768
000250 dd 81 b4 3c bd d7 a9 3c ac b8 d7 3c d9 a7 ea 3c
       0.02203458 0.020732755 0.026333176 0.02864449
000260 e9 50 a1 3c 40 94 c9 3c 55 64 07 3d 74 b9 0e 3c
       0.019691901 0.024606824 0.03305467 0.008711208
000270 49 44 6c 3c 30 b3 08 3d e9 5e 11 3d 3a cc c3 3c
       0.014420577 0.03337401 0.035490904 0.023901094
000280 b2 bc cd 3c 02 2d 92 3c 96 27 99 bc 10 77 01 3d
       0.025114391 0.017843727 -0.018695634 0.031607687
000290 56 e2 c6 3c 41 7e d5 3c ed 5e 64 3c 19 49 b1 3c
       0.024277847 0.02606118 0.013938648 0.021641301
0002a0 7f 32 a7 3c 28 e9 0b 3d 6b 06 1a 3d 57 84 c0 3c
       0.02040982 0.034157902 0.037603777 0.023500605
0002b0 81 27 d0 3c 0e 9d 16 3d 87 82 bb bc cf 45 1e 3d
       0.025409462 0.036770873 -0.022889389 0.038640793
0002c0 5a 52 c4 3c 9a d8 0e 3d 9a a5 be 3c b7 9d 4f 3b
       0.02396505 0.034874536 0.023272324 0.0031679699
0002d0 0e b8 0e 3d f3 b7 05 3d 84 1f 07 3d a6 77 ce 3c
       0.034843497 0.03264613 0.03298904 0.025203537
0002e0 1e 52 b9 3c 03 7d 06 3d ef 7d b9 3c 2f cb 74 3c
       0.022622164 0.032834064 0.022643058 0.014941021
0002f0 a7 a7 9d 3c a3 9f 2a 3c 1a a5 1e 3d 1f ef 2a bc
       0.019244982 0.010414037 0.038731672 -0.0104329875

actor.6.bias f4 [3]
000000 68 17 e8 bc 74 87 86 3d cd ab 80 3d
       -0.028331473 0.065688044 0.062827684

critic.0.weight f4 [256, 259]
000000 89 92 8a 3d 03 e3 cd 3d 9d 17 68 bc 7f 87 39 bc
       0.067662306 0.10053065 -0.014165786 -0.011323809
000010 bf 3a 06 bf 81 2d c4 bd 9f 56 91 3d e6 df 5a bd
       -0.5243339 -0.09578992 0.070966 -0.053436182
000020 d3 97 12 3d b1 fc 4b 3b 20 63 2d 3d 63 b7 96 bd
       0.035789322 0.0031125958 0.04233086 -0.07359197
000030 58 a5 b2 3d c4 0e 03 3e 1e 0c fc 3d 77 2d 68 bd
       0.08722943 0.12798601 0.12306999 -0.056683984
000040 ac b9 1f 3e 1e 1e 9d bd c1 3f d6 bd 71 5b 99 bd
       0.15598172 -0.0767176 -0.10461379 -0.07488144
000050 8b 9d d6 3d 96 fc df bd 88 e2 a8 bf b4 e6 f2 3d
       0.10479268 -0.10936849 -1.3194132 0.118604094
000060 58 45 e8 bd 78 27 dd 3d 02 25 22 3d 37 d4 70 bd
       -0.11341351 0.10798544 0.039586075 -0.058796134
000070 a6 53 92 3e 13 7b bb 3e 16 a8 a0 3d bd 02 81 3d
       0.28579444 0.36617336 0.0784456 0.062993504
000080 1f 0b 8e 3b b4 5a fa 3d f9 28 e9 bd a4 1f 14 bd
       0.004334822 0.122243315 -0.11384768 -0.036162987
000090 3b ab 37 3c 22 38 a0 3d 47 bb 96 bd 0c 28 45 3d
       0.011210258 0.078232065 -0.07359939 0.048133895
0000a0 27 ef 38 3d a9 44 32 bc 5e 2e 10 bd 65 fc c4 3d
       0.04514995 -0.010880628 -0.03520047 0.09618453
0000b0 a1 d3 29 bc 40 72 5c 3e 05 41 8a bd 69 54 17 3e
       -0.010365398 0.21527958 -0.06750683 0.14778294
0000c0 c0 b4 34 be 95 94 6f 3e 31 a2 81 bd 56 4c ca 3c
       -0.17647076 0.23396523 -0.06329764 0.024694603
0000d0 aa 7d 53 3d ce e5 31 bf b5 10 0f 3b 73 ec 82 3d
       0.051633514 -0.6949128 0.0021830027 0.06392755
0000e0 c8 ec 3c bd b6 b0 31 3c b5 f7 39 3e 87 93 07 bc
       -0.04612425 0.010845354 0.18160899 -0.008274919
0000f0 b1 95 99 3d d1 f1 a9 3d ec b9 9b bb f6 12 5b 3d
       0.074992545 0.08298076 -0.004752388 0.05348488
000100 ba e2 21 bd ec 2c bf bc 25 04 fb 3d 7e 43 27 3d
       -0.039522864 -0.02333685 0.1225665 0.04083585
000110 f1 ab 2b bd 0e 70 e8 3d 17 00 ce bd 94 4c 97 3d
       -0.041912023 0.11349498 -0.10058611 0.07387653
000120 76 f2 18 be 65 23 88 bd 52 5a 02 3e 5f aa 2b be
       -0.14936242 -0.06647376 0.12729767 -0.1676421
000130 3f 60 58 3d 96 ae ba bc 5c 0e 9d 3d 06 d5 42 3e
       0.052826162 -0.022788327 0.076687545 0.19026574
000140 33 7f 0b bc 02 50 15 3e 10 91 a4 3d dd 6e 0c bd
       -0.008514213 0.14581302 0.08035481 -0.034285415
000150 d0 23 ea 3d e5 4a 38 bf ff 57 b2 bc 20 dd 03 be
       0.11432612 -0.7198928 -0.021770475 -0.12877321
000160 f9 d6 e8 bc 35 46 6d bd 4a 9f 25 3e 79 2c e0 3d
       -0.02842282 -0.057928283 0.16174045 0.109459825
000170 66 a2 3d 3d 38 55 c0 bd 84 2c c6 bd ca 8b 80 3d
       0.046297453 -0.09391254 -0.096764594 0.06276663
000180 a4 2f 4e 3a 17 43 0a bd 6c 6a 2d 3d 4d 13 9a 3d
       0.00078653754 -0.033755388 0.04233782 0.075232126
000190 6f cc 5f bd e8 7e 03 3e ff 3d dc bc ee 2b 2f 3d
       -0.054638322 0.1284138 -0.02688503 0.042766504
0001a0 41 a9 e8 3c 62 0b aa 3d 6f 20 38 be e2 cb 94 3d
       0.028401019 0.08302952 -0.17981122 0.0726545
0001b0 33 bd e8 3d 04 6f 64 3c 42 35 9d 3d 58 6e 0f be
       0.11364212 0.013942484 0.07676174 -0.14006937
0001c0 5b 71 10 bd d9 84 f7 bc c6 66 34 bd 09 59 d1 bb
       -0.035264354 -0.030214714 -0.044043325 -0.0063887876
0001d0 ba 03 8b bc 1d 8b be bd 4c d8 c9 3c d1 fa 9b bd
       -0.01696955 -0.093038775 0.024639271 -0.07616199
0001e0 84 85 4a bc 76 cc 10 bd 79 25 d9 3c 28 24 c3 3d
       -0.012360934 -0.03535124 0.026507126 0.09528381
0001f0 bd db 44 3d 8d f1 51 3e 6a 7e d6 bc 1e 09 53 3d
       0.04806112 0.205023 -0.026183326 0.051522367
000200 32 da 0d be 1b 69 96 3d 87 f3 90 3d 14 ec ee bc
       -0.13852766 0.07344266 0.07077699 -0.029165305
000210 fa c6 91 3d 1d d3 ca bc cc 68 d6 bc 32 0a 8c 3d
       0.0711803 -0.02475887 -0.026173018 0.06837882
000220 54 34 4d bd 9d ab ea bd 52 82 8b 3c ad f4 66 3e
       -0.050098732 -0.11458514 0.017029915 0.22554274
000230 e1 fd 03 3e 40 32 c1 3d 25 cb 66 bd 10 48 ea 3d
       0.12889816 0.094334126 -0.056346077 0.11439526
000240 88 0f b0 bd ad 9f b8 bd 1f ff 5a 3d 46 4d 85 bc
       -0.08596712 -0.09014831 0.05346596 -0.016272198
000250 fe ca 32 3e 73 5f 58 3d 06 6c a6 bd c0 5e 32 3d
       0.17460248 0.052825402 -0.081260726 0.043547392
000260 cd 71 61 bb 18 f3 12 be 5f dd a5 bc 05 2d d6 3e
       -0.0034400106 -0.14350545 -0.02024716 0.41831222
000270 e4 38 e4 bc 45 28 21 3e 31 b7 99 3d 0a 93 16 bc
       -0.027859159 0.15738018 0.07505644 -0.00919033
000280 81 54 f8 bd 7d 91 bf bd 73 50 2a 3e c8 16 d9 bc
       -0.12125493 -0.093539216 0.16632251 -0.02650012
000290 b3 52 a1 3c 73 8c 95 bb 15 d2 87 bd f5 b3 a5 3d
       0.019692754 -0.004563862 -0.06631867 0.08090965
0002a0 e7 e0 15 bd 0b 57 35 3d 22 da 29 bd 20 6e aa 3d
       -0.036591437 0.044272464 -0.041467793 0.08321786
0002b0 90 18 36 3e 4c f3 da 3c 20 0e 60 bd 54 16 d9 3d
       0.17782807 0.026727341 -0.05470097 0.10599962
0002c0 c5 e3 00 be 8e 0e dd 3d 45 90 de bd 88 61 fb 3b
       -0.12586887 0.10793792 -0.10867361 0.0076715387
0002d0 58 fd d0 b9 2b 4a cc 3d f1 34 19 bd 5a ef 03 bd
       -0.00039861607 0.09975084 -0.037404004 -0.032210685
0002e0 2f 23 19 3d fc df 3d 3e f5 1b e7 be f3 57 9c bc
       0.03738707 0.18542475 -0.45138517 -0.019084906
0002f0 e4 5f 27 bd c9 c7 44 3d 46 f9 ad bd 79 3b 44 bd
       -0.040862933 0.048042092 -0.08494811 -0.04790828
000300 58 d7 41 3e d9 ec 10 bc 13 06 3d bd 10 09 84 bd
       0.18929803 -0.008845531 -0.04614837 -0.06447041
000310 94 af b2 3d 15 14 73 bc 09 4c ab bd af 35 59 bc
       0.08724895 -0.014836331 -0.08364112 -0.013257428
000320 3a 46 ee 3d ae 6d f4 3d 2e c8 80 bc 44 40 a1 3d
       0.116344884 0.11934982 -0.015720453 0.07873586
000330 90 df 62 bc 5b 80 85 3a 6d 95 64 bd c4 30 50 3e
       -0.013847247 0.0010185348 -0.055806566 0.20331103
000340 9e b5 af bd 0a 18 28 bb 31 33 83 bc dd cf 1f 3e
       -0.085795626 -0.0025649094 -0.01601562 0.15606637
000350 9a af f8 3c 4a d3 57 3d 93 0b 49 3c 57 26 89 3c
       0.03035717 0.052691735 0.012270826 0.016741915
000360 a4 fe 37 3d 3c f7 d3 bd 40 63 81 bd c1 03 bd bd
       0.04492058 -0.103498906 -0.063177586 -0.092292316
000370 43 eb a7 bd b3 74 c4 bd cd a5 ca bd 83 b7 23 3c
       -0.081991695 -0.09592571 -0.09894905 0.009992483
000380 f2 5b a6 3d 37 18 c3 bd d7 48 1a bf 1a 2e b0 bc
       0.08123006 -0.09526103 -0.60267395 -0.021506358
000390 11 a6 de 3d 9c 63 3e 3e 0d e8 1c 3d c7 e3 0c be
       0.108715184 0.18592685 0.03830724 -0.13758765
0003a0 5a c3 52 3d 9d ee d9 bd 32 76 ef 3c ec 11 a6 bc
       0.051455833 -0.10641215 0.029231165 -0.020272218
0003b0 2c 01 dc bd d0 ce 16 be bf 47 8f bd 88 aa e1 3d
       -0.10742411 -0.1472733 -0.06996106 0.110188544
0003c0 cf fd 1a bd 44 6a 0e 3e b6 bf 25 3e be ab 3d 3e
       -0.037839707 0.13907725 0.16186413 0.18522546
0003d0 62 1b 89 bd 18 d5 9e bd 52 73 a0 bc ba 9e 91 3d
       -0.06694676 -0.07755488 -0.019586239 0.07110353
0003e0 c9 10 36 3d f2 2c 2f 3d 4a bb cd 3d 86 c2 41 3d
       0.0444496 0.042767473 0.10045488 0.047304653
0003f0 03 1c 88 3d b2 b8 aa 3d b0 cc 84 3b d0 0d 28 bc
       0.06645968 0.08336009 0.004052721 -0.010257199
