rlgpu/logs/cut_407/model_225.pt (torch, 868312 bytes, 16 tensors)

log_std f4 [3]
-0.6109189 -0.33700675 -0.114343695
00000000: 2e65 1cbf 268c acbe 072d eabd

actor.0.weight f4 [256, 259]
0.036418222 0.044979393 0.05510165 -0.026388286 -0.065004945 0.07052587 0.05401453 -0.07516963
0.030905848 0.03235621 0.018693084 -0.08671198 0.07003572 -0.098577075 -0.02383633 -0.08715988
-0.028776689 -0.034061257 -0.15597667 0.033374988 0.0606014 -0.08055067 -0.09682483 0.016583491
0.10504909 0.0020790354 0.07035208 -0.013655452 -0.004437925 -0.050539732 0.010259663 -0.08751848
0.0272308 0.10658446 0.088472776 -0.03764568 0.05428279 -0.010716212 -0.05635203 0.009702288
-0.01425882 -0.026053805 0.1721039 0.15205364 -0.1039981 0.15462507 0.079438485 -0.078700945
0.01919905 -0.075810485 -0.035058793 -0.14033031 -0.041157916 0.09662591 -0.06344703 0.056664646
0.21778534 0.088674836 0.011785573 -0.15635365 0.0166922 -0.042067952 -0.0059910626 0.0117813945
-0.049682867 0.031327095 -0.09748042 0.07774348 -0.026203422 -0.039389346 -0.078629695 0.07176348
-0.0842452 -0.024234632 -0.024965616 -0.043693535 -0.25613365 -0.012274335 0.034672026 -0.016510911
0.03907665 0.12898332 -0.09961189 0.0076276595 -0.054326475 0.13545188 -0.06624738 -0.1306755
-0.092731506 -0.10883728 0.069239154 0.06113608 0.009034816 0.034289133 0.1705973 0.12274866
-0.03156782 -0.07131114 -0.020106804 0.08651132 0.067182176 -0.09162094 -0.014343053 -0.010593754
0.10643335 -0.050040677 -0.050181337 0.10266716 -0.005548237 0.20450318 -0.032475986 0.11752068
0.02467487 -0.047249235 -0.11342895 -0.104644954 -0.056020245 0.1023968 -0.07859403 -0.01502604
-0.073153 0.15434498 -0.09912651 0.008998033 0.04683039 0.11009792 0.016381403 -0.04757523
0.05674086 0.108338505 0.06878166 0.06546129 -0.07083545 -0.05915387 -0.06652553 0.18831718
-0.06339695 -0.09399564 0.07116556 -0.099964105 0.036444556 -0.18782151 -0.016495401 -0.014731391
-0.09373756 0.009616544 0.13251567 -0.0057149073 -0.076547466 -0.081155084 -0.13275573 0.08451604
-0.16251732 0.019018307 -0.017882012 0.12523289 0.1560739 0.0646509 -0.049148645 0.12586299
0.12084556 0.044356342 -0.12469981 -0.08308036 -0.0036528541 0.04605752 -0.058542117 -0.028366264
-0.1910734 -0.062458955 0.06598411 -0.15807262 0.061918765 0.104672305 0.06449049 -0.043368965
0.12218925 -0.07113378 -0.087751694 -0.015321338 0.13544044 0.037103258 -0.085772984 0.024408817
-0.20027973 -0.022555484 0.045483783 -0.042445693 -0.11440789 -0.07682137 -0.15794598 -0.056091424
-0.025181986 -0.043260746 0.16449587 0.048218187 0.11998452 -0.022281924 -0.024317728 0.15445438
-0.036394157 -0.22820875 0.017110437 0.095154665 0.09008886 -0.036874603 0.09066423 -0.0223011
-0.09608251 -0.1923381 -0.052785154 0.050259776 -0.05328563 -0.08385597 -0.020955402 0.20586295
0.07297058 0.0429941 -0.06554169 0.081400156 0.06648957 -0.0096705835 -0.0031302522 -0.0064724265
-0.12540148 0.064859316 -0.042664457 -0.113388225 0.09545607 0.050982546 0.07473852 0.02738892
0.09712715 0.073501505 -0.0957856 0.024175473 -0.11391901 -0.16271795 0.032864135 -0.06415435
-0.024452707 -0.15464836 0.13656537 -0.011743867 0.10981161 0.07908342 0.0081047 0.018514803
0.15499067 -0.03178722 0.10195282 -0.0125398245 -0.091679424 0.08528979 -0.015395603 0.03977119
00000000: 462b 153d 503c 383d 45b2 613d 3f2c d8bc
00000010: 5021 85bd de6f 903d 573e 5d3d 89f2 99bd
00000020: 432e fd3c f287 043d 3d22 993c 0d96 b1bd
00000030: e36e 8f3d c7e2 c9bd 6844 c3bc e180 b2bd
00000040: 17bd ebbc d183 0bbd 59b8 1fbe 36b4 083d
00000050: 2c39 783d c0f7 a4bd 194c c6bd 1ada 873c
00000060: fa23 d73d 6d40 083b c014 903d 1ebb 5fbc
00000070: 036c 91bb c002 4fbd 2518 283c e43c b3bd
00000080: 2013 df3c f448 da3d 3731 b53d 5b32 1abd
00000090: a157 5e3d 0d93 2fbc 63d1 66bd 58f6 1e3c
000000a0: d39d 69bc ca6e d5bc 013c 303e f3b3 1b3e
000000b0: f5fc d4bd 0956 1e3e a5b0 a23d f62d a1bd
000000c0: 5347 9d3c 8742 9bbd cf99 0fbd c0b2 0fbe
000000d0: 3495 28bd cee3 c53d 84f0 81bd 3019 683d
000000e0: 1f03 5f3e 279b b53d 4718 413c 2c1b 20be
000000f0: 15be 883c 724f 2cbd ad50 c4bb c006 413c
00000100: 4380 4bbd d750 003d d0a3 c7bd f937 9f3d
00000110: 8fa8 d6bc b956 21bd 9b08 a1bd bbf8 923d
00000120: bf88 acbd b587 c6bc b184 ccbc fef7 32bd
00000130: f323 83be 4b1a 49bc 4104 0e3d e441 87bc
00000140: d60e 203d 3414 043e 5201 ccbd 72f1 f93b
00000150: 7085 5ebd e6b3 0a3e b5ac 87bd cccf 05be
00000160: 04ea bdbd 14e6 debd 42cd 8d3d d469 7a3d
00000170: c406 143c c372 0c3d 0fb1 2e3e a663 fb3d
00000180: 424d 01bd 930b 92bd 06b7 a4bc d92c b13d
00000190: cf96 893d c2a3 bbbd 20ff 6abc 6d91 2dbc
000001a0: baf9 d93d 74f7 4cbd f28a 4dbd 2943 d23d
000001b0: fccd b5bb 4869 513e 8a05 05bd afae f03d
000001c0: f422 ca3c 6a88 41bd 704d e8bd 1850 d6bd
000001d0: 7c75 65bd 6ab5 d13d e8f5 a0bd c82f 76bc
000001e0: 3dd1 95bd 9c0c 1e3e d702 cbbd 7c6c 133c
000001f0: 39d1 3f3d 057b e13d 4b32 863c 3fde 42bd
00000200: 1b69 683d 94e0 dd3d 66dd 8c3d 9210 863d
00000210: 2d12 91bd 544b 72bd 893e 88bd 38d6 403e
00000220: 43d6 81bd c980 c0bd 40bf 913d fbb9 ccbd
00000230: e346 153d 4854 40be 5d21 87bc ef5b 71bc
00000240: 7af9 bfbd b58e 1d3c 30b2 073e 1e44 bbbb
00000250: ebc4 9cbd a334 a6bd 1ef1 07be bf16 ad3d
00000260: f16a 26be 48cc 9b3c 4c7d 92bc 0d3d 003e
00000270: d6d1 1f3e b167 843d 1750 49bd 3ae2 003e
00000280: e17d f73d ffae 353d 9d62 ffbd 0926 aabd
00000290: b964 6fbb cfa6 3c3d dcc9 6fbd 5e60 e8bc
000002a0: bfa8 43be f6d4 7fbd ad22 873d cadd 21be
000002b0: 889e 7d3d 6f5e d63d 9713 843d a8a3 31bd
000002c0: 5c3e fa3d 96ae 91bd 29b7 b3bd 5906 7bbc
000002d0: e6b0 0a3e 96f9 173d bfa9 afbd 00f5 c73c
000002e0: 2116 4dbe 47c6 b8bc 344d 3a3d 89db 2dbd
000002f0: af4e eabd 8654 9dbd 97bc 21be 1fc0 65bd
00000300: 744a cebc 2e32 31bd 9b71 283e 6f80 453d
00000310: 72ba f53d 9588 b6bc f935 c7bc 4a29 1e3e
00000320: 0a12 15bd 8eaf 69be 302b 8c3c 73e0 c23d
00000330: 8280 b83d d309 17bd 2bae b93d ccb0 b6bc
00000340: e8c6 c4bd 47f4 44be 3f35 58bd 32dd 4d3d
00000350: 0842 5abd aebc abbd aaaa abbc bdcd 523e
00000360: 9971 953d 951a 303d b93a 86bd 20b5 a63d
00000370: af2b 883d 5e71 1ebc eb24 4dbb a616 d4bb
00000380: 3f69 00be f6d4 843d edc0 2ebd 1638 e8bd
00000390: 797e c33d 13d3 503d 8210 993d ba5e e03c
000003a0: 99ea c63d f587 963d 3e2b c4bd a40b c63c
000003b0: 5f4e e9bd 899f 26be 8b9c 063d 5b63 83bd
000003c0: 0b51 c8bc 245c 1ebe cbd7 0b3e 5969 40bc
000003d0: e9e4 e03d 7df6 a13d 93c9 043c 5bac 973c
000003e0: e0b5 1e3e 5133 02bd a4cc d03d d673 4dbc
000003f0: 6cc2 bbbd 6aac ae3d d73d 7cbc 1ee7 223d

actor.0.bias f4 [256]
-0.023854414 -0.05001591 -0.018013323 -0.0275663 -0.025145408 0.012077184 0.06596492 0.0234188
-0.017987728 0.041096836 0.050002083 0.021530189 0.07209157 0.011203676 -0.0147208115 0.0069773234
0.007895072 0.008267844 0.025404597 -0.05011852 0.010219904 -0.010518423 0.044126943 -0.061615333
0.035626087 -0.0674474 -0.020338694 0.02114053 -0.058336306 -0.038581144 0.0066642147 -0.021334916
0.009859812 0.04605318 0.004613337 -0.020578789 -0.06046288 0.027319435 0.04731698 -0.02597615
0.06212892 -0.0024053098 0.05551392 0.04032152 -0.04639929 0.05480805 -0.034675106 0.04520191
0.041012906 -0.029616963 -0.035519626 0.041875046 0.006037735 0.037073478 -0.050769374 -0.04511936
-0.010155845 -0.002103913 -0.0012987003 0.018408468 0.022355713 -0.052889686 -0.0684246 0.074884444
-0.06826168 -0.061231304 -0.02607729 0.007229514 0.01999962 -0.013032957 -0.025261825 -0.008603479
0.034662683 -0.013010914 0.016009845 -0.052548517 -0.010528946 0.026251286 -0.03956407 -0.042713042
0.03763727 -0.054616377 -0.07521244 0.04680898 0.031001432 -0.059309043 -0.057852685 -0.051389985
0.016109629 -0.042396612 -0.06390716 0.03320916 -0.017295487 -0.013441239 -0.03582142 0.025201429
0.03371178 0.05677714 -0.05085745 0.009399938 -0.017102217 -0.004601953 -0.068168 -0.05530772
-0.0095983995 -0.034979317 0.03543259 0.004323371 0.014415853 0.0035583894 -0.009660553 0.008703246
0.03163072 -0.041674737 0.0022845361 0.033610057 -0.025631117 -0.038807463 -0.020803737 -0.058132038
-0.033491775 -0.02623499 -0.023550866 -0.052228063 0.013337127 0.057384726 -0.035693094 -0.047327314
-0.020287802 -0.031453 0.04114031 0.011892474 -0.052781187 -0.012895658 -0.015628194 -0.047030505
-0.04132431 -0.052886404 -0.033181727 0.0013785039 -0.055518247 0.028183836 0.035317205 0.04830961
0.0500891 0.0059527103 0.033042546 0.013252109 0.0068110786 0.02646863 0.05153777 0.034033064
-0.024626324 0.044211518 0.03803317 0.043051027 -0.04385095 0.025744965 -0.012223574 -0.04022215
-0.055340305 0.023944119 0.0140767945 0.0208371 -0.035913434 -0.06634698 0.08104987 0.015186618
0.03588719 -0.0020161932 -0.04607753 0.03328161 0.007454126 0.06330237 -0.037666015 -0.0026265031
0.020494066 0.045817003 0.0216289 0.060335673 -0.038224235 -0.056442425 -0.04232208 0.044661358
0.025212701 -0.0030852025 0.04405218 -0.018446589 -0.04603584 -0.011176852 -0.013711764 -0.040766183
-0.034113534 -0.05868254 -0.05147085 -0.032556035 0.03942262 0.06731876 0.021857183 0.07780117
-0.067192234 0.017813202 0.04069062 -0.0066783833 -0.052736215 0.030091109 -0.018742329 -0.03041057
0.03400444 -0.0075741867 -0.031377524 -0.02415193 0.038343154 -0.018952375 0.062824905 0.032717064
0.011651158 -0.02005547 -0.019861983 -0.043362323 -0.045795865 -0.045023732 -0.01750886 0.0022438092
0.03491652 0.046441797 -0.0032663518 0.012875581 0.050632287 0.06886694 -0.06452048 -0.04318445
0.021386703 -0.02269282 0.0066444143 -0.057189632 -0.056554962 0.015272149 -0.051402137 -0.066956565
-0.0055668964 0.02071312 -0.05590624 -0.014861615 -0.0610898 0.0651144 0.036056962 -0.03202438
0.0008244237 -0.00206711 0.033985764 0.020736616 0.055703353 0.039549656 0.020939117 0.038725745
00000000: 556a c3bc 7cdd 4cbd ad90 93bc b9d2 e1bc
00000010: befd cdbc 62df 453c 9e18 873d c9d8 bf3c
00000020: 005b 93bc 2855 283d fcce 4c3d 1460 b03c
00000030: bfa4 933d a08f 373c 8f2f 71bc 08a2 e43b
00000040: 555a 013c da75 073c 4d1d d03c 1449 4dbd
00000050: 6271 273c 7755 2cbc 74be 343d 5c60 7cbd
00000060: a9ec 113d dd21 8abd 559d a6bc e82e ad3c
00000070: 0df2 6ebd 4307 1ebd 7c5f da3b 90c6 aebc
00000080: 0d8b 213c 42a2 3c3d 7a2b 973b d994 a8bc
00000090: eda7 77bd 02cd df3c 73cf 413d efcb d4bc
000000a0: e57a 7e3d 67a2 1dbb 9062 633d 2e28 253d
000000b0: 2f0d 3ebd 687e 603d 7c07 0ebd a325 393d
000000c0: 26fd 273d 469f f2bc 077d 11bd 2b85 2b3d
000000d0: 31d8 c53b 5cda 173d 8cf3 4fbd 14cf 38bd
000000e0: b464 26bc cee1 09bb 2739 aaba 5bcd 963c
000000f0: 5423 b73c dba2 58bd 3222 8cbd 045d 993d
00000100: c8cc 8bbd adcd 7abd 0aa0 d5bc 8fe5 ec3b
00000110: 3ed6 a33c 2f88 55bc e3f1 cebc 9bf5 0cbc
00000120: 75fa 0d3d bb2b 55bc 1427 833c 1d3d 57bd
00000130: 9a81 2cbc f00c d73c ef0d 22bd dff3 2ebd
00000140: 8a29 1a3d 6cb5 5fbd fb08 9abd c6ba 3f3d
00000150: b7f6 fd3c 0aee 72bd f0f6 6cbd 4e7e 52bd
00000160: 57f8 833c 12a8 2dbd c2e1 82bd 5406 083d
00000170: 44af 8dbc a438 5cbc 7bb9 12bd 3a73 ce3c
00000180: 5d15 0a3d 258f 683d e74f 50bd 3302 1a3c
00000190: f319 8cbc fbcb 96bb aa9b 8bbd 598a 62bd
000001a0: 9b42 1dbc 7946 0fbd c321 113d 11ab 8d3b
000001b0: 7830 6c3c de33 693b 4c47 1ebc 0f98 0e3c
000001c0: 378f 013d 21b3 2abd 28b8 153b b3aa 093d
000001d0: 59f8 d1bc 93f4 1ebd 996c aabc dc1b 6ebd
000001e0: ac2e 09bd c3ea d6bc bfed c0bc 18ed 55bd
000001f0: f783 5a3c 3f0c 6b3d ec32 12bd 49da 41bd
00000200: 9b32 a6bc dcd4 00bd be82 283d a7d8 423c
00000210: 1631 58bd 4f48 53bc b306 80bc 0fa3 40bd
00000220: ae43 29bd 6a9f 58bd 90e9 07bd eaae b43a
00000230: 1a67 63bd cae1 e63c c6a8 103d 4ce0 453d
00000240: 3a2a 4d3d f40e c33b 9f57 073d 601f 593c
00000250: 782f df3b bed4 d83c 4519 533d 4166 0b3d
00000260: 25bd c9bc 2317 353d abc8 1b3d 4656 303d
00000270: 0e9d 33bd 1be7 d23c 6345 48bc fbbf 24bd
00000280: 84ac 62bd 7526 c43c 5ba2 663c 91b2 aa3c
00000290: f719 13bd ede0 87bd 79fd a53d 4bd1 783c
000002a0: 72fe 123d 1c22 04bb cbbb 3cbd 4c52 083d
000002b0: be41 f43b aca4 813d ae47 1abd 6921 2cbb
000002c0: 2ce3 a73c 9caa 3b3d 172f b13c 8a22 773d
000002d0: 0491 1cbd 2c30 67bd eb59 2dbd d4ee 363d
000002e0: de8a ce3c 1c31 4abb 0f70 343d 4d1d 97bc
000002f0: 1490 3cbd 1d1f 37bc 4ea7 60bc 71fa 26bd
00000300: a2ba 0bbd 1a5d 70bd 19d3 52bd 7a59 05bd
00000310: 9d79 213d 6bde 893d d60d b33c 3856 9f3d
00000320: 159c 89bd feec 913c 35ab 263d 57d6 dabb
00000330: ee01 58bd a181 f63c 8389 99bc 961f f9bc
00000340: 3d48 0b3d e230 f8bb b885 00bd 45da c5bc
00000350: b60d 1d3d 0342 9bbc 58aa 803d 5402 063d
00000360: 80e4 3e3c 5e4b a4bc 99b5 a2bc b19c 31bd
00000370: 7294 3bbd ce6a 38bd be6e 8fbc df0c 133b
00000380: a004 0f3d c139 3e3d 4a10 56bb 1af4 523c
00000390: cd63 4f3d 1c0a 8d3d 5023 84bd 2ee2 30bd
000003a0: 2b33 af3c 4be6 b9bc 63b9 d93b ad3f 6abd
000003b0: 2da6 67bd 0938 7a3c 0c8b 52bd 8620 89bd
000003c0: 836a b6bb 90ae a93c f1fd 64bd 227e 73bc
000003d0: 4c39 7abd b35a 853d 77b0 133d ff2b 03bd
000003e0: 231e 583a 5a78 07bb a834 0b3d d6df a93c
000003f0: 3329 643d d2fe 213d 8388 ab3c e39e 1e3d

actor.2.weight f4 [128, 256]
-0.04425356 0.17617854 -0.15915564 0.01221308 -0.07814258 -0.12352702 0.018764062 0.100164406
0.040383365 0.18020944 -0.057469793 -0.06324492 -0.08479456 0.11801877 0.011183492 0.060907766
-0.14277723 -0.061864447 -0.10598212 0.14560056 0.23991835 -0.024175927 -0.1294106 0.09163
-0.16873577 -0.13541082 0.02075807 0.06687207 -0.06485459 0.04579502 -0.023699027 -0.014749292
0.01757593 -0.009023572 0.08331733 0.020770445 -0.1874336 0.012674262 0.07440168 -0.04852411
0.0842481 0.13725725 -0.08274184 0.021876168 0.061534945 -0.087184094 0.05649754 0.05329166
0.045606893 -0.20518948 0.0049790833 0.078250825 -0.010024511 -0.100305155 0.054518268 -0.036664862
-0.14546451 0.023193624 0.031284865 -0.05396892 -0.005615908 0.1333847 0.10717691 -0.21886617
0.08517929 -0.112382315 0.044132303 -0.05996868 -0.011935024 -0.07571494 -0.09660468 -0.05848647
-0.06548597 -0.037265517 -0.04323049 0.13994177 -0.13369806 0.0059006475 -0.012817576 0.07500231
0.042367253 -0.0125265075 0.10515028 -0.20513527 0.053803924 0.0037021542 -0.10001735 0.24586964
-0.033310656 -0.10774225 -0.0038923202 0.03173234 0.058261838 0.051568527 -0.02234468 0.04916793
0.015527983 0.017584087 -0.026691632 0.011279121 -0.11564042 0.15296546 0.09228692 0.13448465
0.051389243 -0.051281676 0.051937893 0.06794189 -0.087334745 0.03886919 0.060014818 0.03649725
-0.07926857 0.004819519 -0.11729252 -0.13132894 0.08510933 -0.02393391 -0.092949 -0.0075961514
-0.034133837 0.15354297 0.053787332 -0.08311654 -0.06326694 0.06478572 0.03504801 0.10698192
0.05915292 0.009405741 0.055441078 0.06834971 -0.041860044 0.16340365 -0.06060491 0.034146663
-0.031593703 0.1258423 -0.11571779 -0.1511057 0.10354374 0.004770869 -0.002852127 -0.16884866
-0.0018444204 -0.09033721 0.044719607 0.021376122 0.06353134 0.08040562 0.08697236 0.06575241
-0.03086632 0.15295774 -0.01499784 0.004729392 0.032087833 -0.08775152 -0.017124329 -0.070094995
0.22746365 -0.15665554 -0.0041975705 -0.04024401 0.027956596 -0.19775918 0.029834602 -0.13627225
0.06957305 -0.019861635 0.02748778 0.074343465 -0.10870178 0.059687555 -0.014761705 0.024643332
-0.087895736 0.17132701 0.12183732 0.037971407 -0.050878614 -0.07364139 -0.13101362 0.14207324
0.0092450455 0.08434987 0.0062176203 0.11801017 -0.04128482 -0.027800592 0.023436904 0.12369583
0.05553629 0.079660825 0.03359083 -0.015592272 0.024025079 -0.016276365 0.08561491 0.0021382924
0.052834567 0.012536021 -0.103110105 -0.022993904 -0.0031425485 -0.058021072 0.014401871 0.068674065
0.091096856 -0.059518173 0.0025607343 -0.16276085 0.066756025 -0.110742815 0.055981442 -0.12788214
0.0126469815 -0.15420194 0.08190854 -0.09973163 0.070673816 -0.053919602 0.015393219 0.08867949
0.062726125 -0.08603676 0.11077012 -0.06353347 0.074265644 -0.08529234 0.16778187 -0.12750632
0.028704135 -0.004229034 -0.07516747 0.012129487 -0.07735614 0.06482392 -0.029428804 -0.05387311
0.06688327 -0.022576641 0.035217855 -0.1691475 0.020321224 0.21981317 -0.0993986 -0.14805385
0.117567025 0.035977587 -0.013393538 -0.12766683 -0.13218151 -0.046386268 0.13342816 -0.07592047
00000000: 3943 35bd 2668 343e b2f9 22be 5f19 483c
00000010: 3809 a0bd bcfb fcbd 17b7 993c ff22 cd3d
00000020: 0769 253d d388 383e 7265 6bbd 8d86 81bd
00000030: c5a8 adbd d3b3 f13d f73a 373c 6c7a 793d
00000040: 3234 12be 9365 7dbd 270d d9bd 5018 153e
00000050: 28ad 753e 980c c6bc 3684 04be 82a8 bb3d
00000060: 12c9 2cbe 22a9 0abe d40c aa3c 39f4 883d
00000070: 7cd2 84bd 8f93 3b3d 7624 c2bc 04a7 71bc
00000080: 66fb 8f3c 9bd7 13bc 47a2 aa3d c826 aa3c
00000090: 98ee 3fbe b5a7 4f3c e85f 983d 38c1 46bd
000000a0: 458a ac3d 2a8d 0c3e 8e74 a9bd a635 b33c
000000b0: 110c 7c3d 938d b2bd f769 673d 5b48 5a3d
000000c0: 4bce 3a3d 311d 52be 9427 a33b f841 a03d
000000d0: d93d 24bc ca6c cdbd 8c4e 5f3d e52d 16bd
000000e0: a6f4 14be 8e00 be3c 8f24 003d 840e 5dbd
000000f0: a705 b8bb 0096 083e 917f db3d 741e 60be
00000100: 7b72 ae3d b328 e6bd 13c4 343d b8a1 75bd
00000110: 1e8b 43bc 6f10 9bbd add8 c5bd 828f 6fbd
00000120: 821d 86bd baa3 18bd 7412 31bd e54c 0f3e
00000130: 25e8 08be 385a c13b cf00 52bc d09a 993d
00000140: 4989 2d3d fb3b 4dbc 0859 d73d fb0e 52be
00000150: 8161 5c3d d79f 723b e5d5 ccbd 40c5 7b3e
00000160: c170 08bd f8a7 dcbd 4c16 7fbb c5f9 013d
00000170: f7a3 6e3d 8539 533d 310c b7bc 5064 493d
00000180: 1569 7e3c 810c 903c 69a8 dabc 10cc 383c
00000190: e2d4 ecbd faa2 1c3e ed00 bd3d 58b6 093e
000001a0: 877d 523d bc0c 52bd d4bc 543d 1e25 8b3d
000001b0: 8fdc b2bd 4d35 1f3d 19d2 753d 247e 153d
000001c0: 8f57 a2bd 0eed 9d3b 1037 f0bd 187b 06be
000001d0: cd4d ae3d 0c11 c4bc 0c5c bebd 23e9 f8bb
000001e0: eccf 0bbd 5e3a 1d3e 1b50 5c3d 0139 aabd
000001f0: 1992 81bd 60ae 843d 818e 0f3d 5619 db3d
00000200: 554a 723d 891a 1a3c 2f16 633d effa 8b3d
00000210: 7075 2bbd 4953 273e db3c 78bd 5fdd 0b3d
00000220: 6668 01bd cedc 003e 73fd ecbd 74bb 1abe
00000230: be0e d43d f354 9c3b c0ea 3abb aae6 2cbe
00000240: 7bc0 f1ba b702 b9bd e82b 373d fa1c af3c
00000250: b81c 823d b4ab a43d 911e b23d 33a9 863d
00000260: 5ddb fcbc f4a0 1c3e 80b9 75bc 04f9 9a3b
00000270: 886e 033d 12b7 b3bd 5248 8cbc f78d 8fbd
00000280: 3bec 683e 4f6a 20be c68b 89bb e7d6 24bd
00000290: 3b05 e53c 6281 4abe b267 f43c f48a 0bbe
000002a0: 517c 8e3d deb4 a2bc 0e2e e13c 6341 983d
000002b0: 0a9f debd f07a 743d 14db 71bc d0e0 c93c
000002c0: ae02 b4bd 5970 2f3e d885 f93d e887 1b3d
000002d0: 1866 50bd 4cd1 96bd 6f28 06be a67b 113e
000002e0: 8878 173c a0bf ac3d 2ebd cb3b 51af f13d
000002f0: 451a 29bd 11be e3bc c0fe bf3c 3d54 fd3d
00000300: 057a 633d 3725 a33d 8a96 093d bb76 7fbc
00000310: 3ed0 c43c 0356 85bc df56 af3d 9822 0c3b
00000320: 0f69 583d e263 4d3c 642b d3bd b65d bcbc
00000330: 37f3 4dbb 81a7 6dbd d3f5 6b3c fda4 8c3d
00000340: fd90 ba3d 54c9 73bd fed1 273b c8aa 26be
00000350: 62b7 883d 21cd e2bd cc4c 653d 89f3 02be
00000360: 4935 4f3c 1de7 1dbe aabf a73d 1940 ccbd
00000370: 6fbd 903d cdda 5cbd d733 7c3c 989d b53d
00000380: 8e76 803d 0a34 b0bd 72db e23d d61d 82bd
00000390: 9618 983d c0ad aebd 03cf 2b3e 0491 02be
000003a0: ef24 eb3c b593 8abb 67f1 99bd c1ba 463c
000003b0: e56c 9ebd 67c2 843d ad14 f1bc 0daa 5cbd
000003c0: 19fa 883d a6f2 b8bc 9940 103d 0135 2dbe
000003d0: b278 a63c b416 613e 7e91 cbbd 6e9b 17be
000003e0: fbc6 f03d 3c5d 133d 9270 5bbc 18bb 02be
000003f0: 975a 07be 87ff 3dbd 64a1 083e 317c 9bbd

actor.2.bias f4 [128]
-0.04239019 0.018602533 -0.047020648 -0.04695528 -0.03381031 0.03577851 -0.0129110925 -0.033545423
-0.0071988897 0.03942753 -0.004439707 0.0352829 -0.0759974 -0.068186104 -0.003020238 -0.06757131
-0.0006027692 -0.04445065 -0.026530338 0.010009936 0.020777984 -0.050077025 -0.06866349 0.01929089
-0.0372109 -0.027339766 1.7460232e-05 0.043105237 -0.03672354 0.005128974 0.023660172 0.031040736
-0.008545374 -0.06626022 0.044538565 -0.005049513 -0.012858379 0.03789867 0.00932993 -0.04298939
0.0073555605 -0.00064855185 -0.039386705 -0.0189466 -0.005082372 -0.057077043 0.017003747 -0.07003729
-0.027101273 0.032295037 -0.06691195 -0.023656337 -0.037939347 -0.025497682 0.018236691 0.039776098
-0.042718526 0.04325808 -0.032739468 -0.017935583 0.03359068 -0.0075313 0.025898106 0.021925796
0.00928794 0.04632452 -0.019152794 0.0022717023 0.048966575 -0.023977937 0.031781908 -0.025187517
0.005992179 -0.014959804 -0.074779 0.02546637 -0.007118554 0.019307548 -0.023932664 -0.016443871
0.0023938445 -0.071467444 0.020568514 -0.0089319525 -0.05348244 0.061704833 0.062249843 -0.06864205
0.048101727 -0.040148694 -0.0772865 -0.030261166 -0.060831808 -0.047566775 0.030806702 0.018190714
-0.044641115 0.007912388 -0.0071704295 0.017046778 0.01672399 0.025024695 -0.054820515 -0.062273372
-0.069411255 -0.019950496 0.046961512 -0.008567869 -0.04047924 -0.050178587 0.007398976 -0.034612462
-0.02940364 -0.04577158 0.027135335 0.025404748 -0.021146106 -0.0027741545 0.050732277 -0.038035206
-0.062146958 -0.028147051 -0.035091244 -0.06622991 -0.05771279 -0.032663956 -0.014846027 -0.0014146629
00000000: 56a1 2dbd 5764 983c b998 40bd 2e54 40bd
00000010: ae7c 0abd 7d8c 123d 0c89 53bc ed66 09bd
00000020: aae4 ebbb c37e 213d f67a 91bb cd84 103d
00000030: 86a4 9bbd 28a5 8bbd 2fef 45bb d462 8abd
00000040: 2803 1eba e311 36bd 2756 d9bc b700 243c
00000050: 9736 aa3c 911d 4dbd 729f 8cbd ee07 9e3c
00000060: 756a 18bd a5f7 dfbc 9077 9237 1e8f 303d
00000070: 6c6b 16bd f410 a83b fad2 c13c 2449 fe3c
00000080: e501 0cbc 70b3 87bd 126e 363d 6376 a5bb
00000090: f3ab 52bc a33b 1b3d 90dc 183c a515 30bd
000000a0: ea06 f13b 9403 2aba f453 21bd e635 9bbc
000000b0: 078a a6bb 9ec9 69bd 714b 8b3c b66f 8fbd
000000c0: 7d03 debc cd47 043d 2209 89bd efca c1bc
000000d0: 4a66 1bbd 84e0 d0bc 1d65 953c 43ec 223d
000000e0: 9ff9 2ebd 622f 313d d219 06bd a5ed 92bc
000000f0: 6296 093d 20c9 f6bb 4428 d43c ba9d b33c
00000100: 722c 183c c8be 3d3d 52e6 9cbc d7e0 143b
00000110: 2d91 483d 616d c4bc bf2d 023d 0d56 cebc
00000120: 0a5a c43b f719 75bc bb25 99bd d99e d03c
00000130: c242 e9bb dd2a 9e3c 6f0e c4bc 4cb5 86bc
00000140: 0ce2 1c3b 865d 92bd 4d7f a83c 5357 12bc
00000150: 6710 5bbd 35be 7c3d b1f9 7e3d 3494 8cbd
00000160: 5106 453d f572 24bd 6248 9ebd 44e6 f7bc
00000170: c62a 79bd 61d5 42bd 565e fc3c b104 953c
00000180: 9ad9 36bd f6a2 013c ecf5 eabb afa5 8b3c
00000190: c000 893c 9700 cd3c 7a8b 60bd 5d12 7fbd
000001a0: 7d27 8ebd 396f a3bc b75a 403d 3f60 0cbc
000001b0: 8fcd 25bd 1088 4dbd 1c73 f23b ccc5 0dbd
000001c0: e7df f0bc fb7a 3bbd ec4a de3c 9e1d d03c
000001d0: 993a adbc 97ce 35bb a6cc 4f3d ceca 1bbd
000001e0: cf8d 7ebd a594 e6bc d6bb 0fbd 8ca3 87bd
000001f0: 3f64 6cbd a4ca 05bd c03c 73bc 366c b9ba

actor.4.weight f4 [64, 128]
-0.053984456 -0.0036483195 0.114687905 -0.09365879 -0.09894203 -0.037384335 0.09216557 -0.2509821
0.04957868 -0.24740876 0.1365564 0.18610232 -0.07883069 0.047746446 0.013973406 -0.084615536
0.16686828 -0.067224294 0.19862826 -0.090904154 -0.048337158 0.002908168 0.14684369 0.00916045
-0.11353789 0.052617867 0.074777886 -0.19166924 0.0598086 -0.07394545 0.044466622 0.1362311
-0.012318542 0.3016242 -0.05574461 0.04279842 0.03454394 0.023540296 -0.028756421 -0.10285577
-0.016035166 -0.01337628 -0.18713576 -0.17906846 0.0086728735 0.09991026 0.037551 -0.0615034
-0.050328497 0.08703796 0.1146972 0.086512305 0.32323647 -0.13362661 0.009472125 -0.041633785
0.17653568 -0.2645361 0.043579552 -0.059509136 -0.028765667 0.012245602 0.21394795 0.10176031
0.29117042 0.00045375535 -0.3516653 0.10047821 -0.12142509 -0.06411616 -0.05832553 0.12009116
0.24088424 0.30482993 0.23498943 0.06463512 -0.13592832 0.03130814 0.17206126 -0.13868023
-0.12743814 0.029910816 0.113994256 0.01334652 -0.22768387 -0.1323252 -0.095587894 -0.072959244
0.15755929 -0.23738384 -0.033958673 -0.09168158 -0.0005048787 0.079076774 0.05745317 -0.024593307
0.015419103 -0.100249365 0.053174272 -0.09601061 0.017554075 -0.076002896 -0.0017519036 0.06976543
-0.05465462 -0.09596949 -0.046161275 -0.02550001 0.054886915 0.13056593 0.16281389 0.124802165
0.12824781 0.11416096 -0.1959025 0.09717393 0.05751476 -0.020340329 -0.1187098 -0.17286015
-0.20769842 0.17445686 -0.102225706 0.023877732 0.15873489 0.18508315 -0.008576365 0.08399719
0.05036776 -0.029580407 0.17996842 0.035691187 0.020054044 -0.16534106 -0.17997979 -0.09466991
0.1772994 0.11055407 0.10657723 -0.1105889 0.16126806 0.1717446 -0.09339738 -0.10195137
0.3424496 0.16953218 0.086888656 -0.16236542 -0.002719249 0.048507605 -0.09088761 -0.28350413
0.007367728 0.020002518 -0.051692195 0.0085035125 0.07299986 0.090252966 -0.17781103 -0.022661392
0.053646836 0.18779156 0.051332027 0.09405723 0.065257974 0.042708274 0.14554211 0.17020841
-0.14857522 -0.20032063 0.008491309 0.10368882 0.21513256 -0.0148183135 -0.122870214 0.01864829
0.16275607 0.12855336 -0.08616339 -0.12457741 0.0045326552 -0.16802648 -0.04825773 0.060159747
-0.02069142 0.053167474 -0.097862005 0.17325923 0.016603764 -0.15905859 -0.24954931 -0.04504603
-0.015404911 -0.07631816 0.18864286 0.031856492 -0.04920726 -0.14872557 -0.1259653 0.10924852
-0.10562989 0.078274556 -0.14399822 -0.2725431 0.062422354 -0.09272316 0.11815305 -0.008672891
-0.061744604 -0.20386828 0.06054931 0.072244555 -0.05785255 -0.2158636 -0.073719315 0.31694555
0.08531641 -0.019608226 -0.024747962 -0.057483934 -0.013456987 -0.038595524 -0.058841947 -0.0062135304
0.02709881 0.07610441 0.034844056 -0.16756389 -0.025147535 -0.23376904 0.074905485 0.19249938
-0.16416909 0.08619263 -0.0832261 -0.07805069 0.09654172 -0.12938187 -0.010368716 0.09038151
0.028648274 0.12680869 0.067336425 0.13425212 -0.13683262 -0.10258592 -0.09924037 -0.038400166
-0.014861069 -0.14413428 -0.03520042 0.20071286 0.02402263 -0.16821301 -0.18820336 0.04981148
00000000: ce1e 5dbd a518 6fbb 7ee1 ea3d 2ed0 bfbd
00000010: 1ea2 cabd 5120 19bd 4dc1 bc3d ba80 80be
00000020: 0413 4b3d b958 7dbe 71d5 0b3e 9b91 3e3e
00000030: fc71 a1bd c791 433d b6f0 643c e94a adbd
00000040: 85df 2a3e e4ac 89bd 3565 4b3e f52b babd
00000050: 2ffd 45bd f696 3e3b 315e 163e b615 163c
00000060: 8e86 e8bd d585 573d 2625 993d f144 44be
00000070: ddf9 743d b670 97bd a222 363d 2a80 0b3e
00000080: b6d3 49bc 7d6e 9a3e 7654 64bd 654d 2f3d
00000090: f27d 0d3d 94d7 c03c 9692 ebbc 0ca6 d2bd
000000a0: 2e5c 83bc 2f28 5bbc 84a0 3fbe b95d 37be
000000b0: ab18 0e3c c09d cc3d 14cf 193d fdea 7bbd
000000c0: 4125 4ebd f540 b23d 5ee6 ea3d 5d2d b13d
000000d0: 407f a53e 6ad5 08be f930 1b3c 3088 2abd
000000e0: c5c5 343e 4771 87be 7980 323d dabf 73bd
000000f0: faa5 ebbc c7a1 483c 2c15 5b3e b667 d03d
00000100: 4a14 953e 03e6 ed39 790d b4be 85c7 cd3d
00000110: b8ad f8bd 554f 83bd c0e6 6ebd 5bf2 f53d
00000120: 5caa 763e ab12 9c3e 12a1 703e 6b5f 843d
00000130: cb30 0bbe f73c 003d d430 303e 3102 0ebe
00000140: 257f 02be 8707 f53c d275 e93d 5dab 5a3c
00000150: f625 69be 4280 07be 96c3 c3bd a86b 95bd
00000160: 3957 213e c014 73be 4018 0bbd 8dc3 bbbd
00000170: d659 04ba 01f3 a13d 0454 6b3d e777 c9bc
00000180: 68a0 7c3c 8a4f cdbd 44cd 593d 36a1 c4bd
00000190: 90cd 8f3c 68a7 9bbd 21a0 e5ba 2ee1 8e3d
000001a0: 86dd 5fbd a78b c4bd 9b13 3dbd 66e5 d0bc
000001b0: 1ad1 603d 13b3 053e afb8 263e 4798 ff3d
000001c0: 6553 033e 39cd e93d aa9a 48be 2003 c73d
000001d0: 9994 6b3d c3a0 a6bc 201e f3bd 4002 31be
000001e0: e5ae 54be d2a4 323e b65b d1bd 3c9b c33c
000001f0: 668b 223e 7086 3d3e e283 0cbc b806 ac3d
00000200: 6d4e 4e3d 9c52 f2bc a449 383e ec30 123d
00000210: 6148 a43c 2b4f 29be 9f4c 38be 4ce2 c1bd
00000220: f98d 353e 2c6a e23d 2a45 da3d 6f7c e2bd
00000230: 7423 253e d1dd 2f3e 2047 bfbd e1cb d0bd
00000240: 8e55 af3e d899 2d3e aef2 b13d 1f43 26be
00000250: 6e35 32bb e9af 463d 4923 babd 7427 91be
00000260: fb6c f13b 52dc a33c 32bb 53bd 5152 0b3c
00000270: f380 953d 8cd6 b83d 1814 36be 62a4 b9bc
00000280: c9bc 5b3d 6e4c 403e 8841 523d 14a1 c03d
00000290: f9a5 853d dfee 2e3d fe08 153e 1d4b 2e3e
000002a0: 1a24 18be da20 4dbe 221f 0b3c ce5a d43d
000002b0: b64b 5c3e 83c8 72bc 61a3 fbbd 4cc4 983c
000002c0: 87a9 263e 7ea3 033e 6e76 b0bd 7122 ffbd
000002d0: ab86 943b 220f 2cbe e6a9 45bd 116a 763d
000002e0: 0e81 a9bc 23c6 593d e06b c8bd de6a 313e
000002f0: 9e04 883c 41e0 22be db89 7fbe 3082 38bd
00000300: e164 7cbc b24c 9cbd 982b 413e f47b 023d
00000310: 8d8d 49bd 844b 18be 0cfd 00be b0bd df3d
00000320: 7c54 d8bd 694e a03d 4574 13be c58a 8bbe
00000330: 95ae 7f3d a4e5 bdbd 3afa f13d be18 0ebc
00000340: e9e7 7cbd d9c2 50be 8e02 783d f4f4 933d
00000350: ccf6 6cbd 590b 5dbe 27fa 96bd b046 a23e
00000360: 5fba ae3d 6ea1 a0bc 3dbc cabc 4674 6bbd
00000370: b27a 5cbc 5716 1ebd 4104 71bd df9a cbbb
00000380: 53fe dd3c a1dc 9b3d a4b8 0e3d de95 2bbe
00000390: 3402 cebc 2761 6fbe 0c68 993d 8f1e 453e
000003a0: f11b 28be c385 b03d 7272 aabd 0ad9 9fbd
000003b0: aab7 c53d ae7c 04be 8ce1 29bc f119 b93d
000003c0: c9af ea3c 23da 013e aee7 893d 6379 093e
000003d0: da1d 0cbe 9118 d2bd 893e cbbd 7e49 1dbd
000003e0: d77b 73bc f097 13be 512e 10bd ac87 4d3e
000003f0: 1bcb c43c 0840 2cbe 62b8 40be 1f07 4c3d

actor.4.bias f4 [64]
-0.008761022 -0.00029398658 -0.07818099 -0.012457688 -0.1001242 0.026129901 0.032522064 0.049489878
-0.09885308 0.01151801 0.0010014136 -0.043764506 0.036833446 0.021324182 -0.01196186 0.068495385
0.014085099 -0.0253578 0.014798469 -0.050135087 0.021876626 -0.085512504 -0.020610495 -0.022731183
0.060322355 0.06868576 0.054283664 -0.0035560485 0.058234952 0.052480444 -0.06760903 -0.09865875
-0.09033017 0.061683726 -0.035292767 -0.01812554 0.044320934 -0.010130441 0.0028921752 0.045829684
-0.028940378 -0.049082488 -0.08138305 -0.051526356 -0.040329512 -0.04655566 0.074671455 -0.100890145
-0.017596826 -0.03934352 0.026424885 0.07146475 -0.032645673 -0.11105139 0.05639901 0.022778463
0.051442154 -0.060734447 -0.020398691 -0.07154369 -0.0872725 0.05583434 0.025421875 -0.07291505
00000000: 648a 0fbc 3622 9ab9 5b1d a0bd 551b 4cbc
00000010: eb0d cdbd 600e d63c db35 053d e6b5 4a3d
00000020: 7c73 cabd 09b6 3c3c dd41 833a 6942 33bd
00000030: abde 163d 0db0 ae3c adfb 43bc 4f47 8c3d
00000040: 30c5 663c 29bb cfbc 4775 723c 735a 4dbd
00000050: 9c36 b33c 2e21 afbd 57d7 a8bc bf36 babc
00000060: 9314 773d 1fab 8c3d 8c58 5e3d 980c 69bb
00000070: c687 6e3d bcf5 563d 9a76 8abd 990d cabd
00000080: 06ff b8bd 13a8 7c3d 268f 10bd 037c 94bc
00000090: de89 353d 26fa 25bc a68a 3d3b e8b7 3b3d
000000a0: 5f14 edbc b80a 49bd 28ac a6bd 4d0d 53bd
000000b0: 8f30 25bd 26b1 3ebd 59ed 983d 7e9f cebd
000000c0: 3827 90bc ac26 21bd 0079 d83c 1c5c 923d
000000d0: 78b7 05bd e96e e3bd a602 673d e699 ba3c
000000e0: 02b5 523d afc4 78bd 281b a7bc 8085 92bd
000000f0: edbb b2bd 8db2 643d 8941 d03c 7c54 95bd

actor.6.weight f4 [3, 64]
0.00078817137 0.000982325 0.0047774306 0.0014152642 -0.0005166212 0.008944224 0.006957102 0.008506714
-0.0015753492 -0.0018108651 -0.008387668 -0.0014624115 0.0010602607 -0.009225046 0.0024417406 -0.0057521323
-0.01802671 -0.001743531 -0.005971886 -0.006000697 -0.0008460066 0.0010632186 0.001760634 0.009858656
0.008723958 0.00023382407 -0.0007436734 -0.014963391 -0.0051308097 -0.002079065 -0.0013248664 0.007585117
4.35079e-05 -0.00514644 -0.010528625 0.007169614 -0.0013721654 -0.0015315228 0.0051049967 0.00594671
0.0058492315 -0.0012448309 -0.0006175186 -0.0005887432 0.007415262 0.00131253 0.012265308 -0.00077685923
-0.004534177 0.00010937647 0.00026743347 -0.01445057 -0.0018656325 -0.00037383795 -0.00021947653 -0.0014144834
0.00021048478 0.008010215 -0.0014029277 -0.017788203 0.0038592343 -0.0034431897 0.0010543584 0.00032742866
-0.0058082184 0.002583366 -0.013291088 -0.0044455347 -0.0062018586 -0.014409116 -0.011298227 -0.011819
-0.005709605 -0.00390861 -0.002733721 -0.008316455 -0.0069328933 -0.0040272344 -0.01862884 0.0058707455
-0.007361987 -0.0051866416 -0.003710605 0.0024846927 -0.008709967 -0.0050425963 -0.008633816 -0.013565233
-0.009075903 -0.007975645 -0.006153792 -0.0057888418 -0.0011360145 -0.0053242636 -0.007829482 -0.010849298
-0.007226032 -0.0011585508 -0.004139763 -0.015078094 -0.0057443036 -0.006681288 -0.0050081406 -0.009267867
-0.011616981 -0.005925979 -0.0075857397 -0.005719689 -0.012968885 -0.0070774783 0.005415168 -0.008526123
-0.0074092182 -0.007730004 -0.006323765 -0.0068138493 -0.005797155 -0.006730724 -0.005521802 -0.007264194
-0.0073235966 -0.01478052 -0.003471805 -0.0068367673 -0.00572003 -0.0033297508 -0.006948438 0.008484945
0.042650368 -0.008028875 0.039376043 0.037069783 0.036217354 0.04562629 0.032770883 0.039112978
0.04414236 0.035564758 0.02912603 0.037320133 0.02941509 -0.0042279987 0.033865087 -0.04548344
0.028513534 0.03353961 0.027666667 -0.034167103 0.033443045 0.03192582 0.037803 0.040111084
0.030813243 0.03605621 0.044238914 0.020055344 0.024561679 0.044802032 0.046748746 0.03531492
0.036460936 0.029265964 -0.009086913 0.043026313 0.035517123 0.037527375 0.02504664 0.03280005
0.031676818 0.0454635 0.04892496 0.034625098 0.036878005 0.048207235 -0.024959639 0.0501219
0.035409983 0.046359852 0.03460005 0.013268642 0.04617224 0.04378544 0.044456173 0.0365186
0.03401901 0.04423127 0.03392321 0.02631228 0.03042491 0.020755094 0.05018697 -0.002104732
00000000: 499d 4e3a 5bc1 803a fe8b 9c3b 6380 b93a
00000010: dd6d 07ba cb8a 123c 67f8 e33b bf5f 0b3c
00000020: f37b ceba 8d5a edba 6e6c 09bc 63ae bfba
00000030: 72f8 8a3a a624 17bc 9c05 203b 627c bcbb
00000040: c0ac 93bc 3187 e4ba d0af c3bb 7fa1 c4bb
00000050: 8bc6 5dba b25b 8b3a 13c5 e63a 3386 213c
00000060: efee 0e3c ac2e 7539 14f3 42ba 0329 75bc
00000070: 5a20 a8bb ec40 08bb 24a7 adba 938c f83b
00000080: 407c 3638 78a3 a8bb 4180 2cbc 15ef ea3b
00000090: 3bda b3ba 61bd c8ba d147 a73b 9edc c23b
000000a0: e9aa bf3b 9829 a3ba f9e0 21ba e355 1aba
000000b0: bafb f23b 3309 ac3a 6ef4 483c 24a6 4bba
000000c0: 6f93 94bb 0c61 e538 5036 8c39 15c2 6cbc
000000d0: 3d88 f4ba aeff c3b9 4823 66b9 3066 b9ba
000000e0: 94b5 5c39 473d 033c 71e2 b7ba 91b8 91bc
000000f0: 35eb 7c3b 23a7 61bb 6632 8a3a bbaa ab39
00000100: de52 bebb b04d 293b ddc2 59bc d9ab 91bb
00000110: f638 cbbb 3614 6cbc 331c 39bc 7ba4 41bc
00000120: a317 bbbb cc13 80bb 3a28 33bb be41 08bc
00000130: 532d e3bb e4f6 83bb 829b 98bc 625f c03b
00000140: d33c f1bb b4f4 a9bb 9f2d 73bb 3ad6 223b
00000150: 40b4 0ebc 5d3c a5bb d974 0dbc b640 5ebc
00000160: 19b3 14bc 48ac 02bc c0a5 c9bb 53b0 bdbb
00000170: 52e6 94ba 2977 aebb 3a47 00bc 41c1 31bc
00000180: 5ac8 ecbb 84da 97ba d9a6 87bb 1c0a 77bc
00000190: b63a bcbb b5ee dabb 541b a4bb 40d8 17bc
000001a0: 2655 3ebc b72e c2bb cc91 f8bb 3b6c bbbb
000001b0: 727b 54bc 31ea e7bb b971 b13b 27b1 0bbc
000001c0: 07c9 f2bb f94b fdbb 9637 cfbb b646 dfbb
000001d0: 10f6 bdbb 688d dcbb 3cf0 b4bb 7a08 eebb
000001e0: c8fa efbb ff29 72bc 3987 63bb f606 e0bb
000001f0: 176f bbbb f337 5abb b9af e3bb 7004 0b3c
00000200: 27b2 2e3d 8b8b 03bc c648 213d 7cd6 173d
00000210: a658 143d a2e2 3a3d c33a 063d ee34 203d
00000220: 9fce 343d 5aac 113d b699 ee3c ffdc 183d
00000230: eaf7 f03c 068b 8abb 1eb6 0a3d d84c 3abd
00000240: 3795 e93c d560 093d 35a5 e23c cef2 0bbd
00000250: 93fb 083d a6c4 023d 52d7 1a3d 854b 243d
00000260: 0e6c fc3c adaf 133d dd33 353d 1b4b a43c
00000270: 9335 c93c 5682 373d 9d7b 3f3d 61a6 103d
00000280: 1058 153d 2dbf ef3c 47e1 14bc 5c3c 303d
00000290: 677a 113d 4eb6 193d 9c2e cd3c 5859 063d
000002a0: 8dbf 013d ef37 3a3d 8a65 483d 0cd3 0d3d
000002b0: 640d 173d f374 453d 2878 ccbc 9f4c 4d3d
000002c0: 0f0a 113d d4e3 3d3d c8b8 0d3d b864 593c
000002d0: 1a1f 3d3d 5d58 333d ad17 363d 8794 153d
000002e0: 8457 0b3d d92b 353d 10f3 0a3d da8c d73c
000002f0: a93d f93c 9606 aa3c da90 4d3d 8bef 09bb

actor.6.bias f4 [3]
-0.027311001 0.068579525 0.0513298
00000000: 52bb dfbc 6c73 8c3d 323f 523d

critic.0.weight f4 [256, 259]
0.068446726 0.092804484 -0.040947758 -0.011323809 -0.5767654 -0.09654471 0.070966 -0.053436182
0.035789322 0.0031125958 0.04233086 -0.07382606 0.08722943 0.12831673 0.12306999 -0.058257498
0.15778409 -0.0767176 -0.10461379 -0.07488144 0.10479268 -0.10963119 -1.9043721 0.118604094
-0.11341351 0.10668559 0.04324884 -0.058796134 0.2914452 0.36017 0.0759228 0.062993504
0.004334822 0.122243315 -0.11431731 -0.035928886 0.010272811 0.08577601 -0.07359939 0.043124866
0.04514995 -0.011397192 -0.03520047 0.09618453 -0.010617104 0.21732521 -0.10592509 0.14778294
-0.17629632 0.2349195 -0.06448327 0.024694603 0.051633514 -0.50727135 0.0023180863 0.06392755
-0.04646606 0.0102246655 0.18293078 -0.008755599 0.074992545 0.091068216 -0.004752388 0.056656864
-0.039328534 -0.02333685 0.12324769 0.041239627 -0.041912023 0.11349498 -0.10058611 0.07387653
-0.14936242 -0.06647376 0.12559761 -0.1676421 0.053054065 -0.023691805 0.076687545 0.18699549
-0.008514213 0.16193068 0.08647721 -0.034285415 0.11432612 -0.44996414 -0.036603216 -0.12877321
-0.02842282 -0.057920128 0.16174045 0.10921167 0.046297453 -0.09391254 -0.0963697 0.06366117
0.00078653754 -0.033755388 0.04233782 0.075232126 -0.05521767 0.094385296 -0.02688503 0.042766504
0.028401019 0.08302952 -0.17981122 0.0726545 0.11260693 0.013942484 0.07676174 -0.14006937
-0.027249025 -0.031164411 -0.044146508 -0.0063887876 -0.016484808 -0.091306485 0.025348974 -0.07616199
-0.012360934 -0.03535124 0.025836473 0.09568042 0.04806112 0.205023 -0.026183326 0.051522367
-0.1627703 0.07344266 0.07077699 -0.029971153 0.0711803 -0.02475887 -0.027708324 0.068328336
-0.056596838 -0.11458514 0.017029915 0.23382992 0.12691021 0.094334126 -0.056346077 0.11439526
-0.08596712 -0.09038044 0.05346596 -0.016272198 0.17460248 0.052516103 -0.081260726 0.043547392
-0.0034400106 -0.14079447 -0.020469286 0.46591157 -0.027859159 0.1574702 0.07277532 -0.00919033
-0.13712974 -0.093539216 0.15404676 -0.02650012 0.018533962 -0.004563862 -0.06631867 0.08090965
-0.036591437 0.04422861 -0.041506656 0.08321786 0.17782807 0.026727341 -0.05470097 0.10599962
-0.1254062 0.11397696 -0.10867361 0.0076715387 -0.00039861607 0.10174995 -0.037404004 -0.032210685
0.03738707 0.18542475 -0.498874 -0.019188045 -0.040862933 0.048042092 -0.08494811 -0.04802211
0.18929803 -0.008845531 -0.04614837 -0.06553474 0.08721487 -0.014836331 -0.08412271 -0.008515913
0.116344884 0.11934982 -0.014084793 0.07873586 -0.0126210535 -0.0018843424 -0.055806566 0.20331103
-0.085795626 -0.0025649094 -0.013350084 0.15648647 0.03035717 0.052691735 0.012270826 0.016741915
0.04492058 -0.103498906 -0.063177586 -0.092292316 -0.081991695 -0.09592571 -0.09894905 0.011212565
0.08063794 -0.0960637 -0.29057223 -0.021506358 0.110055886 0.19236967 0.0388866 -0.13727857
0.051455833 -0.11386396 0.029231165 -0.021864736 -0.10766745 -0.14641404 -0.07475573 0.10996373
-0.03776244 0.13900328 0.16213076 0.18518716 -0.068614006 -0.076862834 -0.019586239 0.07110353
0.045227587 0.042948905 0.10045488 0.047176495 0.06645968 0.08336009 0.0057336744 -0.010257199
00000000: cc2d 8c3d 4710 be3d d6b8 27bd 7f87 39bc
00000010: e6a6 13bf 3cb9 c5bd 9f56 913d e6df 5abd
00000020: d397 123d b1fc 4b3b 2063 2d3d 1e32 97bd
00000030: 58a5 b23d 7665 033e 1e0c fc3d 6a9f 6ebd
00000040: 2792 213e 1e1e 9dbd c13f d6bd 715b 99bd
00000050: 8b9d d63d 5186 e0bd 77c2 f3bf b4e6 f23d
00000060: 5845 e8bd fa7d da3d b225 313d 37d4 70bd
00000070: 4e38 953e 3468 b83e 6a7d 9b3d bd02 813d
00000080: 1f0b 8e3b b45a fa3d 321f eabd 2b2a 13bd
00000090: 4b4f 283c 55ab af3d 47bb 96bd b3a3 303d
000000a0: 27ef 383d 4abb 3abc 5e2e 10bd 65fc c43d
000000b0: 5df3 2dbc 808a 5e3e 41ef d8bd 6954 173e
000000c0: 0687 34be bd8e 703e ce0f 84bd 564c ca3c
000000d0: aa7d 533d 89dc 01bf 09eb 173b 73ec 823d
000000e0: 3253 3ebd 5b85 273c 3552 3b3e a573 0fbc
000000f0: b195 993d f981 ba3d ecb9 9bbb 0711 683d
00000100: f516 21bd ec2c bfbc 4969 fc3d e2ea 283d
00000110: f1ab 2bbd 0e70 e83d 1700 cebd 944c 973d
00000120: 76f2 18be 6523 88bd a99c 003e 5faa 2bbe
00000130: 384f 593d 5115 c2bc 5c0e 9d3d bf7b 3f3e
00000140: 337f 0bbc 28d1 253e f71a b13d dd6e 0cbd
00000150: d023 ea3d b361 e6be 41ed 15bd 20dd 03be
00000160: f9d6 e8bc a83d 6dbd 4a9f 253e 5eaa df3d
00000170: 66a2 3d3d 3855 c0bd 7a5d c5bd ca60 823d
00000180: a42f 4e3a 1743 0abd 6c6a 2d3d 4d13 9a3d
00000190: ec2b 62bd 144d c13d ff3d dcbc ee2b 2f3d
000001a0: 41a9 e83c 620b aa3d 6f20 38be e2cb 943d
000001b0: 769e e63d 046f 643c 4235 9d3d 586e 0fbe
000001c0: 5939 dfbc 824c ffbc f8d2 34bd 0959 d1bb
000001d0: 260b 87bc e5fe babd a7a8 cf3c d1fa 9bbd
000001e0: 8485 4abc 76cc 10bd 03a7 d33c 19f4 c33d
000001f0: bddb 443d 8df1 513e 6a7e d6bc 1e09 533d
00000200: 42ad 26be 1b69 963d 87f3 903d 1086 f5bc
00000210: fac6 913d 1dd3 cabc 91fc e2bc baef 8b3d
00000220: 16d2 67bd 9dab eabd 5282 8b3c 1c71 6f3e
00000230: c0f4 013e 4032 c13d 25cb 66bd 1048 ea3d
00000240: 880f b0bd 6119 b9bd 1fff 5a3d 464d 85bc
00000250: feca 323e 201b 573d 066c a6bd c05e 323d
00000260: cd71 61bb 6d2c 10be 34af a7bc f68b ee3e
00000270: e438 e4bc de3f 213e 3a0b 953d 0a93 16bc
00000280: bd6b 0cbe 7d91 bfbd 6fbe 1d3e c816 d9bc
00000290: 89d4 973c 738c 95bb 15d2 87bd f5b3 a53d
000002a0: e7e0 15bd 0f29 353d e202 2abd 206e aa3d
000002b0: 9018 363e 4cf3 da3c 200e 60bd 5416 d93d
000002c0: 7c6a 00be c16c e93d 4590 debd 8861 fb3b
000002d0: 58fd d0b9 4762 d03d f134 19bd 5aef 03bd
000002e0: 2f23 193d fcdf 3d3e 6a6c ffbe 3f30 9dbc
000002f0: e45f 27bd c9c7 443d 46f9 adbd d5b2 44bd
00000300: 58d7 413e d9ec 10bc 1306 3dbd 1437 86bd
00000310: b69d b23d 1514 73bc 8748 acbd 5486 0bbc
00000320: 3a46 ee3d ae6d f43d e7c3 66bc 4440 a13d
00000330: 89c8 4ebc 0afc f6ba 6d95 64bd c430 503e
00000340: 9eb5 afbd 0a18 28bb 50ba 5abc fd3d 203e
00000350: 9aaf f83c 4ad3 573d 930b 493c 5726 893c
00000360: a4fe 373d 3cf7 d3bd 4063 81bd c103 bdbd
00000370: 43eb a7bd b374 c4bd cda5 cabd e8b4 373c
00000380: 8125 a53d 0cbd c4bd e2c5 94be 1a2e b0bc
00000390: fb64 e13d 8efc 443e 8e47 1f3d c192 0cbe
000003a0: 5ac3 523d 8231 e9bd 3276 ef3c ad1d b3bc
000003b0: c180 dcbd 90ed 15be 8819 99bd aa34 e13d
000003c0: caac 1abd e056 0e3e 9b05 263e b4a1 3d3e
000003d0: 8085 8cbd 436a 9dbd 5273 a0bc ba9e 913d
000003e0: 9040 393d 31eb 2f3d 4abb cd3d 243c 413d
000003f0: 031c 883d b2b8 aa3d 8ce1 bb3b d00d 28bc

critic.0.bias f4 [256]
-0.021735288 0.013472122 0.035704967 -0.013204384 0.026602548 -0.040485088 0.063293755 -0.056270484
-0.056375526 0.016203372 -0.019436687 0.008979042 0.053700816 0.049759623 0.019767737 0.014144421
0.022754613 -0.0089922715 -0.021665562 0.03724908 -0.012143539 0.05772169 0.016705226 -0.021531252
-0.026170652 -0.03322757 0.024808157 0.033180024 0.07308733 -0.06772343 -0.037123915 -0.021481253
-0.05742256 0.024386447 -0.061284013 -0.030053409 -0.0074342587 -0.020739453 0.011115938 -0.055156536
-0.03201307 -0.038070794 0.013182455 -0.04500071 0.03363778 0.07810378 -0.027074186 -0.020801896
-0.04795001 0.019618185 -0.04983376 -0.050440814 0.052443154 -0.020426648 0.050464325 -0.045881405
-0.0355505 -0.044727165 -0.015048722 -0.031162836 0.015681641 0.067384996 0.050784715 0.046297442
0.01677795 -0.017757853 -0.057054993 -0.012288801 -0.03358944 -0.010123598 0.01621044 -0.008174004
0.0019422839 -0.0064522955 -0.0031046867 0.0038518412 -0.045807056 0.05767431 -0.022903357 -0.04772291
0.022506403 0.06450548 -0.066856556 0.03929514 0.0101910075 -0.014706296 0.038330235 -0.014218835
-0.011153472 -0.03965184 3.3960776e-05 0.022040967 -0.03997631 0.023711637 0.02549506 -0.010033191
0.061203204 -0.016383637 0.043794308 0.020784883 -0.018449014 -0.044893287 -0.042896714 0.043024592
0.00409354 -0.030794624 0.017886821 -0.012788057 -0.0026016193 0.034250136 0.025334004 0.051973354
-0.032102887 0.010630549 -0.023525879 -0.050019644 0.012574278 -0.0074540144 -0.015131965 -0.041209005
0.014626584 -0.03291807 -0.02300881 0.022514189 -0.05950349 -0.025881732 -0.0019232486 0.046668805
0.015128821 -0.0029919327 -0.04650178 0.047742356 0.047947273 -0.036482055 0.015440833 0.0048996587
0.013987927 -0.050051954 0.027642176 -0.0044266684 -0.062594175 -0.02760698 -0.05178487 -0.012730058
-0.0045679905 0.063583575 -0.0328415 -0.046969544 -0.05288018 0.008707086 -0.03596785 0.021577165
-0.020488182 0.064599596 0.003488254 0.04940152 -0.05437557 -0.063113414 0.004004929 -0.0074175713
-0.05954284 0.01450116 -0.006144798 -0.05608169 -0.018653385 -0.054344114 0.0037226214 -0.048132475
0.06798817 0.009843269 0.06983463 0.007388406 0.052160397 -0.027492272 -0.018866464 -0.06458813
0.0050141243 -0.05237555 -0.04682691 0.059665803 -0.037772242 0.023149269 -0.037397984 -0.04679851
-0.039809868 0.025663147 -0.052331273 -0.052521642 -0.064083725 -0.028847259 -0.038242377 -0.05226465
-0.009873237 -0.036195546 0.057110317 -0.0221326 0.020268587 0.036397066 -0.023675662 -0.013245619
-0.016932461 0.016261125 0.040797405 -0.035363663 -0.047854777 0.01831217 -0.00425959 0.019958628
-0.02817299 -0.049583104 0.0076873754 0.052773777 0.0092055 0.038234342 -0.0015223108 0.04530249
0.008436065 0.004036882 0.039622005 -0.0034277032 0.048074786 -0.008091209 -0.03962471 0.012655388
-0.014662694 -0.04464852 -0.039903685 -0.04637226 -0.014709686 -0.048128165 -0.05017845 -0.038097102
-0.0073208744 0.0031053913 -0.012397717 -3.6490183e-05 0.03338649 0.03309639 -0.014688354 -0.017649772
0.033056557 0.060035694 -0.042295825 -0.019125177 -0.008643232 0.037183408 -0.06791976 -0.0060321707
-0.053003244 -0.034653734 -0.03204213 0.026553024 0.0013526188 -0.041336484 -0.00055838795 0.04572428
00000000: 340e b2bc 2dba 5c3c 5f3f 123d 3357 58bc
00000010: 96ed d93c b1d3 25bd 28a0 813d e17b 66bd
00000020: 06ea 66bd efbc 843c b039 9fbc d51c 133c
00000030: 63f5 5b3d bfd0 4b3d f3ef a13c 00be 673c
00000040: e267 ba3c 5254 13bc fa7b b1bc 7e92 183d
00000050: b2f5 46bc 946d 6c3d 66d9 883c 4f62 b0bc
00000060: d663 d6bc a219 08bd 7a3a cb3c c7e7 073d
00000070: cfae 953d 95b2 8abd 3f0f 18bd 74f9 afbc
00000080: eb33 6bbd 16c6 c73c f204 7bbd 9132 f6bc
00000090: 159b f3bb c9e5 a9bc a01f 363c d2eb 61bd
000000a0: 2320 03bd 1ff0 1bbd 39fb 573c aa52 38bd
000000b0: c5c7 093d e0f4 9f3d afca ddbc bd68 aabc
000000c0: 3b67 44bd 51b6 a03c 7c1e 4cbd 079b 4ebd
000000d0: a2ce 563d c955 a7bc aeb3 4e3d 24ee 3bbd
000000e0: 679d 11bd d533 37bd ea8e 76bc 3449 ffbc
000000f0: c976 803c 2501 8a3d a203 503d 63a2 3d3d
00000100: e971 893c eb78 91bc 7fb2 69bd f856 49bc
00000110: 1595 09bd 73dd 25bc c2cb 843c 42ec 05bc
00000120: 3c94 fe3a c76d d3bb 0078 4bbb 2c6f 7c3b
00000130: 2ea0 3bbd e63b 6c3d d29f bbbc 1979 43bd
00000140: 595f b83c 731b 843d 17ec 88bd f1f3 203d
00000150: 2ff8 263c adf2 70bc 2a00 1d3d 1ef6 68bc
00000160: 0dbd 36bc f869 22bd 1b71 0e38 428f b43c
00000170: 33be 23bd e83e c23c 04db d03c 4162 24bc
00000180: 36b0 7a3d fa36 86bc a961 333d 0f45 aa3c
00000190: 6322 97bc 06e2 37bd 77b4 2fbd 8e3a 303d
000001a0: 1a23 863b 0245 fcbc 6287 923c 0085 51bc
000001b0: ee7f 2abb df49 0c3d 4289 cf3c 03e2 543d
000001c0: 517e 03bd c12b 2e3c 58b9 c0bc 66e1 4cbd
000001d0: 5804 4e3c ce40 f4bb 10ec 77bc c6ca 28bd
000001e0: 57a4 6f3c 19d5 06bd f97c bcbc ad6f b83c
000001f0: eeb9 73bd ed05 d4bc 8415 fcba ca27 3f3d
00000200: e0de 773c 4d14 44bb a778 3ebd 7d8d 433d
00000210: 5c64 443d 356e 15bd 8cfb 7c3c 518d a03b
00000220: 9e2d 653c 4703 4dbd d871 e23c 960d 91bb
00000230: 6031 80bd 0928 e2bc 5f1c 54bd bc91 50bc
00000240: 15af 95bb 1b38 823d cf84 06bd 2363 40bd
00000250: e398 58bd 2aa8 0e3c 0653 13bd 98c2 b03c
00000260: d5d6 a7bc cb4c 843d 319b 643b 4059 4a3d
00000270: ebb8 5ebd 9b41 81bd c83b 833b 190f f3bb
00000280: 31e3 73bd 4696 6d3c 4d5a c9bb eab5 65bd
00000290: fcce 98bc ef97 5ebd 39f7 733b 8f26 45bd
000002a0: 623d 8b3d aa45 213c 7505 8f3d 711a f23b
000002b0: 24a6 553d 7937 e1bc d88d 9abc c846 84bd
000002c0: 864d a43b bf87 56bd 93cd 3fbd 2164 743d
000002d0: 11b7 1abd 89a3 bd3c a12e 19bd cbaf 3fbd
000002e0: ac0f 23bd 853b d23c 5159 56bd ef20 57bd
000002f0: 543e 83bd 1651 ecbc 0aa4 1cbd 7513 56bd
00000300: 5cc3 21bc c841 14bd 82ec 693d 6d4f b5bc
00000310: 4f0a a63c 1715 153d 76f3 c1bc 2704 59bc
00000320: f2b5 8abc 0d36 853c 2e1b 273d 7dd9 10bd
00000330: 5f03 44bd 6703 963c 0894 8bbb 4780 a33c
00000340: 0bcb e6bc a717 4bbd 61e6 fb3b 5129 583d
00000350: aad2 163c 9d9b 1c3d 4688 c7ba 1b8f 393d
00000360: 6c37 0a3c d247 843b af4a 223d 51a3 60bb
00000370: 11ea 443d fe90 04bc 854d 22bd 8b58 4f3c
00000380: cc3b 70bc 5ee1 36bd 0c72 23bd d7f0 3dbd
00000390: e500 71bc 0a22 45bd eb87 4dbd b50b 1cbd
000003a0: f2e3 efbb d283 4b3b cb1f 4bbc 090d 19b8
000003b0: 46c0 083d 1590 073d 6ca7 70bc 4196 90bc
000003c0: 5066 073d fde7 753d 633e 2dbd 67ac 9cbc
000003d0: 589c 0dbc a14d 183d 8419 8bbd 84a9 c5bb
000003e0: ee19 59bd 13f1 0dbd 9c3e 03bd ba85 d93c
000003f0: 5b4a b13a 7250 29bd c860 12ba 6249 3b3d
