rlgpu/logs/cut_407/model_355.pt (torch, 868312 bytes, 16 tensors)

log_std f4 [3]
-0.77565247 -0.49393067 -0.1001699
00000000: 2991 46bf 7be4 fcbe e025 cdbd

actor.0.weight f4 [256, 259]
0.036260817 0.04322708 0.055282287 -0.026388286 -0.06476413 0.07455768 0.05401453 -0.07516963
0.030905848 0.03235621 0.018693084 -0.08301735 0.07003572 -0.093347885 -0.02383633 -0.08428926
-0.026568409 -0.034061257 -0.15597667 0.033374988 0.0606014 -0.07925599 -0.0968248 0.016583491
0.10504909 0.0029177284 0.07065047 -0.013655452 -0.004168987 -0.05067844 0.012716327 -0.08751848
0.0272308 0.10658446 0.091030054 -0.033802688 0.056471046 -0.0100640105 -0.05635203 0.012088092
-0.01425882 -0.023701927 0.1721039 0.15205364 -0.10073283 0.1552946 0.079697564 -0.078700945
0.024337286 -0.073790066 -0.031279314 -0.14033031 -0.041157916 0.09662606 -0.057995286 0.056664646
0.22159128 0.09336528 0.014079501 -0.15158176 0.0166922 -0.041267 -0.0059910626 0.015789354
-0.0425488 0.031327095 -0.09368154 0.08366887 -0.026203422 -0.039389346 -0.078629695 0.07176348
-0.0842452 -0.024234632 -0.021355532 -0.043693535 -0.25212154 -0.00811092 0.034672026 -0.015126881
0.03907665 0.1292854 -0.098546624 0.0076276595 -0.054326475 0.13548337 -0.06599174 -0.1306755
-0.092731506 -0.10213613 0.069239154 0.06618583 0.009034816 0.034289133 0.17420848 0.12920381
-0.03156782 -0.07131114 -0.020106804 0.08651132 0.070078686 -0.09132932 -0.014343053 -0.010593754
0.10643335 -0.050040677 -0.050181337 0.10266716 -0.0042717378 0.20450318 -0.032475986 0.11752068
0.025463624 -0.041610673 -0.110614285 -0.104644954 -0.052003026 0.103516676 -0.07588105 -0.01502604
-0.073153 0.15434498 -0.09534136 0.010381924 0.04683039 0.11009792 0.016381403 -0.04757523
0.05721994 0.108338505 0.06878166 0.07067608 -0.07083545 -0.05915387 -0.0630352 0.19387653
-0.06258275 -0.09399564 0.07116556 -0.099368356 0.041372903 -0.18782151 -0.016495401 -0.014731391
-0.09373756 0.015296504 0.13251567 -0.0057149073 -0.076547466 -0.07729574 -0.13275573 0.08451604
-0.16251732 0.021315679 -0.012737498 0.12531468 0.1560739 0.064919114 -0.046088893 0.12586299
0.122121096 0.044356342 -0.12423906 -0.08308036 -5.6365312e-05 0.04605752 -0.058542117 -0.028366264
-0.1910734 -0.058341872 0.07084504 -0.15807262 0.061918765 0.104672305 0.06449049 -0.043368965
0.12669629 -0.070377246 -0.087751694 -0.015321338 0.13544044 0.039404575 -0.085772984 0.024408817
-0.20027973 -0.022555484 0.04539984 -0.0378029 -0.11440789 -0.07682137 -0.15794598 -0.05317372
-0.025181986 -0.043260746 0.16449587 0.05196103 0.124809206 -0.022281924 -0.01850403 0.1565366
-0.036394157 -0.22820875 0.020883951 0.095154665 0.092565164 -0.035492882 0.09066423 -0.0223011
-0.09608251 -0.1923381 -0.05008463 0.053485863 -0.05328563 -0.08385597 -0.020955402 0.20586295
0.07297058 0.0429941 -0.06554169 0.081400156 0.06648957 -0.0096705835 -0.0031302522 -0.0026161438
-0.120895825 0.06772391 -0.042644672 -0.113388225 0.10061063 0.051869202 0.078125834 0.031358242
0.09712715 0.0740261 -0.0957856 0.026494207 -0.10835531 -0.15825966 0.035180923 -0.059614323
-0.02019203 -0.15263285 0.13924703 -0.008483775 0.114220865 0.08531539 0.0081047 0.018514803
0.15812513 -0.02655434 0.10195282 -0.008021465 -0.091679424 0.08528979 -0.013251727 0.03977119
00000000: 3986 143d e10e 313d ae6f 623d 3f2c d8bc
00000010: 0ea3 84bd b2b1 983d 573e 5d3d 89f2 99bd
00000020: 432e fd3c f287 043d 3d22 993c 0005 aabd
00000030: e36e 8f3d 2d2d bfbd 6844 c3bc d99f acbd
00000040: fea5 d9bc d183 0bbd 59b8 1fbe 36b4 083d
00000050: 2c39 783d f750 a2bd 154c c6bd 1ada 873c
00000060: fa23 d73d 5c37 3f3b 32b1 903d 1ebb 5fbc
00000070: ff9b 88bb 3294 4fbd 2458 503c e43c b3bd
00000080: 2013 df3c f448 da3d f76d ba3d b074 0abd
00000090: 2f4e 673d 85e3 24bc 63d1 66bd 220d 463c
000000a0: d39d 69bc 8b2a c2bc 013c 303e f3b3 1b3e
000000b0: 044d cebd 8c05 1f3e 7a38 a33d f62d a1bd
000000c0: fd5e c73c 3f1f 97bd bd1e 00bd c0b2 0fbe
000000d0: 3495 28bd e2e3 c53d 778c 6dbd 3019 683d
000000e0: d3e8 623e 4c36 bf3d b5ad 663c 4038 1bbe
000000f0: 15be 883c 9607 29bd ad50 c4bb ad58 813c
00000100: a747 2ebd d750 003d 1bdc bfbd 965a ab3d
00000110: 8fa8 d6bc b956 21bd 9b08 a1bd bbf8 923d
00000120: bf88 acbd b587 c6bc ccf1 aebc fef7 32bd
00000130: 1316 81be aae3 04bc 4104 0e3d bdd6 77bc
00000140: d60e 203d 6463 043e d0d2 c9bd 72f1 f93b
00000150: 7085 5ebd 27bc 0a3e ad26 87bd cccf 05be
00000160: 04ea bdbd bf2c d1bd 42cd 8d3d 708c 873d
00000170: c406 143c c372 0c3d b563 323e 014e 043e
00000180: 424d 01bd 930b 92bd 06b7 a4bc d92c b13d
00000190: 6a85 8f3d de0a bbbd 20ff 6abc 6d91 2dbc
000001a0: baf9 d93d 74f7 4cbd f28a 4dbd 2943 d23d
000001b0: eff9 8bbb 4869 513e 8a05 05bd afae f03d
000001c0: 1799 d03c f46f 2abd be89 e2bd 1850 d6bd
000001d0: 2001 55bd 8d00 d43d 8667 9bbd c82f 76bc
000001e0: 3dd1 95bd 9c0c 1e3e 5542 c3bd f218 2a3c
000001f0: 39d1 3f3d 057b e13d 4b32 863c 3fde 42bd
00000200: 755f 6a3d 94e0 dd3d 66dd 8c3d 9fbe 903d
00000210: 2d12 91bd 544b 72bd 9918 81bd 9287 463e
00000220: 632b 80bd c980 c0bd 40bf 913d a381 cbbd
00000230: a276 293d 4854 40be 5d21 87bc ef5b 71bc
00000240: 7af9 bfbd 309e 7a3c 30b2 073e 1e44 bbbb
00000250: ebc4 9cbd 3b4d 9ebd 1ef1 07be bf16 ad3d
00000260: f16a 26be 389e ae3c f0b0 50bc 7e52 003e
00000270: d6d1 1f3e 50f4 843d b5c7 3cbd 3ae2 003e
00000280: a01a fa3d ffae 353d 0c71 febd 0926 aabd
00000290: cb69 6cb8 cfa6 3c3d dcc9 6fbd 5e60 e8bc
000002a0: bfa8 43be e3f7 6ebd 3417 913d cadd 21be
000002b0: 889e 7d3d 6f5e d63d 9713 843d a8a3 31bd
000002c0: acbc 013e f221 90bd 29b7 b3bd 5906 7bbc
000002d0: e6b0 0a3e b166 213d bfa9 afbd 00f5 c73c
000002e0: 2116 4dbe 47c6 b8bc 2ff5 393d 37d7 1abd
000002f0: af4e eabd 8654 9dbd 97bc 21be b0cc 59bd
00000300: 744a cebc 2e32 31bd 9b71 283e 17d5 543d
00000310: f89b ff3d 9588 b6bc c395 97bc 214b 203e
00000320: 0a12 15bd 8eaf 69be d214 ab3c 73e0 c23d
00000330: ce92 bd3d fc60 11bd 2bae b93d ccb0 b6bc
00000340: e8c6 c4bd 47f4 44be 8a25 4dbd fe13 5b3d
00000350: 0842 5abd aebc abbd aaaa abbc bdcd 523e
00000360: 9971 953d 951a 303d b93a 86bd 20b5 a63d
00000370: af2b 883d 5e71 1ebc eb24 4dbb 9c73 2bbb
00000380: 3b98 f7bd d5b2 8a3d 2eac 2ebd 1638 e8bd
00000390: f20c ce3d cd74 543d 7000 a03d 8071 003d
000003a0: 99ea c63d ff9a 973d 3e2b c4bd 610a d93c
000003b0: 64e9 ddbd d20e 22be df19 103d 262e 74bd
000003c0: c269 a5bc c94b 1cbe c696 0e3e 88ff 0abc
000003d0: a1ec e93d d6b9 ae3d 93c9 043c 5bac 973c
000003e0: 8eeb 213e 7d88 d9bc a4cc d03d 766c 03bc
000003f0: 6cc2 bbbd 6aac ae3d c61d 59bc 1ee7 223d

actor.0.bias f4 [256]
-0.020226406 -0.050040975 -0.020357907 -0.027464917 -0.025160892 0.011899807 0.06287182 0.02330069
-0.014049565 0.039744023 0.048965804 0.018542731 0.061527807 0.01566471 -0.01597343 0.0064733345
0.014178389 0.012833872 0.02215335 -0.044468757 0.014256876 -0.0054161046 0.04436911 -0.05889113
0.038408976 -0.063470975 -0.018569337 0.024028396 -0.057120256 -0.031587314 0.011601262 -0.02158536
0.010934384 0.04784936 0.0033666154 -0.020127848 -0.05624534 0.03026166 0.051724132 -0.027073013
0.063162625 -0.00094703166 0.049970884 0.044509802 -0.04535051 0.054573335 -0.035744365 0.05052089
0.04515053 -0.03258179 -0.036669623 0.042501833 0.008706786 0.036493633 -0.049771987 -0.04770991
-0.012807115 -0.008128696 -0.005764255 0.02019123 0.0222114 -0.05191847 -0.0722377 0.072323
-0.07072355 -0.061369423 -0.02444013 0.010743385 0.01640107 -0.016797319 -0.022763731 -0.009656968
0.036604404 -0.014033814 0.004187822 -0.049027395 -0.017944785 0.022277959 -0.034429684 -0.042181667
0.03850037 -0.05386042 -0.07120517 0.047482815 0.034992173 -0.057390124 -0.057115518 -0.048097454
0.01618822 -0.041837215 -0.06946924 0.03443454 -0.018354956 -0.009948632 -0.0351815 0.023094522
0.034061566 0.05292114 -0.04760161 0.012010853 -0.013821661 -0.00495164 -0.06438951 -0.055416487
-0.005685635 -0.03308564 0.031813044 -0.0011589479 0.017130904 0.0072932313 -0.0147109 0.011833709
0.03251058 -0.040148687 0.00045834846 0.03291518 -0.024033433 -0.039464876 -0.022286128 -0.056975592
-0.033693902 -0.026451273 -0.020312015 -0.057483513 0.016273059 0.052048802 -0.033165425 -0.045877043
-0.020711796 -0.037823703 0.043214135 0.011009675 -0.05128774 -0.011645727 -0.017667752 -0.042339064
-0.04219104 -0.054051913 -0.0339762 -0.0013508509 -0.057432886 0.03291567 0.036729615 0.04525526
0.052968916 0.0044693644 0.030823655 0.013002429 0.006699494 0.02433842 0.047333583 0.035690866
-0.026126964 0.04579641 0.03824344 0.039889183 -0.041471876 0.030770859 -0.009308036 -0.041157242
-0.05460113 0.02131396 0.008288692 0.024565399 -0.036383327 -0.06688848 0.080019556 0.017174799
0.032931823 -0.0034194603 -0.046421863 0.036995154 0.011151585 0.062446967 -0.043298524 0.00075339706
0.023314347 0.045950416 0.02581022 0.056028947 -0.03489215 -0.054462437 -0.04059509 0.04726081
0.026378399 -0.0058753635 0.043099724 -0.01812128 -0.045752905 -0.0064886557 -0.010392509 -0.03799365
-0.03451503 -0.056472965 -0.05031181 -0.029069623 0.042074032 0.06780053 0.019248998 0.08290854
-0.073710695 0.018937023 0.040833436 -0.0031704016 -0.05404331 0.025271434 -0.019358736 -0.0290186
0.03194615 -0.0068404195 -0.02598468 -0.024429023 0.038637314 -0.019043766 0.06289825 0.034640085
0.011314148 -0.017216057 -0.01885741 -0.04366575 -0.045953643 -0.04666336 -0.01908048 0.0081203375
0.03836097 0.04897477 0.0023622934 0.016470587 0.050864186 0.066454835 -0.060941674 -0.04618632
0.020050945 -0.025043735 0.009744511 -0.059436604 -0.055098254 0.01567603 -0.045506418 -0.06449911
-0.015651718 0.021953106 -0.05354612 -0.01191683 -0.07006087 0.06297602 0.03793156 -0.029398737
0.0030369777 0.0023299956 0.03318019 0.018172605 0.058639325 0.041144546 0.017055532 0.037231084
00000000: d9b1 a5bc c4f7 4cbd a0c5 a6bc 1bfe e0bc
00000010: 371e cebc 68f7 423c f1c2 803d 17e1 be3c
00000020: 2630 66bc a1ca 223d 5e90 483d ede6 973c
00000030: 9504 7c3d 4753 803c b6da 82bc 441e d43b
00000040: 794c 683c 2945 523c f17a b53c df24 36bd
00000050: ac95 693c 9479 b1bb 62bc 353d d337 71bd
00000060: bb52 1d3d 12fd 81bd b91e 98bc 33d7 c43c
00000070: eef6 69bd b361 01bd 3813 3e3c c8d3 b0bc
00000080: 2126 333c b1fd 433d 6fa2 5c3b 28e3 a4bc
00000090: 8361 66bd 4de7 f73c afdc 533d 39c8 ddbc
000000a0: 685b 813d 3842 78ba 45ae 4c3d e94f 363d
000000b0: 75c1 39bd 4a88 5f3d af68 12bd feee 4e3d
000000c0: c3ef 383d 7c74 05bd e332 16bd 6716 2e3d
000000d0: e8a6 0e3c 597a 153d b6dd 4bbd 776b 43bd
000000e0: efd4 51bc 392e 05bc 13e2 bcbb 1468 a53c
000000f0: aff4 b53c 76a8 54bd 5cf1 93bd 151e 943d
00000100: 82d7 90bd 815e 7bbd ab36 c8bc 0605 303c
00000110: 895b 863c 889a 89bc 017b babc 4238 1ebc
00000120: 80ee 153d 15ee 65bc ff39 893b f3d0 48bd
00000130: f100 93bc 4480 b63c 2406 0dbd afc6 2cbd
00000140: 90b2 1d3d be9c 5cbd 04d4 91bd 577d 423d
00000150: f453 0f3d e811 6bbd f6f1 69bd d601 45bd
00000160: 289d 843c 805d 2bbd e445 8ebd 3b0b 0d3d
00000170: 225d 96bc 96ff 22bc 7a1a 10bd b930 bd3c
00000180: 2484 0b3d d6c3 583d e8f9 42bd 2bc9 443c
00000190: 3f74 62bc 5e41 a2bb a6de 83bd 66fc 62bd
000001a0: 904e babb cf84 07bd 654e 023d d7e7 97ba
000001b0: 1c56 8c3c 0ffc ee3b fd05 71bc 2ce2 413c
000001c0: d029 053d f372 24bd 7d4e f039 11d2 063d
000001d0: c3e1 c4bc eca5 21bd 6691 b6bc 3d5f 69bd
000001e0: 9e02 0abd 57b0 d8bc 6265 a6bc d573 6bbd
000001f0: 144f 853c 2031 553d 78d8 07bd 91e9 3bbd
00000200: c9ab a9bc 07ed 1abd 4e01 313d ed61 343c
00000210: 1813 52bd b8cd 3ebc f6bb 90bc ba6b 2dbd
00000220: 83d0 2cbd 8a65 5dbd a12a 0bbd 090f b1ba
00000230: bf3e 6bbd 95d2 063d cb71 163d 945d 393d
00000240: eff5 583d bf73 923b e481 fc3c 2408 553c
00000250: 6e87 db3b 5e61 c73c dce0 413d 9630 123d
00000260: 3708 d6bc 0495 3b3d 27a5 1c3d d762 233d
00000270: 6ade 29bd 2b13 fc3c bc80 18bc 7f94 28bd
00000280: 6fa5 5fbd 9d9a ae3c 4bcd 073c 603d c93c
00000290: af06 15bd d4fc 88bd 4be1 a33d 2ab2 8c3c
000002a0: 85e3 063d 0619 60bb da24 3ebd 3b88 173d
000002b0: 23b5 363c 64c8 7f3d cb59 31bd 9f7f 453a
000002c0: bbfd be3c 8136 3c3d f46f d33c 9c7e 653d
000002d0: 12eb 0ebd 0114 5fbd 0947 26bd 8d94 413d
000002e0: 8317 d83c 1f86 c0bb 5689 303d 1473 94bc
000002f0: 6667 3bbd ca9e d4bb 5845 2abc 3b9f 1bbd
00000300: a25f 0dbd 3250 67bd c213 4ebd 6b23 eebc
00000310: d255 2c3d 01db 8a3d 13b0 9d3c f4cb a93d
00000320: a2f5 96bd d121 9b3c f640 273d 83c6 4fbb
00000330: 855c 5dbd 0a06 cf3c 3696 9ebc 6ab8 edbc
00000340: f7d9 023d 9925 e0bb d3dd d4bc 601f c8bc
00000350: 2942 1e3d ac01 9cbc ccd0 803d c3e2 0d3d
00000360: fa5e 393c b008 8dbc db7a 9abc dcda 32bd
00000370: e339 3cbd 1422 3fbd ab4e 9cbc 2a0b 053c
00000380: 6420 1d3d c599 483d b5d0 1a3b 53ed 863c
00000390: f756 503d 7919 883d fa9d 79bd de2d 3dbd
000003a0: e141 a43c 8528 cdbc 71a7 1f3c cc73 73bd
000003b0: b5ae 61bd 056b 803c f064 3abd 1c18 84bd
000003c0: 0838 80bc 00d7 b33c 2d53 5bbd cf3e 43bc
000003d0: 137c 8fbd 92f9 803d 205e 1b3d 9fd5 f0bc
000003e0: 0808 473b d7b2 183b f3e7 073d b7de 943c
000003f0: ca2f 703d 2f87 283d 0bb8 8b3c 9f7f 183d

actor.2.weight f4 [128, 256]
-0.043814182 0.17534111 -0.1592634 0.012405529 -0.07787215 -0.123987414 0.019838335 0.10017108
0.039413583 0.1793655 -0.058832806 -0.063725695 -0.08269489 0.11637379 0.010698704 0.061454654
-0.14373028 -0.06275974 -0.10542289 0.14452179 0.24040332 -0.023633176 -0.12877817 0.09066865
-0.16842885 -0.13630801 0.020931501 0.06614592 -0.065057404 0.044452887 -0.024879003 -0.015364839
0.016667806 -0.008204361 0.08261524 0.020736707 -0.18827286 0.011965188 0.074113265 -0.049104996
0.08371072 0.13592994 -0.08162652 0.022059165 0.06232771 -0.087447844 0.055910926 0.052267205
0.044560526 -0.20373909 0.0046454323 0.07781932 -0.010667246 -0.10039989 0.053671557 -0.037082076
-0.1450256 0.023603695 0.03210402 -0.054380167 -0.005244822 0.13348114 0.10674314 -0.21882981
0.08466958 -0.11215005 0.043204807 -0.060894947 -0.011325374 -0.074933745 -0.09672282 -0.058957122
-0.06639673 -0.037117206 -0.041253623 0.13912828 -0.13132975 0.0071526133 -0.013844352 0.074387304
0.043496337 -0.012238192 0.10420038 -0.20517051 0.054208294 0.0032005974 -0.09944657 0.24603109
-0.032801323 -0.10744959 -0.0040120925 0.030799473 0.05777567 0.050678663 -0.021385359 0.05033117
0.015765538 0.017056512 -0.02769004 0.012249154 -0.116331875 0.15256934 0.09139003 0.1345625
0.050962355 -0.051253747 0.051975034 0.068180144 -0.087770745 0.03789993 0.061034914 0.035363637
-0.07956609 0.004646692 -0.116381265 -0.13118681 0.08521748 -0.022852177 -0.09245525 -0.0077533145
-0.03401247 0.15451589 0.05299832 -0.0829136 -0.0641767 0.06682584 0.03541628 0.10667919
0.058333214 0.010563912 0.054907758 0.06920375 -0.041960377 0.16322644 -0.06143201 0.033137344
-0.03134699 0.1262983 -0.115645215 -0.15098232 0.1031221 0.004893783 -0.0038477145 -0.1676231
-0.0027874715 -0.091167696 0.046415318 0.0216629 0.06281325 0.08069654 0.0873941 0.064844765
-0.030973513 0.15218484 -0.013803665 0.0059727 0.031436715 -0.0887852 -0.017740289 -0.070245676
0.22744893 -0.15653624 -0.0031853712 -0.040487215 0.028443953 -0.19668017 0.029688602 -0.13713688
0.0687907 -0.020351602 0.027771845 0.07343718 -0.108414896 0.06018748 -0.012830745 0.023677409
-0.088878356 0.1716505 0.1213158 0.037437506 -0.051282916 -0.07395394 -0.13080645 0.14116578
0.00917986 0.08458278 0.0071724807 0.117438555 -0.040812187 -0.027981503 0.023646362 0.12387154
0.056045588 0.07957876 0.03438381 -0.015420438 0.023949249 -0.016627628 0.08610594 0.0015457509
0.054350507 0.012976909 -0.10406375 -0.024213744 -0.003949178 -0.058672935 0.014063703 0.0693378
0.09072251 -0.059854854 0.0023752193 -0.16193105 0.06638663 -0.11079954 0.055882312 -0.12767167
0.012526945 -0.15460919 0.08080936 -0.09850701 0.06986629 -0.054331936 0.016284106 0.087670766
0.063787594 -0.085884795 0.10987565 -0.063318916 0.07390848 -0.084873684 0.1669014 -0.1276387
0.027783725 -0.0040726755 -0.07482817 0.0109268855 -0.078285016 0.063748464 -0.02922273 -0.054062575
0.06829987 -0.022702437 0.034299165 -0.17019781 0.021786725 0.2193358 -0.09950997 -0.14766638
0.11752522 0.035018515 -0.012868701 -0.1271332 -0.13209389 -0.04591258 0.13347086 -0.07507424
00000000: 8076 33bd 9f8c 333e f215 23be 8f40 4b3c
00000010: 6f7b 9fbd 1ded fdbd 0184 a23c 7f26 cd3d
00000020: 2370 213d 97ab 373e abfa 70bd 9e82 82bd
00000030: f05b a9bd 6255 ee3d 9e49 2f3c e0b7 7b3d
00000040: 082e 13be 2e88 80bd f5e7 d7bd 85fd 133e
00000050: 4a2c 763e 5d9a c1bc 6dde 03be 7cb0 b93d
00000060: 9d78 2cbe 5494 0bbe 8a78 ab3c 8377 873d
00000070: d13c 85bd 3b14 363d 0dcf cbbc cebc 7bbc
00000080: ec8a 883c 966b 06bc 2e32 a93d 07e0 a93c
00000090: 9aca 40be a309 443c b2c8 973d 5222 49bd
000000a0: 8770 ab3d 3831 0b3e ce2b a7bd 6cb5 b43c
000000b0: 574b 7f3d db17 b3bd db02 653d 2316 563d
000000c0: 1985 363d fba0 50be b638 983b bc5f 9f3d
000000d0: acc5 2ebc 759e cdbd b5d6 5b3d 60e3 17bd
000000e0: 9781 14be 895c c13c 817f 033d bdbd 5ebd
000000f0: c1dc abbb 48af 083e 269c da3d ec14 60be
00000100: 3f67 ad3d edae e5bd 86f7 303d fb6c 79bd
00000110: 108e 39bc dd76 99bd 9d16 c6bd 067d 71bd
00000120: 02fb 87bd 3608 18bd 8ff9 28bd a577 0e3e
00000130: 4e7b 06be 7860 ea3b 6cd3 62bc 5f58 983d
00000140: 3729 323d b382 48bc 0267 d53d 3818 52be
00000150: 8409 5e3d 1dc1 513b a5aa cbbd 93ef 7b3e
00000160: ae5a 06bd 880e dcbd df77 83bb 2d4f fc3c
00000170: 2ea6 6c3d 6e94 4f3d 5930 afbc 0f28 4e3d
00000180: bb26 813c 19ba 8b3c 39d6 e2bc adb0 483c
00000190: 683f eebd 233b 1c3e b22a bb3d c1ca 093e
000001a0: e7bd 503d 73ef 51bd c6e3 543d 08a2 8b3d
000001b0: 26c1 b3bd f53c 1b3d bfff 793d 76d9 103d
000001c0: 8cf3 a2bd 4743 983b 4d59 eebd d655 06be
000001d0: 8186 ae3d 7d34 bbbc 2e59 bdbd 840f febb
000001e0: a950 0bbd 6a39 1e3e c414 593d 9bce a9bd
000001f0: 136f 83bd fcdb 883d a910 113d 9f7a da3d
00000200: cfee 6e3d 4214 2d3c f5e6 603d b2ba 8d3d
00000210: a5de 2bbd d524 273e 22a0 7bbd 06bb 073d
00000220: b465 00bd 5754 013e 66d7 ecbd 1c9b 1abe
00000230: ae31 d33d 075c a03b f029 7cbb 64a5 2bbe
00000240: 03ae 36bb 21b6 babd fd1d 3e3d 6576 b13c
00000250: 3ca4 803d 3a44 a53d aefb b23d 55cd 843d
00000260: 2abc fdbc 58d6 1b3e c428 62bc a4b6 c33b
00000270: c9c3 003d 04d5 b5bd 1554 91bc f7dc 8fbd
00000280: 5fe8 683e 094b 20be a9c1 50bb ecd5 25bd
00000290: 4b03 e93c 8766 49be 8335 f33c 9c6d 0cbe
000002a0: 23e2 8c3d 67b8 a6bc c881 e33c 3b66 963d
000002b0: a108 debd 2687 763d 0c38 52bc 20f7 c13c
000002c0: db05 b6bd 26c5 2f3e 6b74 f83d 1258 193d
000002d0: 090e 52bd 2a75 97bd 20f2 05be c38d 103e
000002e0: 2067 163c bd39 ad3d 2107 eb3b a083 f03d
000002f0: ae2a 27bd 7739 e5bc 04b6 c13c 5db0 fd3d
00000300: 0f90 653d 30fa a23d 0ad6 0c3d 01a6 7cbc
00000310: 3731 c43c aa36 88bc 5058 b03d cb9a ca3a
00000320: a39e 5e3d 1a9d 543c 601f d5bd e75b c6bc
00000330: 1b68 81bb 0853 70bd 726b 663c fa00 8e3d
00000340: b9cc b93d 5d2a 75bd 91a9 1b3b 41d1 25be
00000350: b7f5 873d dfea e2bd dae4 643d 5dbc 02be
00000360: d13d 4d3c df51 1ebe 617f a53d 0bbe c9bd
00000370: 0f16 8f3d 2a8b 5ebd 3f66 853c bb8c b33d
00000380: 12a3 823d 5ee4 afbd 7c06 e13d 59ad 81bd
00000390: 545d 973d 41d2 adbd 33e8 2a3e b8b3 02be
000003a0: b29a e33c 1474 85bb 833f 99bd ae06 333c
000003b0: e553 a0bd 8e8e 823d 8264 efbc b870 5dbd
000003c0: cde0 8b3d 76fa b9bc 487d 0c3d 5648 2ebe
000003d0: 137a b23c 9099 603e e2cb cbbd db35 17be
000003e0: 10b1 f03d 936f 0f3d 3ed7 52bc 352f 02be
000003f0: 9f43 07be d40e 3cbd 96ac 083e 86c0 99bd

actor.2.bias f4 [128]
-0.041816488 0.019465948 -0.049624644 -0.04559558 -0.032170583 0.026436936 -0.011768286 -0.035087235
-0.003859511 0.039478622 -0.0035284255 0.03668857 -0.076124236 -0.06684458 -0.014454822 -0.06703732
0.0046468764 -0.051959567 -0.028341465 0.010004326 0.011347444 -0.056421306 -0.06906719 0.020738382
-0.048510965 -0.026238779 0.0015217462 0.036407493 -0.035883218 -0.009918994 0.025858726 0.032215748
-0.012560969 -0.06468893 0.041205473 -0.00838204 -0.011491097 0.040282857 0.0046982476 -0.053666975
0.009125694 -0.0014035606 -0.03940821 -0.017583394 -0.0038175052 -0.060330518 0.012579037 -0.071360454
-0.028112387 0.034004204 -0.07161078 -0.02209758 -0.036699414 -0.028535625 0.019708946 0.035579503
-0.04075002 0.041567087 -0.035954054 -0.018385656 0.030946495 -0.00479957 0.023736965 0.011848236
0.004133559 0.046128225 -0.018264977 0.001219327 0.035131868 -0.021440146 0.031275216 -0.03190214
0.00785058 -0.02421327 -0.07450581 0.026795661 -0.017372387 0.019020934 -0.025153626 -0.019150062
-0.0035076262 -0.072612986 0.02075431 -0.0074845725 -0.054455724 0.04609891 0.06327862 -0.06655483
0.04452108 -0.046088867 -0.07385365 -0.032664813 -0.062451202 -0.04595233 0.027337028 0.011531047
-0.03152783 0.0038530321 -0.006608694 0.012512154 0.016386919 0.028460268 -0.060233325 -0.062305324
-0.06819391 -0.028946836 0.04442953 -0.010178296 -0.041164093 -0.06203914 0.007810839 -0.03365062
-0.03437929 -0.04309886 0.025354886 0.025351593 -0.027562728 -0.0020941026 0.04901946 -0.051961012
-0.0587478 -0.028598776 -0.03470752 -0.06466133 -0.063625544 -0.032499366 -0.014749034 0.0006365882
00000000: c447 2bbd 0d77 9f3c 3643 4bbd 6ec2 3abd
00000010: 4dc5 03bd 4692 d83c c5cf 40bc a2b7 0fbd
00000020: daef 7cbb 56b4 213d 283d 67bb c146 163d
00000030: 06e7 9bbd d0e5 88bd ebd3 6cbc dd4a 89bd
00000040: d344 983b 8ed3 54bd 5c2c e8bc 2fe9 233c
00000050: a1ea 393c 071a 67bd 1973 8dbd 8ae3 a93c
00000060: 6fb3 46bd b5f2 d6bc 5475 c73a 0620 153d
00000070: 48fa 12bd 4783 22bc aed5 d33c a9f4 033d
00000080: 86cc 4dbc a17b 84bd 12c7 283d d354 09bc
00000090: 2745 3cbc a3ff 243d c2f3 993b e7d1 5bbd
000000a0: ef83 153c aef7 b7ba 816a 21bd 0d0b 90bc
000000b0: 1c2f 7abb 221d 77bd 4e18 4e3c 6e25 92bd
000000c0: f34b e6bc fe47 0b3d aca8 92bd fc05 b5bc
000000d0: 2052 16bd 8bc3 e9bc a874 a13c d0bb 113d
000000e0: 7ee9 26bd 4042 2a3d 8f44 13bd 849d 96bc
000000f0: 8183 fd3c b645 9dbb 0674 c23c 1b1f 423c
00000100: ce72 873b f3f0 3c3d 6fa0 95bc d3d1 9f3a
00000110: 6fe6 0f3d 3fa3 afbc 711a 003d d1ab 02bd
00000120: b89f 003c e85a c6bc 8196 98bd 9382 db3c
00000130: 8950 8ebc cad1 9b3c fa0e cebc 97e0 9cbc
00000140: 34e0 65bb 1eb6 94bd f104 aa3c 2541 f5bb
00000150: f70c 5fbd 36d2 3c3d 3998 813d e64d 88bd
00000160: bc5b 363d aec7 3cbd 9540 97bd 8acb 05bd
00000170: d5cc 7fbd 8338 3cbd e7f1 df3c b7ec 3c3c
00000180: 5323 01bd 2783 7c3b be8d d8bb c7ff 4c3c
00000190: dc3d 863c 8225 e93c 38b7 76bd de33 7fbd
000001a0: 40a9 8bbd ea21 edbc bdfb 353d dec2 26bc
000001b0: ae9b 28bd c11c 7ebd 11f2 ff3b 3cd5 09bd
000001c0: 4cd1 0cbd 6e88 30bd 0db5 cf3c 25ae cf3c
000001d0: 3bcb e1bc 363d 09bb a1c8 483d 12d5 54bd
000001e0: 88a1 70bd fb47 eabc 7929 0ebd 296d 84bd
000001f0: 1c4e 82bd 0e1e 05bd efa5 71bc b6e0 263a

actor.4.weight f4 [64, 128]
-0.052909296 -0.0025267035 0.11562378 -0.092526644 -0.09778708 -0.03550242 0.09329621 -0.24996965
0.050541043 -0.24616739 0.13767274 0.18714933 -0.077757515 0.048675273 0.016936589 -0.083527945
0.1679349 -0.06700967 0.19982538 -0.08852991 -0.047746997 0.0037649958 0.14759618 0.010214976
-0.11130202 0.048946667 0.07368417 -0.19166452 0.060931727 -0.06870127 0.045630597 0.13720359
-0.0113152275 0.30267984 -0.053818777 0.044055123 0.035545614 0.024608882 -0.028838212 -0.10006627
-0.015482798 -0.012294007 -0.18657093 -0.17797689 0.009747692 0.10102128 0.03897689 -0.0605254
-0.049153104 0.088002644 0.11583047 0.08765793 0.32420227 -0.13225326 0.010593864 -0.04026729
0.17751063 -0.26350623 0.04505589 -0.0583669 -0.028496427 0.0129878465 0.2151865 0.102737546
0.29233393 -0.0005649681 -0.35056147 0.09980039 -0.118913636 -0.063014805 -0.057375543 0.11893116
0.24177352 0.30844212 0.23604345 0.065605424 -0.13121052 0.03244567 0.17275678 -0.13934779
-0.12725577 0.030889086 0.114966325 0.014509904 -0.22653124 -0.12910612 -0.09713523 -0.071944654
0.15893847 -0.23794478 -0.032952752 -0.0906671 0.00059233577 0.08016889 0.05896459 -0.023126433
0.011167853 -0.0974373 0.054255627 -0.09455214 0.018533247 -0.07748482 -0.00052565476 0.070634946
-0.053745344 -0.09471085 -0.04504147 -0.024384337 0.056033354 0.13429248 0.16379035 0.12546802
0.12963156 0.11511205 -0.19474995 0.098097324 0.05910261 -0.019187685 -0.11766458 -0.1689697
-0.20680594 0.17562936 -0.10118896 0.024987977 0.15978451 0.18625326 -0.007461732 0.08496129
0.052802652 -0.027314778 0.18250942 0.03810256 0.022405565 -0.16365986 -0.17756574 -0.09215298
0.17944062 0.11152691 0.10838778 -0.10811547 0.16376628 0.17389524 -0.09207257 -0.09953642
0.34474123 0.16569991 0.08901355 -0.16107829 0.0014134322 0.051579326 -0.08803392 -0.28097817
0.0068766847 0.024845142 -0.05030149 0.011185249 0.07523057 0.084316485 -0.17541876 -0.02026711
0.055685736 0.19018003 0.052848503 0.09633668 0.06775466 0.04505175 0.14233766 0.15697923
-0.14577605 -0.19775504 0.011407853 0.1060975 0.21750994 -0.012380605 -0.12058585 0.021153944
0.16500136 0.13096197 -0.08377417 -0.12222954 0.006969086 -0.16595434 -0.0458463 0.06026344
-0.01828145 0.055526894 -0.09611747 0.17567126 0.016224362 -0.15637106 -0.24727242 -0.043055534
-0.013031065 -0.079777785 0.1909554 0.031584572 -0.051694974 -0.14641896 -0.123415075 0.10421417
-0.103238285 0.08025053 -0.14152126 -0.27007332 0.058411796 -0.090320274 0.121026024 -0.0077782176
-0.06344684 -0.20116977 0.06305304 0.07462618 -0.05556717 -0.21472174 -0.06819378 0.3193775
0.08653564 -0.01291693 -0.022435231 -0.054942545 -0.01104931 -0.036168423 -0.057306092 -0.009003708
0.022679878 0.06286438 0.03729878 -0.16558327 -0.022343472 -0.23571824 0.07697404 0.19495983
-0.16180332 0.08789238 -0.08078262 -0.07563646 0.09893592 -0.12580062 -0.007920189 0.09243161
0.031384397 0.1286787 0.06974574 0.13679616 -0.13535814 -0.10017982 -0.09665568 -0.043925095
-0.012522019 -0.14171876 -0.032671772 0.20310505 0.026266366 -0.16580822 -0.1858 0.052116554
00000000: 6bb7 58bd 0d97 25bb 29cc ec3d 9c7e bdbd
00000010: 9844 c8bd fc6a 11bd 1512 bf3d 0bf8 7fbe
00000020: 2004 4f3d 4e13 7cbe 15fa 0c3e 13a4 3f3e
00000030: 553f 9fbd b95f 473d 9abe 8a3c b310 abbd
00000040: 20f7 2b3e 5e3c 89bd 069f 4c3e 2b4f b5bd
00000050: 5b92 43bd 26be 763b 7423 173e b75c 273c
00000060: 50f2 e3bd 4d7c 483d bae7 963d b443 44be
00000070: 8c93 793d 40b3 8cbd 26e7 3a3d 197f 0c3e
00000080: 8163 39bc daf8 9a3e 1471 5cbd 2573 343d
00000090: 4798 113d 9198 c93c 1d3e ecbc 8bef ccbd
000000a0: 90ab 7dbc ce6c 49bc 730c 3fbe 933f 36be
000000b0: c9b4 1f3c 3fe4 ce3d 3ba6 1f3d 7be9 77bd
000000c0: c454 49bd bb3a b43d 8738 ed3d 0086 b33d
000000d0: d7fd a53e 666d 07be e391 2d3c 50ef 24bd
000000e0: 59c5 353e 4aea 86be 868c 383d 2112 6fbd
000000f0: 5771 e9bc faca 543c da59 5c3e 1068 d23d
00000100: cbac 953e 5e1a 14ba cb7c b3be 2664 cc3d
00000110: fe88 f3bd e80d 81bd 9e02 6bbd 2e92 f33d
00000120: 7a93 773e 20ec 9d3e 60b5 713e 235c 863d
00000130: 0d5c 06be c0e5 043d 27e7 303e 30b1 0ebe
00000140: 564f 02be 1c0b fd3c 7773 eb3d f3ba 6d3c
00000150: cef7 67be 6534 04be d6ee c6bd b857 93bd
00000160: c4c0 223e cca7 73be 77f9 06bd acaf b9bd
00000170: fb46 1b3a 962f a43d db84 713d a573 bdbc
00000180: 5ff9 363c 358d c7bd 263b 5e3d 8da4 c1bd
00000190: 09d3 973c 5cb0 9ebd 18cc 09ba 0ea9 903d
000001a0: 1424 5cbd c3f7 c1bd 687d 38bd a9c1 c7bc
000001b0: 3b83 653d f883 093e a8b8 273e b07a 003e
000001c0: 23be 043e debf eb3d 886c 47be 40e7 c83d
000001d0: 9415 723d 7e2f 9dbc 21fa f0bd 6506 2dbe
000001e0: f0c4 53be 2fd8 333e 283c cfbd 96b3 cc3c
000001f0: 8d9e 233e 2db9 3e3e 8b81 f4bb 2f00 ae3d
00000200: 9847 583d 3ec3 dfbc c0e3 3a3e 6e11 1c3d
00000210: e08b b73c 7396 27be cbd3 35be b4ba bcbd
00000220: 48bf 373e 3868 e43d 6afa dd3d a56b ddbd
00000230: 59b2 273e 9811 323e 8b90 bcbd c0d9 cbbd
00000240: ec81 b03e 3dad 293e bc4c b63d b5f1 24be
00000250: ea42 b93a d844 533d 214b b4bd 5fdc 8fbe
00000260: d055 e13b 0a88 cb3c ef08 4ebd 5642 373c
00000270: 7c12 9a3d 1fae ac3d faa0 33be 3607 a6bc
00000280: ba16 643d 8ebe 423e ac77 583d 2a4c c53d
00000290: f5c2 8a3d 2f88 383d f7c0 113e 2abf 203e
000002a0: 5146 15be 4c80 4abe 01e8 3a3c a549 d93d
000002b0: edba 5e3e 05d8 4abc b7f5 f6bd 094b ad3c
000002c0: 1ef6 283e e51a 063e cb91 abbd 7b53 fabd
000002d0: ee5c e43b efef 29be 54c9 3bbd ccd6 763d
000002e0: fbc2 95bc 2b70 633d 3cd9 c4bd 2be3 333e
000002f0: f4e8 843c bc1f 20be fb34 7dbe 005b 30bd
00000300: 4080 55bc 8962 a3bd d089 433e d35e 013d
00000310: 1cbe 53bd daee 15be 0bc1 fcbd 3d6e d53d
00000320: 986e d3bd 645a a43d f3ea 10be 0d47 8abe
00000330: 3541 6f3d d6f9 b8bd 7edc f73d 6be0 febb
00000340: 6bf0 81bd 73ff 4dbe f421 813d 9cd5 983d
00000350: 679a 63bd 04e0 5bbe 2ea9 8bbd 7385 a33e
00000360: 9939 b13d 88a1 53bc 17ca b7bc 6f0b 61bd
00000370: 2a08 35bc 5725 14bd cbb9 6abd 4a84 13bc
00000380: 27cb b93c 0abf 803d 9bc6 183d a98e 29be
00000390: a809 b7bc 1f60 71be 91a4 9d3d 8da3 473e
000003a0: c5af 25be ec00 b43d 5c71 a5bd 4ae7 9abd
000003b0: ea9e ca3d e1d1 00be aec3 01bc c94c bd3d
000003c0: ed8c 003d 59c4 033e dbd6 8e3d 4b14 0c3e
000003d0: 539b 0abe 142b cdbd 6af3 c5bd cdea 33bd
000003e0: 2829 4dbc b91e 11be d6d2 05bd c5fa 4f3e
000003f0: 902c d73c a1c9 29be 5b42 3ebe 2b78 553d

actor.4.bias f4 [64]
-0.009553975 -0.0023053184 -0.0780284 -0.011633299 -0.099650465 0.02239959 0.03556477 0.049673066
-0.098277204 0.0116886785 -0.0049148626 -0.04100225 0.038943414 0.01631417 -0.012006436 0.053744443
0.012970143 -0.026253007 0.017910967 -0.06224925 0.021909066 -0.08388968 -0.020379867 -0.023398826
0.057667326 0.06922654 0.055429034 -0.00496863 0.05880306 0.052083354 -0.06351999 -0.10243725
-0.09290135 0.064594634 -0.035622314 -0.022061437 0.039078757 -0.010398406 0.0017172564 0.039738417
-0.028901009 -0.05155976 -0.08399558 -0.050347604 -0.040328514 -0.04711764 0.060251325 -0.100314125
-0.016999803 -0.0344866 0.025158437 0.074377194 -0.032284163 -0.11034138 0.05653188 0.017877677
0.047530316 -0.060645875 -0.018639972 -0.07136851 -0.0916303 0.06108149 0.024277702 -0.073749416
00000000: 4788 1cbc d314 17bb 5bcd 9fbd 9899 3ebc
00000010: 8b15 ccbd 587f b73c 5dac 113d fc75 4b3d
00000020: 8f45 c9bd df81 3f3c db0c a1bb faf1 27bd
00000030: 2183 1f3d 4ba5 853c a4b6 44bc 2223 5c3d
00000040: b980 543c 8c10 d7bc 05ba 923c 12f9 7ebd
00000050: a47a b33c 5ace abbd aef3 a6bc e5ae bfbc
00000060: 9334 6c3d a5c6 8d3d 8e09 633d e4cf a2bb
00000070: 7adb 703d 5b55 553d c516 82bd 9fca d1bd
00000080: 1043 bebd 314a 843d b4e8 11bd 30ba b4bc
00000090: 0c11 203d 135e 2abc 9015 e13a c0c4 223d
000000a0: cfc1 ecbc 5430 53bd e005 acbd 4a39 4ebd
000000b0: 832f 25bd 6dfe 40bd 18ca 763d 7e71 cdbd
000000c0: 2c43 8bbc d241 0dbd 1119 ce3c 1253 983d
000000d0: 663c 04bd a9fa e1bd f98d 673d 3574 923c
000000e0: 26af 423d cf67 78bd dbb2 98bc a729 92bd
000000f0: aba8 bbbd 9630 7a3d 08e2 c63c ef09 97bd

actor.6.weight f4 [3, 64]
0.0013451071 0.00044288512 0.005298599 0.0020474594 -0.000113484486 0.009460919 0.0074926717 0.009056852
-0.0009482862 -0.001278245 -0.0073566185 -0.0008654347 0.0015909385 9.299532e-05 0.0029080845 -0.0020068747
-0.017383367 -0.0012998428 -0.004985933 -0.00071466755 -0.00023820528 0.0012902489 0.002344893 0.010411639
0.009162204 0.0008257182 -0.00016112025 -0.014159037 -0.0041172514 -0.0015958361 -0.0009683237 0.008041575
0.0004904351 -0.00422165 0.0008017281 0.007683282 -0.0010675509 -0.0009492987 0.005398089 0.0062694866
0.0063699204 -0.00077859755 -8.5373744e-05 -1.5757701e-05 0.007997173 0.0018770901 0.0011219167 -0.00018444164
-0.003934048 0.0007448996 0.00059386855 -0.013655782 -0.0011945528 0.00020524459 0.00035239683 -0.0009861727
0.0007008216 0.008597062 -0.0007145968 -0.017195022 0.0042119767 -0.0016048293 0.001582091 0.00033758706
-0.0060259104 -0.0008463121 -0.013613029 -0.0047323746 -0.0064917295 -0.014639135 -0.011497395 -0.012124502
-0.0059999465 -0.004167411 -0.0027627482 -0.008644066 -0.0071896235 0.0012550689 -0.018912591 0.0029402226
-0.0076802606 -0.0052405754 -0.0040181302 0.0007396781 -0.008860933 -0.005038848 -0.0089568095 -0.013903085
-0.009242928 -0.008304749 -0.0065091406 -0.0059360815 -0.001072338 -0.005575607 -0.008178393 -0.011117218
-0.0072735646 -0.0014068006 -0.0012019495 -0.015298837 -0.0056106555 -0.0069849896 -0.005240398 -0.0093219
-0.011895319 -0.00612733 -0.0077785775 -0.0059181466 -0.01331828 -0.0073628253 -0.00016146892 -0.0088570155
-0.0077212444 -0.008048137 -0.0064092632 -0.007120722 -0.006052689 -0.00696874 -0.005855129 -0.0072219637
-0.0073313625 -0.015057292 -0.0034524603 -0.007183425 -0.005810831 -0.0025310314 -0.0072377645 -0.0004161652
0.052404687 0.00057970267 0.04930397 0.046945076 0.046005867 0.055375326 0.042685974 0.049020946
0.054050628 0.045349367 0.038417798 0.04730948 0.039264742 -0.0045251683 0.04376646 -0.047228187
0.038444865 0.042803228 0.037661187 -0.017458485 0.0431917 0.04119241 0.047747016 0.050068334
0.040446967 0.04599672 0.05424246 0.029823668 0.033591744 0.05456295 0.05673422 0.045138054
0.045915898 0.038780827 -0.0057249954 0.052802533 0.044542257 0.047424212 0.034756526 0.042250838
0.04157557 0.055124037 0.05856203 0.044368263 0.046857756 0.05808019 -0.020327788 0.060091577
0.04532325 0.05633819 0.044025205 0.023444155 0.05591814 0.053617723 0.054409035 0.045815524
0.043268926 0.05410663 0.043252397 0.036313564 0.039855905 0.028658988 0.060014043 0.00012650772
00000000: 4e4e b03a 0933 e839 df9f ad3b ab2e 063b
00000010: 85fe edb8 f801 1b3c 1685 f53b 3163 143c
00000020: 6996 78ba c98a a7ba ca0f f1bb 57de 62ba
00000030: 0a87 d03a 7b06 c338 9095 3e3b c585 03bb
00000040: 9067 8ebc 7d5f aaba 0a61 a3bb 8758 3bba
00000050: bec6 79b9 921d a93a c7ac 193b 9495 2a3c
00000060: 121d 163c 0375 583a 63f2 28b9 4efb 67bc
00000070: 02ea 86bb 602b d1ba 1ad7 7dba cfc0 033c
00000080: 8b90 003a c455 8abb 102b 523a 0ac4 fb3b
00000090: 10ed 8bba 5bda 78ba 74e2 b03b 4470 cd3b
000000a0: c4ba d03b cc1a 4cba ae0a b3b8 682f 84b7
000000b0: 9306 033c b108 f63a 470d 933a ad66 41b9
000000c0: 30e9 80bb 5e45 433a d8ad 1b3a 80bc 5fbc
000000d0: 8a92 9cba ed36 5739 e7c1 b839 7742 81ba
000000e0: 57b7 373a b1da 0c3c c853 3bba 93dc 8cbc
000000f0: 9f04 8a3b 2359 d2ba 2a5e cf3a 2bfe b039
00000100: 0075 c5bb 0bdb 5dba 2f09 5fbc 0912 9bbb
00000110: 93b8 d4bb fcd8 6fbc 925f 3cbc d9a5 46bc
00000120: 339b c4bb c78e 88bb 390f 35bb d79f 0dbc
00000130: ef96 ebbb 2081 a43a 94ee 9abc c0b0 403b
00000140: b2aa fbbb 22b9 abbb 85aa 83bb f5e6 413a
00000150: 722d 11bc ec1c a5bb 95bf 12bc c4c9 63bc
00000160: a66f 17bc a410 08bc a14a d5bb 7683 c2bb
00000170: b18d 8cba 95b3 b6bb abfe 05bc fe24 36bc
00000180: 1557 eebb 6564 b8ba bc8a 9dba f9a7 7abc
00000190: 97d9 b7bb 57e2 e4bb a5b7 abbb e2ba 18bc
000001a0: 96e4 42bc c5c7 c8bb 70e3 febb 03ed c1bb
000001b0: ea34 5abc db43 f1bb fc4f 29b9 041d 11bc
000001c0: 7e02 fdbb 55dc 03bc cc04 d2bb f254 e9bb
000001d0: a355 c6bb 075a e4bb 62dc bfbb 39a6 ecbb
000001e0: ed3b f0bb dcb2 76bc ac42 62bb f062 ebbb
000001f0: c968 bebb a9df 25bb c52a edbb bf30 dab9
00000200: 4ca6 563d 30f7 173a f6f2 493d 7b49 403d
00000210: a670 3c3d 3dd1 623d 7dd7 2e3d 30ca 483d
00000220: 3164 5d3d 42c0 393d fb5b 1d3d 96c7 413d
00000230: 11d4 203d dd47 94bb 7644 333d 5872 41bd
00000240: 5d78 1d3d 7052 2f3d 9e42 1a3d 1905 8fbc
00000250: c8e9 303d 5fb9 283d 6092 433d 7414 4d3d
00000260: b8ab 253d 0f67 3c3d 572d 5e3d c450 f43c
00000270: 7f97 093d 667d 5f3d 2462 683d aee2 383d
00000280: 4f12 3c3d a5d8 1e3d be98 bbbb 7847 583d
00000290: f171 363d e43f 423d dc5c 0e3d 370f 2d3d
000002a0: 254b 2a3d bec9 613d bdde 6f3d 7fbb 353d
000002b0: ebed 3f3d 7ee5 6d3d 7686 a6bc 9622 763d
000002c0: dfa4 393d e0c2 663d c653 343d f50d c03c
000002d0: 6b0a 653d 429e 5b3d 02dc 5e3d 0fa9 3b3d
000002e0: c23a 313d ea9e 5d3d 6d29 313d 88bd 143d
000002f0: f23f 233d 41c6 ea3c 49d1 753d 28a7 0439

actor.6.bias f4 [3]
-0.027901348 0.06892783 0.041373424
00000000: 5e91 e4bc 092a 8d3d 2e77 293d

critic.0.weight f4 [256, 259]
0.053400476 0.07769324 -0.086591616 -0.011323809 -0.6475293 -0.09753938 0.070966 -0.053436182
0.035789322 0.0031125958 0.04233086 -0.074059546 0.08722943 0.1289165 0.12306999 -0.060349144
0.16050965 -0.0767176 -0.10461379 -0.07488144 0.10479268 -0.1093333 -2.5869715 0.118604094
-0.11341351 0.104023196 0.04470521 -0.058796134 0.29783767 0.34164357 0.07222489 0.062993504
0.004334822 0.122243315 -0.11480183 -0.035845865 0.009360014 0.09864006 -0.07359939 0.036885455
0.04514995 -0.011769911 -0.03520047 0.09618453 -0.010662077 0.21920373 -0.15465423 0.14778294
-0.17597477 0.23570353 -0.066172816 0.024694603 0.051633514 -0.5191588 0.0024961713 0.06392755
-0.0468539 0.009514219 0.1840636 -0.009416538 0.074992545 0.0996666 -0.004752388 0.06032471
-0.039359044 -0.02333685 0.12408499 0.041914906 -0.041912023 0.11349498 -0.10058611 0.07387653
-0.14936242 -0.06647376 0.12344136 -0.1676421 0.053495403 -0.024850326 0.076687545 0.18390177
-0.008514213 0.178179 0.09507333 -0.034285415 0.11432612 -0.46569464 -0.054174036 -0.12877321
-0.02842282 -0.057904188 0.16174045 0.10885937 0.046297453 -0.09391254 -0.09556539 0.06443096
0.00078653754 -0.033755388 0.04233782 0.075232126 -0.055927802 0.0539525 -0.02688503 0.042766504
0.028401019 0.08302952 -0.17981122 0.0726545 0.111809194 0.013942484 0.07676174 -0.14006937
-0.01598821 -0.032422096 -0.044400495 -0.0063887876 -0.015854806 -0.08759681 0.026869677 -0.07616199
-0.012360934 -0.03535124 0.02505262 0.095866054 0.04806112 0.205023 -0.026183326 0.051522367
-0.18985693 0.07344266 0.07077699 -0.03104124 0.0711803 -0.02475887 -0.029656809 0.06825474
-0.0647119 -0.11458514 0.017029915 0.24087441 0.124517955 0.094334126 -0.056346077 0.11439526
-0.08596712 -0.090950705 0.05346596 -0.016272198 0.17460248 0.052088957 -0.081260726 0.043547392
-0.0034400106 -0.13775842 -0.020846292 0.5216163 -0.027859159 0.15635312 0.069983914 -0.00919033
-0.15609062 -0.093539216 0.14245239 -0.02650012 0.017132992 -0.004563862 -0.06631867 0.08090965
-0.036591437 0.044401344 -0.041533846 0.08321786 0.17782807 0.026727341 -0.05470097 0.10599962
-0.1251195 0.12317405 -0.10867361 0.0076715387 -0.00039861607 0.10540622 -0.037404004 -0.032210685
0.03738707 0.18542475 -0.55741304 -0.019213187 -0.040862933 0.048042092 -0.08494811 -0.048341725
0.18929803 -0.008845531 -0.04614837 -0.06689523 0.087051734 -0.014836331 -0.0848161 -0.0026191087
0.116344884 0.11934982 -0.012592832 0.07873586 -0.010517553 -0.0054851375 -0.055806566 0.20331103
-0.085795626 -0.0025649094 -0.010067758 0.15748328 0.03035717 0.052691735 0.012270826 0.016741915
0.04492058 -0.103498906 -0.063177586 -0.092292316 -0.081991695 -0.09592571 -0.09894905 0.012668254
0.079823166 -0.096840285 -0.19485295 -0.021506358 0.11219654 0.1980503 0.039549652 -0.13710883
0.051455833 -0.1209295 0.029231165 -0.023675991 -0.10814115 -0.14533503 -0.08046735 0.10971503
-0.03783852 0.1391631 0.16286908 0.18500412 -0.070812285 -0.076196715 -0.019586239 0.07110353
0.04638057 0.042978235 0.10045488 0.046897043 0.06645968 0.08336009 0.0073594064 -0.010257199
00000000: 75ba 5a3d a21d 9f3d f256 b1bd 7f87 39bc
00000010: 7bc4 25bf bac2 c7bd 9f56 913d e6df 5abd
00000020: d397 123d b1fc 4b3b 2063 2d3d 88ac 97bd
00000030: 58a5 b23d b002 043e 1e0c fc3d aa30 77bd
00000040: a45c 243e 1e1e 9dbd c13f d6bd 715b 99bd
00000050: 8b9d d63d 23ea dfbd f190 25c0 b4e6 f23d
00000060: 5845 e8bd 1d0a d53d cf1c 373d 37d4 70bd
00000070: 2e7e 983e e8eb ae3e a5ea 933d bd02 813d
00000080: 1f0b 8e3b b45a fa3d 391d ebbd 1dd3 12bd
00000090: bf5a 193c cd03 ca3d 47bb 96bd 3415 173d
000000a0: 27ef 383d 96d6 40bc 5e2e 10bd 65fc c43d
000000b0: feaf 2ebc f176 603e ae5d 1ebe 6954 173e
000000c0: bb32 34be 445c 713e 9d85 87bd 564c ca3c
000000d0: aa7d 533d 97e7 04bf ce96 233b 73ec 823d
000000e0: e0e9 3fbd 87e1 1b3c 2b7b 3c3e d347 1abc
000000f0: b195 993d 011e cc3d ecb9 9bbb 0b17 773d
00000100: f336 21bd ec2c bfbc 4520 fe3d f7ae 2b3d
00000110: f1ab 2bbd 0e70 e83d 1700 cebd 944c 973d
00000120: 76f2 18be 6523 88bd d3ce fc3d 5faa 2bbe
00000130: ff1d 5b3d e992 cbbc 5c0e 9d3d bf50 3c3e
00000140: 337f 0bbc 8e74 363e ceb5 c23d dd6e 0cbd
00000150: d023 ea3d 876f eebe 98e5 5dbd 20dd 03be
00000160: f9d6 e8bc f12c 6dbd 4a9f 253e a9f1 de3d
00000170: 66a2 3d3d 3855 c0bd cab7 c3bd 61f4 833d
00000180: a42f 4e3a 1743 0abd 6c6a 2d3d 4d13 9a3d
00000190: 8d14 65bd 4cfd 5c3d ff3d dcbc ee2b 2f3d
000001a0: 41a9 e83c 620b aa3d 6f20 38be e2cb 943d
000001b0: 38fc e43d 046f 643c 4235 9d3d 586e 0fbe
000001c0: b5f9 82bc 08cd 04bd 4bdd 35bd 0959 d1bb
000001d0: f0e1 81bc f565 b3bd cc1d dc3c d1fa 9bbd
000001e0: 8485 4abc 76cc 10bd 273b cd3c 6c55 c43d
000001f0: bddb 443d 8df1 513e 6a7e d6bc 1e09 533d
00000200: db69 42be 1b69 963d 87f3 903d 334a febc
00000210: fac6 913d 1dd3 cabc d6f2 f2bc 24c9 8b3d
00000220: ac87 84bd 9dab eabd 5282 8b3c c8a7 763e
00000230: 4503 ff3d 4032 c13d 25cb 66bd 1048 ea3d
00000240: 880f b0bd 5d44 babd 1fff 5a3d 464d 85bc
00000250: feca 323e 3b5b 553d 066c a6bd c05e 323d
00000260: cd71 61bb 8b10 0dbe d8c5 aabc a588 053f
00000270: e438 e4bc 081b 203e ba53 8f3d 0a93 16bc
00000280: 38d6 1fbe 7d91 bfbd 0adf 113e c816 d9bc
00000290: 7d5a 8c3c 738c 95bb 15d2 87bd f5b3 a53d
000002a0: e7e0 15bd 2fde 353d 651f 2abd 206e aa3d
000002b0: 9018 363e 4cf3 da3c 200e 60bd 5416 d93d
000002c0: 541f 00be ad42 fc3d 4590 debd 8861 fb3b
000002d0: 58fd d0b9 37df d73d f134 19bd 5aef 03bd
000002e0: 2f23 193d fcdf 3d3e 9fb2 0ebf f964 9dbc
000002f0: e45f 27bd c9c7 443d 46f9 adbd f901 46bd
00000300: 58d7 413e d9ec 10bc 1306 3dbd 5e00 89bd
00000310: 2e48 b23d 1514 73bc 10b4 adbd 5aa5 2bbb
00000320: 3a46 ee3d ae6d f43d 2a52 4ebc 4440 a13d
00000330: d151 2cbc abbc b3bb 6d95 64bd c430 503e
00000340: 9eb5 afbd 0a18 28bb 3df3 24bc 4c43 213e
00000350: 9aaf f83c 4ad3 573d 930b 493c 5726 893c
00000360: a4fe 373d 3cf7 d3bd 4063 81bd c103 bdbd
00000370: 43eb a7bd b374 c4bd cda5 cabd 828e 4f3c
00000380: 547a a33d 3354 c6bd 8887 47be 1a2e b0bc
00000390: 4dc7 e53d b3cd 4a3e d1fe 213d 4266 0cbe
000003a0: 5ac3 523d e3a9 f7bd 3276 ef3c 27f4 c1bc
000003b0: 1b79 ddbd b5d2 14be 11cc a4bd 46b2 e03d
000003c0: 90fc 1abd c680 0e3e 27c7 263e b871 3d3e
000003d0: 0806 91bd 060d 9cbd 5273 a0bc ba9e 913d
000003e0: 8df9 3d3d f209 303d 4abb cd3d 1d17 403d
000003f0: 031c 883d b2b8 aa3d 2d27 f13b d00d 28bc

critic.0.bias f4 [256]
-0.022557057 0.014483628 0.03608372 -0.0139964 0.024973439 -0.038976718 0.06429254 -0.057296135
-0.056068238 0.016586034 -0.020633856 0.011393432 0.053680897 0.047550533 0.020723589 0.015186623
0.023423428 -0.01747265 -0.02150243 0.037899587 -0.0121274805 0.057756856 0.020275738 -0.021464447
-0.023595577 -0.03265415 0.026697759 0.031683937 0.07384902 -0.0683363 -0.036430147 -0.021912843
-0.05851734 0.02425507 -0.059011523 -0.029635819 -0.0074214847 -0.020286001 0.009748707 -0.05456368
-0.031686764 -0.038733374 0.013970734 -0.04421362 0.033047788 0.08443674 -0.022095067 -0.019643106
-0.04762441 0.018974528 -0.05039032 -0.04964759 0.0533079 -0.021885633 0.050861746 -0.045558423
-0.035948228 -0.043990433 -0.013547583 -0.030347563 0.015159562 0.06810936 0.049567703 0.045737937
0.011330549 -0.014197744 -0.05935454 -0.01843802 -0.034076136 -0.00613566 0.016185626 -0.010003104
0.0027208284 -0.0036274467 -0.0056065926 0.0029934633 -0.047039818 0.0575236 -0.017976515 -0.046999473
0.02271393 0.064186044 -0.068065785 0.04396499 0.013075537 -0.014364542 0.034806926 -0.01361763
-0.008470103 -0.03908231 -0.0020223015 0.02133865 -0.038982663 0.024216486 0.02683553 -0.011072279
0.06238038 -0.015611031 0.046270218 0.020474767 -0.0103748115 -0.04408775 -0.042906597 0.040712647
0.004657569 -0.03204562 0.016774602 -0.01253086 -0.0016163434 0.037722625 0.025870537 0.052138835
-0.031368006 0.009610618 -0.02334835 -0.050783034 0.011273473 -0.00838392 -0.014366108 -0.040511165
0.013573952 -0.03373985 -0.0237536 0.023216957 -0.058729146 -0.027971802 -0.0020769273 0.047409452
0.006714947 -0.003597782 -0.045732465 0.046289843 0.050284985 -0.035758086 0.016163507 0.0045536114
0.015833441 -0.05030156 0.028376795 -0.0054563223 -0.0643074 -0.02790403 -0.052559182 -0.011997439
-0.005605305 0.06363098 -0.031587865 -0.0481195 -0.052910816 0.008929648 -0.034953814 0.023943199
-0.022502359 0.069131576 0.0042613954 0.04861036 -0.054507144 -0.064931594 0.002671603 -0.0069798687
-0.060239125 0.014014174 -0.0070873583 -0.056493737 -0.01738453 -0.05422221 0.0028883258 -0.049184006
0.06610909 0.0077457335 0.06905207 0.0065168124 0.051255282 -0.028905459 -0.018138675 -0.06325005
0.0041522407 -0.051882155 -0.04607849 0.05544142 -0.036408585 0.023509195 -0.038361985 -0.047482554
-0.03789566 0.025908802 -0.051732462 -0.053264022 -0.063511945 -0.02453309 -0.039198983 -0.051706187
-0.010590604 -0.03691745 0.057754066 -0.021790998 0.019184131 0.035650093 -0.024022248 -0.014082848
-0.01626361 0.00947618 0.04025526 -0.03728964 -0.050835848 0.01734067 -0.0052129445 0.018389199
-0.028025702 -0.05014862 0.008019305 0.05316667 0.007903074 0.038928904 -0.0013205112 0.047416516
0.006845395 0.009149467 0.037213735 -0.0036622481 0.047597412 -0.008874319 -0.041092407 0.011203507
-0.015500784 -0.045760762 -0.038468327 -0.047694717 -0.015158039 -0.049749963 -0.049656484 -0.038865887
-0.0074360007 0.00240124 -0.014738995 -0.0008232488 0.032790076 0.034806058 -0.018419271 -0.017550206
0.031190366 0.058299135 -0.04388136 -0.018381506 -0.008301659 0.039567575 -0.07297669 -0.0063677807
-0.053868406 -0.035611596 -0.03220392 0.029651215 0.0017187258 -0.041491803 -0.0017919083 0.047492888
00000000: 94c9 b8bc bd4c 6d3c 86cc 133d 2851 65bc
00000010: 1995 cc3c 0da6 1fbd cfab 833d 5aaf 6abd
00000020: cfa7 65bd 6fdf 873c 5508 a9bc 84ab 3a3c
00000030: 80e0 5b3d 59c4 423d 84c4 a93c 50d1 783c
00000040: 7de2 bf3c ce22 8fbc dd25 b0bc 993c 1b3d
00000050: 57b2 46bc 7492 6c3d 4e19 a63c 35d6 afbc
00000060: 834b c1bc 5cc0 05bd 42b5 da3c 04c7 013d
00000070: 283e 973d e7f3 8bbd c737 15bd 9082 b3bc
00000080: e1af 6fbd 92b2 c63c 11b6 71bd d1c6 f2bc
00000090: ed2f f3bb d42e a6bc 0ab9 1f3c 2a7e 5fbd
000000a0: fbc9 01bd e3a6 1ebd 81e5 643c 5719 35bd
000000b0: 1e5d 073d 2bed ac3d b700 b5bc 94ea a0bc
000000c0: d011 43bd 7870 9b3c 1566 4ebd 455b 4bbd
000000d0: 6259 5a3d 8049 b3bc 6854 503d 789b 3abd
000000e0: 733e 13bd 502f 34bd aef6 5dbc 749b f8bc
000000f0: d05f 783c ec7c 8b3d 8107 4b3d b457 3b3d
00000100: c4a3 393c a89d 68bc bf1d 73bd 550b 97bc
00000110: 6b93 0bbd a60d c9bb b897 843c 0fe4 23bc
00000120: ed4f 323b 75ba 6dbb 82b7 b7bb fb2d 443b
00000130: d3ac 40bd de9d 6b3d 7c43 93bc 8582 40bd
00000140: 9012 ba3c f973 833d 1366 8bbd a214 343d
00000150: c73a 563c 4259 6bbc b591 0e3d 7b1c 5fbc
00000160: 30c6 0abc c614 20bd 9788 04bb 64ce ae3c
00000170: 49ac 1fbd a761 c63c 2fd6 db3c 8168 35bc
00000180: 9282 7f3d 69c5 7fbc d785 3d3d b3ba a73c
00000190: 1dfb 29bc 5b95 34bd d4be 2fbd 4ec2 263d
000001a0: 859e 983b 4542 03bd e46a 893c 3c4e 4dbc
000001b0: 7cdb d3ba 0a83 1a3d 73ee d33c 888f 553d
000001c0: bd7b 00bd db75 1d3c 0a45 bfbc df01 50bd
000001d0: 5fb4 383c b65c 09bc d35f 6bbc 09ef 25bd
000001e0: 4865 5e3c cc32 0abd e996 c2bc 7d31 be3c
000001f0: f98d 70bd 1f25 e5bc 0f1d 08bb 6a30 423d
00000200: 0f09 dc3b c4c8 6bbb f751 3bbd 6b9a 3d3d
00000210: a1f7 4d3d 1277 12bd 5569 843c 7636 953b
00000220: 22b5 813c 0209 4ebd 7476 e83c f3ca b2bb
00000230: 99b3 83bd fe96 e4bc 4c48 57bd e890 44bc
00000240: b5ac b7bb f650 823d 4762 01bd f418 45bd
00000250: 03b9 58bd a94d 123c bb2b 0fbd 8724 c43c
00000260: de56 b8bc db94 8d3d 2da3 8b3b a81b 473d
00000270: e242 5fbd dbfa 84bd 1016 2f3b 62b7 e4bb
00000280: 4dbd 76bd b59b 653c 123d e8bb fa65 67bd
00000290: 006a 8ebc 1c18 5ebd 114a 3d3b 2b75 49bd
000002a0: 3464 873d eccf fd3b 2c6b 8d3d fc8a d53b
000002b0: 0ff1 513d 24cb ecbc 8f97 94bc 3e89 81bd
000002c0: 850f 883b 6282 54bd ccbc 3cbd 8b16 633d
000002d0: 2b21 15bd 5b96 c03c 7521 1dbd 117d 42bd
000002e0: 7b38 1bbd b23e d43c 6be5 53bd 602b 5abd
000002f0: 8d12 82bd 9ef9 c8bc 1d8f 20bd dec9 53bd
00000300: 3684 2dbc c136 17bd 878f 6c3d 0983 b2bc
00000310: 0a28 9d3c d505 123d 4eca c4bc bfbb 66bc
00000320: 433b 85bc fb41 1b3c b3e2 243d 06bd 18bd
00000330: 4039 50bd 050e 8e3c 59d1 aabb f2a4 963c
00000340: 2896 e5bc a468 4dbd 6763 033c 4bc5 593d
00000350: e57b 013c ea73 1f3d 0115 adba d237 423d
00000360: 564f e03b a5e7 153c 6e6d 183d 5402 70bb
00000370: 81f5 423d 9765 11bc 8350 28bd ea8e 373c
00000380: 00f7 7dbc a36f 3bbd f790 1dbd 895b 43bd
00000390: 6c59 78bc 9ec6 4bbd 9964 4bbd d631 1fbd
000003a0: b2a9 f3bb 1f5e 1d3b d37b 71bc 4bcf 57ba
000003b0: e34e 063d cc90 0e3d 03e4 96bc 73c5 8fbc
000003c0: f082 ff3c 13cb 6e3d f1bc 33bd d094 96bc
000003d0: ae03 08bc 9c11 223d ce74 95bd d1a8 d0bb
000003e0: 1ea5 5cbd 77dd 11bd 42e8 03bd 1be7 f23c
000003f0: de46 e13a 4ff3 29bd 77de eaba e787 423d
