rlgpu/logs/cut_407/model_420.pt (torch, 868312 bytes, 16 tensors)

log_std f4 [3]
000000 4b ca 4c bf 35 9c 05 bf 2a ea 07 be
       -0.79996175 -0.5219148 -0.1327292

actor.0.weight f4 [256, 259]
000000 44 57 14 3d f3 67 31 3d 56 a9 62 3d 3f 2c d8 bc
       0.036216035 0.043312024 0.055337273 -0.026388286
000010 d7 8f 84 bd 7c df 99 3d 57 3e 5d 3d 89 f2 99 bd
       -0.06472748 0.075133294 0.05401453 -0.07516963
000020 43 2e fd 3c f2 87 04 3d 3d 22 99 3c 00 0e a9 bd
       0.030905848 0.03235621 0.018693084 -0.082546234
000030 e3 6e 8f 3d 84 39 bd bd 68 44 c3 bc 40 d9 ab bd
       0.07003572 -0.09239486 -0.02383633 -0.083910465
000040 b0 a2 d8 bc d1 83 0b bd 59 b8 1f be 36 b4 08 3d
       -0.026444763 -0.034061257 -0.15597667 0.033374988
000050 2c 39 78 3d 55 4b a2 bd 0c 4c c6 bd 1a da 87 3c
       0.0606014 -0.07924525 -0.096824735 0.016583491
000060 fa 23 d7 3d 6a 3b 3e 3b c1 e7 90 3d 1e bb 5f bc
       0.10504909 0.0029027113 0.070754535 -0.013655452
000070 0c f6 83 bb 9d c4 4e bd 45 69 52 3c e4 3c b3 bd
       -0.004027134 -0.050480474 0.012842481 -0.08751848
000080 20 13 df 3c f4 48 da 3d e9 d9 ba 3d 81 0a 08 bd
       0.0272308 0.10658446 0.09123594 -0.033213142
000090 47 e0 67 3d 66 94 25 bc 63 d1 66 bd c4 b1 48 3c
       0.056610372 -0.010106182 -0.05635203 0.012249414
0000a0 d3 9d 69 bc 05 bb c0 bc 01 3c 30 3e f3 b3 1b 3e
       -0.01425882 -0.023526678 0.1721039 0.15205364
0000b0 bf 8c cd bd d1 16 1f 3e 5d 52 a3 3d f6 2d a1 bd
       -0.10036611 0.15536048 0.07974694 -0.078700945
0000c0 1e f7 ce 3c 0d e4 96 bd d6 a8 fc bc c0 b2 0f be
       0.025264319 -0.07367716 -0.030842226 -0.14033031
0000d0 34 95 28 bd 5c e4 c5 3d 2a 7b 69 bd 30 19 68 3d
       -0.041157916 0.09662697 -0.057002224 0.056664646
0000e0 a4 70 63 3e bf b9 c0 3d 84 44 69 3c 5c 66 1a be
       0.22210938 0.09410428 0.014237527 -0.1507811
0000f0 15 be 88 3c fe 3c 28 bd ad 50 c4 bb b2 9d 85 3c
       0.0166922 -0.04107379 -0.0059910626 0.016310547
000100 aa ae 27 bd d7 50 00 3d a9 d9 be bd 46 ca ad 3d
       -0.040938057 0.031327095 -0.09318859 0.08485846
000110 8f a8 d6 bc b9 56 21 bd 9b 08 a1 bd bb f8 92 3d
       -0.026203422 -0.039389346 -0.078629695 0.07176348
000120 bf 88 ac bd b5 87 c6 bc ce ab ab bc fe f7 32 bd
       -0.0842452 -0.024234632 -0.020955946 -0.043693535
000130 9e c9 80 be 7b 2c f6 bb 41 04 0e 3d b8 b0 77 bc
       -0.25153822 -0.0075126267 0.034672026 -0.015117817
000140 d6 0e 20 3d a4 64 04 3e b2 eb c9 bd 72 f1 f9 3b
       0.03907665 0.12929016 -0.098594084 0.0076276595
000150 70 85 5e bd b3 bd 0a 3e 32 e0 86 bd cc cf 05 be
       -0.054326475 0.13548927 -0.065857306 -0.1306755
000160 04 ea bd bd 08 2d ce bd 42 cd 8d 3d 5c 5e 89 3d
       -0.092731506 -0.10067183 0.069239154 0.06707451
000170 c4 06 14 3c c3 72 0c 3d 89 df 32 3e cd a8 05 3e
       0.009034816 0.034289133 0.17468084 0.13052674
000180 42 4d 01 bd 93 0b 92 bd 06 b7 a4 bc d9 2c b1 3d
       -0.03156782 -0.07131114 -0.020106804 0.08651132
000190 15 20 90 3d 20 15 bb bd 20 ff 6a bc 6d 91 2d bc
       0.07037369 -0.09134889 -0.014343053 -0.010593754
0001a0 ba f9 d9 3d 74 f7 4c bd f2 8a 4d bd 29 43 d2 3d
       0.10643335 -0.050040677 -0.050181337 0.10266716
0001b0 dd 50 8b bb 48 69 51 3e 8a 05 05 bd af ae f0 3d
       -0.004251583 0.20450318 -0.032475986 0.11752068
0001c0 39 1d d0 3c 14 5d 26 bd 45 e2 e1 bd 18 50 d6 bd
       0.02540456 -0.04061611 -0.110294856 -0.104644954
0001d0 15 96 52 bd cf 04 d4 3d a9 e7 9a bd c8 2f 76 bc
       -0.05141266 0.1035248 -0.07563717 -0.01502604
0001e0 3d d1 95 bd 9c 0c 1e 3e 53 31 c2 bd cb be 2b 3c
       -0.073153 0.15434498 -0.09482064 0.0104825
0001f0 39 d1 3f 3d 05 7b e1 3d 4b 32 86 3c 3f de 42 bd
       0.04683039 0.11009792 0.016381403 -0.04757523
000200 5a 10 6a 3d 94 e0 dd 3d 66 dd 8c 3d 05 c5 92 3d
       0.0571445 0.108338505 0.06878166 0.07166485
000210 2d 12 91 bd 54 4b 72 bd 39 34 80 bd 7f 92 47 3e
       -0.07083545 -0.05915387 -0.06259961 0.19489478
000220 35 39 80 bd c9 80 c0 bd 40 bf 91 3d 6a 7f cb bd
       -0.062609114 -0.09399564 0.07116556 -0.09936412
000230 7f ac 2c 3d 48 54 40 be 5d 21 87 bc ef 5b 71 bc
       0.042156693 -0.18782151 -0.016495401 -0.014731391
000240 7a f9 bf bd 4f 46 86 3c 30 b2 07 3e 1e 44 bb bb
       -0.09373756 0.016390948 0.13251567 -0.0057149073
000250 eb c4 9c bd 15 31 9d bd 1e f1 07 be bf 16 ad 3d
       -0.076547466 -0.07675377 -0.13275573 0.08451604
000260 f1 6a 26 be db f8 af 3c 58 5e 41 bc 71 c6 00 3e
       -0.16251732 0.021480968 -0.011802278 0.125757
000270 d6 d1 1f 3e ef 43 85 3d cd 42 3b bd 3a e2 00 3e
       0.1560739 0.06507098 -0.045718003 0.12586299
000280 a7 11 fa 3d ff ae 35 3d 33 9a fe bd 09 26 aa bd
       0.12210398 0.044356342 -0.12431755 -0.08308036
000290 54 ed c9 39 cf a6 3c 3d dc c9 6f bd 5e 60 e8 bc
       0.0003851453 0.04605752 -0.058542117 -0.028366264
0002a0 bf a8 43 be f3 85 6c bd 66 c1 92 3d ca dd 21 be
       -0.1910734 -0.05774493 0.07165794 -0.15807262
0002b0 88 9e 7d 3d 6f 5e d6 3d 97 13 84 3d a8 a3 31 bd
       0.061918765 0.104672305 0.06449049 -0.043368965
0002c0 f6 74 02 3e ff 3d 90 bd 29 b7 b3 bd 59 06 7b bc
       0.1273993 -0.07043075 -0.087751694 -0.015321338
0002d0 e6 b0 0a 3e f9 19 22 3d bf a9 af bd 00 f5 c7 3c
       0.13544044 0.03957555 -0.085772984 0.024408817
0002e0 21 16 4d be 47 c6 b8 bc 28 6b 39 3d 5c b7 17 bd
       -0.20027973 -0.022555484 0.045268208 -0.0370401
0002f0 af 4e ea bd 86 54 9d bd 97 bc 21 be dd 69 58 bd
       -0.11440789 -0.07682137 -0.15794598 -0.052835334
000300 74 4a ce bc 2e 32 31 bd 9b 71 28 3e c0 86 56 3d
       -0.025181986 -0.043260746 0.16449587 0.0523746
000310 4c 90 00 3e 95 88 b6 bc 07 d7 8e bc 0d 60 20 3e
       0.12555045 -0.022281924 -0.017436517 0.1566164
000320 0a 12 15 bd 8e af 69 be cc d8 ae 3c 73 e0 c2 3d
       -0.036394157 -0.22820875 0.021343611 0.095154665
000330 1e e3 bd 3d 54 71 11 bd 2b ae b9 3d cc b0 b6 bc
       0.09271835 -0.03550847 0.09066423 -0.0223011
000340 e8 c6 c4 bd 47 f4 44 be 63 80 4c bd bd 9d 5c 3d
       -0.09608251 -0.1923381 -0.049927127 0.05386137
000350 08 42 5a bd ae bc ab bd aa aa ab bc bd cd 52 3e
       -0.05328563 -0.08385597 -0.020955402 0.20586295
000360 99 71 95 3d 95 1a 30 3d b9 3a 86 bd 20 b5 a6 3d
       0.07297058 0.0429941 -0.06554169 0.081400156
000370 af 2b 88 3d 5e 71 1e bc eb 24 4d bb 1e c9 09 bb
       0.06648957 -0.0096705835 -0.0031302522 -0.0021024416
000380 c1 1e f6 bd 41 43 8b 3d 68 aa 2e bd 16 38 e8 bd
       -0.120175846 0.06799937 -0.04264298 -0.113388225
000390 ce f4 cf 3d 1d 85 54 3d 15 c9 a0 3d 5e a7 02 3d
       0.10154115 0.05188476 0.07850853 0.031897895
0003a0 99 ea c6 3d 51 6f 97 3d 3e 2b c4 bd 50 32 da 3c
       0.09712715 0.07394279 -0.0957856 0.026635319
0003b0 21 f8 db bd 89 5a 21 be 29 9c 10 3d 19 48 71 bd
       -0.10740686 -0.15757193 0.035305176 -0.05890665
0003c0 c0 28 a0 bc 27 2c 1c be 64 d5 0e 3e 02 39 04 bc
       -0.019550681 -0.15251218 0.1394859 -0.008070232
0003d0 96 25 eb 3d ea 56 b1 3d 93 c9 04 3c 5b ac 97 3c
       0.11481778 0.08659156 0.0081047 0.018514803
0003e0 e0 38 22 3e c9 18 d1 bc a4 cc d0 3d 16 35 ef bb
       0.15842009 -0.025524514 0.10195282 -0.0073000295
0003f0 6c c2 bb bd 6a ac ae 3d 56 c9 54 bc 1e e7 22 3d
       -0.091679424 0.08528979 -0.012987455 0.03977119

actor.0.bias f4 [256]
000000 92 f4 a1 bc 4c d2 5a bd 25 f8 98 bc 08 ce 0a bd
       -0.01976994 -0.05342321 -0.018673012 -0.033887893
000010 52 d3 aa bc a9 e5 3b 3c 41 bf 8b 3d 50 ba 80 3c
       -0.020852719 0.0114683295 0.06823588 0.01571384
000020 34 af 13 bc d5 48 26 3d 14 37 43 3d 29 cf 1e 3c
       -0.00901394 0.0405968 0.04765995 0.0096929455
000030 52 d0 80 3d d7 f5 a4 3c 49 27 d9 bc e9 89 0e 3c
       0.06289734 0.020136757 -0.02650799 0.0086998725
000040 dc 9e aa 3c fa 8a 6f 3c a6 03 c7 3c a5 89 14 bd
       0.020827703 0.014620537 0.024293732 -0.03626408
000050 9d a6 97 3c d1 95 c5 bb 6c e6 35 3d 7f 27 7d bd
       0.018512065 -0.0060298224 0.0444092 -0.061805245
000060 19 a4 10 3d f1 a3 70 bd aa 10 a8 bc 6e 4b b3 3c
       0.035312746 -0.058750097 -0.020515759 0.021886554
000070 db f4 6c bd 01 f6 13 bd 38 22 87 3c d3 41 b6 bc
       -0.0578507 -0.03612328 0.016495809 -0.022248184
000080 4a 97 42 3b 5c 54 40 3d 57 5b 3b b9 1b 1b 64 bc
       0.0029692226 0.04695545 -0.00017867736 -0.013922478
000090 13 b1 83 bd 56 85 e1 3c 3c 40 54 3d 86 87 ae bc
       -0.064302586 0.0275294 0.05181907 -0.021304857
0000a0 82 c5 88 3d 30 3f aa ba b0 c3 5b 3d 8b 28 26 3d
       0.066782966 -0.0012988802 0.05365342 0.04056601
0000b0 be 97 59 bd 23 df 66 3d a2 f0 2b bd 31 95 40 3d
       -0.05312323 0.056365144 -0.041977532 0.04701728
0000c0 02 53 33 3d 43 f4 e0 bc dc 62 35 bd cf 79 29 3d
       0.043780334 -0.027460223 -0.044283733 0.04137593
0000d0 ed 75 b4 3b 7a 32 1a 3d 5d c1 53 bd 94 0d 30 bd
       0.005507222 0.037645794 -0.051698077 -0.0429817
0000e0 18 0c 92 bc d0 6c f3 bb b0 8e 37 bb 1a fc 8a 3c
       -0.017828032 -0.007428743 -0.0028008632 0.016965915
0000f0 68 50 57 3c 52 c3 52 bd da c1 8f bd ba e3 a0 3d
       0.013141729 -0.051455803 -0.07019396 0.078559354
000100 1d 47 9d bd 1c 46 7f bd eb 19 ce bc 2c 15 15 3c
       -0.076795794 -0.06232272 -0.025158843 0.009099286
000110 8d 2c 97 3c 19 14 90 bc 1b 30 ef bc 7b 01 02 bc
       0.01845386 -0.017587708 -0.029197743 -0.007934923
000120 75 62 1b 3d 35 72 75 bc 06 9b 2e bb 8a d3 50 bd
       0.037935693 -0.014980842 -0.0026642694 -0.05098299
000130 62 e4 91 bc b2 9c b5 3c a2 d1 1d bd 24 de 3b bd
       -0.017809097 0.022169445 -0.03853 -0.045866147
000140 f7 43 26 3d aa 7f 56 bd 8d ba 89 bd b2 39 52 3d
       0.04059216 -0.052367844 -0.06725035 0.051324554
000150 68 2e 23 3d d0 1c 67 bd 97 ce 83 bd 18 f1 47 bd
       0.03983918 -0.056423962 -0.06435888 -0.04881391
000160 33 5d 0e 3c d6 8c 03 bd ca 2b 93 bd 79 98 1e 3d
       0.008689213 -0.032116733 -0.071860865 0.038719628
000170 6f 84 a4 bc d9 a9 33 bc af f5 1a bd 5b 8f de 3c
       -0.02008268 -0.010965788 -0.03783196 0.027167967
000180 a9 f6 1a 3d 06 4d 39 3d 69 74 30 bd a8 f5 65 3a
       0.03783289 0.04523947 -0.043079767 0.00087722624
000190 92 68 85 bc ec 75 e9 ba 92 28 76 bd 13 79 5a bd
       -0.016285215 -0.0017811633 -0.060097285 -0.05333812
0001a0 6f 8c 24 bc 4d 78 03 bd 93 2e 17 3d 33 30 73 bb
       -0.010043248 -0.03209715 0.03690965 -0.0037107586
0001b0 24 98 8d 3c 10 3d 0a 3c 10 f8 8a bc c4 bc 50 3c
       0.01728446 0.00843741 -0.016963989 0.012740318
0001c0 e2 41 ed 3c 40 fb 26 bd 83 a6 eb 3b 27 72 05 3d
       0.02896208 -0.040766954 0.0071914806 0.032579567
0001d0 d6 cc 00 bd 61 2a 20 bd 70 1e a2 bc 4c 34 6c bd
       -0.031445347 -0.039102916 -0.019789904 -0.05766706
0001e0 8a 65 cc bc e1 e9 bc bc e9 b4 cd bc af 66 6b bd
       -0.024950761 -0.02306074 -0.025110679 -0.057470974
0001f0 69 5c a0 3c 77 ef 6a 3d fe fd 0a bd d4 0a 3d bd
       0.019575315 0.057357278 -0.033933632 -0.046152905
000200 86 5d cf bc a8 45 29 bd 65 71 26 3d 28 2f 69 3c
       -0.02531315 -0.041326195 0.040635485 0.014232434
000210 ab 7b 56 bd 48 b1 66 bc 64 61 b9 bc ab 83 36 bd
       -0.052364033 -0.014080353 -0.022629447 -0.044559162
000220 33 be 41 bd 3d de 6a bd da 86 ff bc bd 3b a3 b9
       -0.04730053 -0.05734085 -0.031192232 -0.0003113429
000230 25 40 8b bd 99 6e 04 3d 29 ba 12 3d e9 01 54 3d
       -0.06799344 0.032332037 0.035822067 0.051759634
000240 2d 2b 68 3d 33 f1 00 3c 4d d4 05 3d 84 a6 d2 3b
       0.0566818 0.007870006 0.03267317 0.0064285416
000250 91 54 45 3a 8b 61 eb 3c ff fd 37 3d a1 2a 1c 3d
       0.0007527555 0.028733036 0.044919964 0.03812659
000260 e9 d8 a9 bc 2c cf 2b 3d 3b 4e 23 3d a7 99 2a 3d
       -0.020733314 0.04194562 0.03986953 0.04165044
000270 41 66 40 bd c7 66 1d 3d 7c b5 52 bc 8d 36 39 bd
       -0.046972517 0.038428094 -0.012860652 -0.04521804
000280 6a 1f 6e bd f7 57 a4 3c 4c f1 a9 3b 98 d3 f0 3c
       -0.058135428 0.020061476 0.0051862355 0.02939777
000290 58 c8 39 bd 78 f2 9a bd 16 3d a3 3d b2 40 9a 3c
       -0.04535708 -0.075657785 0.079706356 0.018829677
0002a0 47 c1 1d 3d 56 68 01 bc cf a0 43 bd be cb 31 3d
       0.0385144 -0.007898411 -0.04776078 0.043407194
0002b0 b6 dc e0 3b 05 7a 81 3d b9 ca 1d bd 7b fb 30 b8
       0.0068622483 0.063221015 -0.03852341 -4.219588e-05
0002c0 0f 5c a2 3c de e9 46 3d 9b b6 bd 3c 71 6b 55 3d
       0.019819288 0.048562877 0.023158362 0.052104417
0002d0 61 85 2a bd 81 a1 7c bd 86 bf 2e bd cd 76 47 3d
       -0.041631106 -0.06167746 -0.04266312 0.04869728
0002e0 fb d1 da 3c f4 82 b7 bb cf c1 1a 3d 86 35 a6 bc
       0.026711455 -0.0056003276 0.037782487 -0.020289194
0002f0 e0 de 30 bd af 59 a2 bb 3e 42 63 bc 69 0d 13 bd
       -0.0431813 -0.004954539 -0.013870774 -0.03590146
000300 db 6a 11 bd 57 de 79 bd b6 bb 42 bd 57 c6 da bc
       -0.035502296 -0.061003055 -0.047542296 -0.026705904
000310 b5 de 41 3d a7 c1 8a 3d f0 12 ac 3c 95 90 9e 3d
       0.04733153 0.067752175 0.021005124 0.077424206
000320 62 59 97 bd 15 13 9c 3c 6b df 1e 3d 1f 4b aa bb
       -0.07390095 0.019052068 0.038787287 -0.0051969434
000330 8e 81 62 bd e7 b1 ed 3c a0 1c dd bc 56 97 f9 bc
       -0.055299334 0.029015495 -0.026991189 -0.03046767
000340 f6 ed e6 3c f8 4b 39 bc 92 b5 a5 bc 55 63 ff bc
       0.02818964 -0.011309616 -0.020228181 -0.031175295
000350 11 78 07 3d 43 c7 58 bc 68 f1 80 3d 73 8a fa 3c
       0.03307349 -0.013231101 0.062960446 0.030583596
000360 2b 00 ed 3b a4 80 9a bc 06 7b ba bc 21 44 27 bd
       0.007232686 -0.018860169 -0.02276374 -0.040836457
000370 9a 99 56 bd b4 8f 40 bd f0 e6 93 bc 6d e4 36 3c
       -0.05239258 -0.047012046 -0.018054456 0.011162859
000380 9e 75 1f 3d 86 f3 47 3d 86 29 2b bb 84 a0 8c 3c
       0.038930528 0.048816226 -0.002611728 0.017166384
000390 d4 a1 41 3d 8b 65 8d 3d db 2f 79 bd 45 d9 54 bd
       0.047273472 0.069041334 -0.060836654 -0.051965017
0003a0 2e df 98 3c b3 e0 d4 bc b4 08 1c 3c d0 6e 79 bd
       0.018661108 -0.025986051 0.009523559 -0.060896695
0003b0 a9 a5 5c bd 9e 28 87 3c f8 0f 49 bd fb a4 83 bd
       -0.053868923 0.01649886 -0.049087495 -0.06427952
0003c0 1e 46 6a bc c8 4d b6 3c e1 78 57 bd e2 89 6e bc
       -0.014298944 0.022253886 -0.052605513 -0.014559241
0003d0 ad e4 90 bd be 2e 7f 3d 7c 3f 15 3d f1 c7 e2 bc
       -0.070748664 0.062300436 0.036437497 -0.02768323
0003e0 6f b5 c1 3b 1b 26 01 39 57 ad 0e 3d 9b c9 5e 3c
       0.005911521 0.00012316594 0.03483328 0.013597871
0003f0 58 1d 82 3d 62 77 00 3d 6b 25 74 3c b6 60 2a 3d
       0.06353253 0.031363852 0.014901499 0.041596137

actor.2.weight f4 [128, 256]
000000 ee 0d 2e bd 01 43 2f 3e 3b b1 24 be da 3c 28 3c
       -0.042493753 0.17115404 -0.16083233 0.010268414
000010 d0 2d 9e bd 47 2a ff bd 67 72 c6 3c e4 15 c9 3d
       -0.07723582 -0.12459236 0.024224473 0.098186284
000020 a9 8d 10 3d 50 42 33 3e fa 8e 77 bd a8 dc 89 bd
       0.035291348 0.17505765 -0.060439087 -0.0673154
000030 7f ec a1 bd 6c de ea 3d 0b 19 34 3c c9 ae 80 3d
       -0.07906436 0.11468205 0.010992299 0.062833376
000040 e4 d2 16 be 9f 9b 88 bd 0b 98 db bd b2 7d 10 3e
       -0.14728886 -0.06670307 -0.10722359 0.14110449
000050 74 98 73 3e 23 cf a7 bc ad a7 04 be 5f 52 b1 3d
       0.23788625 -0.020484513 -0.12954588 0.08658289
000060 16 4f 28 be b5 e6 0f be 1d 58 b6 3c 81 39 80 3d
       -0.16436419 -0.14052851 0.022258813 0.06260968
000070 55 3b 8c bd b7 e6 29 3d 96 ad f0 bc 2f a4 78 bc
       -0.06847254 0.041479792 -0.029379647 -0.015175863
000080 c1 85 6e 3c cb 65 aa bb c1 6d a2 3d 22 04 c6 3c
       0.014558257 -0.005200123 0.0793109 0.024171893
000090 42 af 43 be 8b a4 10 3c d3 6a 95 3d 5b 49 42 bd
       -0.19109824 0.008828293 0.07295766 -0.04743324
0000a0 8e fa af 3d a4 5d 0d 3e 62 dd a2 bd b8 9f d3 3c
       0.085927114 0.13805252 -0.07952382 0.025832996
0000b0 cb f9 77 3d 04 64 b1 bd 9e 51 56 3d 7c 7b 46 3d
       0.060540956 -0.086616546 0.05232393 0.048457608
0000c0 5a 33 29 3d 7b 55 4a be f2 8b c5 3a 47 7b 9d 3d
       0.04130874 -0.1975917 0.0015071614 0.07689529
0000d0 46 57 6f bc 31 d6 cc bd 8a 07 4b 3d ca 3c 1d bd
       -0.01460821 -0.10001791 0.049567737 -0.03838805
0000e0 e9 1e 16 be 56 b7 a8 3c 9b df fc 3c 84 83 6c bd
       -0.14660229 0.020595234 0.030868342 -0.05774261
0000f0 d9 f4 07 bc b3 16 0c 3e 5c be d3 3d ed 8d 5f be
       -0.008298122 0.13680534 0.103390425 -0.21831484
000100 6a 40 a5 3d be dd e6 bd ce 1d 1f 3d c0 a1 85 bd
       0.08068927 -0.11272763 0.038846783 -0.06524992
000110 cb 9f 23 bc 28 89 94 bd 43 14 c9 bd 7e 94 6f bd
       -0.009986828 -0.07252723 -0.09818318 -0.058491223
000120 f8 f3 90 bd 8b e3 0e bd d6 8f 1e bd 9b a5 0b 3e
       -0.07077783 -0.03488497 -0.03871139 0.13637392
000130 93 05 01 be c5 7b 08 3c c0 d2 8c bc a3 e9 93 3d
       -0.12599783 0.00833029 -0.017190337 0.07222297
000140 bd c1 38 3d c5 00 36 bc 26 84 cd 3d 5b 85 51 be
       0.04510664 -0.011108582 0.10034971 -0.20461027
000150 9c 76 66 3d ec f4 0a 3b 39 a9 c9 bd 2e c3 7e 3e
       0.05626546 0.0021203114 -0.0984673 0.24879143
000160 cc e9 10 bd 73 19 d7 bd fd 1d 01 bc ea e6 df 3c
       -0.035379216 -0.10502901 -0.007880685 0.027331788
000170 d4 38 72 3d cf ac 3e 3d cc 9e 9e bc e0 cf 4f 3d
       0.059136227 0.046551522 -0.01936283 0.050735354
000180 b4 2b 8e 3c e9 a6 66 3c 1a e4 02 bd f5 3e 73 3c
       0.017354824 0.01407788 -0.031955816 0.014846553
000190 6a 14 f1 bd 68 a3 1d 3e 50 b2 b2 3d 2d 04 0a 3e
       -0.11771472 0.15394366 0.08725417 0.13478155
0001a0 c5 7a 45 3d 17 bd 52 bd a9 72 57 3d ff b7 84 3d
       0.048212785 -0.05144986 0.052599583 0.06480407
0001b0 15 34 af bd 19 fd 09 3d b4 93 7f 3d 2d bd 00 3d
       -0.08554856 0.03368864 0.06239672 0.031430412
0001c0 d1 68 a1 bd c5 84 86 3b af 59 eb bd d2 93 04 be
       -0.0788132 0.004105183 -0.11491715 -0.12947014
0001d0 62 6a a9 3d 4b bf a1 bc a0 c0 bc bd f3 64 d4 bb
       0.08272244 -0.019744536 -0.09216428 -0.0064817606
0001e0 22 46 08 bd c8 b2 1e 3e 2f 16 4b 3d 7e 14 b0 bd
       -0.03327001 0.15497887 0.049581703 -0.085976586
0001f0 f9 3a 8c bd 83 2d 95 3d d0 d6 1b 3d 9d 3a d4 3d
       -0.06847186 0.07284071 0.038046658 0.10362742
000200 fe 2f 61 3d 5e 18 40 3c 2e 24 52 3d ad 39 90 3d
       0.05497741 0.01172456 0.051304035 0.07042251
000210 62 62 2a bd 59 2b 26 3e f8 8e 84 bd 76 21 ef 3c
       -0.04159773 0.16227473 -0.064725816 0.02919076
000220 47 ee fd bc 4a 0f 02 3e 57 f8 ed bd 42 f3 1c be
       -0.030997409 0.12701145 -0.11619633 -0.1532717
000230 4f 55 cd 3d ed 8e 95 3b d7 ca 14 bb 35 e1 2a be
       0.10026037 0.004564157 -0.002270391 -0.16687472
000240 95 e8 e0 bb 8e 78 bb bd ba 3e 3e 3d b3 84 a4 3c
       -0.0068636634 -0.09153853 0.04644654 0.020082807
000250 b1 af 81 3d df 42 a2 3d b0 11 ad 3d 19 95 77 3d
       0.063323386 0.07922911 0.08450639 0.060444925
000260 8f 16 f3 bc 2a ed 17 3e 9d 5a 3e bc 73 cb c9 3b
       -0.029673843 0.14836565 -0.011618284 0.0061582862
000270 13 73 01 3d 93 14 bf bd 36 fe aa bc 3f 89 92 bd
       0.031603884 -0.09330096 -0.02087317 -0.07155084
000280 0c 3a 6a 3e ca 6b 22 be b9 f8 30 bb 09 a4 17 bd
       0.22873706 -0.15861431 -0.002700372 -0.03702167
000290 67 59 d0 3c 40 f1 4a be b5 5b fd 3c 22 85 0a be
       0.025433255 -0.19818592 0.030927518 -0.13527349
0002a0 01 2c 8f 3d 0b 59 b0 bc e5 48 db 3c c5 61 8e 3d
       0.06990815 -0.021526834 0.026768157 0.06952242
0002b0 b0 44 db bd 70 b4 7b 3d 24 ff 29 bc cb d5 9f 3c
       -0.107064605 0.061451375 -0.010375772 0.019511124
0002c0 da 9e b8 bd 82 74 31 3e c0 56 fa 3d 2a 3d 08 3d
       -0.090146735 0.173296 0.122235775 0.033261456
0002d0 37 5e 43 bd 67 e3 9d bd 3c 97 07 be dd 9c 0c 3e
       -0.047697272 -0.07709389 -0.13241285 0.13731714
0002e0 46 e9 21 3c 2a e0 a9 3d d1 54 b3 3b 34 dc ef 3d
       0.009882277 0.08294709 0.0054727574 0.11711922
0002f0 e5 49 2d bd 97 c8 ca bc f7 6f cf 3c 8f ea 00 3e
       -0.0423068 -0.024753852 0.025321944 0.12589477
000300 7f e4 63 3d 52 36 a1 3d 90 04 11 3d 3e 90 42 bc
       0.055637833 0.07871689 0.03540474 -0.01187521
000310 89 58 bf 3c 9c 5f 75 bc ac a4 b1 3d 59 4a 96 3b
       0.023357647 -0.014976408 0.08673987 0.0045864997
000320 fb cc 6e 3d da 0d 7c 3c 40 dc dd bd aa 41 d4 bc
       0.058300953 0.015384162 -0.10833025 -0.025910217
000330 55 27 32 bb c8 f0 80 bd 94 c4 56 3c 22 b1 8e 3d
       -0.0027184088 -0.062959254 0.013108391 0.06967379
000340 87 4e b3 3d 79 63 70 bd 6b 93 bb 3b 62 17 26 be
       0.08755212 -0.058688615 0.0057243607 -0.16219857
000350 b3 15 80 3d 33 32 e3 bd ae ed 6c 3d 65 f0 01 be
       0.06254139 -0.11093559 0.057843857 -0.1268936
000360 93 78 61 3c ab a1 1e be a3 bf a6 3d 2e 0d c4 bd
       0.013761657 -0.15491359 0.081420206 -0.09572826
000370 59 22 87 3d 5e 1e 65 bd b3 6a 74 3c 57 1e ae 3d
       0.06598348 -0.055937164 0.014918017 0.085018806
000380 c2 6a 81 3d f7 9d ac bd 2d ee da 3d e8 c2 7c bd
       0.063191906 -0.08428567 0.1068996 -0.061709315
000390 1b 29 90 3d 30 c7 af bd 41 90 2c 3e a0 86 05 be
       0.0703909 -0.08582914 0.16851903 -0.13039637
0003a0 57 f8 c5 3c 5c 32 80 bb 7d 7e 98 bd 69 2e 11 3c
       0.02416627 -0.0039122533 -0.07446001 0.008861163
0003b0 c5 41 a9 bd f8 60 76 3d 24 4b d2 bc cf d4 58 bd
       -0.08264498 0.06015107 -0.025670595 -0.052937325
0003c0 63 ae 90 3d 59 02 b0 bc ef 56 f5 3c 40 0d 31 be
       0.070645116 -0.021485494 0.02994868 -0.1729021
0003d0 e3 8d b1 3c c0 76 62 3e e2 dc c9 bd 99 46 13 be
       0.021674102 0.22115612 -0.09856583 -0.143824
0003e0 32 7a f3 3d 58 a6 fd 3c 00 68 37 bc e4 0d 05 be
       0.11888541 0.030963108 -0.011194229 -0.1299358
0003f0 17 f4 02 be 40 40 36 bd a8 be 05 3e 40 47 96 bd
       -0.12788425 -0.044494867 0.13061011 -0.073378086

actor.2.bias f4 [128]
000000 38 ab 1e bd 59 44 81 3c 6a c3 5e bd 1c 99 3e bd
       -0.038737506 0.015779661 -0.05438558 -0.046532735
000010 23 d2 06 bd f4 f6 8d 3c 14 65 39 bc 9f 37 17 bd
       -0.032915246 0.01732967 -0.011315603 -0.03691828
000020 11 2b 1d bc 7c 30 09 3d 65 88 e4 bb 33 d3 13 3d
       -0.009592787 0.033493504 -0.0069742673 0.036090087
000030 ae 73 9e bd d0 b8 95 bd 83 01 81 bc 6a ba 8f bd
       -0.07736908 -0.07310641 -0.015747791 -0.070179775
000040 f8 dc 86 ba 13 02 7d bd 18 fc ea bc 09 af 02 3c
       -0.0010289242 -0.061769556 -0.02868466 0.007976302
000050 7f 8f 61 3b 96 b8 7b bd 31 90 94 bd 5b 93 be 3c
       0.0034417806 -0.06145533 -0.07254065 0.023263624
000060 af b1 67 bd be 7a b7 bc e8 73 53 bc 56 e9 18 3d
       -0.056565937 -0.022397395 -0.012906052 0.0373319
000070 32 ab 19 bd 34 45 cb bc 14 7e da 3c d3 89 ce 3c
       -0.03751678 -0.024813272 0.026671447 0.025212204
000080 a1 36 ac bc ff 1f 8f bd d1 71 2b 3d be 6d 4d bc
       -0.021022143 -0.06988525 0.04185659 -0.012538372
000090 53 b7 7c bc 25 11 1f 3d 8d e4 01 3c b5 5f 89 bd
       -0.015424567 0.03883471 0.007928026 -0.06707708
0000a0 17 bd c6 3b 9d 52 69 ba 36 76 32 bd 63 02 9e bc
       0.0060650217 -0.0008900555 -0.043569766 -0.019288247
0000b0 da 78 93 bb e7 9a 82 bd 97 12 f4 3b 2a 03 97 bd
       -0.0045004906 -0.063772015 0.007448505 -0.0737365
0000c0 9d 02 f0 bc c8 9b 06 3d 29 72 99 bd ee de c7 bc
       -0.029298121 0.03286341 -0.074924774 -0.024398293
0000d0 c2 5c 18 bd c7 eb fe bc ac bc 91 3c 79 f1 d0 3c
       -0.037197836 -0.031118287 0.017790161 0.025505768
0000e0 6a ea 1e bd b7 76 18 3d d5 9f 2a bd e5 ea bc bc
       -0.038797773 0.03722259 -0.041656334 -0.023061225
0000f0 1a 06 0f 3d 2c 28 ad 3a 12 de a3 3c 08 e7 9c 3b
       0.03491793 0.0013210825 0.020003352 0.0047882833
000100 87 1b d2 3a 3f 53 4a 3d f8 a4 b7 bc 5e 96 8e bb
       0.0016029932 0.049395796 -0.02241753 -0.0043514213
000110 90 88 b2 3c ea 84 a8 bc e2 b7 e9 3c cc a9 3a bd
       0.021793634 -0.02057119 0.028530065 -0.045572087
000120 af 93 5b 3b b1 17 db bc 19 4c 9b bd db 9c d8 3c
       0.0033504774 -0.026744695 -0.07582874 0.026441982
000130 f0 e7 fa bc 58 9c 81 3c 6f 9a e3 bc e2 b3 ce bc
       -0.030628175 0.01582162 -0.0277836 -0.02523226
000140 38 03 8d ba 0e 7f 99 bd 54 a3 a3 3c 32 3b f7 bb
       -0.0010758406 -0.07494937 0.019975342 -0.0075448984
000150 4d fc 6b bd 51 67 20 3d 50 bd 88 3d 0c 3c 81 bd
       -0.05761366 0.03916103 0.066767335 -0.06310281
000160 81 a8 21 3d 22 ca 37 bd dc 4c 85 bd e6 51 2a bd
       0.03946734 -0.044870503 -0.065088004 -0.04158201
000170 af 95 88 bd 5b 96 37 bd c3 4a bb 3c 79 3a 9f 3b
       -0.06669175 -0.044821125 0.022862798 0.0048592654
000180 07 95 08 bd 47 6a c1 bb 11 e2 ea bb ed 99 fb 3b
       -0.03334525 -0.005902562 -0.0071680625 0.0076782615
000190 10 fa 40 3c f5 9f 05 3d e8 98 8a bd f6 89 8f bd
       0.01177837 0.03262325 -0.06767446 -0.07008736
0001a0 45 ee 92 bd 20 77 1f bd 83 66 2a 3d 4b 72 44 bc
       -0.071743526 -0.038931966 0.04160167 -0.01199014
0001b0 1e fe 33 bd a5 33 7b bd af 5b a9 3b 55 dd 2a bd
       -0.043943517 -0.06132855 0.0051684002 -0.041714985
0001c0 66 d9 fa bc e1 34 3d bd 3e db df 3c f0 b6 a4 3c
       -0.030621242 -0.046193007 0.027326223 0.020106763
0001d0 57 b1 f7 bc d3 9a ee b9 c0 91 3f 3d 71 b3 83 bd
       -0.03023593 -0.0004551025 0.046769857 -0.0643071
0001e0 ac ab 7c bd ae b4 05 bd b8 bc 1e bd 15 ca 89 bd
       -0.061687157 -0.032643013 -0.038754195 -0.06727997
0001f0 14 0f 90 bd 43 00 02 bd ee 26 83 bc 06 b9 b5 bb
       -0.07034126 -0.03173853 -0.016009774 -0.005545738

actor.4.weight f4 [64, 128]
000000 e1 62 44 bd 80 98 28 3b c2 f8 f5 3d 17 9c b3 bd
       -0.04794586 0.0025725663 0.120103374 -0.08770006
000010 7c c7 bd bd c7 09 1e bd e5 2f c9 3d 44 18 7b be
       -0.09266564 -0.038583543 0.09823588 -0.24520975
000020 b9 57 62 3d e0 76 76 be e7 c8 11 3e 33 ae 44 3e
       0.05525944 -0.24068785 0.14236794 0.19207077
000030 b6 fd 94 bd 2a ca 5a 3d b6 89 7b 3c bb 50 a1 bd
       -0.07274954 0.053415455 0.015352657 -0.07876726
000040 f5 60 31 3e be 8a 84 bd 75 6e 51 3e 2e 20 aa bd
       0.17322142 -0.064717755 0.20452292 -0.08306919
000050 bc 6c 37 bd 3f d5 1f b9 de e1 1a 3e a0 e5 7e 3c
       -0.04478143 -0.00015242862 0.15125224 0.015557677
000060 21 c3 dc bd a4 e4 46 3d db 4b 90 3d 8e 36 47 be
       -0.107794054 0.048557892 0.07045718 -0.19454405
000070 10 8d 88 3d 1c 71 86 bd 43 70 4f 3d e1 50 11 3e
       0.066675305 -0.06564543 0.05064417 0.14191009
000080 71 0a e6 bb 02 19 9d 3e ea b1 1a bd f8 1b 48 3d
       -0.0070202877 0.30683142 -0.03776733 0.048854798
000090 75 32 24 3d 0e f2 ef 3c ed 90 fc bc a0 b4 c2 bd
       0.040087182 0.029290225 -0.030830825 -0.09507108
0000a0 37 2a 32 bc 6e 5b f2 bb d9 00 3b be e5 35 31 be
       -0.010874323 -0.007396153 -0.18262042 -0.17305715
0000b0 7e cd 71 3c 6e 1b d9 3d c2 94 33 3d f0 f4 64 bd
       0.014758466 0.10600935 0.04384304 -0.055897653
0000c0 7d dc 34 bd 56 05 be 3d 99 61 f7 3d 17 c4 bd 3d
       -0.044155587 0.092783615 0.12079162 0.09265917
0000d0 c1 63 a8 3e f9 20 02 be 9b 98 7f 3c f0 66 10 bd
       0.32888606 -0.1270789 0.015600349 -0.03525442
0000e0 2a e5 3a 3e ef 71 84 be ab 7f 4e 3d 8d b7 5c bd
       0.18251482 -0.25868174 0.050414722 -0.053885985
0000f0 5e 39 04 bd f5 ce cf b9 9e a2 61 3e 28 23 db 3d
       -0.032281272 -0.00039636312 0.2203469 0.10700065
000100 fa 2c 98 3e 76 18 de bb 71 fb b0 be 49 5b cc 3d
       0.29721814 -0.0067778183 -0.34566835 0.09978349
000110 96 4f f4 bd 1d 24 6e bd 54 15 58 bd 49 56 e9 3d
       -0.11929242 -0.05813991 -0.052754715 0.11393411
000120 a1 2a 7b 3e db 66 a1 3e b1 1d 76 3e 29 f6 8f 3d
       0.2452798 0.31523785 0.24034764 0.07029373
000130 b7 bb 04 be a0 9d 18 3d 83 98 35 3e ff 99 05 be
       -0.12962233 0.037259698 0.1773396 -0.13047026
000140 25 70 fc bd d5 e1 10 3d 08 51 f5 3d fb bf a0 3c
       -0.12326077 0.03537162 0.11978346 0.019622793
000150 16 c5 62 be 7b ae fd bd f8 86 bb bd f5 e5 89 bd
       -0.22145495 -0.12386795 -0.091566026 -0.06733314
000160 a1 b7 28 3e b4 73 82 be 71 f5 35 bd 9a 74 b3 bd
       0.16476299 -0.254789 -0.044423524 -0.08762474
000170 64 13 b5 3b 8d 20 ae 3d fa 83 81 3d 70 b8 ad bc
       0.005525993 0.08502302 0.06324001 -0.02120611
000180 9c 73 cd 3b 60 e9 c0 bd a8 a6 71 3d 23 6b b7 bd
       0.006269885 -0.09419513 0.058996826 -0.089559816
000190 bf 90 bc 3c 29 ed a5 bd 07 c6 b7 3b b9 ff 97 3d
       0.023018239 -0.08101875 0.0056083235 0.07421822
0001a0 21 8a 48 bd 96 35 b8 bd a9 d7 24 bd ab 94 9f bc
       -0.048959855 -0.08994596 -0.040244732 -0.01948007
0001b0 d0 f7 79 3d 69 c2 0a 3e 51 a8 2c 3e 76 ff 03 3e
       0.061027348 0.13550724 0.16861083 0.1289042
0001c0 d1 5a f3 3d b7 c4 f6 3d 3d 67 42 be b2 37 d2 3d
       0.11882556 0.12049239 -0.18984695 0.10264529
0001d0 9e 28 83 3d 46 55 68 bc eb 6d e6 bd 35 6f 29 be
       0.064042315 -0.014180487 -0.11251434 -0.16546328
0001e0 83 19 4f be b5 ce 38 3e 1d 3f c6 bd b9 46 f5 3c
       -0.20224576 0.18047602 -0.09680007 0.02994095
0001f0 5e 74 28 3e 4c e9 43 3e e1 cc 2c bb c8 a1 ba 3d
       0.1645064 0.19131964 -0.0026367235 0.091128886
000200 0f 01 7c 3d b7 35 98 bc 51 0a 44 3e 46 1d 40 3d
       0.061524447 -0.0185803 0.1914456 0.046902917
000210 03 17 ff 3c c9 ff 31 be a5 d9 2c be 34 d4 aa bd
       0.031138903 -0.1738273 -0.168799 -0.08341256
000220 18 f3 3f 3e 3f 70 f6 3d 97 0a ee 3d 87 91 cb bd
       0.18745077 0.12033128 0.116231136 -0.099398665
000230 b0 a3 30 3e 28 c7 3a 3e 2a 7b bd bd cf d6 b9 bd
       0.17249942 0.18240035 -0.09252007 -0.090741746
000240 5e c5 b4 3e de 46 23 3e 1d 5b c8 3d 88 a7 1b be
       0.3530683 0.15945002 0.097830035 -0.15200627
000250 46 a1 29 3c 8f bd 3c 3d 7f 83 a2 bd 3f 6c 8b be
       0.010353392 0.046079215 -0.07935237 -0.27231023
000260 13 67 b9 3c 23 25 99 3c 6e cc 6d bd 24 f9 c1 3c
       0.022632157 0.018694466 -0.058056287 0.02367837
000270 9a 38 ac 3d 7c 14 9d 3d 67 a8 2a be 1e 59 3e bc
       0.084092334 0.07669923 -0.16665803 -0.011617927
000280 41 2c 83 3d d6 c2 4b 3e ca b9 4f 3d c1 66 d7 3d
       0.06404925 0.19898543 0.05071429 0.105176456
000290 b0 db 9c 3d bb ce 5b 3d 13 7a 08 3e 31 96 23 3e
       0.076590896 0.05366395 0.13327818 0.15975262
0002a0 0e 0a 0c be 6c 82 41 be 6b 3b a4 3c b6 2d eb 3d
       -0.1367571 -0.18897408 0.020047864 0.11483328
0002b0 e5 a6 67 3e d9 f8 6f bb 10 ef e4 bd f8 47 f4 3c
       0.22622259 -0.003661683 -0.1117841 0.029819474
0002c0 ae dd 31 3e a0 1b 0f 3e 2c 7a 99 bd 42 7f e8 bd
       0.1736972 0.13975382 -0.074940056 -0.113523975
0002d0 36 23 80 3c 15 f8 20 be 60 b8 17 bd 16 1f 8c 3d
       0.01564179 -0.15719636 -0.037041068 0.06841867
0002e0 f4 d5 1e bc cb a4 83 3d 7f f7 b2 bd 75 db 3c 3e
       -0.009694565 0.06427916 -0.087386124 0.18443091
0002f0 8f 72 7a 3c 53 6c 13 be 7b 3f 74 be 0b 30 0b bd
       0.015286102 -0.14396791 -0.23852341 -0.033981364
000300 b2 10 8c bb 88 e2 b5 bd 64 96 4c 3e 91 61 04 3d
       -0.004274451 -0.08881098 0.19979244 0.03231961
000310 2b 2a 63 bd 3c 03 0d be 0b 90 ea bd 48 96 c2 3d
       -0.055460136 -0.13770765 -0.11453255 0.0950132
000320 50 14 c2 bd d3 10 8e 3d 18 f9 07 be 32 cc 85 be
       -0.094765306 0.06936803 -0.13278615 -0.2613235
000330 2f 85 6a 3d 6c 04 a7 bd 38 96 04 3e 48 08 92 39
       0.05725592 -0.0815514 0.12947929 0.0002785346
000340 b6 ab 96 bd 65 b1 44 be 19 ff 92 3d dc bf aa 3d
       -0.0735697 -0.19208296 0.07177562 0.083373755
000350 17 f0 3f bd dc 6f 52 be 81 a0 9e bd 47 eb a7 3e
       -0.046859827 -0.20550483 -0.077454574 0.3279669
000360 aa db c4 3d 09 c5 a4 bc 3f 64 30 bc 8a 19 3e bd
       0.0961221 -0.020113485 -0.010766088 -0.046411075
000370 15 3c 28 bb c0 da e0 bc ff 09 48 bd 7d 77 a9 bb
       -0.0025670577 -0.027448058 -0.048837658 -0.005171715
000380 60 98 3f 3c d1 24 7a 3d 6f 5d 3c 3d 06 b2 20 be
       0.011694044 0.061070267 0.045987543 -0.1569291
000390 9f f5 5d bc 8f 70 79 be e9 ba ad 3d e0 23 4f 3e
       -0.01354733 -0.24359344 0.08482916 0.20228529
0003a0 b4 d1 1c be b4 64 ca 3d 93 ad 93 bd 80 41 89 bd
       -0.1531437 0.09882489 -0.07210841 -0.06701946
0003b0 dc 8c dc 3d eb d4 ea bd ee 2a 45 3a 5d 77 cd 3d
       0.10769054 -0.11466392 0.00075213506 0.10032532
0003c0 66 77 1b 3d d9 b3 0c 3e 44 c9 a0 3d f4 5e 15 3e
       0.037955664 0.13740481 0.07850888 0.14587003
0003d0 7e 85 01 be 9d 42 bb bd 60 2c b4 bd fe 20 10 bd
       -0.1264858 -0.09143565 -0.08797526 -0.035187714
0003e0 7b 33 7b bb 7f 14 08 be ac 29 c4 bc 2b e1 58 3e
       -0.0038330245 -0.13289069 -0.023945652 0.21179645
0003f0 f7 ed 0e 3d 61 d2 20 be 6c 53 35 be 3e 41 78 3d
       0.03489491 -0.15705253 -0.17707604 0.060609095

actor.4.bias f4 [64]
000000 68 1f 61 bc ae e8 25 bc 1e a0 a2 bd 9b a8 4a bc
       -0.013740398 -0.010126276 -0.07940696 -0.0123693
000010 f3 83 cf bd 60 ae aa 3c 04 0f 2c 3d d7 3e 6c 3d
       -0.10132589 0.020835102 0.042006508 0.057677116
000020 92 9f c6 bd 41 42 30 3c 00 ec a6 bb 4c 9a 30 bd
       -0.09698404 0.010757984 -0.0050940514 -0.0431159
000030 e3 96 20 3d 99 74 13 3b 11 71 83 bc 4e 0c 27 3d
       0.039206397 0.0022499918 -0.016045125 0.04078322
000040 c1 5c 18 3c ce 72 a0 bc e7 d9 5c 3c 39 e2 92 bd
       0.009299458 -0.019585993 0.013479686 -0.07172055
000050 80 d6 ba 3c c3 fb b4 bd e4 5e a9 bc a6 c3 bf bc
       0.02280736 -0.08837082 -0.02067513 -0.023408722
000060 06 97 60 3d 5a 68 8c 3d bf 1a 63 3d 94 21 4c bc
       0.054831527 0.06855841 0.05544543 -0.0124591775
000070 ed a0 7a 3d ec a1 48 3d b5 f3 86 bd b4 3f d9 bd
       0.061188627 0.048982546 -0.06589452 -0.106078535
000080 51 73 d5 bd 24 ea 8b 3d d8 07 06 bd b8 28 b8 bc
       -0.104223855 0.06831768 -0.032722324 -0.022480354
000090 87 ab 1d 3d 7b 4d 2a bc d9 d8 67 bb 91 2d 0a 3d
       0.03849366 -0.010394449 -0.0035377054 0.03373486
0000a0 43 de 11 bd 8e 99 59 bd 28 7b aa bd 37 7f 5b bd
       -0.035612356 -0.053124957 -0.083242714 -0.05358812
0000b0 fd f0 24 bd 52 e5 30 bd 57 4f 48 3d 68 d4 cc bd
       -0.040268887 -0.043187447 0.04890379 -0.10001451
0000c0 ca 43 a9 bc 6d 92 27 bd b0 f3 bb 3c a4 16 92 3d
       -0.020662207 -0.040911127 0.022943348 0.071332246
0000d0 d8 28 0d bd 39 ba e1 bd c8 4a 6b 3d 13 5d 48 3c
       -0.03446278 -0.11021847 0.057444364 0.012229222
0000e0 05 94 33 3d 86 dc 88 bd 82 35 ae bc 46 c0 91 bd
       0.043842334 -0.066826865 -0.021265749 -0.071167514
0000f0 4b a3 c6 bd 56 26 9a 3d 05 17 b9 3c 10 d2 ad bd
       -0.096991144 0.07526843 0.022593984 -0.08487332

actor.6.weight f4 [3, 64]
000000 d8 c0 5f 3b da 3c e9 bb ae 1b f1 3b b9 0c 85 3b
       0.0034142043 -0.00711785 0.007358036 0.0040603545
000010 8e 0e 38 3a 82 91 3c 3c 7a 19 1e 3c 98 70 bf 3b
       0.0007021212 0.011509301 0.009649629 0.0058422796
000020 87 a0 96 3a 9b 66 2d 3a 0f 4c a6 bb 99 0b 91 3a
       0.0011491933 0.00066147157 -0.005074985 0.0011066078
000030 aa 91 61 3b 6c 01 b7 3b 6f 99 a0 3b 91 8d b8 3a
       0.0034419098 0.0055848863 0.004901103 0.0014080276
000040 49 2e 79 bc b9 a1 6f 3b a8 41 4f bb 85 b6 8a bc
       -0.015208789 0.00365649 -0.0031624828 -0.016932735
000050 26 29 e7 3a a4 1c 25 3b 52 3b 90 3b 38 6f 4c 3c
       0.0017636165 0.0025194073 0.004401603 0.0124776885
000060 52 0a 35 3c 25 e3 3b 3b 5f b5 fb 3a ad bb 3f bc
       0.011049824 0.0028669324 0.0019203833 -0.01170246
000070 bc 20 81 ba ed df ec 39 44 9e 92 3a ac a3 24 3c
       -0.0009851675 0.00045180265 0.0011186083 0.010048788
000080 c4 6c 1b 3b 3f 6b 96 ba 95 d5 11 3c 6a dc 1f 3c
       0.0023715952 -0.0011476054 0.00890102 0.009757141
000090 4b 25 6c 3a 33 19 8f 3a 60 7c f0 3b 46 72 06 3c
       0.00090082426 0.0010917544 0.0073390454 0.008205956
0000a0 15 37 06 3c 9f 54 a8 3a 94 fe 92 3b 1d 49 4a 3b
       0.0081918435 0.0012842602 0.0044859145 0.0030866333
0000b0 e4 e3 24 3c 01 6a 99 3b 7c 36 7d bc 5b ac f5 3a
       0.010064099 0.004681826 -0.015454885 0.0018743383
0000c0 95 69 fb ba 0e b1 25 3b d6 79 3f 3b 85 72 38 bc
       -0.0019181246 0.0025282535 0.0029216907 -0.011257772
0000d0 0f e6 97 3a c8 49 12 3b 45 68 1e 3b 6a dd 71 3a
       0.0011588949 0.002232181 0.0024171036 0.00092264137
0000e0 08 48 36 3b f8 ea 2c 3c da be 9c 3a 78 dc 77 bc
       0.002781393 0.010554068 0.0011958734 -0.015128247
0000f0 80 b0 c9 3b c7 30 10 3c 6a 4c 6f 3b f2 39 51 bc
       0.0061550736 0.008800692 0.0036514052 -0.012770163
000100 bf df 2e bc 9a 72 b1 ba c2 0d 97 bc a7 aa 1c bc
       -0.010673462 -0.0013538182 -0.018439177 -0.009562171
000110 c7 98 49 bc d1 8a 9f bc f9 4f 85 bc 6a be 1f bc
       -0.012304491 -0.019475373 -0.016273485 -0.009749988
000120 dd f3 31 bc 1b f3 11 bc 4f 97 f6 bb be a8 5b bc
       -0.010861364 -0.0089080585 -0.0075253616 -0.0134069305
000130 d4 88 42 bc 02 62 3a bc 29 5f c2 bc 5d c6 9e 3b
       -0.011873443 -0.011375906 -0.023727017 0.004845424
000140 de 5b 4d bc 78 cc 0a bc e0 9d 15 bc 3b 33 60 3c
       -0.01253411 -0.008471601 -0.009131879 0.013684089
000150 8d 27 60 bc d9 3c 1a bc 37 5f 62 bc 26 bf 99 bc
       -0.013681305 -0.009413921 -0.013816646 -0.018767904
000160 a9 b9 66 bc d5 4b 57 bc 7b 6a 3a bc bc 3f 32 bc
       -0.014082351 -0.013140638 -0.011377926 -0.010879453
000170 4b 4d d3 bb 5f 77 29 bc 0f 47 55 bc b9 87 82 bc
       -0.006448423 -0.010343402 -0.01301743 -0.015933858
000180 4a 80 43 bc 7e a7 d3 bb a0 a7 1c bc 08 d5 a4 bc
       -0.011932442 -0.0064591756 -0.009561449 -0.020121112
000190 37 e0 26 bc 93 ef 41 bc 76 ca 22 bc d8 7c 66 bc
       -0.010185293 -0.011836904 -0.009935966 -0.014067851
0001a0 e0 3f 89 bc ec 5b 33 bc ad b0 39 bc fa 4e 2c bc
       -0.01675409 -0.010947209 -0.011333627 -0.010516876
0001b0 1e ff 94 bc 42 c8 48 bc 62 30 65 3c e1 da 60 bc
       -0.018188056 -0.012254776 0.013988586 -0.01372406
0001c0 fb 87 4c bc a8 ab 4f bc d2 17 35 bc 10 bc 45 bc
       -0.012483592 -0.012675203 -0.0110530425 -0.012068763
0001d0 05 cb 31 bc 40 51 41 bc bd 9d 2f bc 64 87 41 bc
       -0.010851626 -0.011799157 -0.01071876 -0.011812065
0001e0 cd c3 42 bc 8b cc a2 bc 49 2c 05 bc 3a 7b 45 bc
       -0.011887503 -0.019872924 -0.008128234 -0.012053305
0001f0 24 8b 2b bc 3c 7d 69 bc 5e e4 45 bc 77 32 2e 3c
       -0.010470185 -0.01425105 -0.012078373 0.010632149
000200 d2 64 60 3d b8 e4 20 3c 1d 79 55 3d c1 36 4c 3d
       0.05478365 0.009820156 0.052117456 0.049856905
000210 2d d9 2b 3d 3c 79 6e 3d 37 08 3a 3d 40 34 f6 3c
       0.04195516 0.058221087 0.04541799 0.030054212
000220 05 ff 68 3d ff dd 44 3d 87 66 27 3d 1f 69 4d 3d
       0.05688383 0.048063274 0.040869262 0.05014908
000230 bc 8d 2c 3d 21 d6 8a bb 42 3c 3f 3d 9f 1b 23 bd
       0.042127356 -0.004236952 0.046688326 -0.039821263
000240 84 98 29 3d 9a a9 e3 3c 38 27 1f 3d 3b 12 a0 3b
       0.041405216 0.027790833 0.03885576 0.0048849857
000250 41 a4 3c 3d ee 6d 34 3d 51 65 4f 3d 3b e9 58 3d
       0.046055082 0.04405015 0.050633732 0.0529568
000260 d0 0a 31 3d 75 26 48 3d 0f f7 69 3d 9f 86 04 3d
       0.043223202 0.0488648 0.05712038 0.032354947
000270 65 b7 06 3d 21 ad 69 3d 2b ea 73 3d 53 98 44 3d
       0.032889742 0.057049874 0.05954949 0.04799683
000280 09 ac 46 3d 91 02 23 3d 36 da a6 bc 2f 40 63 3d
       0.04850391 0.03979737 -0.020367723 0.055481132
000290 f8 22 40 3d b1 1f 4e 3d 10 e9 18 3d 0f 5c 38 3d
       0.04690835 0.050323192 0.03733164 0.04500967
0002a0 ea 94 31 3d c5 f7 6c 3d 90 7a 53 3d 68 5f 37 3d
       0.043354906 0.05785348 0.051630557 0.04476872
0002b0 27 d4 4b 3d 32 cc 74 3d 2f 04 1b 3b 82 05 81 3d
       0.04976287 0.05976505 0.0023653617 0.06299879
0002c0 95 cd 44 3d 6c d0 71 3d 89 5e 3b 3d 8b 2d d6 3c
       0.04804762 0.059036657 0.045744453 0.026144763
0002d0 fb 87 6e 3d 39 76 67 3d 58 bb 6a 3d 29 f4 44 3d
       0.05823515 0.05650923 0.05730757 0.04808441
0002e0 61 4a 39 3d 76 29 69 3d 74 f8 39 3d 27 a3 20 3d
       0.04523695 0.056924306 0.04540296 0.039218094
0002f0 87 df 2c 3d 8b 29 82 3c 0c 65 80 3d 02 7c cb 3b
       0.04220536 0.01588895 0.06269273 0.0062098512

actor.6.bias f4 [3]
000000 c5 80 f5 bc 39 23 97 3d b0 96 1d 3d
       -0.029968629 0.07379765 0.038473785

critic.0.weight f4 [256, 259]
000000 f3 12 4a 3d cc e1 97 3d a0 27 c9 bd 7f 87 39 bc
       0.049334478 0.07416114 -0.09822011 -0.011323809
000010 55 bf 2e bf 9b 51 c8 bd 9f 56 91 3d e6 df 5a bd
       -0.682607 -0.0978119 0.070966 -0.053436182
000020 d3 97 12 3d b1 fc 4b 3b 20 63 2d 3d bb 5c 97 bd
       0.035789322 0.0031125958 0.04233086 -0.07390734
000030 58 a5 b2 3d 10 9e 04 3e 1e 0c fc 3d 0e d2 7a bd
       0.08722943 0.12950921 0.12306999 -0.06123548
000040 c2 55 26 3e 1e 1e 9d bd c1 3f d6 bd 71 5b 99 bd
       0.16243652 -0.0767176 -0.10461379 -0.07488144
000050 8b 9d d6 3d e6 cb de bd 10 8d 35 c0 b4 e6 f2 3d
       0.10479268 -0.10878734 -2.8367348 0.118604094
000060 58 45 e8 bd ee 0c d2 3d 36 7b 3f 3d 37 d4 70 bd
       -0.11341351 0.102563724 0.046748362 -0.058796134
000070 f7 ca 9b 3e be c9 ab 3e dd 5a 8f 3d bd 02 81 3d
       0.30428287 0.33552355 0.06999753 0.062993504
000080 1f 0b 8e 3b b4 5a fa 3d 08 fa ea bd 9b 6f 11 bd
       0.004334822 0.122243315 -0.11473471 -0.035506826
000090 af 2b 15 3c f0 90 da 3d 47 bb 96 bd 27 0d 09 3d
       0.009104653 0.10672176 -0.07359939 0.03345981
0000a0 27 ef 38 3d e9 01 40 bc 5e 2e 10 bd 65 fc c4 3d
       0.04514995 -0.011719205 -0.03520047 0.09618453
0000b0 35 c6 2a bc d6 00 62 3e 30 6d 36 be 69 54 17 3e
       -0.010423233 0.22070631 -0.17815089 0.14778294
0000c0 79 bd 33 be c0 e1 71 3e 7e 40 89 bd 56 4c ca 3c
       -0.17552747 0.23621273 -0.06701754 0.024694603
0000d0 aa 7d 53 3d ac fc 05 bf 31 76 3f 3b 73 ec 82 3d
       0.051633514 -0.5233867 0.0029214735 0.06392755
0000e0 ec a4 3f bd 9e 24 1a 3c f8 29 3d 3e bd d2 1b bc
       -0.04678814 0.009408144 0.18473041 -0.009510693
0000f0 b1 95 99 3d bd ae d6 3d ec b9 9b bb b2 16 80 3d
       0.074992545 0.104825474 -0.004752388 0.06254329
000100 39 69 20 bd ec 2c bf bc 26 c4 ff 3d be 48 2e 3d
       -0.03916285 -0.02333685 0.12488584 0.04254984
000110 f1 ab 2b bd 0e 70 e8 3d 17 00 ce bd 94 4c 97 3d
       -0.041912023 0.11349498 -0.10058611 0.07387653
000120 76 f2 18 be 65 23 88 bd 78 96 fa 3d 5f aa 2b be
       -0.14936242 -0.06647376 0.12235731 -0.1676421
000130 90 36 5d 3d 7e 6a ce bc 5c 0e 9d 3d 19 d9 3a 3e
       0.054007113 -0.025197264 0.076687545 0.18246879
000140 33 7f 0b bc cf 06 3d 3e 33 de cd 3d dd 6e 0c bd
       -0.008514213 0.18459629 0.10052147 -0.034285415
000150 d0 23 ea 3d 8e 00 e9 be 48 a9 65 bd 20 dd 03 be
       0.11432612 -0.45508236 -0.056069642 -0.12877321
000160 f9 d6 e8 bc 46 02 6c bd 4a 9f 25 3e c2 22 df 3d
       -0.02842282 -0.057619356 0.16174045 0.108953014
000170 66 a2 3d 3d 38 55 c0 bd 25 49 c2 bd 8d 31 85 3d
       0.046297453 -0.09391254 -0.094866075 0.06503592
000180 a4 2f 4e 3a 17 43 0a bd 6c 6a 2d 3d 4d 13 9a 3d
       0.00078653754 -0.033755388 0.04233782 0.075232126
000190 ef 8a 65 bd 6b d2 ff 3c ff 3d dc bc ee 2b 2f 3d
       -0.0560407 0.031228265 -0.02688503 0.042766504
0001a0 41 a9 e8 3c 62 0b aa 3d 6f 20 38 be e2 cb 94 3d
       0.028401019 0.08302952 -0.17981122 0.0726545
0001b0 74 90 e4 3d 04 6f 64 3c 42 35 9d 3d 58 6e 0f be
       0.11160365 0.013942484 0.07676174 -0.14006937
0001c0 94 73 14 bc 8e 1f 07 bd b0 12 35 bd 09 59 d1 bb
       -0.009060759 -0.032989077 -0.044207275 -0.0063887876
0001d0 9d ba 79 bc db bc ae bd b1 15 e5 3c d1 fa 9b bd
       -0.015242246 -0.08532115 0.027964445 -0.07616199
0001e0 84 85 4a bc 76 cc 10 bd 30 13 cc 3c 90 31 c5 3d
       -0.012360934 -0.03535124 0.024911493 0.09628594
0001f0 bd db 44 3d 8d f1 51 3e 6a 7e d6 bc 1e 09 53 3d
       0.04806112 0.205023 -0.026183326 0.051522367
000200 85 79 53 be 1b 69 96 3d 87 f3 90 3d 33 72 00 bd
       -0.20651825 0.07344266 0.07077699 -0.03135891
000210 fa c6 91 3d 1d d3 ca bc 2d 7e f9 bc fe 4f 8c 3d
       0.0711803 -0.02475887 -0.030455673 0.06851195
000220 0a 0b 8e bd 9d ab ea bd 52 82 8b 3c 7a da 78 3e
       -0.06935699 -0.11458514 0.017029915 0.24302092
000230 32 7a fc 3d 40 32 c1 3d 25 cb 66 bd 10 48 ea 3d
       0.123279944 0.094334126 -0.056346077 0.11439526
000240 88 0f b0 bd c8 77 ba bd 1f ff 5a 3d 46 4d 85 bc
       -0.08596712 -0.09104878 0.05346596 -0.016272198
000250 fe ca 32 3e fe 8b 55 3d 06 6c a6 bd c0 5e 32 3d
       0.17460248 0.05213546 -0.081260726 0.043547392
000260 cd 71 61 bb e3 51 0b be 9d 1a aa bc ea 4c 0d 3f
       -0.0034400106 -0.13605456 -0.020764643 0.55195487
000270 e4 38 e4 bc 31 0f 24 3e 1d b7 8c 3d 0a 93 16 bc
       -0.027859159 0.1602142 0.068708636 -0.00919033
000280 74 1c 2b be 7d 91 bf bd d7 3c 0c 3e c8 16 d9 bc
       -0.16710073 -0.093539216 0.13695084 -0.02650012
000290 05 24 88 3c 73 8c 95 bb 15 d2 87 bd f5 b3 a5 3d
       0.016618738 -0.004563862 -0.06631867 0.08090965
0002a0 e7 e0 15 bd 06 61 37 3d 97 ea 28 bd 20 6e aa 3d
       -0.036591437 0.044770263 -0.041239347 0.08321786
0002b0 90 18 36 3e 4c f3 da 3c 20 0e 60 bd 54 16 d9 3d
       0.17782807 0.026727341 -0.05470097 0.10599962
0002c0 62 87 ff bd 76 24 04 3e 45 90 de bd 88 61 fb 3b
       -0.12476994 0.12904534 -0.10867361 0.0076715387
0002d0 58 fd d0 b9 49 67 dc 3d f1 34 19 bd 5a ef 03 bd
       -0.00039861607 0.107618876 -0.037404004 -0.032210685
0002e0 2f 23 19 3d fc df 3d 3e d4 8b 16 bf 69 4c 9b bc
       0.03738707 0.18542475 -0.5880711 -0.018957334
0002f0 e4 5f 27 bd c9 c7 44 3d 46 f9 ad bd e6 7e 45 bd
       -0.040862933 0.048042092 -0.08494811 -0.048216723
000300 58 d7 41 3e d9 ec 10 bc 13 06 3d bd 24 62 8a bd
       0.18929803 -0.008845531 -0.04614837 -0.06757
000310 75 71 b2 3d 15 14 73 bc 21 1c ae bd 76 2a 7c 3a
       0.087130465 -0.014836331 -0.08501459 0.0009619364
000320 3a 46 ee 3d ae 6d f4 3d 3f 1f 40 bc 44 40 a1 3d
       0.116344884 0.11934982 -0.0117262 0.07873586
000330 48 33 13 bc fd 54 ec bb 6d 95 64 bd c4 30 50 3e
       -0.008984394 -0.00721228 -0.055806566 0.20331103
000340 9e b5 af bd 0a 18 28 bb 3f bf fe bb d3 11 22 3e
       -0.085795626 -0.0025649094 -0.007774263 0.15827112
000350 9a af f8 3c 4a d3 57 3d 93 0b 49 3c 57 26 89 3c
       0.03035717 0.052691735 0.012270826 0.016741915
000360 a4 fe 37 3d 3c f7 d3 bd 40 63 81 bd c1 03 bd bd
       0.04492058 -0.103498906 -0.063177586 -0.092292316
000370 43 eb a7 bd b3 74 c4 bd cd a5 ca bd c0 ba 60 3c
       -0.081991695 -0.09592571 -0.09894905 0.0137164
000380 f6 22 a3 3d 45 95 c6 bd 43 85 11 be 1a 2e b0 bc
       0.07965653 -0.0969644 -0.14210992 -0.021506358
000390 1c ad e8 3d f9 60 4d 3e 89 cc 24 3d 29 18 0c be
       0.11361143 0.20056523 0.040234122 -0.13681091
0003a0 5a c3 52 3d 7b 9c 01 be 32 76 ef 3c 61 86 c7 bc
       0.051455833 -0.12657349 0.029231165 -0.024356069
0003b0 dd b9 dd bd 62 dc 13 be 1b 55 ab bd 4b 0d e1 3d
       -0.10826466 -0.14439538 -0.08365842 0.109888636
0003c0 16 32 1a bd 48 d4 0e 3e 9a 74 27 3e a4 a8 3d 3e
       -0.037645422 0.13948166 0.16353074 0.18521363
0003d0 14 84 93 bd 66 d1 9a bd 52 73 a0 bc ba 9e 91 3d
       -0.07202926 -0.07559471 -0.019586239 0.07110353
0003e0 7e 20 42 3d b1 44 31 3d 4a bb cd 3d 87 7e 40 3d
       0.04739427 0.0432784 0.10045488 0.046995666
0003f0 03 1c 88 3d b2 b8 aa 3d 1f a1 0c 3c d0 0d 28 bc
       0.06645968 0.08336009 0.008583336 -0.010257199
