rlgpu/logs/cut_407/model_300.pt (torch, 868312 bytes, 16 tensors)

log_std f4 [3]
00000000: 677c 37bf eed4 ebbe 6e74 e8bd
-0.716742 -0.4606089 -0.11350332

actor.0.weight f4 [256, 259]
00000000: 1fcc 143d 6484 353d 8306 623d 3f2c d8bc
00000010: 3dc9 84bd 059a 933d 573e 5d3d 89f2 99bd
00000020: 432e fd3c f287 043d 3d22 993c 67b2 aebd
00000030: e36e 8f3d 7bdd c5bd 6844 c3bc 0158 b0bd
00000040: 8497 e4bc d183 0bbd 59b8 1fbe 36b4 083d
00000050: 2c39 783d 56d9 a3bd 154c c6bd 1ada 873c
00000060: fa23 d73d cf8f 1f3b 5c97 903d 1ebb 5fbc
00000070: 14fd 87bb f2d1 4ebd 026c 373c e43c b3bd
00000080: 2013 df3c f448 da3d f840 b73d 3d1c 14bd
00000090: b7e0 613d 9b74 2abc 63d1 66bd 1a03 2e3c
000000a0: d39d 69bc 15f5 cdbc 013c 303e f3b3 1b3e
000000b0: 686a d2bd 6dac 1e3e 880e a33d f62d a1bd
000000c0: bf13 ad3c a38f 99bd 69ae 09bd c0b2 0fbe
000000d0: 3495 28bd e2e3 c53d 1343 7bbd 3019 683d
000000e0: 717e 603e ad50 b93d f59b 503c ce3f 1ebe
000000f0: 15be 883c 04a3 2abd ad50 c4bb af33 5b3c
00000100: 5858 40bd d750 003d 49a7 c4bd 72c5 a33d
00000110: 8fa8 d6bc b956 21bd 9b08 a1bd bbf8 923d
00000120: bf88 acbd b587 c6bc a0fc c0bc fef7 32bd
00000130: 265d 82be 62ef 2ebc 4104 0e3d 8092 83bc
00000140: d60e 203d e043 043e d019 cbbd 72f1 f93b
00000150: 7085 5ebd f1ba 0a3e ba2b 87bd cccf 05be
00000160: 04ea bdbd 70bd d9bd 42cd 8d3d 781f 813d
00000170: c406 143c c372 0c3d d416 303e 1c48 003e
00000180: 424d 01bd 930b 92bd 06b7 a4bc d92c b13d
00000190: 6eda 8b3d 8c51 bbbd 20ff 6abc 6d91 2dbc
000001a0: baf9 d93d 74f7 4cbd f28a 4dbd 2943 d23d
000001b0: 06fa a4bb 4869 513e 8a05 05bd afae f03d
000001c0: 6cf8 cc3c d3af 38bd 4ffa e5bd 1850 d6bd
000001d0: 1a47 5fbd 5796 d23d d9d5 9ebd c82f 76bc
000001e0: 3dd1 95bd 9c0c 1e3e 0a16 c8bd 65ae 1c3c
000001f0: 39d1 3f3d 057b e13d 4b32 863c 3fde 42bd
00000200: cf97 693d 94e0 dd3d 66dd 8c3d 93ff 893d
00000210: 2d12 91bd 544b 72bd 77ab 85bd ad05 433e
00000220: 2216 81bd c980 c0bd 40bf 913d b4fd cbbd
00000230: a304 1d3d 4854 40be 5d21 87bc ef5b 71bc
00000240: 7af9 bfbd e1c6 403c 30b2 073e 1e44 bbbb
00000250: ebc4 9cbd 1537 a3bd 1ef1 07be bf16 ad3d
00000260: f16a 26be 4657 a33c 9254 82bc ce8a 003e
00000270: d6d1 1f3e df04 853d 17f5 44bd 3ae2 003e
00000280: 1c86 f83d ffae 353d b4e2 febd 0926 aabd
00000290: 37c6 13bb cfa6 3c3d dcc9 6fbd 5e60 e8bc
000002a0: bfa8 43be 066a 79bd f2ee 8a3d cadd 21be
000002b0: 889e 7d3d 6f5e d63d 9713 843d a8a3 31bd
000002c0: a1d5 fd3d 7dfd 90bd 29b7 b3bd 5906 7bbc
000002d0: e6b0 0a3e f686 1b3d bfa9 afbd 00f5 c73c
000002e0: 2116 4dbe 47c6 b8bc 2496 393d b3ad 26bd
000002f0: af4e eabd 8654 9dbd 97bc 21be aa04 61bd
00000300: 744a cebc 2e32 31bd 9b71 283e f47d 4b3d
00000310: 3482 f93d 9588 b6bc 7dff b4bc a7ff 1e3e
00000320: 0a12 15bd 8eaf 69be d4f6 983c 73e0 c23d
00000330: 4085 ba3d 282f 15bd 2bae b93d ccb0 b6bc
00000340: e8c6 c4bd 47f4 44be c8ae 53bd d0e4 523d
00000350: 0842 5abd aebc abbd aaaa abbc bdcd 523e
00000360: 9971 953d 951a 303d b93a 86bd 20b5 a63d
00000370: af2b 883d 5e71 1ebc eb24 4dbb b067 a3bb
00000380: 0553 fdbd 8021 873d f6af 2ebd 1638 e8bd
00000390: 276b c73d 2cb4 523d a6c0 9b3d a627 ed3c
000003a0: 99ea c63d 141e 973d 3e2b c4bd 00a8 cd3c
000003b0: 6ef2 e4bd 9fe3 24be 7f6c 0a3d 50ac 7fbd
000003c0: 3ee5 babc f58a 1dbe 18e7 0c3e 087d 2bbc
000003d0: 3076 e43d e2dd a63d 93c9 043c 5bac 973c
000003e0: 53fa 1f3e d3f1 f3bc a4cc d03d 5f3c 31bc
000003f0: 6cc2 bbbd 6aac ae3d 0568 6dbc 1ee7 223d
0.036327478 0.04431571 0.05518199 -0.026388286 -0.06483696 0.07207111 0.05401453 -0.07516963
0.030905848 0.03235621 0.018693084 -0.08530121 0.07003572 -0.09661385 -0.02383633 -0.086105354
-0.02790428 -0.034061257 -0.15597667 0.033374988 0.0606014 -0.08000438 -0.0968248 0.016583491
0.10504909 0.0024347191 0.070601195 -0.013655452 -0.0041500423 -0.05049319 0.011195185 -0.08751848
0.0272308 0.10658446 0.08947939 -0.036159743 0.055145945 -0.0104037775 -0.05635203 0.010620857
-0.01425882 -0.025141278 0.1721039 0.15205364 -0.10274202 0.15495463 0.07961756 -0.078700945
0.02112758 -0.074981 -0.033613596 -0.14033031 -0.041157916 0.09662606 -0.061343264 0.056664646
0.21923234 0.09048591 0.012732496 -0.15454027 0.0166922 -0.04165937 -0.0059910626 0.013379022
-0.04695925 0.031327095 -0.096022196 0.07996644 -0.026203422 -0.039389346 -0.078629695 0.07176348
-0.0842452 -0.024234632 -0.023557961 -0.043693535 -0.25461692 -0.0106771905 0.034672026 -0.016061068
0.03907665 0.12916517 -0.09917033 0.0076276595 -0.054326475 0.13547875 -0.06600137 -0.1306755
-0.092731506 -0.106318355 0.069239154 0.0630483 0.009034816 0.034289133 0.17196208 0.12527508
-0.03156782 -0.07131114 -0.020106804 0.08651132 0.068287715 -0.09146413 -0.014343053 -0.010593754
0.10643335 -0.050040677 -0.050181337 0.10266716 -0.005034688 0.20450318 -0.032475986 0.11752068
0.0250208 -0.045089554 -0.11229383 -0.104644954 -0.054511167 0.10282581 -0.07755632 -0.01502604
-0.073153 0.15434498 -0.097698286 0.009563063 0.04683039 0.11009792 0.016381403 -0.04757523
0.05702954 0.108338505 0.06878166 0.067382 -0.07083545 -0.05915387 -0.06526845 0.19045134
-0.063030496 -0.09399564 0.07116556 -0.099604994 0.0383345 -0.18782151 -0.016495401 -0.014731391
-0.09373756 0.011766166 0.13251567 -0.0057149073 -0.076547466 -0.079694904 -0.13275573 0.08451604
-0.16251732 0.019939076 -0.015909467 0.1255295 0.1560739 0.0649507 -0.0480853 0.12586299
0.12134954 0.044356342 -0.12445584 -0.08308036 -0.0022548565 0.04605752 -0.058542117 -0.028366264
-0.1910734 -0.060892127 0.067838565 -0.15807262 0.061918765 0.104672305 0.06449049 -0.043368965
0.12394262 -0.07079599 -0.087751694 -0.015321338 0.13544044 0.037970506 -0.085772984 0.024408817
-0.20027973 -0.022555484 0.0453092 -0.040692996 -0.11440789 -0.07682137 -0.15794598 -0.05493609
-0.025181986 -0.043260746 0.16449587 0.049680665 0.121830374 -0.022281924 -0.022094483 0.15527211
-0.036394157 -0.22820875 0.018672384 0.095154665 0.09107447 -0.036421925 0.09066423 -0.0223011
-0.09608251 -0.1923381 -0.051680356 0.051487744 -0.05328563 -0.08385597 -0.020955402 0.20586295
0.07297058 0.0429941 -0.06554169 0.081400156 0.06648957 -0.0096705835 -0.0031302522 -0.0049867257
-0.1236935 0.065981865 -0.04264828 -0.113388225 0.097372346 0.051441357 0.07605104 0.02894957
0.09712715 0.07378784 -0.0957856 0.025104523 -0.11179052 -0.16102456 0.033794876 -0.06242019
-0.02281439 -0.15385039 0.1376003 -0.0104668215 0.11155355 0.081477895 0.0081047 0.018514803
0.15622835 -0.029778397 0.10195282 -0.010817616 -0.091679424 0.08528979 -0.014490132 0.03977119

actor.0.bias f4 [256]
00000000: b0f8 b7bc cb39 4abd ca15 8fbc 1e37 d5bc
00000010: 74c6 cebc 8769 413c ca10 843d eb07 bf3c
00000020: c048 85bc 5dc9 233d 2584 493d a067 ac3c
00000030: b500 883d 3875 633c 3d48 78bc d1c7 e03b
00000040: 5f36 293c 70cc 293c 4195 bd3c d4c9 42bd
00000050: a3d9 4e3c aa5b 04bc ab69 393d ad1c 77bd
00000060: 4e28 183d 7c75 86bd d8ff 9ebc e847 b83c
00000070: 10a1 67bd 1867 12bd d031 143c 8ef8 b7bc
00000080: 9e6f 303c aad3 403d 0a51 9d3b fb25 acbc
00000090: b947 70bd 9e26 f33c 8fee 4a3d 6689 debc
000000a0: db3b 7f3d abfd d9ba 3ccf 5a3d 3d5a 2c3d
000000b0: f3af 3bbd e7af 593d 9659 12bd dd18 463d
000000c0: d49a 2f3d bf67 fcbc 501a 11bd bd21 2c3d
000000d0: b985 ee3b d98d 153d 289c 4dbd f70c 38bd
000000e0: b6b5 3cbc 7f90 9dbb fcfb 44bb f14e 9e3c
000000f0: e221 bb3c f70c 56bd 99c3 8ebd 5048 993d
00000100: a446 8ebd 8206 7abd 1713 d0bc 7493 133c
00000110: fa4a 883c 6045 82bc 6280 bfbc 5397 22bc
00000120: 651a 123d 2e98 5ebc 2417 1d3c 11a4 49bd
00000130: da12 6fbc 39e7 c63c 76ae 17bd f5cd 2abd
00000140: 877c 1f3d a18c 64bd e033 96bd 1d34 423d
00000150: c8c8 053d f8a8 6cbd 9852 68bd 9cc0 50bd
00000160: 36d7 8b3c 4500 2bbd 69fe 88bd b6ed 083d
00000170: 1aad 93bc 35e0 40bc a8ac 0ebd 7af8 bb3c
00000180: 6fa2 0a3d 8bd1 5f3d a3f1 49bd 2ddf 4e3c
00000190: 785e 7bbc 471b c5bb 0284 87bd 1320 62bd
000001a0: c9a0 dfbb 1679 09bd 5826 073d 0fd0 2c3b
000001b0: 2744 773c e540 a23b d54a 53bc 6f20 263c
000001c0: 2b90 fe3c 491a 26bd cf82 4d3a 2352 043d
000001d0: 2d7d c1bc 0f7a 1ebd ffa1 abbc 1730 6abd
000001e0: 99fb 08bd 6c28 d5bc b68f afbc 6292 5fbd
000001f0: b88b 723c 57e4 5c3d 5ca8 11bd 4c49 3abd
00000200: 9526 a6bc 95d0 14bd b7dc 2d3d 483e 383c
00000210: b11a 57bd c933 54bc 63b6 8ebc 12fa 37bd
00000220: ab8f 2cbd 6001 5dbd 8dc5 05bd dc0e d63a
00000230: fe41 6bbd 7eac 003d 4092 0f3d 38a4 3d3d
00000240: 745e 523d eda8 9b3b aa16 fe3c b7cf 643c
00000250: f50d df3b b59b d43c 39a1 473d 1193 0e3d
00000260: c531 d0bc af15 363d 4e93 1d3d ebe6 243d
00000270: 2142 2fbd e90a e73c 3dfa 38bc df19 25bd
00000280: 6ae4 5ebd 3913 be3c 4af7 203c f5b7 b33c
00000290: 9fb1 0fbd ccfb 87bd aa37 a13d 9810 813c
000002a0: 7055 0a3d f1e6 40bb d5be 35bd a468 103d
000002b0: ccfc 243c 3324 7f3d 9f0d 23bd f784 abba
000002c0: 2606 b73c 8f10 393d 83d8 c53c e873 713d
000002d0: 67d2 15bd 698b 5ebd 9b2b 25bd a252 3e3d
000002e0: 91da d83c 6247 90bb e8e8 3a3d dadc 97bc
000002f0: bafc 3abd ef9c 25bc 03cf 41bc aeca 25bd
00000300: 84da 07bd f6d6 6abd b03c 4cbd b6bd 04bd
00000310: f1c2 273d bd52 893d d6be ac3c 3d63 a23d
00000320: 03ef 92bd 2b93 9e3c c691 243d 8141 90bb
00000330: e512 5ebd aa95 e63c 38e1 9dbc 6bd9 f8bc
00000340: 8e25 083d 9094 01bc 2ef9 f2bc abc3 c4bc
00000350: 11ee 1c3d 4eb2 a3bc 2d04 823d 72d3 043d
00000360: 548c 3b3c 1ad9 9cbc b995 a3bc c209 34bd
00000370: 24ae 3bbd d5e3 3cbd e709 9abc 76d0 cc3b
00000380: 58cd 1b3d 5237 443d 3084 30ba 707e 603c
00000390: cc12 4f3d 3bcb 8a3d 09f2 80bd 6382 34bd
000003a0: 79ea a63c 401c c8bc 144c c63b 41a8 72bd
000003b0: 5c2f 65bd 9e7a 813c c4a2 4ebd 05ee 84bd
000003c0: d277 1fbc c569 a63c 7b68 60bd b25d 6abc
000003d0: a27d 87bd 3245 803d 75fe 143d fbe7 01bd
000003e0: 15a1 193b c4fc e9b7 1372 073d 93c1 ad3c
000003f0: 2996 653d 10b0 233d f7bc a93c 1fa6 153d
-0.02245745 -0.049371522 -0.017466445 -0.026027258 -0.025241114 0.011804945 0.06448515 0.023319205
-0.016270041 0.039986957 0.04919829 0.021045506 0.0664076 0.013882928 -0.015153942 0.0068597575
0.0103279045 0.010363683 0.023142459 -0.04755576 0.012625131 -0.008078495 0.04526679 -0.06033008
0.037147813 -0.06565377 -0.019409105 0.022495225 -0.056550086 -0.03574285 0.009045079 -0.022457387
0.010768799 0.04707686 0.0048009204 -0.021014204 -0.05866215 0.0296815 0.049543913 -0.027165126
0.062312942 -0.0016631385 0.05342029 0.042078245 -0.045822095 0.05314627 -0.035729967 0.048363555
0.042872265 -0.030811189 -0.035425484 0.042024363 0.0072791246 0.03651223 -0.05019775 -0.04493424
-0.011517933 -0.004808485 -0.003005742 0.019324752 0.022843305 -0.052258458 -0.06970901 0.07484496
-0.069470674 -0.061041363 -0.025399728 0.0090073235 0.016637314 -0.015902221 -0.023376647 -0.009923774
0.035669703 -0.013586087 0.009588037 -0.04922873 -0.014591897 0.024280177 -0.037031613 -0.041700322
0.038937118 -0.055798177 -0.07334113 0.04741298 0.032662183 -0.05777833 -0.056719393 -0.050964937
0.017070394 -0.041748304 -0.0668915 0.033429824 -0.018026877 -0.011772205 -0.034832627 0.022945631
0.033846315 0.054643195 -0.04930271 0.012626451 -0.015342347 -0.0060152146 -0.06616975 -0.05520637
-0.006824587 -0.033562742 0.03299555 0.002636913 0.015091932 0.0049515837 -0.012896259 0.010139569
0.031074604 -0.04055241 0.00078396214 0.032304894 -0.023619259 -0.038690623 -0.02095127 -0.05717477
-0.033443067 -0.026020251 -0.021430831 -0.05458296 0.014803819 0.0539287 -0.03556095 -0.045480058
-0.02028207 -0.03633173 0.04244682 0.011245318 -0.05251569 -0.0129518 -0.017420953 -0.04491622
-0.0421292 -0.05395639 -0.032659102 0.0016331333 -0.057435982 0.0314145 0.035051584 0.04629919
0.05135961 0.004750362 0.031016666 0.013965539 0.0068070837 0.025953153 0.04873774 0.034808222
-0.025414357 0.044454273 0.03847056 0.040259283 -0.042787675 0.028203445 -0.01129013 -0.040307876
-0.05441705 0.023202525 0.009824583 0.021938303 -0.035081502 -0.06639823 0.07871945 0.015754983
0.033772886 -0.0029434527 -0.044371445 0.035256043 0.010070037 0.06229038 -0.039807912 -0.0013085891
0.022341799 0.045181807 0.024151092 0.058948427 -0.03657761 -0.05433217 -0.04032479 0.046465524
0.026471408 -0.0044030407 0.045632273 -0.018537927 -0.045651175 -0.010108217 -0.011829141 -0.040476494
-0.033167377 -0.05733391 -0.049862564 -0.032407485 0.040957395 0.06705234 0.021087091 0.079290845
-0.07174494 0.019357285 0.040178083 -0.00440234 -0.054217238 0.028147537 -0.019272432 -0.03037711
0.03323894 -0.007908955 -0.029659834 -0.024019083 0.038312975 -0.019982483 0.06348453 0.032428212
0.011447031 -0.01914649 -0.019968854 -0.04395462 -0.04582037 -0.046115715 -0.01880355 0.0062504364
0.038037628 0.04790432 -0.00067335647 0.01370202 0.050555035 0.067770444 -0.062961645 -0.04406966
0.020375477 -0.024427533 0.0060515497 -0.05924249 -0.05595337 0.015805539 -0.050448194 -0.06490711
-0.009733157 0.020314107 -0.05478714 -0.014304565 -0.066157594 0.06263198 0.03637548 -0.031715374
0.002344196 -2.7893468e-05 0.033067774 0.021210467 0.056051407 0.03996283 0.020719988 0.03653538

actor.2.weight f4 [128, 256]
00000000: 9d4e 35bd 9c57 343e 4e4c 23be c49b 4b3c
00000010: 1571 9fbd d32a fdbd d34b 9c3c 347f cd3d
00000020: 7b1b 253d cf7d 383e 7b70 6dbd 45ad 81bd
00000030: 733d acbd 61b4 f03d 6cc0 323c 040d 7a3d
00000040: c754 12be b98b 7dbd 0685 d8bd f9f3 143e
00000050: 14d7 753e 1a17 c3bc bb0f 04be 1782 bb3d
00000060: 398d 2cbe 1bb8 0abe 49b6 aa3c 9afe 883d
00000070: 8cc6 84bd d281 3a3d 7176 c3bc fd0e 77bc
00000080: a064 8d3c b383 0ebc 953b aa3d c455 a83c
00000090: 2a0b 40be f11b 4f3c 2f9f 983d ae5b 48bd
000000a0: 6fbe ab3d e9e2 0b3e a791 a8bd ded2 b33c
000000b0: fb34 7e3d d9ab b2bd ed81 673d dbd6 593d
000000c0: adec 393d 3fd9 51be fb4f a33b 3a8c 9f3d
000000d0: 2ad9 23bc e2c5 cdbd 7205 5f3d fc72 17bd
000000e0: 318c 14be 0181 c03c 2cb8 013d fd25 5dbd
000000f0: f0c7 aabb 657a 083e 7d81 db3d a735 60be
00000100: 32a3 ae3d 9fc5 e5bd 168b 343d c0cd 75bd
00000110: 1227 40bc d1c1 9abd 5707 c6bd ab0e 71bd
00000120: 1a37 86bd e02d 19bd 8191 2ebd 92fd 0e3e
00000130: 6d18 08be ef75 d33b e6a5 54bc 7800 993d
00000140: 8bf1 2f3d ea13 4bbc 1d2f d73d 2849 52be
00000150: e377 5d3d 3bad 603b 6358 ccbd 5dea 7b3e
00000160: cfc5 06bd 55ef dcbd 5e05 6bbb 7571 013d
00000170: d2ed 6c3d 3d12 533d b316 b4bc 3bdf 4b3d
00000180: af3a 813c 695a 8f3c 976b dbbc 42e9 3f3c
00000190: 8a54 edbd 1460 1c3e 63cc bc3d 1b84 093e
000001a0: fafb 513d a3e8 51bd 7900 543d 8195 8b3d
000001b0: ac7d b3bd cac6 1e3d 83ce 773d 3dc8 143d
000001c0: 9884 a2bd ad87 9f3b 54a9 efbd 084d 06be
000001d0: ed5f ae3d 4193 c2bc 7bf5 bdbd e06a febb
000001e0: 110c 0cbd cdbd 1d3e 1cc2 5b3d 6d62 a9bd
000001f0: 11a8 81bd 4ae5 853d fe2b 103d 2363 db3d
00000200: de99 713d 87d4 213c 802a 633d 7fbe 8c3d
00000210: d93a 2bbd 0283 273e 06e8 78bd f66d 0b3d
00000220: 0b17 01bd 8906 013e d19e ecbd 32b6 1abe
00000230: 2deb d33d 4105 9b3b e43d 61bb 9949 2cbe
00000240: c60f fcba 61e4 b9bd c07b 3a3d c575 b13c
00000250: a3e3 803d 6a5b a43d b142 b33d e896 863d
00000260: 25ef febc af98 1c3e 9205 6dbc c489 a73b
00000270: b492 013d ebf9 b3bd a440 8cbc e7ed 8fbd
00000280: 69e7 683e 98a8 20be dfb4 7ebb 16ee 25bd
00000290: c1f5 e73c 0cec 49be 1755 f43c ef11 0cbe
000002a0: d487 8d3d 882d a4bc 03b5 e13c ed2a 983d
000002b0: e84a debd da3a 753d 5d67 64bc 5c23 c93c
000002c0: 5b9b b4bd 31c2 2f3e c6df f83d 3dff 1b3d
000002d0: 78a3 51bd b9c3 96bd fe0d 06be 7f64 113e
000002e0: 2f99 163c 0c30 ad3d bb24 d73b 1ddd f03d
000002f0: 0758 28bd b48e e4bc 5b09 c03c 68a7 fd3d
00000300: c8f6 643d e839 a33d 9b20 0b3d 3ecd 80bc
00000310: c1ac c53c e99c 86bc f1e2 af3d c41f ea3a
00000320: df07 5a3d 27e0 513c 4059 d3bd 382b bfbc
00000330: 65d6 75bb a4be 6dbd 48f5 663c 2eb2 8d3d
00000340: 4552 ba3d 5639 74bd 6ea1 1f3b 2525 26be
00000350: 9cfb 883d d940 e3bd f429 643d 059d 02be
00000360: bbb0 503c 3809 1ebe f7b6 a63d 764c cbbd
00000370: 3c9a 903d da3f 5ebd b4a4 803c 3d4f b53d
00000380: f4b5 813d 44c3 afbd 7bb4 e23d 1bcf 81bd
00000390: fe67 983d bb8c aebd 8f49 2b3e dea1 02be
000003a0: 29bb e93c 757f 8abb 9a23 99bd defc 3c3c
000003b0: 2588 9ebd 0b37 843d 68c5 eebc b716 5dbd
000003c0: 768b 893d 04cf b9bc cf0d 103d 524f 2dbe
000003d0: 38a2 aa3c 79f5 603e 16ff cbbd 1472 17be
000003e0: b0c5 f03d 1f14 133d f0aa 56bc d25a 02be
000003f0: 9d51 07be e7cb 3cbd 9bca 083e 6df9 9abd
-0.044264425 0.17611545 -0.15947077 0.012427274 -0.077852406 -0.12361684 0.019079125 0.10034028
0.04030941 0.18016742 -0.057968598 -0.06331877 -0.08410158 0.117531545 0.010910135 0.06104757
-0.14290152 -0.061900828 -0.10572247 0.14546193 0.24007827 -0.023814727 -0.12896626 0.09155672
-0.16850747 -0.13546793 0.020838873 0.066891864 -0.06483182 0.045533963 -0.023860188 -0.015079257
0.017259896 -0.008698392 0.083121456 0.020548709 -0.18754259 0.012640939 0.07452237 -0.048915558
0.08385932 0.13660778 -0.08230906 0.021951135 0.062062245 -0.087241836 0.05652039 0.053183418
0.045391727 -0.20493029 0.0049838996 0.07790418 -0.010000506 -0.10047509 0.054448552 -0.036974892
-0.14506604 0.023499014 0.03166978 -0.053991307 -0.0052118227 0.1332794 0.10718057 -0.21895467
0.08527221 -0.11219334 0.044077955 -0.06001067 -0.011728065 -0.07556499 -0.09669369 -0.05885188
-0.065534785 -0.037397265 -0.042619232 0.13963917 -0.13290568 0.0064532678 -0.012979006 0.074707925
0.042954963 -0.012394885 0.10507033 -0.2053572 0.05406941 0.003428294 -0.09977796 0.24601121
-0.03290349 -0.107878365 -0.0035861353 0.03160234 0.05784399 0.051531065 -0.02198348 0.049773436
0.015775053 0.017499166 -0.026784701 0.011713328 -0.1158839 0.15271026 0.09218671 0.134293
0.051265694 -0.05124725 0.051758263 0.06815625 -0.087642044 0.0387638 0.06049968 0.036323775
-0.079354465 0.0048684687 -0.11702219 -0.13115323 0.0851439 -0.023751857 -0.09275337 -0.0077642053
-0.034191195 0.15404435 0.053651914 -0.08270726 -0.06330884 0.06537874 0.035198204 0.10712268
0.05898463 0.009877331 0.055460453 0.06872272 -0.04180417 0.1635857 -0.06076815 0.034040414
-0.031516116 0.12600149 -0.11553729 -0.15108564 0.103475906 0.004730851 -0.0034369165 -0.1682495
-0.0019230775 -0.09076763 0.045528173 0.021662602 0.06293418 0.08025248 0.08752955 0.06571752
-0.031119892 0.15292619 -0.01446666 0.0051128585 0.031634048 -0.087879024 -0.017120667 -0.07027798
0.22744526 -0.15689313 -0.0038865132 -0.04051026 0.028315427 -0.19718951 0.02982573 -0.13678716
0.06910673 -0.020041242 0.027552133 0.074300624 -0.10854131 0.05987058 -0.013940659 0.024552993
-0.08818694 0.17163922 0.121520564 0.03808521 -0.051181287 -0.0736155 -0.13091275 0.14198492
0.009191795 0.0845643 0.006565658 0.11760924 -0.041099574 -0.027900077 0.023441961 0.12385446
0.05589941 0.07970029 0.033966642 -0.015722867 0.024130227 -0.016432242 0.085882075 0.001786225
0.053230163 0.01280979 -0.103197575 -0.023336038 -0.0037511822 -0.058043137 0.014096566 0.06918751
0.09097723 -0.059624992 0.0024357694 -0.16225107 0.06688616 -0.11096353 0.055704072 -0.1275521
0.012737448 -0.15433204 0.081403665 -0.09926693 0.07060668 -0.054260112 0.015703537 0.08853004
0.06333533 -0.08582166 0.1106958 -0.0633833 0.0744171 -0.08522936 0.16727279 -0.1275706
0.028531628 -0.00422662 -0.074774936 0.011534898 -0.07740811 0.06455811 -0.029146865 -0.05397674
0.06716053 -0.02268172 0.03516942 -0.1692479 0.020829305 0.2196864 -0.09960763 -0.14789611
0.11756456 0.03590786 -0.013102278 -0.12729958 -0.13214727 -0.046092894 0.13358538 -0.075671054

actor.2.bias f4 [128]
00000000: 7690 2dbd 47da a03c b193 43bd 1f7f 3fbd
00000010: 06bc 06bd f2fa fa3c 1ff8 4fbc 80c4 0dbd
00000020: 084d c7bb 54d6 283d 8f80 83bb 5342 133d
00000030: c36f 9cbd 1396 89bd 5c3d fcbb eb28 8abd
00000040: af0a 813a c525 46bd 92fe e0bc 1b91 2b3c
00000050: 278a 7e3c 649b 5cbd 66a3 8dbd 5f4b a03c
00000060: 8ca1 2fbd 105e f2bc 76f3 a93a be5b 203d
00000070: 530a 13bd 968e e7ba 7ec2 ca3c 3616 ff3c
00000080: 4917 23bc f370 86bd 97bc 303d 95b6 cebb
00000090: 8f25 4cbc 7fb3 1f3d e3d3 e93b a594 4abd
000000a0: eb0e 0b3c fd2c a0ba eba3 21bd 47b3 96bc
000000b0: ff7f 98bb 7fc0 6fbd 4b88 7c3c 720b 91bd
000000c0: 1dec e1bc f730 073d 17f6 8bbd 4aaf b9bc
000000d0: 87f0 1abd bdf3 d9bc 7bf7 983c c1a4 1e3d
000000e0: 144f 2bbd 834c 2e3d 6bbe 07bd 42af 95bc
000000f0: 2e8e 033d 3cf8 d5bb 4c4e d23c bfbc 8a3c
00000100: bcb2 de3b e442 3f3d b5eb 98bc b3fc 253a
00000110: 4a21 2f3d e7cd bbbc eaf6 fd3c 8f11 edbc
00000120: 7806 ea3b df71 a0bc 7fed 99bd 8382 d33c
00000130: 94e2 37bc f568 9b3c 5d7f c7bc d109 90bc
00000140: 4d46 233a dd76 95bd 386b a63c 673c 08bc
00000150: 6d65 58bd 262c 5f3d e057 7f3d 4f57 8abd
00000160: bef6 413d 3597 36bd 8bfe 9cbd d95d ffbc
00000170: 3222 7bbd 28e9 40bd 5f6a eb3c 249b 7f3c
00000180: 7ccf 21bd d409 d73b 088b ecbb 47d6 783c
00000190: 8e60 883c 0347 e03c a58f 6dbd 0f54 80bd
000001a0: cc87 8dbd c0b7 bfbc b654 3a3d 3a5f 14bc
000001b0: c654 27bd dfda 67bd 3b81 ec3b f92b 0dbd
000001c0: 1762 03bd 8918 30bd 44ad d43c 4369 cd3c
000001d0: c2db c6bc ef3b 2ebb 1dd4 4b3d de94 39bd
000001e0: bbd0 7abd ae5a e0bc 56bb 11bd 0ba3 86bd
000001f0: 570e 77bd aec8 06bd 6f8e 74bc f7fb 41ba
-0.042374097 0.019635333 -0.04774827 -0.04675209 -0.032894157 0.030637238 -0.012693434 -0.034611225
-0.006082181 0.041220024 -0.004013128 0.035951924 -0.07638504 -0.067180775 -0.0076977443 -0.06746086
0.0009845103 -0.048375864 -0.027465139 0.010471608 0.015535868 -0.05385913 -0.069159314 0.01956719
-0.042878672 -0.029585868 0.0012966234 0.039149992 -0.035898518 -0.0017666395 0.024750944 0.03113852
-0.009954282 -0.06564512 0.043148603 -0.0063083866 -0.012460127 0.03898954 0.0071358546 -0.049458165
0.008487443 -0.0012220439 -0.039462965 -0.018396033 -0.00465393 -0.058533188 0.015413354 -0.07082261
-0.027578408 0.03300568 -0.06834047 -0.022666592 -0.03782704 -0.026605481 0.018672695 0.03873134
-0.04182346 0.042553436 -0.03314058 -0.018272046 0.032118015 -0.006529836 0.0256721 0.016935704
0.006796209 0.04669465 -0.018667081 0.00063319056 0.042756356 -0.02292533 0.031001527 -0.028939037
0.0071418844 -0.019585548 -0.07516002 0.025819069 -0.011223454 0.018970946 -0.024352724 -0.017582806
0.0006228432 -0.07298062 0.020314798 -0.008315182 -0.052831102 0.054485463 0.062339664 -0.06754934
0.047354452 -0.044577796 -0.07665738 -0.03117268 -0.061311908 -0.047097355 0.028737245 0.015600953
-0.039504513 0.006562451 -0.0072187223 0.015187806 0.016647603 0.027377611 -0.05799832 -0.06266033
-0.06910667 -0.023403049 0.045490943 -0.009055907 -0.04085233 -0.056605216 0.007217554 -0.034465764
-0.032075968 -0.04299215 0.025961526 0.025074607 -0.02427471 -0.0026586016 0.049762834 -0.045307986
-0.061234217 -0.02738699 -0.035579048 -0.06574067 -0.06031641 -0.032906227 -0.014926537 -0.00073999114

actor.4.weight f4 [64, 128]
00000000: 7211 5ebd 90dd 7bbb b358 ea3d 8f44 c0bd
00000010: 800e cbbd b8a3 14bd 7f4e bc3d 4d9f 80be
00000020: e937 4a3d d598 7dbe 44ae 0b3e a954 3e3e
00000030: d9f1 a1bd faa0 423d 9a51 773c 3fc2 adbd
00000040: 32ab 2a3e 4507 89bd 4b3a 4b3e 71e4 b9bd
00000050: 3b7b 47bd 4990 323b af19 163e 9f45 123c
00000060: 5b6f e7bd 5d17 563d 732e 9a3d 99cd 44be
00000070: ce38 743d e2dd 92bd 0d42 353d 7a46 0b3e
00000080: 7909 4dbc a851 9a3e f3eb 61bd cba3 2e3d
00000090: 5792 0c3d 6e15 bf3c 3032 e3bc 8748 d0bd
000000a0: f88f 85bc d906 5fbc a7f5 3fbe d798 37be
000000b0: d050 0a3c 232e cc3d 9d43 193d bfe5 7cbd
000000c0: 81f6 4ebd b8be b13d 9077 ea3d 40bf b03d
000000d0: 915f a53e 61f4 08be bf8e 173c 193c 2bbd
000000e0: a987 343e a591 87be fd44 323d b699 74bd
000000f0: 5eac e9bc b381 443c 05e2 5a3e 2f5e d03d
00000100: baf8 943e 8450 d83a b12b b4be d9bd cc3d
00000110: eb8f f6bd 94c3 83bd 1eed 6fbd 2a55 f73d
00000120: 1069 763e 56db 9c3e 9360 703e e4e5 833d
00000130: 29c7 09be cdb6 fe3c dee1 2f3e 68e8 0dbe
00000140: cfb0 01be 8def f23c d3fc e83d 6829 573c
00000150: 755d 69be 98a2 06be 1967 c3bd 3fec 95bd
00000160: cd49 213e 0129 73be f3fa 0bbd ef2d bcbd
00000170: 5b38 38ba a87c a13d d49c 6b3d 8b00 c7bc
00000180: 9a1a 7e3c 1d90 cbbd 78db 583d ffc2 c4bd
00000190: 5106 8e3c 84e7 99bd ecd6 e1ba 6973 8e3d
000001a0: 4de3 60bd c223 c4bd abf5 3dbd d1ad d2bc
000001b0: c1ee 5f3d 7531 073e 1579 263e 8d0e ff3d
000001c0: 1a83 033e bd5d e93d 4bd3 48be d68b c63d
000001d0: 7bee 6b3d fd73 a8bc 5fa1 f3bd 9e4f 2fbe
000001e0: 41ed 54be 5b6f 323e 44da d1bd c7cb c13c
000001f0: 2b50 223e f14d 3d3e e03d 10bc 208d ab3d
00000200: 791f 543d e993 e7bc 3ce3 393e 38e9 173d
00000210: 4851 af3c ee1e 2cbe d3de 36be 2af1 bebd
00000220: 9df0 363e 040c e53d 5da1 dc3d 9194 dfbd
00000230: a3a4 263e 924a 313e b255 c4bd 5feb cdbd
00000240: d701 b03e 3de1 2c3e 5877 b43d 8908 26be
00000250: 797a 0f38 8c2a 4d3d 6903 b7bd 846a 90be
00000260: bc4c ae3b 7573 b23c 4f98 5dbd af77 423c
00000270: 5915 983d 03ba b23d a9ab 34be 1d5f aebc
00000280: afcb 603d ebb7 413e 1377 493d 8733 c33d
00000290: fc91 883d d978 343d af1c 133e cecd 2b3e
000002a0: 14a0 16be 91a1 4bbe bdb2 293c 773a d73d
000002b0: 78bd 5d3e 1496 5bbc ad29 f9bd cdbc a43c
000002c0: 1504 283e 3822 053e 8da3 adbd d75c fcbd
000002d0: bbc5 c33b 03ed 2abe cbf9 3fbd 3eb1 7a3d
000002e0: abdc 9dbc 939e 5f3d 1ea2 c6bd f5d3 323e
000002f0: 60f9 6f3c 1f63 21be ba31 7ebe 6fbb 35bd
00000300: 60a5 65bc 8938 a1bd 05a1 423e 7eab 143d
00000310: 4f36 52bd 02de 16be def4 febd 85d9 db3d
00000320: 9856 d5bd 2f81 9a3d 29f6 11be 65d2 8abe
00000330: 4481 733d d715 bbbd 9bd3 f53d c487 2abc
00000340: 3e89 82bd 4731 4fbe 9ee7 7d3d cec1 963d
00000350: 3e63 67bd 04f2 5ebe 25cf 9abd b506 a33e
00000360: 4572 b03d 25f8 99bc 2080 bfbc 469e 65bd
00000370: 90ea 45bc e061 18bd d3e9 6ebd 5c4e 00bc
00000380: 38d8 c93c a691 943d 8f93 143d 1aa6 2abe
00000390: bb69 c2bc dbc2 71be c7bd 9a3d 777d 463e
000003a0: e69d 26be 69bb ad3d 2794 a7bd 0c07 9dbd
000003b0: 8f87 c83d 713d 08be 63f4 11bc b22b bc3d
000003c0: 734d e43c 2a3a 033e dfc4 8c3d 76f7 0a3e
000003d0: c296 0bbe 5e3e cfbd d426 c8bd 7fb0 2abd
000003e0: 3835 5cbc b632 12be 4c26 0abd 92f4 4e3e
000003f0: 33d9 d03c 4ad3 2abe b945 3fbe 25b1 513d
-0.054215856 -0.0038431622 0.11442699 -0.093880765 -0.09914875 -0.036288947 0.091946594 -0.25121537
0.049369726 -0.24765332 0.13640696 0.18586983 -0.07907457 0.0475168 0.015095139 -0.08484315
0.16666868 -0.0669084 0.19846456 -0.09076775 -0.048701506 0.0027246645 0.14658235 0.008927732
-0.11300536 0.052268375 0.07528391 -0.19219054 0.059624486 -0.07171227 0.044252444 0.13601103
-0.0125144655 0.30140424 -0.05515666 0.042636674 0.034319248 0.023325648 -0.027733892 -0.101700835
-0.016304001 -0.013612472 -0.18746053 -0.17929398 0.008442119 0.099697374 0.037417997 -0.06174254
-0.050528053 0.08678955 0.11448586 0.08630228 0.32299474 -0.13374473 0.009250342 -0.04180536
0.17629875 -0.26478305 0.043522824 -0.059716903 -0.028524574 0.011993813 0.21375282 0.10174214
0.29096013 0.0016503488 -0.35189584 0.09997148 -0.12039169 -0.06433788 -0.058575742 0.12076791
0.24063516 0.3063609 0.2347434 0.064403325 -0.1345488 0.031093026 0.17176005 -0.13858187
-0.12665103 0.029655242 0.113763474 0.013132431 -0.22789557 -0.13147962 -0.09541149 -0.07320451
0.15750809 -0.2374611 -0.03417487 -0.09188449 -0.00070274406 0.078851044 0.05752261 -0.024292251
0.015509272 -0.09939597 0.052943677 -0.09607505 0.017336996 -0.07514861 -0.0017230189 0.069556065
-0.05490427 -0.09577133 -0.046376865 -0.025717648 0.054671053 0.1320246 0.16257127 0.12453947
0.1284298 0.11394832 -0.19611852 0.0969464 0.05760048 -0.02056312 -0.118960135 -0.17120215
-0.2079363 0.17425291 -0.10246709 0.023656739 0.15850894 0.18486764 -0.008803815 0.08376527
0.051787827 -0.028268771 0.1815309 0.03708765 0.021401063 -0.16808674 -0.17858438 -0.09323342
0.17865224 0.111839324 0.10772965 -0.10917009 0.16273741 0.17313603 -0.095866576 -0.10054659
0.34376404 0.16882797 0.088118255 -0.16214193 3.420792e-05 0.050089404 -0.08936197 -0.28206265
0.005319206 0.02178357 -0.05410033 0.011869355 0.07425947 0.08726885 -0.17643608 -0.021285588
0.054881748 0.18917815 0.049185824 0.095313124 0.06668469 0.04406056 0.1436641 0.16777727
-0.14709502 -0.19885851 0.010357556 0.10509198 0.21654308 -0.013402481 -0.12166152 0.020109558
0.16407807 0.13001335 -0.084784605 -0.12322395 0.005974499 -0.16691975 -0.04686908 0.061204188
-0.019270262 0.054594588 -0.0969889 0.17463668 0.014646858 -0.15760468 -0.24823657 -0.044368204
-0.014016479 -0.07872111 0.19006737 0.03629636 -0.051321324 -0.14733127 -0.124490485 0.10734848
-0.10416907 0.07544171 -0.14254059 -0.27113643 0.05944945 -0.09135025 0.12003251 -0.010408346
-0.06373833 -0.20233642 0.061988465 0.07361184 -0.05649113 -0.21772009 -0.07559041 0.31841055
0.08615545 -0.018795082 -0.023376524 -0.056059144 -0.01207985 -0.037202716 -0.05832846 -0.007831182
0.024639234 0.07254343 0.036273535 -0.16664925 -0.023732057 -0.23609488 0.075557284 0.19383799
-0.16271171 0.08483011 -0.08182555 -0.0766736 0.09791481 -0.13304688 -0.008908364 0.09188022
0.027868962 0.12815157 0.06873488 0.13570961 -0.13631728 -0.101193175 -0.09773031 -0.041672226
-0.013440423 -0.14277157 -0.03372793 0.20210484 0.025494194 -0.16682163 -0.18678941 0.05119433

actor.4.bias f4 [64]
00000000: f282 0dbc 0fbd c0ba 511a a1bd ede1 49bc
00000010: 6d6f cdbd 8cb0 c63c f8cc 083d 2df3 473d
00000020: 3c70 cabd bc83 3b3c be33 bdba 2ae1 2ebd
00000030: 6192 193d 8372 a03c 0855 46bc ae63 813d
00000040: 5dc6 5c3c a66f d2bc 158a 853c c348 64bd
00000050: f958 b43c 52ea abbd c2b6 a8bc 367b bcbc
00000060: ffc5 703d f4f8 8c3d 17e9 603d 437f 5cbb
00000070: f96a 703d 57ac 553d 6820 87bd 9ae2 ccbd
00000080: 5dea b9bd 1c5f 813d ad5e 13bd a8d2 9cbc
00000090: 0870 2c3d 395c 28bc b984 253b 0b50 2f3d
000000a0: 6888 efbc 9a62 4fbd dd12 a9bd 1d93 54bd
000000b0: cb4b 25bd 609b 3fbd 8ac6 8b3d c13e cebd
000000c0: 40d4 8dbc eb4b 19bd 923c d13c 5275 993d
000000d0: 25c9 04bd f645 e3bd a012 673d e6f2 ac3c
000000e0: 97e4 4c3d e739 78bd 0e80 9fbc eb5a 92bd
000000f0: f40b b6bd d6d1 6a3d 8c81 cb3c 8645 94bd
-0.008637177 -0.0014704781 -0.078663476 -0.012321931 -0.100310184 0.024254106 0.0333986 0.048815895
-0.09884688 0.011444982 -0.0014434976 -0.042695202 0.037493113 0.019585853 -0.012105234 0.063178405
0.013475028 -0.025688004 0.016301194 -0.055733453 0.022015082 -0.083943024 -0.020594958 -0.02300797
0.058782574 0.068834215 0.05490979 -0.003364519 0.058695767 0.05216631 -0.06597978 -0.10004158
-0.090779044 0.06316969 -0.03597896 -0.019143417 0.04209903 -0.010275894 0.002525611 0.042800944
-0.029239848 -0.050631143 -0.08255551 -0.05189811 -0.040355485 -0.046779037 0.06824978 -0.10070563
-0.017313123 -0.037425917 0.025541577 0.0749308 -0.03241839 -0.11097328 0.056414247 0.021111917
0.050022688 -0.060602095 -0.01947024 -0.071462475 -0.08888999 0.05732902 0.024842046 -0.07239823

actor.6.weight f4 [3, 64]
00000000: 7d96 f33a 9021 3dba a9fb bd3b b2e5 243b
00000010: 7bec fa39 779a 233c 1e1d 033c eb8e 1c3c
00000020: 68d5 f9b9 d4a8 43ba 85de e9bb bcf1 ccb9
00000030: 0cf2 0a3b 9555 92ba 5868 613b b7bc a6bb
00000040: 76a9 8abc 257c 4cba 099f 9abb bac2 48bb
00000050: 038c 8239 f0c9 093b 9f38 393b 7be6 323c
00000060: 0756 1f3c 1961 ab3a 57b4 a739 e09c 62bc
00000070: 2bb1 82bb a195 89ba 58b0 eeb9 2413 0d3c
00000080: 300d 8c3a 866f 85bb a49a 80bb d6b7 063c
00000090: 15ee e1b9 0a7a f0b9 49ab c73b af38 e13b
000000a0: b082 e13b 9a97 84b9 b99c d639 d9bf e839
000000b0: 10fe 0a3c f6c4 1b3b 98ec f83b ad30 9c39
000000c0: 37dc 62bb 38c7 9b3a 0ff6 973a 5cfe 5bbc
000000d0: 645a 56ba 019a 3a3a 75df 5e3a 0385 d9b9
000000e0: 473a a43a 2ffa 143c ee43 86b9 47e7 88bc
000000f0: c2f7 9d3b a171 07bb 1d31 083b 3e04 4d3a
00000100: 8bfb d0bb 803c 0aba 941e 63bc 9bef a3bb
00000110: 6735 ddbb d2a2 74bc 541c 41bc edbe 4abc
00000120: 7582 cdbb 177e 92bb 3028 4fbb e1d1 11bc
00000130: cce0 f5bb 456e 1739 8320 9dbc 9747 a23b
00000140: a315 02bc 7e63 babb 6cbb 8cbb 5c72 9c3a
00000150: de5f 17bc e84e b5bb cfee 16bc a1cb 67bc
00000160: c6c4 1cbc be37 0cbc f626 ddbb 2043 cebb
00000170: dc0c c7ba 0167 c0bb 1d8e 09bc a9b5 3abc
00000180: 936d fdbb 224d e3ba e713 c1ba f504 80bc
00000190: 8b3c c9bb d9bc edbb 34c8 b5bb 9e2a 1fbc
000001a0: ab73 47bc 46c5 d2bb 2eca 04bc fb0f cbbb
000001b0: 1620 5ebc 4057 fabb 45b7 a03b 132a 15bc
000001c0: eff0 02bc 1f3e 08bc 0a90 debb a520 f3bb
000001d0: bd71 d0bb 07f8 edbb ce05 c8bb e5f2 fcbb
000001e0: 8b18 ffbb 7276 7bbc 8303 82bb d039 f3bb
000001f0: 60d0 cbbb 75a4 66bb a34b f6bb 48c9 dd38
00000200: 77ec 3f3d 70f3 20bb c080 323d 70f9 283d
00000210: c060 253d cccf 4b3d 814e 173d 3c59 313d
00000220: 0e08 463d ebd8 223d 6846 073d 053a 2a3d
00000230: bbc9 093d ca3f 8fbb 79ee 1b3d b207 3fbd
00000240: d91a 063d 74dd 193d 969b 023d 2ed7 00bd
00000250: 1c0f 1a3d 8fac 133d 4224 2c3d 5ba3 353d
00000260: 3edb 0e3d 8c02 253d b2a6 463d b233 c63c
00000270: f3b3 e83c 5c8f 483d 2b99 503d a1c1 213d
00000280: c33f 263d bac2 083d 8243 f6bb 8662 413d
00000290: 3e46 213d c3fb 2a3d ac44 ef3c 2dc1 163d
000002a0: 3cfd 123d 2fd6 4a3d 382b 593d f95d 1e3d
000002b0: 476e 283d c0b1 563d bb62 d7bc a6a3 5e3d
000002c0: 395c 223d 8446 4f3d c317 1e3d 550c 903c
000002d0: ca24 4e3d d47f 443d b86e 473d f906 263d
000002e0: d8a6 1b3d 716d 463d 99cd 1b3d f179 fa3c
000002f0: c832 0d3d ff4a c53c e1a9 5e3d 9ac6 37ba
0.0018584278 -0.0007214779 0.0057978225 0.0025161323 0.00047859907 0.009985558 0.008002548 0.009555559
-0.0004765198 -0.0007463817 -0.007137122 -0.00039090018 0.00212014 -0.0011164421 0.003439447 -0.0050884145
-0.016926508 -0.00078004814 -0.0047186655 -0.0030633644 0.0002489985 0.0021024905 0.0028262509 0.010919209
0.0097251 0.0013075202 0.00031987086 -0.013831347 -0.003988405 -0.0010496863 -0.00045526284 0.0086105205
0.0010685083 -0.0040721325 -0.0039246846 0.008222541 -0.0004309273 -0.00045867293 0.006093417 0.0068732123
0.0068820342 -0.00025289954 0.00040934028 0.00044393426 0.008483425 0.002376852 0.0075965635 0.00029790905
-0.0034616122 0.0011884933 0.0011593717 -0.013427343 -0.00081769214 0.0007118285 0.00085019256 -0.00041488567
0.0012529575 0.009092852 -0.00025609083 -0.016711844 0.004820795 -0.0020667093 0.0020781227 0.00078207615
-0.0063776425 -0.00052732974 -0.013862271 -0.0050029284 -0.006750751 -0.0149313975 -0.011786539 -0.012374622
-0.006271655 -0.0044705975 -0.0031609647 -0.008900137 -0.0075036045 0.00014441561 -0.019180542 0.004952382
-0.007939729 -0.00568813 -0.0042948034 0.0011935937 -0.009239165 -0.005533088 -0.00921221 -0.01414767
-0.009568399 -0.008558212 -0.0067490293 -0.006294623 -0.0015186328 -0.005871654 -0.008395699 -0.01139585
-0.0077340095 -0.0017341713 -0.0014730663 -0.015627364 -0.0061412505 -0.0072551784 -0.0055475477 -0.009714751
-0.0121735735 -0.006432208 -0.008104844 -0.0061969734 -0.013557455 -0.0076397955 0.00490466 -0.00910427
-0.007992013 -0.008315592 -0.006792073 -0.007419663 -0.006361215 -0.007262233 -0.0061042076 -0.007719385
-0.007784908 -0.015348064 -0.003967704 -0.0074226633 -0.0062199086 -0.003519324 -0.007516341 0.00010575593
0.04685637 -0.0024559163 0.043579817 0.041253507 0.04037547 0.049758717 0.0369401 0.04329799
0.048347525 0.03975765 0.03302613 0.041559238 0.03363965 -0.004371618 0.038069222 -0.0466382
0.032740448 0.03756471 0.03188666 -0.03145521 0.037612066 0.036053237 0.042026766 0.04434524
0.034877054 0.040285632 0.048498817 0.024194572 0.028406119 0.048964843 0.050927322 0.0394913
0.04058815 0.03338883 -0.007515372 0.0472131 0.03937363 0.041744005 0.02920755 0.03680532
0.035886034 0.049520668 0.053019732 0.038663838 0.041120794 0.05241561 -0.026292196 0.054355286
0.03963873 0.05060436 0.03859688 0.017584005 0.050328054 0.04797347 0.048689574 0.040533993
0.03800091 0.048444215 0.03803787 0.030575724 0.034472257 0.024083612 0.054361228 -0.000701049

actor.6.bias f4 [3]
00000000: 3785 e8bc 7ea7 8d3d b3e9 403d
-0.028383834 0.06916712 0.047097873

critic.0.weight f4 [256, 259]
00000000: cbe7 4f3d 8c8a aa3d cedb 8ebd 7f87 39bc
00000010: ddb5 1ebf 421a c7bd 9f56 913d e6df 5abd
00000020: d397 123d b1fc 4b3b 2063 2d3d ffa7 97bd
00000030: 58a5 b23d 2bab 033e 1e0c fc3d c20e 74bd
00000040: db19 233e 1e1e 9dbd c13f d6bd 715b 99bd
00000050: 8b9d d63d 9c43 e0bd 39a4 16c0 b4e6 f23d
00000060: 5845 e8bd ae50 d73d 6f75 383d 37d4 70bd
00000070: 3099 973e c0b4 b23e 13ea 963d bd02 813d
00000080: 1f0b 8e3b b45a fa3d b6d6 eabd e731 13bd
00000090: 6041 1e3c 36da be3d 47bb 96bd 564b 213d
000000a0: 27ef 383d 2fa2 3fbc 5e2e 10bd 65fc c43d
000000b0: 06be 2fbc 22d6 5f3e c9c7 0abe 6954 173e
000000c0: dd6c 34be 2fff 703e 253d 86bd 564c ca3c
000000d0: aa7d 533d 5797 02bf c2f3 193b 73ec 823d
000000e0: f6a0 3fbd 1b32 1f3c 9ffa 3b3e ae41 17bc
000000f0: b195 993d 397c c53d ecb9 9bbb f4c2 703d
00000100: 2076 21bd ec2c bfbc 683a fd3d 7330 2a3d
00000110: f1ab 2bbd 0e70 e83d 1700 cebd 944c 973d
00000120: 76f2 18be 6523 88bd 2e69 fe3d 5faa 2bbe
00000130: 7811 5a3d ae6f c8bc 5c0e 9d3d 4b6f 3d3e
00000140: 337f 0bbc aa62 303e a949 bb3d dd6e 0cbd
00000150: d023 ea3d d302 e9be 455c 44bd 20dd 03be
00000160: f9d6 e8bc ad92 6dbd 4a9f 253e 260f df3d
00000170: 66a2 3d3d 3855 c0bd 1f90 c4bd 8f2f 833d
00000180: a42f 4e3a 1743 0abd 6c6a 2d3d 4d13 9a3d
00000190: 663e 64bd 02af 903d ff3d dcbc ee2b 2f3d
000001a0: 41a9 e83c 620b aa3d 6f20 38be e2cb 943d
000001b0: 3f85 e53d 046f 643c 4235 9d3d 586e 0fbe
000001c0: ca03 aabc 231f 03bd edb4 35bd 0959 d1bb
000001d0: 23aa 84bc 40a6 b6bd 3750 d63c d1fa 9bbd
000001e0: 8485 4abc 76cc 10bd 4918 cf3c 2227 c43d
000001f0: bddb 443d 8df1 513e 6a7e d6bc 1e09 533d
00000200: 0643 37be 1b69 963d 87f3 903d 8f87 fbbc
00000210: fac6 913d 1dd3 cabc 2473 edbc b2ab 8b3d
00000220: ff7a 7bbd 9dab eabd 5282 8b3c 8c33 743e
00000230: 8368 003e 4032 c13d 25cb 66bd 1048 ea3d
00000240: 880f b0bd 2af0 b9bd 1fff 5a3d 464d 85bc
00000250: feca 323e 8bb5 553d 066c a6bd c05e 323d
00000260: cd71 61bb 5e59 0ebe e025 aabc 075d 003f
00000270: e438 e4bc 647a 213e 3a62 913d 0a93 16bc
00000280: d0ee 17be 7d91 bfbd 4bf2 163e c816 d9bc
00000290: 6453 903c 738c 95bb 15d2 87bd f5b3 a53d
000002a0: e7e0 15bd 9b37 353d 9570 2abd 206e aa3d
000002b0: 9018 363e 4cf3 da3c 200e 60bd 5416 d93d
000002c0: 904f 00be 0b50 f43d 4590 debd 8861 fb3b
000002d0: 58fd d0b9 cfb2 d43d f134 19bd 5aef 03bd
000002e0: 2f23 193d fcdf 3d3e eff2 08bf 1c07 9ebc
000002f0: e45f 27bd c9c7 443d 46f9 adbd 1bab 45bd
00000300: 58d7 413e d9ec 10bc 1306 3dbd 0b13 88bd
00000310: c23f b23d 1514 73bc 8951 adbd e3e2 a7bb
00000320: 3a46 ee3d ae6d f43d 71d3 58bc 4440 a13d
00000330: 7a37 3cbc 20cd 89bb 6d95 64bd c430 503e
00000340: 9eb5 afbd 0a18 28bb b300 3cbc 58c5 203e
00000350: 9aaf f83c 4ad3 573d 930b 493c 5726 893c
00000360: a4fe 373d 3cf7 d3bd 4063 81bd c103 bdbd
00000370: 43eb a7bd b374 c4bd cda5 cabd e4ce 443c
00000380: 5bfa a33d bccc c5bd 2e44 6abe 1a2e b0bc
00000390: 7dd1 e33d 3d9d 483e 418a 203d fc88 0cbe
000003a0: 5ac3 523d 2447 f2bd 3276 ef3c 2966 bcbc
000003b0: 7841 ddbd 1460 15be f72f a0bd cbb9 e03d
000003c0: 5b2c 1bbd 345f 0e3e dd65 263e ad73 3d3e
000003d0: 865a 8fbd 81c1 9cbd 5273 a0bc ba9e 913d
000003e0: 15b5 3b3d caba 2f3d 4abb cd3d d238 403d
000003f0: 031c 883d b2b8 aa3d fc6d dc3b d00d 28bc
0.050758164 0.08327207 -0.06975518 -0.011323809 -0.6199625 -0.09721805 0.070966 -0.053436182
0.035789322 0.0031125958 0.04233086 -0.074050896 0.08722943 0.12858264 0.12306999 -0.059584387
0.15927832 -0.0767176 -0.10461379 -0.07488144 0.10479268 -0.109503955 -2.3537734 0.118604094
-0.11341351 0.10513435 0.04503387 -0.058796134 0.2960906 0.34903526 0.07368865 0.062993504
0.004334822 0.122243315 -0.11466734 -0.035936262 0.009659141 0.09318964 -0.07359939 0.039378487
0.04514995 -0.011696382 -0.03520047 0.09618453 -0.010726457 0.21859029 -0.13552774 0.14778294
-0.17619653 0.23534845 -0.06554631 0.024694603 0.051633514 -0.51012176 0.0023491238 0.06392755
-0.046784364 0.009716536 0.18357323 -0.009231968 0.074992545 0.09642834 -0.004752388 0.05877967
-0.039419293 -0.02333685 0.12364656 0.04155011 -0.041912023 0.11349498 -0.10058611 0.07387653
-0.14936242 -0.06647376 0.12422405 -0.1676421 0.053239316 -0.024467316 0.076687545 0.18499486
-0.008514213 0.17225137 0.09144909 -0.034285415 0.11432612 -0.45509967 -0.047939558 -0.12877321
-0.02842282 -0.05800121 0.16174045 0.10891561 0.046297453 -0.09391254 -0.095978014 0.064055555
0.00078653754 -0.033755388 0.04233782 0.075232126 -0.05572357 0.0706463 -0.02688503 0.042766504
0.028401019 0.08302952 -0.17981122 0.0726545 0.11207055 0.013942484 0.07676174 -0.14006937
-0.02075376 -0.032012116 -0.044361997 -0.0063887876 -0.016194409 -0.089184284 0.026161296 -0.07616199
-0.012360934 -0.03535124 0.025280135 0.095777765 0.04806112 0.205023 -0.026183326 0.051522367
-0.17896661 0.07344266 0.07077699 -0.030704288 0.0711803 -0.02475887 -0.028985567 0.06819858
-0.061396595 -0.11458514 0.017029915 0.23847789 0.12539868 0.094334126 -0.056346077 0.11439526
-0.08596712 -0.09079011 0.05346596 -0.016272198 0.17460248 0.052175086 -0.081260726 0.043547392
-0.0034400106 -0.13901278 -0.020770013 0.5014195 -0.027859159 0.15769345 0.07098813 -0.00919033
-0.14837193 -0.093539216 0.14740865 -0.02650012 0.017617889 -0.004563862 -0.06631867 0.08090965
-0.036591437 0.044242483 -0.041611273 0.08321786 0.17782807 0.026727341 -0.05470097 0.10599962
-0.1253035 0.119293295 -0.10867361 0.0076715387 -0.00039861607 0.103856675 -0.037404004 -0.032210685
0.03738707 0.18542475 -0.5349569 -0.0192905 -0.040862933 0.048042092 -0.08494811 -0.048258882
0.18929803 -0.008845531 -0.04614837 -0.06644257 0.08703567 -0.014836331 -0.08462817 -0.0051234826
0.116344884 0.11934982 -0.013234005 0.07873586 -0.011487836 -0.004205361 -0.055806566 0.20331103
-0.085795626 -0.0025649094 -0.011474776 0.1570028 0.03035717 0.052691735 0.012270826 0.016741915
0.04492058 -0.103498906 -0.063177586 -0.092292316 -0.081991695 -0.09592571 -0.09894905 0.012012217
0.08006736 -0.096581906 -0.22877571 -0.021506358 0.11123941 0.19591232 0.03919435 -0.1372413
0.051455833 -0.11829975 0.029231165 -0.022997933 -0.10803503 -0.14587432 -0.078216486 0.10972937
-0.037884098 0.13903505 0.16249795 0.18501158 -0.06999688 -0.076540954 -0.019586239 0.07110353
0.04582699 0.042902745 0.10045488 0.046929188 0.06645968 0.08336009 0.0067269783 -0.010257199

critic.0.bias f4 [256]
00000000: 04c5 b6bc e465 6e3c b921 133d b5d9 60bc
00000010: 16e6 d33c bb25 23bd ccb7 823d ffa5 69bd
00000020: 2213 67bd 834d 8d3c 1ce4 a4bc b15b 2b3c
00000030: ea0d 5a3d ced8 463d 0c5b a03c cdb8 743c
00000040: e180 bd3c c7a7 78bc bf5a b0bc 19bc 183d
00000050: 7ca4 4bbc 149c 6c3d 6579 9f3c d015 b0bc
00000060: 7f45 cabc d00e 07bd 2613 cf3c 5c00 063d
00000070: 9c91 963d f65f 8bbd 9525 16bd d8ef afbc
00000080: 37ad 71bd cb3b cb3c c976 74bd f324 f3bc
00000090: 7da4 f3bb 71b2 a7bc 0e64 223c 7a44 62bd
000000a0: 791b 02bd e3cc 1dbd 3287 5e3c 9539 35bd
000000b0: 059d 0a3d a6da a73d 791f b7bc 1f34 a2bc
000000c0: be53 46bd 2f4a 9d3c 91bb 4dbd a0a4 4cbd
000000d0: d8c0 593d dba2 adbc 2c5b 4f3d b689 3abd
000000e0: 50bd 13bd 8760 35bd 8341 6bbc f5a9 f7bc
000000f0: 378c 803c 66e3 8a3d a9c4 4c3d 1608 3c3d
00000100: 7cea 5a3c b3f9 73bc a55a 6fbd 2251 80bc
00000110: 254e 09bd 0628 ebbb f3da 853c aa55 16bc
00000120: b135 3b3b bbe0 89bb d44d 9cbb be6b 603b
00000130: f2aa 3dbd b6d8 6b3d 16f4 97bc f092 41bd
00000140: 25af b73c 373c 843d 671a 8abd 3a04 2d3d
00000150: 96fc 4b3c 13f2 6bbc 1fa8 153d f563 64bc
00000160: d700 17bc 163b 1fbd d53e efba 3dea b03c
00000170: 4688 21bd b272 c73c 52f2 d63c aa0f 31bc
00000180: beec 7c3d bab1 80bc afd5 3d3d 0396 a73c
00000190: 8b34 3ebc b5d8 35bd 02b4 2fbd 8365 293d
000001a0: 4a80 8d3b 07c1 00bd fa73 8b3c 0f86 49bc
000001b0: 4e1e e1ba 4681 1a3d a401 d03c b0cb 573d
000001c0: 4faf 01bd 6216 123c 0da2 bfbc 92b2 4fbd
000001d0: 6b4f 3f3c 5700 04bc 4969 70bc bb11 27bd
000001e0: 4796 613c 78ed 08bd 3330 c0bc 80f8 bb3c
000001f0: 5221 72bd 5fc2 ddbc 1431 33bb 3104 413d
00000200: af62 303c 017c 88bb d392 3cbd 1ca4 3e3d
00000210: 1ac1 483d 9c62 13bd dd44 823c a02a a63b
00000220: 5e34 6f3c 876f 4ebd 1032 e63c 5a23 aabb
00000230: 2669 81bd 4f80 e6bc 0152 56bd 2e0d 49bc
00000240: 7ab2 adbb e9dd 823d a839 03bd 6e89 40bd
00000250: 276d 58bd d381 0a3c c1fd 10bd 4fcb bc3c
00000260: d167 b5bc ec0f 8b3d 38a8 813b 3be4 473d
00000270: 830d 5ebd d306 84bd 85b5 573b 55a8 e8bb
00000280: f9ef 75bd b129 663c d4b6 dcbb 5a75 66bd
00000290: dfaa 95bc d012 5ebd a51b 453b 8e46 48bd
000002a0: 342d 883d 7f31 0b3c fc10 8e3d aa62 e33b
000002b0: 472d 533d 0a4a e4bc e0c0 96bc 5cf7 81bd
000002c0: 5157 893b 0b5e 55bd b403 3ebd 7185 683d
000002d0: 555d 18bd 86e2 bd3c 2604 19bd 3b63 44bd
000002e0: d5b6 1dbd a875 d23c 81a5 57bd 2720 59bd
000002f0: 4eda 82bd 052c cfbc 95bf 1ebd df23 52bd
00000300: 3749 2bbc 5948 16bd dd5f 6b3d 323d b3bc
00000310: 6150 9f3c 533d 133d 3109 c3bc b970 5dbc
00000320: 354f 87bc cf0b 4b3c 85f2 263d 8dea 13bd
00000330: 3654 4ebd 7dfe 913c 5618 a3bb 1019 a13c
00000340: 4180 e5bc da95 4abd 714e 073c cd26 593d
00000350: 7c78 053c ea46 1e3d 94d1 acba 6d1d 3f3d
00000360: c446 f23b 972e 093c ce76 1a3d 1a9b 82bb
00000370: 8e53 433d 654d 0cbc 4acf 26bd 9e9a 363c
00000380: c066 78bc 589f 39bd 0ee9 1ebd 1890 40bd
00000390: 9ab5 6fbc 16b2 48bd c020 4cbd 60ff 1dbd
000003a0: 182d e2bb 6806 313b e362 6dbc c7d1 dab9
000003b0: 4fa7 063d 4701 113d c59f 8abc dd66 91bc
000003c0: 311a 043d 863b 723d a634 31bd 76e9 98bc
000003d0: 76cf 07bc c2da 1e3d 9505 91bd 3da5 d5bb
000003e0: dc2e 5bbd 33df 10bd 974e 04bd 5b55 ea3c
000003f0: 7876 b93a 764d 2bbd a32b c7ba 9dd1 3e3d
-0.022310741 0.01455066 0.035920832 -0.01372378 0.02586655 -0.039830904 0.06382713 -0.05704307
-0.05641473 0.017248875 -0.020128302 0.010458873 0.053235926 0.048546605 0.019574665 0.014936638
0.023132743 -0.01517672 -0.021527646 0.03728876 -0.012429353 0.057766035 0.019467065 -0.021494776
-0.024691341 -0.03297311 0.025277685 0.032715186 0.073519915 -0.068054125 -0.036656935 -0.021476671
-0.05900308 0.024808785 -0.059683595 -0.029680705 -0.00743538 -0.02047083 0.00991155 -0.055241086
-0.03176448 -0.038525473 0.013582038 -0.044244368 0.03384115 0.08196001 -0.022353875 -0.019800244
-0.048419707 0.019200413 -0.050227705 -0.049961686 0.053162426 -0.02119582 0.050624058 -0.045541488
-0.036069214 -0.04428151 -0.014358881 -0.030232409 0.01569186 0.06781654 0.049992237 0.04590615
0.0133615695 -0.014891076 -0.058436055 -0.015663687 -0.03352179 -0.007176402 0.016339755 -0.009175697
0.0028565938 -0.004207698 -0.00477002 0.0034243907 -0.046305604 0.05757972 -0.018549006 -0.04725927
0.022422383 0.064567976 -0.06743317 0.04224036 0.012450358 -0.014400977 0.036537286 -0.013939847
-0.009216509 -0.038874708 -0.0018252978 0.021596069 -0.0394366 0.024346683 0.026238594 -0.010806957
0.061749212 -0.015709747 0.046346363 0.020457273 -0.011609207 -0.04439612 -0.04289628 0.041356575
0.0043182718 -0.031434085 0.017023075 -0.0123000285 -0.0017175169 0.03772094 0.025391407 0.052684486
-0.031661328 0.008916469 -0.023392702 -0.050707407 0.01167665 -0.008056722 -0.014673539 -0.040788393
0.013768739 -0.033429593 -0.023460483 0.022945642 -0.059113808 -0.027070222 -0.0027342485 0.047123138
0.0107657155 -0.004165173 -0.04603846 0.046543226 0.04901228 -0.035982713 0.015901977 0.0050709993
0.014599888 -0.05039933 0.028100044 -0.0051922025 -0.063188836 -0.028137354 -0.0523243 -0.012271209
-0.005300817 0.06389982 -0.032037407 -0.047006063 -0.05283847 0.008453804 -0.03539825 0.023046164
-0.02214423 0.06790146 0.003956821 0.048801642 -0.054212105 -0.06446614 0.003291459 -0.007100145
-0.06004331 0.014048026 -0.006735662 -0.05626426 -0.018269954 -0.05421716 0.0030076292 -0.04889541
0.06649247 0.0084956875 0.06936833 0.006939252 0.05155685 -0.027867336 -0.018402517 -0.06346008
0.004191317 -0.05209164 -0.04639025 0.056767885 -0.037198383 0.023179304 -0.037357472 -0.047946196
-0.03850444 0.025690868 -0.05264807 -0.05300918 -0.063892946 -0.025289545 -0.038756926 -0.05130374
-0.0104544675 -0.03669009 0.05746447 -0.021879766 0.019447507 0.035947155 -0.023808094 -0.013515645
-0.016517261 0.012392952 0.04075863 -0.036112357 -0.05037328 0.017821545 -0.0049772663 0.019665271
-0.028015258 -0.049459316 0.008258448 0.05301552 0.0081464015 0.038641848 -0.0013185018 0.046658922
0.00739369 0.008372924 0.037710957 -0.0039857747 0.047687106 -0.008563374 -0.04072503 0.011145262
-0.015161216 -0.045317978 -0.038796477 -0.04701242 -0.0146306995 -0.04899796 -0.04983592 -0.038573623
-0.0069023483 0.0027011875 -0.014488908 -0.00041736496 0.0328744 0.03540161 -0.016921887 -0.017749244
0.03225154 0.059138797 -0.0432631 -0.01866601 -0.008289209 0.038782842 -0.07081143 -0.006519942
-0.053511485 -0.03536911 -0.03230151 0.028605154 0.0014149686 -0.04182192 -0.00151955 0.04658662
