rlgpu/logs/cut_407/model_310.pt (torch, 868312 bytes, 16 tensors)

log_std f4 [3]
-0.7266771 -0.46390498 -0.11854929
00000000: 8307 3abf f484 edbe f8c9 f2bd

actor.0.weight f4 [256, 259]
0.036327727 0.044048436 0.055215787 -0.026388286 -0.06478296 0.07282741 0.05401453 -0.07516963
0.030905848 0.03235621 0.018693084 -0.08462133 0.07003572 -0.09560499 -0.02383633 -0.08556761
-0.027521178 -0.034061257 -0.15597667 0.033374988 0.0606014 -0.079795785 -0.0968248 0.016583491
0.10504909 0.0025732268 0.07062211 -0.013655452 -0.00414432 -0.050553203 0.011648101 -0.08751848
0.0272308 0.10658446 0.08992808 -0.03544731 0.05552435 -0.010313173 -0.05635203 0.011041064
-0.01425882 -0.024729934 0.1721039 0.15205364 -0.10215303 0.15505171 0.07966638 -0.078700945
0.022121914 -0.07462419 -0.032902576 -0.14033031 -0.041157916 0.09662606 -0.060287815 0.056664646
0.21994048 0.091383666 0.013138992 -0.15362254 0.0166922 -0.04156103 -0.0059910626 0.014116254
-0.045469645 0.031327095 -0.09531702 0.08113636 -0.026203422 -0.039389346 -0.078629695 0.07176348
-0.0842452 -0.024234632 -0.022902807 -0.043693535 -0.25387552 -0.009889619 0.034672026 -0.01578967
0.03907665 0.12921627 -0.09899042 0.0076276595 -0.054326475 0.13548198 -0.06597355 -0.1306755
-0.092731506 -0.10494925 0.069239154 0.06403066 0.009034816 0.034289133 0.17261933 0.12657712
-0.03156782 -0.07131114 -0.020106804 0.08651132 0.0688132 -0.09142108 -0.014343053 -0.010593754
0.10643335 -0.050040677 -0.050181337 0.10266716 -0.004822383 0.20450318 -0.032475986 0.11752068
0.025154255 -0.043991607 -0.1117979 -0.104644954 -0.053762585 0.1030039 -0.077087305 -0.01502604
-0.073153 0.15434498 -0.0969936 0.009793265 0.04683039 0.11009792 0.016381403 -0.04757523
0.05707875 0.108338505 0.06878166 0.06842595 -0.07083545 -0.05915387 -0.064596884 0.1915489
-0.06290673 -0.09399564 0.07116556 -0.099514365 0.039272234 -0.18782151 -0.016495401 -0.014731391
-0.09373756 0.012897116 0.13251567 -0.0057149073 -0.076547466 -0.07897228 -0.13275573 0.08451604
-0.16251732 0.020339498 -0.014909993 0.12546338 0.1560739 0.06495558 -0.047485925 0.12586299
0.121552706 0.044356342 -0.124392435 -0.08308036 -0.0015935061 0.04605752 -0.058542117 -0.028366264
-0.1910734 -0.060127143 0.06877348 -0.15807262 0.061918765 0.104672305 0.06449049 -0.043368965
0.124799535 -0.07067296 -0.087751694 -0.015321338 0.13544044 0.03835216 -0.085772984 0.024408817
-0.20027973 -0.022555484 0.04534121 -0.039809097 -0.11440789 -0.07682137 -0.15794598 -0.05441458
-0.025181986 -0.043260746 0.16449587 0.05036019 0.122758165 -0.022281924 -0.020946482 0.15564497
-0.036394157 -0.22820875 0.01936611 0.095154665 0.09149963 -0.036156133 0.09066423 -0.0223011
-0.09608251 -0.1923381 -0.05120938 0.052059464 -0.05328563 -0.08385597 -0.020955402 0.20586295
0.07297058 0.0429941 -0.06554169 0.081400156 0.06648957 -0.0096705835 -0.0031302522 -0.0042804996
-0.12282979 0.066486575 -0.042646974 -0.113388225 0.09834106 0.051579572 0.07666934 0.029687775
0.09712715 0.07385704 -0.0957856 0.025506299 -0.11068067 -0.16017634 0.034187406 -0.061554737
-0.022007557 -0.15351446 0.13806707 -0.009875974 0.11236116 0.08272728 0.0081047 0.018514803
0.15679076 -0.028756915 0.10195282 -0.009951838 -0.091679424 0.08528979 -0.014134192 0.03977119
00000000: 62cc 143d 226c 343d f329 623d 3f2c d8bc
00000010: eeac 84bd 8a26 953d 573e 5d3d 89f2 99bd
00000020: 432e fd3c f287 043d 3d22 993c f34d adbd
00000030: e36e 8f3d 8dcc c3bd 6844 c3bc 123e afbd
00000040: 1874 e1bc d183 0bbd 59b8 1fbe 36b4 083d
00000050: 2c39 783d f96b a3bd 154c c6bd 1ada 873c
00000060: fa23 d73d 95a3 283b 53a2 903d 1ebb 5fbc
00000070: 13cd 87bb e010 4fbd add7 3e3c e43c b3bd
00000080: 2013 df3c f448 da3d 372c b83d 3331 11bd
00000090: 806d 633d 95f8 28bc 63d1 66bd 94e5 343c
000000a0: d39d 69bc 6e96 cabc 013c 303e f3b3 1b3e
000000b0: 9c35 d1bd e0c5 1e3e 2128 a33d f62d a1bd
000000c0: 0439 b53c 91d4 98bd dac4 06bd c0b2 0fbe
000000d0: 3495 28bd e2e3 c53d 5bf0 76bd 3019 683d
000000e0: 1438 613e 5c27 bb3d ed44 573c 3a4f 1dbe
000000f0: 15be 883c e63b 2abd ad50 c4bb dc47 673c
00000100: 613e 3abd d750 003d 9235 c3bd d22a a63d
00000110: 8fa8 d6bc b956 21bd 9b08 a1bd bbf8 923d
00000120: bf88 acbd b587 c6bc ab9e bbbc fef7 32bd
00000130: f9fb 81be 1208 22bc 4104 0e3d 5759 81bc
00000140: d60e 203d 4551 043e 7dbb cabd 72f1 f93b
00000150: 7085 5ebd cabb 0a3e 241d 87bd cccf 05be
00000160: 04ea bdbd a2ef d6bd 42cd 8d3d 8222 833d
00000170: c406 143c c372 0c3d 1fc3 303e 6f9d 013e
00000180: 424d 01bd 930b 92bd 06b7 a4bc d92c b13d
00000190: efed 8c3d fa3a bbbd 20ff 6abc 6d91 2dbc
000001a0: baf9 d93d 74f7 4cbd f28a 4dbd 2943 d23d
000001b0: 1505 9ebb 4869 513e 8a05 05bd afae f03d
000001c0: 4c10 ce3c 8b30 34bd 4cf6 e4bd 1850 d6bd
000001d0: 2836 5cbd b5f3 d23d f3df 9dbd c82f 76bc
000001e0: 3dd1 95bd 9c0c 1e3e 95a4 c6bd ee73 203c
000001f0: 39d1 3f3d 057b e13d 4b32 863c 3fde 42bd
00000200: 68cb 693d 94e0 dd3d 66dd 8c3d e822 8c3d
00000210: 2d12 91bd 544b 72bd 5f4b 84bd 6525 443e
00000220: 3ed5 80bd c980 c0bd 40bf 913d 30ce cbbd
00000230: ecdb 203d 4854 40be 5d21 87bc ef5b 71bc
00000240: 7af9 bfbd 6d4e 533c 30b2 073e 1e44 bbbb
00000250: ebc4 9cbd 38bc a1bd 1ef1 07be bf16 ad3d
00000260: f16a 26be 059f a63c 0b49 74bc 7979 003e
00000270: d6d1 1f3e 6e07 853d 9a80 42bd 3ae2 003e
00000280: a0f0 f83d ffae 353d 76c1 febd 0926 aabd
00000290: 31dd d0ba cfa6 3c3d dcc9 6fbd 5e60 e8bc
000002a0: bfa8 43be e147 76bd 1cd9 8c3d cadd 21be
000002b0: 889e 7d3d 6f5e d63d 9713 843d a8a3 31bd
000002c0: e696 ff3d fcbc 90bd 29b7 b3bd 5906 7bbc
000002d0: e6b0 0a3e 2817 1d3d bfa9 afbd 00f5 c73c
000002e0: 2116 4dbe 47c6 b8bc b4b7 393d dd0e 23bd
000002f0: af4e eabd 8654 9dbd 97bc 21be d3e1 5ebd
00000300: 744a cebc 2e32 31bd 9b71 283e 7d46 4e3d
00000310: a268 fb3d 9588 b6bc f597 abbc 6561 1f3e
00000320: 0a12 15bd 8eaf 69be ada5 9e3c 73e0 c23d
00000330: 2864 bb3d 7418 14bd 2bae b93d ccb0 b6bc
00000340: e8c6 c4bd 47f4 44be edc0 51bd 4e3c 553d
00000350: 0842 5abd aebc abbd aaaa abbc bdcd 523e
00000360: 9971 953d 951a 303d b93a 86bd 20b5 a63d
00000370: af2b 883d 5e71 1ebc eb24 4dbb 6f43 8cbb
00000380: 2f8e fbbd 1d2a 883d 98ae 2ebd 1638 e8bd
00000390: 0a67 c93d 1a45 533d d104 9d3d c733 f33c
000003a0: 99ea c63d 5c42 973d 3e2b c4bd 96f2 d03c
000003b0: 8cac e2bd 4405 24be 1808 0c3d d220 7cbd
000003c0: 3149 b4bc e532 1dbe 7461 0d3e d6ce 21bc
000003d0: 9c1d e63d ec6c a93d 93c9 043c 5bac 973c
000003e0: c28d 203e 9f93 ebbc a4cc d03d 090d 23bc
000003f0: 6cc2 bbbd 6aac ae3d 1993 67bc 1ee7 223d

actor.0.bias f4 [256]
-0.021787146 -0.0494924 -0.01778451 -0.026566038 -0.02541547 0.011342258 0.06421949 0.023086125
-0.01586568 0.039850198 0.049696475 0.020659307 0.06555827 0.014496294 -0.014912117 0.0074291173
0.010831489 0.010895717 0.02284484 -0.046761524 0.012967475 -0.0077590365 0.045609754 -0.059968866
0.037165973 -0.0653077 -0.018964488 0.0228275 -0.056697644 -0.035081595 0.009535212 -0.022114636
0.010759199 0.047363576 0.004706099 -0.021020936 -0.05798036 0.029939013 0.050128095 -0.027103126
0.062565364 -0.0013523789 0.052740406 0.04225236 -0.04523438 0.054075055 -0.035928253 0.048709795
0.04349428 -0.03112394 -0.03540284 0.04285588 0.007373886 0.036519315 -0.050054595 -0.04504435
-0.011276454 -0.005264791 -0.0033245934 0.01978984 0.022570351 -0.05170923 -0.07007976 0.07470815
-0.070067696 -0.061093815 -0.02526414 0.009403046 0.016505586 -0.016224148 -0.023152871 -0.009481403
0.035908382 -0.014025232 0.008250886 -0.048834465 -0.015158585 0.024013605 -0.036238708 -0.04205769
0.03932048 -0.05564472 -0.07290961 0.04730356 0.033111576 -0.057224743 -0.056848966 -0.050817505
0.016758762 -0.042132333 -0.06742631 0.03353752 -0.017839057 -0.011406155 -0.03524783 0.022992002
0.034133404 0.054288592 -0.049136743 0.012448209 -0.014875337 -0.00595971 -0.06596281 -0.055042893
-0.006292833 -0.033850588 0.03265965 0.0017169376 0.015127099 0.0052002943 -0.013306315 0.010543365
0.031437706 -0.040614486 0.00072333217 0.03275696 -0.023277996 -0.03829891 -0.021356331 -0.05662681
-0.0337189 -0.026241602 -0.020951677 -0.054952115 0.015111708 0.053574976 -0.035379704 -0.045593612
-0.0202647 -0.03658558 0.042824853 0.011353324 -0.052483775 -0.01218434 -0.01779732 -0.0446992
-0.04150157 -0.054003943 -0.032858197 0.0010291571 -0.057601407 0.031940136 0.035415318 0.04587599
0.05163386 0.0046138586 0.031004878 0.014133829 0.006761275 0.025713049 0.048767075 0.0349415
-0.025676245 0.044735588 0.03829121 0.040203363 -0.042631492 0.02875908 -0.011112412 -0.040407505
-0.054353572 0.022724979 0.008933199 0.022495227 -0.035147086 -0.06686612 0.07895267 0.015976457
0.03348659 -0.0036828802 -0.044785824 0.0356866 0.010720904 0.06202892 -0.040729064 -0.00087568787
0.022339193 0.04530423 0.024543857 0.058303792 -0.036073465 -0.05447874 -0.039929707 0.046661932
0.026291901 -0.0043856935 0.04480175 -0.018533077 -0.045828257 -0.009403801 -0.011607204 -0.040153153
-0.033184506 -0.058128666 -0.04994001 -0.032039385 0.04125722 0.06718437 0.021441344 0.08016898
-0.072433904 0.019525537 0.04028681 -0.0040790415 -0.054174893 0.027609551 -0.01919064 -0.029520433
0.03282686 -0.00794617 -0.029286908 -0.024099724 0.038163625 -0.020010281 0.06370663 0.032712497
0.011863584 -0.018796297 -0.019961707 -0.043475945 -0.04566554 -0.046137996 -0.019007973 0.006588804
0.038131896 0.048256338 1.03386155e-05 0.014293461 0.050531685 0.06790798 -0.062418107 -0.044616256
0.0202286 -0.024497388 0.006581434 -0.059625007 -0.055854842 0.015969839 -0.050205026 -0.065122545
-0.010980353 0.02076472 -0.05451954 -0.013673032 -0.06694639 0.062590964 0.037004843 -0.031182114
0.002592375 0.00042911796 0.03321781 0.0209827 0.056339223 0.040151298 0.020145822 0.036629893
00000000: f57a b2bc 8bb8 4abd d2b0 91bc 05a1 d9bc
00000010: 1b34 d0bc e1d4 393c 8285 833d 1d1f bd3c
00000020: bef8 81bc f639 233d 888e 4b3d b53d a93c
00000030: 6a43 863d dd81 6d3c f451 74bc f46f f33b
00000040: 8f76 313c f383 323c 1a25 bb3c 0389 3fbd
00000050: 8875 543c 843f febb 4bd1 3a3d eaa1 75bd
00000060: 593b 183d 0bc0 85bd 6a5b 9bbc bd00 bb3c
00000070: ca3b 68bd b8b1 0fbd 9439 1c3c c129 b5bc
00000080: 5a47 303c 4f00 423d 9f35 9a3b 1934 acbc
00000090: d07c 6dbd a942 f53c 1e53 4d3d 6007 debc
000000a0: 4522 803d 4e42 b1ba 5306 583d d010 2d3d
000000b0: af47 39bd ce7d 5d3d 8129 13bd ec83 473d
000000c0: 0f27 323d a2f7 febc 9102 11bd a689 2f3d
000000d0: a4a0 f13b 4795 153d 0c06 4dbd 6d80 38bd
000000e0: e0c0 38bc 4584 acbb 6ce1 59bb 4d1e a23c
000000f0: 75e5 b83c 0fcd 53bd fa85 8fbd 9600 993d
00000100: a77f 8fbd 823d 7abd bef6 cebc 3c0f 1a3c
00000110: b936 873c 81e8 84bc 17ab bdbc e357 1bbc
00000120: ab14 133d 16ca 65bc b92e 073c a606 48bd
00000130: b75b 78bc 2eb8 c43c 0a6f 14bd af44 2cbd
00000140: 830e 213d b8eb 63bd a251 95bd 61c1 413d
00000150: 01a0 073d 7e64 6abd 76da 68bd 0426 50bd
00000160: ac49 893c f492 2cbd ce16 8abd a35e 093d
00000170: 3723 92bc e2e0 3abc 0760 10bd b959 bc3c
00000180: 78cf 0b3d b75d 5e3d 9c43 49bd 93f3 4b3c
00000190: afb7 73bc ac49 c3bb 8217 87bd a874 61bd
000001a0: 1c34 cebb eaa6 0abd 20c6 053d de0a e13a
000001b0: a7d7 773c 3b67 aa3b bb02 5abc 14be 2c3c
000001c0: d3c4 003d 605b 26bd 009e 3d3a 292c 063d
000001d0: 7fb1 bebc 51df 1cbd 79f3 aebc 84f1 67bd
000001e0: d41c 0abd a1f8 d6bc daa2 abbc 7815 61bd
000001f0: 1997 773c 6f71 5b3d 4fea 10bd 5ec0 3abd
00000200: 2802 a6bc c3da 15bd 1d69 2f3d 4b03 3a3c
00000210: 3af9 56bd d3a0 47bc afcb 91bc 8216 37bd
00000220: 8dfd 29bd 3d33 5dbd 5196 06bd c8e4 863a
00000230: 74ef 6bbd a9d3 023d a70f 113d 76e8 3b3d
00000240: 077e 533d da2f 973b f1fd fd3c 9391 673c
00000250: b08d dd3b 2ca4 d23c fcbf 473d d11e 0f3d
00000260: fd56 d2bc aa3c 373d 3ed7 1c3d 48ac 243d
00000270: 5c9e 2ebd 2a98 eb3c d610 36bc 5782 25bd
00000280: daa1 5ebd bc29 ba3c 8d5c 123c e947 b83c
00000290: 64f6 0fbd 1bf1 88bd f0b1 a13d 0fe1 823c
000002a0: 3c29 093d 7a5c 71bb 5771 37bd 1d2c 123d
000002b0: bba6 2f3c 0912 7e3d 85d3 26bd 6b8e 65ba
000002c0: af00 b73c ee90 393d 3310 c93c f5cf 6e3d
000002d0: c5c1 13bd 1925 5fbd 558d 23bd 9520 3f3d
000002e0: 1d62 d73c ddb5 8fbb 0a82 373d aed2 97bc
000002f0: 69b6 3bbd 6612 1abc 242c 3ebc a277 24bd
00000300: 7aec 07bd 5318 6ebd e58d 4cbd bb3b 03bd
00000310: 55fd 283d f597 893d c2a5 af3c a22f a43d
00000320: 3a58 94bd 05f4 9f3c c803 253d 7ba9 85bb
00000330: 7ee6 5dbd 6d2d e23c b035 9dbc d6d4 f1bc
00000340: 7575 063d a730 02bc 19eb efbc c96c c5bc
00000350: 7651 1c3d 9aec a3bc 9f78 823d 8afd 053d
00000360: 7a5f 423c b1fa 99bc bc86 a3bc d513 32bd
00000370: ca0b 3bbd 32fb 3cbd 9cb6 9bbc e5e6 d73b
00000380: 3130 1c3d 70a8 453d 0474 2d37 1f2f 6a3c
00000390: 50fa 4e3d 5713 8b3d 21aa 7fbd 89bf 36bd
000003a0: 73b6 a53c bfae c8bc 12a9 d73b 5a39 74bd
000003b0: 0cc8 64bd 2ed3 823c c9a3 4dbd f85e 85bd
000003c0: f0e6 33bc c61a aa3c e24f 5fbd da04 60bc
000003d0: 301b 89bd b12f 803d 6492 173d a271 ffbc
000003e0: d6e4 293b 3dfb e039 660f 083d e9e3 ab3c
000003f0: f5c3 663d b075 243d da08 a53c 3a09 163d

actor.2.weight f4 [128, 256]
-0.04418784 0.17606412 -0.15948464 0.012470837 -0.07780073 -0.12359892 0.019168666 0.10036696
0.040242568 0.18012424 -0.058116306 -0.063354544 -0.0838717 0.11734025 0.010844901 0.061073545
-0.14297445 -0.061953958 -0.105648376 0.14538193 0.2401772 -0.02377677 -0.12888615 0.09149097
-0.16848935 -0.13552277 0.020820618 0.06685201 -0.064832516 0.045408454 -0.023958247 -0.0151553815
0.017154325 -0.008614272 0.08308092 0.020485496 -0.18760988 0.012606442 0.07453474 -0.04899456
0.083775416 0.13644393 -0.08219545 0.021937668 0.062126894 -0.08729157 0.0564858 0.053098135
0.045278832 -0.20483507 0.005003336 0.07785223 -0.010029311 -0.10050714 0.054398533 -0.036946993
-0.14501649 0.023578981 0.03173665 -0.054006707 -0.0051301713 0.13325243 0.10717782 -0.21898164
0.08525662 -0.112159744 0.04402408 -0.06006458 -0.011676826 -0.075527646 -0.09667823 -0.058930397
-0.06558902 -0.037441805 -0.04240466 0.13953881 -0.13267067 0.0066003646 -0.013069229 0.0746607
0.043114543 -0.012362142 0.10500586 -0.20534696 0.05410907 0.0033772392 -0.09971583 0.24603048
-0.032823324 -0.107897036 -0.0035740652 0.031534832 0.057747487 0.051473804 -0.021843648 0.049936917
0.01577933 0.01747071 -0.026851907 0.011791769 -0.11595399 0.15268792 0.09211992 0.1343029
0.051241804 -0.05124345 0.051721957 0.06820837 -0.087711856 0.038698785 0.060597494 0.036239173
-0.07936646 0.004810974 -0.11692948 -0.13115932 0.085181825 -0.023658948 -0.092660435 -0.007836394
-0.034192566 0.15417074 0.053593162 -0.082630165 -0.06336033 0.065550156 0.035190053 0.10714135
0.05892294 0.009983381 0.055439856 0.06879991 -0.04181304 0.16355936 -0.06084396 0.03396698
-0.03153341 0.12604013 -0.11550881 -0.15101509 0.10342833 0.0047789314 -0.0035625305 -0.16810894
-0.00198445 -0.090848014 0.045726664 0.02172659 0.06284588 0.080269866 0.087628536 0.06566628
-0.031152021 0.15288244 -0.014361164 0.005244722 0.031524137 -0.087957524 -0.017137865 -0.07031074
0.2274449 -0.15680663 -0.00375979 -0.04059409 0.028401768 -0.19708404 0.029783174 -0.1369168
0.0689969 -0.020107992 0.027644577 0.07424244 -0.10846161 0.059922792 -0.013712085 0.024491705
-0.088262714 0.17170337 0.12145177 0.038075887 -0.051245905 -0.07362034 -0.13091387 0.14192289
0.009196583 0.084642544 0.006733745 0.11758843 -0.041011725 -0.02797471 0.02344595 0.12382865
0.055949703 0.07973364 0.034039933 -0.01572939 0.02413303 -0.016454738 0.08593347 0.0016729123
0.053358562 0.012822937 -0.103261046 -0.02344525 -0.0038643668 -0.05806421 0.014023596 0.069254175
0.09096199 -0.059701037 0.0023232084 -0.16216253 0.066869296 -0.110960335 0.055636313 -0.12749921
0.012701122 -0.15439337 0.08127012 -0.09915866 0.07055711 -0.054329813 0.015797209 0.08844823
0.06338977 -0.08586242 0.11062795 -0.063330196 0.0744135 -0.085202 0.1671657 -0.12753212
0.028462635 -0.004252499 -0.074733146 0.011381735 -0.07746378 0.064481236 -0.029084818 -0.054011285
0.067300975 -0.022741871 0.035116307 -0.16934468 0.021004615 0.21960823 -0.09956751 -0.14788799
0.117562994 0.03584019 -0.013009372 -0.12718719 -0.13220876 -0.046078064 0.13366291 -0.075561255
00000000: 4ffe 34bd 274a 343e f14f 23be 7b52 4c3c
00000010: fd55 9fbd 6e21 fdbd 9b07 9d3c 318d cd3d
00000020: 64d5 243d 7d72 383e 5d0b 6ebd 07c0 81bd
00000030: edc4 abbd 1650 f03d d0ae 313c 4128 7a3d
00000040: e567 12be 6fc3 7dbd 2d5e d8bd 00df 143e
00000050: 03f1 753e 80c7 c2bc bbfa 03be 9e5f bb3d
00000060: 7988 2cbe 7bc6 0abe 0090 aa3c b5e9 883d
00000070: e9c6 84bd 37fe 393d 1644 c4bc 474e 78bc
00000080: 3a87 8c3c e022 0dbc 5426 aa3d 33d1 a73c
00000090: ce1c 40be 408b 4e3c aba5 983d 85ae 48bd
000000a0: 7292 ab3d f5b7 0b3e 1756 a8bd a0b6 b33c
000000b0: c578 7e3d ecc5 b2bd a75d 673d 6e7d 593d
000000c0: 4c76 393d 49c0 51be 06f3 a33b fd70 9f3d
000000d0: fb51 24bc b0d6 cdbd ffd0 5e3d bb55 17bd
000000e0: 347f 14be b528 c13c 4afe 013d 2336 5dbd
000000f0: ff1a a8bb 5373 083e 0b80 db3d b93c 60be
00000100: 069b ae3d 02b4 e5bd 9852 343d 4706 76bd
00000110: 2850 3fbc 3dae 9abd 3cff c5bd 0061 71bd
00000120: 8953 86bd 945c 19bd 82b0 2dbd 43e3 0e3e
00000130: d2da 07be df47 d83b 5220 56bc b6e7 983d
00000140: e098 303d 958a 4abc 500d d73d 7946 52be
00000150: 79a1 5d3d ac54 5d3b d037 ccbd 6aef 7b3e
00000160: c071 06bd 1ff9 dcbd dd3a 6abb ab2a 013d
00000170: a188 6c3d 32d6 523d 73f1 b2bc a78a 4c3d
00000180: a743 813c bc1e 8f3c 88f8 dbbc 4432 413c
00000190: 4979 edbd 395a 1c3e 5ea9 bc3d b386 093e
000001a0: ede2 513d a7e4 51bd 67da 533d d4b0 8b3d
000001b0: 46a2 b3bd 9e82 1e3d 1435 783d 876f 143d
000001c0: e28a a2bd 60a5 9d3b b978 efbd a14e 06be
000001d0: cf73 ae3d 69d0 c1bc c1c4 bdbd 3864 00bc
000001e0: 810d 0cbd efde 1d3e 8184 5b3d 013a a9bd
000001f0: 10c3 81bd 293f 863d 7223 103d ed6c db3d
00000200: 2e59 713d 5691 233c e714 633d f8e6 8c3d
00000210: 2644 2bbd 1b7c 273e 8437 79bd f620 0b3d
00000220: 2d29 01bd aa10 013e e28f ecbd b3a3 1abe
00000230: 3bd2 d33d 9598 9c3b 5879 69bb c024 2cbe
00000240: 8c0d 02bb 860e babd e24b 3b3d f6fb b13c
00000250: 57b5 803d 8764 a43d 9776 b33d 0b7c 863d
00000260: 8632 ffbc 378d 1c3e 164b 6bbc ebdb ab3b
00000270: 741f 013d 1323 b4bd b564 8cbc 14ff 8fbd
00000280: 51e7 683e eb91 20be cf66 76bb fd45 26bd
00000290: d3aa e83c 66d0 49be d8fb f33c eb33 0cbe
000002a0: 3f4e 8d3d 84b9 a4bc e176 e23c 6c0c 983d
000002b0: 1f21 debd 9a71 753d a7a8 60bc d4a2 c83c
000002c0: 15c3 b4bd 02d3 2f3e b5bb f83d 76f5 1b3d
000002d0: 3ae7 51bd 43c6 96bd 490e 06be 3c54 113e
000002e0: 44ad 163c 1259 ad3d bfa6 dc3b 34d2 f03d
000002f0: e9fb 27bd 382b e5bc b911 c03c e099 fd3d
00000300: 842b 653d 644b a33d 756d 0b3d ecda 80bc
00000310: a2b2 c53c 16cc 86bc e3fd af3d 9f45 db3a
00000320: 828e 5a3d 4c17 523c 877a d3bd 4110 c0bc
00000330: 5141 7dbb bdd4 6dbd 3ac3 653c 22d5 8d3d
00000340: 484a ba3d 1389 74bd f840 183b ef0d 26be
00000350: c5f2 883d 2c3f e3bd e7e2 633d 278f 02be
00000360: 5e18 503c 4c19 1ebe f370 a63d b213 cbbd
00000370: 3f80 903d f088 5ebd 2669 813c 5824 b53d
00000380: 7fd2 813d a3d8 afbd e890 e23d 43b3 81bd
00000390: 1b66 983d 637e aebd 7c2d 2b3e c897 02be
000003a0: 792a e93c 8c58 8bbb b10d 99bd 757a 3a3c
000003b0: 55a5 9ebd bd0e 843d 4943 eebc f03a 5dbd
000003c0: 18d5 893d 294d babc 1ed6 0f3d b168 2dbe
000003d0: df11 ac3c fbe0 603e 0dea cbbd f36f 17be
000003e0: dec4 f03d 2acd 123d 4325 55bc 5c3d 02be
000003f0: bc61 07be 5abc 3cbd eede 083e dcbf 9abd

actor.2.bias f4 [128]
-0.042343106 0.019716408 -0.048010338 -0.046597455 -0.032695062 0.029475493 -0.012613568 -0.034896832
-0.005713062 0.041372363 -0.0039733043 0.03604813 -0.07644075 -0.067063235 -0.00893781 -0.06742423
0.0015841159 -0.049179517 -0.027688194 0.010554413 0.014328525 -0.054878052 -0.06936344 0.019639947
-0.043528285 -0.02905056 0.001206876 0.03927993 -0.035891812 -0.0032756783 0.02505001 0.031245172
-0.010422982 -0.06549449 0.04269189 -0.0066787503 -0.012325569 0.039230786 0.006749819 -0.050331444
0.008495056 -0.0012327224 -0.039807618 -0.018290803 -0.0044866 -0.058918282 0.015037241 -0.07091281
-0.027788915 0.033293456 -0.06896103 -0.022477066 -0.03765155 -0.026986687 0.018832773 0.038397636
-0.041596297 0.042451046 -0.033777222 -0.018343583 0.032229852 -0.0061084414 0.025411177 0.015800335
0.006150433 0.046588086 -0.018634237 0.001099955 0.041069347 -0.022541242 0.030855397 -0.029718978
0.007366156 -0.020714965 -0.07520153 0.025817156 -0.012534659 0.018912904 -0.024364023 -0.017709445
0.00010026186 -0.073198214 0.02029298 -0.008145504 -0.053095665 0.052686457 0.062448505 -0.06733133
0.046917643 -0.04547814 -0.07633672 -0.031584907 -0.061498012 -0.04693762 0.028194236 0.014420762
-0.037943713 0.0057209474 -0.0072331317 0.014514897 0.016738955 0.02810474 -0.058582656 -0.062718146
-0.06911256 -0.02405349 0.045149513 -0.009317471 -0.040940996 -0.057708308 0.00719678 -0.034383126
-0.032539822 -0.042249218 0.025817256 0.02525547 -0.02501128 -0.0025879554 0.049519777 -0.046390813
-0.060734097 -0.027327545 -0.035682987 -0.06557958 -0.06125536 -0.032877654 -0.01494107 -0.0005444612
00000000: f76f 2dbd 4e84 a13c 7da6 44bd f9dc 3ebd
00000010: 42eb 05bd 9776 f13c 24a9 4ebc fbef 0ebd
00000020: a334 bbbb 1176 293d 7e32 82bb 34a7 133d
00000030: f88c 9cbd 7358 89bd e46f 12bc b715 8abd
00000040: 1ca2 cf3a 7670 49bd 5ad2 e2bc 6bec 2c3c
00000050: 31c2 6a3c cfc7 60bd 6b0e 8ebd f4e3 a03c
00000060: b74a 32bd 71fb edbc 0a30 9e3a fee3 203d
00000070: 4b03 13bd c3ac 56bb ae35 cd3c e0f5 ff3c
00000080: 28c5 2abc fa21 86bd b1dd 2e3d 6bd9 dabb
00000090: 2ff1 49bc 76b0 203d 962d dd3b 5828 4ebd
000000a0: d92e 0b3c 4d93 a1ba 500d 23bd 98d6 95bc
000000b0: 5404 93bb 4c54 71bd c35e 763c bc3a 91bd
000000c0: 94a5 e3bc b85e 083d 713b 8dbd d321 b8bc
000000d0: 8338 1abd 2f13 ddbc 3047 9a3c d746 1d3d
000000e0: e160 2abd 26e1 2d3d fc59 0abd 4845 96bc
000000f0: 7303 043d 5229 c8bb 1a2b d03c b46f 813c
00000100: 9289 c93b 26d3 3e3d d4a6 98bc 5e2c 903a
00000110: 5538 283d 69a8 b8bc 75c4 fc3c 3775 f3bc
00000120: cc5f f13b 6eb2 a9bc 4203 9abd 807e d33c
00000130: 2c5e 4dbc 3cef 9a3c 0f97 c7bc 6613 91bc
00000140: ad43 d238 f2e8 95bd 773d a63c b874 05bc
00000150: d77a 59bd c1cd 573d 01ca 7f3d 02e5 89bd
00000160: b72c 403d 4947 3abd 6d56 9cbd 2d5f 01bd
00000170: 57e5 7bbd a941 40bd 99f7 e63c 0f45 6c3c
00000180: de6a 1bbd c976 bb3b e803 edbb e4cf 6d3c
00000190: 2220 893c e93b e63c 5ef4 6fbd 5f72 80bd
000001a0: e38a 8dbd d30b c5bc b2ee 383d 4ea8 18bc
000001b0: bfb1 27bd 8c5f 6cbd f7d2 eb3b 52d5 0cbd
000001c0: 7a48 05bd 840d 2dbd b67e d33c 8fe4 ce3c
000001d0: 75e4 ccbc b09a 29bb 40d5 4a3d 4b04 3ebd
000001e0: 51c4 78bd 04de dfbc 5328 12bd 964e 86bd
000001f0: e6e6 7abd b8aa 06bd 64cb 74bc 2cba 0eba

actor.4.weight f4 [64, 128]
-0.054212827 -0.0038316569 0.114414625 -0.093872726 -0.099138126 -0.03598548 0.09195557 -0.25121525
0.049381644 -0.24762899 0.1364217 0.1858703 -0.07907386 0.04751913 0.015330518 -0.08483871
0.16668147 -0.0668255 0.19848426 -0.09061285 -0.048734345 0.0027188119 0.14656104 0.008930715
-0.11282826 0.052042462 0.07523477 -0.192443 0.05963661 -0.07115431 0.04426237 0.13601683
-0.012496076 0.30140728 -0.05503264 0.04266476 0.03432126 0.023329025 -0.027652746 -0.10140644
-0.016331205 -0.013609155 -0.1874959 -0.17928816 0.008446282 0.099703945 0.037482493 -0.06174298
-0.050512552 0.086787 0.11449897 0.08631376 0.3229917 -0.13370782 0.009258118 -0.041666657
0.17629442 -0.26478687 0.043582134 -0.059705727 -0.028440204 0.011980253 0.21377037 0.10178588
0.29097098 0.0017379964 -0.35188997 0.09981594 -0.12018514 -0.06433061 -0.058584753 0.120860495
0.24062763 0.30673653 0.23474316 0.064403675 -0.13422403 0.031101828 0.17174686 -0.13859338
-0.1265768 0.029651921 0.1137618 0.013143185 -0.22788091 -0.13122386 -0.09546098 -0.07320796
0.15756723 -0.23749308 -0.034165554 -0.09188583 -0.0006879381 0.078856684 0.057581976 -0.024034357
0.015340915 -0.09914479 0.052947305 -0.0960218 0.017345551 -0.07510548 -0.001708116 0.06957794
-0.054907836 -0.09570219 -0.04637175 -0.025708085 0.054680463 0.13245031 0.16256775 0.12452639
0.12844443 0.11392776 -0.19610758 0.09694542 0.057657976 -0.020554055 -0.11896336 -0.17079449
-0.20794143 0.17426665 -0.10246653 0.023664817 0.15851496 0.18487911 -0.0087964125 0.083768204
0.05238304 -0.027710268 0.18210065 0.037680496 0.021988746 -0.16689558 -0.1779866 -0.09262044
0.1791413 0.11193452 0.10822644 -0.10857038 0.16334447 0.17361215 -0.09593733 -0.09994499
0.34430185 0.16856696 0.08863623 -0.161784 0.00076997234 0.05077388 -0.08871464 -0.28144798
0.004204221 0.021953994 -0.053027805 0.011953184 0.07476482 0.086036526 -0.17583826 -0.020724159
0.055359412 0.18976815 0.04939493 0.095866 0.06727529 0.044636067 0.14272195 0.16472417
-0.1465456 -0.19824566 0.010970051 0.10568201 0.21712175 -0.01279689 -0.12125317 0.020708647
0.16461064 0.13059148 -0.08422341 -0.12263541 0.0065687215 -0.16637966 -0.046280805 0.060987752
-0.01869657 0.05513486 -0.09650352 0.17523502 0.014427781 -0.15703708 -0.24765684 -0.043895125
-0.013431935 -0.07989863 0.19059542 0.03608772 -0.05148131 -0.14676616 -0.12388704 0.10643378
-0.10360397 0.07489244 -0.14193612 -0.27053547 0.058669023 -0.090753384 0.120665945 -0.010613699
-0.064303316 -0.20169392 0.06259314 0.074201085 -0.055968195 -0.21658434 -0.07380241 0.31899145
0.08631674 -0.016208682 -0.022805002 -0.05545099 -0.011490453 -0.03660572 -0.05778855 -0.007097402
0.023166042 0.07021573 0.036870718 -0.16610768 -0.02312214 -0.23703304 0.076188006 0.19428928
-0.1621762 0.08398187 -0.081215635 -0.076093644 0.09851106 -0.13290422 -0.008316837 0.09231461
0.02903626 0.12853704 0.06932423 0.13629763 -0.13577145 -0.10059741 -0.09710995 -0.04304985
-0.0128509635 -0.14219697 -0.033117287 0.20269582 0.025996516 -0.1662299 -0.18619953 0.05173111
00000000: 450e 5ebd 891c 7bbb 3752 ea3d 5840 c0bd
00000010: ee08 cbbd 8365 13bd 3453 bc3d 499f 80be
00000020: 6844 4a3d 7492 7dbe 21b2 0b3e c954 3e3e
00000030: 7af1 a1bd 6ba3 423d da2c 7b3c ebbf adbd
00000040: 8cae 2a3e cfdb 88bd 753f 4b3e 3b93 b9bd
00000050: aa9d 47bd 182e 323b 1914 163e 2252 123c
00000060: 8112 e7bd 7a2a 553d b014 9a3d c70f 45be
00000070: 8545 743d 5ab9 91bd 754c 353d ff47 0b3e
00000080: 57bc 4cbc 0e52 9a3e e869 61bd 3ec1 2e3d
00000090: 7394 0c3d 831c bf3c 0388 e2bc 2eae cfbd
000000a0: 05c9 85bc eff8 5ebc edfe 3fbe 5197 37be
000000b0: 4662 0a3c 9531 cc3d 3e87 193d 35e6 7cbd
000000c0: 40e6 4ebd 62bd b13d 707e ea3d 45c5 b03d
000000d0: 2b5f a53e b4ea 08be 5daf 173c a8aa 2abd
000000e0: 8686 343e 2592 87be 2e83 323d fe8d 74bd
000000f0: 6efb e8bc d348 443c 9fe6 5a3e 1e75 d03d
00000100: 26fa 943e 7bcd e33a ec2a b4be 4d6c cc3d
00000110: a023 f6bd c4bf 83bd 91f6 6fbd b585 f73d
00000120: 1767 763e 920c 9d3e 8360 703e 13e6 833d
00000130: 0672 09be 43c9 fe3c 69de 2f3e 6ceb 0dbe
00000140: 599d 01be 96e8 f23c f2fb e83d 8356 573c
00000150: 9d59 69be 8c5f 06be 0c81 c3bd 0eee 95bd
00000160: 4e59 213e 6331 73be 2ef1 0bbd a32e bcbd
00000170: bf56 34ba 9d7f a13d 14db 6b3d b3e3 c4bc
00000180: 7658 7b3c 6c0c cbbd 46df 583d 14a7 c4bd
00000190: 4218 8e3c e7d0 99bd dde2 dfba e17e 8e3d
000001a0: 0ae7 60bd 83ff c3bd 4ef0 3dbd c399 d2bc
000001b0: 9ff8 5f3d 0ea1 073e 2978 263e b107 ff3d
000001c0: f086 033e f552 e93d 6dd0 48be 528b c63d
000001d0: c52a 6c3d fa60 a8bc 10a3 f3bd c0e4 2ebe
000001e0: 99ee 54be f572 323e f9d9 d1bd b8dc c13c
000001f0: bf51 223e f350 3d3e d41e 10bc aa8e ab3d
00000200: 998f 563d a500 e3bc 9878 3a3e dd56 1a3d
00000210: be21 b43c ade6 2abe 1f42 36be c9af bdbd
00000220: d170 373e ed3d e53d d3a5 dd3d 265a debd
00000230: c643 273e 62c7 313e ca7a c4bd f5af ccbd
00000240: 5548 b03e d19c 2c3e e986 b53d b4aa 25be
00000250: f8d7 493a 46f8 4f3d 05b0 b5bd f319 90be
00000260: 90c3 893b ddd8 b33c af33 59bd 4ad7 433c
00000270: 4c1e 993d eb33 b03d f20e 34be b6c5 a9bc
00000280: 8dc0 623d 9552 423e 5752 4a3d 6555 c43d
00000290: a1c7 893d 4fd4 363d b425 123e 74ad 283e
000002a0: 0d10 16be e900 4bbe bbbb 333c cf6f d83d
000002b0: 2a55 5e3e 0caa 51bc 9553 f8bd 2ea5 a93c
000002c0: b18f 283e c6b9 053e 537d acbd 4628 fbbd
000002d0: 6e3e d73b 6e5f 2abe f190 3dbd 4bce 793d
000002e0: 8d29 99bc 17d5 613d a3a3 c5bd cf70 333e
000002f0: 8062 6c3c 54ce 20be c199 7dbe 60cb 33bd
00000300: 9e11 5cbc e5a1 a3bd 722b 433e b8d0 133d
00000310: 11de 52bd de49 16be 7db8 fdbd f4f9 d93d
00000320: 512e d4bd 3561 993d b457 11be a083 8abe
00000330: ee4e 703d e9dc b9bd b51f f73d 15e5 2dbc
00000340: 75b1 83bd da88 4ebe d530 803d bdf6 973d
00000350: e83e 65bd 49c8 5dbe b825 97bd d952 a33e
00000360: d5c6 b03d 12c8 84bc 8ed1 babc 9420 63bd
00000370: 7442 3cbc e1ef 15bd b0b3 6cbd 5391 e8bb
00000380: b6c6 bd3c 44cd 8f3d c005 173d 2218 2abe
00000390: a46a bdbc cab8 72be 7508 9c3d c5f3 463e
000003a0: 8511 26be b0fe ab3d 6254 a6bd fcd6 9bbd
000003b0: 2bc0 c93d 0b18 08be 5843 08bc 710f bd3d
000003c0: 73dd ed3c 379f 033e ddf9 8d3d 9b91 0b3e
000003d0: ac07 0bbe 0406 cebd 95e1 c6bd 0a55 30bd
000003e0: d98c 52bc 159c 11be fea5 07bd 7e8f 4f3e
000003f0: a5f6 d43c 2c38 2abe 17ab 3ebe 00e4 533d

actor.4.bias f4 [64]
-0.0086436365 -0.0018612001 -0.078698166 -0.012224399 -0.10033996 0.023662316 0.03368748 0.048769385
-0.0987532 0.011480671 -0.0025568956 -0.04243518 0.0376743 0.018788358 -0.01218429 0.061854083
0.01335097 -0.025941033 0.016559301 -0.05717004 0.022090731 -0.083843075 -0.020564962 -0.023139207
0.058523957 0.06888006 0.05500554 -0.003796106 0.05833964 0.052080635 -0.06550697 -0.100630276
-0.091040745 0.06329395 -0.035257597 -0.019486226 0.04169838 -0.0103161605 0.0022558023 0.042199217
-0.029309807 -0.051014487 -0.082890704 -0.05171898 -0.040367063 -0.046869997 0.06651993 -0.10061636
-0.017264077 -0.036980763 0.025315266 0.07518456 -0.03261619 -0.11085369 0.056433182 0.020672351
0.049501624 -0.06062576 -0.019250195 -0.07144327 -0.08928495 0.057678968 0.024671031 -0.07202113
00000000: 0a9e 0dbc 83f3 f3ba 812c a1bd d848 48bc
00000010: 097f cdbd 79d7 c13c e2fb 093d 68c2 473d
00000020: 1e3f cabd 6d19 3c3c 9791 27bb 83d0 2dbd
00000030: 5e50 1a3d 0bea 993c 9ea0 47bc b55a 7d3d
00000040: 07be 5a3c 4a82 d4bc 5fa7 873c 222b 6abd
00000050: 9ff7 b43c ebb5 abbd da77 a8bc 6f8e bdbc
00000060: d1b6 6f3d fd10 8d3d 7d4d 613d 17c8 78bb
00000070: 8cf5 6e3d 8152 553d 8528 86bd 3f17 cebd
00000080: 9273 babd 42a0 813d 456a 10bd 94a1 9fbc
00000090: eccb 2a3d 1d05 29bc 15d6 133b 16d9 2c3d
000000a0: 1f1b f0bc 91f4 50bd 9ac2 a9bd 48d7 53bd
000000b0: ef57 25bd c1fa 3fbd 9a3b 883d f30f cebd
000000c0: 656d 8dbc 2479 17bd f661 cf3c 5dfa 993d
000000d0: 8e98 05bd 4207 e3bd 7b26 673d 1059 a93c
000000e0: 37c2 4a3d b852 78bd 96b2 9dbc d950 92bd
000000f0: 07db b6bd c840 6c3d e71a ca3c d07f 93bd

actor.6.weight f4 [3, 64]
0.0017939085 -0.0004831895 0.0057234564 0.0024533551 0.00038208236 0.009907 0.00793096 0.009480575
-0.0005406037 -0.00082322466 -0.0071242694 -0.00045818792 0.0020463774 -0.00043451725 0.0033591369 -0.0044919616
-0.016987154 -0.000868529 -0.0047326265 -0.0023700716 0.00017960841 0.00197963 0.0027593963 0.010846739
0.009643937 0.0012400235 0.0002524945 -0.013856897 -0.00396113 -0.0011317679 -0.00054573314 0.008519658
0.0009774528 -0.0040839775 -0.0014313865 0.008148306 -0.00054589444 -0.0005257931 0.0059801466 0.006777082
0.006804902 -0.0003353322 0.00033544618 0.00037846982 0.008415786 0.0023066064 0.0060278764 0.00023082523
-0.003525209 0.0011230345 0.0010657471 -0.01344725 -0.00087067694 0.0006436643 0.00077961106 -0.00050362555
0.0011698923 0.009024872 -0.00032661093 -0.016778572 0.004733455 -0.0019221616 0.0020054793 0.00096586446
-0.0069767595 -0.00022100368 -0.014464802 -0.005606199 -0.007343597 -0.015525666 -0.012373769 -0.012977005
-0.0068712984 -0.005068968 -0.0037814318 -0.009500677 -0.008100692 0.00068650657 -0.019778823 0.00528397
-0.008543449 -0.0062760715 -0.0049087754 0.0016634639 -0.0098279165 -0.0060959295 -0.009814578 -0.014749255
-0.010162086 -0.00916177 -0.007353576 -0.0068908553 -0.002131377 -0.006466391 -0.009001211 -0.011990651
-0.008322165 -0.0023519723 -0.00040779094 -0.016221685 -0.0067244694 -0.007856753 -0.006132489 -0.010303338
-0.012769281 -0.0070231403 -0.008708156 -0.0067989104 -0.014161276 -0.00823978 0.005622567 -0.009707872
-0.008596316 -0.008920286 -0.007380422 -0.008027052 -0.006970205 -0.007860776 -0.006705688 -0.008303439
-0.008372048 -0.01594601 -0.0045581036 -0.00802676 -0.006811258 -0.004125211 -0.008116626 -0.00021379844
0.048175987 -0.0012580258 0.04491391 0.042578053 0.04168459 0.05105726 0.03827329 0.0446297
0.049675167 0.041073542 0.034246016 0.042897623 0.03496821 -0.0035773802 0.03940103 -0.047211006
0.034072597 0.038816083 0.03321165 -0.029495852 0.03892668 0.03732319 0.04336004 0.045680214
0.03618153 0.041618273 0.04983796 0.025503712 0.029544648 0.050277334 0.05227688 0.04081236
0.04187381 0.03463473 -0.007149521 0.048532978 0.040625982 0.043070152 0.03051914 0.038091317
0.037212927 0.05081635 0.054316577 0.03998063 0.04245761 0.053740304 -0.026144424 0.05569243
0.04096853 0.051939875 0.039873265 0.018933507 0.051620014 0.049300052 0.050023418 0.041802287
0.039244343 0.04976971 0.039289184 0.031912826 0.03575783 0.025079096 0.05567982 -0.00028593215
00000000: 9521 eb3a 9954 fdb9 d58b bb3b 78c8 203b
00000010: 3a52 c839 f850 223c dbf0 013c 6a54 1b3c
00000020: 4db7 0dba accd 57ba b472 e9bb f138 f0b9
00000030: 841c 063b ebcf e3b9 f724 5c3b 4e31 93bb
00000040: a528 8bbc ffad 63ba 2614 9bbb 3453 1bbb
00000050: 4455 3c39 aebc 013b fdd6 343b 85b6 313c
00000060: 9b01 1e3c 4988 a23a 3d61 8439 0a08 63bc
00000070: 5ecc 81bb d457 94ba 880f 0fba 0996 0b3c
00000080: e01d 803a e3d2 85bb 5c9d bbba 7980 053c
00000090: 5b1a 0fba 61d5 09ba 1bf5 c33b 4912 de3b
000000a0: a8fb de3b 87cf afb9 d3de af39 5c6d c639
000000b0: 5de2 093c 6f2a 173b 7e85 c53b ad09 7239
000000c0: 3107 67bb c932 933a 8ab0 8b3a db51 5cbc
000000d0: 243e 64ba 94bb 283a d05e 4c3a bd05 04ba
000000e0: 1257 993a 0fdd 133c fa3c abb9 3773 89bc
000000f0: 191b 9b3b 0af1 fbba 5c6e 033b 1132 7d3a
00000100: 4d9d e4bb 39bd 67b9 c7fd 6cbc 35b4 b7bb
00000110: 8ea2 f0bb 5d5f 7ebc 59bb 4abc 819d 54bc
00000120: a128 e1bb 9619 a6bb e6d1 77bb baa8 1bbc
00000130: c4b8 04bc adf6 333a 3307 a2bc 2725 ad3b
00000140: d3f9 0bbc 81a7 cdbb cbd9 a0bb 9608 da3a
00000150: 4505 21bc 5dc0 c7bb 53cd 20bc dca6 71bc
00000160: e17e 26bc 401b 16bc 44f6 f0bb afcc e1bb
00000170: 93ae 0bbb 05e4 d3bb d179 13bc 6f74 44bc
00000180: b159 08bc 8c23 1abb c6cc d5b9 57e3 84bc
00000190: f058 dcbb 9cb9 00bc 0cf3 c8bb 55cf 28bc
000001a0: 3f36 51bc 5f22 e6bb a7ac 0ebc 65c9 debb
000001b0: b204 68bc 2400 07bc 833d b83b c40d 1fbc
000001c0: 90d7 0cbc 6426 12bc 78d7 f1bb e583 03bc
000001d0: 5166 e4bb 7cca 00bc 63bb dbbb 260b 08bc
000001e0: ea2a 09bc 35a1 82bc 255c 95bb ac82 03bc
000001f0: f930 dfbb c72c 87bb 99fb 04bc 152f 60b9
00000200: 2f54 453d 57e4 a4ba a6f7 373d 5366 2e3d
00000210: 76bd 2a3d 6b21 513d 74c4 1c3d a2cd 363d
00000220: 3078 4b3d bb3c 283d 8d45 0c3d 6bb5 2f3d
00000230: d33a 0f3d 7b72 6abb f962 213d 5460 41bd
00000240: b58f 0b3d 9dfd 1e3d f008 083d 49a1 f1bc
00000250: 9571 1f3d 34e0 183d 4c9a 313d 2d1b 3b3d
00000260: 1633 143d ec77 2a3d e422 4c3d 29ed d03c
00000270: 9e07 f23c 9bef 4d3d 4820 563d dc2a 273d
00000280: df83 2b3d 26dd 0d3d 8746 eabb 84ca 463d
00000290: 6e67 263d 546a 303d 4703 fa3c a405 1c3d
000002a0: 956c 183d ce24 503d 0f7b 5e3d bbc2 233d
000002b0: 08e8 2d3d cb1e 5c3d d52c d6bc bf1d 643d
000002c0: 9ece 273d e8be 543d 2652 233d 711a 9b3c
000002d0: 826f 533d daee 493d 5be5 4c3d e038 2b3d
000002e0: adbe 203d 53db 4b3d b2ed 203d 06b7 023d
000002f0: cd76 123d ad72 cd3c 8610 643d 2ae9 95b9

actor.6.bias f4 [3]
-0.028317349 0.06977061 0.04576416
00000000: c9f9 e7bc e5e3 8e3d 3373 3b3d

critic.0.weight f4 [256, 259]
0.052985225 0.08217248 -0.07304062 -0.011323809 -0.6252309 -0.09727004 0.070966 -0.053436182
0.035789322 0.0031125958 0.04233086 -0.07404562 0.08722943 0.12865072 0.12306999 -0.05971809
0.15950485 -0.0767176 -0.10461379 -0.07488144 0.10479268 -0.10946603 -2.4022307 0.118604094
-0.11341351 0.10495035 0.045021642 -0.058796134 0.29639676 0.34758043 0.07342293 0.062993504
0.004334822 0.122243315 -0.114681646 -0.03591107 0.009612822 0.09416777 -0.07359939 0.03892907
0.04514995 -0.011702041 -0.03520047 0.09618453 -0.010707551 0.21872349 -0.13920207 0.14778294
-0.17614906 0.23541875 -0.065655515 0.024694603 0.051633514 -0.51239264 0.0023845825 0.06392755
-0.04679076 0.009685333 0.18366927 -0.009258529 0.074992545 0.09705492 -0.004752388 0.059067808
-0.039401922 -0.02333685 0.12373113 0.04162399 -0.041912023 0.11349498 -0.10058611 0.07387653
-0.14936242 -0.06647376 0.124080494 -0.1676421 0.05329446 -0.024531752 0.076687545 0.18479516
-0.008514213 0.1733375 0.09211666 -0.034285415 0.11432612 -0.45780283 -0.0493914 -0.12877321
-0.02842282 -0.057977002 0.16174045 0.10891178 0.046297453 -0.09391254 -0.09589492 0.06412975
0.00078653754 -0.033755388 0.04233782 0.075232126 -0.055754434 0.06759084 -0.02688503 0.042766504
0.028401019 0.08302952 -0.17981122 0.0726545 0.11203228 0.013942484 0.07676174 -0.14006937
-0.019896172 -0.03208621 -0.044362597 -0.0063887876 -0.016125014 -0.08888477 0.026298005 -0.07616199
-0.012360934 -0.03535124 0.025245287 0.09580549 0.04806112 0.205023 -0.026183326 0.051522367
-0.18104078 0.07344266 0.07077699 -0.030760216 0.0711803 -0.02475887 -0.02910454 0.0682151
-0.06199774 -0.11458514 0.017029915 0.23892032 0.12524024 0.094334126 -0.056346077 0.11439526
-0.08596712 -0.09081265 0.05346596 -0.016272198 0.17460248 0.05216596 -0.081260726 0.043547392
-0.0034400106 -0.13878113 -0.020776913 0.50532305 -0.027859159 0.15737943 0.070807226 -0.00919033
-0.14978193 -0.093539216 0.14655589 -0.02650012 0.017535413 -0.004563862 -0.06631867 0.08090965
-0.036591437 0.044278324 -0.041590337 0.08321786 0.17782807 0.026727341 -0.05470097 0.10599962
-0.12526323 0.12000183 -0.10867361 0.0076715387 -0.00039861607 0.104152456 -0.037404004 -0.032210685
0.03738707 0.18542475 -0.5391578 -0.019269679 -0.040862933 0.048042092 -0.08494811 -0.048265174
0.18929803 -0.008845531 -0.04614837 -0.06652558 0.08704273 -0.014836331 -0.08465943 -0.004667635
0.116344884 0.11934982 -0.0131114395 0.07873586 -0.011308282 -0.0044403626 -0.055806566 0.20331103
-0.085795626 -0.0025649094 -0.0112092635 0.15710014 0.03035717 0.052691735 0.012270826 0.016741915
0.04492058 -0.103498906 -0.063177586 -0.092292316 -0.081991695 -0.09592571 -0.09894905 0.012139027
0.080028884 -0.0966181 -0.22287132 -0.021506358 0.111423105 0.19630763 0.03926467 -0.13721104
0.051455833 -0.11887336 0.029231165 -0.023110567 -0.108051576 -0.1457705 -0.07862582 0.10973412
-0.037869576 0.13906811 0.16257448 0.1850177 -0.070144944 -0.07647202 -0.019586239 0.07110353
0.04593628 0.042924765 0.10045488 0.046929743 0.06645968 0.08336009 0.0068571423 -0.010257199
00000000: 0907 593d 0c4a a83d 5296 95bd 7f87 39bc
00000010: 220f 20bf 8435 c7bd 9f56 913d e6df 5abd
00000020: d397 123d b1fc 4b3b 2063 2d3d 3ba5 97bd
00000030: 58a5 b23d 04bd 033e 1e0c fc3d f59a 74bd
00000040: 3d55 233e 1e1e 9dbd c13f d6bd 715b 99bd
00000050: 8b9d d63d ba2f e0bd 26be 19c0 b4e6 f23d
00000060: 5845 e8bd 36f0 d63d 9d68 383d 37d4 70bd
00000070: 51c1 973e 10f6 b13e c35e 963d bd02 813d
00000080: 1f0b 8e3b b45a fa3d 36de eabd 7c17 13bd
00000090: 197f 1d3c 08db c03d 47bb 96bd 1774 1f3d
000000a0: 27ef 383d ebb9 3fbc 5e2e 10bd 65fc c43d
000000b0: b96e 2fbc 0df9 5f3e fd8a 0ebe 6954 173e
000000c0: 6b60 34be 9d11 713e 6676 86bd 564c ca3c
000000d0: aa7d 533d 2a2c 03bf a846 1c3b 73ec 823d
000000e0: aba7 3fbd 3baf 1e3c cc13 3c3e 16b1 17bc
000000f0: b195 993d bbc4 c63d ecb9 9bbb 16f1 713d
00000100: e963 21bd ec2c bfbc bf66 fd3d eb7d 2a3d
00000110: f1ab 2bbd 0e70 e83d 1700 cebd 944c 973d
00000120: 76f2 18be 6523 88bd ea1d fe3d 5faa 2bbe
00000130: 4b4b 5a3d d0f6 c8bc 5c0e 9d3d f13a 3d3e
00000140: 337f 0bbc 637f 313e a9a7 bc3d dd6e 0cbd
00000150: d023 ea3d 2265 eabe a34e 4abd 20dd 03be
00000160: f9d6 e8bc 4b79 6dbd 4a9f 253e 240d df3d
00000170: 66a2 3d3d 3855 c0bd 8e64 c4bd 7556 833d
00000180: a42f 4e3a 1743 0abd 6c6a 2d3d 4d13 9a3d
00000190: c35e 64bd 116d 8a3d ff3d dcbc ee2b 2f3d
000001a0: 41a9 e83c 620b aa3d 6f20 38be e2cb 943d
000001b0: 2e71 e53d 046f 643c 4235 9d3d 586e 0fbe
000001c0: 4cfd a2bc d46c 03bd 8eb5 35bd 0959 d1bb
000001d0: 9b18 84bc 3809 b6bd ea6e d73c d1fa 9bbd
000001e0: 8485 4abc 76cc 10bd 34cf ce3c ab35 c43d
000001f0: bddb 443d 8df1 513e 6a7e d6bc 1e09 533d
00000200: c162 39be 1b69 963d 87f3 903d d9fc fbbc
00000210: fac6 913d 1dd3 cabc a56c eebc 5cb4 8b3d
00000220: 58f1 7dbd 9dab eabd 5282 8b3c 87a7 743e
00000230: fa3e 003e 4032 c13d 25cb 66bd 1048 ea3d
00000240: 880f b0bd fcfb b9bd 1fff 5a3d 464d 85bc
00000250: feca 323e f9ab 553d 066c a6bd c05e 323d
00000260: cd71 61bb a41c 0ebe 5834 aabc da5c 013f
00000270: e438 e4bc 1328 213e 6103 913d 0a93 16bc
00000280: 6f60 19be 7d91 bfbd bf12 163e c816 d9bc
00000290: 6da6 8f3c 738c 95bb 15d2 87bd f5b3 a53d
000002a0: e7e0 15bd 305d 353d a15a 2abd 206e aa3d
000002b0: 9018 363e 4cf3 da3c 200e 60bd 5416 d93d
000002c0: 0145 00be 85c3 f53d 4590 debd 8861 fb3b
000002d0: 58fd d0b9 e24d d53d f134 19bd 5aef 03bd
000002e0: 2f23 193d fcdf 3d3e 3f06 0abf 72db 9dbc
000002f0: e45f 27bd c9c7 443d 46f9 adbd b4b1 45bd
00000300: 58d7 413e d9ec 10bc 1306 3dbd 903e 88bd
00000310: 7543 b23d 1514 73bc ec61 adbd f6f2 98bb
00000320: 3a46 ee3d ae6d f43d 5dd1 56bc 4440 a13d
00000330: 5f46 39bc 7680 91bb 6d95 64bd c430 503e
00000340: 9eb5 afbd 0a18 28bb 0fa7 37bc dcde 203e
00000350: 9aaf f83c 4ad3 573d 930b 493c 5726 893c
00000360: a4fe 373d 3cf7 d3bd 4063 81bd c103 bdbd
00000370: 43eb a7bd b374 c4bd cda5 cabd c5e2 463c
00000380: 2fe6 a33d b6df c5bd 6138 64be 1a2e b0bc
00000390: cc31 e43d de04 493e fed3 203d 0d81 0cbe
000003a0: 5ac3 523d e073 f3bd 3276 ef3c 5f52 bdbc
000003b0: 254a ddbd dd44 15be 9306 a1bd 48bc e03d
000003c0: 211d 1bbd df67 0e3e ed79 263e 4875 3d3e
000003d0: 27a8 8fbd 5d9d 9cbd 5273 a0bc ba9e 913d
000003e0: ae27 3c3d e1d1 2f3d 4abb cd3d 6739 403d
000003f0: 031c 883d b2b8 aa3d e1b1 e03b d00d 28bc

critic.0.bias f4 [256]
-0.022350006 0.014523964 0.035726603 -0.013737997 0.025577405 -0.038965967 0.06390556 -0.057091717
-0.056357365 0.01760701 -0.02021741 0.011340358 0.053596225 0.048371162 0.020487353 0.014975848
0.02317314 -0.01585725 -0.020910336 0.037724115 -0.012369511 0.057769906 0.019526267 -0.021553053
-0.024490273 -0.033224475 0.025814733 0.032559678 0.07357963 -0.068050176 -0.036594186 -0.021913622
-0.05870792 0.02461648 -0.059369784 -0.029639421 -0.007487737 -0.020441527 0.009915281 -0.055188753
-0.031745046 -0.038623583 0.013820507 -0.044262096 0.032958645 0.08249482 -0.022103151 -0.019733813
-0.047903046 0.019159198 -0.050266434 -0.04990405 0.053227264 -0.021082193 0.050657474 -0.045573734
-0.036008142 -0.044224653 -0.014184712 -0.03025716 0.015750647 0.06787105 0.049878057 0.045891758
0.012903124 -0.014563817 -0.058536317 -0.01621827 -0.033790838 -0.0068630837 0.016413258 -0.009415969
0.0027221197 -0.004095816 -0.005004032 0.003314485 -0.046494074 0.05729311 -0.01836678 -0.04722126
0.022658 0.06447134 -0.06759148 0.042510305 0.0125925075 -0.01443285 0.036099896 -0.013876795
-0.00907679 -0.03881334 -0.0018758334 0.02155553 -0.039365318 0.024285309 0.026347931 -0.0108271
0.06164611 -0.015729588 0.046074033 0.020696677 -0.011360938 -0.04434468 -0.04295923 0.041276783
0.004353844 -0.0315385 0.016986033 -0.012219209 -0.0017331975 0.03745339 0.02538311 0.052519944
-0.03160531 0.009037597 -0.022972547 -0.050694834 0.011621862 -0.0081139365 -0.01461624 -0.04073654
0.013533798 -0.03348399 -0.02351711 0.022990823 -0.059050955 -0.027530408 -0.0027023617 0.047177922
0.00999904 -0.004010077 -0.045980424 0.046186563 0.049563427 -0.036112417 0.015948432 0.0049035605
0.014827692 -0.05030714 0.028150152 -0.0051701358 -0.06343605 -0.02758652 -0.052366063 -0.012215497
-0.005356073 0.063968524 -0.032051902 -0.047149777 -0.052870266 0.008571575 -0.035233226 0.023255464
-0.022296073 0.068272136 0.004013658 0.048745137 -0.055138357 -0.06439679 0.0031389764 -0.007116451
-0.06010286 0.013952381 -0.00681624 -0.05596488 -0.018264417 -0.054226175 0.0029937075 -0.04893841
0.06626406 0.0081572905 0.0693089 0.0068708872 0.051508397 -0.02788604 -0.018349728 -0.06364153
0.0041070427 -0.05206444 -0.046332214 0.056375287 -0.03711564 0.023225248 -0.037611358 -0.04814667
-0.038294584 0.025567394 -0.051947366 -0.053054284 -0.06384982 -0.025069926 -0.038843762 -0.051335312
-0.01043354 -0.03672922 0.057511408 -0.02225421 0.019399242 0.035889946 -0.02386603 -0.013782529
-0.016473358 0.011901042 0.040457405 -0.03632262 -0.050513014 0.017786112 -0.0051023327 0.018961882
-0.028070206 -0.05009893 0.008086965 0.05302951 0.007902307 0.038693033 -0.0015582505 0.04669097
0.0072877696 0.009006073 0.037587974 -0.00398432 0.047603514 -0.008618519 -0.04080958 0.010845431
-0.015224581 -0.04626591 -0.038736437 -0.046632677 -0.014729586 -0.049124267 -0.04983832 -0.03863228
-0.006934579 0.0026416127 -0.014314639 -0.00050472916 0.032945603 0.035107013 -0.017310578 -0.017662924
0.031913694 0.058963925 -0.043360915 -0.018609883 -0.008490835 0.03899297 -0.071244635 -0.0064867795
-0.053575493 -0.035406996 -0.032004546 0.02875692 0.0014500243 -0.04177798 -0.0015720563 0.0466233
00000000: 5c17 b7bc ecf5 6d3c 0f56 123d 5615 61bc
00000010: b587 d13c c79a 1fbd ebe0 823d 01d9 69bd
00000020: fbd6 66bd 943c 903c fb9e a5bc e9cc 393c
00000030: b787 5b3d d720 463d 18d5 a73c 425d 753c
00000040: 99d5 bd3c 10e7 81bc 274c abbc 9a84 1a3d
00000050: 7da9 4abc 23a0 6c3d 8df5 9f3c 0790 b0bc
00000060: d39f c8bc 6316 08bd 6b79 d33c 4c5d 053d
00000070: ebb0 963d e45d 8bbd c9e3 15bd 3284 b3bc
00000080: b777 70bd 80a8 c93c bb2d 73bd 5fce f2bc
00000090: b15b f5bb fd74 a7bc b473 223c 9a0d 62bd
000000a0: 1807 02bd c333 1ebd 686f 623c 2c4c 35bd
000000b0: a5ff 063d 0bf3 a83d ab11 b5bc cea8 a1bc
000000c0: fc35 44bd c0f3 9c3c 2de4 4dbd 3068 4cbd
000000d0: d504 5a3d 90b4 acbc 367e 4f3d 86ab 3abd
000000e0: 467d 13bd e924 35bd ff66 68bc dddd f7bc
000000f0: 8007 813c faff 8a3d ef4c 4c3d fff8 3b3d
00000100: a067 533c 139d 6ebc c7c3 6fbd 2ddc 84bc
00000110: 4368 0abd b8e3 e0bb 1975 863c 7045 1abc
00000120: 9765 323b 3236 86bb ddf8 a3bb d537 593b
00000130: 9270 3ebd 2eac 6a3d ee75 96bc 146b 41bd
00000140: 459d b93c 8d09 843d 676d 8abd 491f 2e3d
00000150: ce50 4e3c c377 6cbc 7cdd 133d 7f5b 63bc
00000160: d1b6 14bc bdfa 1ebd 86de f5ba 3995 b03c
00000170: 873d 21bd fcf1 c63c 9ed7 d73c 2664 31bc
00000180: a280 7c3d 56db 80bc 20b8 3c3d 148c a93c
00000190: 3a23 3abc c4a2 35bd 04f6 2fbd d811 293d
000001a0: b1aa 8e3b 842e 01bd 4b26 8b3c 1433 48bc
000001b0: 752c e3ba ba68 193d 3df0 cf3c 271f 573d
000001c0: 9274 01bd 6e12 143c ec30 bcbc 63a5 4fbd
000001d0: 9f69 3e3c 51f0 04bc f478 6fbc 5cdb 26bd
000001e0: ddbc 5d3c 8226 09bd f4a6 c0bc 4057 bc3c
000001f0: 6adf 71bd 7387 e1bc 1b1a 31bb a33d 413d
00000200: 03d3 233c f766 83bb f855 3cbd 1f2e 3d3d
00000210: 0503 4b3d 9dea 13bd 49a6 823c 0cae a03b
00000220: d9ef 723c dc0e 4ebd 269b e63c 3e6a a9bb
00000230: c3ea 81bd 20fd e1bc cc7d 56bd 8223 48bc
00000240: ff81 afbb ee01 833d db48 03bd 2020 41bd
00000250: 7e8e 58bd cb6f 0c3c b750 10bd 3e82 be3c
00000260: 41a6 b6bc 43d2 8b3d 0185 833b fba8 473d
00000270: c2d8 61bd 77e2 83bd 49b7 4d3b 1e31 e9bb
00000280: 6b2e 76bd 8798 643c c45a dfbb 6e3b 65bd
00000290: 429f 95bc 441c 5ebd 1432 443b a473 48bd
000002a0: 74b5 873d 28a6 053c d3f1 8d3d 2e25 e13b
000002b0: 78fa 523d 4471 e4bc 2b52 96bc 7e56 82bd
000002c0: 5f94 863b 8641 55bd d9c6 3dbd c6e9 663d
000002d0: 9206 18bd e042 be3c 5e0e 1abd 7135 45bd
000002e0: c8da 1cbd b672 d13c c3c6 54bd 734f 59bd
000002f0: b2c3 82bd 725f cdbc a31a 1fbd fa44 52bd
00000300: 70f1 2abc 6171 16bd 1591 6b3d 764e b6bc
00000310: 29eb 9e3c 5601 133d b182 c3bc 1ed0 61bc
00000320: 23f3 86bc 97fc 423c aab6 253d 07c7 14bd
00000330: bce6 4ebd 2eb4 913c 7831 a7bb f355 9b3c
00000340: 7df3 e5bc 8934 4dbd 317f 043c 7935 593d
00000350: ae78 013c 967c 1e3d 363e ccba 083f 3f3d
00000360: 3ece ee3b 358e 133c d9f5 193d e68e 82bb
00000370: e7fb 423d b034 0dbc f227 27bd 09b1 313c
00000380: 8570 79bc 5381 3dbd 19aa 1ebd e801 3fbd
00000390: 5d54 71bc 8736 49bd 4423 4cbd e23c 1ebd
000003a0: 773b e3bb e81e 2d3b f387 6abc cd4f 04ba
000003b0: f8f1 063d 5fcc 0f3d eace 8dbc d6b1 90bc
000003c0: efb7 023d 2884 713d 379b 31bd c173 98bc
000003d0: 251d 0bbc 18b7 1f3d b5e8 91bd 0d8f d4bb
000003e0: fa71 5bbd ed06 11bd 3317 03bd a293 eb3c
000003f0: be0e be3a 631f 2bbd 750d ceba 13f8 3e3d
