rlgpu/logs/cut_407/model_55.pt (torch, 868293 bytes, 16 tensors)

log_std f4 [3]
0	0xbc9c1e46	-0.019057404
1	0xbbe8e8fa	-0.007107851
2	0x3a2ed4d9	0.000666929

actor.0.weight f4 [256, 259]
0	0x3d142515	0.036168177
1	0x3d2481db	0.040162902
2	0x3d65129a	0.055925943
3	0xbcd82c3f	-0.026388286
4	0xbd842a53	-0.06453385
5	0x3d9dc268	0.07703096
6	0x3d5d3e57	0.05401453
7	0xbd99f289	-0.07516963
8	0x3cfd2e43	0.030905848
9	0x3d0487f2	0.03235621
10	0x3c99223d	0.018693084
11	0xbda49120	-0.08035493
12	0x3d8f6ee3	0.07003572
13	0xbdbb9b93	-0.09160533
14	0xbcc34468	-0.02383633
15	0xbda67550	-0.08127844
16	0xbcc116ee	-0.023570504
17	0xbd0b83d1	-0.034061257
18	0xbe1fb859	-0.15597667
19	0x3d08b436	0.033374988
20	0x3d78392c	0.0606014
21	0xbd9d47ec	-0.07679734
22	0xbdc64c04	-0.096824676
23	0x3c87da1a	0.016583491
24	0x3dd723fa	0.10504909
25	0x3ba14725	0.004921811
26	0x3d92a0e8	0.07159597
27	0xbc5fbb1e	-0.013655452
28	0xbb698cc4	-0.0035636881
29	0xbd4befae	-0.049789123
30	0x3c7f5541	0.015584291
31	0xbdb33ce4	-0.08751848
32	0x3cdf1320	0.0272308
33	0x3dda48f4	0.10658446
34	0x3dc09c79	0.09404845
35	0xbcff1d13	-0.031141793
36	0x3d73634f	0.05942088
37	0xbc0c48b8	-0.008562259
38	0xbd66d163	-0.05635203
39	0x3c766ec7	0.01504106
40	0xbc699dd3	-0.01425882
41	0xbca9ac04	-0.020711906
42	0x3e303c01	0.1721039
43	0x3e1bb3f3	0.15205364
44	0xbdc87697	-0.09788244
45	0x3e20f573	0.15718631
46	0x3da3f602	0.08005907
47	0xbda12df6	-0.078700945
48	0x3cd626af	0.026141493
49	0xbd91064f	-0.070812814
50	0xbceb0fc7	-0.028694047
51	0xbe0fb2c0	-0.14033031
52	0xbd289534	-0.041157916
53	0x3dc5e3f3	0.096626185
54	0xbd67023a	-0.056398608
55	0x3d681930	0.056664646
56	0x3e6595ee	0.22420475
57	0x3dc381e0	0.09546256
58	0x3c8c38ca	0.017116923
59	0xbe19209f	-0.1495385
60	0x3c88be15	0.0166922
61	0xbd1e2387	-0.0386081
62	0xbbc450ad	-0.0059910626
63	0x3c973156	0.018456142
64	0xbd2d255d	-0.04227196
65	0x3d0050d7	0.031327095
66	0xbdba7a16	-0.09105317
67	0x3dadd72e	0.08488308
68	0xbcd6a88f	-0.026203422
69	0xbd2156b9	-0.039389346
70	0xbda1089b	-0.078629695
71	0x3d92f8bb	0.07176348
72	0xbdac88bf	-0.0842452
73	0xbcc687b5	-0.024234632
74	0xbc98f050	-0.018669277
75	0xbd32f7fe	-0.043693535
76	0xbe7f905f	-0.24957417
77	0xbbbaacc8	-0.0056968667
78	0x3d0e0441	0.034672026
79	0xbc4c5079	-0.012470358
80	0x3d200ed6	0.03907665
81	0x3e051b11	0.12998606
82	0xbdc516ca	-0.09623487
83	0x3bf9f172	0.0076276595
84	0xbd5e8570	-0.054326475
85	0x3e0ab288	0.13544667
86	0xbd86af27	-0.065763764
87	0xbe05cfcc	-0.1306755
88	0xbdbdea04	-0.092731506
89	0xbdd0014c	-0.10156497
90	0x3d8dcd42	0.069239154
91	0x3d8b5be9	0.0680464
92	0x3c1406c4	0.009034816
93	0x3d0c72c3	0.034289133
94	0x3e352a5c	0.1769194
95	0x3e054311	0.13013865
96	0xbd014d42	-0.03156782
97	0xbd920b93	-0.07131114
98	0xbca4b706	-0.020106804
99	0x3db12cd9	0.08651132
100	0x3d958cc6	0.07302241
101	0xbdb9d7cb	-0.09074362
102	0xbc6aff20	-0.014343053
103	0xbc2d916d	-0.010593754
104	0x3dd9f9ba	0.10643335
105	0xbd4cf774	-0.050040677
106	0xbd4d8af2	-0.050181337
107	0x3dd24329	0.10266716
108	0xbae42160	-0.0017404966
109	0x3e516948	0.20450318
110	0xbd05058a	-0.032475986
111	0x3df0aeaf	0.11752068
112	0x3cdfd312	0.027322326
113	0xbd248a7d	-0.040171135
114	0xbddc6829	-0.107620545
115	0xbdd65018	-0.104644954
116	0xbd4ab5e4	-0.04948987
117	0x3dd9042e	0.105965
118	0xbd95400f	-0.07287609
119	0xbc762fc8	-0.01502604
120	0xbd95d13d	-0.073153
121	0x3e1e0c9c	0.15434498
122	0xbdbdebab	-0.09273466
123	0x3c594b76	0.01326262
124	0x3d3fd139	0.04683039
125	0x3de17b05	0.11009792
126	0x3c86324b	0.016381403
127	0xbd42de3f	-0.04757523
128	0x3d6d8e7b	0.057997208
129	0x3ddde094	0.108338505
130	0x3d8cdd66	0.06878166
131	0x3d943c8e	0.072381124
132	0xbd91122d	-0.07083545
133	0xbd724b54	-0.05915387
134	0xbd774373	-0.06036706
135	0x3e4812b8	0.1953839
136	0xbd78b48c	-0.060719058
137	0xbdc080c9	-0.09399564
138	0x3d91bf40	0.07116556
139	0xbdc8f9f6	-0.09813301
140	0x3d317cc7	0.043331888
141	0xbe405448	-0.18782151
142	0xbc87215d	-0.016495401
143	0xbc715bef	-0.014731391
144	0xbdbff97a	-0.09373756
145	0x3c8924ac	0.01674112
146	0x3e07b230	0.13251567
147	0xbbbb441e	-0.0057149073
148	0xbd9cc4eb	-0.076547466
149	0xbd990430	-0.07471502
150	0xbe07f11e	-0.13275573
151	0x3dad16bf	0.08451604
152	0xbe266af1	-0.16251732
153	0x3cc7c79e	0.024387177
154	0xbc32e345	-0.010918443
155	0x3e01f40c	0.12690753
156	0x3e1fd1d6	0.1560739
157	0x3d85f494	0.0654079
158	0xbd3108ed	-0.043221403
159	0x3e00e23a	0.12586299
160	0x3dff29c6	0.124591395
161	0x3d35aeff	0.044356342
162	0xbdfc0fac	-0.12307677
163	0xbdaa2609	-0.08308036
164	0x3b2bf0b0	0.002623599
165	0x3d3ca6cf	0.04605752
166	0xbd6fc9dc	-0.058542117
167	0xbce8605e	-0.028366264
168	0xbe43a8bf	-0.1910734
169	0xbd64e3f3	-0.05588145
170	0x3d953347	0.07285171
171	0xbe21ddca	-0.15807262
172	0x3d7d9e88	0.061918765
173	0x3dd65e6f	0.104672305
174	0x3d841397	0.06449049
175	0xbd31a3a8	-0.043368965
176	0x3e041537	0.12898718
177	0xbd8c71c5	-0.06857637
178	0xbdb3b729	-0.087751694
179	0xbc7b0659	-0.015321338
180	0x3e0ab0e6	0.13544044
181	0x3d2e1f58	0.04251036
182	0xbdafa9bf	-0.085772984
183	0x3cc7f500	0.024408817
184	0xbe4d1621	-0.20027973
185	0xbcb8c647	-0.022555484
186	0x3d3b92ca	0.045794286
187	0xbd121801	-0.035667423
188	0xbdea4eaf	-0.11440789
189	0xbd9d5486	-0.07682137
190	0xbe21bc97	-0.15794598
191	0xbd4d78a5	-0.050163884
192	0xbcce4a74	-0.025181986
193	0xbd31322e	-0.043260746
194	0x3e28719b	0.16449587
195	0x3d5f8cb9	0.054577563
196	0x3e01dfc1	0.12683012
197	0xbcb68895	-0.022281924
198	0xbc8d02c2	-0.01721323
199	0x3e235489	0.15950216
200	0xbd15120a	-0.036394157
201	0xbe69af8e	-0.22820875
202	0x3cc1a8bf	0.023640035
203	0x3dc2e073	0.095154665
204	0x3dc3c010	0.095581174
205	0xbd06bf8f	-0.03289753
206	0x3db9ae2b	0.09066423
207	0xbcb6b0cc	-0.0223011
208	0xbdc4c6e8	-0.09608251
209	0xbe44f447	-0.1923381
210	0xbd40cd4c	-0.047070786
211	0x3d66f5b6	0.056386672
212	0xbd5a4208	-0.05328563
213	0xbdabbcae	-0.08385597
214	0xbcabaaaa	-0.020955402
215	0x3e52cdbd	0.20586295
216	0x3d957199	0.07297058
217	0x3d301a95	0.0429941
218	0xbd863ab9	-0.06554169
219	0x3da6b520	0.081400156
220	0x3d882baf	0.06648957
221	0xbc1e715e	-0.0096705835
222	0xbb4d24eb	-0.0031302522
223	0x3884a606	6.325175e-05
224	0xbdf311ab	-0.11868604
225	0x3d90d582	0.070719734
226	0xbd2ec019	-0.042663667
227	0xbde83816	-0.113388225
228	0x3dd1c991	0.10243524
229	0x3d5c7aae	0.053827934
230	0x3da5bb20	0.08092332
231	0x3d0b1a01	0.033960346
232	0x3dc6ea99	0.09712715
233	0x3d996b67	0.074911885
234	0xbdc42b3e	-0.0957856
235	0x3cf1b006	0.02950288
236	0xbddade08	-0.1068688
237	0xbe1fbc0d	-0.1559908
238	0x3d1c1f27	0.038115647
239	0xbd6b1ca2	-0.057400353
240	0xbc91b363	-0.017785734
241	0xbe1952ed	-0.1497304
242	0x3e11ad83	0.14226346
243	0xbbb7c6d5	-0.0056084194
244	0x3deea7fe	0.11653136
245	0x3db0da70	0.08635414
246	0x3c04c993	0.0081047
247	0x3c97ac5b	0.018514803
248	0x3e24e9a4	0.16104752
249	0xbccaf13c	-0.024773233
250	0x3dd0cca4	0.10195282
251	0xbbbdc56b	-0.0057913563
252	0xbdbbc26c	-0.091679424
253	0x3daeac6a	0.08528979
254	0xbc242a08	-0.010019787
255	0x3d22e71e	0.03977119

actor.0.bias f4 [256]
0	0xbc8fac8a	-0.017538328
1	0xbd4a29d0	-0.04935628
2	0xbc6e6c5f	-0.014552205
3	0xbca6f7e5	-0.020381877
4	0xbc5686d1	-0.013093666
5	0x3c338f99	0.010959529
6	0x3d696375	0.056979615
7	0x3d0919d5	0.0334719
8	0xbc3366b7	-0.010949782
9	0x3d36fd22	0.044675
10	0x3d4c1305	0.049822826
11	0x3cbf8ba4	0.023382016
12	0x3d940c9b	0.07228967
13	0x3c6aad12	0.01432349
14	0xbc8285f7	-0.01593302
15	0x3c0c5c4a	0.008566925
16	0x3c3f24e2	0.011666508
17	0x3c4f3051	0.012645797
18	0x3c91d783	0.01780296
19	0xbd2954e4	-0.041340724
20	0x3cbe533d	0.02323305
21	0x3a8b0d37	0.0010608797
22	0x3d497071	0.049179498
23	0xbd642b35	-0.055705268
24	0x3d02fbf7	0.031978574
25	0xbd6b0201	-0.057374958
26	0xbca4fb05	-0.020139227
27	0x3ced06cb	0.028933903
28	0xbd66f6b7	-0.05638763
29	0xbd00d5d0	-0.031453907
30	0x3ca7036d	0.020387376
31	0xbd0536c5	-0.032522935
32	0x3caf3a12	0.021389995
33	0x3d635fdf	0.05551135
34	0x3c4e174a	0.012578795
35	0xbcdeb3f7	-0.027185423
36	0xbd63fc4f	-0.055660542
37	0x3d1d69d9	0.038431022
38	0x3d6f32e9	0.05839816
39	0xbcd8b464	-0.026453204
40	0x3d7106e9	0.05884448
41	0xbc311b44	-0.010809723
42	0x3d88f09a	0.06686516
43	0x3d43f881	0.047844414
44	0xbd4e807f	-0.050415512
45	0x3d5ade2e	0.053434543
46	0xbd00112f	-0.031266388
47	0x3d626ce5	0.05527963
48	0x3d2d3de6	0.04229536
49	0xbce7b9a7	-0.028286768
50	0xbd2723ad	-0.040805507
51	0x3d401e38	0.04690382
52	0x3b355ce2	0.002767377
53	0x3d21e4da	0.03952489
54	0xbd3cb4f4	-0.046071008
55	0xbd2b882a	-0.041877903
56	0xbbeaabe6	-0.007161605
57	0x3b3b47c4	0.0028576711
58	0xbc0c7647	-0.008573121
59	0x3ccd1b77	0.02503751
60	0x3c98d872	0.018657897
61	0xbd437abb	-0.047724467
62	0xbd8e8f63	-0.069609426
63	0x3d81b59f	0.063334696
64	0xbd77e203	-0.060518276
65	0xbd5d7507	-0.054066684
66	0xbc99ee54	-0.018790402
67	0x3c59742a	0.013272325
68	0x3cee7f13	0.029113328
69	0xbc99c27d	-0.018769497
70	0xbc52dc1f	-0.012869864
71	0xbc9b4ba9	-0.018956976
72	0x3d093a1e	0.03350269
73	0xbc3b4ffa	-0.011432642
74	0x3cb84d6b	0.022497853
75	0xbd60d792	-0.054893084
76	0xbb9a7f6f	-0.0047148983
77	0x3cefe2d8	0.029282972
78	0xbd22eca3	-0.039776456
79	0xbd2f2e16	-0.04276856
80	0x3d1d1b82	0.03835631
81	0xbd5c409c	-0.053772554
82	0xbd8a8cf3	-0.06765165
83	0x3d3f7e9a	0.046751596
84	0x3d1b1359	0.03786025
85	0xbd766a1f	-0.0601598
86	0xbd6d20a6	-0.057892464
87	0xbd53031b	-0.051516633
88	0x3d0e2c42	0.034710176
89	0xbd2891f9	-0.041154835
90	0xbd6836d4	-0.056692913
91	0x3d21412b	0.03936879
92	0xbce744f6	-0.028231125
93	0xbbf610c4	-0.007509323
94	0xbcd2747e	-0.025690313
95	0x3cdf4a66	0.027257156
96	0x3d025f3c	0.031829104
97	0x3d570142	0.052491434
98	0xbd267bd0	-0.04064542
99	0x3c8c1dce	0.017104056
100	0xbc484418	-0.012223266
101	0xbb8fa35a	-0.0043834867
102	0xbd7bdcb9	-0.061489794
103	0xbd53ba63	-0.051691424
104	0x3aa5128d	0.001259403
105	0xbd026e47	-0.03184345
106	0x3d13f822	0.03612531
107	0x396ec447	0.00022770568
108	0x3bfa324e	0.0076353913
109	0x3b362559	0.0027793257
110	0xbc290e18	-0.010318302
111	0x3c998ba3	0.018743342
112	0x3d159ef5	0.036528546
113	0xbd15ddfe	-0.03658866
114	0x3c40944c	0.011754107
115	0x3cfa46fd	0.030551428
116	0xbca0a3f2	-0.019609425
117	0xbce2d3a5	-0.02768881
118	0xbca21ce9	-0.019789176
119	0xbd81d3b7	-0.063392095
120	0xbcee375b	-0.02907913
121	0xbc4953b9	-0.012288027
122	0xbc70262a	-0.0146575365
123	0xbd55f5a5	-0.052236218
124	0x3c9ae601	0.018908503
125	0x3d6be494	0.057591036
126	0xbd00572a	-0.031333126
127	0xbd122f52	-0.03568966
128	0xbc2ec90b	-0.01066805
129	0xbccb6db9	-0.024832593
130	0x3d3168e8	0.043312937
131	0x3c374444	0.011185709
132	0xbd5f26b7	-0.05448028
133	0xbba9b1a0	-0.0051786453
134	0xbca4435f	-0.020051656
135	0xbd204378	-0.039126843
136	0xbd2785d8	-0.040899128
137	0xbd467d00	-0.048459053
138	0xbcd5df6a	-0.026107509
139	0xbb50f6a0	-0.0031885281
140	0xbd7c49a2	-0.06159366
141	0x3d1381f3	0.0360126
142	0x3d1ef69c	0.038809404
143	0x3d3ce35f	0.046115275
144	0x3d5bdb9f	0.053676244
145	0x3c01d646	0.007924622
146	0x3d2b0818	0.041755766
147	0x3c87d3e8	0.016580537
148	0xba8c5cce	-0.001070881
149	0x3cb8c04b	0.02255263
150	0x3d35c84e	0.04438048
151	0x3d0d5b85	0.034511108
152	0xbc6e1ea9	-0.014533677
153	0x3d4ae2f8	0.04953286
154	0x3d4edde1	0.05050457
155	0x3d47fdec	0.048826143
156	0xbd2259ac	-0.0396363
157	0x3d0deb40	0.03464818
158	0x38c4881a	9.371359e-05
159	0xbd13ef49	-0.036116872
160	0xbd63da2a	-0.05562798
161	0x3ca6cea0	0.020362198
162	0x3ce4b504	0.027918346
163	0x3cbeb34c	0.023278855
164	0xbcf65a5f	-0.03007239
165	0xbd76b95f	-0.060235377
166	0x3d7fe441	0.06247354
167	0x3c974307	0.018464578
168	0x3cd7fa5c	0.026364498
169	0xbc2e6985	-0.010645275
170	0xbd3454fe	-0.044026367
171	0x3d170ac3	0.036875498
172	0x3caea8d9	0.021320747
173	0x3d549180	0.051896572
174	0xbcf8da85	-0.030377636
175	0xb8c573a7	-9.415234e-05
176	0x3d0bf919	0.034173105
177	0x3d52a732	0.05142898
178	0x3cba0942	0.022709493
179	0x3d62a527	0.055333283
180	0xbd3b9490	-0.045795977
181	0xbd6055ff	-0.054769512
182	0xbd2520ce	-0.040314488
183	0x3d3ee021	0.046600465
184	0x3cdc1fb0	0.026870579
185	0xbbea5903	-0.0071517243
186	0x3d3ff90e	0.046868376
187	0xbccf3e1b	-0.025298169
188	0xbd5c3684	-0.053762928
189	0xbc3c04ef	-0.011475786
190	0xbbbb441c	-0.0057149064
191	0xbd00be4d	-0.031431485
192	0xbd1226c6	-0.03568151
193	0xbd6d46c4	-0.057928815
194	0xbd2b7217	-0.04185685
195	0xbcdd29d3	-0.026997482
196	0x3d2380eb	0.039917868
197	0x3d6c48a3	0.05768646
198	0x3cd9ac64	0.02657146
199	0x3da07445	0.07834677
200	0xbd578210	-0.05261427
201	0x3cc546a7	0.024081541
202	0x3d472fe5	0.04862966
203	0xbc2d9b67	-0.010596133
204	0xbd5bf3a0	-0.053699136
205	0x3cadcbea	0.021215398
206	0xbcca9a08	-0.024731651
207	0xbc6c0560	-0.014405578
208	0x3d1117aa	0.03542296
209	0xbc9342e9	-0.017976241
210	0xbd00ba95	-0.03142794
211	0xbc24aab1	-0.010050462
212	0x3d1c9f78	0.03823802
213	0xbcc2a6ea	-0.023761231
214	0x3d7300f4	0.05932708
215	0x3cdc0ad1	0.026860626
216	0x3c613bdd	0.013747183
217	0xba9f8e91	-0.0012173225
218	0xbc80aacd	-0.015706444
219	0xbcd01f4a	-0.025405545
220	0xbd2d3ae2	-0.042292483
221	0xbd438ac4	-0.04773976
222	0xbc75d720	-0.015004903
223	0x3c4ed57a	0.012624139
224	0x3d4ff762	0.050773032
225	0x3d3828e0	0.044960856
226	0xbbf9a145	-0.007618102
227	0x3ca8cdf4	0.020606019
228	0x3d7428f8	0.059609383
229	0x3d8c3016	0.06845109
230	0xbd7ad554	-0.0612386
231	0xbd2280d7	-0.039673652
232	0x3cbaac61	0.022787275
233	0xbcc884ad	-0.024477327
234	0x3a091a95	0.0005230096
235	0xbd76f71b	-0.060294252
236	0xbd52a2fd	-0.05142497
237	0x3c5213a0	0.012822062
238	0xbd51f795	-0.051261503
239	0xbd71dc6c	-0.0590481
240	0xbb31e305	-0.002714337
241	0x3cd7d709	0.026347654
242	0xbd4ca009	-0.04995731
243	0xbbf69d40	-0.00752607
244	0xbd581030	-0.052749813
245	0x3d40541d	0.046955217
246	0x3d12ec49	0.03586987
247	0xbce8eeff	-0.028434275
248	0x3c93cef6	0.018043023
249	0x3b5e9a34	0.0033966424
250	0x3d16ff22	0.036864407
251	0x3d338fed	0.04383843
252	0x3d5ced42	0.053937204
253	0x3d32d8f5	0.043663938
254	0x3c378247	0.011200494
255	0x3d4b77f3	0.04967494

actor.2.weight f4 [128, 256]
0	0xbd235b64	-0.03988208
1	0x3e287447	0.16450606
2	0xbe2254ea	-0.15852705
3	0x3c395f08	0.011314161
4	0xbd8f4129	-0.0699485
5	0xbdfa50ed	-0.122224666
6	0x3cd3e746	0.025867116
7	0x3dca4b93	0.09877696
8	0x3ceac7f9	0.028659808
9	0x3e2b8568	0.16750109
10	0xbd85fa84	-0.06541923
11	0xbd8f06b3	-0.069837
12	0xbd96ea44	-0.07368901
13	0x3de0db2c	0.10979304
14	0x3c3ee226	0.011650598
15	0x3d7500ba	0.059815146
16	0xbe1dfa21	-0.15427448
17	0xbd9736a7	-0.07383471
18	0xbddc84a6	-0.10767488
19	0x3e0a7e7c	0.13524812
20	0x3e775ae1	0.24155761
21	0xbcaf91de	-0.02143186
22	0xbe06934a	-0.13142124
23	0x3da18820	0.07887292
24	0xbe2abe34	-0.16674119
25	0xbe1523f7	-0.14564501
26	0x3cad8492	0.021181379
27	0x3d623fc7	0.055236604
28	0xbd8c4f78	-0.06851095
29	0x3d1476b4	0.036246017
30	0xbd0b355b	-0.03398643
31	0xbc9a5959	-0.018841432
32	0x3c8c53bd	0.017129773
33	0xba881f08	-0.0010385225
34	0x3da2c342	0.07947399
35	0x3ca3b5c9	0.019984143
36	0xbe4a0f1c	-0.19732326
37	0x3c03b203	0.008038047
38	0x3d93089d	0.07179377
39	0xbd3d02c6	-0.046145223
40	0x3db15d20	0.0866034
41	0x3e06207b	0.13098328
42	0xbd960608	-0.07325369
43	0x3cd8766c	0.026423655
44	0x3d5bb78e	0.05364185
45	0xbdacc80e	-0.08436595
46	0x3d4febef	0.050762113
47	0x3d30b294	0.043139055
48	0x3d10023a	0.035158373
49	0xbe445350	-0.19172406
50	0xbb46ea16	-0.0030351928
51	0x3da4301e	0.0801699
52	0xbcb4fe4d	-0.022093916
53	0xbdcf29d7	-0.10115402
54	0x3d31a008	0.04336551
55	0xbd167d78	-0.03674075
56	0xbe18a323	-0.14905982
57	0x3cc57b35	0.024106601
58	0x3ce8d358	0.028421089
59	0xbd71b3e1	-0.059009437
60	0xbc765da2	-0.015036972
61	0x3e0deb8a	0.13859382
62	0x3dca7aaf	0.09886681
63	0xbe640c12	-0.2227023
64	0x3d94eee2	0.07272126
65	0xbde5c978	-0.11220068
66	0x3d019b4f	0.031642254
67	0xbd947c54	-0.07250276
68	0xbbb96234	-0.0056574587
69	0xbd8f1b15	-0.06987587
70	0xbdbfee3f	-0.09371614
71	0xbd80a995	-0.06282345
72	0xbd9ff5ae	-0.078105316
73	0xbcf3aeba	-0.029746402
74	0xbcfd703d	-0.030937308
75	0x3e03d986	0.12875947
76	0xbdf8a903	-0.121416114
77	0x3c0ece3f	0.008716165
78	0xbcc696ab	-0.024241766
79	0x3d913a25	0.07091168
80	0x3d303999	0.04302368
81	0xbc211809	-0.009832391
82	0x3dbe352d	0.09287486
83	0xbe4eaa0e	-0.20182058
84	0x3d661bf8	0.056179017
85	0xbb091782	-0.0020918553
86	0xbdc88bf4	-0.09792319
87	0x3e7ded7a	0.24797621
88	0xbce18d3f	-0.027533172
89	0xbdc73349	-0.09726579
90	0xbbb35ae5	-0.005473482
91	0x3ca2523d	0.019814605
92	0x3d560073	0.052246522
93	0x3d1f79ed	0.038934637
94	0xbc74261f	-0.014901667
95	0x3d46d268	0.048540503
96	0x3c646bc8	0.013941713
97	0x3c5cfb64	0.013487671
98	0xbd1d2704	-0.038367286
99	0x3c9b3684	0.018946894
100	0xbdee262c	-0.116283745
101	0x3e20ce48	0.1570369
102	0x3da62055	0.081116356
103	0x3e0c4e91	0.13701846
104	0x3d4c8dfc	0.049940094
105	0xbd4fc194	-0.05072172
106	0x3d63e03b	0.055633765
107	0x3d812e43	0.06307652
108	0xbdb3f9ac	-0.087878555
109	0x3cdda9f0	0.027058572
110	0x3d7d7e59	0.061888073
111	0x3ccd6ee4	0.02507729
112	0xbda021c5	-0.07818941
113	0x3c073fd5	0.008254965
114	0xbddfd9e8	-0.10930234
115	0xbe08a782	-0.13345149
116	0x3da92294	0.082585484
117	0xbc6c80f0	-0.014435038
118	0xbdbe75ad	-0.092997886
119	0xbc322096	-0.010872027
120	0xbce2bf2b	-0.027679047
121	0x3e2679d9	0.16257419
122	0x3d3e92c0	0.04652667
123	0xbdb1aa08	-0.08675009
124	0xbd9a66a1	-0.07539106
125	0x3d9b31aa	0.07577832
126	0x3d341a23	0.04397024
127	0x3dd870ab	0.10568365
128	0x3d624c93	0.055248808
129	0x3c740142	0.014892878
130	0x3d3a9f50	0.04556209
131	0x3d924129	0.071413346
132	0xbd313de6	-0.04327192
133	0x3e26880d	0.16262837
134	0xbd91cc28	-0.07119018
135	0x3cbc88d3	0.023014462
136	0xbcfc10fe	-0.030769821
137	0x3e04bf49	0.12963594
138	0xbdf0a752	-0.11750664
139	0xbe200697	-0.15627514
140	0x3dc21abf	0.09477758
141	0x3b391677	0.002824215
142	0xb9e6a73f	-0.00043993627
143	0xbe2b08f5	-0.16702636
144	0xbc684828	-0.01417736
145	0xbdbc0fc3	-0.09182694
146	0x3d52146c	0.051289007
147	0x3cc6b705	0.024257192
148	0x3d6289b2	0.055307098
149	0x3da02225	0.078190126
150	0x3d95a484	0.073067695
151	0x3d58bb1f	0.052912828
152	0xbcd8f841	-0.026485564
153	0x3e0eb974	0.13937932
154	0xbc32e6a4	-0.010919247
155	0x3c05449a	0.008134032
156	0x3d060b1e	0.032725446
157	0xbdca4885	-0.09877113
158	0xbca66297	-0.020310683
159	0xbd889d04	-0.06670573
160	0x3e6a45f4	0.22878247
161	0xbe23adb9	-0.15984239
162	0x3b6c7ed2	0.0036086333
163	0xbd112f9a	-0.035445787
164	0x3cde66c9	0.027148621
165	0xbe48bdf6	-0.19603714
166	0x3cb08cdc	0.021551542
167	0xbe0ae4b8	-0.13563812
168	0x3d86f3e5	0.06589488
169	0xbcbe42b8	-0.023225173
170	0x3cdb9f95	0.026809493
171	0x3d7ed5b2	0.062215514
172	0xbdd809db	-0.10548755
173	0x3d74aa01	0.05973244
174	0xbc052727	-0.00812701
175	0x3c4c473e	0.012468157
176	0xbdaae5fc	-0.08344647
177	0x3e31def8	0.17370212
178	0x3df03ca5	0.11730317
179	0x3ccf3a7a	0.025296438
180	0xbd5516e9	-0.052023802
181	0xbda70ef0	-0.08157146
182	0xbe059d08	-0.13048184
183	0x3e05b891	0.13058688
184	0x3c1aa0f2	0.009437786
185	0x3daacfdc	0.08340427
186	0x3b80d620	0.0039317757
187	0x3dea5eb8	0.114438474
188	0xbd39af31	-0.04533309
189	0xbcb6ecff	-0.022329805
190	0x3ce5e204	0.028061874
191	0x3e04275a	0.12905636
192	0x3d5c6cc7	0.053814676
193	0x3d8ec1a3	0.06970527
194	0x3d1ee309	0.038790736
195	0xbc0ad01d	-0.00847247
196	0x3cbd244e	0.0230886
197	0xbcac8172	-0.021057818
198	0x3dafbc5c	0.085808486
199	0x3ac0ca47	0.0014708721
200	0x3d87745b	0.0661399
201	0x3c899ded	0.016798938
202	0xbdea5728	-0.11442405
203	0xbd0ac947	-0.03388336
204	0xbb161248	-0.002289908
205	0xbd8e4f64	-0.06948736
206	0x3c0fd48e	0.008778704
207	0x3d98bd6a	0.07458003
208	0x3db5220c	0.088443846
209	0xbd8911dc	-0.066928595
210	0x3b36b1b1	0.0027876908
211	0xbe23bcaa	-0.15989938
212	0x3d73bdf9	0.059507344
213	0xbde5f58e	-0.112284765
214	0x3d5dab1f	0.054118272
215	0xbe026161	-0.1273246
216	0x3c1d9adc	0.009619441
217	0xbe159601	-0.14608003
218	0x3daffd31	0.08593214
219	0xbdb78dd1	-0.08962596
220	0x3d73c433	0.059513282
221	0xbd55c523	-0.052189957
222	0x3c7c182e	0.015386624
223	0x3da4649d	0.08027003
224	0x3d8d88b1	0.069108374
225	0xbdb37d2a	-0.087641075
226	0x3dcf14b9	0.101113744
227	0xbd8002d9	-0.06250543
228	0x3d94f0df	0.07272505
229	0xbdaa5595	-0.08317105
230	0x3e255b11	0.1614802
231	0xbe0137c5	-0.1261893
232	0x3c9b6a59	0.018971609
233	0xbb937d96	-0.004501055
234	0xbda5fcc4	-0.08104852
235	0x3be11370	0.006868772
236	0xbdb8a83a	-0.09016462
237	0x3d62af8b	0.055343192
238	0xbd059fe0	-0.03262317
239	0xbd58e167	-0.052949335
240	0x3d9c9996	0.07646482
241	0xbc92db60	-0.017926872
242	0x3cb40446	0.021974694
243	0xbe2d32f8	-0.16913974
244	0x3cef5ded	0.029219592
245	0x3e5c7236	0.21527943
246	0xbdcb9598	-0.09940642
247	0xbe0ed09e	-0.13946769
248	0x3dfd37cb	0.12364157
249	0x3cc69cef	0.024244754
250	0xbc3eb033	-0.011638689
251	0xbdf731a0	-0.12070012
252	0xbe03fc27	-0.12889157
253	0xbd3a1f9a	-0.045440294
254	0x3dfbeaa3	0.12300613
255	0xbd8ce242	-0.06879093

actor.2.bias f4 [128]
0	0xbd04d5b4	-0.032430366
1	0x3d0ab9b0	0.03386849
2	0xbd0a3249	-0.033739362
3	0xbd036ac3	-0.032084238
4	0xbce07700	-0.027400494
5	0x3d14371f	0.03618538
6	0xbac7a04e	-0.001523027
7	0xbcb2ea80	-0.021840334
8	0x3bc58d4f	0.006028808
9	0x3d4d9568	0.050191313
10	0x3b841d92	0.0040318454
11	0x3d4882fc	0.04895304
12	0xbd76f8f6	-0.06029602
13	0xbd672785	-0.056434173
14	0xba7b2bda	-0.00095814245
15	0xbd69d16f	-0.057084497
16	0x3c2d6f4f	0.01058562
17	0xbd34b95d	-0.04412209
18	0xbc9940eb	-0.018707713
19	0x3c4fb793	0.012678045
20	0x3cdf3cfc	0.02725076
21	0xbd283e91	-0.041075293
22	0xbd6614e3	-0.056172263
23	0x3d08c86a	0.033394255
24	0xbd0dcc07	-0.034618404
25	0xbd13da6c	-0.036096975
26	0xbbeedab5	-0.0072892555
27	0x3d19b692	0.03752763
28	0xbccde067	-0.025131417
29	0x3b8970f6	0.004194374
30	0x3d14a53d	0.036290396
31	0x3d3bdcca	0.045864858
32	0x39c93993	0.00038380604
33	0xbd5c4507	-0.053776767
34	0x3d26c831	0.04071826
35	0x3b8b219d	0.0042459504
36	0xbabfc902	-0.0014632049
37	0x3d5c56bb	0.05379365
38	0xbbc413cd	-0.0059838057
39	0xbd2f0c69	-0.042736445
40	0x3c5287ca	0.012849757
41	0x3c2317f3	0.00995444
42	0xbcfb5278	-0.030678973
43	0xbc04b078	-0.008098714
44	0x3c00399d	0.007826236
45	0xbd38abb7	-0.045085635
46	0x3cc94b25	0.024571965
47	0xbd604748	-0.05475548
48	0xbc7f50c0	-0.015583217
49	0x3d499882	0.04921771
50	0xbd70428a	-0.058657207
51	0xbbcd0f0b	-0.006257897
52	0xbcc0ba79	-0.023526417
53	0xbcd22979	-0.025654541
54	0x3cc7a762	0.024371807
55	0x3d3f8d5b	0.046765666
56	0xbd0b5253	-0.034014057
57	0x3d44c040	0.048034906
58	0xbcd5b654	-0.026087917
59	0xbc3ec232	-0.011642979
60	0x3d296c3a	0.04136298
61	0x3ba47519	0.005018842
62	0x3cf45f0b	0.029830476
63	0x3ce6226e	0.02809259
64	0x3cabe4c0	0.0209831
65	0x3d1ff214	0.039049223
66	0xbbaa36f5	-0.0051945397
67	0x3bb641c2	0.005562038
68	0x3d34d604	0.044149414
69	0xbbc213e3	-0.005922781
70	0x3d3459ea	0.04403106
71	0xbcc17774	-0.02361653
72	0x3c8b1c24	0.016981192
73	0xbce12d87	-0.02748753
74	0xbd6d9afc	-0.058009133
75	0x3d260ab6	0.04053756
76	0xbc2ec871	-0.010667906
77	0x3d1327c4	0.035926595
78	0xbc62bb13	-0.013838547
79	0xbc3cd544	-0.011525456
80	0xbc253c7c	-0.010085221
81	0xbd657031	-0.056015197
82	0x3d04d2b9	0.032427523
83	0xb9bbae1c	-0.0003579714
84	0xbd3e4d16	-0.046460234
85	0x3d7c8e74	0.06165929
86	0x3d7652e5	0.060137648
87	0xbd588bd4	-0.052867725
88	0x3d5a9c74	0.05337186
89	0xbd26196d	-0.04055159
90	0xbd637128	-0.055527836
91	0xbcb9c27b	-0.022675743
92	0xbd4ce9c1	-0.050027613
93	0xbd10028b	-0.035158675
94	0x3d069dbf	0.032865282
95	0x3cb72eae	0.022361126
96	0xbd2a1dc9	-0.04153231
97	0x3c17fe15	0.0092768865
98	0x3bbdea70	0.0057957694
99	0x3cb59e80	0.022170305
100	0x3d08ebc6	0.033427976
101	0x3c340986	0.010988599
102	0xbd67dce9	-0.05660716
103	0xbd548fbd	-0.051894892
104	0xbd562565	-0.052281756
105	0xbc51e527	-0.012810982
106	0x3d6825de	0.056676738
107	0x3ba1ff67	0.0049437764
108	0xbd0e495a	-0.034737922
109	0xbd68d01d	-0.056839097
110	0x3c927764	0.017879196
111	0xbc922d90	-0.017843992
112	0xbd0c5bec	-0.03426735
113	0xbd233df8	-0.03985402
114	0x3d23f7e8	0.040031344
115	0x3d105aac	0.03524272
116	0xbc95e35c	-0.01829689
117	0x3c4ce5f1	0.012505994
118	0x3d7b966b	0.061422747
119	0xbd288b84	-0.041148677
120	0xbd3086e8	-0.043097407
121	0xbcb10ede	-0.021613535
122	0xbc9a6b51	-0.01885
123	0xbd558fc2	-0.05213905
124	0xbd45b924	-0.048272267
125	0xbc87d464	-0.016580768
126	0x3b1c1c18	0.0023820456
127	0x3c9c1289	0.019051807

actor.4.weight f4 [64, 128]
0	0xbd907d4c	-0.070551485
1	0xbc79ecee	-0.015254242
2	0x3dcfb1e2	0.1014135
3	0xbde5dd75	-0.1122388
4	0xbdeefd74	-0.11669436
5	0xbc42fa11	-0.011900441
6	0x3d984cf4	0.07436553
7	0xbe8862fc	-0.2663802
8	0x3d14f8e3	0.03637017
9	0xbe81788d	-0.25287285
10	0x3e07da12	0.13266781
11	0x3e2dba08	0.16965497
12	0xbdc59f6d	-0.09649549
13	0x3d230c1c	0.03980647
14	0x3d2b1ae4	0.04177369
15	0xbdd022f0	-0.10162914
16	0x3e21e71b	0.15810816
17	0xbd532576	-0.051549397
18	0x3e3ba61e	0.18325087
19	0xbd99473e	-0.074842915
20	0xbd4ada55	-0.049524624
21	0x3c387bf9	0.011260026
22	0x3e061fcb	0.13098066
23	0xbbd46dfb	-0.0064828373
24	0xbdd6ee9a	-0.104947284
25	0x3d42f310	0.047595084
26	0x3da900d6	0.082521126
27	0xbe50f252	-0.20404938
28	0x3d49f308	0.04930404
29	0xbd198c2f	-0.037487205
30	0x3ce2e85e	0.027698692
31	0x3e023b8c	0.12718028
32	0xbc6baae7	-0.014384008
33	0x3e92941d	0.28628626
34	0xbd3ecb77	-0.046580758
35	0x3d29d6e5	0.041464705
36	0x3c993674	0.018702723
37	0x3c0f7ce9	0.008757808
38	0xbbeafbab	-0.0071711144
39	0xbdb2a1ca	-0.08722265
40	0xbd01319a	-0.031541444
41	0xbcf01494	-0.029306687
42	0xbe4f36f8	-0.20235813
43	0xbe4890ac	-0.19586438
44	0xbc11ac60	-0.008891195
45	0x3dad5c79	0.084649034
46	0x3d3c7689	0.04601148
47	0xbda1d4ff	-0.07901954
48	0xbd63e6c0	-0.055639982
49	0x3d927412	0.07151045
50	0x3dd7e38d	0.10541449
51	0x3d908122	0.0705588
52	0x3e9cf290	0.3065381
53	0xbdf6c443	-0.12049153
54	0xbbdbbf46	-0.006706151
55	0xbd0393c5	-0.032123346
56	0x3e24911b	0.16070978
57	0xbe8f2806	-0.27960223
58	0x3d2be1a8	0.04196325
59	0xbd9a1f28	-0.07525474
60	0xbc845148	-0.01615204
61	0xbb6a24a3	-0.0035727404
62	0x3e4b13c6	0.19831762
63	0x3de48f36	0.11160128
64	0x3e8e7980	0.27827072
65	0x3cfde8b5	0.030994752
66	0xbeba6f59	-0.36413077
67	0x3dd1fcb6	0.10253279
68	0xbdcba5a4	-0.09943703
69	0xbda28bb8	-0.079368055
70	0xbd987b9c	-0.074454516
71	0x3e1380ff	0.14404677
72	0x3e67215b	0.22571318
73	0x3ea2c0a7	0.31787607
74	0x3e6183ed	0.22022982
75	0x3d40f693	0.04711015
76	0xbded009b	-0.11572381
77	0x3c7f0571	0.015565262
78	0x3e260ff2	0.1621702
79	0xbe08b550	-0.13350415
80	0xbdd56b4c	-0.10420856
81	0x3c616dde	0.013759105
82	0x3dcb7eda	0.099363044
83	0xbb8dff60	-0.0043334216
84	0xbe7954cf	-0.24348758
85	0xbde58018	-0.112060726
86	0xbdb48cf9	-0.08815951
87	0xbdb80686	-0.08985619
88	0x3e14d6ef	0.14535116
89	0xbe605d6b	-0.21910636
90	0xbd187ec4	-0.037230268
91	0xbddaea1c	-0.10689184
92	0xbc1c97d7	-0.009557686
93	0x3d8049cf	0.06264078
94	0x3d5a125c	0.053240165
95	0xbc3e4c78	-0.011614911
96	0x3d180147	0.037110593
97	0xbda94a37	-0.082661085
98	0x3d191657	0.03737482
99	0xbdafa97a	-0.08577247
100	0x3c18533d	0.009297189
101	0xbd69fb62	-0.057124503
102	0xbb9277a2	-0.0044698277
103	0x3d84fb79	0.06493277
104	0xbd85d2e7	-0.06534367
105	0xbda2fbfa	-0.07958217
106	0xbd7f7555	-0.062367756
107	0xbd18b0f3	-0.037278127
108	0x3d1d6e62	0.038435347
109	0x3e13b527	0.14424573
110	0x3e14dd64	0.14537579
111	0x3df1674d	0.11787281
112	0x3e05ae69	0.13054813
113	0x3dcba0c0	0.0994277
114	0xbe58c4ef	-0.21168874
115	0x3da84af5	0.08217422
116	0x3d633e08	0.05547908
117	0xbd1cfdea	-0.03832809
118	0xbe0a2886	-0.13492021
119	0xbe1e0554	-0.1543172
120	0xbe604cc8	-0.2190429
121	0x3e22b16a	0.1588799
122	0xbdf36a4c	-0.11885509
123	0x3c2e2486	0.010628825
124	0x3e1c433e	0.15260026
125	0x3e2b05f0	0.16701484
126	0xbcc1886c	-0.023624621
127	0x3d93f34b	0.07224139
128	0x3d4a0bac	0.049327537
129	0xbd2981ac	-0.04138343
130	0x3e27eecd	0.16399689
131	0x3d0bcc59	0.034130428
132	0x3c784313	0.0151527105
133	0xbe1d4451	-0.15358092
134	0xbe3dd208	-0.18537152
135	0xbdd0df5a	-0.10198851
136	0x3e29e673	0.16591816
137	0x3de8e409	0.11371619
138	0x3dfb8af6	0.12282364
139	0xbdec750e	-0.11545764
140	0x3e1e70d8	0.15472734
141	0x3e408996	0.18802485
142	0xbdaa32a8	-0.08310443
143	0xbddad2e9	-0.10684759
144	0x3eaa17d9	0.3322132
145	0x3e4415b7	0.19148909
146	0x3daeefdc	0.08541843
147	0xbe31cee7	-0.17364083
148	0xbcf22483	-0.029558426
149	0x3d879d32	0.066217795
150	0xbdcd34e6	-0.10019855
151	0xbe94c95b	-0.29059872
152	0x3ce7557b	0.028239002
153	0x3c12318b	0.008922945
154	0xbc4e27ca	-0.012582729
155	0x3c5e9f62	0.0135878045
156	0x3dc584c2	0.09644462
157	0x3dd436dc	0.10362026
158	0xbe3e826c	-0.1860444
159	0xbb735933	-0.0037132024
160	0x3db59719	0.0886671
161	0x3e3ca446	0.1842204
162	0x3d895a1e	0.067066416
163	0x3df8ce47	0.12148719
164	0x3d6a0fb8	0.057143897
165	0x3d0bf989	0.034173522
166	0x3e21039a	0.1572403
167	0x3e4cde34	0.20006639
168	0xbe1ead77	-0.15495859
169	0xbe53d738	-0.20687568
170	0x3a224d45	0.00061913236
171	0x3dccd843	0.10002186
172	0x3e555bb7	0.20835768
173	0xbca9cfef	-0.020729033
174	0xbe003470	-0.12520003
175	0x3c73f9aa	0.0148910675
176	0x3e335aa2	0.17515042
177	0x3df53fb1	0.11975039
178	0xbd7d18b2	-0.06179113
179	0xbe0a00f1	-0.13476922
180	0xbafbad86	-0.0019201494
181	0xbe304d03	-0.17216878
182	0xbd5d70db	-0.054062705
183	0x3d87743e	0.06613968
184	0xbce5d7b0	-0.02805695
185	0x3d411c7e	0.047146313
186	0xbda88364	-0.08228186
187	0x3e2d0188	0.16895115
188	0x3d143c73	0.03619046
189	0xbe2c09b9	-0.16800584
190	0xbe841ac0	-0.2580166
191	0xbcae01be	-0.021241065
192	0xbcba1b6f	-0.02271816
193	0xbd827ac9	-0.06371076
194	0x3e376e14	0.17913085
195	0x3ba1fdf6	0.0049436046
196	0xbce7ef29	-0.028312283
197	0xbe1d2f5a	-0.15350094
198	0xbe07896d	-0.13236018
199	0x3e06d86d	0.13168497
200	0xbde86476	-0.113472864
201	0x3e038e99	0.12847365
202	0xbe1a4485	-0.150652
203	0xbe8eecea	-0.27915126
204	0x3db421ef	0.08795535
205	0xbdc4c8d4	-0.096086174
206	0x3dc364fa	0.09540744
207	0x3d1b6e1a	0.037946798
208	0xbd56f0e8	-0.05247584
209	0xbe579ed0	-0.21056676
210	0x3d5186cd	0.051153947
211	0x3d864ce6	0.06557636
212	0xbd7a49f2	-0.061105676
213	0xbe51ff13	-0.2050746
214	0xbd85e3d8	-0.06537598
215	0x3e9e5631	0.30925134
216	0x3dbb4c11	0.09145368
217	0xbc1bd49e	-0.009511141
218	0xbcac8a08	-0.021061912
219	0xbd873850	-0.06602538
220	0xbd04ae07	-0.032392528
221	0xbd2d8b83	-0.042369377
222	0xbda041fd	-0.07825086
223	0x3ccb9b44	0.02485431
224	0x3d2dddd3	0.042447876
225	0x3dd93ac4	0.10606912
226	0x3ce3d701	0.027812483
227	0xbe27e7bb	-0.16396992
228	0xbcf7de3b	-0.030257335
229	0xbe5ff3a6	-0.21870288
230	0x3dc84f43	0.09780743
231	0x3e5a213b	0.21301739
232	0xbe2b7158	-0.16742456
233	0x3de3bbbe	0.11119793
234	0xbdb7700a	-0.08956917
235	0xbdb8d18a	-0.090243414
236	0x3dbca6da	0.09211512
237	0xbdd2e8f4	-0.102983385
238	0xbc4d16b9	-0.012517625
239	0x3dc058fb	0.09391972
240	0x3cfc1e2c	0.030776106
241	0x3df22506	0.11823468
242	0x3d77aef3	0.06046958
243	0x3e025886	0.12729082
244	0xbe0d1f06	-0.13781366
245	0xbdd6166d	-0.10453496
246	0xbdd820e2	-0.10553147
247	0xbc751be7	-0.014960266
248	0xbcd99433	-0.026559925
249	0xbe1b5076	-0.15167412
250	0xbd26261f	-0.0405637
251	0x3e44b551	0.19209792
252	0x3cf926ae	0.030413952
253	0xbe32c23e	-0.1745691
254	0xbe4aa29c	-0.19788593
255	0x3d526274	0.051363423

actor.4.bias f4 [64]
0	0x3b14ebbc	0.0022723516
1	0x3bae5481	0.0053201322
2	0xbd7bb056	-0.061447464
3	0xbaff0e33	-0.0019459188
4	0xbdb39a41	-0.08769656
5	0x3d1fb000	0.038986206
6	0x3d250a12	0.040292807
7	0x3d83c690	0.06434357
8	0xbd9db989	-0.07701404
9	0x3cecdb22	0.028913084
10	0x3cc40f45	0.023933062
11	0xbcfde46b	-0.030992707
12	0x3d4a047e	0.04932069
13	0x3cdf0fd6	0.02722923
14	0xbb79378e	-0.0038027498
15	0x3d7bd488	0.061481982
16	0x3cf86410	0.030321151
17	0xbc47b981	-0.012190224
18	0x3ced74c2	0.028986339
19	0xbd54b3cc	-0.05192928
20	0x3d1bf7b0	0.03807801
21	0xbda1bca6	-0.0789731
22	0xbc63634e	-0.013878657
23	0xbc2a6a1b	-0.010401274
24	0x3d99f821	0.0751803
25	0x3d988f47	0.07449203
26	0x3d7a2e03	0.061079036
27	0x3c3a9de3	0.011390182
28	0x3d9d90bd	0.07693622
29	0x3d8ca9c5	0.068683185
30	0xbd607162	-0.05479563
31	0xbdb676be	-0.08909367
32	0xbd9ca0c1	-0.07647849
33	0x3d88f619	0.066875644
34	0xbd13bf72	-0.03607125
35	0xbbdafb5b	-0.006682796
36	0x3d81dbd1	0.06340755
37	0xb9959f47	-0.00028538165
38	0x3c81268f	0.015765456
39	0x3d76bcb5	0.06023856
40	0xbc82afd7	-0.015952988
41	0xbcefde02	-0.029280666
42	0xbd8488c8	-0.064714015
43	0xbd163f72	-0.0366816
44	0xbce53b1f	-0.027982293
45	0xbd09f889	-0.033684287
46	0x3d8625c8	0.06550175
47	0xbdb54d75	-0.088526644
48	0xbc372e04	-0.011180405
49	0xbcf3c71c	-0.029758029
50	0x3d15a679	0.036535714
51	0x3dae9a66	0.08525543
52	0xbc9dd0b9	-0.019264566
53	0xbdb72ae6	-0.08943729
54	0x3d823ab7	0.06358855
55	0x3d1284dd	0.03577124
56	0x3d624700	0.055243492
57	0xbd3d1e73	-0.046171617
58	0xbb76bd9d	-0.003764964
59	0xbd7763bc	-0.06039785
60	0xbd8cfe48	-0.06884438
61	0x3d7dccf9	0.061963055
62	0x3d123e95	0.035704214
63	0xbd81dc02	-0.06340791

actor.6.weight f4 [3, 64]
0	0x3837349b	4.3679593e-05
1	0x3b1c52ef	0.0023853143
2	0x3b945842	0.0045271227
3	0xb825094a	-3.9347717e-05
4	0xbac9c9a7	-0.001539518
5	0x3c10cdca	0.008838126
6	0x3bad53d9	0.0052895364
7	0x3bffe0d4	0.007808784
8	0xbb2defdb	-0.002654067
9	0xbb551516	-0.003251379
10	0xbb007366	-0.0019600033
11	0xbb3980bd	-0.0028305494
12	0x3b2d2c41	0.0026424082
13	0xbbb7b202	-0.005605937
14	0x3baa67d5	0.005200366
15	0xbbfe798f	-0.0077659558
16	0x3beb10af	0.0071736197
17	0xbb4374c9	-0.0029824248
18	0xbaaa938d	-0.0013013944
19	0xbb994719	-0.004677665
20	0xbb1397fc	-0.002252101
21	0xba397d64	-0.00070758746
22	0x39daba35	0.00041718935
23	0x3c1019ea	0.008795241
24	0x3be3b02e	0.0069484925
25	0xba8e8256	-0.0010872583
26	0xbb1b4e60	-0.0023697838
27	0xbb2a6115	-0.0025997807
28	0x3b97de30	0.004634641
29	0xbb37717b	-0.0027991224
30	0xbaf92ee5	-0.0019011168
31	0x3bc10b35	0.0058912286
32	0xbab8c63a	-0.0014097162
33	0x3b1272b4	0.00223462
34	0xbaf72af9	-0.0018857411
35	0x3bce45ef	0.006294958
36	0xbb385b3d	-0.0028130554
37	0xbb34d0f6	-0.002759037
38	0x3b709559	0.0036710112
39	0x3ba0c815	0.004906664
40	0x3b9c260b	0.0047652773
41	0xbafcaaae	-0.0019276941
42	0xbaa983f7	-0.0012933005
43	0xbb081002	-0.0020761495
44	0x3bbe02b2	0.005798661
45	0x3a14e1b0	0.0005679382
46	0xbb3822cd	-0.0028096915
47	0xbac3c154	-0.0014934936
48	0xbbc15305	-0.0058997893
49	0xba8ef89f	-0.0010907835
50	0xba8e4d8a	-0.0010856849
51	0x3aa37240	0.0012469962
52	0xbb1f978c	-0.0024351804
53	0xbabf9f43	-0.0014619607
54	0xba5c92ab	-0.0008414189
55	0xbb34e970	-0.002760496
56	0xba910fbf	-0.0011067315
57	0x3bf94243	0.007606776
58	0xbb456b36	-0.0030123717
59	0x3ba2380c	0.004950529
60	0x3b2a66e7	0.0026001276
61	0x3b8cc028	0.0042953677
62	0x39f8d2eb	0.00047459392
63	0x3b157380	0.002280444
64	0x3a5099c0	0.0007957481
65	0xba315b85	-0.00067656516
66	0xbbcfea0e	-0.00634504
67	0x3a80f64c	0.0009839027
68	0xb9229f75	-0.00015508926
69	0xbbeeaf3c	-0.007284073
70	0xbbf81aaa	-0.007571538
71	0xbbb75d25	-0.0055958205
72	0x3a0bf74a	0.0005339278
73	0x3ac32877	0.0014889379
74	0x3b063120	0.0020476058
75	0xbb38784b	-0.0028147872
76	0xbb3f83b9	-0.00292228
77	0x3be064fe	0.0068479767
78	0xbbf19bd5	-0.007373313
79	0x3c433fc5	0.011917059
80	0xbb7a5390	-0.003819678
81	0x398e2243	0.00027109878
82	0x3ae343e0	0.0017338954
83	0x3c498698	0.012300156
84	0xbb4ad8cc	-0.0030951975
85	0x39f968b6	0.00047570997
86	0xbb393a1d	-0.0028263398
87	0xbbee60e2	-0.007274733
88	0xbbac5195	-0.005258749
89	0xbb0f0923	-0.0021825514
90	0x3a0419d3	0.00050392485
91	0x3add5e0b	0.0016888989
92	0xbb155531	-0.0022786374
93	0x3ac25232	0.0014825522
94	0xba259cf1	-0.00063176366
95	0xbbbe79b6	-0.005812849
96	0xbadd5499	-0.0016886174
97	0x3a446a98	0.00074926903
98	0x3b86a685	0.004109206
99	0xbc0a20fc	-0.008430716
100	0xb9b6b408	-0.0003484788
101	0xba550905	-0.0008126649
102	0xbad8a1c9	-0.0016527708
103	0xbb4b5ce0	-0.00310307
104	0xbbc93105	-0.006139877
105	0x3a5860d5	0.0008254175
106	0xb9f11355	-0.00045981506
107	0xb968e3d4	-0.00022210117
108	0xbc00ea4d	-0.007868362
109	0xb9a81434	-0.0003205851
110	0x3b3cb971	0.0028797055
111	0xbadd24c2	-0.0016871917
112	0xbad6f304	-0.0016399329
113	0xba8c9c15	-0.0010727668
114	0xba26195d	-0.0006336177
115	0x39bc5194	0.00035918935
116	0x3ab3aa28	0.0013707327
117	0xba1d3003	-0.0005996229
118	0x3aa32f67	0.001245004
119	0xbad6a62a	-0.0016376425
120	0xbab85c32	-0.0014065562
121	0xbc06f884	-0.008237962
122	0x3acf63c4	0.0015822579
123	0xbbb1fd44	-0.005431803
124	0xba911d7f	-0.0011071413
125	0xba72604f	-0.00092459185
126	0x37d22d6c	2.5055102e-05
127	0xbb2821a6	-0.0025654822
128	0x3c0f26d3	0.008737284
129	0xbc1af757	-0.0094583845
130	0x3bd21e9a	0.0064123394
131	0x3be4aae8	0.0069783814
132	0x3bc0fedd	0.005889757
133	0x3c2ca5b8	0.010537557
134	0x3b7e319a	0.003878689
135	0x3bc56f11	0.006025203
136	0x3c32d20b	0.010914336
137	0x3bbda290	0.005787201
138	0xbb3cd692	-0.0028814417
139	0x3bf90dd7	0.007600527
140	0x3aff8f12	0.0019497594
141	0xbc2213aa	-0.009892384
142	0x3b8be346	0.0042690365
143	0xbcb2477a	-0.021762598
144	0xb9098e40	-0.0001311833
145	0x3b288498	0.0025713798
146	0xbb520e46	-0.0032051965
147	0xbc9f6da6	-0.019461464
148	0x3b8477eb	0.0040426156
149	0x3b2d3b50	0.0026433058
150	0x3bf15a28	0.007365484
151	0x3bfaa288	0.0076487698
152	0x3ac83d4f	0.001527706
153	0x3bbb327c	0.0057128053
154	0x3c39082f	0.011293455
155	0x3a6c198a	0.0009006491
156	0xbb8ef8f9	-0.004363176
157	0x3c165f89	0.009178051
158	0x3c489b1d	0.012244013
159	0x3b885b6b	0.0041612885
160	0x3bcf7bab	0.006331881
161	0xbaad2da1	-0.0013212451
162	0xbc654744	-0.013994042
163	0x3c0daa80	0.008646607
164	0x3bbf10cd	0.00583086
165	0x3bdae157	0.0066796946
166	0xba4de388	-0.0007854034
167	0x3a9628cc	0.001145625
168	0x3ab5e56c	0.0013877577
169	0x3c1fb825	0.009748493
170	0x3c5e3826	0.0135631915
171	0x3b933d2e	0.004493377
172	0x3bbfb1ab	0.005850037
173	0x3c6004b8	0.013673
174	0xbaab4fe8	-0.0013070079
175	0x3c6f9ea9	0.01462523
176	0x3ba7511d	0.005106105
177	0x3c40bc4a	0.011763642
178	0x3b92d3f2	0.0044808323
179	0xbb1f6256	-0.0024320087
180	0x3c27a74e	0.01023276
181	0x3c2e9be0	0.010657281
182	0x3c1ec9d8	0.009691678
183	0x3bd23f8e	0.0064162677
184	0x3b6ee0de	0.003644995
185	0x3c3764d9	0.011193478
186	0x3b7fbf34	0.0039023878
187	0x3bbbb39c	0.005728198
188	0x3a65a3ea	0.0008760082
189	0xbae4f3de	-0.0017467698
190	0x3c756af7	0.014979116
191	0xbc001f8b	-0.00782002

actor.6.bias f4 [3]
0	0xbcd4e490	-0.025987893
1	0x3d8070e0	0.06271529
2	0x3da725b9	0.08161492

critic.0.weight f4 [256, 259]
0	0x3d868afa	0.065694764
1	0x3de205c3	0.11036255
2	0x3c08d61a	0.008351827
3	0xbc39877f	-0.011323809
4	0xbebfde18	-0.37474132
5	0xbdc0831b	-0.094000064
6	0x3d91569f	0.070966
7	0xbd5adfe6	-0.053436182
8	0x3d1297d3	0.035789322
9	0x3b4bfcb1	0.0031125958
10	0x3d2d6320	0.04233086
11	0xbd956f01	-0.07296563
12	0x3db2a558	0.08722943
13	0x3e021259	0.12702312
14	0x3dfc0c1e	0.12306999
15	0xbd537e93	-0.051634382
16	0x3e1d4f65	0.15362318
17	0xbd9d1e1e	-0.0767176
18	0xbdd63fc1	-0.10461379
19	0xbd995b71	-0.07488144
20	0x3dd69d8b	0.10479268
21	0xbde75f44	-0.11297467
22	0xbf17490b	-0.5909583
23	0x3df2e6b4	0.118604094
24	0xbde84558	-0.11341351
25	0x3ddbeb02	0.107381836
26	0x3c129784	0.008947257
27	0xbd70d437	-0.058796134
28	0x3e82e27f	0.25563428
29	0x3ec1c896	0.37848347
30	0x3db2cbec	0.08730301
31	0x3d8102bd	0.062993504
32	0x3b8e0b1f	0.004334822
33	0x3dfa5ab4	0.122243315
34	0xbdead53f	-0.11466455
35	0xbd149234	-0.036272243
36	0x3c30fd18	0.01080253
37	0x3d6fb6a3	0.058523785
38	0xbd96bb47	-0.07359939
39	0x3d6b1679	0.05739448
40	0x3d38ef27	0.04514995
41	0xbc3d8255	-0.011566718
42	0xbd102e5e	-0.03520047
43	0x3dc4fc65	0.09618453
44	0xbc354453	-0.011063653
45	0x3e52d18d	0.2058775
46	0x3c88bc43	0.016691333
47	0x3e175469	0.14778294
48	0xbe34e6e8	-0.17666209
49	0x3e6ed933	0.23325042
50	0xbd72800c	-0.059204146
51	0x3cca4c56	0.024694603
52	0x3d537daa	0.051633514
53	0xbef1e824	-0.47247422
54	0x3abb1272	0.0014272465
55	0x3d82ec73	0.06392755
56	0xbd3901b6	-0.045167647
57	0x3c474e8e	0.012164725
58	0x3e38e88c	0.1805746
59	0xbbe1e1e5	-0.006893384
60	0x3d9995b1	0.074992545
61	0x3d82f7b3	0.06394901
62	0xbb9bb9ec	-0.004752388
63	0x3d475b66	0.04867115
64	0xbd1ca17b	-0.038239937
65	0xbcbf2cec	-0.02333685
66	0x3dfb01d8	0.12256211
67	0x3d2333cd	0.039844323
68	0xbd2babf1	-0.041912023
69	0x3de8700e	0.11349498
70	0xbdce0017	-0.10058611
71	0x3d974c94	0.07387653
72	0xbe18f276	-0.14936242
73	0xbd882365	-0.06647376
74	0x3e0884ac	0.1333186
75	0xbe2baa5f	-0.1676421
76	0x3d5331f3	0.051561307
77	0xbca77609	-0.020442026
78	0x3d9d0e5c	0.076687545
79	0x3e4a6751	0.19765975
80	0xbc0b7f33	-0.008514213
81	0x3df0b4e3	0.117532514
82	0x3d8a1dcb	0.06743964
83	0xbd0c6edd	-0.034285415
84	0x3dea23d0	0.11432612
85	0xbef874cf	-0.48526618
86	0x3c8b3c8b	0.016996643
87	0xbe03dd20	-0.12877321
88	0xbce8d6f9	-0.02842282
89	0xbd6aead8	-0.05735287
90	0x3e259f4a	0.16174045
91	0x3de2a7c1	0.11067153
92	0x3d3da266	0.046297453
93	0xbdc05538	-0.09391254
94	0xbdca5377	-0.09879201
95	0x3d80e38c	0.06293401
96	0x3a4e2fa4	0.00078653754
97	0xbd0a4317	-0.033755388
98	0x3d2d6a6c	0.04233782
99	0x3d9a134d	0.075232126
100	0xbd5a4f94	-0.053298548
101	0x3e27109b	0.16314928
102	0xbcdc3dff	-0.02688503
103	0x3d2f2bee	0.042766504
104	0x3ce8a941	0.028401019
105	0x3daa0b62	0.08302952
106	0xbe38206f	-0.17981122
107	0x3d94cbe2	0.0726545
108	0x3de4e1b8	0.11175865
109	0x3c646f04	0.013942484
110	0x3d9d3542	0.07676174
111	0xbe0f6e58	-0.14006937
112	0xbd410414	-0.04712303
113	0xbcd0bc01	-0.025480272
114	0xbd32df2f	-0.043669876
115	0xbbd15909	-0.0063887876
116	0xbc920108	-0.017822757
117	0xbdd5b74b	-0.10435351
118	0x3ca8988b	0.02058055
119	0xbd9bfad1	-0.07616199
120	0xbc4a8584	-0.012360934
121	0xbd10cc76	-0.03535124
122	0x3ce654d4	0.028116621
123	0x3dc0be49	0.09411294
124	0x3d44dbbd	0.04806112
125	0x3e51f18d	0.205023
126	0xbcd67e6a	-0.026183326
127	0x3d53091e	0.051522367
128	0xbdbbff2f	-0.09179532
129	0x3d96691b	0.07344266
130	0x3d90f387	0.07077699
131	0xbcd55458	-0.026041195
132	0x3d91c6fa	0.0711803
133	0xbccad31d	-0.02475887
134	0xbcab1609	-0.02088453
135	0x3d8d4605	0.06898121
136	0xbd227ff8	-0.03967282
137	0xbdeaab9d	-0.11458514
138	0x3c8b8252	0.017029915
139	0x3e586f8f	0.21136306
140	0x3e09df05	0.13463981
141	0x3dc13240	0.094334126
142	0xbd66cb25	-0.056346077
143	0x3dea4810	0.11439526
144	0xbdb00f88	-0.08596712
145	0xbdb47a43	-0.08812382
146	0x3d5aff1f	0.05346596
147	0xbc854d46	-0.016272198
148	0x3e32cafe	0.17460248
149	0x3d5d838f	0.054080542
150	0xbda66c06	-0.081260726
151	0x3d325ec0	0.043547392
152	0xbb6171cd	-0.0034400106
153	0xbe15838f	-0.14600967
154	0xbc9db1ad	-0.019249761
155	0x3e9e94c0	0.30972862
156	0xbce438e4	-0.027859159
157	0x3e091995	0.13388665
158	0x3da8f1ba	0.08249231
159	0xbc16930a	-0.00919033
160	0xbdc18ea2	-0.09451033
161	0xbdbf917d	-0.093539216
162	0x3e15e89f	0.14639519
163	0xbcd916c8	-0.02650012
164	0x3cb4005e	0.021972831
165	0xbb958c73	-0.004563862
166	0xbd87d215	-0.06631867
167	0x3da5b3f5	0.08090965
168	0xbd15e0e7	-0.036591437
169	0x3d3311b7	0.043718066
170	0xbd27ceee	-0.040968828
171	0x3daa6e20	0.08321786
172	0x3e361890	0.17782807
173	0x3cdaf34c	0.026727341
174	0xbd600e20	-0.05470097
175	0x3dd91654	0.10599962
176	0xbe00537a	-0.12531844
177	0x3dbd61dd	0.092471816
178	0xbdde9045	-0.10867361
179	0x3bfb6188	0.0076715387
180	0xb9d0fd58	-0.00039861607
181	0x3db74523	0.08948734
182	0xbd1934f1	-0.037404004
183	0xbd03ef5a	-0.032210685
184	0x3d19232f	0.03738707
185	0x3e3ddffc	0.18542475
186	0xbe8e73c4	-0.27822697
187	0xbc9b965f	-0.018992601
188	0xbd275fe4	-0.040862933
189	0x3d44c7c9	0.048042092
190	0xbdadf946	-0.08494811
191	0xbd44a42e	-0.048008136
192	0x3e41d758	0.18929803
193	0xbc10ecd9	-0.008845531
194	0xbd3d0613	-0.04614837
195	0xbd73781d	-0.05944072
196	0x3db7c010	0.0897218
197	0xbc731415	-0.014836331
198	0xbda50bf1	-0.08058918
199	0xbc99b98b	-0.018765232
200	0x3dee463a	0.116344884
201	0x3df46dae	0.11934982
202	0xbc89641b	-0.016771367
203	0x3da14044	0.07873586
204	0xbc84ded4	-0.016219534
205	0x3c45a45b	0.012063111
206	0xbd64956d	-0.055806566
207	0x3e5030c4	0.20331103
208	0xbdafb59e	-0.085795626
209	0xbb28180a	-0.0025649094
210	0xbcb92cb7	-0.02260433
211	0x3e1c67cf	0.15273975
212	0x3cf8af9a	0.03035717
213	0x3d57d34a	0.052691735
214	0x3c490b93	0.012270826
215	0x3c892657	0.016741915
216	0x3d37fea4	0.04492058
217	0xbdd3f73c	-0.103498906
218	0xbd816340	-0.063177586
219	0xbdbd03c1	-0.092292316
220	0xbda7eb43	-0.081991695
221	0xbdc474b3	-0.09592571
222	0xbdcaa5cd	-0.09894905
223	0x3bf92c80	0.0076041818
224	0x3daa4116	0.083131954
225	0xbdc534ca	-0.09629209
226	0xbee32cbf	-0.44370076
227	0xbcb02e1a	-0.021506358
228	0x3dd55d3a	0.10418172
229	0x3e371bab	0.17881648
230	0x3d1c0fe5	0.038101096
231	0xbe0c722b	-0.13715427
232	0x3d52c35a	0.051455833
233	0xbd9e4358	-0.077276886
234	0x3cef7632	0.029231165
235	0xbca38ba7	-0.019964052
236	0xbdd61252	-0.10452713
237	0xbe17228d	-0.14759274
238	0xbd76c9da	-0.060251094
239	0x3de2b6af	0.110700004
240	0xbd173134	-0.036912158
241	0x3e0bffff	0.13671874
242	0x3e22c74a	0.15896335
243	0x3e3e0b45	0.18558986
244	0xbd77dee9	-0.060515318
245	0xbd9eca9e	-0.0775349
246	0xbca07352	-0.019586239
247	0x3d919eba	0.07110353
248	0x3d2c9fa9	0.04214445
249	0x3d3056c7	0.043051507
250	0x3dcdbb4a	0.10045488
251	0x3d46c278	0.048525304
252	0x3d881c03	0.06645968
253	0x3daab8b2	0.08336009
254	0xba2c5ef8	-0.0006575431
255	0xbc280dd0	-0.010257199
