rlgpu/logs/cut_407/model_315.pt (torch, 868312 bytes, 16 tensors)

log_std f4 [3]
00000000: 35b1 3bbf 7f9e eabe 55c5 00be
-0.7331727 -0.45824048 -0.12575276

actor.0.weight f4 [256, 259]
00000000: 34c6 143d 9f61 343d f530 623d 3f2c d8bc
00000010: eabf 84bd 324c 953d 573e 5d3d 89f2 99bd
00000020: 432e fd3c f287 043d 3d22 993c ae27 adbd
00000030: e36e 8f3d 0692 c3bd 6844 c3bc 0c3a afbd
00000040: 3d09 e1bc d183 0bbd 59b8 1fbe 36b4 083d
00000050: 2c39 783d 365a a3bd 154c c6bd 1ada 873c
00000060: fa23 d73d 63a3 293b 2289 903d 1ebb 5fbc
00000070: 31f6 89bb 998b 4fbd c5c6 3f3c e43c b3bd
00000080: 2013 df3c f448 da3d 094c b83d b207 11bd
00000090: ea9c 633d 438f 28bc 63d1 66bd b5aa 353c
000000a0: d39d 69bc af32 cabc 013c 303e f3b3 1b3e
000000b0: d512 d1bd efc1 1e3e f615 a33d f62d a1bd
000000c0: 6212 b63c d6c7 98bd 7e6a 06bd c0b2 0fbe
000000d0: 3495 28bd e2e3 c53d e76a 76bd 3019 683d
000000e0: 454a 613e 1a54 bb3d d4b2 573c b637 1dbe
000000f0: 15be 883c ec7f 2abd ad50 c4bb c171 683c
00000100: 87b3 39bd d750 003d 320f c3bd a66e a63d
00000110: 8fa8 d6bc b956 21bd 9b08 a1bd bbf8 923d
00000120: bf88 acbd b587 c6bc 3d2e bbbc fef7 32bd
00000130: baf0 81be 9bda 20bc 4104 0e3d 6b1b 81bc
00000140: d60e 203d 4050 043e fea4 cabd 72f1 f93b
00000150: 7085 5ebd deb9 0a3e 8f3d 87bd cccf 05be
00000160: 04ea bdbd e5a8 d6bd 42cd 8d3d 9d53 833d
00000170: c406 143c c372 0c3d d4d7 303e f8b9 013e
00000180: 424d 01bd 930b 92bd 06b7 a4bc d92c b13d
00000190: fa07 8d3d cd38 bbbd 20ff 6abc 6d91 2dbc
000001a0: baf9 d93d 74f7 4cbd f28a 4dbd 2943 d23d
000001b0: c418 9dbb 4869 513e 8a05 05bd afae f03d
000001c0: 6f41 ce3c 69c6 33bd 99ed e4bd 1850 d6bd
000001d0: d8e2 5bbd 5906 d33d 69be 9dbd c82f 76bc
000001e0: 3dd1 95bd 9c0c 1e3e 6580 c6bd 224e 203c
000001f0: 39d1 3f3d 057b e13d 4b32 863c 3fde 42bd
00000200: c3c6 693d 94e0 dd3d 66dd 8c3d c54d 8c3d
00000210: 2d12 91bd 544b 72bd 7f2b 84bd c340 443e
00000220: 9cd1 80bd c980 c0bd 40bf 913d f3d0 cbbd
00000230: c048 213d 4854 40be 5d21 87bc ef5b 71bc
00000240: 7af9 bfbd 7af4 543c 30b2 073e 1e44 bbbb
00000250: ebc4 9cbd f897 a1bd 1ef1 07be bf16 ad3d
00000260: f16a 26be 26e4 a63c 47fe 72bc 8b50 003e
00000270: d6d1 1f3e cae2 843d ad5c 42bd 3ae2 003e
00000280: e800 f93d ffae 353d dbad febd 0926 aabd
00000290: 9cf4 c8ba cfa6 3c3d dcc9 6fbd 5e60 e8bc
000002a0: bfa8 43be b9ed 75bd 050e 8d3d cadd 21be
000002b0: 889e 7d3d 6f5e d63d 9713 843d a8a3 31bd
000002c0: 4fbb ff3d d9ad 90bd 29b7 b3bd 5906 7bbc
000002d0: e6b0 0a3e 8463 1d3d bfa9 afbd 00f5 c73c
000002e0: 2116 4dbe 47c6 b8bc b5ab 393d e9ad 22bd
000002f0: af4e eabd 8654 9dbd 97bc 21be acc6 5ebd
00000300: 744a cebc 2e32 31bd 9b71 283e 5d8c 4e3d
00000310: 699f fb3d 9588 b6bc 59b2 aabc a970 1f3e
00000320: 0a12 15bd 8eaf 69be 55fd 9e3c 73e0 c23d
00000330: b882 bb3d 02ff 13bd 2bae b93d ccb0 b6bc
00000340: e8c6 c4bd 47f4 44be 1b64 51bd e68f 553d
00000350: 0842 5abd aebc abbd aaaa abbc bdcd 523e
00000360: 9971 953d 951a 303d b93a 86bd 20b5 a63d
00000370: af2b 883d 5e71 1ebc eb24 4dbb 25ae 89bb
00000380: 7c64 fbbd b74d 883d 92b3 2ebd 1638 e8bd
00000390: 8eab c93d 5b45 533d c828 9d3d e3bb f33c
000003a0: 99ea c63d 253e 973d 3e2b c4bd 546d d13c
000003b0: c974 e2bd a2ed 23be c833 0c3d 61bb 7bbd
000003c0: 31b5 b3bc 0327 1dbe 2171 0d3e 3b3f 21bc
000003d0: 353e e63d c8a8 a93d 93c9 043c 5bac 973c
000003e0: 8ca3 203e c81f ebbc a4cc d03d 23cd 21bc
000003f0: 6cc2 bbbd 6aac ae3d 62eb 67bc 1ee7 223d
0.036321834 0.04403841 0.05522247 -0.026388286 -0.06481917 0.07289924 0.05401453 -0.07516963
0.030905848 0.03235621 0.018693084 -0.08454834 0.07003572 -0.09549336 -0.02383633 -0.085559934
-0.027470225 -0.034061257 -0.15597667 0.033374988 0.0606014 -0.07976191 -0.0968248 0.016583491
0.10504909 0.002588474 0.07057406 -0.013655452 -0.0042102565 -0.05067024 0.011705105 -0.08751848
0.0272308 0.10658446 0.089988776 -0.03540773 0.055569567 -0.0102880625 -0.05635203 0.011088063
-0.01425882 -0.024682371 0.1721039 0.15205364 -0.1020867 0.15503667 0.07963173 -0.078700945
0.022225562 -0.07459991 -0.032816403 -0.14033031 -0.041157916 0.09662606 -0.060160544 0.056664646
0.22000988 0.091469005 0.013165195 -0.15353283 0.0166922 -0.041625902 -0.0059910626 0.014187277
-0.045337226 0.031327095 -0.09524383 0.08126573 -0.026203422 -0.039389346 -0.078629695 0.07176348
-0.0842452 -0.024234632 -0.022849197 -0.043693535 -0.25378972 -0.009817745 0.034672026 -0.015760144
0.03907665 0.12921238 -0.09894751 0.0076276595 -0.054326475 0.13547465 -0.06603538 -0.1306755
-0.092731506 -0.10481433 0.069239154 0.06412432 0.009034816 0.034289133 0.17269832 0.12668598
-0.03156782 -0.07131114 -0.020106804 0.08651132 0.06886287 -0.09141693 -0.014343053 -0.010593754
0.10643335 -0.050040677 -0.050181337 0.10266716 -0.004794212 0.20450318 -0.032475986 0.11752068
0.025177686 -0.04389039 -0.11178131 -0.104644954 -0.053683132 0.10303945 -0.077023335 -0.01502604
-0.073153 0.15434498 -0.09692458 0.009784253 0.04683039 0.11009792 0.016381403 -0.04757523
0.05707432 0.108338505 0.06878166 0.06850771 -0.07083545 -0.05915387 -0.06453609 0.1916533
-0.0628998 -0.09399564 0.07116556 -0.09951963 0.03937602 -0.18782151 -0.016495401 -0.014731391
-0.09373756 0.012997741 0.13251567 -0.0057149073 -0.076547466 -0.07890314 -0.13275573 0.08451604
-0.16251732 0.020372462 -0.014831132 0.12530725 0.1560739 0.06488569 -0.047451664 0.12586299
0.12158376 0.044356342 -0.12435504 -0.08308036 -0.0015331688 0.04605752 -0.058542117 -0.028366264
-0.1910734 -0.060041163 0.0688744 -0.15807262 0.061918765 0.104672305 0.06449049 -0.043368965
0.12486898 -0.07064409 -0.087751694 -0.015321338 0.13544044 0.038424984 -0.085772984 0.024408817
-0.20027973 -0.022555484 0.04532977 -0.039716635 -0.11440789 -0.07682137 -0.15794598 -0.054388687
-0.025181986 -0.043260746 0.16449587 0.05042683 0.122862644 -0.022281924 -0.020836996 0.1557032
-0.036394157 -0.22820875 0.019407908 0.095154665 0.09155792 -0.036131866 0.09066423 -0.0223011
-0.09608251 -0.1923381 -0.05112086 0.052139185 -0.05328563 -0.08385597 -0.020955402 0.20586295
0.07297058 0.0429941 -0.06554169 0.081400156 0.06648957 -0.0096705835 -0.0031302522 -0.004201668
-0.12275025 0.06655448 -0.04265172 -0.113388225 0.098471746 0.051579814 0.07673794 0.029752677
0.09712715 0.073849 -0.0957856 0.025564827 -0.11057431 -0.16008618 0.03422907 -0.061457995
-0.021936985 -0.15346913 0.13812687 -0.0098417355 0.11242334 0.082841456 0.0081047 0.018514803
0.15687388 -0.028701678 0.10195282 -0.009875569 -0.091679424 0.08528979 -0.014155241 0.03977119

actor.0.bias f4 [256]
00000000: 40f4 b1bc 9ec6 4abd 63be 91bc 7ab3 dabc
00000010: 6ca9 d0bc 4a17 3b3c cb30 833d ad77 bc3c
00000020: 245e 80bc 8000 233d 31ea 4b3d 7a18 a93c
00000030: d3b1 853d db0b 713c 41c6 74bc f25d ec3b
00000040: 8700 353c 5243 363c ff04 ba3c 211a 3fbd
00000050: 17c3 573c 4edd f9bb 9b04 3b3d d31b 75bd
00000060: 44b7 183d 665f 85bd 3b33 9bbc 57ea bb3c
00000070: e3d8 67bd 49f2 0ebd 5b4c 1e3c 9b23 b5bc
00000080: 04f4 2f3c fe34 423d 0e12 983b 8389 acbc
00000090: aa92 6dbd c9a8 f53c 6868 4e3d 1169 debc
000000a0: a352 803d a5c0 adba 8f78 573d 76f3 2d3d
000000b0: 8b79 39bd 420b 5e3d 81fe 12bd 3927 483d
000000c0: 235d 333d 9bb0 ffbc 883f 11bd cc14 2f3d
000000d0: 4a27 f43b 6a34 153d 26e3 4cbd fcc1 38bd
000000e0: d78e 39bc b0db b3bb 0a7c 5ebb b3f3 a13c
000000f0: 3d9f b83c 358c 53bd 0fe7 8fbd 72d7 983d
00000100: cab5 8fbd 52fd 7abd 79b4 cebc 8357 1b3c
00000110: f420 863c 009e 85bc 3590 bebc 05dd 1bbc
00000120: bb53 133d ffd6 65bc c1e4 003c bc10 47bd
00000130: 11b8 7abc d510 c33c 9e60 13bd cf34 2cbd
00000140: 7ffb 203d af9d 63bd 6817 95bd eca2 413d
00000150: 99c7 073d 35ef 69bd 55d7 68bd bcb9 4fbd
00000160: 3ede 883c 9e0c 2cbd cd61 8abd 738b 093d
00000170: 8781 91bc a7f1 38bc 32be 0fbd cb41 bc3c
00000180: 86f0 0b3d 0588 5e3d 9828 49bd 8799 4e3c
00000190: 1d9d 72bc 4a9c c3bb bae3 86bd c67b 61bd
000001a0: 03b0 c6bb 5be3 0abd aa03 053d a0fb d33a
000001b0: 9979 783c ae7e af3b e865 5abc bc4e 2e3c
000001c0: d505 003d f839 26bd 65eb 3f3a 2a90 063d
000001d0: 252e bebc 75de 1cbd 1a08 afbc 5f95 67bd
000001e0: a7f6 09bd beba d6bc 1ff7 a9bc 65a8 61bd
000001f0: c6d3 793c 77d3 5a3d 700c 10bd fcad 3abd
00000200: 615b a7bc 2992 16bd ded0 2f3d 2e83 3b3c
00000210: 024c 56bd b393 43bc 8d56 92bc 6f84 36bd
00000220: 8a06 2bbd ddc3 5dbd fbbd 06bd 8bd5 7b3a
00000230: 0251 6cbd 0ade 033d 5c13 113d b87c 3b3d
00000240: 64ed 533d 686d 983b 6b31 fe3c 0923 663c
00000250: 01e9 d83b f372 cf3c b7f0 463d 9e48 0f3d
00000260: 06be d2bc 8673 373d 88d8 1c3d 2b60 223d
00000270: 3899 2ebd 1684 ec3c bcc5 33bc 6cef 25bd
00000280: 9db9 5ebd 69ba b93c f8dc 0e3c 04e9 b93c
00000290: e8d0 0fbd 95df 88bd 2aeb a13d bfc3 833c
000002a0: 61fe 083d f6fa 77bb c831 38bd 76b4 123d
000002b0: e97a 333c 0c18 7e3d 6edf 27bd ad3b 49ba
000002c0: 647a b83c b528 3a3d 0ddb c93c 64d0 6d3d
000002d0: b423 13bd 274c 5fbd c621 24bd b64a 3f3d
000002e0: 8e8e d73c 84c7 96bb ea5c 373d ba0d 97bc
000002f0: a2f3 3abd 6b2d 17bc 685a 3dbc e6be 23bd
00000300: f22b 08bd b1f7 6dbd f627 4dbd f977 02bd
00000310: 5519 293d 98bb 893d 94ac af3c 8d88 a43d
00000320: b4b5 94bd f97a 9f3c 99da 243d 3401 82bb
00000330: d620 5ebd 39c5 e03c 439f 9dbc 577e f1bc
00000340: 8359 063d 886d febb 2298 eebc 6051 c6bc
00000350: 2d82 1c3d 2b6c a4bc becc 823d 17fa 053d
00000360: e7d6 403c a1a5 98bc f075 a3bc 53bc 31bd
00000370: 551d 3bbd 476c 3dbd 59f0 9cbc 7231 e03b
00000380: f66a 1c3d 2918 463d 5ac7 6b39 84e0 693c
00000390: fe2d 4f3d 29e4 8a3d 34fd 7ebd 175d 37bd
000003a0: bb8c a43c c9b6 c9bc fae9 e03b 310f 74bd
000003b0: 50a9 64bd 5af8 823c 6772 4cbd 6405 85bd
000003c0: 926b 3abc 007f a93c 4cf0 5ebd feaf 5dbc
000003d0: 27aa 89bd 0641 803d 53be 163d ede9 fdbc
000003e0: d014 2e3b b9d4 1e3a d44b 083d dd73 ab3c
000003f0: bfd5 673d 917b 243d d7d0 a43c 3a0e 153d
-0.021722913 -0.049505822 -0.017790979 -0.02669691 -0.025471412 0.011419127 0.06405791 0.023006285
-0.01566989 0.0397954 0.04978389 0.020641554 0.06528058 0.014712299 -0.014939846 0.0072133476
0.011047489 0.011124449 0.02270746 -0.046655778 0.013169072 -0.0076252585 0.04565869 -0.05984099
0.03728415 -0.065123364 -0.018945327 0.02293889 -0.056603324 -0.03489903 0.009661759 -0.022111705
0.01073933 0.04741382 0.004640824 -0.021061664 -0.058001198 0.02998771 0.05039254 -0.027149709
0.06265762 -0.0013256265 0.052605208 0.04246851 -0.045281928 0.054209955 -0.035887245 0.04886553
0.043789994 -0.031212142 -0.03546098 0.042744443 0.0074509727 0.03642694 -0.050021313 -0.045106873
-0.01132556 -0.0054888353 -0.0033948445 0.019769525 0.022536868 -0.051647384 -0.07026493 0.07462968
-0.070170954 -0.06127674 -0.02523254 0.009481314 0.016373135 -0.016310692 -0.023262123 -0.009513144
0.035968523 -0.01402831 0.007867039 -0.048599944 -0.015302674 0.023811737 -0.035980813 -0.04204255
0.039302345 -0.0555703 -0.07279855 0.047274515 0.033149336 -0.05711289 -0.05684598 -0.05071424
0.016707536 -0.04200422 -0.06756935 0.033580255 -0.017761959 -0.011288083 -0.035093494 0.022980591
0.034164928 0.054328937 -0.04911098 0.012609846 -0.014807967 -0.005969559 -0.06586404 -0.05504968
-0.0060634627 -0.03390823 0.032474197 0.0016173013 0.01516571 0.0053556776 -0.01332996 0.010638889
0.03125556 -0.040582627 0.00073211483 0.03285233 -0.023215363 -0.03829809 -0.021366168 -0.056538936
-0.03368249 -0.026212092 -0.02074772 -0.055092234 0.015248245 0.053424325 -0.03516811 -0.04557608
-0.020429315 -0.036760483 0.0429238 0.01144485 -0.05231858 -0.01193707 -0.017863536 -0.044559892
-0.041754283 -0.054141868 -0.032896023 0.00096067105 -0.057694443 0.032194175 0.035418853 0.045773238
0.051740065 0.004651714 0.031029424 0.014046439 0.006619573 0.025323367 0.048569407 0.034981363
-0.025725376 0.044787906 0.038292438 0.039642494 -0.04262659 0.028871577 -0.0109724365 -0.040511534
-0.054376233 0.022671895 0.008719675 0.022694118 -0.035111338 -0.0668327 0.07906182 0.01608455
0.03344572 -0.0037838793 -0.04496935 0.035816632 0.010954597 0.06203465 -0.040984564 -0.0007676434
0.022519298 0.045448978 0.024640584 0.058060065 -0.03592272 -0.054515984 -0.04007127 0.04670211
0.026313093 -0.004601421 0.044766344 -0.018439163 -0.045642503 -0.009227137 -0.011557199 -0.039976977
-0.033245035 -0.058097545 -0.050086938 -0.031852696 0.041283924 0.06725234 0.021444596 0.080338575
-0.072612196 0.019467818 0.040247533 -0.0039674286 -0.054230534 0.027437793 -0.019240981 -0.029479189
0.03280021 -0.007764522 -0.029125277 -0.024208724 0.038210083 -0.02007111 0.06386708 0.032709207
0.011769987 -0.018633666 -0.019953698 -0.04339249 -0.04568227 -0.04624584 -0.019157575 0.006841832
0.038187943 0.048362885 0.0002248561 0.01427472 0.05058097 0.06781799 -0.062253192 -0.04476651
0.020086637 -0.024623292 0.0068638297 -0.0595848 -0.05582553 0.015987564 -0.04991379 -0.06495169
-0.011378186 0.020690441 -0.054428384 -0.013530729 -0.06721907 0.06262402 0.0368026 -0.030995334
0.0026562698 0.000605892 0.03327544 0.020929271 0.05660033 0.040156905 0.020119114 0.03639052

actor.2.weight f4 [128, 256]
00000000: 95c3 34bd ac44 343e 7650 23be 2e7a 4c3c
00000010: 8d3e 9fbd 8326 fdbd 1f32 9d3c 1a91 cd3d
00000020: d5b7 243d 896b 383e bd5f 6ebd 6ec4 81bd
00000030: 1a8b abbd 8523 f03d d1ed 303c 5d58 7a3d
00000040: 9a73 12be 02dc 7dbd 804d d8bd 15d4 143e
00000050: ebf4 753e 099c c2bc 3bf9 03be d551 bb3d
00000060: d885 2cbe 94cc 0abe b679 aa3c 8be1 883d
00000070: 5eca 84bd c0bc 393d 289d c4bc f7e2 78bc
00000080: 482a 8c3c 5ab4 0cbc 9822 aa3d e290 a73c
00000090: ee28 40be 313d 4e3c fca6 983d 72c9 48bd
000000a0: 9889 ab3d c2a2 0b3e e531 a8bd 4da3 b33c
000000b0: 00a9 7e3d 9bce b2bd f45f 673d 854d 593d
000000c0: 5f56 393d d2b7 51be e314 a43b 2d74 9f3d
000000d0: a993 24bc e0db cdbd 42b8 5e3d 244d 17bd
000000e0: 266c 14be c269 c13c aa18 023d ea41 5dbd
000000f0: f9d5 a6bb 9d6b 083e a57a db3d 9a42 60be
00000100: d391 ae3d 75b8 e5bd 2034 343d ef24 76bd
00000110: 2a99 3ebc 2eb0 9abd 7509 c6bd 4e7f 71bd
00000120: fc61 86bd 5e5a 19bd c669 2dbd 9fdc 0e3e
00000130: d7c1 07be 6695 da3b 10bf 56bc c9e7 983d
00000140: 18e2 303d c1fc 49bc eef9 d63d 8d47 52be
00000150: fe94 5d3d 359a 5b3b c02e ccbd b9eb 7b3e
00000160: 504d 06bd f0f3 dcbd 93d5 6abb a50c 013d
00000170: 7479 6c3d 47b7 523d 929c b2bc cdb2 4c3d
00000180: 9d88 813c 2155 8f3c b143 dcbc 7196 413c
00000190: 0f7d edbd 0354 1c3e 109e bc3d 8a81 093e
000001a0: 4acd 513d fbff 51bd 32fc 533d 7ab6 8b3d
000001b0: 03b9 b3bd 4a62 1e3d 5038 783d 0a46 143d
000001c0: 319a a2bd f5d9 9c3b 8c5c efbd b04b 06be
000001d0: f279 ae3d a76a c1bc 869f bdbd 46e9 00bc
000001e0: 76ff 0bbd c0eb 1d3e 916d 5b3d b233 a9bd
000001f0: cdd0 81bd a963 863d 0128 103d 8f72 db3d
00000200: c340 713d c29e 243c 830c 633d 7ff2 8c3d
00000210: 524f 2bbd 6f7d 273e b44f 79bd 80fd 0a3d
00000220: 8706 01bd 7d13 013e 0189 ecbd 95a6 1abe
00000230: f3d4 d33d 23e2 9d3b d8d8 6cbb 0e0e 2cbe
00000240: c1f4 03bb 6913 babd 4ba0 3b3d f736 b23c
00000250: 03a3 803d c47b a43d 418c b33d 8e6d 863d
00000260: 6b2f ffbc 4387 1c3e 1077 6abc 0fd4 ac3b
00000270: 42d9 003d 2338 b4bd 9884 8cbc 1ffd 8fbd
00000280: b7e6 683e ee87 20be a51f 72bb b36f 26bd
00000290: 77d1 e83c 7fc8 49be f918 f43c db44 0cbe
000002a0: 433a 8d3d a8c7 a4bc d5d0 e23c a7fd 973d
000002b0: a11f debd 4969 753d ab2f 5fbc 9463 c83c
000002c0: 86d8 b4bd bbd5 2f3e 73bf f83d a7ee 1b3d
000002d0: 71fd 51bd 4ed3 96bd 1d12 06be a64b 113e
000002e0: 14b8 163c 8c6a ad3d 81d1 de3b 62d7 f03d
000002f0: 4ce7 27bd c26b e5bc 8a00 c03c f193 fd3d
00000300: 8b6a 653d 474f a33d f7a3 0b3d edd9 80bc
00000310: 6968 c53c 8f30 87bc aa0c b03d 9a3c d83a
00000320: 8ec7 5a3d 7829 523c b58a d3bd fd8a c0bc
00000330: 8630 7fbb 41e6 6dbd a27b 653c abe0 8d3d
00000340: 174a ba3d bcab 74bd 4ce2 143b 9007 26be
00000350: 6eeb 883d f835 e3bd 97d3 633d b78d 02be
00000360: 5238 503c ec1f 1ebe 4e53 a63d b804 cbbd
00000370: e574 903d 69b7 5ebd d8f8 813c e10d b53d
00000380: edd5 813d 9cda afbd 2684 e23d bab5 81bd
00000390: 595f 983d a777 aebd 251f 2b3e b899 02be
000003a0: ecf3 e83c 4061 8bbb 3ef8 98bd f6f6 393c
000003b0: 5ab4 9ebd 81fa 833d dc1e eebc b636 5dbd
000003c0: dffa 893d c986 babc d0b8 0f3d 7279 2dbe
000003d0: 61b1 ac3c d5d8 603e 67fd cbbd 9e6a 17be
000003e0: 1ac3 f03d faa7 123d 3e53 54bc d42c 02be
000003f0: 145d 07be ddbd 3cbd 19e3 083e 41a8 9abd
-0.044131834 0.17604321 -0.15948662 0.012480302 -0.077756025 -0.12360861 0.019188939 0.100374416
0.04021438 0.18009771 -0.058196772 -0.06336294 -0.08376141 0.11725525 0.010798887 0.061119426
-0.14301911 -0.061977394 -0.10561657 0.14534028 0.2401921 -0.023756044 -0.12888043 0.091464676
-0.16847932 -0.13554603 0.02080999 0.06683644 -0.06483911 0.04534602 -0.02400072 -0.015190831
0.017110005 -0.008587921 0.083073795 0.020454828 -0.18765613 0.012587831 0.07453725 -0.04902024
0.08375853 0.13636306 -0.082126416 0.021928454 0.06217289 -0.08730813 0.056487992 0.053052444
0.045248386 -0.20480278 0.0050073727 0.07785831 -0.010044971 -0.100517035 0.05437494 -0.0369388
-0.1449438 0.02361 0.031761803 -0.05401794 -0.0050914255 0.13322301 0.10716752 -0.21900406
0.085239075 -0.11216823 0.043995023 -0.060093816 -0.011633197 -0.07553135 -0.096697725 -0.058959298
-0.06561658 -0.037439696 -0.0423372 0.13951348 -0.13257538 0.0066706417 -0.013107076 0.074660845
0.04318437 -0.012328328 0.10496889 -0.20535107 0.05409717 0.0033508663 -0.09969854 0.2460164
-0.032788575 -0.10788715 -0.0035832867 0.0315062 0.057733014 0.05144432 -0.021803174 0.049975205
0.015812213 0.017496647 -0.026887747 0.011815653 -0.11596119 0.15266423 0.092098355 0.13428321
0.05122117 -0.051269513 0.051754184 0.06821914 -0.087755226 0.038667955 0.06060058 0.036199607
-0.07939566 0.0047867247 -0.11687574 -0.1311481 0.08519353 -0.023610426 -0.09258942 -0.007868117
-0.034179173 0.15421963 0.053571288 -0.08261813 -0.06338654 0.065619774 0.0351944 0.1071521
0.058899652 0.010047616 0.055431854 0.0688219 -0.041823693 0.16356443 -0.060867026 0.033933163
-0.031500366 0.1260509 -0.11549569 -0.15102609 0.10343351 0.0048182174 -0.003613999 -0.16802236
-0.0020134898 -0.090857334 0.045807164 0.021754725 0.06281092 0.08031419 0.08766986 0.06563865
-0.03115054 0.15285973 -0.014310613 0.005274303 0.031457193 -0.0879977 -0.01715307 -0.07030701
0.2274426 -0.15676853 -0.003694513 -0.04063387 0.028420193 -0.1970539 0.029797064 -0.13698141
0.06895878 -0.020114735 0.02768747 0.07421427 -0.108458765 0.05991486 -0.013622205 0.024461545
-0.08830361 0.17171375 0.12145891 0.038069393 -0.05126709 -0.07364522 -0.13092847 0.14189014
0.009199161 0.08467588 0.006799877 0.11759831 -0.040992066 -0.028005484 0.023437757 0.12381733
0.05600981 0.07974105 0.034091916 -0.015728915 0.024097638 -0.016502647 0.085961655 0.0016497553
0.053412966 0.01282727 -0.10329191 -0.023503775 -0.0038938834 -0.058080915 0.014006527 0.06927618
0.09096163 -0.05973409 0.0022717891 -0.16213822 0.0668553 -0.11094278 0.05562171 -0.12749372
0.01270874 -0.15441865 0.08121358 -0.099130094 0.07053546 -0.054374132 0.015865728 0.08840538
0.06339631 -0.08586618 0.110603616 -0.0633349 0.07440061 -0.085189156 0.167111 -0.12753952
0.028436624 -0.0042535365 -0.074692234 0.011350384 -0.07749243 0.06444264 -0.02906745 -0.054007255
0.06737303 -0.022769349 0.03508836 -0.16940859 0.021080675 0.21957715 -0.09960442 -0.14786765
0.11755963 0.035804726 -0.0129593 -0.12712413 -0.132191 -0.046079505 0.13367881 -0.07551623

actor.2.bias f4 [128]
00000000: 445e 2dbd 7d85 a13c 70e8 44bd a5a7 3ebd
00000010: 5dba 05bd 4e39 ee3c 9381 4ebc ea3e 0fbd
00000020: 1cb9 b6bb d7a7 293d ff09 80bb 99dc 133d
00000030: e497 9cbd e95c 89bd 5036 1abc 9f0f 8abd
00000040: 6dff ed3a 199a 4abd bd74 e3bc 0a58 2d3c
00000050: 3cd8 653c 875e 62bd f919 8ebd 202c a13c
00000060: 31ea 33bd 0e14 edbc 5971 9e3a f502 203d
00000070: 8804 13bd 859e 77bb bc23 ce3c fc17 003d
00000080: fd3e 2ebc 7e12 86bd 7115 2e3d c273 e0bb
00000090: 238e 49bc 3bfc 203d 673f dc3b 5675 4fbd
000000a0: eaa1 0a3c bdfa a3ba a834 23bd bfa8 95bc
000000b0: 2ccd 91bb 37e1 71bd 0003 733c 465d 91bd
000000c0: 2102 e4bc c0ae 083d e4a2 8dbd 34ac b7bc
000000d0: 82e7 19bd a63a debc 5da1 9a3c 9b8d 1c3d
000000e0: 9e03 2abd 3a9a 2d3d 5bc8 0abd 006e 96bc
000000f0: 0ad1 033d 3861 c4bb 906f cf3c 31a5 7f3c
00000100: 851b c23b 9001 3f3d 4e9e 98bc 3e01 853a
00000110: 664a 263d 94ed b7bc 3545 fc3c a386 f5bc
00000120: 0004 f23b 50cf acbc ef0a 9abd bdbf d33c
00000130: 13aa 54bc 80c0 9a3c 1d7b c8bc c73b 92bc
00000140: cac3 0eb9 e2f9 95bd 12f0 a53c 1e80 04bc
00000150: 08f8 59bd 30b5 553d cec9 7f3d 0ee4 89bd
00000160: 66d9 3f3d 846c 3bbd ad06 9cbd dad8 01bd
00000170: fe63 7cbd c9ea 3fbd e4c1 e53c 21d5 693c
00000180: 82f7 18bd 4e70 b83b f26a edbb caa0 6b3c
00000190: 4861 883c 8e4e e83c 1a04 71bd 0279 80bd
000001a0: 4dac 8dbd 70c3 c8bc 9d86 383d 4212 1abc
000001b0: 66ce 27bd 2c52 6ebd 5c5d eb3b 3616 0dbd
000001c0: dd9f 06bd ac24 2cbd a9f1 d23c dbef ce3c
000001d0: 62e6 cebc 1b49 27bb 9781 4a3d 75b3 3fbd
000001e0: ec39 78bd 9310 e0bc 8f1e 12bd 972e 86bd
000001f0: 88e6 7bbd c491 06bd 390f 75bc 28dc f1b9
-0.042326227 0.019716972 -0.048073232 -0.046546597 -0.032648433 0.02908006 -0.012604135 -0.03497211
-0.005576266 0.04141983 -0.0039074416 0.03609905 -0.07646158 -0.06707174 -0.009412363 -0.06741261
0.0018157788 -0.049463365 -0.027765626 0.010580072 0.014028605 -0.05526593 -0.06938548 0.01967436
-0.043924514 -0.028940227 0.0012088224 0.03906532 -0.035892993 -0.0037783694 0.025163524 0.031272873
-0.010635135 -0.06546496 0.042500917 -0.006849737 -0.012301954 0.039303046 0.0067214253 -0.05064901
0.008461455 -0.0012510639 -0.03984514 -0.018268941 -0.004449507 -0.059052672 0.014832258 -0.070978686
-0.027833046 0.03336978 -0.069158345 -0.02242098 -0.0375743 -0.027127575 0.018875772 0.038220983
-0.041507356 0.04238341 -0.03388248 -0.018362999 0.032181777 -0.0059930347 0.025321752 0.01560335
0.0059236907 0.04663235 -0.018630173 0.0010147465 0.040598296 -0.022452153 0.03079472 -0.029971426
0.0073857307 -0.021094948 -0.07521617 0.025848264 -0.012980002 0.01889062 -0.024472767 -0.01785077
-0.00013615112 -0.07323052 0.020256076 -0.008087186 -0.053215057 0.052174747 0.062448315 -0.06732951
0.046838187 -0.045757785 -0.07618461 -0.031700946 -0.061618797 -0.046854768 0.028046556 0.014272005
-0.037345417 0.005628622 -0.007245415 0.014381597 0.01664795 0.02835777 -0.058841802 -0.062730804
-0.069176294 -0.024507254 0.045050252 -0.009403767 -0.04096832 -0.058183834 0.00718276 -0.03444501
-0.0328673 -0.04202716 0.025749998 0.025260856 -0.02525634 -0.0025525752 0.049439993 -0.046802003
-0.060602114 -0.027351653 -0.035673674 -0.06551855 -0.06149915 -0.032853857 -0.014957243 -0.0004613113

actor.4.weight f4 [64, 128]
00000000: 4193 5dbd e05d 73bb 1a88 ea3d 5201 c0bd
00000010: e6ca cabd 270d 13bd 7190 bc3d 0390 80be
00000020: 1fb8 4a3d 7a73 7dbe 0acf 0b3e 4973 3e3e
00000030: 79b4 a1bd 8d13 433d b4d1 7b3c 0682 adbd
00000040: 07cd 2a3e 3df2 88bd 2f5e 4b3e 852f b9bd
00000050: ba55 47bd 3097 383b 6c31 163e 5231 143c
00000060: d901 e7bd 3481 543d 0ffb 993d 1d27 45be
00000070: 87bc 743d a698 91bd 97ca 353d fc64 0b3e
00000080: 95dc 4abc 0b61 9a3e 643e 61bd 0f3d 2f3d
00000090: 1107 0d3d 610f c03c 96d9 e3bc d877 cfbd
000000a0: 4602 85bc 1614 5dbc b8e6 3fbe 9278 37be
000000b0: 2548 0c3c ea6e cc3d eb13 1a3d 8e6f 7cbd
000000c0: 0f68 4ebd 9bf7 b13d 0eb9 ea3d 1d04 b13d
000000d0: 366e a53e 74c8 08be faa1 193c f356 2abd
000000e0: 0ea4 343e 6383 87be 5b0e 333d 0b11 74bd
000000f0: e95f e9bc 08fc 453c 4e06 5b3e fb93 d03d
00000100: c909 953e 9513 c53a 251c b4be 5046 cc3d
00000110: dd2b f6bd 2284 83bd 6981 6fbd f336 f73d
00000120: 3882 763e f516 9d3e ec7e 703e b421 843d
00000130: f163 09be 29c2 ff3c 0ff6 2f3e 05f9 0dbe
00000140: cac6 01be 8cd5 f33c dc35 e93d 3a53 593c
00000150: 553c 69be 6941 06be 1a90 c3bd 5bb4 95bd
00000160: 3176 213e 5d2f 73be 1a74 0bbd a6f6 bbbd
00000170: b69a 16ba e3bd a13d 195b 6c3d a969 c4bc
00000180: 1749 763c 50e2 cabd b258 593d 3b6b c4bd
00000190: 9e14 8f3c 4256 9abd 2913 d2ba 7eb4 8e3d
000001a0: 307a 60bd f403 c4bd 3175 3dbd 9fa2 d1bc
000001b0: db76 603d 2ec4 073e 3b95 263e df33 ff3d
000001c0: 6187 033e 5d7f e93d c7b0 48be 15c5 c63d
000001d0: 71af 6c3d fd61 a7bc 3e67 f3bd 1fb4 2ebe
000001e0: a4d2 54be 6291 323e 219d d1bd 57d6 c23c
000001f0: f86c 223e 7370 3d3e 9e2b 0ebc 86ca ab3d
00000200: 48d9 563d df81 e2bc 1f8c 3a3e 729e 1a3d
00000210: 37b3 b43c 08f1 2abe 712f 36be 8d8b bdbd
00000220: de80 373e e63a e53d 52c7 dd3d 0d35 debd
00000230: 9556 273e fcd5 313e 8ecc c4bd e18a ccbd
00000240: b750 b03e 11c3 2c3e 73a5 b53d 79b2 25be
00000250: 2953 683a 3f51 503d 5a89 b5bd 5d10 90be
00000260: 2e6b 8d3b 46aa b43c 4235 59bd 802e 463c
00000270: 1b3d 993d f0c2 af3d d9fc 33be fb42 a9bc
00000280: 69e7 623d 0b65 423e ac4c 4a3d 6c78 c43d
00000290: 2cee 893d 6019 373d 6912 123e f194 283e
000002a0: e901 16be 30ee 4abe ce02 353c 4694 d83d
000002b0: 4b67 5e3e 3c8c 50bc 294a f8bd 4f3a aa3c
000002c0: 1b9f 283e 71cc 053e 6459 acbd 4805 fbbd
000002d0: 9492 d93b 0050 2abe e948 3dbd d944 7a3d
000002e0: 999a 98bc e11b 623d e794 c5bd a482 333e
000002f0: d898 6b3c f9bd 20be f288 7dbe c67e 33bd
00000300: a0fa 5abc c0f5 a3bd db3c 433e a398 143d
00000310: 0f23 53bd 1138 16be f690 fdbd 5ee4 d93d
00000320: 4b08 d4bd 66f1 983d bd44 11be 3d7a 8abe
00000330: d385 6f3d f5b8 b9bd 884c f73d 417c 31bc
00000340: 08da 83bd 3875 4ebe 8757 803d ef19 983d
00000350: b4ff 64bd 84cc 5dbe cb7c 97bd 6b5c a33e
00000360: 61d5 b03d cdf0 80bc c54a babc 68d9 62bd
00000370: a210 3bbc b1a8 15bd b885 6cbd 48d7 eebb
00000380: beb6 bc3c fcf8 8e3d 9651 173d 790b 2abe
00000390: cfdd bcbc 57dc 72be bc33 9c3d a101 473e
000003a0: 0a01 26be eaf1 ab3d 0d2f a6bd 7bb4 9bbd
000003b0: f9e3 c93d f543 08be 4b08 07bc da32 bd3d
000003c0: b06f ef3c 5fac 033e 581d 8e3d 36a4 0b3e
000003d0: 66fb 0abe 55e2 cdbd ebb9 c6bd 0f38 31bd
000003e0: 4360 51bc 518a 11be 9d59 07bd 58a1 4f3e
000003f0: a299 d53c 5e26 2abe e098 3ebe 8924 543d
-0.05409551 -0.0037134811 0.114517406 -0.09375252 -0.09901981 -0.035901215 0.092072375 -0.25109872
0.049491998 -0.24751082 0.13653198 0.18598665 -0.078957506 0.047626067 0.015369821 -0.08472066
0.16679774 -0.06686828 0.19860147 -0.09042267 -0.04866574 0.0028166287 0.1466729 0.009044962
-0.11279649 0.05188103 0.07518589 -0.19253202 0.059750106 -0.071091935 0.044382658 0.13612741
-0.012381692 0.30152163 -0.05499114 0.04278284 0.034430567 0.023444833 -0.027813714 -0.1013028
-0.016236436 -0.013493558 -0.18740356 -0.17917088 0.0085621225 0.09982093 0.03761665 -0.061629824
-0.050392207 0.08689805 0.11461078 0.08643363 0.32310647 -0.13357717 0.009376997 -0.041586827
0.17640707 -0.26467428 0.043714862 -0.059586566 -0.028488116 0.012084015 0.21389124 0.10184475
0.29109028 0.0015035743 -0.35177723 0.099743485 -0.12020085 -0.06421687 -0.058473025 0.120710276
0.24073112 0.30681577 0.23485917 0.06451741 -0.13417031 0.031220512 0.17183708 -0.13864525
-0.12673488 0.029764913 0.11387226 0.013264472 -0.22776921 -0.1311089 -0.095489696 -0.07309791
0.15767743 -0.23748536 -0.03404627 -0.09177904 -0.00057450996 0.07897546 0.057704065 -0.023976164
0.015032074 -0.09906447 0.053063102 -0.09590765 0.017465886 -0.075359836 -0.0016027439 0.0696802
-0.054804027 -0.095710665 -0.04625434 -0.02559024 0.05480085 0.1325843 0.16267864 0.124610655
0.12844612 0.11401246 -0.19598685 0.09705559 0.0577845 -0.020432467 -0.11884926 -0.17060898
-0.20783478 0.17438272 -0.10235048 0.023783846 0.15861881 0.18499927 -0.008677391 0.08388238
0.05245331 -0.027649818 0.18217514 0.03774876 0.022058113 -0.16693509 -0.17791535 -0.09255133
0.17920253 0.111928746 0.10829033 -0.108499624 0.16341622 0.17366785 -0.09609328 -0.099874265
0.3443658 0.16871287 0.088694476 -0.16181363 0.00088624895 0.050858732 -0.08864088 -0.28137484
0.0043157553 0.022053849 -0.053029306 0.012096047 0.07482358 0.08582103 -0.17576922 -0.020661822
0.05539647 0.18983857 0.049389526 0.09593281 0.06734881 0.044701934 0.14264835 0.16463067
-0.14649166 -0.19817424 0.011048032 0.10575156 0.2171909 -0.012728747 -0.1212352 0.020779757
0.16466944 0.1306627 -0.084154874 -0.12256867 0.006639788 -0.1663208 -0.04621211 0.061100814
-0.018628405 0.05520237 -0.096475415 0.17530304 0.0143797025 -0.15697469 -0.24759272 -0.043822072
-0.013365418 -0.080058575 0.19066183 0.03627838 -0.051547106 -0.14669825 -0.12381165 0.10639261
-0.10353144 0.07467918 -0.14186378 -0.27046385 0.058477234 -0.09068481 0.12075144 -0.010832847
-0.064380705 -0.20161903 0.062666945 0.074268214 -0.05590792 -0.21660048 -0.07396849 0.31906447
0.08634449 -0.015739823 -0.022740731 -0.055383116 -0.01141754 -0.03653783 -0.05774471 -0.007288847
0.023036357 0.06981084 0.03694304 -0.16605939 -0.023054985 -0.23716865 0.07627055 0.19434215
-0.16211334 0.08395751 -0.08114443 -0.07602783 0.098579355 -0.13307174 -0.008241723 0.09238215
0.029228061 0.12858723 0.069391906 0.1363686 -0.13572463 -0.10052935 -0.0970343 -0.043266352
-0.012779298 -0.1421292 -0.033044446 0.20276392 0.026074234 -0.16616198 -0.18613005 0.051792655

actor.4.bias f4 [64]
00000000: 1ae1 0ebc bfba fbba d827 a1bd 560b 48bc
00000010: 1f82 cdbd 13c9 bf3c 95b5 0a3d a8b5 473d
00000020: 4239 cabd 97c6 3b3c 19ab 41bb e76e 2dbd
00000030: f3c3 1a3d cc5c 983c e40d 47bc 736e 7b3d
00000040: 438e 593c ed65 d5bc 4377 883c cd1f 6cbd
00000050: ffd5 b43c 16ca abbd 4869 a8bc 8ef5 bdbc
00000060: b174 6f3d 3716 8d3d 1e6c 613d 16b7 82bb
00000070: 612c 6f3d 930a 553d 2fdc 85bd 3475 cebd
00000080: e4d7 babd c287 813d ea37 10bd 3f2b a1bc
00000090: a2c3 293d 2280 29bc 31d7 0d3b 19dd 2b3d
000000a0: ed19 f0bc dea7 51bd 901d aabd 119e 53bd
000000b0: d958 25bd 933d 40bd 7af2 863d 4606 cebd
000000c0: f9a9 8dbc 61be 16bd c9d2 ce3c 44c9 993d
000000d0: f32d 06bd 1113 e3bd e21e 673d 9310 a73c
000000e0: 1eb8 493d 6667 78bd 7a60 9dbc 264d 92bd
000000f0: 5247 b7bd 8f38 6d3d 1b53 c93c 4ad0 93bd
-0.008720661 -0.0019205435 -0.07868928 -0.012209734 -0.10034584 0.02341131 0.033864576 0.048757225
-0.09874202 0.011460922 -0.0029551445 -0.042342093 0.037784528 0.018598936 -0.012149308 0.06138463
0.013278547 -0.026049579 0.01665843 -0.057647515 0.022074698 -0.08388154 -0.020558015 -0.023188379
0.058460895 0.06889003 0.05503475 -0.0039891107 0.058391932 0.052012037 -0.06536137 -0.100809485
-0.09123209 0.06324722 -0.035209574 -0.019673942 0.041446336 -0.010345491 0.0021643157 0.041958902
-0.029309237 -0.05118548 -0.0830642 -0.051664416 -0.040367935 -0.04693372 0.065892175 -0.1005979
-0.017292963 -0.036802653 0.025246995 0.075090915 -0.032758664 -0.11087621 0.056425937 0.020393645
0.049247853 -0.060645483 -0.019211043 -0.07143621 -0.0894915 0.057915267 0.02457576 -0.07217462

actor.6.weight f4 [3, 64]
00000000: 7423 df3a f360 a1b8 a072 b83b d7dc 1a3b
00000010: a4be 9039 30bd 203c 5c6b 003c 8ac6 193c
00000020: fac6 25ba ed0c 71ba c8bc ebbb a30c 10ba
00000030: 63c2 ff3a 78b3 0dba c0cb 553b a3a1 88bb
00000040: 63e6 8bbc 546a 7dba 2674 9dbb 50fd 01bb
00000050: a05f b738 03de f33a 9eca 2e3b bf27 303c
00000060: a16b 1c3c fc73 963a 0ee0 2739 794e 64bc
00000070: b51c 84bb 4b45 a1ba 735c 28ba 73ef 093c
00000080: b7c0 653a 761c 88bb 463f 96ba bceb 033c
00000090: 1ecf 2aba 1d3e 22ba 8a4a c03b a7c8 da3b
000000a0: c2da db3b 13bd e2b9 7e6a 7d39 4aba 9639
000000b0: f45c 083c 2600 113b 6877 b13b 004d 1139
000000c0: c002 6dbb 0195 873a 097b 7d3a 5162 5dbc
000000d0: 70cb 79ba a4c9 0f3a 09b1 333a a528 1eba
000000e0: 18b8 8c3a 3458 123c e58b ddb9 5935 8abc
000000f0: 98de 973b dee0 fdba 7191 fa3a 3b3c 053a
00000100: 5a76 e4bb d95a b139 8c0b 6dbc 36a4 b7bb
00000110: ffc7 f0bb 5250 7ebc 03a9 4abc faa5 54bc
00000120: c220 e1bb c213 a6bb ab6c 76bb f7ac 1bbc
00000130: 9ebd 04bc a318 f639 660d a2bc a036 ab3b
00000140: 82fb 0bbc d460 cdbb 8cc1 a0bb d116 d83a
00000150: 82e2 20bc 335a c7bb f0d1 20bc 2db4 71bc
00000160: 2f71 26bc 9e22 16bc b30b f1bb 445a e1bb
00000170: f303 0bbb efe1 d3bb fb8f 13bc 3c82 44bc
00000180: a631 08bc e14d 19bb 6561 9d39 64df 84bc
00000190: afed dbbb f5bb 00bc c31f c9bb 48ac 28bc
000001a0: fd38 51bc e401 e6bb c09b 0ebc b2b5 debb
000001b0: be10 68bc cf02 07bc 2be1 a53b 3017 1fbc
000001c0: acd3 0cbc 4b26 12bc 21c0 f1bb e562 03bc
000001d0: 032c e4bb 92c4 00bc 39ce dbbb 41d5 07bc
000001e0: 9dee 08bc f29c 82bc 5ff4 94bb 218e 03bc
000001f0: bfe7 debb 54bc 84bb fcf9 04bc f298 2fba
00000200: 1227 493d e483 e1ba f3d2 3b3d a23e 323d
00000210: 608e 2e3d 0ef0 543d 3aa2 203d 8fa7 3a3d
00000220: e851 4f3d 3b0f 2c3d c106 103d e192 333d
00000230: 4e13 133d 6686 7cbb 873d 253d 60ca 43bd
00000240: f969 0f3d 9bbb 223d 4bea 0b3d 1ef2 ecbc
00000250: 0645 233d 0998 1c3d 5875 353d daf5 3e3d
00000260: f603 183d 7052 2e3d d4ff 4f3d 9d9b d83c
00000270: 6970 f93c 79c1 513d 2f02 5a3d 0101 2b3d
00000280: ec46 2f3d 1a93 113d 2ae6 eabb 019e 4a3d
00000290: 6b21 2a3d 4d42 343d afcf 003d 06cd 1f3d
000002a0: 1644 1c3d daf3 533d 784a 623d 369b 273d
000002b0: 2fc4 313d 8df5 5f3d 09e8 d8bc 0dfa 673d
000002c0: f4a6 2b3d c19d 583d 0f1a 273d c0ed a23c
000002d0: 373e 573d b9c4 4d3d aebf 503d b5f7 2e3d
000002e0: 517a 243d a7b2 4f3d 0aa7 243d 3f93 063d
000002f0: 3c3b 163d 06b5 d43c c5e5 673d dae1 6337
0.0017024116 -7.6951364e-05 0.0056288987 0.0023630166 0.0002760786 0.009810731 0.0078380965 0.009385714
-0.00063239003 -0.00091953465 -0.0071941353 -0.0005495047 0.0019512888 -0.0005405466 0.0032622665 -0.004169659
-0.01707763 -0.0009667028 -0.0048051057 -0.0019834824 8.7439315e-05 0.0018605593 0.0026671062 0.010751664
0.009547145 0.0011478658 0.00016009828 -0.013934725 -0.0040317425 -0.0012303976 -0.00064224674 0.008418906
0.00087643735 -0.0041537834 -0.0011462949 0.008051809 -0.0006515848 -0.0006189065 0.0058682607 0.0066767517
0.0067094276 -0.0004324695 0.00024167632 0.00028749026 0.008322943 0.0022125333 0.0054158457 0.00013856962
-0.003616497 0.0010344089 0.0009669518 -0.01351221 -0.0009528911 0.0005485064 0.00068546884 -0.0006033278
0.0010736017 0.008932162 -0.00042256634 -0.016871141 0.0046346895 -0.0019369384 0.0019116831 0.00050825224
-0.0069721164 0.00033827758 -0.014468085 -0.0056042923 -0.00734806 -0.01552208 -0.012369397 -0.012979025
-0.00687036 -0.0050682733 -0.0037601392 -0.009501687 -0.008101849 0.00046939132 -0.01978178 0.0052250177
-0.008543851 -0.0062676463 -0.004905885 0.0016486292 -0.009819629 -0.0060837506 -0.009815678 -0.01475243
-0.010158821 -0.009163527 -0.007356131 -0.0068772156 -0.002121207 -0.0064661424 -0.009006496 -0.011993941
-0.008312618 -0.0023392367 0.00030017938 -0.016219802 -0.0067116837 -0.007857312 -0.0061378195 -0.010294981
-0.012769935 -0.0070192683 -0.008704126 -0.006796562 -0.014164148 -0.008240416 0.0050622425 -0.009710118
-0.008595388 -0.008920263 -0.00737764 -0.008019184 -0.0069632544 -0.007859366 -0.0067079333 -0.00829059
-0.008357671 -0.015943978 -0.004545733 -0.008029492 -0.0068025286 -0.004050771 -0.008116242 -0.0006698511
0.049109526 -0.0017205444 0.045855474 0.043516763 0.042616248 0.051986746 0.03921721 0.045569953
0.05061522 0.042006712 0.03516269 0.043841247 0.035907082 -0.0038532256 0.04034188 -0.04780042
0.035013173 0.039729696 0.034158986 -0.028924044 0.039860748 0.03823093 0.04430136 0.04662118
0.037113152 0.042559087 0.050781086 0.02644139 0.03044911 0.0512099 0.05322474 0.041749004
0.042792246 0.035540678 -0.007168551 0.04946709 0.041535776 0.04400854 0.031448063 0.039013885
0.03815087 0.051746227 0.0552468 0.040919505 0.043399986 0.054677535 -0.02647783 0.05663495
0.041907266 0.05288482 0.040796336 0.019888759 0.052549567 0.050236437 0.05096405 0.0427167
0.040155713 0.050707486 0.040198363 0.03285527 0.036677584 0.025965225 0.05661561 1.35828395e-05

actor.6.bias f4 [3]
00000000: d537 e7bc 47e5 8e3d fa98 373d
-0.028224865 0.06977325 0.044823624

critic.0.weight f4 [256, 259]
00000000: 6211 583d 623d a73d a7e8 98bd 7f87 39bc
00000010: a9b7 20bf 224c c7bd 9f56 913d e6df 5abd
00000020: d397 123d b1fc 4b3b 2063 2d3d e1ac 97bd
00000030: 58a5 b23d 45c1 033e 1e0c fc3d 08f4 74bd
00000040: f26f 233e 1e1e 9dbd c13f d6bd 715b 99bd
00000050: 8b9d d63d 3f2b e0bd 392f 1bc0 b4e6 f23d
00000060: 5845 e8bd 14b9 d63d 416b 383d 37d4 70bd
00000070: b8d8 973e 589e b13e 9414 963d bd02 813d
00000080: 1f0b 8e3b b45a fa3d faea eabd 4f1d 13bd
00000090: 47e0 1c3c 5be2 c13d 47bb 96bd a07c 1e3d
000000a0: 27ef 383d b706 40bc 5e2e 10bd 65fc c43d
000000b0: 358a 2fbc 1207 603e 9059 10be 6954 173e
000000c0: f75e 34be 1018 713e e899 86bd 564c ca3c
000000d0: aa7d 533d 865c 03bf 9c44 1c3b 73ec 823d
000000e0: 18bd 3fbd 6128 1e3c 7b1d 3c3e 2133 18bc
000000f0: b195 993d a35c c73d ecb9 9bbb b779 723d
00000100: 986c 21bd ec2c bfbc b074 fd3d b291 2a3d
00000110: f1ab 2bbd 0e70 e83d 1700 cebd 944c 973d
00000120: 76f2 18be 6523 88bd 8df1 fd3d 5faa 2bbe
00000130: bf55 5a3d 0a5d c9bc 5c0e 9d3d f71b 3d3e
00000140: 337f 0bbc 2622 323e 8f54 bd3d dd6e 0cbd
00000150: d023 ea3d f211 ebbe 28eb 4cbd 20dd 03be
00000160: f9d6 e8bc a87f 6dbd 4a9f 253e ce02 df3d
00000170: 66a2 3d3d 3855 c0bd b957 c4bd ff61 833d
00000180: a42f 4e3a 1743 0abd 6c6a 2d3d 4d13 9a3d
00000190: c680 64bd 7368 873d ff3d dcbc ee2b 2f3d
000001a0: 41a9 e83c 620b aa3d 6f20 38be e2cb 943d
000001b0: 1860 e53d 046f 643c 4235 9d3d 586e 0fbe
000001c0: 8163 9fbc c8a2 03bd 0fc8 35bd 0959 d1bb
000001d0: 7df5 83bc 41c1 b5bd 6cdd d73c d1fa 9bbd
000001e0: 8485 4abc 76cc 10bd 6d84 ce3c b133 c43d
000001f0: bddb 443d 8df1 513e 6a7e d6bc 1e09 533d
00000200: 2e5d 3abe 1b69 963d 87f3 903d ee5d fcbc
00000210: fac6 913d 1dd3 cabc 9c0e efbc 8caf 8b3d
00000220: f32e 7fbd 9dab eabd 5282 8b3c e3ef 743e
00000230: 9726 003e 4032 c13d 25cb 66bd 1048 ea3d
00000240: 880f b0bd fa0a babd 1fff 5a3d 464d 85bc
00000250: feca 323e 7c94 553d 066c a6bd c05e 323d
00000260: cd71 61bb 7f00 0ebe cd60 aabc 71d9 013f
00000270: e438 e4bc e00e 213e 85ca 903d 0a93 16bc
00000280: 3818 1abe 7d91 bfbd 74a7 153e c816 d9bc
00000290: a12d 8f3c 738c 95bb 15d2 87bd f5b3 a53d
000002a0: e7e0 15bd 635e 353d 0262 2abd 206e aa3d
000002b0: 9018 363e 4cf3 da3c 200e 60bd 5416 d93d
000002c0: f543 00be 4680 f63d 4590 debd 8861 fb3b
000002d0: 58fd d0b9 2293 d53d f134 19bd 5aef 03bd
000002e0: 2f23 193d fcdf 3d3e 9491 0abf 44ea 9dbc
000002f0: e45f 27bd c9c7 443d 46f9 adbd 7ec6 45bd
00000300: 58d7 413e d9ec 10bc 1306 3dbd de5a 88bd
00000310: d13d b23d 1514 73bc 3b72 adbd 51bb 91bb
00000320: 3a46 ee3d ae6d f43d 06ff 55bc 4440 a13d
00000330: 85ff 37bc 75f9 95bb 6d95 64bd c430 503e
00000340: 9eb5 afbd 0a18 28bb 4bb2 35bc 34e7 203e
00000350: 9aaf f83c 4ad3 573d 930b 493c 5726 893c
00000360: a4fe 373d 3cf7 d3bd 4063 81bd c103 bdbd
00000370: 43eb a7bd b374 c4bd cda5 cabd 89ab 473c
00000380: f1d2 a33d 1ff2 c5bd 4262 61be 1a2e b0bc
00000390: 7e58 e43d ea3b 493e afe8 203d f980 0cbe
000003a0: 5ac3 523d 55e1 f3bd 3276 ef3c 8be9 bdbc
000003b0: db55 ddbd 9e3b 15be 8f76 a1bd 5db4 e03d
000003c0: eb26 1bbd a567 0e3e d17f 263e 7671 3d3e
000003d0: 49d5 8fbd 1594 9cbd 5273 a0bc ba9e 913d
000003e0: a750 3c3d 05ca 2f3d 4abb cd3d 9427 403d
000003f0: 031c 883d b2b8 aa3d 933a e23b d00d 28bc
0.052750953 0.08166005 -0.0746625 -0.011323809 -0.62780243 -0.09731318 0.070966 -0.053436182
0.035789322 0.0031125958 0.04233086 -0.07406021 0.08722943 0.12866695 0.12306999 -0.05980304
0.15960672 -0.0767176 -0.10461379 -0.07488144 0.10479268 -0.109457485 -2.4247572 0.118604094
-0.11341351 0.104845196 0.04502416 -0.058796134 0.2965753 0.3469112 0.07328144 0.062993504
0.004334822 0.122243315 -0.114705995 -0.035916623 0.009574956 0.09467002 -0.07359939 0.03869307
0.04514995 -0.011720351 -0.03520047 0.09618453 -0.0107141035 0.21877697 -0.14096665 0.14778294
-0.17614351 0.23544335 -0.06572324 0.024694603 0.051633514 -0.51313055 0.0023844605 0.06392755
-0.046811193 0.009653182 0.18370621 -0.009289534 0.074992545 0.09734466 -0.004752388 0.059198108
-0.039410204 -0.02333685 0.12375772 0.041642852 -0.041912023 0.11349498 -0.10058611 0.07387653
-0.14936242 -0.06647376 0.12399588 -0.1676421 0.05330443 -0.024580497 0.076687545 0.18467699
-0.008514213 0.17395839 0.09244644 -0.034285415 0.11432612 -0.4591213 -0.05002895 -0.12877321
-0.02842282 -0.05798307 0.16174045 0.10889207 0.046297453 -0.09391254 -0.09587044 0.06415176
0.00078653754 -0.033755388 0.04233782 0.075232126 -0.05578687 0.06611719 -0.02688503 0.042766504
0.028401019 0.08302952 -0.17981122 0.0726545 0.11199969 0.013942484 0.07676174 -0.14006937
-0.019456627 -0.032137662 -0.044380244 -0.0063887876 -0.016108269 -0.08874751 0.0263507 -0.07616199
-0.012360934 -0.03535124 0.02520963 0.09580172 0.04806112 0.205023 -0.026183326 0.051522367
-0.18199608 0.07344266 0.07077699 -0.030806508 0.0711803 -0.02475887 -0.029181771 0.06820592
-0.062300634 -0.11458514 0.017029915 0.23919635 0.12514721 0.094334126 -0.056346077 0.11439526
-0.08596712 -0.09084125 0.05346596 -0.016272198 0.17460248 0.05214356 -0.081260726 0.043547392
-0.0034400106 -0.13867377 -0.020798111 0.50722414 -0.027859159 0.1572833 0.070698775 -0.00919033
-0.15048301 -0.093539216 0.1461466 -0.02650012 0.017477812 -0.004563862 -0.06631867 0.08090965
-0.036591437 0.044279467 -0.041597374 0.08321786 0.17782807 0.026727341 -0.05470097 0.10599962
-0.12525924 0.12036185 -0.10867361 0.0076715387 -0.00039861607 0.10428454 -0.037404004 -0.032210685
0.03738707 0.18542475 -0.54128385 -0.019276746 -0.040862933 0.048042092 -0.08494811 -0.048285
0.18929803 -0.008845531 -0.04614837 -0.066579565 0.08703197 -0.014836331 -0.08469053 -0.0044473787
0.116344884 0.11934982 -0.013061291 0.07873586 -0.011230354 -0.0045768567 -0.055806566 0.20331103
-0.085795626 -0.0025649094 -0.011089872 0.15713197 0.03035717 0.052691735 0.012270826 0.016741915
0.04492058 -0.103498906 -0.063177586 -0.092292316 -0.081991695 -0.09592571 -0.09894905 0.012186893
0.07999218 -0.096653216 -0.22010139 -0.021506358 0.11149691 0.19651762 0.039284404 -0.13721074
0.051455833 -0.11908213 0.029231165 -0.023182651 -0.10807391 -0.14573523 -0.078839414 0.109719016
-0.037878912 0.13906725 0.16259696 0.18500313 -0.07023103 -0.07645432 -0.019586239 0.07110353
0.045975354 0.04291727 0.10045488 0.046912745 0.06645968 0.08336009 0.0069039552 -0.010257199

critic.0.bias f4 [256]
00000000: ad62 b7bc aed6 6d3c ddea 123d c781 61bc
00000010: 8d87 d03c ae83 20bd 6af6 823d 9cf0 69bd
00000020: daa5 66bd 5bfd 8a3c 9001 a6bc 8f49 383c
00000030: 37d2 5b3d 12c0 453d a4a6 a43c a404 763c
00000040: 3058 be3c 369e 83bc c285 afbc 2ab5 193d
00000050: bf7b 4bbc 19bf 6c3d bf81 a13c e496 afbc
00000060: 021c c9bc 8bb8 06bd 3618 d23c f20d 053d
00000070: 28c0 963d fcf9 8abd 29d1 15bd b267 b3bc
00000080: 8747 71bd 2885 ca3c b178 73bd 089e f2bc
00000090: ba81 f5bb 663d a7bc 7bfe 213c 619f 61bd
000000a0: cf0f 02bd 18a7 1dbd 3d7c 623c a02d 35bd
000000b0: 2768 093d be7c a93d 3d38 b4bc 1a84 a1bc
000000c0: eb4e 45bd c1c5 9c3c f1e3 4dbd f147 4cbd
000000d0: 2f0a 5a3d 1227 afbc 99a5 4f3d 489d 3abd
000000e0: fb8f 12bd 8f08 35bd 91a0 67bc f791 f7bc
000000f0: 2440 7b3c bb0f 8b3d f950 4c3d 9ac4 3b3d
00000100: 931a 503c 76eb 6fbc 1d4a 70bd cef1 86bc
00000110: 2cc3 09bd 0632 e4bb 6c60 833c d147 1bbc
00000120: 2ef6 513b abca 81bb cf32 a8bb eafb 623b
00000130: eb09 3ebd 5995 6c3d 44c5 95bc 1f2a 41bd
00000140: 4fba b83c f064 843d c57d 8abd 5ff7 2e3d
00000150: d28f 4f3c fd09 6cbc 4e20 133d 2fee 62bc
00000160: 1acc 18bc a494 1ebd 3623 faba 9f52 b03c
00000170: 511a 21bd 890a c73c fd7e d73c 3642 32bc
00000180: ecf1 7d3d ea89 80bc 3889 3c3d 79ec a43c
00000190: a058 39bc c581 35bd 0ec4 2fbd 49a7 293d
000001a0: 3eec 8f3b b06b 01bd 24e5 8a3c 8fc8 46bc
000001b0: 8c78 dfba b772 1a3d 10a4 ce3c b264 563d
000001c0: 4659 01bd 6217 153c 27b6 bebc 809c 4fbd
000001d0: c6e5 3d3c 0a74 05bc aafa 6ebc abbe 26bd
000001e0: 2113 643c 4f47 09bd 6fed c0bc 8685 bc3c
000001f0: c9be 71bd 8189 e0bc 624a 2abb 1a59 413d
00000200: fce2 1f3c 5486 81bb 3e34 3cbd 3224 3d3d
00000210: 9ebc 493d ca4e 14bd a2cb 823c 3434 a33b
00000220: f4ba 733c c579 4ebd 57d4 e63c 13e4 abbb
00000230: 1122 82bd 5b1e e5bc 1894 56bd 9ff8 47bc
00000240: c02e b0bb 332b 833d 7fd9 02bd 386c 42bd
00000250: b5a7 58bd f42d 083c 06c7 10bd b4ed be3c
00000260: f9b3 b3bc 24dd 8b3d ff8c 843b 0575 473d
00000270: 575f 60bd 0e4f 84bd 4f03 483b d485 e8bb
00000280: 84c3 76bd 2689 643c 6905 e1bb ec60 65bd
00000290: 3c1c 94bc 632d 5ebd 0c7c 423b 1896 48bd
000002a0: de0d 893d ee96 063c 96e0 8d3d 06fe df3b
000002b0: 1ada 523d 25e3 e6bc 6c22 96bc 0006 82bd
000002c0: 6891 853b 782f 55bd b6ab 3dbd 57e9 653d
000002d0: db8a 17bd a38a be3c db31 1abd cb91 44bd
000002e0: d128 1dbd 3b89 cf3c 5012 56bd fe6f 59bd
000002f0: c2b5 82bd d5cf ccbc e535 1fbd bcfc 51bd
00000300: 6697 2cbc bc8d 16bd b9aa 6b3d e8a8 b0bc
00000310: e6bf 9e3c e7e6 123d b816 c3bc 9b3f 60bc
00000320: 52b8 86bc 43a0 3e3c 3a1f 283d 1870 14bd
00000330: 0c2d 4fbd 7b74 913c 15ea a6bb 5402 9e3c
00000340: bf71 e5bc a15e 4cbd d15a 023c c453 593d
00000350: 6158 053c 159a 1e3d cc63 caba a5ab 3f3d
00000360: 179f ef3b f623 123c 9578 193d ce2a 82bb
00000370: 1c10 443d c19b 0dbc db38 28bd d879 3a3c
00000380: 17c7 79bc b6ad 3cbd d64d 1ebd 067c 40bd
00000390: 5293 73bc f77a 49bd 2df6 4bbd c057 1ebd
000003a0: 0919 e5bb fa62 2b3b e7f7 6cbc c5d1 2eba
000003b0: 5c4e 053d ec95 113d 2642 8fbc 1c2b 8fbc
000003c0: 097c 033d 5452 713d 20e8 31bd 1334 98bc
000003d0: 84b4 04bc 7760 1f3d 196d 92bd 2915 d4bb
000003e0: 5295 5bbd 5a2a 11bd 1eff 01bd 339f eb3c
000003f0: f483 c03a 251d 2bbd d359 d0ba cea3 3f3d
-0.02238592 0.014516516 0.035868514 -0.0137638515 0.02545526 -0.03918808 0.06394656 -0.05711423
-0.056310512 0.016966512 -0.020264417 0.0112480065 0.053667273 0.048278876 0.020098992 0.015015755
0.02323541 -0.016066652 -0.021426085 0.037526287 -0.01241964 0.057799432 0.019715188 -0.021434255
-0.024549488 -0.032890838 0.02564631 0.032484002 0.0736087 -0.06785962 -0.036576424 -0.021900032
-0.058906104 0.024721697 -0.059441272 -0.02961637 -0.0074922713 -0.02041502 0.009887333 -0.055083636
-0.031753357 -0.03848943 0.013823566 -0.044232965 0.033546593 0.08275746 -0.021999473 -0.019716311
-0.048170965 0.019137265 -0.05026621 -0.049873296 0.053232368 -0.021380935 0.050695036 -0.04556015
-0.03578184 -0.044197615 -0.014137403 -0.030220969 0.015335117 0.0679011 0.04988191 0.04584179
0.012701648 -0.014643541 -0.05866443 -0.016472723 -0.033633396 -0.006963971 0.016037188 -0.009477572
0.0032037604 -0.0039609275 -0.00513301 0.0034635016 -0.046396177 0.057759617 -0.01828254 -0.04715931
0.022549776 0.06464565 -0.0676227 0.04271638 0.012668567 -0.014406678 0.03591948 -0.013850733
-0.009326005 -0.038715973 -0.001908398 0.021523772 -0.039331738 0.024297016 0.02630567 -0.010880044
0.061998293 -0.015690763 0.0460293 0.02013229 -0.011312634 -0.04431321 -0.04291158 0.0414193
0.004392176 -0.03159684 0.016954966 -0.012132778 -0.0017049476 0.037707057 0.025224715 0.052342124
-0.03157928 0.009099813 -0.023280216 -0.05068636 0.011590427 -0.008145342 -0.01458613 -0.04070918
0.013920576 -0.03351527 -0.023550717 0.023012888 -0.059019838 -0.027409317 -0.0025984277 0.047204114
0.009758707 -0.0039527807 -0.04594826 0.046177097 0.049252145 -0.03620795 0.01596624 0.0049805883
0.014876116 -0.050409097 0.028177423 -0.0052456944 -0.06354154 -0.027968576 -0.052387327 -0.012205272
-0.005376667 0.06404724 -0.0319457 -0.047466487 -0.052894313 0.008311737 -0.035346054 0.023306705
-0.021936404 0.068292886 0.0040451284 0.048695583 -0.054778423 -0.06460391 0.003051955 -0.0070960317
-0.060245052 0.013948714 -0.0068671 -0.056000635 -0.01807987 -0.054242503 0.0029675988 -0.048971266
0.06692098 0.008214695 0.06927602 0.006835702 0.05147753 -0.028184483 -0.01832696 -0.06348801
0.0040761717 -0.052047223 -0.046306334 0.056130733 -0.036997657 0.023259467 -0.037645202 -0.0479906
-0.038369004 0.025333991 -0.052263558 -0.05308532 -0.06382324 -0.025001446 -0.038869757 -0.051266417
-0.010534143 -0.036756262 0.05753586 -0.021564916 0.019378614 0.035864737 -0.023814544 -0.01368704
-0.016445313 0.011634889 0.041045405 -0.036239713 -0.05058007 0.017755738 -0.0050938227 0.01928822
-0.02800834 -0.049894933 0.007956223 0.0530584 0.008138747 0.038721163 -0.0015441119 0.046794552
0.007312666 0.008919707 0.03746851 -0.003972388 0.047866926 -0.008643092 -0.041069847 0.011381589
-0.015245221 -0.0460641 -0.03864845 -0.046993278 -0.014866667 -0.049189534 -0.04979532 -0.038657904
-0.00699151 0.0026151524 -0.014463401 -0.00066688313 0.032545432 0.035543367 -0.017487597 -0.01747661
0.03210071 0.058916405 -0.043434262 -0.018579518 -0.008099679 0.038910355 -0.07149715 -0.006472249
-0.0536092 -0.03544078 -0.03173744 0.028762436 0.0014687763 -0.04177584 -0.001589591 0.046787076
