rlgpu/logs/cut_407/model_0.pt (torch, 867890 bytes, 16 tensors)

log_std f4 [3]
0	0xbb11ed5b	-0.002226672
1	0x3a8a6afa	0.0010560446
2	0xb8d42daf	-0.00010117457

actor.0.weight f4 [256, 259]
0	0x3d19fa82	0.03759242
1	0x3d37c1da	0.044862606
2	0x3d63c6e6	0.055609606
3	0xbcd82c3f	-0.026388286
4	0xbd859a7b	-0.065236054
5	0x3d904b67	0.07045632
6	0x3d5d3e57	0.05401453
7	0xbd99f289	-0.07516963
8	0x3cfd2e43	0.030905848
9	0x3d0487f2	0.03235621
10	0x3c99223d	0.018693084
11	0xbdb1c351	-0.08679832
12	0x3d8f6ee3	0.07003572
13	0xbdc9dcf5	-0.09856597
14	0xbcc34468	-0.02383633
15	0xbdb319e8	-0.087451756
16	0xbcecff54	-0.028930344
17	0xbd0b83d1	-0.034061257
18	0xbe1fb859	-0.15597667
19	0x3d08b436	0.033374988
20	0x3d78392c	0.0606014
21	0xbda5ed95	-0.08101956
22	0xbdc64b75	-0.09682361
23	0x3c87da1a	0.016583491
24	0x3dd723fa	0.10504909
25	0x3adb87c0	0.0016748831
26	0x3d8f93ba	0.070105985
27	0xbc5fbb1e	-0.013655452
28	0xbb96b985	-0.0045997524
29	0xbd529035	-0.051407058
30	0x3c25dc2d	0.010123295
31	0xbdb33ce4	-0.08751848
32	0x3cdf1320	0.0272308
33	0x3dda48f4	0.10658446
34	0x3db4b65e	0.08823846
35	0xbd1a7528	-0.037709385
36	0x3d5d2890	0.05399376
37	0xbc3129f1	-0.010813222
38	0xbd66d163	-0.05635203
39	0x3c1b5ac8	0.009482093
40	0xbc699dd3	-0.01425882
41	0xbcd7a927	-0.026325775
42	0x3e303c01	0.1721039
43	0x3e1bb3f3	0.15205364
44	0xbdd52ed4	-0.104093224
45	0x3e1dd749	0.15414156
46	0x3da26f7e	0.07931422
47	0xbda12df6	-0.078700945
48	0x3c9d3f36	0.01919518
49	0xbd9bb890	-0.07603562
50	0xbd0f8e54	-0.035047844
51	0xbe0fb2c0	-0.14033031
52	0xbd289534	-0.041157916
53	0x3dc5e7ac	0.096633285
54	0xbd81e003	-0.06341555
55	0x3d681930	0.056664646
56	0x3e5eedbb	0.21770374
57	0x3db59f68	0.08868295
58	0x3c3ebf59	0.0116423005
59	0xbe201f4d	-0.1563694
60	0x3c88be15	0.0166922
61	0xbd2ee595	-0.042699415
62	0xbbc450ad	-0.0059910626
63	0x3c43f351	0.011959867
64	0xbd4b1325	-0.049578805
65	0x3d0050d7	0.031327095
66	0xbdc7a873	-0.09748926
67	0x3d9f4224	0.07776287
68	0xbcd6a88f	-0.026203422
69	0xbd2156b9	-0.039389346
70	0xbda1089b	-0.078629695
71	0x3d92f8bb	0.07176348
72	0xbdac88bf	-0.0842452
73	0xbcc687b5	-0.024234632
74	0xbccc22bc	-0.024918906
75	0xbd32f7fe	-0.043693535
76	0xbe8326c5	-0.25615516
77	0xbc49a24c	-0.012306761
78	0x3d0e0441	0.034672026
79	0xbc8d659a	-0.017260361
80	0x3d200ed6	0.03907665
81	0x3e0473a3	0.12934737
82	0xbdcc82bb	-0.09985872
83	0x3bf9f172	0.0076276595
84	0xbd5e8570	-0.054326475
85	0x3e0ad0a5	0.13556154
86	0xbd87bc0f	-0.06627666
87	0xbe05cfcc	-0.1306755
88	0xbdbdea04	-0.092731506
89	0xbddee241	-0.10882998
90	0x3d8dcd42	0.069239154
91	0x3d7a5ffd	0.061126698
92	0x3c1406c4	0.009034816
93	0x3d0c72c3	0.034289133
94	0x3e2e9a8f	0.17051147
95	0x3dfbd9f2	0.12297429
96	0xbd014d42	-0.03156782
97	0xbd920b93	-0.07131114
98	0xbca4b706	-0.020106804
99	0x3db12cd9	0.08651132
100	0x3d892a20	0.06697488
101	0xbdbb1f3d	-0.091368176
102	0xbc6aff20	-0.014343053
103	0xbc2d916d	-0.010593754
104	0x3dd9f9ba	0.10643335
105	0xbd4cf774	-0.050040677
106	0xbd4d8af2	-0.050181337
107	0x3dd24329	0.10266716
108	0xbbc5c1f0	-0.006035082
109	0x3e516948	0.20450318
110	0xbd05058a	-0.032475986
111	0x3df0aeaf	0.11752068
112	0x3cc9489d	0.024570758
113	0xbd41047a	-0.04712341
114	0xbde8b2f7	-0.1136226
115	0xbdd65018	-0.104644954
116	0xbd65b4dd	-0.056080688
117	0x3dd0c13a	0.10193105
118	0xbda1487f	-0.07875156
119	0xbc762fc8	-0.01502604
120	0xbd95d13d	-0.073153
121	0x3e1e0c9c	0.15434498
122	0xbdcb41fb	-0.09924694
123	0x3c0b170d	0.008489382
124	0x3d3fd139	0.04683039
125	0x3de17b05	0.11009792
126	0x3c86324b	0.016381403
127	0xbd42de3f	-0.04757523
128	0x3d6b7036	0.05748006
129	0x3ddde094	0.108338505
130	0x3d8cdd66	0.06878166
131	0x3d85eaa4	0.06538895
132	0xbd91122d	-0.07083545
133	0xbd724b54	-0.05915387
134	0xbd88bbdc	-0.06676456
135	0x3e40e043	0.18835549
136	0xbd825376	-0.06363575
137	0xbdc080c9	-0.09399564
138	0x3d91bf40	0.07116556
139	0xbdcbe2a4	-0.09955338
140	0x3d1592ca	0.036516942
141	0xbe405448	-0.18782151
142	0xbc87215d	-0.016495401
143	0xbc715bef	-0.014731391
144	0xbdbff97a	-0.09373756
145	0x3c1edf54	0.0096968
146	0x3e07b230	0.13251567
147	0xbbbb441e	-0.0057149073
148	0xbd9cc4eb	-0.076547466
149	0xbda6688a	-0.08125408
150	0xbe07f11e	-0.13275573
151	0x3dad16bf	0.08451604
152	0xbe266af1	-0.16251732
153	0x3c9c07a1	0.019046606
154	0xbc9255e0	-0.017863214
155	0x3dfefb78	0.124503076
156	0x3e1fd1d6	0.1560739
157	0x3d846692	0.06464876
158	0xbd4aa568	-0.04947415
159	0x3e00e23a	0.12586299
160	0x3df6c235	0.12048761
161	0x3d35aeff	0.044356342
162	0xbdff0d65	-0.12453727
163	0xbdaa2609	-0.08308036
164	0xbb758e51	-0.003746886
165	0x3d3ca6cf	0.04605752
166	0xbd6fc9dc	-0.058542117
167	0xbce8605e	-0.028366264
168	0xbe43a8bf	-0.1910734
169	0xbd7feadb	-0.062479835
170	0x3d872ad7	0.06599968
171	0xbe21ddca	-0.15807262
172	0x3d7d9e88	0.061918765
173	0x3dd65e6f	0.104672305
174	0x3d841397	0.06449049
175	0xbd31a3a8	-0.043368965
176	0x3dfa64a2	0.122262254
177	0xbd9207c8	-0.071303904
178	0xbdb3b729	-0.087751694
179	0xbc7b0659	-0.015321338
180	0x3e0ab0e6	0.13544044
181	0x3d17478f	0.036933478
182	0xbdafa9bf	-0.085772984
183	0x3cc7f500	0.024408817
184	0xbe4d1621	-0.20027973
185	0xbcb8c647	-0.022555484
186	0x3d375c61	0.044765834
187	0xbd2de8f0	-0.042458475
188	0xbdea4eaf	-0.11440789
189	0xbd9d5486	-0.07682137
190	0xbe21bc97	-0.15794598
191	0xbd665850	-0.056236565
192	0xbcce4a74	-0.025181986
193	0xbd31322e	-0.043260746
194	0x3e28719b	0.16449587
195	0x3d459b1e	0.048243634
196	0x3df5ebe3	0.120078824
197	0xbcb68895	-0.022281924
198	0xbcc686f8	-0.02423428
199	0x3e1e13c7	0.15437232
200	0xbd15120a	-0.036394157
201	0xbe69af8e	-0.22820875
202	0x3c8d9652	0.017283592
203	0x3dc2e073	0.095154665
204	0x3db8549b	0.09000512
205	0xbd1a33f5	-0.037647206
206	0x3db9ae2b	0.09066423
207	0xbcb6b0cc	-0.0223011
208	0xbdc4c6e8	-0.09608251
209	0xbe44f447	-0.1923381
210	0xbd5846ad	-0.052801777
211	0x3d4d7990	0.05016476
212	0xbd5a4208	-0.05328563
213	0xbdabbcae	-0.08385597
214	0xbcabaaaa	-0.020955402
215	0x3e52cdbd	0.20586295
216	0x3d957199	0.07297058
217	0x3d301a95	0.0429941
218	0xbd863ab9	-0.06554169
219	0x3da6b520	0.081400156
220	0x3d882baf	0.06648957
221	0xbc1e715e	-0.0096705835
222	0xbb4d24eb	-0.0031302522
223	0xbbd16d3e	-0.0063911965
224	0xbe0073a7	-0.12544118
225	0x3d848ac3	0.06471779
226	0xbd2e6f72	-0.04258675
227	0xbde83816	-0.113388225
228	0x3dc38fb8	0.095488966
229	0x3d5125aa	0.05106131
230	0x3d98f461	0.074684866
231	0x3ce0ec4b	0.027456423
232	0x3dc6ea99	0.09712715
233	0x3d985e28	0.07439834
234	0xbdc42b3e	-0.0957856
235	0x3cc41151	0.023934038
236	0xbde90a7f	-0.11378955
237	0xbe2699a5	-0.16269548
238	0x3d05f49f	0.032703992
239	0xbd836934	-0.0641655
240	0xbcc83fb7	-0.024444444
241	0xbe1ec05a	-0.15503064
242	0x3e0bb39c	0.13642734
243	0xbc42b31d	-0.011883524
244	0x3de155c2	0.11002685
245	0x3da22ea4	0.07919052
246	0x3c04c993	0.0081047
247	0x3c97ac5b	0.018514803
248	0x3e1ea922	0.15494207
249	0xbd0230ea	-0.03178493
250	0x3dd0cca4	0.10195282
251	0xbc4da444	-0.012551371
252	0xbdbbc26c	-0.091679424
253	0x3daeac6a	0.08528979
254	0xbc8032ab	-0.01564916
255	0x3d22e71e	0.03977119

actor.0.bias f4 [256]
0	0xbcc40bb0	-0.023931354
1	0xbd4ba623	-0.049718987
2	0xbc9c9507	-0.01911403
3	0xbcd8d164	-0.026467033
4	0xbc5fb382	-0.013653638
5	0x3c164e59	0.009173953
6	0x3d420e6c	0.047377035
7	0x3d1688a1	0.036751393
8	0xbc0ceeae	-0.008601828
9	0x3d42fb6f	0.047603067
10	0x3d49de3c	0.049284205
11	0x3cb5d20f	0.02219489
12	0x3d7c84d8	0.061650127
13	0x3c7f74b8	0.015591793
14	0xbc9b7b63	-0.018979734
15	0x3c5d6937	0.013513855
16	0x3c692911	0.014230982
17	0x3c4ab7dc	0.012372937
18	0x3cd9f827	0.026607586
19	0xbd27c4e8	-0.04095927
20	0x3cb272af	0.021783201
21	0x39530383	0.00020123836
22	0x3d510ec9	0.05103949
23	0xbd3d359c	-0.046193704
24	0x3c8c283f	0.017109035
25	0xbd68a29e	-0.05679571
26	0xbca19d54	-0.01972834
27	0x3d05cc22	0.03266538
28	0xbd7584ab	-0.059940975
29	0xbcdcf50a	-0.026972312
30	0x3d05a95e	0.032632224
31	0xbd0e5a6c	-0.0347542
32	0x3cb34629	0.02188404
33	0x3d5498df	0.0519036
34	0x3cc9b71e	0.02462345
35	0xbcf7e9b7	-0.030262811
36	0xbd6487c5	-0.055793542
37	0x3d36af78	0.044600934
38	0x3d723ef7	0.05914208
39	0xbcc1e7bf	-0.023670075
40	0x3d65d1a5	0.056108136
41	0xbc12077d	-0.008912918
42	0x3d672042	0.056427248
43	0x3d421219	0.04738054
44	0xbd55b78e	-0.052177005
45	0x3d6c73fa	0.05772779
46	0xbcf27f0d	-0.029601598
47	0x3d777d55	0.06042226
48	0x3d45d36d	0.048297334
49	0xbd053c5a	-0.03252826
50	0xbd1f9bd9	-0.038966987
51	0x3d78a1a1	0.060701016
52	0x3c186759	0.009301984
53	0x3d067860	0.032829642
54	0xbd38414a	-0.04498414
55	0xbd0f3eae	-0.034971885
56	0xbbe55b56	-0.0069994135
57	0xbb07b2e4	-0.0020705992
58	0xbc11021b	-0.0088506
59	0x3cd30256	0.02575795
60	0x3ca1e9ac	0.019764744
61	0xbd4d3bd9	-0.050105903
62	0xbd733ac4	-0.059382215
63	0x3d753a33	0.059869956
64	0xbd7a4c22	-0.061107762
65	0xbd58cf78	-0.052932233
66	0xbc6208ae	-0.013796015
67	0x3c8bd174	0.017067648
68	0x3d1518b5	0.036400516
69	0xbc9ff92f	-0.019528
70	0xbc80fb97	-0.015744967
71	0xbc8de8be	-0.017322894
72	0x3d121e04	0.035673156
73	0xbc716cf0	-0.014735445
74	0x3cb28471	0.021791669
75	0xbd5493b0	-0.05189866
76	0xbc43ceea	-0.011951188
77	0x3ce1d080	0.02756524
78	0xbd1c2000	-0.038116455
79	0xbd0dceb1	-0.034620944
80	0x3ce01762	0.0273549
81	0xbd5c5bd8	-0.053798527
82	0xbd7bceef	-0.061476644
83	0x3d432a8e	0.047648005
84	0x3d05d776	0.032676183
85	0xbd7832ff	-0.06059551
86	0xbd5a25c1	-0.05325866
87	0xbd4b0588	-0.049565822
88	0x3d0e7771	0.034781877
89	0xbd341087	-0.043961074
90	0xbd5762ac	-0.052584335
91	0x3d3ff10d	0.046860743
92	0xbcaddc18	-0.021223113
93	0xba7ff400	-0.0009763837
94	0xbd353102	-0.04423619
95	0x3cd5d872	0.026104186
96	0x3d1f3579	0.038869355
97	0x3d57337c	0.052539334
98	0xbd1fb2aa	-0.038988747
99	0x3c31b239	0.010845714
100	0xbc834ef6	-0.016028862
101	0xbbee90cd	-0.007280445
102	0xbd6cd6bb	-0.05782197
103	0xbd4c9d67	-0.049954798
104	0x3b8a7df1	0.004226439
105	0xbd0b1a7e	-0.03396081
106	0x3d00fc93	0.031490874
107	0x3b1a5517	0.0023549253
108	0x3b9dfe54	0.004821578
109	0x3b56d85a	0.0032782764
110	0xbc2410aa	-0.010013739
111	0x3cc8937a	0.024484385
112	0x3d0da119	0.034577463
113	0xbd49d050	-0.049270928
114	0x3bbdd3a8	0.0057930537
115	0x3d0a00ac	0.033692047
116	0xbc9a435b	-0.018830946
117	0xbce161a6	-0.027512383
118	0xbca457bc	-0.020061366
119	0xbd6bed3c	-0.05759929
120	0xbcd44679	-0.02591251
121	0xbc8aa0b4	-0.016922332
122	0xbc2895ad	-0.010289592
123	0xbd400bf2	-0.046886392
124	0x3c9bc2c0	0.019013762
125	0x3d5cc932	0.053902812
126	0xbd276833	-0.040870856
127	0xbcfba65a	-0.030718971
128	0xba55224c	-0.0008130416
129	0xbcc85273	-0.024453377
130	0x3d2034b9	0.03911278
131	0x3c26ba82	0.010176303
132	0xbd6c4f98	-0.057693094
133	0x3b0690df	0.0020533127
134	0xbc11b455	-0.008893092
135	0xbd23266c	-0.039831564
136	0xbd190dd2	-0.037366696
137	0xbd564a0e	-0.052316718
138	0xbd11d06f	-0.03559917
139	0xbb0887cf	-0.0020832901
140	0xbd7bbaee	-0.061457567
141	0x3d1263da	0.035739757
142	0x3d272f7e	0.040816776
143	0x3d277783	0.04088546
144	0x3d6f9f60	0.0585016
145	0x3c412876	0.011789432
146	0x3cfed0e8	0.031105474
147	0x3c91bc04	0.017789848
148	0x3bd8eb7c	0.006619869
149	0x3ca5d7a5	0.020244429
150	0x3d39a03a	0.04531882
151	0x3d1d8422	0.03845609
152	0xbc19dbc1	-0.009390772
153	0x3d5a7b47	0.053340223
154	0x3d64187e	0.05568742
155	0x3d4dd6e3	0.05025376
156	0xbd24fcb9	-0.040280078
157	0x3d147b52	0.03625042
158	0xba0c3659	-0.00053486746
159	0xbd33f58d	-0.043935347
160	0xbd58322c	-0.052782223
161	0x3c88a5ef	0.016680686
162	0x3cd2f05b	0.025749376
163	0x3c8c03ed	0.017091716
164	0xbce0852c	-0.027407251
165	0xbd785f37	-0.06063768
166	0x3d8278a5	0.06370667
167	0x3ba78a6c	0.0051129367
168	0x3d0d7eb8	0.034544677
169	0xbc5f4777	-0.013627878
170	0xbd56841e	-0.05237209
171	0x3d21fd62	0.039548285
172	0x3cc7f2d1	0.024407776
173	0x3d4815f9	0.04884908
174	0xbd12381c	-0.03569804
175	0x3b51f924	0.0032039369
176	0x3d09cefa	0.033644654
177	0x3d558fc9	0.052139077
178	0x3cd4643e	0.025926705
179	0x3d68ba46	0.05681827
180	0xbd4ac769	-0.04950658
181	0xbd5c2255	-0.05374368
182	0xbd290313	-0.041262697
183	0x3d42cf4a	0.047560968
184	0x3cc646c5	0.024203667
185	0xbc2cd9a0	-0.010549933
186	0x3d3f070e	0.046637587
187	0xbcbc6977	-0.022999508
188	0xbd72927a	-0.059221722
189	0xbc830d3d	-0.015997523
190	0xbb875cf5	-0.0041309544
191	0xbcf70d14	-0.030157603
192	0xbd01a86a	-0.031654753
193	0xbd7df46b	-0.062000673
194	0xbd2d955f	-0.04237878
195	0xbcd2b85e	-0.025722679
196	0x3d34d212	0.04414565
197	0x3d5bc63e	0.053655855
198	0x3ce8cc2a	0.028417666
199	0x3d7684d2	0.06018526
200	0xbd58b977	-0.052911248
201	0x3c8c8192	0.017151628
202	0x3d5f1a94	0.054468706
203	0xbbb1888b	-0.0054178885
204	0xbd54a03f	-0.051910635
205	0x3c864024	0.016388007
206	0xbcc6946f	-0.0242407
207	0xbc9d57fe	-0.019206997
208	0x3d2d4130	0.042298496
209	0xbca99391	-0.020700248
210	0xbcf572c8	-0.029961959
211	0xbbd9a12a	-0.0066415267
212	0x3d1aa048	0.037750512
213	0xbcedacaa	-0.029012997
214	0x3d722fb4	0.059127524
215	0x3cdf231a	0.027238417
216	0x3c8a0ec6	0.016852748
217	0xbadf3fd7	-0.0017032576
218	0xbc3928a0	-0.01130119
219	0xbccf9199	-0.025337981
220	0xbd28ec4c	-0.041240975
221	0xbd5a06d8	-0.053229183
222	0xbcc19636	-0.023631196
223	0x3c9600e3	0.01831097
224	0x3d477284	0.048693195
225	0x3d33b02c	0.043869182
226	0xbc60cee1	-0.013721199
227	0x3d08a632	0.03336162
228	0x3d6dd503	0.058064472
229	0x3d79c052	0.060974427
230	0xbd5c0b02	-0.053721435
231	0xbd1ba1dd	-0.03799616
232	0x3cab3f76	0.020904284
233	0xbccc313d	-0.024925822
234	0x3ab20c14	0.0013583922
235	0xbd6174b4	-0.055042937
236	0xbd34c8fd	-0.04413699
237	0x3c419f89	0.011817821
238	0xbd548aa8	-0.051890045
239	0xbd62cc42	-0.055370577
240	0xbb9d7a64	-0.00480585
241	0x3cdf2a85	0.027241955
242	0xbd24165d	-0.04006039
243	0xbc303f2c	-0.010757249
244	0xbd7a5945	-0.06112029
245	0x3d2e46b7	0.042547908
246	0x3d1e8d3d	0.038708914
247	0xbcf8389d	-0.030300433
248	0x3ca79e2b	0.020461163
249	0x3b9dbb4c	0.0048135873
250	0x3d1d0151	0.038331334
251	0x3d46c84e	0.04853087
252	0x3d4de360	0.05026567
253	0x3d1a3bd8	0.037654728
254	0x3c71fc5d	0.014769641
255	0x3d3d3d63	0.04620112

actor.2.weight f4 [128, 256]
0	0xbd2195e6	-0.039449595
1	0x3e21df58	0.15807855
2	0xbe1930f4	-0.1496008
3	0x3c5117b0	0.012761995
4	0xbd7d81f6	-0.06189152
5	0xbe039780	-0.12850761
6	0x3ce42dcf	0.027853874
7	0x3dd02e89	0.10165126
8	0x3cb4ca83	0.022069221
9	0x3e235cff	0.15953444
10	0xbd9a7825	-0.07542447
11	0xbda1fe37	-0.07909816
12	0xbd7b9966	-0.06142559
13	0x3dd702df	0.104985945
14	0x3c9035b3	0.01760373
15	0x3d788400	0.06067276
16	0xbe2472ff	-0.16059493
17	0xbda51684	-0.08060935
18	0xbde98ceb	-0.11403831
19	0x3e054097	0.1301292
20	0x3e7ecfc6	0.24883947
21	0xbc642463	-0.013924691
22	0xbe06b572	-0.13155153
23	0x3d8c0b87	0.06838136
24	0xbe3118a6	-0.17294559
25	0xbe1a9a0c	-0.15097827
26	0x3c70f53b	0.014706905
27	0x3d325def	0.043546613
28	0xbd90d5fe	-0.07072066
29	0x3ca7c49b	0.020479491
30	0xbd074775	-0.03302713
31	0xbccdcd24	-0.025122233
32	0x3cd345f8	0.0257902
33	0x3c0c3bde	0.008559195
34	0x3dabc066	0.083863065
35	0x3cb77e30	0.022399038
36	0xbe52198f	-0.20517562
37	0x3bdfe97a	0.0068332525
38	0x3d99f8e0	0.07518172
39	0xbd330676	-0.043707334
40	0x3db4dfc7	0.08831745
41	0x3df8eaaf	0.12154137
42	0xbd80e8b7	-0.06294387
43	0x3cfead8c	0.031088613
44	0x3d43890e	0.047738127
45	0xbdaaee02	-0.08346178
46	0x3d2fa243	0.042879354
47	0x3cc6e16d	0.024277413
48	0x3cc447b1	0.023959966
49	0xbe3cd076	-0.18438897
50	0xbc429e2f	-0.011878534
51	0x3dae2f5f	0.08505129
52	0xbcec7998	-0.028866574
53	0xbdd6022b	-0.10449632
54	0x3d19979a	0.037498094
55	0xbd0c904c	-0.0343173
56	0xbe1a39a8	-0.15061057
57	0x3d1fe6a5	0.03903832
58	0x3c8805de	0.01660436
59	0xbd6de753	-0.058081936
60	0xbcc3493a	-0.023838628
61	0x3e17dee8	0.14831126
62	0x3dbfd16d	0.09366117
63	0xbe69ce28	-0.22832549
64	0x3d730436	0.059330188
65	0xbddccb1f	-0.1078093
66	0x3cc28bc3	0.023748284
67	0xbda376ea	-0.079816654
68	0x3a5d478f	0.0008441144
69	0xbd87824c	-0.06616649
70	0xbdb1607f	-0.08660983
71	0xbd8ac9b7	-0.06776755
72	0xbdae4997	-0.0851013
73	0xbc8b2895	-0.016987124
74	0xbccd833a	-0.025086988
75	0x3df614f0	0.12015712
76	0xbde6d4ad	-0.112710334
77	0x3c49519c	0.012287524
78	0xbcf69ccd	-0.030104065
79	0x3d8734d4	0.06601873
80	0x3d19c843	0.0375445
81	0x3b1c2a45	0.0023828906
82	0x3db0dbd5	0.0863568
83	0xbe4343eb	-0.19068877
84	0x3d83b29f	0.06430554
85	0xbc5f83eb	-0.013642292
86	0xbdbd6e7b	-0.09249588
87	0x3e7eb28b	0.24872796
88	0xbcb8aed1	-0.022544296
89	0xbdb18380	-0.0866766
90	0xbbaf4a1b	-0.00534941
91	0x3b88cd9a	0.0041749002
92	0x3d643e4a	0.055723466
93	0x3cfff837	0.031246288
94	0xbc9e8de7	-0.019354774
95	0x3d470528	0.0485889
96	0x3c62b039	0.01383596
97	0x3bb129e5	0.0054066055
98	0xbd3123dd	-0.043247093
99	0x3cb95a17	0.022625966
100	0xbdf78f08	-0.12087828
101	0x3e26f001	0.16302492
102	0x3d92a692	0.07160677
103	0x3e15c0a5	0.1462427
104	0x3d484277	0.04889151
105	0xbd2f994e	-0.042870812
106	0x3d66bcb7	0.056332316
107	0x3d4eb70c	0.050467536
108	0xbdb54a12	-0.088520184
109	0x3ca663f0	0.020311326
110	0x3d912026	0.0708621
111	0x3cb03895	0.021511355
112	0xbd98f479	-0.074685045
113	0x3c53d0d0	0.012928203
114	0xbdcbaef9	-0.09945483
115	0xbe066811	-0.13125636
116	0x3da18d8b	0.07888325
117	0xbc0a40e7	-0.0084383255
118	0xbdc5091b	-0.09620877
119	0xbc87fac4	-0.016599067
120	0xbcc731d1	-0.024315747
121	0x3e2fe212	0.17176083
122	0x3d194923	0.037423264
123	0xbdc33521	-0.09531618
124	0xbda85186	-0.08218674
125	0x3dac6246	0.08417182
126	0x3d6146b0	0.054999053
127	0x3dd8a661	0.10578609
128	0x3d6b26bb	0.057409983
129	0x3ca33c96	0.01992635
130	0x3d22c61a	0.039739706
131	0x3d8a3289	0.0674792
132	0xbd4e183c	-0.05031608
133	0x3e2d5074	0.16925222
134	0xbd8b1a7d	-0.067921616
135	0x3c8e8b3f	0.017400382
136	0xbcfc32c1	-0.03078592
137	0x3e10fa4e	0.14157984
138	0xbdfbd62a	-0.12296708
139	0xbe2a52ec	-0.16633195
140	0x3db6e0d7	0.089296035
141	0x3a65e62e	0.0008769956
142	0x3b0f6b9f	0.0021884216
143	0xbe2c3c4a	-0.16819873
144	0xbca81c06	-0.020521175
145	0xbdbb8d08	-0.09157759
146	0x3d8d12fb	0.06888386
147	0x3d1383b4	0.036014274
148	0x3d059804	0.032615677
149	0x3d92ebd6	0.071738884
150	0x3d82f161	0.063936956
151	0x3d3b94c5	0.045796175
152	0xbcaeb3c0	-0.021325946
153	0x3e04369e	0.1291146
154	0xbbc55a1c	-0.0060227048
155	0x3c71fd51	0.014769868
156	0x3d0e7b35	0.034785468
157	0xbdd4f0c9	-0.103974886
158	0xbcc69fdd	-0.02424615
159	0xbd7d82e2	-0.061892398
160	0x3e74674e	0.23867533
161	0xbe291cb4	-0.16514856
162	0x3c3a5887	0.011373646
163	0xbca21ce5	-0.019789169
164	0x3cdbbfde	0.026824888
165	0xbe458482	-0.19288829
166	0x3c7875de	0.0151648205
167	0xbe0abfd0	-0.13549733
168	0x3d858d11	0.06521047
169	0xbceb5ffc	-0.028732292
170	0x3cbd3558	0.023096725
171	0x3d63b55f	0.05559289
172	0xbdcf53e8	-0.10123426
173	0x3d5bcf9e	0.053664796
174	0x3b0acdd5	0.0021179814
175	0x3b93826f	0.004501633
176	0xbd96d30b	-0.07364472
177	0x3e3523d3	0.17689447
178	0x3de5b836	0.11216776
179	0x3c97f998	0.018551633
180	0xbd73db51	-0.05953533
181	0xbdb2e22c	-0.08734545
182	0xbe10f684	-0.14156538
183	0x3dfe1459	0.12406225
184	0x3b69cb91	0.0035674314
185	0x3da02b08	0.078207076
186	0x3a0181d7	0.0004940307
187	0x3dd58f4d	0.10427723
188	0xbd537e3e	-0.051634066
189	0xbc223543	-0.009900394
190	0x3d06c6af	0.032904323
191	0x3e0a415c	0.13501495
192	0x3d38fd68	0.045163542
193	0x3d83e0ba	0.064393476
194	0x3d2db41a	0.042408086
195	0xbb7363d9	-0.0037138371
196	0x3cb7e4ab	0.022447905
197	0xbcdb8c2a	-0.026800234
198	0x3dbd15ba	0.0923266
199	0xbb808e04	-0.0039231796
200	0x3d976f25	0.07394246
201	0x3c66d9d0	0.0140900165
202	0xbe0021b3	-0.12512855
203	0xbd30439c	-0.043033227
204	0xbb269f03	-0.0025424368
205	0xbd9c74d8	-0.07639474
206	0x3b981733	0.0046414374
207	0x3daaff69	0.08349497
208	0x3db8d152	0.090243
209	0xbd94e22d	-0.07269702
210	0x3b9944eb	0.004677405
211	0xbe1e9295	-0.15485604
212	0x3d5a42cc	0.05328636
213	0xbdefc2ac	-0.117070526
214	0x3d634e4d	0.055494595
215	0xbe09f4e2	-0.13472322
216	0x3c494d80	0.012286544
217	0xbe0f6b5c	-0.14005798
218	0x3db803fb	0.08985134
219	0xbdaaf4bf	-0.08347463
220	0x3d5960cc	0.05307083
221	0xbd55d8ce	-0.052208714
222	0x3c9ee480	0.019396067
223	0x3da05858	0.0782935
224	0x3d9fd53a	0.078043416
225	0xbdbb26fa	-0.091382936
226	0x3dc18186	0.09448533
227	0xbd6f2865	-0.058388133
228	0x3d98fd86	0.07470231
229	0xbdacc9cf	-0.084369294
230	0x3e258408	0.16163647
231	0xbe04e3d7	-0.12977539
232	0x3c621e2e	0.013801141
233	0x3bc062a6	0.005871135
234	0xbdbac9a6	-0.09120493
235	0x3b7983a9	0.003807286
236	0xbdc6d034	-0.0970768
237	0x3d43bb69	0.04778615
238	0xbd283abc	-0.04107164
239	0xbd4828cf	-0.048867043
240	0x3dad01b5	0.08447591
241	0xbc5181ac	-0.012787264
242	0x3c56f520	0.013119966
243	0xbe29a5eb	-0.16567199
244	0x3d0f312a	0.034958996
245	0x3e558fdf	0.20855664
246	0xbdda9c52	-0.10674347
247	0xbe09ccbc	-0.13457006
248	0x3e0491ba	0.12946215
249	0x3c916262	0.017747108
250	0xbb46f215	-0.0030356694
251	0xbdebbb76	-0.11510365
252	0xbdf5cedd	-0.12002347
253	0xbd245121	-0.040116433
254	0x3dee302f	0.11630284
255	0xbd7bce79	-0.061476205

actor.2.bias f4 [128]
0	0xbcd26467	-0.025682641
1	0x3d0fa37d	0.035068024
2	0xbd10b5f8	-0.03532979
3	0xbcd2199f	-0.025646983
4	0xbc92854b	-0.017885825
5	0x3cde21db	0.027115753
6	0x3ba40f1f	0.0050066854
7	0xbc6f3b26	-0.014601504
8	0x3bb2980c	0.0054502543
9	0x3d4462cf	0.047945794
10	0x3bb33561	0.0054690097
11	0x3d61c51f	0.05511963
12	0xbd61ec86	-0.055157207
13	0xbd62a992	-0.055337496
14	0xbc07f765	-0.00829873
15	0xbd3aee51	-0.045637432
16	0x3c69568a	0.014241824
17	0xbd2f3e41	-0.04278398
18	0xbc9f0926	-0.019413542
19	0x3c20e361	0.009819836
20	0x3cf22f2f	0.029563515
21	0xbd3df49a	-0.04637585
22	0xbd5cde89	-0.053923164
23	0x3d446ae5	0.047953505
24	0xbd04df97	-0.032439794
25	0xbcfa83f9	-0.030580508
26	0xbc5420fd	-0.012947318
27	0x3d1d4975	0.038400132
28	0xbcb25c33	-0.02177248
29	0xbc5cde60	-0.013480753
30	0x3d1fc447	0.039005544
31	0x3d3c1445	0.045917768
32	0xb9662da4	-0.00021951512
33	0xbd3dbfd5	-0.046325523
34	0x3d2dba6e	0.04241412
35	0xbbb765e6	-0.005596864
36	0x3af4539a	0.0018640638
37	0x3d46adac	0.04850547
38	0xbb9256da	-0.00446592
39	0xbd4bac84	-0.04972507
40	0x3c43c3d1	0.011948542
41	0x3c79caef	0.015246137
42	0xbce9243f	-0.028459666
43	0xbb831239	-0.003999975
44	0x3c02bab8	0.0079790875
45	0xbd235bd9	-0.039882515
46	0x3cabbc46	0.0209638
47	0xbd4544f4	-0.048161462
48	0xbc68d897	-0.014211795
49	0x3d5cc47c	0.05389832
50	0xbd65aaf1	-0.056071226
51	0xbb3635ce	-0.0027803066
52	0xbc957198	-0.018242642
53	0xbcdea9d0	-0.027180582
54	0x3d03eadb	0.032206398
55	0x3d3e95c4	0.046529546
56	0xbcde6bc5	-0.027150998
57	0x3d493796	0.049125277
58	0xbcbd46c0	-0.023105025
59	0xbbfcb94a	-0.007712518
60	0x3d278bb2	0.04090471
61	0x3bc519d0	0.00601504
62	0x3d00054a	0.031255044
63	0x3ce01a75	0.027356366
64	0x3ca63dd6	0.020293158
65	0x3d04c41d	0.03241359
66	0xbc05e385	-0.008171921
67	0x3c1d56f5	0.009603252
68	0x3d29b320	0.041430593
69	0xba8ebd90	-0.0010890234
70	0x3d3ede08	0.046598464
71	0xbd02f51e	-0.031972043
72	0x3c8cadff	0.017172812
73	0xbcd03756	-0.025417011
74	0xbd483c05	-0.048885364
75	0x3d2f8258	0.042848915
76	0xbc80360a	-0.015650768
77	0x3d29b2f5	0.041430432
78	0xbc325408	-0.010884292
79	0xbc3c4020	-0.011489898
80	0xbc463a0c	-0.0120988
81	0xbd573f69	-0.052550707
82	0x3d0d0c0e	0.034435324
83	0x3b85ecd6	0.004087071
84	0xbd27b2a7	-0.04094186
85	0x3d61514a	0.055009164
86	0x3d763617	0.060110178
87	0xbd45acba	-0.048260428
88	0x3d491a1e	0.049097173
89	0xbd3002ca	-0.04297141
90	0xbd72176f	-0.05910438
91	0xbca44c5b	-0.02005594
92	0xbd4a7d7f	-0.04943609
93	0xbd00ddb5	-0.031461436
94	0x3d0dc7ce	0.034614377
95	0x3c7afe30	0.015319392
96	0xbd554cf7	-0.052075353
97	0x3b20d1ff	0.002453923
98	0x3bb4d535	0.0055185803
99	0x3c05bbde	0.008162467
100	0x3d084029	0.033264313
101	0x3bf1c7fd	0.007378577
102	0xbd60d74d	-0.054892827
103	0xbd5e8d29	-0.05433384
104	0xbd4c2154	-0.04983647
105	0xbca682d5	-0.020326057
106	0x3d821002	0.063507095
107	0x3b9ff064	0.0048809517
108	0xbcf576a1	-0.029963793
109	0xbd718780	-0.058967113
110	0x3ccd9329	0.025094585
111	0xbc99108a	-0.018684644
112	0xbd168f3f	-0.036757704
113	0xbd140300	-0.036135674
114	0x3d28d55f	0.04121911
115	0x3d289224	0.041154996
116	0xbc8e6d0e	-0.017385986
117	0x3c8fa95f	0.017536817
118	0x3d80b6ba	0.06284852
119	0xbd3c96a4	-0.0460421
120	0xbd3500f2	-0.044190355
121	0xbc7a8012	-0.015289323
122	0xbc6ce59e	-0.014459042
123	0xbd5e20bb	-0.054230433
124	0xbd4f11cb	-0.050554078
125	0xbc665791	-0.014058963
126	0x3c216f62	0.009853216
127	0x3cb391b7	0.021920068

actor.4.weight f4 [64, 128]
0	0xbd902012	-0.07037367
1	0xbc79b15c	-0.01524004
2	0x3dd7644d	0.10517178
3	0xbdf2cebb	-0.11855837
4	0xbdf2eadd	-0.11861203
5	0xbbdf9c28	-0.006824035
6	0x3d8c9b73	0.06865587
7	0xbe89ad4c	-0.26890028
8	0x3d11b602	0.035573967
9	0xbe7fae91	-0.24968936
10	0x3e067e51	0.13134123
11	0x3e2cdbfb	0.16880791
12	0xbdd2adfc	-0.10287091
13	0x3d1851ad	0.037187267
14	0x3d31475f	0.043280955
15	0xbdd21b85	-0.10259155
16	0x3e1f41b5	0.15552409
17	0xbd59927a	-0.053118207
18	0x3e3b53d0	0.1829369
19	0xbd984cfb	-0.07436558
20	0xbd58f466	-0.05296745
21	0x3c2e4282	0.010635974
22	0x3e068045	0.13134868
23	0xbc03f84c	-0.008054804
24	0xbdda2694	-0.106518894
25	0x3d329cc9	0.043606553
26	0x3daa5d7a	0.083186105
27	0xbe4ea794	-0.20181113
28	0x3d435432	0.047687717
29	0xbd0f5817	-0.03499612
30	0x3cea0836	0.028568368
31	0x3e0319bb	0.12802784
32	0xbc8b9e2b	-0.017043194
33	0x3e9318ca	0.2872985
34	0xbd43785f	-0.047722217
35	0x3d175adf	0.036951896
36	0x3c943007	0.018089307
37	0x3c289076	0.010288348
38	0xbc037e5d	-0.008025733
39	0xbdace5f6	-0.08442299
40	0xbd028a9b	-0.031870466
41	0xbcf212db	-0.029550007
42	0xbe53da0f	-0.20688652
43	0xbe4d6782	-0.20059016
44	0xbc257db0	-0.010100767
45	0x3da80f7f	0.08206081
46	0x3d2ee1fc	0.042695984
47	0xbda8a65e	-0.08234857
48	0xbd66ddc5	-0.05636384
49	0x3d89e3a8	0.06732875
50	0x3dd6f4eb	0.10495933
51	0x3d8b6827	0.06806975
52	0x3e9cccc7	0.30624983
53	0xbdef54a0	-0.11686063
54	0xbbea7b85	-0.007155838
55	0xbd017cf8	-0.03161332
56	0x3e207f73	0.15673618
57	0xbe8f5868	-0.27997136
58	0x3d1bf76a	0.03807775
59	0xbd9d2649	-0.07673318
60	0xbc8ab4d3	-0.016931927
61	0xbb504a57	-0.0031782591
62	0x3e4aecf6	0.19816956
63	0x3de1931f	0.11014389
64	0x3e8e6fa8	0.27819562
65	0x3d06337f	0.032763954
66	0xbeba74b2	-0.36417156
67	0x3dd379fd	0.10326002
68	0xbdcbe589	-0.0995589
69	0xbda16104	-0.078798324
70	0xbd983757	-0.0743243
71	0x3e1800f2	0.1484411
72	0x3e6707ed	0.22561617
73	0x3ea26ea8	0.3172505
74	0x3e6176c3	0.2201796
75	0x3d420bbd	0.047374476
76	0xbded8f5a	-0.11599608
77	0x3c6d0dc7	0.014468617
78	0x3e1e519c	0.15460819
79	0xbe0b5aba	-0.13608828
80	0xbdd3d3ec	-0.10343155
81	0x3c5ef478	0.013608091
82	0x3dd04b72	0.1017064
83	0xbc1f622e	-0.009727998
84	0xbe7a263a	-0.24428645
85	0xbde0ac97	-0.10970419
86	0xbdbddc90	-0.092705846
87	0xbdc4057d	-0.09571359
88	0x3e148487	0.1450368
89	0xbe5f4e52	-0.2180722
90	0xbd0d47a6	-0.034492157
91	0xbdddeb85	-0.108359374
92	0xbc30c4c8	-0.010789104
93	0x3d7145ec	0.058904573
94	0x3d6b6a3d	0.057474364
95	0xbc44052d	-0.011964125
96	0x3d19cb93	0.03754766
97	0xbda969e7	-0.082721524
98	0x3d17a14f	0.03701907
99	0xbdac89c7	-0.084247164
100	0x3c0777e0	0.0082683265
101	0xbd58da1d	-0.052942384
102	0xbbecd660	-0.007227704
103	0x3d7fc2c7	0.062441614
104	0xbd8197bd	-0.0632777
105	0xbda077d7	-0.07835358
106	0xbd80649f	-0.06269192
107	0xbd252b30	-0.04032439
108	0x3d17897b	0.036996346
109	0x3e16ca4e	0.1472561
110	0x3e12d2bc	0.14338201
111	0x3df07a6c	0.117421
112	0x3e06e5a4	0.13173538
113	0x3dc47012	0.09591688
114	0xbe58e9c0	-0.21182919
115	0x3da7694c	0.08174381
116	0x3d6c3174	0.05766435
117	0xbd359af7	-0.04433724
118	0xbe0a91f7	-0.13532244
119	0xbe1b7d10	-0.15184426
120	0xbe5a900b	-0.2134401
121	0x3e21e88a	0.15811363
122	0xbded7dce	-0.11596261
123	0x3c007288	0.007839806
124	0x3e1eff58	0.15527093
125	0x3e290cfd	0.16508861
126	0xbcd19bcd	-0.025586987
127	0x3d8dced5	0.06924216
128	0x3d2c58e5	0.042076964
129	0xbd2dc7a2	-0.042426713
130	0x3e212f00	0.15740585
131	0x3d7e0d05	0.062024135
132	0x3cd5cfd0	0.02610007
133	0xbe3d9aa9	-0.1851603
134	0xbe3ba04f	-0.18322872
135	0xbdd2aa08	-0.10286337
136	0x3e2ffe77	0.17186914
137	0x3dcfe4c5	0.10151056
138	0x3df6603a	0.120300725
139	0xbdeb2ba1	-0.11482931
140	0x3e196755	0.14980824
141	0x3e3ad920	0.18246889
142	0xbdb7c2be	-0.08972691
143	0xbdcdbd38	-0.10045856
144	0x3ea9ccde	0.33164114
145	0x3e3e38e0	0.18576384
146	0x3dba3cff	0.09093665
147	0xbe386e8d	-0.18010922
148	0xbd10713d	-0.035264242
149	0x3d781e82	0.06057597
150	0xbdbcb825	-0.0921481
151	0xbe95f392	-0.29287392
152	0x3ce0cbe0	0.027440965
153	0x3b885372	0.004160338
154	0xbc258c02	-0.010104181
155	0x3bf01ce5	0.0073276632
156	0x3dc553aa	0.09635098
157	0x3dc0a710	0.09406865
158	0xbe38f423	-0.18061881
159	0xbc109866	-0.008825397
160	0x3dab9e72	0.083798304
161	0x3e2cac17	0.16862522
162	0x3d889f24	0.06670979
163	0x3e0cc846	0.13748273
164	0x3d84419e	0.06457828
165	0x3d209449	0.039203916
166	0x3e1ac51b	0.15114252
167	0x3e3974d2	0.1811097
168	0xbe19612d	-0.14978476
169	0xbe4eabf1	-0.20182778
170	0x3c7e7594	0.0155309625
171	0x3e00a295	0.1256202
172	0x3e5d2b51	0.21598555
173	0xbc4ff12a	-0.012691775
174	0xbdd0f5a0	-0.10203099
175	0x3cf8ae65	0.030356595
176	0x3e2f70c2	0.17132857
177	0x3decd79e	0.11564563
178	0xbd7edfe2	-0.06222523
179	0xbe095897	-0.134127
180	0x3ba0c7db	0.004906637
181	0xbe4a08d6	-0.19729933
182	0xbd46f2d6	-0.04857143
183	0x3d78c956	0.060738884
184	0xbcf862bc	-0.030320518
185	0x3d56b0fc	0.05241488
186	0xbdaff6c2	-0.08591987
187	0x3e360ab4	0.1777752
188	0x3cf27b6a	0.029599864
189	0xbe2758c4	-0.16342455
190	0xbe80c2bc	-0.2514857
191	0xbcc91d77	-0.024550183
192	0xbc923367	-0.017846776
193	0xbd930cc3	-0.071801685
194	0x3e3d1a1e	0.18466994
195	0xba490e44	-0.0007669667
196	0xbcf5efba	-0.030021537
197	0xbe2989b9	-0.16556443
198	0xbe0327e0	-0.1280818
199	0x3e08c1ba	0.13355151
200	0xbddef144	-0.108858615
201	0x3e097964	0.13425213
202	0xbe1caf00	-0.15301132
203	0xbe8b4707	-0.27202627
204	0x3dad5a03	0.08464434
205	0xbda79063	-0.081818365
206	0x3de1a083	0.11016943
207	0x3d0f112f	0.034928497
208	0xbd705825	-0.05867781
209	0xbe5245ac	-0.2053439
210	0x3d1c6c0b	0.038188975
211	0x3d5ce8d0	0.053932965
212	0xbd61c60f	-0.055120524
213	0xbe5d2833	-0.21597366
214	0xbd6ece4a	-0.0583022
215	0x3e9b3362	0.3031264
216	0x3dc5cd84	0.096583396
217	0xbc9130e4	-0.017723508
218	0xbd1a593c	-0.037682757
219	0xbd5d7e0e	-0.054075293
220	0xbd128896	-0.03577479
221	0xbc9d928c	-0.019234918
222	0xbdc213d3	-0.094764374
223	0x3cfa0c17	0.030523343
224	0x3d0b212e	0.03396719
225	0x3dc81cc2	0.0977111
226	0x3d07dc72	0.033169217
227	0xbe25063f	-0.16115664
228	0xbd0321fc	-0.032014832
229	0xbe5a3fc8	-0.21313393
230	0x3dc27593	0.09495082
231	0x3e517f99	0.20458831
232	0xbe35e65e	-0.1776366
233	0x3ddd2fa3	0.108001016
234	0xbdab0450	-0.08350432
235	0xbdc7b5c7	-0.09751468
236	0x3dcd53db	0.1002576
237	0xbdebcbe5	-0.11513499
238	0xbb5935e3	-0.0033143691
239	0x3dbd8087	0.0925303
240	0x3d111ea8	0.035429627
241	0x3de2882e	0.110611305
242	0x3d8564ac	0.06513342
243	0x3e082779	0.13296308
244	0xbe0f0f60	-0.13970709
245	0xbd9225db	-0.071361266
246	0xbdcd969f	-0.10038494
247	0xbd1ac09b	-0.03778134
248	0xbd18c0e1	-0.03729332
249	0xbe143833	-0.14474563
250	0xbd600e38	-0.05470106
251	0x3e38c9bc	0.18045706
252	0x3bd58fe8	0.006517399
253	0xbe28823e	-0.16455933
254	0xbe4d05d0	-0.20021749
255	0x3d4ea867	0.05045357

actor.4.bias f4 [64]
0	0x3b2c12a2	0.0026256223
1	0x39a437c4	0.00031322066
2	0xbd582f25	-0.052779336
3	0xba0989d6	-0.00052466744
4	0xbdaf4993	-0.08558955
5	0x3d37f15a	0.044907905
6	0x3d35d122	0.044388898
7	0x3d92a749	0.07160813
8	0xbd9612e8	-0.07327825
9	0x3d17be09	0.037046466
10	0x3c9a96bf	0.01887071
11	0xbcef789a	-0.029232312
12	0x3d6e26f1	0.058142606
13	0x3c75f22a	0.01501135
14	0x3ad288df	0.0016062519
15	0x3d2853bf	0.04109549
16	0x3d0e4e2e	0.034742527
17	0xbc58547f	-0.013203739
18	0x3cb4aa22	0.022053782
19	0xbd849092	-0.06472887
20	0x3d1f3cd3	0.038876366
21	0xbda36d8b	-0.07979878
22	0xbc4b0460	-0.01239118
23	0xbad0819b	-0.0015907766
24	0x3da413fd	0.08011625
25	0x3d97ea80	0.07417774
26	0x3d80f1eb	0.06296142
27	0x3bdb2351	0.0066875597
28	0x3da07322	0.0783446
29	0x3d939dd8	0.07207841
30	0xbd531790	-0.051536143
31	0xbdacb3cd	-0.08432732
32	0xbd97749a	-0.07395287
33	0x3d859f66	0.065245435
34	0xbd2e20fc	-0.042511925
35	0xb88cca71	-6.713428e-05
36	0x3d83f9d7	0.064441375
37	0x3b00a5b2	0.0019630012
38	0x3c9ab45e	0.018884834
39	0x3d84d5a3	0.064860605
40	0xbc304d71	-0.010760651
41	0xbcbd8256	-0.023133438
42	0xbd8223c0	-0.06354475
43	0xbd0deb8b	-0.03464846
44	0xbcaba1da	-0.0209512
45	0xbceb8040	-0.028747678
46	0x3d804ff8	0.06265253
47	0xbda7f6e3	-0.08201387
48	0xbc2448f0	-0.010027155
49	0xbcd23d09	-0.02566387
50	0x3d0c5cd8	0.03426823
51	0x3daa3756	0.08311336
52	0xbc695548	-0.014241524
53	0xbdaf7035	-0.08566324
54	0x3d821a82	0.06352712
55	0x3d26950d	0.04066949
56	0x3d6433a2	0.055713303
57	0xbd20939b	-0.039203268
58	0xb9dab672	-0.00041716133
59	0xbd640c6e	-0.055675916
60	0xbd7e4bb8	-0.06208393
61	0x3d8585dc	0.06519672
62	0x3d20a60d	0.03922086
63	0xbd8c1493	-0.06839862

actor.6.weight f4 [3, 64]
0	0x3b0d1c7e	0.0021531875
1	0xb9a68e04	-0.00031767797
2	0xb9893108	-0.00026167207
3	0x3aa812bf	0.001282297
4	0xb6f51a3f	-7.3046244e-06
5	0xb9dbc194	-0.00041915162
6	0xb8eb3d11	-0.00011217048
7	0x3a9d6205	0.0012007362
8	0xba5876c5	-0.0008257444
9	0xbb420960	-0.0029607639
10	0x3a27e931	0.00064052927
11	0xbad01cfb	-0.0015877777
12	0x3a1f4fa2	0.0006077235
13	0xba3e297f	-0.0007254108
14	0xba2a4465	-0.0006495177
15	0x3aa94a79	0.0012915871
16	0x3b0e4f79	0.002171485
17	0xba46607e	-0.0007567479
18	0x39900cb4	0.00027475285
19	0x3b408e0d	0.0029381544
20	0xba707956	-0.0009173354
21	0x3a493d2f	0.00076766586
22	0x3ae6f0b0	0.0017619338
23	0x3a9000a7	0.0010986523
24	0x3aeb3670	0.0017945301
25	0x3890b375	6.8998816e-05
26	0xba143e6b	-0.0005655053
27	0xb75aa492	-1.303213e-05
28	0x3ac122ca	0.0014735099
29	0x39c773ee	0.00038042612
30	0x3a84d045	0.001013287
31	0xb9c488f8	-0.00037486083
32	0xb8dffa09	-0.00010680041
33	0x3b086fcb	0.0020818587
34	0x3b00578c	0.0019583432
35	0xbaa66c95	-0.0012697155
36	0xbac3e42c	-0.001494532
37	0xbaad7f44	-0.0013236781
38	0x3a86386c	0.0010240204
39	0x3ac68a24	0.001514737
40	0x3922d6e8	0.00015529583
41	0x39f26b16	0.00046237622
42	0x3aa8290a	0.0012829613
43	0xb99deec8	-0.0003012328
44	0xba0e065a	-0.00054178166
45	0x3ae3b086	0.0017371334
46	0x39c8a0b3	0.00038266703
47	0x3adad613	0.0016695879
48	0xbba126ad	-0.0049179406
49	0x3b1b7081	0.002371818
50	0x38e5943b	0.00010947181
51	0x3a944ee9	0.0011315021
52	0x3aaa61f7	0.0012999167
53	0x3a17db98	0.0005792915
54	0x3aa1e11b	0.0012350412
55	0xbab0af00	-0.0013479888
56	0x39c4a0bd	0.00037503793
57	0xb93d256e	-0.00018038388
58	0x3987d8f4	0.0002591085
59	0xba398eae	-0.0007078451
60	0x39e9b779	0.0004457792
61	0x3b04aec0	0.002024576
62	0x3aaadb4d	0.0013035327
63	0xba1f0c45	-0.0006067197
64	0x3a53825d	0.0008068437
65	0x3ad338fc	0.0016115005
66	0xba111d49	-0.0005535675
67	0x3abf924b	0.0014615742
68	0x38f3707a	0.00011608093
69	0x3a3d5cf0	0.00072236266
70	0xb9d4c894	-0.00040585233
71	0x39849d84	0.0002529436
72	0x3a8d6722	0.0010788182
73	0x3b35a508	0.0027716774
74	0xba287186	-0.0006425608
75	0xbb17c4d3	-0.0023158088
76	0xb9f8dfd1	-0.00047469002
77	0xb9c0b719	-0.00036757512
78	0xba172a8d	-0.00057665334
79	0x39f393c2	0.0004645866
80	0x3a76283d	0.0009390151
81	0xb6d167e0	-6.240778e-06
82	0xb8869dfa	-6.419043e-05
83	0x3a133f56	0.0005617043
84	0xbb33d975	-0.0027442847
85	0x391a6447	0.0001472394
86	0xbb1a98d6	-0.0023589632
87	0x3a528a79	0.00080314983
88	0x3a0e4d16	0.0005428357
89	0xbad25329	-0.0016046512
90	0x3a9a61e4	0.0011778441
91	0x387fdfa0	6.1005005e-05
92	0xb98739d2	-0.00025792286
93	0xba633ca2	-0.0008668398
94	0xbae133c6	-0.0017181567
95	0x3a39dd14	0.0007090133
96	0xba9f1f5e	-0.0012140085
97	0x3a078fd0	0.0005171271
98	0xba9aa0ba	-0.0011797168
99	0xb9fdfb4c	-0.0004844315
100	0x3898a1e8	7.278082e-05
101	0xba097603	-0.00052437204
102	0x3a5a7808	0.0008333926
103	0x3a35ffda	0.0006942727
104	0xb99de249	-0.0003011397
105	0xba9e9962	-0.0012100155
106	0xba84d653	-0.0010134674
107	0xb949df28	-0.00019251986
108	0xba4cc266	-0.000781095
109	0x3a1c3a81	0.00059596455
110	0x39a6b975	0.00031800164
111	0xbb12506b	-0.0022325765
112	0xba6b77be	-0.00089823816
113	0xbaf09e2f	-0.0018357689
114	0xb8e32b43	-0.000108322616
115	0x399b185c	0.00029582053
116	0xba9a338d	-0.0011764631
117	0xb7b029ed	-2.1000358e-05
118	0x3a4b47cd	0.00077545346
119	0xbaa95363	-0.0012918528
120	0xba9d0166	-0.0011978566
121	0x3a7af0d3	0.0009572629
122	0x3a17eb76	0.0005795279
123	0xbab03258	-0.0013442738
124	0x3a3e5015	0.0007259858
125	0x3a610756	0.0008584162
126	0x3a40747b	0.00073415757
127	0x3a4a9cb7	0.0007729041
128	0xb8c753b2	-9.504649e-05
129	0xbb04ae3f	-0.002024546
130	0xb89addca	-7.384604e-05
131	0x3af9c902	0.0019057097
132	0x3a9626dc	0.0011455673
133	0xb967563d	-0.00022062003
134	0xbac50192	-0.0015030375
135	0xba5ce859	-0.00084269565
136	0x3b1a258b	0.0023520913
137	0x3a81ce23	0.0009903352
138	0xb9f0819c	-0.00045872934
139	0x3b2a6510	0.002600018
140	0xba0a0832	-0.00052655034
141	0x3a383b0f	0.00070278434
142	0xba8fe9e6	-0.0010979741
143	0x38942e2f	7.065792e-05
144	0xbafc2cf4	-0.0019239471
145	0xbac29341	-0.001484491
146	0xb8e3fc0f	-0.00010871153
147	0xbb045e26	-0.0020197718
148	0xba6c60ab	-0.000901709
149	0xb917f5ff	-0.00014492123
150	0x3b0cf84e	0.0021510306
151	0xb98597fd	-0.00025480977
152	0xbaf60711	-0.0018770417
153	0x3a15c76b	0.00057136145
154	0x3b26002a	0.0025329688
155	0x39fde0c5	0.00048423387
156	0xbaf2182f	-0.0018470342
157	0x3abdd44b	0.0014482824
158	0x3a98d5ca	0.0011660394
159	0xba80322a	-0.0009780575
160	0x3ab799f2	0.0014007671
161	0xb9895cf6	-0.00026199938
162	0xb9ed18fa	-0.00045222772
163	0xb9fdc21c	-0.00048400543
164	0x3a651b94	0.0008739766
165	0x3ab48186	0.0013771511
166	0xba81b6c0	-0.0009896383
167	0xba98b02f	-0.0011649186
168	0xba9cff86	-0.0011978007
169	0xb7d3e8c1	-2.5261545e-05
170	0x3a9613e4	0.001145002
171	0xb74d5232	-1.223809e-05
172	0xb977302c	-0.00023573701
173	0x3b067bb2	0.0020520505
174	0x3a05793a	0.00050916115
175	0x3a6fd6a3	0.000914911
176	0xb93a075c	-0.00017741084
177	0xba052248	-0.00050786557
178	0xb9ce62d6	-0.0003936502
179	0xba8d1157	-0.0010762614
180	0x3a67bd34	0.0008840144
181	0x3ac40a33	0.0014956653
182	0x36833329	3.91006e-06
183	0x3acf78da	0.0015828863
184	0xba627081	-0.000863798
185	0x39e69d95	0.00043986426
186	0x3abe8523	0.0014535527
187	0x3917fc51	0.00014494477
188	0x38c3750f	9.3201284e-05
189	0xba6f9005	-0.0009138587
190	0x3b0dafac	0.0021619601
191	0xbb0357fa	-0.0020041452

actor.6.bias f4 [3]
0	0xbcdef79b	-0.027217677
1	0x3d7ec50e	0.062199645
2	0x3db16fb2	0.08663882

critic.0.weight f4 [256, 259]
0	0x3e10d46c	0.14143533
1	0x3de333c2	0.110938564
2	0x3b81b51d	0.003958358
3	0xbc39877f	-0.011323809
4	0xbdf78fc5	-0.12087969
5	0xbdc47b03	-0.09593775
6	0x3d91569f	0.070966
7	0xbd5adfe6	-0.053436182
8	0x3d1297d3	0.035789322
9	0x3b4bfcb1	0.0031125958
10	0x3d2d6320	0.04233086
11	0xbd9e355d	-0.07725022
12	0x3db2a558	0.08722943
13	0x3df46588	0.11933428
14	0x3dfc0c1e	0.12306999
15	0xbd309216	-0.04310807
16	0x3e133846	0.14376935
17	0xbd9d1e1e	-0.0767176
18	0xbdd63fc1	-0.10461379
19	0xbd995b71	-0.07488144
20	0x3dd69d8b	0.10479268
21	0xbe08df2f	-0.13366388
22	0x3ca8a06c	0.020584308
23	0x3df2e6b4	0.118604094
24	0xbde84558	-0.11341351
25	0x3dc2eecf	0.095182054
26	0xbdb61377	-0.088904314
27	0xbd70d437	-0.058796134
28	0x3e2d5258	0.16925943
29	0x3eb55c28	0.35421872
30	0x3ddc9730	0.10771024
31	0x3d8102bd	0.062993504
32	0x3b8e0b1f	0.004334822
33	0x3dfa5ab4	0.122243315
34	0xbdfd5837	-0.12370341
35	0xbd33f08f	-0.043930586
36	0x3a99b2b5	0.0011726232
37	0x3bba1757	0.005679052
38	0xbd96bb47	-0.07359939
39	0x3d8f212f	0.06988751
40	0x3d38ef27	0.04514995
41	0xbcabb589	-0.020960586
42	0xbd102e5e	-0.03520047
43	0x3dc4fc65	0.09618453
44	0xbca1d403	-0.019754415
45	0x3e256407	0.16151439
46	0x3dee2fc3	0.116302036
47	0x3e175469	0.14778294
48	0xbe3ab298	-0.1823219
49	0x3e673cc9	0.22581781
50	0xbd583bdb	-0.052791458
51	0x3cca4c56	0.024694603
52	0x3d537daa	0.051633514
53	0x3cb8bc8c	0.022550844
54	0xbbc408aa	-0.005982478
55	0x3d82ec73	0.06392755
56	0xbd477d5a	-0.04870353
57	0x3c0dcec8	0.0086552575
58	0x3e3128fd	0.17300792
59	0xbc185794	-0.009298224
60	0x3d9995b1	0.074992545
61	0x3a8e541c	0.0010858807
62	0xbb9bb9ec	-0.004752388
63	0x3d0b92b6	0.03407546
64	0xbd21ec3c	-0.03953193
65	0xbcbf2cec	-0.02333685
66	0x3df25383	0.11832335
67	0x3d04308f	0.03227287
68	0xbd2babf1	-0.041912023
69	0x3de8700e	0.11349498
70	0xbdce0017	-0.10058611
71	0x3d974c94	0.07387653
72	0xbe18f276	-0.14936242
73	0xbd882365	-0.06647376
74	0x3e11d80f	0.14242576
75	0xbe2baa5f	-0.1676421
76	0x3d2e4e0e	0.042554908
77	0xbcacc6b1	-0.021090837
78	0x3d9d0e5c	0.076687545
79	0x3e5cac1e	0.21550032
80	0xbc0b7f33	-0.008514213
81	0x3d8a4261	0.06750942
82	0x3d159a2d	0.036523987
83	0xbd0c6edd	-0.034285415
84	0x3dea23d0	0.11432612
85	0x3c5b74c3	0.013394537
86	0x3cc6590f	0.024212388
87	0xbe03dd20	-0.12877321
88	0xbce8d6f9	-0.02842282
89	0xbd79cf3e	-0.060988657
90	0x3e259f4a	0.16174045
91	0x3ddd7c74	0.10814753
92	0x3d3da266	0.046297453
93	0xbdc05538	-0.09391254
94	0xbde0d830	-0.109787345
95	0x3d72cd35	0.059277732
96	0x3a4e2fa4	0.00078653754
97	0xbd0a4317	-0.033755388
98	0x3d2d6a6c	0.04233782
99	0x3d9a134d	0.075232126
100	0xbd66de51	-0.05636436
101	0x3e343d2b	0.17601459
102	0xbcdc3dff	-0.02688503
103	0x3d2f2bee	0.042766504
104	0x3ce8a941	0.028401019
105	0x3daa0b62	0.08302952
106	0xbe38206f	-0.17981122
107	0x3d94cbe2	0.0726545
108	0x3dc697fe	0.09696959
109	0x3c646f04	0.013942484
110	0x3d9d3542	0.07676174
111	0xbe0f6e58	-0.14006937
112	0xbd9358a1	-0.07194639
113	0xbc90e2ff	-0.017686365
114	0xbd565f98	-0.05233726
115	0xbbd15909	-0.0063887876
116	0xbccb924f	-0.024850039
117	0xbe1057dc	-0.14096016
118	0x3b7deeda	0.0038747103
119	0xbd9bfad1	-0.07616199
120	0xbc4a8584	-0.012360934
121	0xbd10cc76	-0.03535124
122	0x3cd5535f	0.026040731
123	0x3da57d7c	0.08080575
124	0x3d44dbbd	0.04806112
125	0x3e51f18d	0.205023
126	0xbcd67e6a	-0.026183326
127	0x3d53091e	0.051522367
128	0xbcda045b	-0.026613405
129	0x3d96691b	0.07344266
130	0x3d90f387	0.07077699
131	0xbcb6210b	-0.022232553
132	0x3d91c6fa	0.0711803
133	0xbccad31d	-0.02475887
134	0xbc1c06b3	-0.009523082
135	0x3d843f98	0.06457442
136	0xbd0468a4	-0.032326356
137	0xbdeaab9d	-0.11458514
138	0x3c8b8252	0.017029915
139	0x3e3758fe	0.17905042
140	0x3e130477	0.14357172
141	0x3dc13240	0.094334126
142	0xbd66cb25	-0.056346077
143	0x3dea4810	0.11439526
144	0xbdb00f88	-0.08596712
145	0xbdb3fdfc	-0.08788678
146	0x3d5aff1f	0.05346596
147	0xbc854d46	-0.016272198
148	0x3e32cafe	0.17460248
149	0x3d538c7c	0.05164765
150	0xbda66c06	-0.081260726
151	0x3d325ec0	0.043547392
152	0xbb6171cd	-0.0034400106
153	0xbe1f1ff9	-0.1553954
154	0xbcbe665e	-0.023242172
155	0x3e129e47	0.1431819
156	0xbce438e4	-0.027859159
157	0x3d6ef815	0.05834206
158	0x3dce3bcf	0.10070001
159	0xbc16930a	-0.00919033
160	0xbd536727	-0.051612046
161	0xbdbf917d	-0.093539216
162	0x3d7ebba0	0.062190652
163	0xbcd916c8	-0.02650012
164	0x3ca654e7	0.020304156
165	0xbb958c73	-0.004563862
166	0xbd87d215	-0.06631867
167	0x3da5b3f5	0.08090965
168	0xbd15e0e7	-0.036591437
169	0x3d144848	0.036201745
170	0xbd384bc4	-0.04499413
171	0x3daa6e20	0.08321786
172	0x3e361890	0.17782807
173	0x3cdaf34c	0.026727341
174	0xbd600e20	-0.05470097
175	0x3dd91654	0.10599962
176	0xbe03bab0	-0.12864184
177	0x3d580e5f	0.05274808
178	0xbdde9045	-0.10867361
179	0x3bfb6188	0.0076715387
180	0xb9d0fd58	-0.00039861607
181	0x3d695b4f	0.056971844
182	0xbd1934f1	-0.037404004
183	0xbd03ef5a	-0.032210685
184	0x3d19232f	0.03738707
185	0x3e3ddffc	0.18542475
186	0xb98e972a	-0.00027196977
187	0xbcc8d1aa	-0.024514038
188	0xbd275fe4	-0.040862933
189	0x3d44c7c9	0.048042092
190	0xbdadf946	-0.08494811
191	0xbd6a7915	-0.05724438
192	0x3e41d758	0.18929803
193	0xbc10ecd9	-0.008845531
194	0xbd3d0613	-0.04614837
195	0xbd4f7e24	-0.050657406
196	0x3dbec915	0.09315697
197	0xbc731415	-0.014836331
198	0xbd9dec73	-0.07711115
199	0xbce84927	-0.028355194
200	0x3dee463a	0.116344884
201	0x3df46dae	0.11934982
202	0xbcc0288d	-0.023456836
203	0x3da14044	0.07873586
204	0xbcdf0518	-0.027224109
205	0x3d3c578f	0.04598194
206	0xbd64956d	-0.055806566
207	0x3e5030c4	0.20331103
208	0xbdafb59e	-0.085795626
209	0xbb28180a	-0.0025649094
210	0xbd266d87	-0.040631797
211	0x3e0d0c11	0.13774134
212	0x3cf8af9a	0.03035717
213	0x3d57d34a	0.052691735
214	0x3c490b93	0.012270826
215	0x3c892657	0.016741915
216	0x3d37fea4	0.04492058
217	0xbdd3f73c	-0.103498906
218	0xbd816340	-0.063177586
219	0xbdbd03c1	-0.092292316
220	0xbda7eb43	-0.081991695
221	0xbdc474b3	-0.09592571
222	0xbdcaa5cd	-0.09894905
223	0xbb51e629	-0.0032028055
224	0x3da7fd7f	0.082026474
225	0xbddb4749	-0.10706956
226	0x3d4b452a	0.049626507
227	0xbcb02e1a	-0.021506358
228	0x3db43d35	0.08800737
229	0x3e251eed	0.16125078
230	0x3d087c60	0.03332174
231	0xbe10d9e5	-0.1414562
232	0x3d52c35a	0.051455833
233	0xbcc68d16	-0.024237197
234	0x3cef7632	0.029231165
235	0xbce4ad95	-0.027914802
236	0xbdcdc2d2	-0.10046925
237	0xbe1bcd60	-0.15215063
238	0xbd3cdb04	-0.046107307
239	0x3dd9fa34	0.106434256
240	0xbd23171f	-0.039816972
241	0x3dfae34c	0.12250385
242	0x3e1418bc	0.1446256
243	0x3e36dfe8	0.17858851
244	0xbd4a7abd	-0.04943346
245	0xbda7c52e	-0.08191906
246	0xbca07352	-0.019586239
247	0x3d919eba	0.07110353
248	0x3d0230a8	0.031784683
249	0x3d17a8b9	0.03702614
250	0x3dcdbb4a	0.10045488
251	0x3d3d5346	0.046221994
252	0x3d881c03	0.06645968
253	0x3daab8b2	0.08336009
254	0xbcccec92	-0.02501515
255	0xbc280dd0	-0.010257199
