rlgpu/logs/cut_407/model_405.pt (torch, 868312 bytes, 16 tensors)

log_std f4 [3]
-0.7864392 -0.51761913 -0.113265954
00000000: 1454 49bf b082 04bf fbf7 e7bd

actor.0.weight f4 [256, 259]
0.036216814 0.04322891 0.055338055 -0.026388286 -0.06473435 0.075260505 0.05401453 -0.07516963
0.030905848 0.03235621 0.018693084 -0.08242553 0.07003572 -0.09221977 -0.02383633 -0.08383234
-0.026371133 -0.034061257 -0.15597667 0.033374988 0.0606014 -0.07920549 -0.096824735 0.016583491
0.10504909 0.002931094 0.070730224 -0.013655452 -0.00405884 -0.050566282 0.01293618 -0.08751848
0.0272308 0.10658446 0.09132543 -0.033103425 0.056678627 -0.010081779 -0.05635203 0.012329259
-0.01425882 -0.023451496 0.1721039 0.15205364 -0.10025813 0.15536122 0.079740316 -0.078700945
0.025435586 -0.07361475 -0.030708997 -0.14033031 -0.041157916 0.09662697 -0.056812678 0.056664646
0.22223388 0.094257824 0.014307974 -0.15062766 0.0166922 -0.04110283 -0.0059910626 0.016440392
-0.040703967 0.031327095 -0.09306307 0.08505789 -0.026203422 -0.039389346 -0.078629695 0.07176348
-0.0842452 -0.024234632 -0.020829959 -0.043693535 -0.25140336 -0.0073783137 0.034672026 -0.015064223
0.03907665 0.12929593 -0.09854643 0.0076276595 -0.054326475 0.13548778 -0.06587691 -0.1306755
-0.092731506 -0.10044865 0.069239154 0.067238815 0.009034816 0.034289133 0.17480102 0.13073464
-0.03156782 -0.07131114 -0.020106804 0.08651132 0.070467286 -0.09133855 -0.014343053 -0.010593754
0.10643335 -0.050040677 -0.050181337 0.10266716 -0.00421194 0.20450318 -0.032475986 0.11752068
0.025439871 -0.040421277 -0.11022092 -0.104644954 -0.051277902 0.10356604 -0.07554331 -0.01502604
-0.073153 0.15434498 -0.09469782 0.0105084255 0.04683039 0.11009792 0.016381403 -0.04757523
0.057165314 0.108338505 0.06878166 0.07183397 -0.07083545 -0.05915387 -0.062478006 0.19507723
-0.06258409 -0.09399564 0.07116556 -0.09935011 0.042323332 -0.18782151 -0.016495401 -0.014731391
-0.09373756 0.016578674 0.13251567 -0.0057149073 -0.076547466 -0.076628774 -0.13275573 0.08451604
-0.16251732 0.02155775 -0.011641064 0.12564874 0.1560739 0.06503913 -0.045616705 0.12586299
0.1221503 0.044356342 -0.12428776 -0.08308036 0.0005019709 0.04605752 -0.058542117 -0.028366264
-0.1910734 -0.057608325 0.07182114 -0.15807262 0.061918765 0.104672305 0.06449049 -0.043368965
0.12754345 -0.07039714 -0.087751694 -0.015321338 0.13544044 0.039662354 -0.085772984 0.024408817
-0.20027973 -0.022555484 0.045282 -0.0368877 -0.11440789 -0.07682137 -0.15794598 -0.05275563
-0.025181986 -0.043260746 0.16449587 0.052502234 0.12571661 -0.022281924 -0.017239776 0.15669979
-0.036394157 -0.22820875 0.021459822 0.095154665 0.09280429 -0.03545296 0.09066423 -0.0223011
-0.09608251 -0.1923381 -0.04981178 0.053971183 -0.05328563 -0.08385597 -0.020955402 0.20586295
0.07297058 0.0429941 -0.06554169 0.081400156 0.06648957 -0.0096705835 -0.0031302522 -0.0019707913
-0.12003102 0.06809859 -0.042642694 -0.113388225 0.101722986 0.05190991 0.07862253 0.032026146
0.09712715 0.0739696 -0.0957856 0.026717015 -0.10721278 -0.15742162 0.03538427 -0.058751598
-0.01941477 -0.15245134 0.13957614 -0.007976101 0.11496698 0.08679294 0.0081047 0.018514803
0.15853645 -0.025372088 0.10195282 -0.0071541737 -0.091679424 0.08528979 -0.01295497 0.03977119
00000000: 1558 143d cc10 313d 28aa 623d 3f2c d8bc
00000010: 7193 84bd 2e22 9a3d 573e 5d3d 89f2 99bd
00000020: 432e fd3c f287 043d 3d22 993c b7ce a8bd
00000030: e36e 8f3d b8dd bcbd 6844 c3bc 4ab0 abbd
00000040: 4608 d8bc d183 0bbd 59b8 1fbe 36b4 083d
00000050: 2c39 783d 7d36 a2bd 0c4c c6bd 1ada 873c
00000060: fa23 d73d 9917 403b 02db 903d 1ebb 5fbc
00000070: 0500 85bb 971e 4fbd 46f2 533c e43c b3bd
00000080: 2013 df3c f448 da3d d408 bb3d 7597 07bd
00000090: d927 683d 0c2e 25bc 63d1 66bd a900 4a3c
000000a0: d39d 69bc 5a1d c0bc 013c 303e f3b3 1b3e
000000b0: 2254 cdbd 0317 1f3e e44e a33d f62d a1bd
000000c0: 4a5e d03c 54c3 96bd 6f91 fbbc c0b2 0fbe
000000d0: 3495 28bd 5ce4 c53d 69b4 68bd 3019 683d
000000e0: 4791 633e 3f0a c13d fe6b 6a3c 233e 1abe
000000f0: 15be 883c 715b 28bd ad50 c4bb 00ae 863c
00000100: 34b9 26bd d750 003d da97 bebd d532 ae3d
00000110: 8fa8 d6bc b956 21bd 9b08 a1bd bbf8 923d
00000120: bf88 acbd b587 c6bc 97a3 aabc fef7 32bd
00000130: f1b7 80be c8c5 f1bb 4104 0e3d eecf 76bc
00000140: d60e 203d 2766 043e b6d2 c9bd 72f1 f93b
00000150: 7085 5ebd 4fbd 0a3e 79ea 86bd cccf 05be
00000160: 04ea bdbd 06b8 cdbd 42cd 8d3d 81b4 893d
00000170: c406 143c c372 0c3d 0aff 323e 4ddf 053e
00000180: 424d 01bd 930b 92bd 06b7 a4bc d92c b13d
00000190: 2751 903d b50f bbbd 20ff 6abc 6d91 2dbc
000001a0: baf9 d93d 74f7 4cbd f28a 4dbd 2943 d23d
000001b0: 5004 8abb 4869 513e 8a05 05bd afae f03d
000001c0: 4767 d03c c890 25bd 81bb e1bd 1850 d6bd
000001d0: c708 52bd 6f1a d43d 73b6 9abd c82f 76bc
000001e0: 3dd1 95bd 9c0c 1e3e eef0 c1bd 882b 2c3c
000001f0: 39d1 3f3d 057b e13d 4b32 863c 3fde 42bd
00000200: 2d26 6a3d 94e0 dd3d 66dd 8c3d b01d 933d
00000210: 2d12 91bd 544b 72bd f0e8 7fbd 53c2 473e
00000220: 162c 80bd c980 c0bd 40bf 913d 1278 cbbd
00000230: 3b5b 2d3d 4854 40be 5d21 87bc ef5b 71bc
00000240: 7af9 bfbd 00d0 873c 30b2 073e 1e44 bbbb
00000250: ebc4 9cbd 8cef 9cbd 1ef1 07be bf16 ad3d
00000260: f16a 26be e199 b03c 29ba 3ebc 10aa 003e
00000270: d6d1 1f3e 3c33 853d 95d8 3abd 3ae2 003e
00000280: f029 fa3d ffae 353d 958a febd 0926 aabd
00000290: b296 033a cfa6 3c3d dcc9 6fbd 5e60 e8bc
000002a0: bfa8 43be b5f6 6bbd f616 933d cadd 21be
000002b0: 889e 7d3d 6f5e d63d 9713 843d a8a3 31bd
000002c0: c09a 023e 602c 90bd 29b7 b3bd 5906 7bbc
000002d0: e6b0 0a3e fe74 223d bfa9 afbd 00f5 c73c
000002e0: 2116 4dbe 47c6 b8bc 9e79 393d 8f17 17bd
000002f0: af4e eabd 8654 9dbd 97bc 21be 4a16 58bd
00000300: 744a cebc 2e32 31bd 9b71 283e 950c 573d
00000310: dbbb 003e 9588 b6bc 6e3a 8dbc e975 203e
00000320: 0a12 15bd 8eaf 69be 82cc af3c 73e0 c23d
00000330: 2d10 be3d 1f37 11bd 2bae b93d ccb0 b6bc
00000340: e8c6 c4bd 47f4 44be 7007 4cbd e310 5d3d
00000350: 0842 5abd aebc abbd aaaa abbc bdcd 523e
00000360: 9971 953d 951a 303d b93a 86bd 20b5 a63d
00000370: af2b 883d 5e71 1ebc eb24 4dbb 6428 01bb
00000380: d3d2 f5bd 4677 8b3d 1baa 2ebd 1638 e8bd
00000390: 2454 d03d 7c9f 543d d904 a13d d92d 033d
000003a0: 99ea c63d 607d 973d 3e2b c4bd a4dd da3c
000003b0: 6092 dbbd 2233 21be 19ef 103d 84a5 70bd
000003c0: b90b 9fbc 341c 1cbe 0ced 0e3e 31ae 02bc
000003d0: cf73 eb3d 7fc0 b13d 93c9 043c 5bac 973c
000003e0: 6157 223e 20d9 cfbc a4cc d03d 8f6d eabb
000003f0: 6cc2 bbbd 6aac ae3d 1541 54bc 1ee7 223d

actor.0.bias f4 [256]
-0.019652274 -0.05342418 -0.018611427 -0.033894844 -0.020843523 0.011343167 0.06829092 0.015745698
-0.0091860965 0.04056914 0.047658917 0.0096877655 0.06308131 0.019953446 -0.026565764 0.008702514
0.020808121 0.014521788 0.024269221 -0.036283843 0.01855098 -0.005901329 0.04415927 -0.061840687
0.035406232 -0.05898237 -0.020361235 0.021877302 -0.05799354 -0.03604229 0.016477557 -0.02226301
0.0028825477 0.04714888 -0.00018433816 -0.013813554 -0.06442531 0.027522711 0.051828176 -0.021149
0.06681589 -0.0014048737 0.053602155 0.040643588 -0.053070355 0.056417316 -0.042050004 0.04692087
0.043681215 -0.0273535 -0.044288374 0.0413609 0.005594203 0.037698828 -0.051698916 -0.042896856
-0.017867606 -0.007406567 -0.002723466 0.016902067 0.013116796 -0.05139665 -0.07015873 0.07864327
-0.07680218 -0.06245854 -0.025176587 0.009061404 0.018501792 -0.017531876 -0.029173931 -0.0077175903
0.03795846 -0.014775972 -0.0023576766 -0.050902613 -0.017699951 0.02215772 -0.038468912 -0.045785703
0.04075037 -0.052386213 -0.06726204 0.051340383 0.039974667 -0.056459118 -0.06425532 -0.048732623
0.008775088 -0.032098997 -0.07185396 0.03876613 -0.02007368 -0.010990092 -0.037969153 0.027127577
0.037844375 0.04540563 -0.04317319 0.0009607729 -0.016142908 -0.0016984581 -0.060117614 -0.05325856
-0.010021896 -0.03211587 0.036952123 -0.0037564666 0.01728474 0.008375551 -0.017019901 0.012755917
0.029000346 -0.040744442 0.0074390504 0.03261804 -0.031418506 -0.03905064 -0.019800805 -0.05752761
-0.024884501 -0.022834552 -0.025206864 -0.057420455 0.019526755 0.05752235 -0.033896655 -0.046354596
-0.025421208 -0.041287035 0.04059343 0.014273425 -0.05234416 -0.014077935 -0.022571348 -0.04449501
-0.04734366 -0.05726386 -0.031302955 -0.00027564613 -0.06805645 0.032337654 0.035941735 0.05185663
0.056642402 0.007869586 0.032733638 0.0064359545 0.0007661026 0.02881246 0.044946387 0.038098156
-0.020606354 0.04192552 0.039940335 0.04176671 -0.046938926 0.038293395 -0.012898942 -0.04529043
-0.058150448 0.020010533 0.005332938 0.029494261 -0.045337293 -0.075612865 0.07975213 0.018792503
0.038526736 -0.008116362 -0.047750834 0.0434408 0.00688425 0.06329031 -0.038423337 -9.883803e-05
0.019645967 0.048542425 0.023020426 0.05207401 -0.04160764 -0.061718702 -0.04262257 0.048684966
0.026784603 -0.005697617 0.03789876 -0.020524992 -0.043253507 -0.0048284335 -0.013791389 -0.035792273
-0.035698354 -0.06103968 -0.047510184 -0.026604075 0.04731566 0.06770579 0.020888768 0.07742691
-0.07403463 0.019056112 0.038752344 -0.0052010682 -0.05533464 0.028986512 -0.027057165 -0.030544437
0.028171109 -0.011366316 -0.020123342 -0.031151235 0.03309979 -0.013254447 0.062952705 0.030659758
0.007171734 -0.018845377 -0.022744725 -0.04063145 -0.05238015 -0.046940595 -0.018120654 0.011229405
0.0390345 0.048834015 -0.0026312068 0.017250571 0.04728291 0.06905335 -0.060978986 -0.051910143
0.018655358 -0.02595625 0.00971698 -0.060980614 -0.05389162 0.016318265 -0.04917622 -0.064355075
-0.014047566 0.022331161 -0.052646685 -0.0145154055 -0.070831776 0.062353425 0.03648317 -0.02764318
0.005875068 0.00010344986 0.0347959 0.013632246 0.063548334 0.031425238 0.014899082 0.041699294
00000000: cefd a0bc 50d3 5abd fe76 98bc 52d5 0abd
00000010: 09c0 aabc b1d8 393c 1cdc 8b3d 1ffd 803c
00000020: 4881 16bc d42b 263d ff35 433d 6fb9 1e3c
00000030: c630 813d 6975 a33c 72a0 d9bc fd94 0e3c
00000040: cb75 aa3c cbec 6d3c 3fd0 c63c 5e9e 14bd
00000050: 3af8 973c f05f c1bb 5ae0 343d a94c 7dbd
00000060: 2006 113d 7f97 71bd 9bcc a6bc 0738 b33c
00000070: a28a 6dbd 15a1 13bd f1fb 863c ea60 b6bc
00000080: 20e9 3c3b 2f1f 413d e64a 41b9 3f52 62bc
00000090: 6bf1 83bd 4f77 e13c c849 543d ab40 adbc
000000a0: c5d6 883d bd23 b8ba ef8d 5b3d e479 263d
000000b0: 4d60 59bd d815 673d a03c 2cbd 1930 403d
000000c0: 13eb 323d 7214 e0bc ba67 35bd 0c6a 293d
000000d0: 934f b73b 166a 1a3d 3ec2 53bd 9db4 2fbd
000000e0: 165f 92bc cab2 f2bb 2d7c 32bb 3476 8a3c
000000f0: d4e7 563c 4b85 52bd 61af 8fbd b90f a13d
00000100: 764a 9dbd 87d4 7fbd 213f cebc 4876 143c
00000110: 1291 973c 029f 8fbc 2bfe eebc d7e3 fcbb
00000120: 557a 1b3d eb16 72bc 4083 1abb 427f 50bd
00000130: 7dff 90bc 1b84 b53c 9491 1dbd ca89 3bbd
00000140: dce9 263d ed92 56bd aec0 89bd 4b4a 523d
00000150: 7abc 233d ad41 67bd 4b98 83bd dc9b 47bd
00000160: 63c5 0f3c 3d7a 03bd 2b28 93bd 3cc9 1e3d
00000170: 8f71 a4bc c90f 34bc 8b85 1bbd a73a de3c
00000180: b402 1b3d 41fb 393d 5fd6 30bd 61dc 7b3a
00000190: 223e 84bc cc9e deba e33d 76bd a625 5abd
000001a0: e132 24bc ee8b 03bd 1c5b 173d 0d2f 76bb
000001b0: ba98 8d3c 9b39 093c 526d 8bbc 32fe 503c
000001c0: 2292 ed3c a5e3 26bd 47c3 f33b 7e9a 053d
000001d0: b1b0 00bd 90f3 1fbd 4c35 a2bc 12a2 6bbd
000001e0: 95da cbbc 870f bbbc a07e cebc b631 6bbd
000001f0: 93f6 9f3c 8e9c 6b3d 38d7 0abd 51de 3dbd
00000200: 2340 d0bc 981c 29bd 4c45 263d 15db 693c
00000210: d466 56bd 24a7 66bc 8ce7 b8bc 6640 36bd
00000220: 6deb 41bd 828d 6abd 8737 00bd 9984 90b9
00000230: 2e61 8bbd 7d74 043d a437 133d 9e67 543d
00000240: dd01 683d 70ef 003c b513 063d b3e4 d23b
00000250: 46d4 483a 1c08 ec3c b419 383d d00c 1c3d
00000260: a8ce a8bc 18ba 2b3d 7a98 233d 9213 2b3d
00000270: 0843 40bd 89d9 1c3d 1656 53bc 7582 39bd
00000280: 2a2f 6ebd 21ed a33c edbf ae3b f39d f13c
00000290: 99b3 39bd ebda 9abd 1655 a33d bcf2 993c
000002a0: 36ce 1d3d 7dfa 04bc 6196 43bd fbee 313d
000002b0: 4695 e13b 5a9e 813d ca61 1dbd 4347 cfb8
000002c0: 94f0 a03c 6cd4 463d 5595 bc3c 8f4b 553d
000002d0: c66c 2abd c0cc 7cbd 0195 2ebd e369 473d
000002e0: 626b db3c 13b3 babb bb3b 1b3d 0724 a8bc
000002f0: 972a 31bd d637 9ebb 47f5 61bc eb9a 12bd
00000300: 7038 12bd be04 7abd 0a9a 42bd caf0 d9bc
00000310: 11ce 413d 55a9 8a3d ec1e ab3c 0092 9e3d
00000320: 789f 97bd 901b 9c3c c7ba 1e3d b96d aabb
00000330: 93a6 62bd 1f75 ed3c fda6 ddbc 5438 fabc
00000340: 19c7 e63c c939 3abc b5d9 a4bc e030 ffbc
00000350: a593 073d 2e29 59bc 59ed 803d 2c2a fb3c
00000360: dd00 eb3b 9f61 9abc 2553 babc 2a6d 26bd
00000370: 918c 56bd c844 40bd c471 94bc 8afb 373c
00000380: a4e2 1f3d 2d06 483d 5370 2cbb 1251 8d3c
00000390: baab 413d d86b 8d3d 1ac5 79bd bb9f 54bd
000003a0: 1fd3 983c 34a2 d4bc f833 1f3c cfc6 79bd
000003b0: 76bd 5cbd e2ad 853c 016d 49bd 98cc 83bd
000003c0: c327 66bc d7ef b63c 0da4 57bd 06d2 6dbc
000003d0: 4010 91bd 4e66 7f3d 606f 153d f373 e2bc
000003e0: a483 c03b 38f3 d838 2586 0e3d c959 5f3c
000003f0: a125 823d c0b7 003d 471b 743c e1cc 2a3d

actor.2.weight f4 [128, 256]
-0.04252531 0.17124173 -0.16083857 0.010342658 -0.07726906 -0.12457449 0.024126315 0.09825573
0.03535292 0.17514431 -0.060395185 -0.06723229 -0.07914074 0.11467277 0.011070383 0.062805474
-0.1472653 -0.066624895 -0.10723307 0.14110152 0.23791018 -0.02052914 -0.12949903 0.086663365
-0.1643803 -0.14046511 0.022230465 0.06268668 -0.06840519 0.04155942 -0.029325696 -0.015154284
0.0146368155 -0.0052630645 0.07939595 0.024068754 -0.1910117 0.008903123 0.07297814 -0.04749311
0.0858613 0.13805878 -0.079570465 0.025780983 0.060580987 -0.08665375 0.052406073 0.0485343
0.04133786 -0.19772388 0.0015889927 0.07689704 -0.0145163955 -0.10002697 0.049656764 -0.03838146
-0.14655623 0.0206415 0.030860117 -0.057670858 -0.00821513 0.13675837 0.103464715 -0.21835765
0.08077744 -0.11267131 0.03893521 -0.065160856 -0.010022283 -0.072545804 -0.09810239 -0.05849986
-0.070691995 -0.0349585 -0.038684323 0.13642871 -0.12607318 0.008323873 -0.017119173 0.072278604
0.045100633 -0.011158012 0.100423954 -0.20466411 0.056243755 0.0021151411 -0.09842616 0.24876131
-0.03530296 -0.105157554 -0.007795291 0.027382482 0.059081636 0.04663501 -0.019325674 0.050754257
0.017268756 0.014145451 -0.031880055 0.014898866 -0.11766471 0.15391162 0.08729539 0.13477466
0.04827809 -0.0514436 0.052539874 0.06488277 -0.085580364 0.033766195 0.06242392 0.03150514
-0.0787734 0.0040972857 -0.115001485 -0.12951079 0.08279925 -0.019820232 -0.09216899 -0.0064991293
-0.033355698 0.15494569 0.049660143 -0.08591342 -0.06838941 0.072693065 0.03797065 0.10368681
0.055057988 0.011765633 0.0513794 0.0703919 -0.041604925 0.16230401 -0.0646559 0.029275034
-0.030979106 0.12704656 -0.11616818 -0.15318897 0.10033346 0.0045772116 -0.0022815391 -0.1669435
-0.006783704 -0.09157374 0.046427 0.020154318 0.06336683 0.07918333 0.08457364 0.060533836
-0.029733747 0.14844917 -0.011648049 0.006182395 0.03165164 -0.09324537 -0.020798558 -0.07152649
0.22876652 -0.15857437 -0.0026711843 -0.037108317 0.02551433 -0.19810474 0.030875249 -0.13530806
0.069841675 -0.02147768 0.026798874 0.06957794 -0.10700551 0.061440084 -0.01041381 0.019592855
-0.0900842 0.17327668 0.12221543 0.033347305 -0.047700334 -0.07700524 -0.13238974 0.13739797
0.009870029 0.08300863 0.005541343 0.11712364 -0.042316124 -0.024835201 0.025320303 0.12582241
0.055634987 0.07877327 0.03535334 -0.011939773 0.023337195 -0.01495702 0.086725734 0.0045280643
0.058211878 0.015367581 -0.108242445 -0.025847336 -0.0027552394 -0.062877946 0.013173147 0.069694445
0.087626465 -0.058657877 0.005611165 -0.16212307 0.062619485 -0.11098075 0.057786256 -0.12688549
0.013783743 -0.15492353 0.08145183 -0.09580842 0.06606904 -0.05592151 0.014891781 0.08503809
0.063212 -0.08433221 0.10697247 -0.061733667 0.070470355 -0.08585924 0.16852967 -0.1303237
0.024235275 -0.0039444775 -0.0745055 0.008901993 -0.08255688 0.06021207 -0.0256375 -0.052987274
0.07060004 -0.021525761 0.030035293 -0.17282572 0.021692308 0.22112882 -0.098552845 -0.1439139
0.11883051 0.031047141 -0.011249199 -0.12986259 -0.1280108 -0.044439133 0.13067955 -0.07343795
00000000: 052f 2ebd fe59 2f3e deb2 24be 4074 293c
00000010: 3e3f 9ebd e920 ffbd 8da4 c53c 4d3a c93d
00000020: 39ce 103d 0859 333e f160 77bd 15b1 89bd
00000030: 8a14 a2bd 8fd9 ea3d 8d60 353c 28a0 803d
00000040: b7cc 16be a272 88bd 039d dbbd eb7c 103e
00000050: ba9e 733e ba2c a8bc 659b 04be 907c b13d
00000060: 4f53 28be 16d6 0fbe aa1c b63c e061 803d
00000070: 0518 8cbd 363a 2a3d 713c f0bc ad49 78bc
00000080: 41cf 6f3c c975 acbb 589a a23d d62b c53c
00000090: 9298 43be 68de 113c 9075 953d 2388 42bd
000000a0: 0dd8 af3d 485f 0d3e d7f5 a2bd a432 d33c
000000b0: c523 783d 8577 b1bd c0a7 563d e7cb 463d
000000c0: e351 293d 2178 4abe bf45 d03a 327c 9d3d
000000d0: 2dd6 6dbc f1da ccbd e464 4b3d e135 1dbd
000000e0: d612 16be 5d18 a93c 5bce fc3c 4738 6cbd
000000f0: c198 06bc 630a 0c3e 4fe5 d33d 2699 5fbe
00000100: a46e a53d 37c0 e6bd 877a 1f3d 0e73 85bd
00000110: 8034 24bc e592 94bd e8e9 c8bd 8d9d 6fbd
00000120: f7c6 90bd a530 0fbd 7473 1ebd f8b3 0b3e
00000130: 5419 01be db60 083c 823d 8cbc ce06 943d
00000140: 71bb 383d 18d0 36bc 13ab cd3d 7893 51be
00000150: da5f 663d 2e9e 0a3b a893 c9bd 49bb 7e3e
00000160: d699 10bd d85c d7bd a46f ffbb 3a51 e03c
00000170: 96ff 713d 5a04 3f3d e050 9ebc b2e3 4f3d
00000180: 3577 8d3c 52c2 673c a994 02bd 601a 743c
00000190: 32fa f0bd 029b 1d3e edc7 b23d 5e02 0a3e
000001a0: 3fbf 453d 86b6 52bd 0d34 573d 42e1 843d
000001b0: c244 afbd 6c4e 0a3d 39b0 7f3d 890b 013d
000001c0: f353 a1bd 8642 863b e685 ebbd 7a9e 04be
000001d0: a792 a93d 0a5e a2bc 18c3 bcbd a6f6 d4bb
000001e0: fc9f 08bd 15aa 1e3e 6f68 4b3d 60f3 afbd
000001f0: bf0f 8cbd 1ae0 943d 1d87 1b3d c059 d43d
00000200: 7c84 613d a4c4 403c 3573 523d a129 903d
00000210: ed69 2abd 0633 263e 506a 84bd 32d2 ef3c
00000220: e5c7 fdbc 7e18 023e 95e9 edbd 92dd 1cbe
00000230: a17b cd3d 6ffc 953b e085 15bb 3df3 2abe
00000240: d549 debb 038b bbbd 3d2a 3e3d ab1a a53c
00000250: 78c6 813d df2a a23d f234 ad3d 54f2 773d
00000260: 3094 f3bc 0f03 183e 75d7 3ebc b095 ca3b
00000270: 26a5 013d 6ef7 bebd bd61 aabc 7b7c 92bd
00000280: c541 6a3e 5261 22be 090f 2fbb e4fe 17bd
00000290: 6e03 d13c f8db 4abe 17ee fc3c 328e 0abe
000002a0: 2709 8f3d f6f1 afbc 5089 db3c e17e 8e3d
000002b0: b425 dbbd 99a8 7b3d af9e 2abc 3281 a03c
000002c0: 117e b8bd 716f 313e 154c fa3d 2f97 083d
000002d0: 6d61 43bd ecb4 9dbd 2d91 07be 0eb2 0c3e
000002e0: e7b5 213c 6e00 aa3d 2794 b53b 85de ef3d
000002f0: ac53 2dbd 3173 cbbc 866c cf3c 97d7 003e
00000300: 83e1 633d e153 a13d aace 103d 0a9f 43bc
00000310: a52d bf3c 4a0e 75bc 439d b13d 2860 943b
00000320: 946f 6e3d 4ec8 7b3c 37ae ddbd cbbd d3bc
00000330: 3f91 34bb 27c6 80bd 2fd4 573c f6bb 8e3d
00000340: 8175 b33d 3e43 70bd dddd b73b 9703 26be
00000350: a53e 803d e049 e3bd 48b1 6c3d 45ee 01be
00000360: 35d5 613c 46a4 1ebe 38d0 a63d 3437 c4bd
00000370: 344f 873d f40d 65bd a8fc 733c 7328 ae3d
00000380: 4b75 813d 5eb6 acbd 6214 db3d 71dc 7cbd
00000390: c352 903d f8d6 afbd 0b93 2c3e 9373 05be
000003a0: 0e89 c63c ad40 81bb 5796 98bd aad9 113c
000003b0: 9513 a9bd eea0 763d bc05 d2bc 2f09 59bd
000003c0: c196 903d cb56 b0bc 930c f63c 3af9 30be
000003d0: 11b4 b13c 986f 623e 13d6 c9bd 2a5e 13be
000003e0: 695d f33d 9356 fe3c 8f4e 38bc b3fa 04be
000003f0: 4315 03be cf05 36bd dcd0 053e a366 96bd

actor.2.bias f4 [128]
-0.03879586 0.01579332 -0.054386724 -0.046550307 -0.03294806 0.017433548 -0.011314314 -0.036956508
-0.009530158 0.03361334 -0.0068705105 0.036104698 -0.07740046 -0.07311064 -0.015715232 -0.07019516
-0.001027813 -0.061726462 -0.028698778 0.007973304 0.0034754102 -0.06137843 -0.07268012 0.023259215
-0.05652627 -0.022476396 -0.012808811 0.037398703 -0.037490763 -0.024622874 0.02666678 0.025211051
-0.02106332 -0.06985147 0.041965693 -0.012561067 -0.01542097 0.038747165 0.0082619125 -0.06703862
0.006109265 -0.00092392357 -0.04359949 -0.019303638 -0.004516251 -0.06376323 0.007446709 -0.07378637
-0.029297085 0.032849945 -0.07492516 -0.024415936 -0.037272673 -0.031078773 0.017781917 0.02553721
-0.038815375 0.037257526 -0.041534554 -0.023084458 0.034965627 0.0012534235 0.020023074 0.0048115244
0.0016098666 0.049603958 -0.02241088 -0.004342358 0.021890074 -0.020584105 0.028482698 -0.045500997
0.0033553734 -0.026584713 -0.075828336 0.026427744 -0.030599425 0.015827222 -0.027742513 -0.02522445
-0.0009855288 -0.074968085 0.019911952 -0.0075050984 -0.057613466 0.039200675 0.06676911 -0.063122675
0.03951305 -0.044863723 -0.065148965 -0.041584287 -0.06666169 -0.04483591 0.022878835 0.004895948
-0.0332528 -0.00577432 -0.0071733696 0.0076882616 0.011748626 0.032710686 -0.06765579 -0.07009597
-0.071739174 -0.038920525 0.0415636 -0.011996331 -0.04395842 -0.061138414 0.0051921024 -0.04170081
-0.030524576 -0.046183836 0.027301976 0.020069474 -0.030237624 -0.00048609282 0.04679108 -0.064180315
-0.06171503 -0.032638215 -0.038808074 -0.067285895 -0.07033421 -0.031754505 -0.016030714 -0.0055192453
00000000: 68e8 1ebd fe60 813c 9dc4 5ebd 89ab 3ebd
00000010: 8cf4 06bd cdd0 8e3c ac5f 39bc b55f 17bd
00000020: 6124 1cbc 24ae 093d 0522 e1bb 85e2 133d
00000030: 2284 9ebd 08bb 95bd 3bbd 80bc 7bc2 8fbd
00000040: aeb7 86ba e3d4 7cbd b319 ebbc 76a2 023c
00000050: b5c3 633b f367 7bbd 51d9 94bd 1c8a be3c
00000060: 1788 67bd 6b20 b8bc 0cdc 51bc 622f 193d
00000070: ea8f 19bd e9b5 c9bc 4a74 da3c 6887 ce3c
00000080: fc8c acbc 4a0e 8fbd 38e4 2b3d efcc 4dbc
00000090: 3ca8 7cbc 59b5 1e3d f95c 073c 8b4b 89bd
000000a0: 3b30 c83b 7633 72ba 6195 32bd aa22 9ebc
000000b0: 0ffd 93bb 4c96 82bd 8603 f43b 4f1d 97bd
000000c0: 7100 f0bc aa8d 063d 5d72 99bd ee03 c8bc
000000d0: 3bab 18bd e998 febc 62ab 913c 6933 d13c
000000e0: dffc 1ebd 599b 183d 2320 2abd 9e1b bdbc
000000f0: 1e38 0f3d ea49 a43a 6e07 a43c fea9 9d3b
00000100: 2902 d33a 852d 4b3d 0697 b7bc 574a 8ebb
00000110: d052 b33c ff9f a8bc 8c54 e93c 415f 3abd
00000120: d3e5 5b3b 2fc8 d9bc e34b 9bbd ff7e d83c
00000130: a5ab fabc 17a8 813c 4444 e3bc 81a3 cebc
00000140: dc2c 81ba de88 99bd 641e a33c 54ed f5bb
00000150: 19fc 6bbd e390 203d 3ebe 883d 7646 81bd
00000160: 70d8 213d 06c3 37bd d26c 85bd 4954 2abd
00000170: ed85 88bd dca5 37bd 656c bb3c 306e a03b
00000180: 1734 08bd 8236 bdbb 960e ebbb d0ed fb3b
00000190: 4f7d 403c a4fb 053d 1e8f 8abd 7a8e 8fbd
000001a0: fdeb 92bd 216b 1fbd 983e 2a3d 428c 44bc
000001b0: bf0d 34bd 466c 7abd 8322 aa3b 78ce 2abd
000001c0: ad0e fabc 432b 3dbd 65a8 df3c bd68 a43c
000001d0: e5b4 f7bc 46da feb9 01a8 3f3d f870 83bd
000001e0: e6c8 7cbd a6af 05bd 37f5 1ebd 30cd 89bd
000001f0: 620b 90bd 0311 02bd d852 83bc c9da b4bb

actor.4.weight f4 [64, 128]
-0.04783091 0.0026893388 0.12022174 -0.0875801 -0.09254653 -0.03847604 0.09835568 -0.24509224
0.055371612 -0.24057573 0.14247006 0.19218701 -0.072630905 0.05353537 0.015417586 -0.07864776
0.17334048 -0.06460272 0.20464599 -0.08295535 -0.04465606 -3.80659e-05 0.15136315 0.0156713
-0.107664555 0.04836392 0.0705738 -0.19439417 0.06679231 -0.06555508 0.050762534 0.1420295
-0.006903412 0.30695534 -0.03789435 0.04897506 0.04020907 0.029406002 -0.031028684 -0.09495344
-0.010759069 -0.0072772736 -0.18249945 -0.17293786 0.014876966 0.10612816 0.043958876 -0.055779666
-0.044037238 0.09290286 0.12091072 0.09277668 0.32900432 -0.12696047 0.015719507 -0.035136737
0.18262771 -0.25856766 0.05052398 -0.053765696 -0.032314297 -0.0002058099 0.22046512 0.10712578
0.2973381 -0.0069092363 -0.34554914 0.09990168 -0.11917686 -0.05801965 -0.05263714 0.114050366
0.24540225 0.31508926 0.24046838 0.07041167 -0.12950228 0.037380178 0.17744699 -0.13035913
-0.1235751 0.035490632 0.11990751 0.019740283 -0.22133222 -0.123762034 -0.09170913 -0.067204334
0.1648862 -0.2548057 -0.044424646 -0.087502964 0.005643843 0.08513911 0.06335925 -0.02107461
0.0060520694 -0.0940878 0.059116274 -0.089440055 0.02313749 -0.08117142 0.0057295966 0.07433837
-0.048839066 -0.08981909 -0.040127043 -0.01936586 0.061146002 0.13548714 0.16872977 0.12902547
0.11889457 0.12061076 -0.1897303 0.10276379 0.064161465 -0.014065119 -0.112400964 -0.16534816
-0.20213492 0.18059519 -0.0966813 0.030058732 0.16462463 0.19143964 -0.002517959 0.09124759
0.061471537 -0.018637173 0.19138606 0.04684662 0.031081522 -0.17386627 -0.16885737 -0.0834692
0.18739665 0.120272174 0.11618026 -0.09945271 0.17244297 0.18233982 -0.092721865 -0.09079921
0.3530072 0.159369 0.097770974 -0.15206409 0.010284939 0.046016023 -0.07940556 -0.27236366
0.022549022 0.018731847 -0.05811761 0.023603367 0.084035344 0.076646686 -0.16671523 -0.011677625
0.06398799 0.19892696 0.050850913 0.105118655 0.07653073 0.053607076 0.13336813 0.15968768
-0.13681717 -0.1890305 0.01998841 0.11477648 0.22616535 -0.0037176802 -0.111843385 0.029761737
0.17364146 0.13969494 -0.07499837 -0.113581374 0.015585358 -0.15725267 -0.03709817 0.06835719
-0.009744522 0.06422049 -0.08744107 0.18437454 0.015143992 -0.14420313 -0.23858052 -0.034048602
-0.004332853 -0.088768914 0.19973436 0.03223705 -0.055538006 -0.13776521 -0.11459139 0.0949662
-0.09482376 0.06944535 -0.1328437 -0.26138252 0.05716954 -0.08160933 0.12942174 0.00022012886
-0.07335549 -0.19214109 0.07171799 0.08331789 -0.04691748 -0.20555885 -0.07737037 0.3279129
0.09606026 -0.020093745 -0.010905252 -0.046471022 -0.002624083 -0.027504085 -0.048902012 -0.0052432846
0.011767794 0.060998198 0.04593292 -0.15698938 -0.013607161 -0.24357699 0.084771074 0.20221813
-0.1532028 0.098760605 -0.07216431 -0.06707594 0.107634164 -0.114705764 0.00069820764 0.100258626
0.03801384 0.13734707 0.07845319 0.14581001 -0.12654465 -0.09149128 -0.08803056 -0.035253268
-0.003890038 -0.13294896 -0.024003126 0.21173905 0.03483598 -0.15710923 -0.17713228 0.060552664
00000000: 58ea 43bd 9e3f 303b d136 f63d 325d b3bd
00000010: 0989 bdbd 0d99 1dbd b46e c93d 76f9 7abe
00000020: 58cd 623d 7c59 76be ace3 113e accc 443e
00000030: 83bf 94bd e747 5b3d 0b9a 7c3c 1412 a1bd
00000040: 2b80 313e 6e4e 84bd b88e 513e 7fe4 a9bd
00000050: 46e9 36bd f3a8 1fb8 f1fe 1a3e 1961 803c
00000060: 3c7f dcbd 3f19 463d ff88 903d 440f 47be
00000070: 68ca 883d be41 86bd 60ec 4f3d 2e70 113e
00000080: 0436 e2bb 4029 9d3e 1b37 1bbd 139a 483d
00000090: 44b2 243d dbe4 f03c de2f febc f376 c2bd
000000a0: ce46 30bc 3276 eebb 23e1 3abe 9f16 31be
000000b0: 85be 733c b959 d93d 390e 343d 3879 64bd
000000c0: 6460 34bd db43 be3d 0aa0 f73d b301 be3d
000000d0: 4173 a83e ed01 02be 32c6 803c 8aeb 0fbd
000000e0: c202 3b3e fb62 84be 3cf2 4e3d 6b39 5cbd
000000f0: ff5b 04bd adce 57b9 9cc1 613e c364 db3d
00000100: b33c 983e e066 e2bb d1eb b0be 4199 cc3d
00000110: ff12 f4bd 03a6 6dbd 0b9a 57bd 3d93 e93d
00000120: ba4a 7b3e 6153 a13e 583d 763e fe33 903d
00000130: 3f9c 04be f51b 193d aab4 353e dd7c 05be
00000140: f114 fdbd a05e 113d 1292 f53d 60b6 a13c
00000150: eaa4 62be f376 fdbd ffd1 bbbd 6da2 89bd
00000160: eed7 283e e575 82be 9ef6 35bd c134 b3bd
00000170: fdef b83b 6a5d ae3d 7fc2 813d a9a4 acbc
00000180: 7050 c63b 1bb1 c0bd e823 723d 592c b7bd
00000190: d58a bd3c 343d a6bd 57bf bb3b b73e 983d
000001a0: 790b 48bd 12f3 b7bd 415c 24bd 27a5 9ebc
000001b0: 3b74 7a3d 24bd 0a3e 7fc7 2c3e 411f 043e
000001c0: ff7e f33d c602 f73d a948 42be d275 d23d
000001d0: 1667 833d 6371 66bc 7a32 e6bd 0751 29be
000001e0: 75fc 4ebe f2ed 383e d800 c6bd bb3d f63c
000001f0: 5c93 283e c108 443e 5804 25bb 04e0 ba3d
00000200: 94c9 7b3d fcac 98bc b5fa 433e 3ee2 3f3d
00000210: ad9e fe3c 000a 32be f2e8 2cbe e6f1 aabd
00000220: e8e4 3f3e 4251 f63d ebef ed3d ddad cbbd
00000230: e494 303e 4ab7 3a3e f6e4 bdbd f0f4 b9bd
00000240: 5cbd b43e a131 233e 263c c83d b0b6 1bbe
00000250: 2982 283c 4c7b 3c3d 629f a2bd 4073 8bbe
00000260: bab8 b83c 8873 993c bb0c 6ebd d95b c13c
00000270: b91a ac3d f0f8 9c3d 66b7 2abe 8253 3fbc
00000280: 230c 833d 82b3 4b3e 0c49 503d 7348 d73d
00000290: 25bc 9c3d 1893 5b3d a891 083e 2b85 233e
000002a0: cd19 0cbe 3691 41be bcbe a33c ee0f eb3d
000002b0: e497 673e 53a4 73bb 250e e5bd e3ce f33c
000002c0: 11cf 313e 310c 0f3e bf98 99bd 5a9d e8bd
000002d0: bb59 7f3c d806 21be 40f4 17bd dbfe 8b3d
000002e0: 7da7 1fbc 0886 833d 4e14 b3bd aecc 3c3e
000002f0: 821e 783c fca9 13be 744e 74be 8c76 0bbd
00000300: 9bfa 8dbb 7acc b5bd 2a87 4c3e ff0a 043d
00000310: d27b 63bd 5312 0dbe e4ae eabd a47d c23d
00000320: f632 c2bd 5d39 8e3d 2e08 08be eed3 85be
00000330: 9c2a 6a3d cb22 a7bd 2287 043e 64d2 6639
00000340: 673b 96bd a2c0 44be e2e0 923d 92a2 aa3d
00000350: 8b2c 40bd 057e 52be 5b74 9ebd 33e4 a73e
00000360: 3ebb c43d a39b a4bc f1ab 32bc 6658 3ebd
00000370: cff8 2bbb 3f50 e1bc 7a4d 48bd dccf abbb
00000380: b5cd 403c 3fd9 793d 2824 3c3d d3c1 20be
00000390: 92f0 5ebc 3f6c 79be 759c ad3d 4512 4f3e
000003a0: 32e1 1cbe 0043 ca3d e2ca 93bd 1c5f 89bd
000003b0: 4d6f dc3d dbea eabd ec07 373a 6554 cd3d
000003c0: 66b4 1b3d b6a4 0c3e 11ac a03d 384f 153e
000003d0: ec94 01be c85f bbbd 5e49 b4bd bb65 10bd
000003e0: 02f0 7ebb c623 08be 34a2 c4bc 1fd2 583e
000003f0: 2cb0 0e3d 3ee1 20be 2a62 35be 1206 783d

actor.4.bias f4 [64]
-0.013833032 -0.010079772 -0.079558425 -0.012390422 -0.101533175 0.020770596 0.04176061 0.057615966
-0.09708158 0.010678543 -0.0051744324 -0.04318182 0.03890035 0.0021943948 -0.016064536 0.041056227
0.009269713 -0.019648695 0.0134498915 -0.07152874 0.022582412 -0.088509746 -0.02071214 -0.023480186
0.05470427 0.06850572 0.055409033 -0.012489678 0.060832992 0.048896905 -0.065907195 -0.106191635
-0.10423588 0.06805563 -0.03276729 -0.022689573 0.038320456 -0.010403021 -0.0036046703 0.033651575
-0.035682764 -0.053192742 -0.08340634 -0.053704556 -0.040278804 -0.04341329 0.049022164 -0.10004882
-0.020689799 -0.04095043 0.02264462 0.07133701 -0.034565885 -0.11024858 0.05741809 0.012205542
0.043559548 -0.066859536 -0.021455808 -0.0711675 -0.097069405 0.0752003 0.022505451 -0.08477152
00000000: f1a3 62bc a125 25bc 87ef a2bd 3201 4bbc
00000010: a0f0 cfbd 1927 aa3c 2c0d 2b3d b8fe 6b3d
00000020: b5d2 c6bd 0ef5 2e3c 498e a9bb 6cdf 30bd
00000030: f955 1f3d d6cf 0f3b c699 83bc 932a 283d
00000040: ffdf 173c 4df6 a0bc ef5c 5c3c a97d 92bd
00000050: c0fe b83c 9944 b5bd 81ac a9bc 8559 c0bc
00000060: 9611 603d ba4c 8c3d 95f4 623d 82a1 4cbc
00000070: 042c 793d 1f48 483d 5afa 86bd 007b d9bd
00000080: 9f79 d5bd c060 8b3d fe36 06bd 7cdf b9bc
00000090: e9f5 1c3d 6f71 2abc 553c 6cbb 3cd6 093d
000000a0: 1728 12bd a2e0 59bd f1d0 aabd 4ff9 5bbd
000000b0: 63fb 24bd 22d2 31bd 77cb 483d 65e6 ccbd
000000c0: a77d a9bc a3bb 27bd 3681 b93c 2319 923d
000000d0: f594 0dbd 02ca e1bd 3b2f 6b3d c1f9 473c
000000e0: 7f6b 323d a7ed 88bd 17c4 afbc 44c0 91bd
000000f0: 53cc c6bd 9d02 9a3d 5a5d b83c b19c adbd

actor.6.weight f4 [3, 64]
0.003528096 -0.00701631 0.0074671768 0.004169614 0.0008186244 0.011619473 0.009770058 0.0063018044
0.0012557209 0.00077098573 -0.0049661985 0.0012179415 0.0035541307 0.005700077 0.005010748 0.001340275
-0.015100093 0.0038725687 -0.003051093 -0.016824631 0.0018690414 0.002636605 0.0045110025 0.012587017
0.011164086 0.0029766595 0.0020293724 -0.011593947 -0.0008671645 0.0005615178 0.001228276 0.010156503
0.0024821383 -0.0010582574 0.009161135 0.009868639 0.0009932163 0.0012010654 0.0074508153 0.008315694
0.008308643 0.0013903291 0.0046365126 0.003196272 0.010173398 0.0047779395 -0.015335143 0.001983849
-0.0018072505 0.0026408334 0.0030308592 -0.011153049 0.0012661694 0.0023419338 0.0025264113 0.0010458162
0.0028898797 0.010665863 0.0013081138 -0.015018872 0.006270693 0.009052832 0.003761648 -0.012649096
-0.011464726 -0.002283428 -0.019224934 -0.010350882 -0.013091646 -0.02026329 -0.017055947 -0.009726694
-0.011645425 -0.009698537 -0.008317569 -0.014198609 -0.012658295 -0.012220365 -0.024516935 0.005168696
-0.01332159 -0.00838267 -0.009922801 0.01285187 -0.014463628 -0.010219859 -0.014603293 -0.019554455
-0.014870801 -0.013928347 -0.012164281 -0.011669046 -0.0072287307 -0.011131624 -0.0138055505 -0.01672033
-0.012724412 -0.007238629 -0.009020188 -0.020900939 -0.010963432 -0.01262483 -0.01072725 -0.014855484
-0.017546318 -0.011732188 -0.012080711 -0.0113012055 -0.01897487 -0.013016635 0.013065769 -0.014510467
-0.013275555 -0.013475874 -0.011825973 -0.012859641 -0.01163892 -0.012587395 -0.011505803 -0.012605932
-0.0126723405 -0.020663237 -0.008920441 -0.012840191 -0.011261752 -0.013719563 -0.012866539 0.009680817
0.05455224 0.009580226 0.051883657 0.049618136 0.04174033 0.05798291 0.045185234 0.030652475
0.056649916 0.047826845 0.040631864 0.04991276 0.041898925 -0.0044790646 0.046449218 -0.039994925
0.04116569 0.028218204 0.038617052 0.0046474766 0.045826714 0.04381098 0.05039602 0.05271847
0.042983457 0.04862638 0.0568822 0.032116804 0.032702103 0.056819417 0.059310846 0.047759224
0.048264142 0.03957965 -0.020218546 0.05525608 0.04670072 0.050084192 0.03709494 0.044772886
0.043125413 0.057622496 0.051509418 0.044531524 0.049523894 0.05956296 0.002124001 0.06276069
0.047808427 0.058796715 0.045527797 0.025909817 0.057997566 0.0562705 0.057068843 0.047868475
0.045008846 0.056685258 0.04516712 0.03897917 0.04196926 0.016132323 0.062455967 0.005964644
00000000: a137 673b 13e9 e5bb 38af f43b 42a1 883b
00000010: f498 563a 9a5f 3e3c 9812 203c 5e7f ce3b
00000020: 0097 a43a fa1b 4a3a 7ebb a2bb 56a3 9f3a
00000030: 6bec 683b b6c7 ba3b 3331 a43b 2bac af3a
00000040: 6166 77bc ecca 7d3b d9f4 47bb cfd3 89bc
00000050: 9ffa f43a e4ca 2c3b 08d1 933b c739 4e3c
00000060: 92e9 363c 0f14 433b 38ff 043b 8af4 3dbc
00000070: 6d52 63ba d232 133a 1bfe a03a 7667 263c
00000080: 5fab 223b 3ab5 8aba 9618 163c 12b0 213c
00000090: cf2e 823a 116d 9d3a f825 f43b 8c3e 083c
000000a0: f920 083c b43b b63a e3ed 973b 8c78 513b
000000b0: 53ae 263c 4390 9c3b 4040 7bbc 7703 023b
000000c0: 44e1 ecba d511 2d3b 61a1 463b 47bb 36bc
000000d0: 98f5 a53a 217b 193b 2692 253b c513 893a
000000e0: 2364 3d3b dfbf 2e3c 0475 ab3a b711 76bc
000000f0: 637a cd3b 5452 143c fb85 763b 273e 4fbc
00000100: 8cd6 3bbc 91a5 15bb 9c7d 9dbc bf96 29bc
00000110: 587e 56bc 33ff a5bc eab8 8bbc b65c 1fbc
00000120: 74cc 3ebc 9de6 1ebc 6a46 08bc 48a1 68bc
00000130: bd64 4fbc ed37 48bc bdd7 c8bc 2a5e a93b
00000140: cc42 5abc 7757 09bc 3e93 22bc a690 523c
00000150: daf8 6cbc 3271 27bc a642 6fbc aa30 a0bc
00000160: a9a4 73bc b933 64bc b14c 47bc 872f 3fbc
00000170: fdde ecbb 6a61 36bc ad30 62bc 13f9 88bc
00000180: 0d7a 50bc 0532 edbb 69c9 13bc 7238 abbc
00000190: f79f 33bc 60d8 4ebc 59c1 2fbc 6a64 73bc
000001a0: 4cbd 8fbc 5d38 40bc 2dee 45bc b128 39bc
000001b0: 3071 9bbc b943 55bc cf11 563c 4fbd 6dbc
000001c0: b781 59bc eac9 5cbc bac1 41bc 3eb1 52bc
000001d0: 2bb1 3ebc 5c3b 4ebc d682 3cbc 1c89 4ebc
000001e0: a69f 4fbc f345 a9bc 0b27 12bc aa5f 52bc
000001f0: 3683 38bc 05c8 60bc 2dce 52bc 4a9c 1e3c
00000200: 2b72 5f3d 61f6 1c3c f583 543d 633c 4b3d
00000210: e9f7 2a3d 7d7f 6d3d 2714 393d e61a fb3c
00000220: be09 683d 15e6 433d 996d 263d 5271 4c3d
00000230: 359e 2b3d 1ec5 92bb 8941 3e3d b8d1 23bd
00000240: 5b9d 283d dd29 e73c ea2c 1e3d dc49 983b
00000250: cbb4 3b3d 2473 333d 0f6c 4e3d 53ef 573d
00000260: 6c0f 303d 742c 473d 4ffd 683d e98c 033d
00000270: a4f2 053d 7abb 683d eeef 723d 2d9f 433d
00000280: 9fb0 453d 451e 223d 5da1 a5bc 3354 623d
00000290: 4149 3f3d 1525 4d3d ddf0 173d c663 373d
000002a0: 46a4 303d 9105 6c3d 8afb 523d b066 363d
000002b0: 91d9 4a3d 4af8 733d d332 0b3b ad88 803d
000002c0: c5d2 433d d3d4 703d 5b7b 3a3d d340 d43c
000002d0: db8e 6d3d e57b 663d 05c1 693d bc11 443d
000002e0: 325b 383d cd2e 683d 2801 393d 9fa8 1f3d
000002f0: f5e7 2b3d ef27 843c d4d1 7f3d 0f73 c33b

actor.6.bias f4 [3]
-0.030078042 0.07458414 0.038712367
00000000: 3a66 f6bc 92bf 983d dc90 1e3d

critic.0.weight f4 [256, 259]
0.049138054 0.07531428 -0.09460804 -0.011323809 -0.6761639 -0.09769786 0.070966 -0.053436182
0.035789322 0.0031125958 0.04233086 -0.07387461 0.08722943 0.12946212 0.12306999 -0.060992796
0.16214359 -0.0767176 -0.10461379 -0.07488144 0.10479268 -0.10887747 -2.795947 0.118604094
-0.11341351 0.102874205 0.04552336 -0.058796134 0.301433 0.33623463 0.07052089 0.062993504
0.004334822 0.122243315 -0.11468635 -0.035521038 0.009199076 0.105197795 -0.07359939 0.034145
0.04514995 -0.01167876 -0.03520047 0.09618453 -0.010415506 0.22031091 -0.17432864 0.14778294
-0.1755455 0.2361589 -0.06677238 0.024694603 0.051633514 -0.51131827 0.0029125265 0.06392755
-0.04673804 0.00948349 0.18464948 -0.009427961 0.074992545 0.10372606 -0.004752388 0.062205255
-0.039130855 -0.02333685 0.12481271 0.042495843 -0.041912023 0.11349498 -0.10058611 0.07387653
-0.14936242 -0.06647376 0.12262108 -0.1676421 0.05397472 -0.025071315 0.076687545 0.18282281
-0.008514213 0.18308026 0.09961336 -0.034285415 0.11432612 -0.4378593 -0.05774908 -0.12877321
-0.02842282 -0.057604507 0.16174045 0.109001175 0.046297453 -0.09391254 -0.09493858 0.06498515
0.00078653754 -0.033755388 0.04233782 0.075232126 -0.055959925 0.035110354 -0.02688503 0.042766504
0.028401019 0.08302952 -0.17981122 0.0726545 0.11167379 0.013942484 0.07676174 -0.14006937
-0.0102331685 -0.032810036 -0.044211607 -0.0063887876 -0.01528632 -0.0857241 0.0278083 -0.07616199
-0.012360934 -0.03535124 0.025002543 0.096227996 0.04806112 0.205023 -0.026183326 0.051522367
-0.20372178 0.07344266 0.07077699 -0.031222131 0.0711803 -0.02475887 -0.030209262 0.06852541
-0.068506815 -0.11458514 0.017029915 0.24242131 0.12357338 0.094334126 -0.056346077 0.11439526
-0.08596712 -0.090960085 0.05346596 -0.016272198 0.17460248 0.052193075 -0.081260726 0.043547392
-0.0034400106 -0.13631158 -0.020721871 0.5445502 -0.027859159 0.15737636 0.069050185 -0.00919033
-0.16508768 -0.093539216 0.13784215 -0.02650012 0.016768625 -0.004563862 -0.06631867 0.08090965
-0.036591437 0.044759948 -0.041226726 0.08321786 0.17782807 0.026727341 -0.05470097 0.10599962
-0.12477224 0.12801856 -0.10867361 0.0076715387 -0.00039861607 0.10724539 -0.037404004 -0.032210685
0.03738707 0.18542475 -0.58096033 -0.01894122 -0.040862933 0.048042092 -0.08494811 -0.048202276
0.18929803 -0.008845531 -0.04614837 -0.06737184 0.08720194 -0.014836331 -0.08490298 0.00044060047
0.116344884 0.11934982 -0.011839868 0.07873586 -0.00920969 -0.006731382 -0.055806566 0.20331103
-0.085795626 -0.0025649094 -0.0080847135 0.15817551 0.03035717 0.052691735 0.012270826 0.016741915
0.04492058 -0.103498906 -0.063177586 -0.092292316 -0.081991695 -0.09592571 -0.09894905 0.0135913305
0.07975389 -0.09688969 -0.13336742 -0.021506358 0.113409616 0.20008004 0.040185086 -0.1368101
0.051455833 -0.12566218 0.029231165 -0.024178427 -0.10815698 -0.14449435 -0.08302535 0.10992392
-0.037618574 0.1394588 0.1634594 0.18522036 -0.071739525 -0.07563996 -0.019586239 0.07110353
0.04727999 0.043276254 0.10045488 0.047041293 0.06645968 0.08336009 0.008347381 -0.010257199
00000000: fc44 493d 603e 9a3d dcc1 c1bd 7f87 39bc
00000010: 1419 2dbf d115 c8bd 9f56 913d e6df 5abd
00000020: d397 123d b1fc 4b3b 2063 2d3d 924b 97bd
00000030: 58a5 b23d b891 043e 1e0c fc3d 95d3 79bd
00000040: f808 263e 1e1e 9dbd c13f d6bd 715b 99bd
00000050: 8b9d d63d 27fb debd ccf0 32c0 b4e6 f23d
00000060: 5845 e8bd b6af d23d b476 3a3d 37d4 70bd
00000070: 6d55 9a3e f226 ac3e 426d 903d bd02 813d
00000080: 1f0b 8e3b b45a fa3d ade0 eabd 827e 11bd
00000090: b9b7 163c f171 d73d 47bb 96bd a1db 0b3d
000000a0: 27ef 383d 4558 3fbc 5e2e 10bd 65fc c43d
000000b0: cca5 2abc 2f99 613e 3583 32be 6954 173e
000000c0: 33c2 33be a4d3 713e f5bf 88bd 564c ca3c
000000d0: aa7d 533d c1e5 02bf 16e0 3e3b 73ec 823d
000000e0: 6370 3fbd a460 1b3c c114 3d3e bc77 1abc
000000f0: b195 993d 546e d43d ecb9 9bbb f0ca 7e3d
00000100: ad47 20bd ec2c bfbc ce9d ff3d 1f10 2e3d
00000110: f1ab 2bbd 0e70 e83d 1700 cebd 944c 973d
00000120: 76f2 18be 6523 88bd c320 fb3d 5faa 2bbe
00000130: 9914 5d3d 5c62 cdbc 5c0e 9d3d e735 3b3e
00000140: 337f 0bbc 6479 3b3e 1702 cc3d dd6e 0cbd
00000150: d023 ea3d 182f e0be 4d8a 6cbd 20dd 03be
00000160: f9d6 e8bc b4f2 6bbd 4a9f 253e 023c df3d
00000170: 66a2 3d3d 3855 c0bd 296f c2bd ef16 853d
00000180: a42f 4e3a 1743 0abd 6c6a 2d3d 4d13 9a3d
00000190: 3c36 65bd e0cf 0f3d ff3d dcbc ee2b 2f3d
000001a0: 41a9 e83c 620b aa3d 6f20 38be e2cb 943d
000001b0: 3ab5 e43d 046f 643c 4235 9d3d 586e 0fbe
000001c0: 05a9 27bc d163 06bd 3b17 35bd 0959 d1bb
000001d0: 7973 7abc 1e90 afbd 3bce e33c d1fa 9bbd
000001e0: 8485 4abc 76cc 10bd 22d2 cc3c 2f13 c53d
000001f0: bddb 443d 8df1 513e 6a7e d6bc 1e09 533d
00000200: 719c 50be 1b69 963d 87f3 903d 8ec5 ffbc
00000210: fac6 913d 1dd3 cabc 6a79 f7bc 0d57 8c3d
00000220: 4d4d 8cbd 9dab eabd 5282 8b3c 4b3d 783e
00000230: 0a14 fd3d 4032 c13d 25cb 66bd 1048 ea3d
00000240: 880f b0bd 4849 babd 1fff 5a3d 464d 85bc
00000250: feca 323e 68c8 553d 066c a6bd c05e 323d
00000260: cd71 61bb 4395 0bbe eac0 a9bc a467 0b3f
00000270: e438 e4bc 4527 213e 2f6a 8d3d 0a93 16bc
00000280: bf0c 29be 7d91 bfbd 7e26 0d3e c816 d9bc
00000290: 5b5e 893c 738c 95bb 15d2 87bd f5b3 a53d
000002a0: e7e0 15bd 3556 373d 5bdd 28bd 206e aa3d
000002b0: 9018 363e 4cf3 da3c 200e 60bd 5416 d93d
000002c0: 9788 ffbd 4c17 033e 4590 debd 8861 fb3b
000002d0: 58fd d0b9 79a3 db3d f134 19bd 5aef 03bd
000002e0: 2f23 193d fcdf 3d3e d1b9 14bf 9e2a 9bbc
000002f0: e45f 27bd c9c7 443d 46f9 adbd c06f 45bd
00000300: 58d7 413e d9ec 10bc 1306 3dbd 3ffa 89bd
00000310: ee96 b23d 1514 73bc 9de1 adbd 6500 e739
00000320: 3a46 ee3d ae6d f43d 01fc 41bc 4440 a13d
00000330: 3de4 16bc ed92 dcbb 6d95 64bd c430 503e
00000340: 9eb5 afbd 0a18 28bb bf75 04bc c3f8 213e
00000350: 9aaf f83c 4ad3 573d 930b 493c 5726 893c
00000360: a4fe 373d 3cf7 d3bd 4063 81bd c103 bdbd
00000370: 43eb a7bd b374 c4bd cda5 cabd 2cae 5e3c
00000380: 0256 a33d 1a6e c6bd 7891 08be 1a2e b0bc
00000390: 4d43 e83d c8e1 4c3e 1e99 243d f217 0cbe
000003a0: 5ac3 523d 96ad 00be 3276 ef3c d611 c6bc
000003b0: 6881 ddbd 54f6 13be 3209 aabd cb1f e13d
000003c0: ef15 1abd 4ace 0e3e e761 273e 68aa 3d3e
000003d0: 2cec 92bd 20e9 9abd 5273 a0bc ba9e 913d
000003e0: aaa8 413d 7142 313d 4abb cd3d 5fae 403d
000003f0: 031c 883d b2b8 aa3d 74c3 083c d00d 28bc

critic.0.bias f4 [256]
-0.022629874 0.015169797 0.040588435 -0.014363868 0.025323281 -0.03890294 0.06426378 -0.059203137
-0.0558069 0.019076519 -0.02062586 0.011691649 0.05345002 0.047639314 0.019562637 0.015383609
0.023689926 -0.023381902 -0.031327046 0.039016943 -0.01289276 0.05770297 0.02287771 -0.02321159
-0.023615973 -0.033115696 0.026144667 0.03138281 0.07456656 -0.06514015 -0.03541396 -0.02279074
-0.06154911 0.024330512 -0.059061743 -0.030062607 -0.0073494427 -0.021063654 0.0094752945 -0.059107088
-0.03394569 -0.027067395 0.010539899 -0.044026464 0.033001736 0.085032366 -0.022074377 -0.018745735
-0.048261657 0.01863685 -0.050719216 -0.049118754 0.053535722 -0.029952416 0.05072451 -0.045722697
-0.03637404 -0.04368669 -0.016925007 -0.030040195 0.014600959 0.068412006 0.04917632 0.04634693
0.01062606 -0.014805535 -0.061581485 -0.021331815 -0.035594087 -0.0043100608 0.016358215 -0.010881676
0.002191124 -0.007808467 -0.006439816 0.0018480299 -0.039845962 0.05827224 -0.017814586 -0.046407394
0.01799531 0.063834175 -0.06783194 0.043631338 0.01540406 -0.010292617 0.032790188 -0.013397896
-0.008682817 -0.038502958 -0.0023326285 0.021649808 -0.03801069 0.024768975 0.02729332 -0.01335857
0.06286285 -0.011562966 0.04590024 0.025479907 -0.012236378 -0.043557566 -0.043231647 0.03642805
0.0052007674 -0.032762375 0.015501698 -0.012092423 -0.0012376837 0.040333692 0.0287028 0.050897673
-0.031094572 0.0130985305 -0.021218246 -0.051966287 0.011214145 -0.008677374 -0.014066841 -0.040243607
0.02572587 -0.03661877 -0.025096387 0.023559082 -0.05829355 -0.029757645 -0.0047707274 0.047706064
0.0072263456 -0.0037169321 -0.045476638 0.04829818 0.049960833 -0.038383372 0.01650254 0.004702067
0.017704621 -0.050834026 0.028614346 -0.005480866 -0.06441855 -0.028734691 -0.053241648 -0.011764432
-0.005907074 0.065579504 -0.026974158 -0.044972803 -0.051593423 0.0026150832 -0.03560801 0.02436325
-0.0225496 0.068359815 0.0046012597 0.04787542 -0.05501922 -0.067075156 -0.00018036364 -0.006134633
-0.059558067 0.014186758 -0.0072423406 -0.056798577 -0.016630393 -0.05426678 0.0029512728 -0.049434725
0.07020949 0.012989798 0.068720415 0.0061812773 0.049292378 -0.029686462 -0.017860647 -0.059788004
0.004227034 -0.051483337 -0.04559428 0.05634731 -0.036731582 0.023897102 -0.04072464 -0.054855198
-0.03761601 0.025377816 -0.052761395 -0.054340947 -0.06326498 -0.025102556 -0.036366437 -0.052471813
-0.010276503 -0.03782669 0.058065586 -0.01436792 0.017680196 0.035341658 -0.02471796 -0.013815746
-0.015844708 0.0054030893 0.043008726 -0.03782481 -0.05107446 0.014616969 -0.009403964 0.017831344
-0.02760989 -0.05112976 0.009495757 0.057507005 0.009129184 0.03922195 0.00060555607 0.04746416
0.005413415 0.009407741 0.037679773 -0.0065364167 0.03632195 -0.010383447 -0.041076057 0.011315347
-0.017202038 -0.055053525 -0.038154256 -0.06419613 -0.015644293 -0.049594767 -0.05122781 -0.039932508
-0.008802986 0.0017909779 -0.015439953 2.1619062e-05 0.03245046 0.03429559 -0.021189697 -0.01762688
0.030470142 0.05854898 -0.043027412 -0.018101458 -0.009835501 0.035320085 -0.07506873 -0.0074319676
-0.05320689 -0.036154967 -0.03583403 0.035949297 0.0033703349 -0.041248415 -0.0015267225 0.04665744
00000000: 4962 b9bc be8a 783c 0f40 263d 6e56 6bbc
00000010: c572 cf3c b058 1fbd bb9c 833d fd7e 72bd
00000020: c795 64bd 5c46 9c3c 90f7 a8bc 558e 3f3c
00000030: 68ee 5a3d 7121 433d d341 a03c 880b 7c3c
00000040: 6011 c23c 678b bfbc ca50 00bd 3bd0 1f3d
00000050: 283c 53bc f359 6c3d 096a bb3c 3b26 bebc
00000060: 4976 c1bc 53a4 07bd 572d d63c 438b 003d
00000070: 5ab6 983d 3368 85bd 3b0e 11bd a5b3 babc
00000080: eb1a 7cbd c850 c73c baea 71bd db45 f6bc
00000090: 98d3 f0bb af8d acbc 443e 1b3c 461a 72bd
000000a0: a30a 0bbd 71bc ddbc 8aaf 2c3c 1855 34bd
000000b0: d42c 073d 7325 ae3d 53d5 b4bc a890 99bc
000000c0: 04ae 45bd 4fac 983c f4be 4fbd bf30 49bd
000000d0: 4648 5b3d c55e f5bc 81c4 4f3d b947 3bbd
000000e0: f2fc 14bd d1f0 32bd 50a6 8abc db16 f6bc
000000f0: dc38 6f3c 981b 8c3d 1c6d 493d 47d6 3d3d
00000100: ed18 2e3c ea92 72bc de3c 7cbd 0fc0 aebc
00000110: 1bcb 11bd 693b 8dbb aa01 863c 0f49 32bc
00000120: f698 0f3b 2bde ffbb 1805 d3bb 9839 f23a
00000130: 8535 23bd dfae 6e3d e5ef 91bc ae15 3ebd
00000140: e66a 933c 7ebb 823d 79eb 8abd c6b6 323d
00000150: 4f61 7c3c 5da2 28bc 014f 063d d982 5bbc
00000160: 6042 0ebc 47b5 1dbd 03df 18bb f05a b13c
00000170: 19b1 1bbd 4ee8 ca3c 3e96 df3c e7dd 5abc
00000180: 3dbe 803d 9872 3dbc e401 3c3d 3dbb d03c
00000190: 177b 48bc 6b69 32bd ab13 31bd 9435 153d
000001a0: 336b aa3b d731 06bd d5fa 7d3c 4c1f 46bc
000001b0: c639 a2ba f134 253d 2222 eb3c 147a 503d
000001c0: 0bba febc 389b 563c e3d1 adbc 9ada 54bd
000001d0: 89bb 373c 8b2b 0ebc 9c78 66bc 7bd6 24bd
000001e0: 0fbf d23c 90fd 15bd f096 cdbc fafe c03c
000001f0: 38c5 6ebd 4ec6 f3bc c353 9cbb 6f67 433d
00000200: fbca ec3b c697 73bb b645 3abd 50d4 453d
00000210: bba3 4c3d e237 1dbd 5630 873c cc13 9a3b
00000220: 4809 913c 5737 50bd a268 ea3c d698 b3bb
00000230: dfed 83bd 0465 ebbc ea13 5abd 9bbf 40bc
00000240: 2190 c1bb 8c4e 863d e9f8 dcbc 6735 38bd
00000250: a053 53bd d161 2b3b b4d9 11bd 7095 c73c
00000260: f0b9 b8bc 3b00 8c3d 2ac6 963b 0419 443d
00000270: d55b 61bd b35e 89bd ff1f 3db9 0805 c9bb
00000280: 29f3 73bd 936f 683c 2851 edbb a0a5 68bd
00000290: 763c 88bc d846 5ebd 246a 413b 117c 4abd
000002a0: fec9 8f3d 29d3 543c 4abd 8c3d 508c ca3b
000002b0: cee6 493d 0631 f3bc 7e50 92bc 44e4 74bd
000002c0: ee82 8a3b 31e0 52bd 11c1 3abd 70cc 663d
000002d0: db73 16bd dbc3 c33c e1ce 26bd d8af 60bd
000002e0: 3f13 1abd 23e5 cf3c 551c 58bd 9d94 5ebd
000002f0: 1291 81bd e0a3 cdbc f9f4 14bd afec 56bd
00000300: c75e 28bc 29f0 1abd 2ed6 6d3d 6d67 6bbc
00000310: 0fd6 903c 6ac2 103d 527d cabc 705b 62bc
00000320: c3cc 81bc 660c b13b eb29 303d 30ee 1abd
00000330: 7433 51bd 037c 6f3c 1513 1abc 0a13 923c
00000340: 232e e2bc 706d 51bd 1794 1b3c 778c 6b3d
00000350: 9392 153c 32a7 203d 2ebe 1e3a c769 423d
00000360: 0463 b13b ed22 1a3c 1b56 1a3d 702f d6bb
00000370: 53c6 143d 551f 2abc 5e3f 28bd 0164 393c
00000380: 4aeb 8cbc ce7f 61bd a347 1cbd 4379 83bd
00000390: 7628 80bc e223 4bbd 41d4 51bd 4590 23bd
000003a0: 663a 10bc 3fbf ea3a dbf7 7cbc 955a b537
000003b0: c6ea 043d 8879 0c3d 0496 adbc 3f66 90bc
000003c0: 859c f93c 0ed1 6f3d 833d 30bd 8249 94bc
000003d0: 1525 21bc cbab 103d a2bd 99bd dd87 f3bb
000003e0: 78ef 59bd 3b17 14bd b4c6 12bd 923f 133d
000003f0: d6e0 5c3b 19f4 28bd 4e1c c8ba df1b 3f3d
