rlgpu/logs/cut_gt/model_150.pt (torch, 868312 bytes, 16 tensors)

log_std f4 [3]
00000000: f76c 8cbe 41a0 23be a432 e33d
-0.27426884 -0.15979101 0.11093643

actor.0.weight f4 [256, 259]
00000000: 25f3 1a3d ebc4 393d bfef 653d 3f2c d8bc
00000010: 6d75 8bbd b35e 943d 573e 5d3d 89f2 99bd
00000020: 432e fd3c f287 043d 3d22 993c 3070 aebd
00000030: e36e 8f3d f377 c3bd 6844 c3bc ea14 b1bd
00000040: c558 efbc d183 0bbd 59b8 1fbe 36b4 083d
00000050: 2c39 783d 0232 a9bd 9f53 c6bd 1ada 873c
00000060: fa23 d73d 8d46 b3b9 a4c3 893d 1ebb 5fbc
00000070: c3b2 febb 01ca 5bbd 1c32 263c e43c b3bd
00000080: 2013 df3c f448 da3d ce4b b53d 01aa 12bd
00000090: 3a59 5c3d cfa0 5cbc 63d1 66bd 1f74 1c3c
000000a0: d39d 69bc 6149 d7bc 013c 303e f3b3 1b3e
000000b0: 04d1 d2bd 3a74 1b3e adcd 9c3d f62d a1bd
000000c0: ac39 b63c 1792 9cbd 94f1 08bd c0b2 0fbe
000000d0: 3495 28bd 2ae6 c53d b774 76bd 3019 683d
000000e0: 7cc1 603e 05e2 ba3d b9e7 3d3c 7c59 1dbe
000000f0: 15be 883c da7b 36bd ad50 c4bb 08b6 643c
00000100: 9698 39bd d750 003d 4030 c4bd d4b1 a63d
00000110: 8fa8 d6bc b956 21bd 9b08 a1bd bbf8 923d
00000120: bf88 acbd b587 c6bc 0c3c c0bc fef7 32bd
00000130: 721e 82be 464a 27bc 4104 0e3d d842 96bc
00000140: d60e 203d 86fa 023e 6bb8 d0bd 72f1 f93b
00000150: 7085 5ebd fbbd 0a3e 45a8 8ebd cccf 05be
00000160: 04ea bdbd 0e8f d6bd 42cd 8d3d 843a 833d
00000170: c406 143c c372 0c3d ba3a 303e 59ee 013e
00000180: 424d 01bd 930b 92bd 06b7 a4bc d92c b13d
00000190: 4ab5 8a3d 9573 c0bd 20ff 6abc 6d91 2dbc
000001a0: baf9 d93d 74f7 4cbd f28a 4dbd 2943 d23d
000001b0: 7c7c f5bb 4869 513e 8a05 05bd afae f03d
000001c0: f4fd b53c 6b54 33bd c26e e7bd 1850 d6bd
000001d0: e062 5dbd 977f cd3d d13d a0bd c82f 76bc
000001e0: 3dd1 95bd 9c0c 1e3e bfa8 c7bd ff8a f03b
000001f0: 39d1 3f3d 057b e13d 4b32 863c 3fde 42bd
00000200: d98f 623d 94e0 dd3d 66dd 8c3d 916e 8c3d
00000210: 2d12 91bd 544b 72bd 4b9b 85bd f841 443e
00000220: f195 86bd c980 c0bd 40bf 913d 8783 cfbd
00000230: 0e0e 213d 4854 40be 5d21 87bc ef5b 71bc
00000240: 7af9 bfbd 8b83 573c 30b2 073e 1e44 bbbb
00000250: ebc4 9cbd 7d9c a2bd 1ef1 07be bf16 ad3d
00000260: f16a 26be 77b8 9b3c 0aeb 72bc 288a f83d
00000270: d6d1 1f3e 195f 7b3d 9baf 45bd 3ae2 003e
00000280: 58b2 f33d ffae 353d 54fd 01be 0926 aabd
00000290: 46c8 14bb cfa6 3c3d dcc9 6fbd 5e60 e8bc
000002a0: bfa8 43be 6164 77bd f2d5 8c3d cadd 21be
000002b0: 889e 7d3d 6f5e d63d 9713 843d a8a3 31bd
000002c0: bc6d ff3d a416 97bd 29b7 b3bd 5906 7bbc
000002d0: e6b0 0a3e 7d73 173d bfa9 afbd 00f5 c73c
000002e0: 2116 4dbe 47c6 b8bc c4ea 2b3d 6339 23bd
000002f0: af4e eabd 8654 9dbd 97bc 21be e616 63bd
00000300: 744a cebc 2e32 31bd 9b71 283e 2619 4c3d
00000310: e760 fb3d 9588 b6bc 653b aabc a290 1d3e
00000320: 0a12 15bd 8eaf 69be 35f0 9a3c 73e0 c23d
00000330: 935f b83d 36c2 1ebd 2bae b93d ccb0 b6bc
00000340: e8c6 c4bd 47f4 44be a779 57bd ff43 523d
00000350: 0842 5abd aebc abbd aaaa abbc bdcd 523e
00000360: 9971 953d 951a 303d b93a 86bd 20b5 a63d
00000370: af2b 883d 5e71 1ebc eb24 4dbb cee3 93bb
00000380: 89d6 fbbd 82ec 853d 6e4e 2ebd 1638 e8bd
00000390: 2fd9 c93d 99bd 493d 9c77 9b3d ba91 f03c
000003a0: 99ea c63d 55fc 933d 3e2b c4bd a73e c33c
000003b0: 0f76 e2bd 9a26 24be 839f 053d b8b4 7cbd
000003c0: d101 b6bc 1437 1fbe 462e 0c3e bd3a 2fbc
000003d0: d7e8 e53d f4fc a93d 93c9 043c 5bac 973c
000003e0: 938d 1f3e cd2a eabc a4cc d03d 30e0 24bc
000003f0: 6cc2 bbbd 6aac ae3d 3593 80bc 1ee7 223d
0.037829537 0.04535381 0.056136843 -0.026388286 -0.068095066 0.07244625 0.05401453 -0.07516963
0.030905848 0.03235621 0.018693084 -0.08517492 0.07003572 -0.09544363 -0.02383633 -0.08646567
-0.029217133 -0.034061257 -0.15597667 0.033374988 0.0606014 -0.08261491 -0.09683918 0.016583491
0.10504909 -0.00034194105 0.067267686 -0.013655452 -0.007772775 -0.053659443 0.010143783 -0.08751848
0.0272308 0.10658446 0.08852349 -0.03580666 0.05379603 -0.013466074 -0.05635203 0.00954917
-0.01425882 -0.026280107 0.1721039 0.15205364 -0.10293773 0.15181056 0.07656417 -0.078700945
0.022244297 -0.07645052 -0.03343351 -0.14033031 -0.041157916 0.09663041 -0.0601699 0.056664646
0.21948808 0.09125141 0.0115908915 -0.15366167 0.0166922 -0.044551708 -0.0059910626 0.013959415
-0.045311533 0.031327095 -0.095795155 0.08139387 -0.026203422 -0.039389346 -0.078629695 0.07176348
-0.0842452 -0.024234632 -0.023466133 -0.043693535 -0.25413853 -0.010210579 0.034672026 -0.01834242
0.03907665 0.1279088 -0.10191425 0.0076276595 -0.054326475 0.13549034 -0.069656886 -0.1306755
-0.092731506 -0.10476504 0.069239154 0.06407645 0.009034816 0.034289133 0.17209902 0.12688579
-0.03156782 -0.07131114 -0.020106804 0.08651132 0.067728594 -0.093970455 -0.014343053 -0.010593754
0.10643335 -0.050040677 -0.050181337 0.10266716 -0.0074916463 0.20450318 -0.032475986 0.11752068
0.02221582 -0.04378168 -0.11300422 -0.104644954 -0.054049373 0.100341015 -0.078242905 -0.01502604
-0.073153 0.15434498 -0.09748983 0.0073407884 0.04683039 0.11009792 0.016381403 -0.04757523
0.055312965 0.108338505 0.06878166 0.06857026 -0.07083545 -0.05915387 -0.065237604 0.1916579
-0.06571568 -0.09399564 0.07116556 -0.10132509 0.039320044 -0.18782151 -0.016495401 -0.014731391
-0.09373756 0.013153921 0.13251567 -0.0057149073 -0.076547466 -0.07940004 -0.13275573 0.08451604
-0.16251732 0.019008858 -0.0148265455 0.12135726 0.1560739 0.06136999 -0.048263174 0.12586299
0.11899251 0.044356342 -0.12694293 -0.08308036 -0.002270238 0.04605752 -0.058542117 -0.028366264
-0.1910734 -0.060398463 0.06876744 -0.15807262 0.061918765 0.104672305 0.06449049 -0.043368965
0.12472102 -0.07377365 -0.087751694 -0.015321338 0.13544044 0.036975373 -0.085772984 0.024408817
-0.20027973 -0.022555484 0.041971937 -0.03984965 -0.11440789 -0.07682137 -0.15794598 -0.05544176
-0.025181986 -0.043260746 0.16449587 0.04982867 0.12274342 -0.022281924 -0.020780275 0.15387204
-0.036394157 -0.22820875 0.018913368 0.095154665 0.09002604 -0.038759433 0.09066423 -0.0223011
-0.09608251 -0.1923381 -0.05260625 0.051334377 -0.05328563 -0.08385597 -0.020955402 0.20586295
0.07297058 0.0429941 -0.06554169 0.081400156 0.06648957 -0.0096705835 -0.0031302522 -0.0045132404
-0.12296779 0.06539251 -0.042555265 -0.113388225 0.098558776 0.04925308 0.07591173 0.029366363
0.09712715 0.07225863 -0.0957856 0.023833586 -0.11057674 -0.1603035 0.032622825 -0.061695784
-0.022217663 -0.15548354 0.13689527 -0.010695157 0.11226051 0.083002 0.0081047 0.018514803
0.1558135 -0.028584862 0.10195282 -0.010063216 -0.091679424 0.08528979 -0.015695194 0.03977119

actor.0.bias f4 [256]
00000000: 8d59 b7bc f3b8 3ebd b7d3 a2bc 7b52 efbc
00000010: 97e5 41bc 53f5 d13b 4c18 4a3d cbcf 103d
00000020: b527 62bc ef84 4b3d 596e 303d b8ad cd3c
00000030: 5d51 833d 3733 833c aaf8 acbc 00c1 383c
00000040: c8f0 3d3c 12df 433c ebb5 ea3c cdd7 1dbd
00000050: d4f8 a73c 5d9f e43a 6a66 483d 72f8 35bd
00000060: 8499 783c 2bcc 64bd 5f58 b0bc 0b1f f83c
00000070: 5058 69bd 7a72 e6bc 4371 143d 7bb0 0fbd
00000080: 1d08 a63c 83e1 643d 3efe dd3c b511 febc
00000090: cfc4 5dbd 6af5 2d3d 1753 653d 2561 d5bc
000000a0: c35d 5e3d 67c8 5cbb 82c9 583d 4e18 313d
000000b0: c94d 60bd 6308 6f3d 9a7f 01bd 055d 6f3d
000000c0: 059b 523d d545 07bd 1ddc 2bbd 7acf 7c3d
000000d0: 368e 283c d31a fb3c 3a4f 38bd a46f 13bd
000000e0: abc7 48bc 35f2 52bb c930 3dbc 451d dc3c
000000f0: 3c0d ba3c 052d 47bd 21d3 75bd 2d2d 703d
00000100: 8a1a 83bd 8791 68bd fdc8 87bc 8617 983c
00000110: 19e9 eb3c e5b3 9dbc 8886 8cbc dfe3 6cbc
00000120: 212b 0c3d 2a1a 65bc d856 933c 2dcd 60bd
00000130: 0e4e 22bc 6033 c03c 33e0 13bd a5af 24bd
00000140: bd7e de3c 3fea 51bd 318c 66bd b00b 533d
00000150: a614 f53c d36d 84bd 27eb 48bd 5f9b 4cbd
00000160: 5c31 f53c f92f 21bd 79c5 69bd 6df6 383d
00000170: 1d82 71bc 32b7 0fbb b3d2 43bd febe a13c
00000180: 4e4f 0f3d cdf7 553d 3ae2 22bd afaa 0d3c
00000190: 3ed6 70bc 0300 49bc 3de3 77bd 985f 39bd
000001a0: dda4 09ba c344 15bd 22b8 073d e8bc dfb9
000001b0: 0bd4 153c 317e 8d3b 3ea7 1ebc 278e d53c
000001c0: 8c4c 083d 08cb 3fbd f0ca cf3b 1b88 0f3d
000001d0: 0f34 bfbc 51fc dcbc 6118 a4bc b90a 59bd
000001e0: 1ecc f5bc a09a 8bbc f84d 36bc 1483 47bd
000001f0: dea5 ae3c be67 4d3d 67fd 22bd ebe8 10bd
00000200: ff83 c4bb e9f4 f1bc 1c62 393d b57c 173c
00000210: 6137 6fbd 259b 87ba 3e71 06bc d8d0 15bd
00000220: f5b7 2dbd 29af 49bd a512 1bbd 2d0a 7ebb
00000230: 8f02 7dbd ed96 1f3d c11d 313d ad40 2f3d
00000240: ae34 753d c921 233c 3dbe fd3c 9ccf 533c
00000250: c869 313b e1be aa3c bfb0 373d b1d7 173d
00000260: 1510 84bc 4531 4b3d dd88 633d 95f4 423d
00000270: 1531 24bd 6751 243d 4935 9fbb bb55 22bd
00000280: 1845 5bbd 9830 9c3c e03e ba3c 020b 7e3c
00000290: f7af cfbc ab90 81bd 0a6e 873d 0543 d73b
000002a0: 8eb7 fe3c 5472 3bbc 9c0a 4cbd 64ef 233d
000002b0: d696 ac3c cc8d 413d 7f26 0bbd 0a9a a43b
000002c0: 31e7 133d 2b13 573d a689 e33c f200 733d
000002d0: 415b 45bd 1230 6bbd 0336 2cbd ae26 503d
000002e0: d039 ce3c 3bbb 06bc ee45 3f3d 2379 bbbc
000002f0: 33b1 6fbd a929 6bbc b33a 24bb 2b99 debc
00000300: 3a05 0cbd d5dc 6bbd def8 1dbd 6ada c7bc
00000310: d249 253d 5c6b 583d 02f6 db3c fa04 713d
00000320: c741 57bd d26d 923c 6ab0 573d 2ee9 c9bb
00000330: e6a8 5ebd 2743 893c 515c e6bc bbc0 adbc
00000340: 60a6 253d 363a 9bbc 9a2c 0ebd 9972 8ebb
00000350: 1df6 1e3d 2c53 fcbc cc8d 723d 2021 fb3c
00000360: d3eb 553c 94c0 c2ba 8d72 71bc 057d e0bc
00000370: 52cf 26bd c537 43bd 828c d3bc 468e b23c
00000380: 8b65 373d 954b 253d b2d6 78bc 8884 f23c
00000390: 14eb 6e3d 609e 843d f693 59bd 7b9c 0cbd
000003a0: ae64 ae3c 260e b1bc 8286 093b 80b4 4bbd
000003b0: ab96 37bd 9831 3c3c 1b11 51bd 7aaf 62bd
000003c0: d39f 43bb 1005 fc3c 9c44 23bd 5e56 5cbc
000003d0: 6788 79bd 2c81 2c3d a551 173d aa1d efbc
000003e0: 11fb 823c 4e19 8b3b dd7d 163d 14eb 373d
000003f0: fdc3 523d 01db 053d 643f 6d3c bebf 2e3d
-0.022381568 -0.0465631 -0.019876344 -0.029214134 -0.011834524 0.0064074188 0.049339578 0.035354417
-0.013803412 0.049687322 0.043073986 0.02510725 0.06412003 0.016015632 -0.021114666 0.011276484
0.011593051 0.01195504 0.028651198 -0.03853588 0.020504393 0.0017442513 0.048925795 -0.04442639
0.01517332 -0.055858772 -0.021526514 0.03028824 -0.056968987 -0.028130759 0.036240827 -0.035080414
0.02026754 0.055879127 0.027098771 -0.031014303 -0.05414277 0.042470373 0.055987444 -0.026047299
0.054288637 -0.0033688785 0.052926548 0.04323607 -0.05476168 0.058357608 -0.03161583 0.05843832
0.05141737 -0.03302558 -0.041957963 0.061721303 0.010287812 0.03065244 -0.04499743 -0.03599514
-0.012254636 -0.0032187824 -0.011547276 0.026869426 0.022711389 -0.04862692 -0.0600158 0.058636833
-0.06401546 -0.05677941 -0.01657533 0.018565904 0.028797673 -0.01925082 -0.017153993 -0.014458626
0.03422082 -0.013983289 0.017985746 -0.05488317 -0.009906305 0.023461998 -0.036102485 -0.04020657
0.027160043 -0.051248785 -0.05628604 0.051524818 0.029917073 -0.0646626 -0.049052384 -0.04995286
0.029930763 -0.03935239 -0.05707309 0.045156885 -0.014740494 -0.0021929261 -0.04780836 0.019744392
0.03498774 0.052238274 -0.039766528 0.008646651 -0.014699517 -0.012268069 -0.060519446 -0.04525718
-0.0005250702 -0.03644253 0.033134587 -0.0004267462 0.009144793 0.0043180217 -0.009683428 0.02606876
0.033276126 -0.046824485 0.0063413307 0.03504191 -0.023340253 -0.026975783 -0.020031156 -0.05298874
-0.030004557 -0.017041504 -0.011126988 -0.04870899 0.021319326 0.050147764 -0.039792445 -0.035378378
-0.0059971805 -0.029535728 0.04525958 0.009246041 -0.058402423 -0.0010345919 -0.00820571 -0.036576122
-0.042411763 -0.04923931 -0.037859578 -0.003876339 -0.06177002 0.038962293 0.043241266 0.04278629
0.059864692 0.0099567855 0.030974502 0.012927916 0.0027071107 0.020842971 0.044846293 0.037070934
-0.01612095 0.049607534 0.055550445 0.047596533 -0.04008587 0.040116694 -0.004858647 -0.03963254
-0.05353269 0.01906614 0.02273506 0.015505554 -0.025352461 -0.06326421 0.06612785 0.0065692686
0.031093385 -0.011440832 -0.049814805 0.040023223 0.021068018 0.04725437 -0.03397226 0.0050232457
0.036109153 0.052508514 0.027775597 0.059327073 -0.04818273 -0.05741889 -0.042043697 0.050818138
0.025174052 -0.00822335 0.04669755 -0.02288491 -0.0585186 -0.014353194 -0.0025059402 -0.027172646
-0.034184672 -0.05758365 -0.038567416 -0.02439614 0.040353604 0.05283676 0.026850704 0.058842637
-0.052552965 0.017874632 0.052658476 -0.0061618304 -0.054360293 0.016755654 -0.028120192 -0.021210065
0.04044187 -0.018948656 -0.034710504 -0.004347157 0.03880893 -0.030801378 0.05921726 0.030655444
0.013056713 -0.0014858418 -0.014736784 -0.027403364 -0.04072506 -0.047660608 -0.025823835 0.021796357
0.044774573 0.040355284 -0.015187906 0.029604211 0.058329657 0.0647552 -0.053119622 -0.03432892
0.021288242 -0.021613192 0.0020984714 -0.049732685 -0.044821423 0.011486433 -0.051041704 -0.05534313
-0.0029849901 0.030764133 -0.039860353 -0.013448326 -0.0609211 0.042115375 0.036943097 -0.02918895
0.015988858 0.00424496 0.036741126 0.044901922 0.05145644 0.03267956 0.0144804455 0.04266333

actor.2.weight f4 [128, 256]
00000000: 88e4 15bd c48d 253e 7267 1bbe 3a31 573c
00000010: 098e 83bd 8cb8 02be 0aca e93c bf36 ca3d
00000020: 3af0 d13c 1fc9 263e cab5 96bd 8c10 acbd
00000030: e752 81bd a9d7 da3d 8484 a03c bbdb 6c3d
00000040: f49f 21be 702d 9dbd a891 e9bd 452d 073e
00000050: 2fdc 7c3e 8406 89bc 7e8a 08be aebd 903d
00000060: f227 2dbe 210a 17be c754 5f3c 44cf 343d
00000070: aa14 8dbd 74fb a03c 4fed 10bd 73df afbc
00000080: 8443 bd3c 30a9 983b 2e3a a33d 0962 ac3c
00000090: cc17 4fbe b513 903b 4bf2 963d 43b5 3cbd
000000a0: 68d4 b53d 7c1d fc3d 4cc6 85bd 768d eb3c
000000b0: 53b9 4e3d a906 b0bd 9a21 213d 66e5 d13c
000000c0: 5e0a d53c 6152 41be a05b 0dbc b556 a43d
000000d0: 47bd d0bc ddbb d4bd 6748 273d 0e63 15bd
000000e0: 97cf 1abe b941 223d b134 863c 0f41 65bd
000000f0: 93dc acbc 209b 153e 1388 c03d dd46 66be
00000100: 7b8f 6c3d d985 e4bd df90 df3c 76bb 9bbd
00000110: 775a 7abb 08bf 8bbd 5982 b5bd ac58 84bd
00000120: 771f a6bd 3fb8 97bc 6ea0 f8bc cea2 fc3d
00000130: de8d f0bd 6d87 2d3c 1d2a dcbc e3ba 873d
00000140: 3c55 283d 39a1 283b 9dd9 b23d 6c80 44be
00000150: ee66 7b3d b6b8 47bc 9fbd c0bd 5783 7f3e
00000160: 1f33 d6bc 0289 b7bd 97a5 02bc 339b 9b3b
00000170: ada3 5b3d efc6 093d dc8f 82bc 44e5 473d
00000180: d78b 3b3c 929a 0a3c fbb8 22bd 31fc a13c
00000190: 2d45 f1bd cd28 293e 8c35 973d 0d88 133e
000001a0: 2269 493d 8b2b 31bd 76eb 6b3d 3fe4 553d
000001b0: de5d b2bd 96da c33c ca7b 8e3d 2017 be3c
000001c0: f14b 9cbd f214 813c 4ec7 d2bd 4aa5 06be
000001d0: 7d83 9a3d 15eb 53bc 3b60 c9bd ed00 93bc
000001e0: ba9e d8bc 1b6a 2c3e d9c0 2a3d e3e2 c6bd
000001f0: f1c1 a0bd 874a a23d 5f41 5f3d f145 d73d
00000200: ce30 5c3d c5d2 883c e36e 303d 8676 903d
00000210: e745 46bd 3249 293e 6141 8cbd e421 a93c
00000220: 0d89 06bd 1c25 0f3e 3994 f6bd 3634 2abe
00000230: 0545 bb3d 7375 643b 887c f13a e3aa 2abe
00000240: c425 8abc 0375 bcbd 39ee 873d 7408 113d
00000250: 18ed 023d e027 963d c0a5 873d 52ea 4b3d
00000260: 86a1 d2bc 07d2 063e 5f24 27bc 1150 363c
00000270: a410 013d 8f4a cebd 184b cebc 69fe 78bd
00000280: 9a6c 723e 7bff 25be 0e23 dd3b 7f26 9ebc
00000290: bb43 cf3c 2c2b 48be 42eb 963c 7973 07be
000002a0: ee95 803d de62 d3bc 5e6f d83c 931e 723d
000002b0: 5db3 d7bd 0a3f 693d 2b95 f7b9 dced 033c
000002c0: d6b5 9dbd c38a 323e 4cfc e13d afbd b53c
000002d0: 76ef 64bd 5c26 b0bd 6750 0dbe c881 023e
000002e0: b523 7c3b c80e a73d d4a4 f63a fbb9 db3d
000002f0: 64ef 43bd 1bfb 0fbc 6c85 f53c 4538 063e
00000300: 00d1 3d3d c983 883d 21d8 1f3d 2d0d d8bb
00000310: 4cb9 ba3c fafa bdbc c99c b53d 0d2d cfb8
00000320: 79ca 8b3d 3730 863c 2f76 f9bd 18e6 22bd
00000330: a232 58ba 184a 94bd d2b3 ca3b ff0e a43d
00000340: 4ce9 b23d c16e 8dbd e3e7 263b 1052 23be
00000350: c5c0 673d dcb7 e9bd d1e7 5d3d 0932 07be
00000360: 68d9 203c fac4 14be 580e b13d 60ac b6bd
00000370: 7253 623d 3c6b 51bd 1325 a93c 941a 9f3d
00000380: 7759 9a3d d2d5 bfbd 74ab c93d 266b 81bd
00000390: 7741 9d3d c62b a8bd c055 243e b4b6 06be
000003a0: 07d4 8a3c 13c1 dd3b 7a4e b5bd 6038 1d3b
000003b0: bd55 bfbd 7683 523d ece2 1abd bd7f 54bd
000003c0: c14d a43d fe5d 7dbc c95a 843c 8b54 29be
000003d0: c9a2 033d df8c 593e 2426 dcbd e867 0cbe
000003e0: 325b 003e 5bbf ae3c 027b 88bb 96b9 f6bd
000003f0: 8a29 f5bd 81b2 20bd 4c9e f53d c0e2 83bd
-0.036594898 0.1616736 -0.1517618 0.013134295 -0.064235754 -0.12765712 0.028538723 0.09873723
0.025627244 0.16287659 -0.07358892 -0.084015936 -0.063146405 0.10685665 0.019594438 0.05782674
-0.15783674 -0.07674682 -0.11404735 0.13200863 0.24693368 -0.01672674 -0.1333408 0.070674285
-0.16909769 -0.14749958 0.013631052 0.044142976 -0.06888707 0.019651152 -0.035382565 -0.021468854
0.023103483 0.0046588406 0.07970081 0.02104284 -0.20223922 0.0043968805 0.073704325 -0.046071302
0.08878404 0.12310311 -0.06531963 0.028753977 0.050469708 -0.0859502 0.039338686 0.025622081
0.02600592 -0.18879081 -0.008627802 0.080243506 -0.02548088 -0.103873946 0.040840533 -0.03647142
-0.15118252 0.03961346 0.016382547 -0.055970248 -0.021101272 0.14609957 0.09400954 -0.2248797
0.05775402 -0.11158342 0.02729076 -0.07604115 -0.0038200894 -0.06823546 -0.088627525 -0.06462225
-0.0811147 -0.018520473 -0.030349936 0.1233574 -0.11745809 0.01059137 -0.02687555 0.06627443
0.04109691 0.0025730862 0.08732913 -0.19189614 0.06137746 -0.012190035 -0.09411167 0.24952446
-0.026147423 -0.08961679 -0.00797405 0.004748726 0.05362289 0.033636983 -0.015937738 0.04880263
0.011446915 0.008459704 -0.039727192 0.019773575 -0.11780772 0.1651947 0.0738326 0.14407368
0.049172528 -0.043254416 0.0575976 0.052219626 -0.0870931 0.02390794 0.06957205 0.023204386
-0.07631672 0.015757058 -0.102919206 -0.1314899 0.07544611 -0.012934466 -0.09832808 -0.017944777
-0.026442874 0.16837351 0.04168782 -0.09711244 -0.078494914 0.07924371 0.054505702 0.10511387
0.05375748 0.016702065 0.0430745 0.070538566 -0.048406508 0.16531828 -0.068484075 0.020646043
-0.032845546 0.13979 -0.1203999 -0.1662148 0.09144024 0.0034860044 0.0018423954 -0.1666675
-0.016863711 -0.09202006 0.06637234 0.035408452 0.03196439 0.07331824 0.06623411 0.049784012
-0.025711786 0.13166057 -0.010201543 0.011127488 0.03151001 -0.10072815 -0.025182292 -0.0607895
0.2367424 -0.1621074 0.0067485636 -0.019305466 0.025300851 -0.19547719 0.018422727 -0.13227643
0.06278597 -0.02580398 0.026420292 0.05911119 -0.10532258 0.056944884 -0.0004722265 0.008052316
-0.07700698 0.17435746 0.1103445 0.022185175 -0.05589243 -0.086010665 -0.13800202 0.1274482
0.0038473431 0.08157116 0.0018817433 0.10728832 -0.047835723 -0.008787896 0.029970847 0.13107403
0.046341896 0.06665761 0.039024476 -0.0065933676 0.022793435 -0.023190964 0.08867795 -9.8789205e-05
0.06825728 0.016380413 -0.12180745 -0.039770216 -0.0008247291 -0.07240695 0.006185987 0.08010673
0.08735904 -0.0690589 0.0025467805 -0.15949273 0.056580324 -0.114120215 0.054176155 -0.1320268
0.009817459 -0.14528266 0.08645314 -0.08919597 0.05525536 -0.051127657 0.020647561 0.07768741
0.07536595 -0.09366955 0.09847155 -0.06319265 0.07678502 -0.08211474 0.16048336 -0.13155633
0.016946806 0.006767401 -0.08852859 0.00239899 -0.09342525 0.051394902 -0.037814066 -0.051879633
0.08022643 -0.015464304 0.016156571 -0.16536157 0.032137666 0.21245144 -0.10749462 -0.13711512
0.12534788 0.02133148 -0.0041650543 -0.120471165 -0.119708136 -0.039232735 0.11993083 -0.064397335

actor.2.bias f4 [128]
00000000: ec2c e9bc feb6 0a3d a448 14bd a7f9 e9bc
00000010: 3eec a3bc 45e8 de3c 9458 813b 63a5 8ebc
00000020: 5339 ce3b 7caa 553d 1411 d938 1fe2 553d
00000030: 6147 67bd c313 66bd f7ca 23bc 2e12 3dbd
00000040: af8f 0a3c 5247 35bd 51a7 a2bc c918 333c
00000050: 8dd4 e13c 0b87 4abd a48b 5fbd 0e7a 393d
00000060: 161a 03bd e9d7 08bd d789 3abc f5af 233d
00000070: 5af1 c6bc 98f4 7cbc acf3 2e3d 7274 3c3d
00000080: b127 e9bb 96ed 53bd 6f74 3b3d cde6 d4bb
00000090: 03f5 313b 6cd3 473d b4ae 5dbb e3cf 3dbd
000000a0: 3e44 3e3c 06eb 603c 684b e8bc 0dfc 89bb
000000b0: 5a02 bc3b 8540 34bd 1590 b93c 34ae 4ebd
000000c0: 89de a4bc e644 543d 5e6f 6abd 16d2 e3bb
000000d0: 3354 9cbc 58c1 c5bc 0d29 fc3c 7de3 463d
000000e0: 55fb f4bc 1dd8 463d 0fab a7bc 142d 2cbc
000000f0: cfa3 203d d152 243c 1eb7 043d 944e d33c
00000100: f094 903c d604 043d 9cc4 2abb fdc0 0e3c
00000110: 04c4 143d 2154 983a 7b47 443d 3e5f debc
00000120: 26ed 893c 11d7 e3bc 7777 41bd 9738 303d
00000130: f82d a0bc 5557 1f3d a7de 71bc 4502 7cbc
00000140: f32a 56bc 85a6 5abd 0ae5 0c3d 4207 dd3a
00000150: c515 20bd 6fca 4d3d fb95 6b3d d9b5 3dbd
00000160: f258 4c3d 6927 38bd 1d6e 6fbd b603 acbc
00000170: 6f95 48bd 134c 01bd f8f0 0c3d 8bf0 663c
00000180: 2277 55bd 79a9 603a 374f a93b ea8b 1b3c
00000190: 6ec4 113d 7c20 453c 9e3d 70bd 54c5 6bbd
000001a0: 9dfa 51bd a578 babc 794c 7d3d 9a59 993a
000001b0: 8dea fabc 6440 6abd 6fce c53c 9a7d 84bc
000001c0: 57c2 09bd f1c5 0cbd 92eb 253d d064 2a3d
000001d0: 45c4 88bc 3eb4 b03c 76ba 813d 63d7 46bd
000001e0: 7a48 33bd 02b1 9dbc 34b9 14bc a22b 72bd
000001f0: af29 5ebd 1a24 49bc 60a0 3b3c 7fdd b73c
-0.028463803 0.03386592 -0.036202088 -0.028561426 -0.02001011 0.027210364 0.003947327 -0.017412847
0.0062934547 0.05216454 0.000103505474 0.0522176 -0.056464557 -0.05617119 -0.009997121 -0.046159916
0.008457108 -0.04425747 -0.019855173 0.010931202 0.027567172 -0.049445193 -0.05457653 0.045282416
-0.0320073 -0.033409033 -0.011385403 0.039962728 -0.024285007 -0.015439175 0.042712852 0.04600949
-0.0071153273 -0.05174025 0.045765337 -0.00649724 0.0027154095 0.048785612 -0.0033826055 -0.046340834
0.01161295 0.013727909 -0.028356269 -0.004210955 0.005737585 -0.044006843 0.022651711 -0.0504591
-0.020125644 0.05182352 -0.057235114 -0.0069525344 -0.019083118 -0.024140045 0.030781293 0.048556793
-0.029905 0.048545945 -0.02046731 -0.010508794 0.03921872 0.010029511 0.032401197 0.025794305
0.017649144 0.032231174 -0.002605713 0.008713004 0.036319748 0.0011621752 0.04791973 -0.027145024
0.016836714 -0.027812513 -0.04723307 0.04302272 -0.01955317 0.038901646 -0.014762557 -0.0153814005
-0.013071763 -0.05338146 0.034398116 0.0016863125 -0.03908326 0.050241884 0.05751608 -0.046316
0.049889512 -0.04495946 -0.05845462 -0.020997863 -0.048970636 -0.03156669 0.034409493 0.014095436
-0.052115567 0.0008570175 0.005166914 0.009493807 0.03558772 0.012031671 -0.058652513 -0.057561234
-0.051264394 -0.022762606 0.061840508 0.0011699677 -0.03062942 -0.057190314 0.024146287 -0.016173173
-0.033632603 -0.03436846 0.04050786 0.04160005 -0.016695151 0.021570321 0.06334393 -0.048545253
-0.04377029 -0.019249443 -0.009077359 -0.059123643 -0.05423897 -0.012276674 0.011451811 0.022444485

actor.4.weight f4 [64, 128]
00000000: db81 97bd 6e1d 9fbc 523e d03d be7c f8bd
00000010: 6226 edbd 3ccb 1cbc decb 853d 2387 8bbe
00000020: aa8f 1f3d 1b50 81be 422b 023e 3b74 293e
00000030: 2ef8 ccbd 7b7c 093d a488 213d 187c ccbd
00000040: 4ba7 1a3e aa49 67bd f03b 3b3e 5a02 9fbd
00000050: 1ce2 57bd 5d39 e63b a742 043e 6fe4 3bbc
00000060: ad84 debd e1af 3e3d 9307 b23d d81e 48be
00000070: 4bec 373d cd02 1dbd 6ab1 033d 4042 003e
00000080: 8420 b0bc 6130 913e 8192 4bbd 240f 253d
00000090: 9ff7 ab3c 152a 603c 4d12 32bc 16d8 b1bd
000000a0: 5152 e9bc 9858 d6bc 15b3 59be f9eb 49be
000000b0: 23b3 2dbc dd94 a03d f209 3a3d cbdd acbd
000000c0: 787e 78bd 24d0 813d b8c1 ce3d ddd7 823d
000000d0: 2336 9e3e 66d4 f2bd 2093 78bb b2d7 0ebd
000000e0: 7ff3 1b3e c199 8dbe ab36 2a3d 9648 96bd
000000f0: 27ef aabc dd9b b939 b2a9 4e3e 19c1 d93d
00000100: 22bd 8f3e 9159 f23c 418b b8be aa37 cd3d
00000110: 5448 d4bd 0831 a6bd 9375 91bd 89a7 1c3e
00000120: 887f 6a3e 9323 a43e c875 5e3e 31fc 4e3d
00000130: f199 f6bd c130 2f3c 3dbd 173e dc66 0fbe
00000140: b916 d9bd 116c 8b3c 2963 c93d cf29 7fbc
00000150: dd6d 76be 4458 e8bd 9bcb b8bd 4a84 c0bd
00000160: 10fc 173e fa06 63be 45b0 1bbd bf4b ebbd
00000170: a9be 6ebc f2e4 7e3d 217d 5f3d 99e9 1bbc
00000180: 979b 0a3d d1c5 b0bd 8652 253d 4178 a6bd
00000190: 21fb ab3b 5ef9 38bd d342 34bc 1e7f 6b3d
000001a0: 04c4 89bd 114f a8bd 910e 73bd df01 33bd
000001b0: 9e24 253d 1584 143e fa4a 103e 656f ec3d
000001c0: e502 0a3e 205c d13d 757d 55be ab04 ae3d
000001d0: e2d4 6d3d 14ba 27bd 5311 07be cec2 1fbe
000001e0: 38e0 57be 0fb5 233e f0cc f0bd 3289 3d3c
000001f0: 6baa 1b3e 8cf3 263e 7155 e9bc 85a7 923d
00000200: f872 183d a144 45bd f2e3 1b3e 5037 693d
00000210: 402d ef3c 66c9 41be e1a4 3ebe 8583 dabd
00000220: e7b3 333e 2a51 cc3d 2269 eb3d 242f f3bd
00000230: 9170 1c3e 16e6 363e c066 c1bd c0d5 c7bd
00000240: b871 a73e eb55 3b3e 424d bb3d 0d8a 3cbe
00000250: d796 10bd e9da 673d df69 bebd 05cb 97be
00000260: c05b d33c 19ca 0d3c e63b a4bb e09c 2d3c
00000270: 4ccd be3d 35b3 b83d aeab 34be ddb4 46bc
00000280: 6af2 a03d b317 273e b0c2 843d 6484 103e
00000290: 9a52 8b3d 4523 2d3d e5ec 173e 055c 373e
000002a0: 4aa1 15be 4bea 4abe a147 653c 614a 043e
000002b0: 2a74 5c3e 874e 94bc e012 cabd e1fe d93c
000002c0: aeb0 293e 07f6 e33d a016 8bbd b8ff 0dbe
000002d0: b459 023c 1914 4dbe 1e26 38bd e28c 6e3d
000002e0: c302 0fbd d5bb 653d 368e aebd 91c6 393e
000002f0: 1e43 ce3c 1a0b 24be 587a 7ebe ae01 edbc
00000300: 6f86 73bc 6aab 99bd 2659 423e 00ed 7bbb
00000310: c97b 19bd bb84 2cbe 52eb febd 9d82 0c3e
00000320: b277 d7bd 0616 0d3e b881 1fbe 1426 89be
00000330: 7a46 a23d 2c76 b1bd 1b66 e23d a126 fc3c
00000340: 8faa 7bbd 59b2 4ebe 934a 0a3d 0e3e 483d
00000350: 77fc 4dbd 2931 62be 5ad2 5fbd dd29 9c3e
00000360: a449 cd3d aee3 b0bc 592c 2cbd 58fc 72bd
00000370: a8f7 24bd 376d 7ebc 5668 c7bd 041c 073d
00000380: 72f5 f43c 6e01 c23d 2338 163d 053b 21be
00000390: 2923 0ebd 8ae9 57be 054b b93d 8085 523e
000003a0: 67eb 3abe e6c1 d23d 11b0 a3bd 3e00 cfbd
000003b0: 6f9e d43d 5fa0 f0bd 24cb e2bb 7c6b b93d
000003c0: aa19 1e3d 1027 f03d ede4 8c3d d2c6 0b3e
000003d0: b29e 12be b357 87bd 2a44 c5bd c865 32bd
000003e0: 470c 10bd c964 12be de85 66bd 325f 383e
000003f0: 8363 e93a e029 29be f9c6 4ebe d949 483d
-0.07397815 -0.019423213 0.10168137 -0.12133168 -0.115795866 -0.009569939 0.06533025 -0.2725154
0.038955368 -0.25256428 0.12711814 0.16548245 -0.10008274 0.03356598 0.03943695 -0.099846065
0.1510288 -0.056466736 0.18284583 -0.077641204 -0.05270587 0.007025881 0.12916051 -0.011468037
-0.1086515 0.04655445 0.08692851 -0.19543016 0.04490308 -0.03833275 0.032151617 0.12525272
-0.02149988 0.28357223 -0.049700264 0.040297642 0.020992098 0.013681908 -0.010868621 -0.08683793
-0.028481634 -0.026165292 -0.2125972 -0.19718923 -0.010601792 0.078408934 0.04541964 -0.08440741
-0.060667485 0.06338528 0.10095543 0.06388829 0.30900678 -0.11856918 -0.003792949 -0.03487367
0.15229605 -0.27656367 0.04155604 -0.073380634 -0.02086599 0.00035402077 0.20181921 0.106325336
0.28073984 0.029583724 -0.36043742 0.10020383 -0.10365358 -0.08114821 -0.07102504 0.15298285
0.22900212 0.3205839 0.21724617 0.050533477 -0.12041081 0.010692776 0.14818282 -0.14004081
-0.10600037 0.017019304 0.098333664 -0.015573933 -0.24065347 -0.1134496 -0.0902321 -0.09400232
0.14842248 -0.2217063 -0.0380099 -0.11489057 -0.014571824 0.062230058 0.05456269 -0.009516143
0.03383979 -0.086314805 0.040361904 -0.08128405 0.0052484428 -0.04515969 -0.01100226 0.057494275
-0.0672684 -0.08218206 -0.059340063 -0.043702956 0.040318124 0.1450351 0.14091101 0.11544684
0.13477667 0.102226496 -0.2084864 0.08496984 0.05806435 -0.040948942 -0.13190202 -0.15601656
-0.21081626 0.15987037 -0.11757839 0.011568354 0.15201728 0.16303843 -0.028483124 0.07160858
0.037219018 -0.048161153 0.15223673 0.056937516 0.029196382 -0.18924484 -0.18617584 -0.106696166
0.17549096 0.09976418 0.11494662 -0.11874226 0.15277316 0.17861208 -0.09443426 -0.097575665
0.32703948 0.18294494 0.09145595 -0.18412037 -0.035300102 0.056605253 -0.09297537 -0.2964708
0.025800586 0.008654141 -0.0050120233 0.010596484 0.09316501 0.09018556 -0.17643616 -0.012128082
0.07858737 0.16317634 0.06482446 0.14113003 0.068028644 0.042269964 0.14836462 0.17906196
-0.14612308 -0.19815938 0.013994128 0.12918998 0.21528688 -0.018103851 -0.09866881 0.026610794
0.16571304 0.1113091 -0.06791425 -0.1386708 0.007955957 -0.20027198 -0.044958226 0.058239825
-0.034914743 0.056087334 -0.08523218 0.18142153 0.025178488 -0.1601986 -0.24851358 -0.028931465
-0.014863594 -0.07503398 0.1897932 -0.0038440824 -0.037471566 -0.16847508 -0.124472275 0.137217
-0.10520877 0.13777933 -0.15576828 -0.26786864 0.079235986 -0.086651176 0.11054631 0.030780138
-0.061441954 -0.20185222 0.033762526 0.048887305 -0.050289597 -0.22089066 -0.054643966 0.3050069
0.100238115 -0.021592941 -0.04203448 -0.059322685 -0.040275246 -0.015528969 -0.097366974 0.032985702
0.029902194 0.09472929 0.03667463 -0.1574517 -0.0347015 -0.21085182 0.09047512 0.20558739
-0.18253861 0.102908894 -0.079925664 -0.10107468 0.10381781 -0.11749338 -0.006921189 0.09053704
0.038598694 0.117262006 0.06879602 0.13650063 -0.1431835 -0.06608524 -0.09632142 -0.043554097
-0.03516796 -0.14296259 -0.05628001 0.18005064 0.0017806146 -0.1651988 -0.2019309 0.04889855

actor.4.bias f4 [64]
00000000: 42a6 d3b9 cf8d 43bb 4ea6 5ebd 7f6e 7a3a
00000010: 3c31 b0bd 48f5 4a3d 073e 343d c454 8b3d
00000020: 2b27 9cbd bf25 223d 49cf 893c eba0 f0bc
00000030: 99cd 603d 8a38 733c 8766 03ba 658a 1e3d
00000040: 660d 043d a9ef 15bc 38d0 c03c b0f5 8bbd
00000050: 96c9 203d 7437 a7bd 1de2 30bc 1877 98bb
00000060: f0a0 9f3d b667 973d 45ae 873d 839b b13b
00000070: 99ac 993d 23f0 953d 2f99 5fbd 2f8f b4bd
00000080: 43a0 95bd fb76 843d 9249 25bd ef77 9cba
00000090: a718 7c3d 5353 d23a cfb8 8d3c 46fd 7f3d
000000a0: 51d7 2abc ba47 e3bc 7d7d 7cbd 6a00 21bd
000000b0: e256 cebc 731b e5bc 3e89 793d ea88 b0bd
000000c0: 735a 03bc 0b41 f7bc cd38 f53c 5006 a63d
000000d0: f9e8 87bc 2f39 a6bd 4b08 7e3d 722c 243d
000000e0: 1949 5a3d 1caf 10bd 5533 56bb c532 73bd
000000f0: 0dd0 7bbd 7e4b 893d 0fd4 1d3d 3d7c 92bd
-0.00040368928 -0.0029839163 -0.05435782 0.00095532084 -0.08603141 0.049550325 0.044004466 0.06803277
-0.07624658 0.03958678 0.016822474 -0.029373607 0.054883573 0.014845023 -0.0005012531 0.038706202
0.03223934 -0.009151378 0.023536786 -0.068339705 0.039254747 -0.08164874 -0.010796097 -0.004652869
0.07794368 0.07392828 0.06625036 0.00542015 0.075036235 0.07321193 -0.054589447 -0.088163726
-0.07305958 0.06468006 -0.040353365 -0.0011937598 0.061546948 0.0016046561 0.017300038 0.0624974
-0.010427312 -0.027744163 -0.061643112 -0.039307036 -0.025187913 -0.02796719 0.0609219 -0.08619864
-0.00801717 -0.030182382 0.029934311 0.08106673 -0.016590582 -0.08116376 0.062019628 0.04008145
0.053292368 -0.035323247 -0.0032684405 -0.05937459 -0.06147771 0.06703852 0.038532313 -0.07152603

actor.6.weight f4 [3, 64]
00000000: 9320 64bb 06b9 84bb 905b a73b 4d76 003c
00000010: 06a6 913b 562d 97bb 8690 4f3b 2996 093c
00000020: be14 0bbb 5c5c 6e3b c376 a4bb 6c68 b13b
00000030: 8622 d53b 2942 ba3b d2c7 e1bb 8882 81bb
00000040: 8d59 94bb e448 943b 3eb2 82bb 3889 7dbb
00000050: 99d4 5f3b dc61 aebb aeff 053c 7e2f cc3b
00000060: fc78 1fbb 3bed d93b bc4e 423a 7f99 f9b9
00000070: 4d8b 693b d097 ea3b b5cb 91bb b67b 05bc
00000080: e4dc d73b 296b bcbb 1434 97bb 0225 3b3b
00000090: a7ef b43b ad76 c03b 79cd e1ba 7f6d a2bb
000000a0: e7f5 ea3b 5f25 6abb 0653 483a f803 da3b
000000b0: 58c7 ed3a c9a3 a43b 7fcf a0bb 0bd8 08bc
000000c0: 7ad1 323a f528 d5bb b25a e23b a01c 42ba
000000d0: dbf5 10ba e44e ab3b 0315 8bbb 0e7d bc3b
000000e0: 3bc9 f63b 1b3a 143b b400 8fbb 0efe bebb
000000f0: 970d a1bb be35 45ba d534 e2ba f106 bfbb
00000100: f47b 653b 5b94 ca3b 94cb 423a 6daa 8b3a
00000110: 95d6 8e3a f076 c9bc 5e70 e33a 33cb 05bc
00000120: 8321 4e3b 158e 613a db10 a23a b20a 59bb
00000130: 1f6a e9ba 27ce d7ba c97e 9c3b ee19 1d3b
00000140: 7f96 393b 9a60 fbb9 380f 00bb cf84 763b
00000150: b840 fcba 2e10 013b e4e2 54bb 4b34 12bc
00000160: 1cc6 aa3c 6c33 1abb fab1 45ba 3aaf 8fba
00000170: 47bc 33bc ecc7 643a f773 463c 4d66 ff3b
00000180: 26be 10bb 23e2 d73b 1068 9a3b 16cf 0b3b
00000190: 88cd 6bba 993f c8ba 684e 84b9 6108 6b3b
000001a0: 87c9 b5ba dc2e 523b 1dc7 e3ba 2c57 b9ba
000001b0: 8ebf d4ba c8c5 3239 7081 833c f036 973b
000001c0: dd1f b8ba 89ed 953b 6265 8eba dc6d 35bb
000001d0: 68cf ec3b 0cb6 08bc dfba 863b ad16 1dbb
000001e0: 270c 05bb 68d3 163b 1840 fb3b 8842 73ba
000001f0: bd5d ec3a 8c10 c5ba efe4 733c 5739 613b
00000200: 0e77 f33a 916c 633c 7ba7 68bc c6eb ad3c
00000210: 24ef 8e3c 9c44 10be 9ea5 773c 1d98 51bc
00000220: 1a8a 833c f570 7c3c f1b5 a5ba 5dbe b83c
00000230: 59e2 8c3c af4b 823c 25f9 c53b 4049 673b
00000240: 33d1 ccbb 95a1 6b3c 351e 15bc dd4a 62bb
00000250: 5401 663c daaf 4bbb 9c79 b33c 000d f7bb
00000260: 20d3 a83d 7618 a43c c81d c5bc f377 3c3b
00000270: 3b6b eebb 2253 df3c 445d 283d 9350 763c
00000280: e399 ae3c 8c6b e5b9 9b9f bb3b 4aea 8c3a
00000290: 0f5c a83c 254f b33c 7834 df3a d21b 23bb
000002a0: 4698 9c3c 7e14 fb3a cb35 ac3b c535 a03c
000002b0: 7dd5 ff39 2f28 22bb 1d92 6f3d edd6 1a3c
000002c0: a015 843c 5d26 adba 9315 a23c b71a 12bc
000002d0: f553 fdba 2b8d 56bd dce1 7f3b 930f b03c
000002e0: b686 9a3c 6206 3b3c ed3c 003d 3acd 6fbb
000002f0: c1d5 95bb 0448 e5bb 9ec7 6d3d 6444 8e3b
-0.0034809455 -0.004050377 0.0051073506 0.007840705 0.0044448404 -0.0046135588 0.0031671836 0.008397617
-0.002122208 0.0036370968 -0.0050190403 0.0054140594 0.0065043597 0.0056841564 -0.0068902755 -0.003952328
-0.004527277 0.004525291 -0.0039885333 -0.0038686525 0.0034153818 -0.0053217243 0.008178635 0.0062312474
-0.0024333587 0.0066505945 0.0007412245 -0.00047607344 0.0035636008 0.0071592107 -0.0044493326 -0.008147171
0.0065876115 -0.005750079 -0.0046143625 0.0028555994 0.005521733 0.0058735223 -0.0017227373 -0.0049569006
0.007170427 -0.0035727841 0.0007641766 0.006653305 0.0018141074 0.0050244075 -0.004907548 -0.00835229
0.00068213756 -0.0065051266 0.0069077844 -0.0007404778 -0.00055297994 0.0052279104 -0.004244448 0.0057522124
0.0075313128 0.0022617641 -0.0043640975 -0.0058286255 -0.00491495 -0.0007522962 -0.0017258177 -0.005829685
0.0035016509 0.006182236 0.0007430848 0.0010655649 0.0010897691 -0.024592847 0.0017352214 -0.008166122
0.003145308 0.0008604241 0.0012364642 -0.0033117947 -0.0017808116 -0.0016464636 0.004775856 0.0023971754
0.0028318462 -0.00047946424 -0.001954032 0.0037615781 -0.0019245362 0.0019693482 -0.003248387 -0.0089236
0.020846419 -0.0023529185 -0.0007541474 -0.0010962256 -0.010970182 0.00087273004 0.012112609 0.0077941776
-0.0022085994 0.006588237 0.0047121122 0.002133315 -0.0008995165 -0.0015277743 -0.0002523542 0.0035863149
-0.0013869264 0.0032071387 -0.0017378066 -0.0014140359 -0.0016231404 0.00017049082 0.016052932 0.0046147034
-0.0014047582 0.0045754355 -0.0010863955 -0.002768389 0.007226873 -0.008344185 0.0041116322 -0.0023969815
-0.0020301433 0.0023014192 0.0076675527 -0.0009279628 0.0018033307 -0.0015034839 0.014886125 0.0034366453
0.001857491 0.013880865 -0.014200087 0.02123059 0.017448016 -0.14088672 0.01511517 -0.012792614
0.016057063 0.01540779 -0.0012642724 0.02255171 0.017197775 0.01590523 0.0060416632 0.0035291463
-0.0062505244 0.014381786 -0.00910144 -0.0034529485 0.014038403 -0.0031080157 0.021908574 -0.0075393915
0.08243394 0.020031195 -0.024062052 0.0028758019 -0.0072759665 0.02726132 0.04110457 0.015033859
0.021313613 -0.00043758412 0.0057258136 0.0010750976 0.02055171 0.021888325 0.0017029187 -0.0024888408
0.019115578 0.0019155887 0.005255436 0.01955689 0.0004879645 -0.002474319 0.058488954 0.009450656
0.016123593 -0.0013210286 0.019785678 -0.008917502 -0.0019327389 -0.052380722 0.0039044535 0.021491801
0.018863063 0.011415096 0.031308103 -0.003659083 -0.0045726006 -0.0069971103 0.058051698 0.004341649

actor.6.bias f4 [3]
00000000: a88e 0cbd 734a 823d 6bbd 8b3d
-0.034315735 0.06361856 0.06823238

critic.0.weight f4 [256, 259]
00000000: 988b f43d 3644 f83d 81ad 84bc 7f87 39bc
00000010: d20d 2cbc 2ec5 0cbe 9f56 913d e6df 5abd
00000020: d397 123d b1fc 4b3b 2063 2d3d 799a eebd
00000030: 58a5 b23d 127e 9f3d 1e0c fc3d 0ae7 c4bd
00000040: 03a9 ee3d 1e1e 9dbd c13f d6bd 715b 99bd
00000050: 8b9d d63d e711 1dbe 82de ef3c b4e6 f23d
00000060: 5845 e8bd e610 803d dc07 8dbd 37d4 70bd
00000070: 2d7e 673e 22a1 a33e 280e a33d bd02 813d
00000080: 1f0b 8e3b b45a fa3d 0134 21be 3ed5 b3bd
00000090: d487 0abd fa03 e53b 47bb 96bd 4a93 113d
000000a0: 27ef 383d 6ac2 68bd 5e2e 10bd 65fc c43d
000000b0: 1499 67bd 97fc 0d3e bcd8 5c3e 6954 173e
000000c0: b1fd 65be d874 403e 6a2a b3bd 564c ca3c
000000d0: aa7d 533d e36d 233d 2f14 34bd 73ec 823d
000000e0: 2f8e b7bd 236a f8bc 7964 083e ee3b 55bd
000000f0: b195 993d 41c8 65bd ecb9 9bbb 3680 2ebb
00000100: 1655 acbd ec2c bfbc bbcf a43d 859e 1abc
00000110: f1ab 2bbd 0e70 e83d 1700 cebd 944c 973d
00000120: 76f2 18be 6523 88bd 0268 d83d 5faa 2bbe
00000130: a35d 543b bf02 7bbd 5c0e 9d3d e34b 3f3e
00000140: 337f 0bbc a527 733d 0aee a23c dd6e 0cbd
00000150: d023 ea3d 0433 6e3e 9395 183e 20dd 03be
00000160: f9d6 e8bc 21f3 d4bd 4a9f 253e d700 883d
00000170: 66a2 3d3d 3855 c0bd ed6b 18be a5d1 803c
00000180: a42f 4e3a 1743 0abd 6c6a 2d3d 4d13 9a3d
00000190: e2cc c5bd 0e64 423e ff3d dcbc ee2b 2f3d
000001a0: 41a9 e83c 620b aa3d 6f20 38be e2cb 943d
000001b0: 91d6 863d 046f 643c 4235 9d3d 586e 0fbe
000001c0: 9822 a9bd e8b7 69bd 196d bdbd 0959 d1bb
000001d0: b148 88bd 9edd 2ebe 1a0e fabc d1fa 9bbd
000001e0: 8485 4abc 76cc 10bd 4e97 76bc d0c5 073d
000001f0: bddb 443d 8df1 513e 6a7e d6bc 1e09 533d
00000200: 989b 35bc 1b69 963d 87f3 903d e8d1 8cbd
00000210: fac6 913d 1dd3 cabc d112 66bd cdd5 be3c
00000220: d38d 68bd 9dab eabd 5282 8b3c 1cc7 2a3e
00000230: 13fa d43d 4032 c13d 25cb 66bd 1048 ea3d
00000240: 880f b0bd 151f 07be 1fff 5a3d 464d 85bc
00000250: feca 323e ee76 193c 066c a6bd c05e 323d
00000260: cd71 61bb ebbf 3ebe e2be 85bd ee12 003e
00000270: e438 e4bc 216b 113e db5f 4d3d 0a93 16bc
00000280: 732f 91bd 7d91 bfbd 4d89 833d c816 d9bc
00000290: 9690 96bc 738c 95bb 15d2 87bd f5b3 a53d
000002a0: e7e0 15bd d3ae 1cbb 12e5 adbd 206e aa3d
000002b0: 9018 363e 4cf3 da3c 200e 60bd 5416 d93d
000002c0: 083b 30be 1344 2f3d 4590 debd 8861 fb3b
000002d0: 58fd d0b9 f48e d13c f134 19bd 5aef 03bd
000002e0: 2f23 193d fcdf 3d3e a4d5 eabd 397f 87bd
000002f0: e45f 27bd c9c7 443d 46f9 adbd f3dc c7bd
00000300: 58d7 413e d9ec 10bc 1306 3dbd 4efc b1bd
00000310: 00d1 633d 1514 73bc c872 eebd 366c 52bd
00000320: 3a46 ee3d ae6d f43d 5406 86bd 4440 a13d
00000330: 29b7 59bd 35c2 85bb 6d95 64bd c430 503e
00000340: 9eb5 afbd 0a18 28bb 4815 84bd b031 ce3d
00000350: 9aaf f83c 4ad3 573d 930b 493c 5726 893c
00000360: a4fe 373d 3cf7 d3bd 4063 81bd c103 bdbd
00000370: 43eb a7bd b374 c4bd cda5 cabd 1c4e 27bd
00000380: 7821 213d e48c 10be 5ef1 4c3e 1a2e b0bc
00000390: f9d8 463d 4ba9 053e b764 43bb 409d 3abe
000003a0: 5ac3 523d 3381 20bc 3276 ef3c 19ca 6ebd
000003b0: a863 0bbe 5750 45be 4cb4 a1bd 7c22 8a3d
000003c0: 62df a7bd 3e92 b23d c75b e23d 3d54 0c3e
000003d0: e771 b2bd ed8a ffbd 5273 a0bc ba9e 913d
000003e0: 3307 d339 8646 0dbc 4abb cd3d 1272 563b
000003f0: 031c 883d b2b8 aa3d cb13 8dbd d00d 28bc
0.11940688 0.12122385 -0.016196014 -0.011323809 -0.010501342 -0.13747093 0.070966 -0.053436182
0.035789322 0.0031125958 0.04233086 -0.11650557 0.08722943 0.07787718 0.12306999 -0.0961438
0.1165333 -0.0767176 -0.10461379 -0.07488144 0.10479268 -0.1533886 0.029280905 0.118604094
-0.11341351 0.06253223 -0.06886265 -0.058796134 0.22606726 0.31958872 0.079616845 0.062993504
0.004334822 0.122243315 -0.15742494 -0.08780907 -0.033820942 0.0069889994 -0.07359939 0.035540856
0.04514995 -0.056826033 -0.03520047 0.09618453 -0.05654247 0.13865887 0.21567053 0.14778294
-0.22460057 0.18794572 -0.08748324 0.024694603 0.051633514 0.039899718 -0.04396456 0.06392755
-0.08962666 -0.030324047 0.13319577 -0.052059107 0.074992545 -0.05609918 -0.004752388 -0.0026626713
-0.08414666 -0.02333685 0.08047434 -0.009437208 -0.041912023 0.11349498 -0.10058611 0.07387653
-0.14936242 -0.06647376 0.10566713 -0.1676421 0.0032404445 -0.061281916 0.076687545 0.18681292
-0.008514213 0.05936398 0.019888896 -0.034285415 0.11432612 0.23261648 0.14900808 -0.12877321
-0.02842282 -0.10397936 0.16174045 0.06640785 0.046297453 -0.09391254 -0.1488492 0.015724966
0.00078653754 -0.033755388 0.04233782 0.075232126 -0.09658219 0.1898348 -0.02688503 0.042766504
0.028401019 0.08302952 -0.17981122 0.0726545 0.06583894 0.013942484 0.07676174 -0.14006937
-0.08258551 -0.057060152 -0.09249324 -0.0063887876 -0.0665449 -0.17076728 -0.030524302 -0.07616199
-0.012360934 -0.03535124 -0.015050722 0.033147633 0.04806112 0.205023 -0.026183326 0.051522367
-0.01108446 0.07344266 0.07077699 -0.06875974 0.0711803 -0.02475887 -0.05617029 0.023295308
-0.05677588 -0.11458514 0.017029915 0.16677517 0.1039926 0.094334126 -0.056346077 0.11439526
-0.08596712 -0.1319545 0.05346596 -0.016272198 0.17460248 0.009366734 -0.081260726 0.043547392
-0.0034400106 -0.18627898 -0.06530549 0.12507221 -0.027859159 0.14201023 0.050140243 -0.00919033
-0.07089128 -0.093539216 0.064226724 -0.02650012 -0.01837949 -0.004563862 -0.06631867 0.08090965
-0.036591437 -0.0023907914 -0.08490957 0.08321786 0.17782807 0.026727341 -0.05470097 0.10599962
-0.17210019 0.04278953 -0.10867361 0.0076715387 -0.00039861607 0.02558086 -0.037404004 -0.032210685
0.03738707 0.18542475 -0.1146653 -0.06616063 -0.040862933 0.048042092 -0.08494811 -0.097589396
0.18929803 -0.008845531 -0.04614837 -0.086907014 0.05561924 -0.014836331 -0.116429865 -0.05137273
0.116344884 0.11934982 -0.06544176 0.07873586 -0.05315319 -0.004081989 -0.055806566 0.20331103
-0.085795626 -0.0025649094 -0.064493716 0.10068071 0.03035717 0.052691735 0.012270826 0.016741915
0.04492058 -0.103498906 -0.063177586 -0.092292316 -0.081991695 -0.09592571 -0.09894905 -0.040845975
0.03933856 -0.14116246 0.2001395 -0.021506358 0.048546765 0.13052861 -0.002981467 -0.18224049
0.051455833 -0.0097964285 0.029231165 -0.058298204 -0.13612235 -0.19268928 -0.07895717 0.067448586
-0.08196904 0.087193 0.110526614 0.1370401 -0.087131314 -0.1247767 -0.019586239 0.07110353
0.0004025042 -0.008622771 0.10045488 0.00327218 0.06645968 0.08336009 -0.06888541 -0.010257199

critic.0.bias f4 [256]
00000000: 53b9 78bd 5cc2 f63d e721 493b 50cc dc3d
00000010: 88a0 043e b7ba b9bd 7198 3a3e e3d1 c4bd
00000020: fd9e 823d 4673 a2bc d723 71bd d806 e83d
00000030: 778f 103c cdf7 d83c 7053 bcbc 75b9 eb3d
00000040: 6959 bbbc 81a3 cd3d c64b 76bd 64e9 133e
00000050: d1de 013e 96a5 373e 0b82 bfbc 46e7 6abd
00000060: f1a6 85bd ed7c 593d e679 b3bc 0a2a 133c
00000070: 1538 f93c eae4 863d 3b3f 9dbd cdcd 05bd
00000080: fb2c 383d e076 9d3b a4c8 723d ee67 a63d
00000090: eeab 14bd a153 82bd c873 f6bc 289f 173d
000000a0: a415 c43d f1ab b13d e84d 00bd 4a19 94bd
000000b0: 99d2 233e 5d0e 083d 2613 a4bd 8d95 3fbd
000000c0: cbd1 4c3d e1a0 f0bb c811 c3bb db64 b3bd
000000d0: 6f6c 1d3e 0e49 35bd d8f8 253e 0e4d babd
000000e0: 0ef4 80bd 3914 bcbd 8ad1 00bd 952e 76bd
000000f0: 26d2 903c c8dd 1b3d 678a 383e a686 05bb
00000100: 1a69 153e b81e 78bd 0130 e7bd 4db8 a73d
00000110: 255c a43d b430 b93d bd76 83bc 480a f13d
00000120: 95d1 043e d4c0 77bd 9da7 e13d 7333 e33d
00000130: 31e7 6d3d 9d5a 643c bebf c33d 49e8 f73c
00000140: 5d63 233e aea0 4f3c 79bc 3b3d af5b 133c
00000150: 751c e33d 1888 c03d e949 273e f590 75bd
00000160: 04b6 ab3d 9e71 94bd ccd6 fe3d 314c 50bc
00000170: b9e7 883d 549c 163e ac55 17bd c8a5 28bd
00000180: d138 ab3c 8978 96bd f47a 1a3e a6b3 163e
00000190: 1da3 c23d 13b0 d0bd 707f 8abd 2d43 1b3e
000001a0: 03a6 2abd 1b3e 71bd 4223 92bc a77a f73d
000001b0: d62b d83d f4a5 27ba 5351 143e e3f8 323c
000001c0: d290 a9bd 76bb 1bbc bad4 e63d cc43 a3bd
000001d0: 2a6a a0bb 173c 23bd dc1c cd3d 0379 ef3c
000001e0: 2072 133e cbbb 69bd 0971 4cbd fda9 80bc
000001f0: 98ed 863d 1021 81bd 02cf f0bc 9f0d 723a
00000200: 3457 70bb 0126 2cbd 3b11 b6bd af0b 2c3e
00000210: fcd7 1a3e ef3f c13d 7997 eebc 7a53 003e
00000220: 0759 093e 4a9b 113c 59b2 3abb d237 083e
00000230: 863e 1c3d e215 84bd 4b6d c8bd 55b7 81bd
00000240: 01e5 08bd ad89 f93c b6a0 60bd b064 c9bd
00000250: edfd bebd ee6f 08bd 7459 a7bd cb0d dc3d
00000260: 41cc a33d 7456 973c cd05 b63d c650 bf3a
00000270: ff89 393d a066 3f3d f912 ba3d a95c f93d
00000280: 0c7d 133d a873 b1bb c0cd f13d 330b a2bd
00000290: e1e2 d43d fdb4 453d 7912 203e 6c90 a6bd
000002a0: 7c44 973c 1182 b0bc cc02 103d 78bd f43d
000002b0: 7a31 5e3c 0b49 b73d 3b88 71bd a9c8 51bb
000002c0: f505 e43d 013c 683d ac80 b7bd 0aaf 1c3e
000002d0: 5be5 89bd 608c b2bc c07d 9bbd 8c76 b5bd
000002e0: 9c93 b83d 50df c5bb 92f1 c0bd 5532 703d
000002f0: bcb3 563d 2df3 06bd 717c c83d e95d b83d
00000300: ea51 b63d 9af9 77bd 7a46 813c d3ef f53d
00000310: 14cd 30bb affc ffbb b18a 46bd 99ed 47bd
00000320: 459e 60bd bcaf c53c 4587 293e 0f57 9abd
00000330: ee91 923d 8096 cabc f6ba ce3d 9faa 013e
00000340: cab4 ce3d 418a 843d 532c d53d 0a08 253e
00000350: a704 46bc 76e6 933c 58fb 02bd 9258 2a3e
00000360: 9eb2 b83d a8f2 ee3d 4ac7 213e 7425 b43d
00000370: fb92 203e 3d64 fbbc b7db a23d ffb3 fa3d
00000380: f8fa 003e 6d88 c9bd f5a6 96bd 0786 983d
00000390: c08a ac3d 3657 97bd e80a 503d d780 913d
000003a0: abcb da3d 5d6c bdbc 1141 ba3d 0504 08bd
000003b0: 46ba 02ba 58c7 1b3e 69af 913d 3085 73bd
000003c0: 423c ab3b 06ab 3a3e ff54 9ebd e90f df3d
000003d0: 5a1f 023e c98a ee3b f689 483d 2101 dd3d
000003e0: 7fb5 613d caf0 adbd faf3 5fbd 5196 3dbc
000003f0: eea4 023e 8354 6d3d 7f6d 2e3b 9313 273e
-0.060723614 0.1204879 0.0030690373 0.10781157 0.12951863 -0.09068816 0.18222214 -0.09610345
0.06377981 -0.019830357 -0.05887207 0.1132943 0.008823267 0.026485348 -0.022989005 0.115099825
-0.022869783 0.100409515 -0.060130857 0.144445 0.12682654 0.1793426 -0.023377439 -0.057349466
-0.06525982 0.053097654 -0.021908712 0.008982191 0.03042225 0.06586631 -0.07678076 -0.03266697
0.04496477 0.004805431 0.059273377 0.08125292 -0.036296777 -0.06363607 -0.030084506 0.037017018
0.0957444 0.08675373 -0.031324297 -0.07231386 0.15998305 0.033216823 -0.08011465 -0.046773482
0.05000476 -0.007343397 -0.0059530474 -0.08759471 0.15373395 -0.044259124 0.16208208 -0.09096728
-0.0629655 -0.09183545 -0.031449832 -0.060103018 0.017678332 0.038053304 0.18021546 -0.0020374446
0.14590874 -0.06057617 -0.11288453 0.081894495 0.08025388 0.090424925 -0.01604783 0.11769539
0.12970574 -0.06048663 0.11018298 0.110937975 0.05808181 0.0139376195 0.09558056 0.03026213
0.15955873 0.012672586 0.04583404 0.008994027 0.11089412 0.09400958 0.16336788 -0.059952695
0.08384326 -0.07248233 0.12443313 -0.012713478 0.066848226 0.14708072 -0.036946937 -0.041173726
0.020901116 -0.07347209 0.15085965 0.14716968 0.09503768 -0.101898335 -0.06762588 0.15162344
-0.041662227 -0.05889712 -0.017839078 0.12083941 0.10555236 -0.00063952734 0.14484148 0.010923597
-0.082795754 -0.009505143 0.11271043 -0.079719156 -0.0048954682 -0.039852228 0.1001527 0.029232508
0.14399004 -0.05706386 -0.049912486 -0.015706057 0.06588286 -0.06305134 -0.029395584 0.0009233597
-0.003667307 -0.04202843 -0.08890005 0.16801332 0.15121454 0.094360225 -0.029124962 0.12531844
0.13412867 0.008887121 -0.002848765 0.13302544 0.038145564 -0.06449486 -0.09786471 -0.06333796
-0.03342152 0.030461157 -0.054840766 -0.09833658 -0.09325776 -0.03330987 -0.08171359 0.10744818
0.07997943 0.018473841 0.08887825 0.0014596216 0.04529762 0.04672873 0.0908565 0.12175877
0.036007926 -0.0054153986 0.11806822 -0.07912292 0.10394836 0.048268307 0.15632047 -0.08133015
0.018465273 -0.021546395 0.035158917 0.11950201 0.013561601 0.08949479 -0.05896781 -0.0032010472
0.11133949 0.05669785 -0.08960089 0.15301147 -0.06733199 -0.021795452 -0.07592344 -0.08860502
0.09012529 -0.006038584 -0.09421076 0.05864175 0.0524175 -0.032946754 0.0978936 0.09002287
0.089023426 -0.060540773 0.015780676 0.120086335 -0.0026977705 -0.0078121047 -0.04847211 -0.048810575
-0.054838438 0.024131648 0.16555507 -0.07536136 0.0715674 -0.024729967 0.10094254 0.12662743
0.100930765 0.06471682 0.10408845 0.16116348 -0.01208607 0.018054228 -0.03197798 0.1663535
0.090184435 0.11667377 0.15798679 0.08796206 0.15681069 -0.030687446 0.079520635 0.12241363
0.12595737 -0.09840474 -0.07356063 0.07447439 0.08424902 -0.07389681 0.05079165 0.071046524
0.10683378 -0.02312296 0.09094442 -0.03320696 -0.00049868634 0.15212762 0.07113535 -0.05945319
0.005225689 0.18229303 -0.077310555 0.108917065 0.12707272 0.007279728 0.048959695 0.10791231
0.05510473 -0.084931925 -0.054676034 -0.011571483 0.12758228 0.057941925 0.0026615558 0.1631606
