rlgpu/logs/cut/model_575.pt (torch, 868312 bytes, 16 tensors)

log_std f4 [3]
00000000: 4e7b 17bf 798f e6be 29e9 8e3d
-0.59172523 -0.45031336 0.069780655

actor.0.weight f4 [256, 259]
00000000: 9d8a 1e3d 42e0 3f3d ef8f 633d 3f2c d8bc
00000010: 8924 8dbd a25a 933d 573e 5d3d 89f2 99bd
00000020: 432e fd3c f287 043d 3d22 993c dbcc afbd
00000030: e36e 8f3d 2ce6 c2bd 6844 c3bc 3e2a b3bd
00000040: a709 fcbc d183 0bbd 59b8 1fbe 36b4 083d
00000050: 2c39 783d 49ef acbd 4854 c6bd 1ada 873c
00000060: fa23 d73d 703b 0cbb 053e 873d 1ebb 5fbc
00000070: c1ee 0fbc 3fa6 60bd b111 0f3c e43c b3bd
00000080: 2013 df3c f448 da3d d39e b23d 55f9 14bd
00000090: 1832 563d b42c 77bc 63d1 66bd 07f1 053c
000000a0: d39d 69bc c0c5 e2bc 013c 303e f3b3 1b3e
000000b0: 5ab6 d4bd cb96 193e 280b 9b3d f62d a1bd
000000c0: d921 b83c 18c5 9fbd cfbb 0bbd c0b2 0fbe
000000d0: 3495 28bd 88e6 c53d 6ac1 74bd 3019 683d
000000e0: eb21 603e 35a3 ba3d 037f 263c b85f 1dbe
000000f0: 15be 883c 1fdd 3ebd ad50 c4bb ba99 5c3c
00000100: e0ac 30bd d750 003d cf86 c5bd e568 a83d
00000110: 8fa8 d6bc b956 21bd 9b08 a1bd bbf8 923d
00000120: bf88 acbd b587 c6bc 59bb c6bc fef7 32bd
00000130: d25d 82be fc1b 2ebc 4104 0e3d a0ce a4bc
00000140: d60e 203d c024 023e d4a5 d4bd 72f1 f93b
00000150: 7085 5ebd fcbc 0a3e e827 90bd cccf 05be
00000160: 04ea bdbd fb38 d3bd 42cd 8d3d 9d98 833d
00000170: c406 143c c372 0c3d b87b 2f3e 6248 033e
00000180: 424d 01bd 930b 92bd 06b7 a4bc d92c b13d
00000190: cd73 883d 6c27 c2bd 20ff 6abc 6d91 2dbc
000001a0: baf9 d93d 74f7 4cbd f28a 4dbd 2943 d23d
000001b0: 6c1b 19bc 4869 513e 8a05 05bd afae f03d
000001c0: b1f6 a63c 4e27 31bd b9d8 e9bd 1850 d6bd
000001d0: d356 5fbd bda8 c93d 04bf a2bd c82f 76bc
000001e0: 3dd1 95bd 9c0c 1e3e d0e1 c8bd be3e b43b
000001f0: 39d1 3f3d 057b e13d 4b32 863c 3fde 42bd
00000200: fafa 5d3d 94e0 dd3d 66dd 8c3d 633e 8d3d
00000210: 2d12 91bd 544b 72bd 9f12 87bd f8bf 443e
00000220: 784d 8abd c980 c0bd 40bf 913d 2c31 d2bd
00000230: d37b 213d 4854 40be 5d21 87bc ef5b 71bc
00000240: 7af9 bfbd 36ba 623c 30b2 073e 1e44 bbbb
00000250: ebc4 9cbd 1fc3 a3bd 1ef1 07be bf16 ad3d
00000260: f16a 26be 8832 903c b4f6 6ebc 38fa f43d
00000270: d6d1 1f3e 57a1 773d f15b 49bd 3ae2 003e
00000280: 86fc ef3d ffae 353d ab4e 03be 0926 aabd
00000290: fbae 45bb cfa6 3c3d dcc9 6fbd 5e60 e8bc
000002a0: bfa8 43be c33d 79bd 60da 8c3d cadd 21be
000002b0: 889e 7d3d 6f5e d63d 9713 843d a8a3 31bd
000002c0: cb07 ff3d b0ba 9abd 29b7 b3bd 5906 7bbc
000002d0: e6b0 0a3e 1495 113d bfa9 afbd 00f5 c73c
000002e0: 2116 4dbe 47c6 b8bc f338 283d 61c1 23bd
000002f0: af4e eabd 8654 9dbd 97bc 21be c099 67bd
00000300: 744a cebc 2e32 31bd 9b71 283e 4f39 493d
00000310: 0441 fb3d 9588 b6bc 0aaa a4bc d4e1 1b3e
00000320: 0a12 15bd 8eaf 69be 719c 953c 73e0 c23d
00000330: 9a7a b53d c011 26bd 2bae b93d ccb0 b6bc
00000340: e8c6 c4bd 47f4 44be 1926 5dbd 7271 4e3d
00000350: 0842 5abd aebc abbd aaaa abbc bdcd 523e
00000360: 9971 953d 951a 303d b93a 86bd 20b5 a63d
00000370: af2b 883d 5e71 1ebc eb24 4dbb 78d6 a6bb
00000380: 443d fcbd 7f95 833d ce49 2ebd 1638 e8bd
00000390: c741 ca3d d4bd 423d 1ca2 993d 9a57 ec3c
000003a0: 99ea c63d c683 913d 3e2b c4bd d358 b73c
000003b0: 2199 e1bd 7668 24be c383 ff3c ea87 7dbd
000003c0: 06bc b8bc bec8 20be 90e7 0a3e 093b 3ebc
000003d0: 8f3c e53d f354 ac3d 93c9 043c 5bac 973c
000003e0: 1d76 1e3e 7518 e7bc a4cc d03d b7ad 27bc
000003f0: 6cc2 bbbd 6aac ae3d f804 8dbc 1ee7 223d
0.03870641 0.04684473 0.055557188 -0.026388286 -0.06891734 0.07195021 0.05401453 -0.07516963
0.030905848 0.03235621 0.018693084 -0.08583995 0.07003572 -0.09516558 -0.02383633 -0.087482914
-0.030766321 -0.034061257 -0.15597667 0.033374988 0.0606014 -0.084440775 -0.09684044 0.016583491
0.10504909 -0.0021397732 0.06603626 -0.013655452 -0.008784951 -0.054846045 0.008732245 -0.08751848
0.0272308 0.10658446 0.087216996 -0.036370594 0.052293867 -0.015086342 -0.05635203 0.008175141
-0.01425882 -0.027682185 0.1721039 0.15205364 -0.10386343 0.14998929 0.07570487 -0.078700945
0.022477077 -0.078012645 -0.034114655 -0.14033031 -0.041157916 0.09663111 -0.059754767 0.056664646
0.21887939 0.091131605 0.010162118 -0.15368545 0.0166922 -0.046597596 -0.0059910626 0.013464386
-0.043133616 0.031327095 -0.09644853 0.08223132 -0.026203422 -0.039389346 -0.078629695 0.07176348
-0.0842452 -0.024234632 -0.024259256 -0.043693535 -0.25462204 -0.010626789 0.034672026 -0.020118058
0.03907665 0.12709332 -0.10383192 0.0076276595 -0.054326475 0.13548654 -0.070388615 -0.1306755
-0.092731506 -0.103136025 0.069239154 0.06425593 0.009034816 0.034289133 0.17137039 0.1282058
-0.03156782 -0.07131114 -0.020106804 0.08651132 0.06662712 -0.094801754 -0.014343053 -0.010593754
0.10643335 -0.050040677 -0.050181337 0.10266716 -0.009344917 0.20450318 -0.032475986 0.11752068
0.020381304 -0.043250374 -0.1141829 -0.104644954 -0.05452616 0.098466374 -0.079465896 -0.01502604
-0.073153 0.15434498 -0.09808695 0.0055006435 0.04683039 0.11009792 0.016381403 -0.04757523
0.054194428 0.108338505 0.06878166 0.06896665 -0.07083545 -0.05915387 -0.065953486 0.19213855
-0.06753057 -0.09399564 0.07116556 -0.10263285 0.03942473 -0.18782151 -0.016495401 -0.014731391
-0.09373756 0.013838341 0.13251567 -0.0057149073 -0.076547466 -0.07996201 -0.13275573 0.08451604
-0.16251732 0.01760222 -0.014585186 0.11961788 0.1560739 0.0604566 -0.049159948 0.12586299
0.11718087 0.044356342 -0.12822978 -0.08308036 -0.003016411 0.04605752 -0.058542117 -0.028366264
-0.1910734 -0.060849916 0.06877589 -0.15807262 0.061918765 0.104672305 0.06449049 -0.043368965
0.12452658 -0.07555139 -0.087751694 -0.015321338 0.13544044 0.035542563 -0.085772984 0.024408817
-0.20027973 -0.022555484 0.041069936 -0.039979342 -0.11440789 -0.07682137 -0.15794598 -0.05654311
-0.025181986 -0.043260746 0.16449587 0.04912692 0.1226826 -0.022281924 -0.020100612 0.15222865
-0.036394157 -0.22820875 0.018263074 0.095154665 0.08861275 -0.04054427 0.09066423 -0.0223011
-0.09608251 -0.1923381 -0.05399141 0.05040116 -0.05328563 -0.08385597 -0.020955402 0.20586295
0.07297058 0.0429941 -0.06554169 0.081400156 0.06648957 -0.0096705835 -0.0031302522 -0.0050914846
-0.12316373 0.064249985 -0.042550854 -0.113388225 0.09875827 0.047544315 0.07501623 0.028850365
0.09712715 0.07105212 -0.0957856 0.022381222 -0.11015535 -0.16055474 0.031190759 -0.061897196
-0.022550594 -0.15701577 0.13564897 -0.011610755 0.11193191 0.0841464 0.0081047 0.018514803
0.15474744 -0.028209904 0.10195282 -0.010234288 -0.091679424 0.08528979 -0.017214283 0.03977119

actor.0.bias f4 [256]
00000000: 6e3e bdbc 05da 46bd 96b1 51bc 2e81 a0bc
00000010: f262 83bc 51ca c83b 292b 373d 9f0f ff3c
00000020: 98fe 3abb 02a8 423d 89c3 2b3d 2143 5b3c
00000030: 81a8 7e3d d0e3 763c b2c6 e0bc 485c ebb9
00000040: 8ea9 613c 0309 6b3c 6777 bc3c 9cdb 06bd
00000050: eaa9 ca3c 9cf4 b83a 7db4 3b3d 5fb6 53bd
00000060: dee7 593c 08e7 75bd 706a 91bc c7a2 ec3c
00000070: eebf 41bd 17a2 d0bc 260d 033d d10c 21bd
00000080: ab36 2a3c b72d 463d f0c8 af3c 5253 18bd
00000090: d2e0 32bd 80dd 153d 6df4 783d 4ad3 f1bc
000000a0: d745 693d 0b7e 94bc d255 6c3d 946b 3c3d
000000b0: 0cb7 4dbd 80fa 2a3d 57eb e5bc 4e51 7c3d
000000c0: 98f4 5f3d b417 d0bc 0a28 15bd ddf7 413d
000000d0: 68e2 0b3c e715 ca3c 5778 37bd 0d5b 3abd
000000e0: 33e1 b1bc fb34 9a3b 66ae aebb 443a b73c
000000f0: 95e8 963c 6cfa 56bd 7400 74bd 6b1d 6b3d
00000100: 2b0f 8cbd 2f2e 4abd 4076 96bc b2b4 503c
00000110: 3d52 c43c 255f d4bc 3a7f e8bc 1011 99bb
00000120: 1bd8 063d 9d72 83bc ab6e 983c 9071 5bbd
00000130: bf39 4fbc 29ea 9f3c e110 e3bc 724b 06bd
00000140: 83b4 fd3c 47e7 6cbd 6709 50bd 74c5 633d
00000150: bc4d 203d 2853 67bd 19e9 67bd 6831 41bd
00000160: 5531 083d b45f 1bbd 25ef 82bd 81e9 163d
00000170: 5c57 d1bc 43d4 6e3b f674 1ebd 6fcf d53c
00000180: e2f7 e53c cac5 803d 7cc5 3bbd 60af 943c
00000190: 5d6f a0bc cc6e d1bb b5d6 73bd 8d48 5abd
000001a0: 5a13 be3b 310b 1cbd 91b5 063d 4355 d43b
000001b0: b413 333c 0da4 433b 6404 c3bc db0e 023d
000001c0: 8bb5 0a3d 3ad1 37bd 9fdf ba3b 3d2e c93c
000001d0: bc1c d9bc 5a27 35bd 2820 86bc 2681 73bd
000001e0: 9eab f6bc 7b19 8cbc 08dd 56bc 3c40 2abd
000001f0: 7d02 fb3c 9fc1 603d 988d eebc 115e 2abd
00000200: 3aed fdbb bfbb febc 48d8 343d 58a6 683c
00000210: 20fc 3dbd 5d92 86ba 0f92 5abc fb1b 2abd
00000220: 8969 29bd 55b9 78bd 9757 04bd 4958 90bb
00000230: 239d 7fbd c04b 063d 2ba5 0b3d dffe 073d
00000240: d48c 5c3d 09bd 6bbb e33a e73c 72a8 903c
00000250: fb34 34bc 19dd 6e3c 64a4 2e3d 7e0a 183d
00000260: 8ac3 6cbc dfe5 5e3d ae64 5f3d dc59 133d
00000270: 1641 26bd 22a7 083d cc99 063b ad2b 0fbd
00000280: 38b5 68bd 70a7 893c 5113 e33c 9c2f 903c
00000290: 588f 04bd b054 76bd 8d35 8e3d ee40 6c3c
000002a0: 02cb b33c 9607 e2ba dd7e 2ebd 9668 3e3d
000002b0: 81ba 123c c43f 3b3d 24ff 2dbd 4cd3 5abb
000002c0: e813 2b3d f80d 303d b5c0 fb3c 2431 653d
000002d0: bdb8 2cbd 6dfd 29bd ae31 17bd c694 4a3d
000002e0: 1291 083d f931 bebb 0474 283d 6c9e eabc
000002f0: dcb3 66bd ffda 86bc 8d42 c3bb 7bed 2cbd
00000300: e4fd fbbc 3c24 59bd 2a02 2cbd 7a60 f7bc
00000310: 4557 433d 1f0a 623d 56d6 f43c a66a 823d
00000320: b5a2 64bd 3604 a53c 845a 463d 1bbf 4cbb
00000330: b996 4bbd 90d3 8e3c 6576 93bc 4b29 a3bc
00000340: e5bf ec3c 42ed 98bc 5652 dfbc 94b4 01bd
00000350: c904 083d 2d2a eabc 9562 7e3d 7f03 0a3d
00000360: 20c8 b93b 7313 03ba 2991 abbb 4ec4 00bd
00000370: 14db 39bd aa61 6ebd b940 debc a57f 8b3c
00000380: 816f 563d 54ce 6e3d 101a 01bc ac3d 963c
00000390: d749 7f3d ae50 883d 725a 79bd b040 20bd
000003a0: da41 683c 52c4 c8bc 63df 113c 302f 57bd
000003b0: 956c 30bd 7b8a 6c3c daf0 21bd 9989 6abd
000003c0: c741 7cbc f1d1 063d 4d89 1dbd fae7 0bbc
000003d0: bb3f a2bd d4ee 343d 4c98 d33c b879 f3bc
000003e0: 2162 943c 1b1f 8c3c c07d 1d3d f4a0 193d
000003f0: 8fed 463d 8920 e23c 8fff 773c 6328 203d
-0.023101058 -0.048547763 -0.012798687 -0.019592848 -0.016038392 0.0061276336 0.044718895 0.031135378
-0.0028533097 0.047523506 0.041934524 0.013382704 0.062172417 0.015068963 -0.027438495 -0.00044891448
0.013773335 0.01434541 0.023006154 -0.03292428 0.024739224 0.0014110985 0.045826424 -0.051687595
0.01329991 -0.06003478 -0.017750949 0.028886212 -0.04730218 -0.025467915 0.03199496 -0.039318863
0.01038901 0.04838344 0.02145812 -0.037188835 -0.043671437 0.036588192 0.060779978 -0.029519696
0.05695137 -0.018126508 0.057699032 0.046001032 -0.050223395 0.0417428 -0.02806632 0.061600976
0.054676622 -0.025401928 -0.036415137 0.04735552 0.008537866 0.024668647 -0.0447925 -0.04549699
-0.021713829 0.004706023 -0.0053308485 0.02236665 0.01842145 -0.052484915 -0.059570745 0.057401102
-0.068388306 -0.04936045 -0.018366933 0.012738394 0.023964996 -0.025924275 -0.028380979 -0.0046712235
0.032920938 -0.016045863 0.018607458 -0.0535751 -0.012648045 0.019520836 -0.02771801 -0.032786794
0.030969864 -0.05783775 -0.050790217 0.055608228 0.039136633 -0.05647579 -0.056618784 -0.047166258
0.03325017 -0.037933066 -0.063932694 0.03684378 -0.025554352 0.0036442436 -0.03868576 0.026099889
0.028072301 0.06287725 -0.045842633 0.018150032 -0.019584352 -0.006391382 -0.059530932 -0.053291846
0.0058006467 -0.03809661 0.032888 0.0064798906 0.010929991 0.002985242 -0.023805805 0.03175245
0.03386454 -0.04487727 0.0057029272 0.024558181 -0.02650296 -0.04422698 -0.016372755 -0.059449337
-0.03011113 -0.017101994 -0.013114221 -0.041565165 0.030640835 0.05487215 -0.029120252 -0.041593615
-0.007749227 -0.031095384 0.044151574 0.014199816 -0.046383023 -0.0010267008 -0.013340487 -0.04153059
-0.04136041 -0.06072362 -0.032310095 -0.0044050557 -0.062405717 0.032787085 0.034093063 0.03320205
0.05384524 -0.0035970828 0.028226322 0.017658446 -0.01099896 0.014579081 0.042637244 0.03711938
-0.014450917 0.05441844 0.054539375 0.03597437 -0.040589415 0.033362515 0.0020538447 -0.03495376
-0.05681345 0.016803473 0.027719172 0.017600827 -0.032363266 -0.060139358 0.06943808 0.014419777
0.021947388 -0.0017244692 -0.042601455 0.04648646 0.008955599 0.04571511 -0.04247965 -0.0033390103
0.04176703 0.04298207 0.030731538 0.055955067 -0.042168368 -0.04150145 -0.036912613 0.049458288
0.033341475 -0.005804297 0.041126266 -0.028639995 -0.05632387 -0.016461847 -0.005958861 -0.042218667
-0.030760713 -0.05301307 -0.04199425 -0.03019737 0.04769065 0.055185433 0.02988736 0.06367998
-0.055819232 0.02014361 0.048426166 -0.0031241837 -0.049704287 0.017434865 -0.01800079 -0.019917151
0.028900096 -0.01866782 -0.02726094 -0.031666353 0.03320769 -0.028584564 0.062105734 0.03369474
0.0056696087 -0.00050001516 -0.0052358103 -0.03143721 -0.045374945 -0.05819861 -0.027130472 0.01702864
0.052352432 0.05830224 -0.007879749 0.018339954 0.06232628 0.066560134 -0.06087727 -0.03912419
0.0141758565 -0.024507675 0.008903357 -0.052535236 -0.043072302 0.014437313 -0.039536335 -0.05726013
-0.015396542 0.03291506 -0.03846102 -0.008539194 -0.07922312 0.044173077 0.025829457 -0.029721126
0.018113198 0.017104676 0.038450003 0.037507012 0.048566397 0.027603405 0.0151366135 0.039101016

actor.2.weight f4 [128, 256]
00000000: 823d 0dbd 9c21 2b3e 1a96 1fbe a7da 263c
00000010: eed1 6fbd ac56 f5bd 8456 1e3d 99e0 b83d
00000020: 800a ff3c 3a18 293e eb19 85bd 24f8 94bd
00000030: 1395 7dbd 3d57 ea3d c8d5 8d3c 01c8 8b3d
00000040: 3079 26be 451b 93bd e385 eabd 53f7 063e
00000050: 6cd7 713e 9c47 b6bc b6c3 fcbd cf36 a03d
00000060: 701a 28be c6d3 10be 6e10 3e3c 5a78 1f3d
00000070: 1c8c 8cbd 1369 e63c 8027 1ebd 15bb 81bc
00000080: bedc 003d 795d 8d3b c72a 983d 0156 af3c
00000090: fb40 65be 4e1f 023c bf53 843d da0a 21bd
000000a0: 0738 bd3d 309b 063e fe10 94bd d932 b63c
000000b0: e5fc 343d 14f4 82bd ff73 ef3c d3b5 503c
000000c0: 358f 083d 3613 45be 7ada 3fbb d50d 9d3d
000000d0: a933 a2bc b2ec c5bd da40 3a3d b968 f8bc
000000e0: 6935 10be da31 043d 1f51 67bb ac05 50bd
000000f0: a740 7bbc 127b 0d3e c0bb 9c3d ef0a 60be
00000100: 8eac 5e3d f7d6 cfbd 0e0f 053d 3e48 91bd
00000110: 2f19 0abc 6de7 99bd 4fdf 8cbd 1056 9cbd
00000120: 059a 9cbd bcb3 dabc 3c30 0abd 1248 fe3d
00000130: a5a5 f1bd 70df c93c 7530 0dbd 6dac 613d
00000140: 8ada 3c3d 9707 4c3c 9c3e 9b3d bc36 4cbe
00000150: f054 253d f2f3 8abc 5058 d0bd df7d 6e3e
00000160: 6958 00bd 7b7b b0bd 2b55 40bb 1a4f 803c
00000170: 4ce9 883d f133 0b3d bf5a 30bc c445 153d
00000180: 73aa 063d 0bda 243c c4db 09bd 96a9 483c
00000190: fd73 e9bd 8c0c 273e 776f 9b3d 9a45 243e
000001a0: 03ff 0d3d bf72 e4bc a29d 6b3d 6b88 5f3d
000001b0: 3803 a0bd 6166 ee3c 4075 953d 9136 873c
000001c0: 809b 91bd 6024 5f3c 8916 e0bd e45e 02be
000001d0: e072 ab3d e504 4bbc 34c3 b5bd 33bc f2bb
000001e0: 5f53 01bd 06f2 243e 2e96 2b3d fcd4 d7bd
000001f0: 9b01 97bd fc80 963d 584f 2f3d db69 da3d
00000200: 9408 403d 91f1 1b3c e110 3f3d 0e98 6d3d
00000210: 0662 74bd 44d1 223e edb2 59bd 6b76 d93c
00000220: c4e8 75bc 8edf 163e 15bd e8bd 3b16 2abe
00000230: 2c1e ca3d 32c5 353c 1b33 413c e586 22be
00000240: 12e7 33bc 96b2 a3bd 3352 923d f185 3b3d
00000250: c21a 213d 0d69 a63d 8ca2 903d ede6 5e3d
00000260: e863 01bd 7274 043e 8480 7dbc d0b1 193c
00000270: 94ee 023d 512b c0bd 892f 10bd 031d 66bd
00000280: efeb 803e f02a 22be 3125 0f3b b533 d5bc
00000290: 0719 483d be17 40be 20bb b53c 1f58 0abe
000002a0: 48ac 873d bbc7 c0bc 28cd aa3c ed94 803d
000002b0: 561b e0bd 7fd9 783d 2cfd f8bb 8d4b 5c3c
000002c0: 0cae 8ebd 8545 2b3e 0e36 e13d ed16 d93c
000002d0: 8fa4 4bbd cbaa e0bd 7fd1 f3bd 72f5 053e
000002e0: bafb 26bc 46bf b13d 65f5 233b 0019 da3d
000002f0: 2085 30bd b9db 72bc 0d05 e73c a4d3 023e
00000300: ebbc 0d3d 587b 353d 9f17 083d ec84 1fbc
00000310: f6d7 da3b 8af5 93bc 9c6d a63d c6c4 a43b
00000320: a8de 8a3d ec72 973c 9852 edbd c500 16bd
00000330: d8e0 47bc f6e5 8abd 0537 6a3c f829 993d
00000340: 1dca ba3d 343f 81bd 8f21 e1bb e82c 15be
00000350: 1a28 783d 203c e1bd ce00 323d 6a5f 0bbe
00000360: c1c6 b63b 147b 18be f59d b33d a8bf b8bd
00000370: aa62 7d3d 71c7 2fbd 9bec a03c d9cc ac3d
00000380: 51bb 8b3d a8cb c3bd cedd d23d ef0a 50bd
00000390: 2ff6 9f3d 7de9 b5bd e05d 263e 0d41 0fbe
000003a0: d1cc bc3c a6d8 563c af72 b9bd 6f14 c33c
000003b0: 957e b3bd 3835 5c3d 76fa 67bd 6ee6 59bd
000003c0: 4c27 9c3d 47df 84bc d514 9c3c b73a 20be
000003d0: 1962 433d 0286 5e3e e056 c3bd d47f 11be
000003e0: 7272 f63d 698d 603c 76bc e83b 6022 fabd
000003f0: 2582 ecbd 6108 2dbd afaa fc3d d60d 67bd
-0.034482487 0.1671204 -0.15584603 0.010183967 -0.058549814 -0.11979422 0.038656726 0.090272136
0.031132936 0.16513148 -0.06499084 -0.072738916 -0.061909746 0.11442421 0.017313853 0.06825257
-0.16257167 -0.071829356 -0.11451318 0.13180284 0.23617333 -0.022250943 -0.123420164 0.07822954
-0.16416335 -0.14143285 0.011600597 0.038933136 -0.06862661 0.028126275 -0.03861189 -0.015836278
0.031460516 0.0043141213 0.07430034 0.021403315 -0.2238807 0.007942034 0.06461286 -0.03931699
0.09239202 0.13145137 -0.072298035 0.022241043 0.04418649 -0.063942105 0.029230116 0.012738663
0.033339698 -0.1924561 -0.002927451 0.07668654 -0.019800024 -0.09664287 0.045472004 -0.030323373
-0.14082874 0.032274105 -0.0035296155 -0.05078666 -0.015335239 0.13816479 0.07652998 -0.21879171
0.05436378 -0.10148423 0.03248506 -0.07093857 -0.008428856 -0.07514844 -0.0687853 -0.076336026
-0.076465644 -0.026697032 -0.033737406 0.1241609 -0.11799172 0.024642676 -0.03447004 0.05509608
0.046106853 0.012452981 0.07580301 -0.19942755 0.040364206 -0.016962025 -0.10173094 0.23290204
-0.031334314 -0.08617302 -0.002934764 0.015662719 0.06685123 0.033985082 -0.010763823 0.036443487
0.032877397 0.010061751 -0.03365685 0.012247464 -0.11399076 0.1631338 0.075896196 0.16042176
0.034667026 -0.027886746 0.057523377 0.054573458 -0.07813114 0.029101552 0.07297754 0.016505511
-0.071097374 0.013619512 -0.10941798 -0.1273151 0.0837152 -0.012391304 -0.08875123 -0.007407689
-0.03157365 0.1610795 0.04189127 -0.105386704 -0.07373353 0.073488206 0.042800277 0.106647216
0.04688318 0.009518043 0.046646956 0.05800634 -0.059663795 0.15900141 -0.053149153 0.026545724
-0.015009109 0.14733717 -0.113641895 -0.16610043 0.09869036 0.011094378 0.01179197 -0.1587177
-0.010980384 -0.07993047 0.071445845 0.045782033 0.03933216 0.081255056 0.07062253 0.054419447
-0.03158942 0.12935045 -0.015472535 0.009380773 0.031965807 -0.09383262 -0.035201583 -0.05618001
0.25180003 -0.15836692 0.0021842236 -0.026025632 0.048851993 -0.18759057 0.022183955 -0.13510178
0.06624657 -0.023532739 0.02084978 0.06278405 -0.10942714 0.060754295 -0.00759854 0.013445747
-0.069667906 0.16725738 0.10996638 0.02650019 -0.049717482 -0.10970076 -0.119051926 0.13081911
-0.010191852 0.08679061 0.0025018093 0.106492996 -0.043095708 -0.014822894 0.02820065 0.12776047
0.034603994 0.044307083 0.03322565 -0.009736281 0.0066785766 -0.018061418 0.08126375 0.00502834
0.067807496 0.018487416 -0.11588019 -0.036621828 -0.012199603 -0.06782143 0.014295344 0.07478708
0.09120581 -0.06310883 -0.0068704556 -0.14567912 0.06058512 -0.10997796 0.0434578 -0.13610616
0.0055778925 -0.148907 0.08770362 -0.090209305 0.06186167 -0.04291481 0.019644072 0.08437509
0.06822837 -0.09560329 0.10296212 -0.050791677 0.07810628 -0.08882425 0.16246748 -0.13989659
0.023046883 0.013113176 -0.09055077 0.023813454 -0.08764378 0.05376169 -0.056635343 -0.05319827
0.07624683 -0.016219748 0.019052902 -0.15647398 0.047700975 0.21730807 -0.095380545 -0.14208919
0.120335475 0.01370559 0.0071025444 -0.12213588 -0.115482606 -0.04224432 0.12337243 -0.05640968

actor.2.bias f4 [128]
00000000: ffeb 0bbd 4da8 db3c 63fc 20bd 4c23 0cbd
00000010: 24e4 e5bc 202b 0b3d e9fc 273b 2595 c3bc
00000020: 0feb cf3b 1fd4 233d bff3 053c 89b5 633d
00000030: fa31 74bd 3073 88bd 359f 9ebc ac4e 27bd
00000040: bec0 503b 0d13 40bd 5b32 9ebc a195 b1ba
00000050: 9a29 c13c a942 65bd d1a7 83bd 28bd 223d
00000060: 1033 23bd 7a29 2fbd 1efe a9bc eefe 0c3d
00000070: b36a 0ebd 9662 45bc 02bf 3b3d 3337 4e3d
00000080: 7eb9 cfbb f26d 65bd 7c1a fe3c 2687 c4bb
00000090: ffc6 6abb e19e 323d e261 ecbb dc1c 5dbd
000000a0: c943 fe3b 42a7 2b3c db72 18bd a743 30bc
000000b0: 185e e53b 2f58 42bd 733a d73c b34a 6abd
000000c0: d4c0 c7bc 65d6 393d fd3f 69bd 644d 16bc
000000d0: 4b0c 87bc 5f69 14bd 403d ea3c 9af8 473d
000000e0: 8052 29bd 5c01 413d 2b05 d6bc 2ced 1abc
000000f0: 4fe7 0f3d e723 04bb 82af 0d3d e522 813c
00000100: 4a16 6f3c b59b 063d 5876 32bc 8243 c93b
00000110: 0f47 053d fff3 30bc 0be8 3c3d 2ea0 bbbc
00000120: 4415 ac3c 44d7 15bd 0449 80bd 5185 013d
00000130: 4dc0 c7bc 93e8 153d 31fe 50bc f5a2 acbc
00000140: a972 babc d592 6ebd f376 dc3c f6cf febb
00000150: 5bda 3ebd ef7c 753d e0aa 493d e033 5bbd
00000160: 1c57 553d 8ff0 55bd 2fd5 45bd b620 debc
00000170: 73e5 67bd ce6c efbc 19cb bc3c ab66 753c
00000180: fa68 2bbd e372 a13b 1a57 703b 7728 473c
00000190: b149 d83c 8f15 953b a8e7 67bd 2def 78bd
000001a0: 6505 62bd e2c1 bcbc e260 7a3d 6d74 fd3b
000001b0: 8c02 f4bc 753c 88bd 24ef 9c3c 8684 b5bc
000001c0: cce0 39bd 3fd1 28bd 75f6 053d 6c4a 113d
000001d0: 2133 cdbc 3dc2 693c 471a 753d 980a 5ebd
000001e0: ee4f 2bbd 5457 a4bc 7655 c9bc 8083 63bd
000001f0: 0cf2 48bd adb0 c0bc 531b 903c bfdb 853c
-0.03416061 0.02681365 -0.039303195 -0.03421335 -0.028062887 0.033976674 0.0025632924 -0.023874829
0.00634516 0.039997216 0.008175789 0.055593047 -0.059617974 -0.06662595 -0.019363025 -0.04084651
0.0031853165 -0.04689317 -0.01931112 -0.0013548621 0.023579407 -0.055971775 -0.06428493 0.039731175
-0.03984362 -0.042764165 -0.020751055 0.034422807 -0.034769725 -0.0120474305 0.045836456 0.05034561
-0.006339251 -0.056013055 0.031018488 -0.0059975563 -0.0035824177 0.04360855 -0.007213817 -0.0539826
0.0077595455 0.010476889 -0.03721891 -0.010758317 0.0069997422 -0.04744738 0.026272988 -0.057200145
-0.02438394 0.04537048 -0.05694579 -0.009173725 -0.016485354 -0.036233302 0.02859366 0.04882107
-0.041338444 0.047120437 -0.026125511 -0.00945596 0.035132702 -0.0020163 0.034591205 0.01576371
0.0145927165 0.032863338 -0.010892473 0.0061420808 0.03253847 -0.010800361 0.04611973 -0.022903528
0.021006234 -0.036582246 -0.062639266 0.03162128 -0.024383688 0.036598753 -0.012755916 -0.021073798
-0.022759752 -0.0582455 0.026912188 -0.0077762557 -0.04659496 0.0599336 0.049235225 -0.05351627
0.052085027 -0.052231368 -0.04829901 -0.027115207 -0.056615304 -0.029226687 0.023046063 0.014978091
-0.04184816 0.0049270256 0.003667301 0.012155644 0.026402326 0.004549689 -0.05661741 -0.06077497
-0.055180926 -0.02304167 0.06112755 0.0077348263 -0.02978637 -0.06652156 0.019157 -0.022157919
-0.0453804 -0.041215178 0.032705743 0.035471365 -0.025048794 0.014267501 0.059839513 -0.05420932
-0.041824274 -0.020061173 -0.024576884 -0.05554533 -0.04905896 -0.023521746 0.017591154 0.016340135

actor.4.weight f4 [64, 128]
00000000: e922 7dbd fa05 a4bc bfb7 d23d a6f4 fabd
00000010: 05c7 f9bd 393b a13b 670a 8b3d b992 87be
00000020: 838f 053d d947 86be d454 073e 149d 383e
00000030: 5cde d7bd 4111 e73c b37a 1b3d 5219 c9bd
00000040: 57ad 113e caab 48bd 75cb 353e 6ba7 babd
00000050: dc7a 81bd aa50 ee39 a0f2 f03d c9ea a2ba
00000060: 27d1 f8bd 41fc e03c cedc 833d 544d 52be
00000070: 7189 d33c 9d30 ebbc c6bd 093d 7e25 f93d
00000080: 2b04 95bc 53f2 923e 972a 5dbd 69b0 013d
00000090: b5b4 463c 74d9 093c 0a39 1dbc 7136 b8bd
000000a0: 1636 18bd c544 10bd 5cce 5abe 1292 59be
000000b0: 3e32 6f3a 2fe5 8d3d 17c0 3d3d 5051 bcbd
000000c0: 1a7e 7abd 2ac1 643d 8a16 e43d 26e2 873d
000000d0: fe6d 993e 070d f4bd ab08 4bbc bfb1 a7bb
000000e0: 4b00 0d3e f006 92be 6aed 183d 05ad a6bd
000000f0: afcd 89bc b840 4abc 4f66 4e3e 4af4 d53d
00000100: 5605 8c3e d08f 133d 332c bdbe a934 d53d
00000110: 043b d9bd a2be c0bd 8ad5 a3bd ad42 1f3e
00000120: d33c 643e da89 9f3e 2666 503e 199a d53c
00000130: b0c1 f0bd a5c1 0b3c 0d32 183e 998e fbbd
00000140: c295 c6bd 6fed 2f3c 0ed0 c53d f1f1 6cbc
00000150: c898 7fbe a878 d1bd b358 c4bd 6037 d0bd
00000160: 7802 193e 442d 6abe 3d12 e0bc 93af e9bd
00000170: 22ed 90bc 965e 8c3d b4e5 423d 50d9 7fbb
00000180: 3a89 363d 2652 9abd 8b57 043d 66e5 b5bd
00000190: 1959 f6ba 77f1 84bd 73de 9b39 5582 553d
000001a0: 976f 83bd 0a44 aebd 0f18 5ebd 67d6 10bd
000001b0: 8fd5 3f3d bd8d 0e3e 27a8 fd3d 0fd0 003e
000001c0: 8f93 ff3d ee39 b23d 2389 5fbe e617 a23d
000001d0: f192 2e3d 86d7 50bd ec7b 07be 47f3 1bbe
000001e0: 3ed0 5abe 0b12 1c3e 565e 02be 89ce 8c3c
000001f0: 5987 263e 7f30 1f3e 6877 9cbc 39c3 763d
00000200: 4dd9 493d 5d5b 4dbd d370 1d3e 2df5 713d
00000210: 43da c13c b885 38be f60f 3ebe 690f d8bd
00000220: cf5e 333e 46ef bd3d a8b2 ec3d e875 e2bd
00000230: 39ec 143e 9e0b 373e cc95 c1bd 96af c9bd
00000240: 2bf2 a93e 2ad8 3a3e ff36 bb3d 79dd 42be
00000250: f733 27bd 75da 683d 88b2 babd c10f 93be
00000260: 2d18 893c b98a 8d3b 537d 3fbc be57 573c
00000270: ebc6 b73d 464f be3d 00bd 32be a072 82bc
00000280: e02e 973d ab4b 213e 7ff3 723d 7179 0d3e
00000290: 8035 843d e6d8 133d cc4c 193e bf79 2f3e
000002a0: 4ca4 18be 19b2 4dbe 10d5 533c 64d9 023e
000002b0: c3a7 643e cc8d aabc 2814 cfbd 5140 b33c
000002c0: 7437 2e3e f4ea df3d 69ce 81bd 9d4d 0cbe
000002d0: 2f1b 973b 5da9 46be c48b 44bd d951 7e3d
000002e0: fbee 0ebd c981 593d 7c8d c0bd e82e 373e
000002f0: 2e5e cf3c 2660 28be b28d 78be 27c5 0dbd
00000300: 2e9d 94bc 7b0a 94bd 1c88 3d3e 0a8c c4bb
00000310: 5473 10bd e9b5 36be 3df1 02be aa60 0d3e
00000320: a958 dbbd 55f8 093e a1cf 26be 8cd8 8ebe
00000330: 662a ab3d 105b bcbd e1b6 e83d 5429 173d
00000340: 9537 6cbd 1228 50be ae76 163d 3634 5b3d
00000350: 4eb2 61bd 0581 5bbe c862 77bd a607 9b3e
00000360: 7295 cb3d 8800 b8bc 15d7 0dbd 92d8 62bd
00000370: 79d1 39bd cddd 73bc acb9 c5bd f07c 063d
00000380: 7a2b 1c3d c33a d43d 5ff0 0b3d 8d7e 24be
00000390: da34 2cbd 0140 59be d962 c03d 0acd 4d3e
000003a0: 6a0f 3ebe 8503 d23d 52ec a4bd 9386 c0bd
000003b0: 5817 d53d a9e4 edbd 9cef b7bb 2706 bc3d
000003c0: d42a 0c3d aa84 d33d d426 863d 1fb7 0a3e
000003d0: bd92 13be 2de4 91bd 357a bdbd 53a1 33bd
000003e0: fc49 0dbd df32 14be 73a7 88bd 38bd 383e
000003f0: 34f9 bf3b bbe8 2ebe dbd1 49be a932 423d
-0.06180087 -0.020022381 0.10288953 -0.12253694 -0.12196163 0.00492039 0.067890935 -0.26479128
0.032607567 -0.2622669 0.13215953 0.1802867 -0.105404586 0.02820647 0.037958812 -0.098192826
0.1422628 -0.048991956 0.17753394 -0.09113964 -0.06322262 0.00045454997 0.11765027 -0.001242959
-0.12149268 0.027464034 0.064385995 -0.20537311 0.025822373 -0.028709704 0.033628248 0.12165354
-0.018190464 0.28700504 -0.053995695 0.03166238 0.012128045 0.008413661 -0.009596119 -0.08994759
-0.037160955 -0.035221834 -0.21367782 -0.21247128 0.0009124613 0.06928479 0.04632577 -0.09195197
-0.061155416 0.055848278 0.111371115 0.06634931 0.2996673 -0.11916547 -0.012392203 -0.0051176245
0.13769643 -0.28520918 0.03733579 -0.081384696 -0.01682171 -0.012344532 0.20156215 0.10446985
0.2734782 0.036025822 -0.36947784 0.10410435 -0.106069595 -0.0941136 -0.07999714 0.15552779
0.22288828 0.3115986 0.20351467 0.026074456 -0.11755693 0.008530055 0.14862843 -0.12283058
-0.09696533 0.010737761 0.09658824 -0.01446198 -0.24960625 -0.102280915 -0.095872305 -0.10166812
0.14942348 -0.2286883 -0.027352447 -0.11410441 -0.017691199 0.06853978 0.047582343 -0.003903944
0.044564463 -0.075352 0.03231005 -0.08881645 -0.0018794864 -0.06491368 0.0002972964 0.052126247
-0.064177684 -0.08509071 -0.054222163 -0.03536072 0.046834525 0.13921256 0.12385588 0.12579368
0.124793164 0.087024555 -0.21829657 0.079147145 0.042620603 -0.05098679 -0.13230866 -0.15229522
-0.213685 0.15241258 -0.12731299 0.017188327 0.16262569 0.15545844 -0.019099906 0.060244773
0.0492795 -0.05013596 0.1537507 0.05907171 0.023663646 -0.1801976 -0.18560776 -0.10549814
0.17516635 0.092741534 0.115575135 -0.11057645 0.14543237 0.17875525 -0.094523996 -0.098479435
0.33192572 0.18246523 0.09141349 -0.19029798 -0.040821042 0.05684896 -0.091160834 -0.28722957
0.01673516 0.0043195155 -0.0116875945 0.013143478 0.089734875 0.09292464 -0.1745491 -0.015923798
0.073819876 0.15751521 0.059314247 0.13815857 0.06455517 0.036095522 0.14970702 0.17136286
-0.14906424 -0.2008747 0.012929216 0.1277824 0.22329621 -0.020819567 -0.101112664 0.021881254
0.17013341 0.109334856 -0.06338198 -0.13701482 0.004611395 -0.19400544 -0.047984853 0.062089775
-0.03489588 0.05310229 -0.09401986 0.17888987 0.025313463 -0.16442928 -0.24272802 -0.034611847
-0.018141355 -0.072285615 0.18508953 -0.0059981393 -0.035266235 -0.1784283 -0.12787338 0.13806406
-0.1071027 0.13473637 -0.16290142 -0.27899587 0.08357696 -0.09197056 0.113630064 0.036904648
-0.057670195 -0.20327786 0.036734276 0.05351659 -0.055101685 -0.21435936 -0.06039694 0.30279273
0.09940614 -0.02246119 -0.034628946 -0.05538232 -0.045365784 -0.014884424 -0.09654555 0.032833993
0.0381274 0.103627704 0.034164783 -0.160639 -0.04204259 -0.21215822 0.09393854 0.20097747
-0.18560567 0.102545775 -0.08052887 -0.09400668 0.10404843 -0.11615879 -0.0056132805 0.09180861
0.03422053 0.10328038 0.065503746 0.13546418 -0.14411445 -0.07123599 -0.09251825 -0.043855023
-0.034494385 -0.14472531 -0.066725634 0.18040931 0.0058585647 -0.17080967 -0.1970896 0.047411595

actor.4.bias f4 [64]
00000000: 7f6b f53b 8a68 1aba 9fc0 80bd ec97 1039
00000010: 79e9 b4bd 02b6 203d d3c7 113d cb98 953d
00000020: c08c 9dbd ad3e 223d 3c41 eb3b c067 c5bc
00000030: 66a7 703d 0d2b c53c 7842 55ba f036 043d
00000040: 0c78 ff3c 1131 1fbc bcb0 f23c 7666 86bd
00000050: 73f5 3a3d f9f6 9ebd e4cf 44bc 8237 75bb
00000060: 1f35 ab3d 8bfe a33d 8afa 773d 961d 433b
00000070: a44a 9a3d 10e1 7e3d 8251 44bd 4ad6 aebd
00000080: 12bb 80bd e57b 843d 6a37 19bd 06bc e9bb
00000090: 39af 5f3d 78a3 fe39 4e96 1f3c 94dd 8c3d
000000a0: b502 5bbc 2d9b d5bc da0f 8abd f1c0 3abd
000000b0: 8cbd a7bc c7ae 09bd 327b 883d 2cca a5bd
000000c0: 6e73 46bc 0a8a 09bd a2a4 1c3d 349d a93d
000000d0: 74fc e3bc cb1c adbd 23e8 833d 907f 2d3d
000000e0: 662c 723d 7ea3 24bd 51da d0bb edb1 6ebd
000000f0: 5b88 81bd 00b8 9a3d 98bc 033d ed15 7dbd
0.007489621 -0.00058902113 -0.062867396 0.00013789505 -0.08833594 0.039236076 0.035590958 0.073045336
-0.076928616 0.039610554 0.0071794074 -0.024097323 0.058753394 0.02406838 -0.000813521 0.032278955
0.031185172 -0.009716288 0.02962529 -0.065625116 0.045644235 -0.0776195 -0.012012456 -0.0037417118
0.083597414 0.080075346 0.060541667 0.0029772273 0.07533768 0.062226355 -0.047929294 -0.08536966
-0.06285681 0.064689435 -0.037406363 -0.00713301 0.054610465 0.0004856845 0.009740425 0.068782
-0.013367345 -0.02607497 -0.06741305 -0.04559416 -0.020476125 -0.033613946 0.06664123 -0.08095202
-0.0121124815 -0.03357891 0.038242944 0.08281937 -0.02783034 -0.084527574 0.06440761 0.04235798
0.059124373 -0.04019498 -0.0063736816 -0.058275152 -0.06324836 0.075546265 0.03216228 -0.06178849

actor.6.weight f4 [3, 64]
00000000: cc9d 31bb 8785 f339 4896 653c 4082 233b
00000010: cf97 99bc 1201 9fba cde4 f33a c95e 9339
00000020: a118 2abb ece1 beba 2d9e c6ba 451b dcb9
00000030: 62a6 ddbb b052 853d dd00 933b 0edf 26bc
00000040: 6bfd 93b9 1391 193a 758a 3dbc fba3 aebc
00000050: 0389 65bc d042 933b 3a73 583b 49fc 373b
00000060: 1c03 3dbb 9ff3 9fbb 23a2 833b ce21 4c3b
00000070: 35d2 923a b43c 11bc 85a7 9f3b 3a76 073b
00000080: 60d7 e3bb e6c5 163c 418f 8ebb ef1c 763c
00000090: c706 463c 733c ce39 8344 65bc 9e26 09bc
000000a0: 3eb2 313a 0eff a1ba 2c64 703c da53 92bb
000000b0: d8c9 033b 6aa0 02bc 53ac 7c3b baac 90bb
000000c0: b179 27bb ba12 6a3b 9e30 023b 528e 843b
000000d0: 65b3 fd3b b3e6 51bc 917d b23b d10c e137
000000e0: 77a9 0dbc 72f8 92bc c378 96ba 2469 5a3b
000000f0: ba74 553b 277b b2bb 98ca 873a a5c9 3bbc
00000100: 2bd8 b5bb fad8 da3b 6467 fc3b 6846 113c
00000110: c85e 24bc 855a 893b 2995 983b 65f9 8dbb
00000120: ef7f c43b a9be 243c 3b79 07bc da9b a13b
00000130: fd07 bbbb e9d6 963c 8c5f 0a3c d1ec ebbb
00000140: b363 37bc d9ac 0a3c db65 0fbc a1df 82bc
00000150: a8e4 1dbc 5c8a 053c f85b a23b cef7 f93b
00000160: 874b 723b f374 f0ba 2fb0 383c f9bf f73b
00000170: b5c7 b6bb 0dd4 4dbc 4fff 273c 06fe 0b3c
00000180: 1106 84bb 523b 1a3b 8684 a7bb 9514 013c
00000190: 97cf 673c 569b f13b 6662 04bc 57a5 10bc
000001a0: 6bfe f83b f8f1 053c 62b2 043c 711a db3a
000001b0: a659 283c b666 20bc d873 463c c194 06bb
000001c0: c88b ed3b 0b85 eb3b ed47 fd3b 1bde f43b
000001d0: ae41 8d3b 21b1 35bc ac47 f93b 69a8 c93b
000001e0: 6f6e bdbb 42dc a7bc 767a 82bb d9ce b83b
000001f0: 9ef3 f63b 7bab 6abb 753c 48bc 60be 15bc
00000200: 732f 363d 52c4 2b3d 89ea 44bd 9b48 233d
00000210: 8ca4 1c3d 7551 103d 8de8 243d 4593 ecbc
00000220: 1795 233d 6c2f 1d3d e77a 6cbd 82a0 223d
00000230: 6133 473d 044c 1ebe 1a01 373d 0b53 e23b
00000240: 6386 b1bd bfd1 113d ce8e 4c3d 446b 7c3c
00000250: 0357 3f3d 7073 643d 04d9 213d 5cf9 293d
00000260: 8ab1 403d 8eba 163d 4920 363d 8fa6 0c3d
00000270: c555 2dbd 618b daba 4ef3 233d c080 543d
00000280: 5072 e43c f0e9 b53c f95a 063d c395 21bc
00000290: 0dc4 b03c 006d 213d 02b5 603c f57b 3e3d
000002a0: 1082 0c3d 675c 1a3d 2308 543d 7e3f 9f3c
000002b0: 538e 263d f1d7 84bb cfe4 263d a2da 5b3d
000002c0: 59cc 173d cb09 1e3d 4b84 0f3d 2485 033d
000002d0: 85d9 65bd 4865 303d 9897 313d 6239 1c3d
000002e0: e75e d53c eabb 02bc eeb3 9bbc a0e1 1b3d
000002f0: c8ec 293d c2ad 053d ce49 45bd 69e7 563d
-0.002710211 0.00046448057 0.014012881 0.0024949461 -0.018749146 -0.0012131056 0.0018607617 0.00028108645
-0.0025954621 -0.001456318 -0.0015153341 -0.00041981987 -0.006764219 0.06509912 0.004486187 -0.010185016
-0.00028226836 0.00058581046 -0.011568655 -0.021318426 -0.014009717 0.0044940487 0.0033027665 0.0028073958
-0.0028840965 -0.004881337 0.004017131 0.003114808 0.0011201563 -0.00886457 0.004872265 0.0020669834
-0.006953165 0.009202456 -0.0043505733 0.015021547 0.012086577 0.0003933642 -0.013993385 -0.008371023
0.00067785743 -0.0012359337 0.01467232 -0.0044655623 0.0020109322 -0.007972816 0.0038554862 -0.004415122
-0.0025554711 0.0035716728 0.0019865404 0.004045286 0.0077423328 -0.012811351 0.0054470976 2.6828058e-05
-0.008646361 -0.017940734 -0.0011480082 0.003332683 0.0032570795 -0.00544681 0.001036006 -0.01146165
-0.005549451 0.0066786977 0.007702755 0.008866884 -0.010032363 0.004191699 0.004656453 -0.0043327087
0.005996696 0.010055223 -0.00826865 0.004931909 -0.0057077394 0.018413024 0.008445632 -0.0071998616
-0.011193204 0.008464062 -0.008752312 -0.015975775 -0.009637035 0.008150663 0.004954811 0.0076284176
0.0036971287 -0.00183454 0.011272474 0.0075607267 -0.005578006 -0.012562764 0.010253741 0.008544451
-0.0040290435 0.0023533893 -0.0051122336 0.007878442 0.014148614 0.007373254 -0.008080101 -0.008828483
0.0075986884 0.008175366 0.00809917 0.0016716254 0.01027528 -0.009790113 0.01211258 -0.0020535442
0.0072493292 0.007187491 0.0077295215 0.007472766 0.004310808 -0.011089594 0.007607421 0.0061541093
-0.005780987 -0.02049077 -0.0039818836 0.0056398925 0.0075363657 -0.0035807777 -0.012221445 -0.009139627
0.044478845 0.041935273 -0.048075233 0.039864164 0.03824286 0.035233933 0.04026084 -0.028878817
0.039937105 0.038375303 -0.057734396 0.039703853 0.048632983 -0.15458685 0.044678785 0.006906872
-0.0866821 0.03560042 0.049940877 0.0154064335 0.04671384 0.055774152 0.039513603 0.041497573
0.047044314 0.036799006 0.044464383 0.03433853 -0.042318124 -0.0016673618 0.040026955 0.051880598
0.02788654 0.022206277 0.032801602 -0.009862366 0.02157786 0.03941059 0.013715031 0.046504933
0.034303725 0.037685778 0.051765572 0.019439455 0.040663075 -0.0040540625 0.040745553 0.0536753
0.037060115 0.038583558 0.035038274 0.032109395 -0.056115646 0.04306534 0.04335746 0.038140662
0.02604623 -0.0079793725 -0.019006696 0.03805697 0.041485578 0.03263641 -0.04816609 0.052466784

actor.6.bias f4 [3]
00000000: 2339 ebbc 93bf 5e3d 26d9 543d
-0.028713768 0.05438192 0.0519649

critic.0.weight f4 [256, 259]
00000000: b772 193e 20a6 06bc 0146 73be 7f87 39bc
00000010: b31a 36bf 753c c3bd 9f56 913d e6df 5abd
00000020: d397 123d b1fc 4b3b 2063 2d3d beeb a4bd
00000030: 58a5 b23d 522c 103e 1e0c fc3d d5b8 40bc
00000040: 1ee8 173e 1e1e 9dbd c13f d6bd 715b 99bd
00000050: 8b9d d63d 85e2 5fbe 0f44 36c0 b4e6 f23d
00000060: 5845 e8bd ebf8 8f3d ed31 86be 37d4 70bd
00000070: acd9 12bc 1537 4f3f 8e67 e93d bd02 813d
00000080: 1f0b 8e3b b45a fa3d 189b e6bd acee 29bd
00000090: 2b70 a03b 677e 3fbd 47bb 96bd 16b5 5d3d
000000a0: 27ef 383d 6936 61bc 5e2e 10bd 65fc c43d
000000b0: 42d4 47bc c218 943d 03ac adbe 6954 173e
000000c0: 1d89 29be aa24 1a3e 8302 26bd 564c ca3c
000000d0: aa7d 533d f557 51bf 5952 3b3c 73ec 823d
000000e0: 2f31 37bd 6277 a5b9 2e25 c33d 84ae 48bb
000000f0: b195 993d 9a85 c43c ecb9 9bbb 373c ff3a
00000100: 93a3 3dbd ec2c bfbc 6947 023e ef69 5c3d
00000110: f1ab 2bbd 0e70 e83d 1700 cebd 944c 973d
00000120: 76f2 18be 6523 88bd ba49 cf3d 5faa 2bbe
00000130: e275 823d 0754 f9bc 5c0e 9d3d 2ac5 8a3e
00000140: 337f 0bbc 29ae c3be c07d ad3d dd6e 0cbd
00000150: d023 ea3d 2383 a2be 0c7f 9dbe 20dd 03be
00000160: f9d6 e8bc 7b47 4abd 4a9f 253e 4443 e03d
00000170: 66a2 3d3d 3855 c0bd 8427 aebd 5ab0 033d
00000180: a42f 4e3a 1743 0abd 6c6a 2d3d 4d13 9a3d
00000190: de7b 67bd c4e7 94bd ff3d dcbc ee2b 2f3d
000001a0: 41a9 e83c 620b aa3d 6f20 38be e2cb 943d
000001b0: 9f78 d33d 046f 643c 4235 9d3d 586e 0fbe
000001c0: 67a8 02bc 19eb 0cbd 53d4 82bd 0959 d1bb
000001d0: 3323 a2bb 1adc 8ebd 36b3 093d d1fa 9bbd
000001e0: 8485 4abc 76cc 10bd ede8 133d 7c47 b93d
000001f0: bddb 443d 8df1 513e 6a7e d6bc 1e09 533d
00000200: d273 f1be 1b69 963d 87f3 903d 9e8c d2bb
00000210: fac6 913d 1dd3 cabc 89c6 8e3c 19fe 783d
00000220: 9bb8 24be 9dab eabd 5282 8b3c 2455 88be
00000230: d2d3 083e 4032 c13d 25cb 66bd 1048 ea3d
00000240: 880f b0bd 1ac0 b6bd 1fff 5a3d 464d 85bc
00000250: feca 323e ab40 653d 066c a6bd c05e 323d
00000260: cd71 61bb c270 5abe 37b2 c1bc 9f98 0a3e
00000270: e438 e4bc 933c e5bd b8c1 0d3e 0a93 16bc
00000280: 9ed5 18be 7d91 bfbd b36d 72ba c816 d9bc
00000290: 9579 253c 738c 95bb 15d2 87bd f5b3 a53d
000002a0: e7e0 15bd 5cf1 403d acd7 17bd 206e aa3d
000002b0: 9018 363e 4cf3 da3c 200e 60bd 5416 d93d
000002c0: 11e4 1abe 1004 993d 4590 debd 8861 fb3b
000002d0: 58fd d0b9 fbad 063e f134 19bd 5aef 03bd
000002e0: 2f23 193d fcdf 3d3e c5fe 693e 3982 1fbc
000002f0: e45f 27bd c9c7 443d 46f9 adbd ce7b 87bd
00000300: 58d7 413e d9ec 10bc 1306 3dbd a44f 97bd
00000310: d66b e23d 1514 73bc e4d4 abbd 078f 063d
00000320: 3a46 ee3d ae6d f43d 4304 cbbd 4440 a13d
00000330: 621c b2bc 8fb5 f43d 6d95 64bd c430 503e
00000340: 9eb5 afbd 0a18 28bb 955d 7e3c 3ae8 2d3e
00000350: 9aaf f83c 4ad3 573d 930b 493c 5726 893c
00000360: a4fe 373d 3cf7 d3bd 4063 81bd c103 bdbd
00000370: 43eb a7bd b374 c4bd cda5 cabd 5b88 82bb
00000380: b91a ab3d 2959 babd cd90 72bf 1a2e b0bc
00000390: 32e5 0a3e e065 1bbe 0c92 343d 6dee 2cbe
000003a0: 5ac3 523d 5fb5 d4be 3276 ef3c 8bc3 e3bc
000003b0: 31a1 d3bd 464e 0abe 9723 b4bd 9fad ec3d
000003c0: 1e28 54bd da20 b33d 1ca0 2b3e 8686 323e
000003d0: 7bd3 a1bd 3f60 bbbd 5273 a0bc ba9e 913d
000003e0: b9d8 673d 92d3 363d 4abb cd3d e581 273d
000003f0: 031c 883d b2b8 aa3d b1c2 f9bc d00d 28bc
0.14985166 -0.008218318 -0.23757173 -0.011323809 -0.7113449 -0.09533016 0.070966 -0.053436182
0.035789322 0.0031125958 0.04233086 -0.08052777 0.08722943 0.14079407 0.12306999 -0.011762817
0.1483464 -0.0767176 -0.10461379 -0.07488144 0.10479268 -0.21863754 -2.847904 0.118604094
-0.11341351 0.07029899 -0.26209965 -0.058796134 -0.00896303 0.80943424 0.113967046 0.062993504
0.004334822 0.122243315 -0.112600505 -0.04148738 0.004896184 -0.046751406 -0.07359939 0.054127775
0.04514995 -0.013745883 -0.03520047 0.09618453 -0.012196602 0.07231285 -0.33920297 0.14778294
-0.16556211 0.15053049 -0.04052974 0.024694603 0.051633514 -0.81774837 0.011433207 0.06392755
-0.04472464 -0.000315602 0.09528576 -0.0030621598 0.074992545 0.023989487 -0.004752388 0.0019472901
-0.046298575 -0.02333685 0.12722553 0.053811964 -0.041912023 0.11349498 -0.10058611 0.07387653
-0.14936242 -0.06647376 0.10121484 -0.1676421 0.063701406 -0.030435575 0.076687545 0.2710355
-0.008514213 -0.3821881 0.084712505 -0.034285415 0.11432612 -0.31740674 -0.30760992 -0.12877321
-0.02842282 -0.049384575 0.16174045 0.1095033 0.046297453 -0.09391254 -0.08503631 0.032150604
0.00078653754 -0.033755388 0.04233782 0.075232126 -0.056514613 -0.07270768 -0.02688503 0.042766504
0.028401019 0.08302952 -0.17981122 0.0726545 0.10325741 0.013942484 0.07676174 -0.14006937
-0.007974721 -0.034403894 -0.06388154 -0.0063887876 -0.0049480437 -0.06975575 0.033618174 -0.07616199
-0.012360934 -0.03535124 0.036110807 0.09046838 0.04806112 0.205023 -0.026183326 0.051522367
-0.47158676 0.07344266 0.07077699 -0.0064254543 0.0711803 -0.02475887 0.017428653 0.0607892
-0.16086046 -0.11458514 0.017029915 -0.26627457 0.13362053 0.094334126 -0.056346077 0.11439526
-0.08596712 -0.08923359 0.05346596 -0.016272198 0.17460248 0.055969875 -0.081260726 0.043547392
-0.0034400106 -0.21332076 -0.02364455 0.13534783 -0.027859159 -0.11193194 0.13843429 -0.00919033
-0.14925238 -0.093539216 -0.0009247914 -0.02650012 0.010099788 -0.004563862 -0.06631867 0.08090965
-0.036591437 0.04710518 -0.037070915 0.08321786 0.17782807 0.026727341 -0.05470097 0.10599962
-0.15126063 0.07471478 -0.10867361 0.0076715387 -0.00039861607 0.13152306 -0.037404004 -0.032210685
0.03738707 0.18542475 0.22851093 -0.009735637 -0.040862933 0.048042092 -0.08494811 -0.06615411
0.18929803 -0.008845531 -0.04614837 -0.07388237 0.11055724 -0.014836331 -0.08390215 0.032851245
0.116344884 0.11934982 -0.09912922 0.07873586 -0.02174205 0.11948692 -0.055806566 0.20331103
-0.085795626 -0.0025649094 0.015525241 0.16983119 0.03035717 0.052691735 0.012270826 0.016741915
0.04492058 -0.103498906 -0.063177586 -0.092292316 -0.081991695 -0.09592571 -0.09894905 -0.00398354
0.08354706 -0.09099037 -0.947522 -0.021506358 0.13563994 -0.15175581 0.044084594 -0.16887827
0.051455833 -0.41544625 0.029231165 -0.027803203 -0.10333479 -0.13506421 -0.08795851 0.11556553
-0.05179607 0.087465 0.16760296 0.17434129 -0.07901665 -0.09149217 -0.019586239 0.07110353
0.056603167 0.044635363 0.10045488 0.04089536 0.06645968 0.08336009 -0.030488344 -0.010257199

critic.0.bias f4 [256]
00000000: b643 f9bc 7570 a13c 12f2 f73c 7b34 873c
00000010: 2831 e03c be74 7fbd da98 893d 4edc b4bd
00000020: 35a5 83bc dbdc 5fbc b83f dbbc df58 073d
00000030: 255f 163d 6858 333d bfc3 073c 4892 843c
00000040: 5042 f43b 7f01 f03b 45b2 01bd f5ca 933d
00000050: 7101 863c 648f c13d ac84 d1ba bbfc 04bd
00000060: 3fe0 0dbd 7378 11bd 9e93 b4bc 7316 3f3d
00000070: 4eb3 9d3d 91c0 34bd c841 35bd c2c7 fdbc
00000080: 54a6 bfbc 226a 723c 9393 11bd f255 913a
00000090: a6e4 95bc 927a 22bd 8c98 89bb 8b73 00bd
000000a0: 03a9 96bc 6617 7bbb 9e69 1abd 1d1c 5abd
000000b0: 54ad b53d 1b11 9e3d a8eb 06bd 65bf 15bd
000000c0: cd3f 28bd 5370 3b3c 17bf 41bd 9fff 36bd
000000d0: 2548 af3d 244a edbc 8abd 9c3d 3af1 6fbd
000000e0: 0ffa 34bd d2e5 87bd 4552 0dbc 55ee 13bd
000000f0: fc64 3ebb f516 3c3d 6405 c73d 7d2d fb3c
00000100: acf1 743d e368 d5bc e109 bfbd aa14 a5bc
00000110: 8daa d2bc 3667 5d39 4d32 053c f683 0b3c
00000120: cfef 703d 5238 5ebd 93f5 183d 3c41 f03c
00000130: 6c46 cbbb 8838 4e3d c6e9 363a e930 38bd
00000140: fc39 873d 2888 5e3d 3751 b1bc 3c53 323d
00000150: 4fc7 223d 218c 30bc a0c9 893d e256 0bbd
00000160: ddfe bb3a 628c 3bbd 2889 203d e3ec 5a3c
00000170: 2927 12bc 9cea 813d e848 b23c ec72 95bc
00000180: c000 3b3d e109 32bd 50fb b43d 1ae9 623d
00000190: 243e 023c c1d0 7fbd 6248 5cbd 5a1c a23d
000001a0: b899 babc 2ff5 10bd ff63 153c c1d3 063d
000001b0: f1d5 07bb 193b f73c 4553 943d 8bd3 1a3d
000001c0: a5ac 3abd 4ecd 20bc 5bc3 e23c 463b 71bd
000001d0: c988 8c3c 92ab b0ba 8e05 96b8 77b3 12bd
000001e0: 7077 293d f0e2 27bd 5173 fdbc ba01 553c
000001f0: 28b0 85bc 084b 6bbc a864 093c 0adb b83c
00000200: a5b6 373d 5a28 32bd 1359 54bd cb38 9e3d
00000210: a1ae c33d 7304 643c 1944 afbb 3737 043d
00000220: 4011 5d3d a03a 5dbc 6414 613c edb8 093d
00000230: 1c2d 3dbd 6dad 15bd 1042 7bbd 7f3f c3bc
00000240: 62dc 44bc 6b9f 7f3d e3a3 07bd d368 7abd
00000250: 39bb 81bd 371a 6db8 93c6 3cbd 5de2 063d
00000260: aaea 493c 1e83 283d 6e16 c33c 3426 f93c
00000270: 659a 32bc ed9d b2bc 61c3 123d 7273 df3c
00000280: 6dbb f3bc 0a29 5e3c b7b9 fd3c 2bf4 82bd
00000290: 5adb 5e3c 7d5b 53bd 4e7b 103d cee6 64bd
000002a0: ce29 193d 74c1 653c a013 813d 55a0 153d
000002b0: af10 383d f7bb 963b 09de 55bc 384f 5cbd
000002c0: 9b0d 693c 05fc 9ebc d5b0 21bd ea58 9b3d
000002d0: bead 22bd 2b0e 433c b6b6 2bbd 8462 6abd
000002e0: cb62 bbbc 287e 7a3c d08c adbd 6330 6dbb
000002f0: 4246 8dbc 2a5e 8fbc f1da 223c 7f67 00bd
00000300: e131 893c 1394 37bd cfc4 823d 6960 063d
00000310: a4ed 8f3c 5ade f33c 94cb a3bc 43ab c5bc
00000320: 9f50 59bc 2cfc 4f3c de4f ae3d eb74 31bd
00000330: 26b5 18bc 50fc 0e3c 0690 3cbc d11e 703d
00000340: 1aa8 27bc 4b38 6c3b 5af2 393d 97ea b03d
00000350: 4912 e03a 65ba e23c 98ab 10bc 2a1f c03d
00000360: 00f9 a33c 8d10 e03c 6377 913d 54b8 bf3c
00000370: deb8 903d 6a2f 71bc b137 23bc 61b2 803d
00000380: 99bd b73c 4aba 71bd 8dab 68bd 29b9 dcbc
00000390: 1a54 953c b2a6 52bd c0cc 8bbb 00c4 babc
000003a0: 15b1 0fbb 03ee 83ba 9de1 bc3c 5fbd e0bb
000003b0: c576 2b3d 171f ac3d 23f5 09bd f276 16bd
000003c0: b8d5 d43c e559 b13d 90c5 4bbd 6727 df3c
000003d0: af85 a83b 2964 e83c b797 6ebd 3cf7 1e3d
000003e0: 5dba 97bc 60b0 19bd 0603 2fbd 1039 243b
000003f0: 7750 583d 69f2 2e3a b8d4 903b 8560 f73c
-0.030427795 0.019706944 0.030266795 0.016504517 0.02736719 -0.062367193 0.06718607 -0.08831082
-0.016069988 -0.013663496 -0.026763782 0.03304374 0.03671183 0.043785483 0.008286416 0.016183034
0.007454194 0.007324397 -0.03166415 0.07216445 0.01635811 0.09451178 -0.0015984974 -0.032467585
-0.034637686 -0.03551526 -0.022043046 0.04665227 0.07700215 -0.044128958 -0.044252187 -0.030979041
-0.023394741 0.014795812 -0.03554113 0.0011088236 -0.018297505 -0.039667673 -0.004199093 -0.03136019
-0.018391138 -0.0038313507 -0.03769838 -0.053249467 0.0887095 0.07718106 -0.032939583 -0.03655948
-0.04107647 0.011440354 -0.047301378 -0.044677373 0.08558682 -0.028966017 0.07653339 -0.05857966
-0.044183787 -0.066356316 -0.008625572 -0.036115963 -0.002905189 0.04592033 0.09717825 0.030661339
0.05980079 -0.02605099 -0.09328056 -0.020151455 -0.02571609 0.00021114651 0.008129668 0.008515349
0.05882245 -0.05425293 0.037343573 0.029327981 -0.0062034633 0.05034688 0.0006977584 -0.04496852
0.066028565 0.054329067 -0.021645172 0.04353641 0.039740857 -0.010775597 0.0672791 -0.034018405
0.0014342923 -0.045788176 0.039193302 0.013362142 -0.008920469 0.06343576 0.02176328 -0.018243276
0.045655012 -0.043466453 0.088369966 0.055398084 0.007949386 -0.062454943 -0.053779967 0.07915564
-0.022778377 -0.035390075 0.009118079 0.032916788 -0.0020726884 0.030179547 0.07242445 0.0377994
-0.045574803 -0.009814573 0.027681043 -0.05889442 0.017155068 -0.0013478866 -7.153592e-05 -0.035815682
0.04137367 -0.04098791 -0.030938776 0.0130009 -0.01631935 -0.014361151 0.008385815 0.022565383
0.044851918 -0.043495513 -0.05184276 0.07725676 0.09554792 0.013917076 -0.005348694 0.03227922
0.05397153 -0.013502747 0.013737772 0.033623625 -0.046185598 -0.036542345 -0.0613423 -0.023833988
-0.012015434 0.062407892 -0.03311528 -0.061135124 -0.06334538 -5.6529618e-05 -0.046087813 0.03293072
0.012324015 0.041140668 0.023814406 0.030413724 -0.010901068 -0.02180382 0.03583086 0.027276728
-0.029752458 0.013559589 0.030972345 -0.063942276 0.013602102 -0.051600922 0.035273843 -0.055884175
0.037393384 0.014023174 0.06302571 0.036529858 0.044937786 0.004600044 -0.013053426 -0.053786486
0.014224435 -0.019407282 -0.03947528 0.075853184 -0.039716475 0.011905233 -0.041922294 -0.057222858
-0.022874257 0.015288867 -0.084741235 -0.003619217 -0.017245416 -0.017500956 0.009939895 -0.0313487
0.016747417 -0.04481895 0.063851945 0.032806788 0.01756937 0.029769111 -0.019994535 -0.024129516
-0.0132638505 0.0126944 0.08511327 -0.043324392 -0.009320533 0.008727148 -0.011508947 0.05862314
-0.01023295 0.0036044295 0.04539714 0.086384945 0.0017095293 0.02767677 -0.008829974 0.09380944
0.020016193 0.027351642 0.07102849 0.023403324 0.070665106 -0.014720777 -0.009962008 0.06284023
0.022429274 -0.05901555 -0.05680423 -0.02694376 0.01822858 -0.051428504 -0.0042663515 -0.022798538
-0.0021925617 -0.001006544 0.0230568 -0.0068585123 0.041861314 0.084043674 -0.033681046 -0.03673453
0.025980815 0.08659724 -0.049748957 0.027240468 0.0051428895 0.028368073 -0.058250155 0.03881
-0.018521482 -0.03752172 -0.042727493 0.0025058426 0.052811112 0.0006673695 0.0044198893 0.030197391
