rlgpu/logs/cut/model_620.pt (torch, 868312 bytes, 16 tensors)

log_std f4 [3]
0	0xbf1acbcb	-0.60467213
1	0xbee01cfe	-0.4377212
2	0x3d9f2696	0.077710316

actor.0.weight f4 [256, 259]
0	0x3d1f8bb8	0.038951606
1	0x3d34463c	0.044012293
2	0x3d658f67	0.056044962
3	0xbcd82c3f	-0.026388286
4	0xbd8ca0b6	-0.06866591
5	0x3d9c5a8b	0.07634457
6	0x3d5d3e57	0.05401453
7	0xbd99f289	-0.07516963
8	0x3cfd2e43	0.030905848
9	0x3d0487f2	0.03235621
10	0x3c99223d	0.018693084
11	0xbda728b6	-0.08162062
12	0x3d8f6ee3	0.07003572
13	0xbdb8d615	-0.09025208
14	0xbcc34468	-0.02383633
15	0xbdab1fcb	-0.083556734
16	0xbce272f9	-0.027642714
17	0xbd0b83d1	-0.034061257
18	0xbe1fb859	-0.15597667
19	0x3d08b436	0.033374988
20	0x3d78392c	0.0606014
21	0xbda8b1e9	-0.08237059
22	0xbdc6544f	-0.09684049
23	0x3c87da1a	0.016583491
24	0x3dd723fa	0.10504909
25	0xba298651	-0.0006466853
26	0x3d885026	0.06655912
27	0xbc5fbb1e	-0.013655452
28	0xbc0a5feb	-0.00844572
29	0xbd5ecb70	-0.054393232
30	0x3c448da2	0.0119966585
31	0xbdb33ce4	-0.08751848
32	0x3cdf1320	0.0272308
33	0x3dda48f4	0.10658446
34	0x3db9c4ce	0.09070741
35	0xbd032600	-0.03201866
36	0x3d631770	0.055442274
37	0xbc6699c0	-0.014074743
38	0xbd66d163	-0.05635203
39	0x3c3c4061	0.0114899585
40	0xbc699dd3	-0.01425882
41	0xbcc79857	-0.024364633
42	0x3e303c01	0.1721039
43	0x3e1bb3f3	0.15205364
44	0xbdcc95fd	-0.099895455
45	0x3e1aeec5	0.15130146
46	0x3d9ba44c	0.075996965
47	0xbda12df6	-0.078700945
48	0x3ce025a1	0.027361693
49	0xbd99c2f2	-0.07507886
50	0xbcf53029	-0.029930191
51	0xbe0fb2c0	-0.14033031
52	0xbd289534	-0.041157916
53	0x3dc5e686	0.096631095
54	0xbd606691	-0.054785315
55	0x3d681930	0.056664646
56	0x3e6487d0	0.22317433
57	0x3dc42df4	0.09579077
58	0x3c5a690f	0.013330712
59	0xbe1887f4	-0.14895612
60	0x3c88be15	0.0166922
61	0xbd372b45	-0.044719
62	0xbbc450ad	-0.0059910626
63	0x3c919886	0.017772924
64	0xbd1a7f9d	-0.037719358
65	0x3d0050d7	0.031327095
66	0xbdbccf13	-0.09219184
67	0x3db2efa2	0.087371126
68	0xbcd6a88f	-0.026203422
69	0xbd2156b9	-0.039389346
70	0xbda1089b	-0.078629695
71	0x3d92f8bb	0.07176348
72	0xbdac88bf	-0.0842452
73	0xbcc687b5	-0.024234632
74	0xbca53cdf	-0.020170627
75	0xbd32f7fe	-0.043693535
76	0xbe801b69	-0.25020912
77	0xbbca8e7f	-0.0061815376
78	0x3d0e0441	0.034672026
79	0xbc8ff8dc	-0.01757472
80	0x3d200ed6	0.03907665
81	0x3e02863d	0.1274652
82	0xbdd102ca	-0.1020561
83	0x3bf9f172	0.0076276595
84	0xbd5e8570	-0.054326475
85	0x3e0abd37	0.13548742
86	0xbd8fc7ee	-0.070205554
87	0xbe05cfcc	-0.1306755
88	0xbdbdea04	-0.092731506
89	0xbdc84724	-0.09779194
90	0x3d8dcd42	0.069239154
91	0x3d8d8097	0.06909292
92	0x3c1406c4	0.009034816
93	0x3d0c72c3	0.034289133
94	0x3e33c7f5	0.17556746
95	0x3e089daf	0.13341402
96	0xbd014d42	-0.03156782
97	0xbd920b93	-0.07131114
98	0xbca4b706	-0.020106804
99	0x3db12cd9	0.08651132
100	0x3d902468	0.07038194
101	0xbdc165b0	-0.094432235
102	0xbc6aff20	-0.014343053
103	0xbc2d916d	-0.010593754
104	0x3dd9f9ba	0.10643335
105	0xbd4cf774	-0.050040677
106	0xbd4d8af2	-0.050181337
107	0x3dd24329	0.10266716
108	0xbbeb01c9	-0.0071718437
109	0x3e516948	0.20450318
110	0xbd05058a	-0.032475986
111	0x3df0aeaf	0.11752068
112	0x3cb1e486	0.021715414
113	0xbd1ccc8f	-0.03828102
114	0xbde24da9	-0.11049969
115	0xbdd65018	-0.104644954
116	0xbd4d4188	-0.050111324
117	0x3dcdc03b	0.10046431
118	0xbd9b5bdc	-0.0758588
119	0xbc762fc8	-0.01502604
120	0xbd95d13d	-0.073153
121	0x3e1e0c9c	0.15434498
122	0xbdc01478	-0.09378904
123	0x3c032582	0.008004548
124	0x3d3fd139	0.04683039
125	0x3de17b05	0.11009792
126	0x3c86324b	0.016381403
127	0xbd42de3f	-0.04757523
128	0x3d600691	0.054693762
129	0x3ddde094	0.108338505
130	0x3d8cdd66	0.06878166
131	0x3d97666e	0.07392584
132	0xbd91122d	-0.07083545
133	0xbd724b54	-0.05915387
134	0xbd7cecb2	-0.061749168
135	0x3e49d9fe	0.19712064
136	0xbd87764d	-0.06614361
137	0xbdc080c9	-0.09399564
138	0x3d91bf40	0.07116556
139	0xbdd0b273	-0.101902865
140	0x3d34f153	0.044175457
141	0xbe405448	-0.18782151
142	0xbc87215d	-0.016495401
143	0xbc715bef	-0.014731391
144	0xbdbff97a	-0.09373756
145	0x3c9aa047	0.018875254
146	0x3e07b230	0.13251567
147	0xbbbb441e	-0.0057149073
148	0xbd9cc4eb	-0.076547466
149	0xbd9ae1bf	-0.07562589
150	0xbe07f11e	-0.13275573
151	0x3dad16bf	0.08451604
152	0xbe266af1	-0.16251732
153	0x3caa1018	0.020759627
154	0xbc1f2348	-0.009713002
155	0x3df65c79	0.120293565
156	0x3e1fd1d6	0.1560739
157	0x3d78bfca	0.06072978
158	0xbd38c93f	-0.0451138
159	0x3e00e23a	0.12586299
160	0x3df45207	0.11929708
161	0x3d35aeff	0.044356342
162	0xbe029e5a	-0.12755719
163	0xbdaa2609	-0.08308036
164	0x3a93b728	0.0011269795
165	0x3d3ca6cf	0.04605752
166	0xbd6fc9dc	-0.058542117
167	0xbce8605e	-0.028366264
168	0xbe43a8bf	-0.1910734
169	0xbd670e79	-0.056410287
170	0x3d969934	0.0735344
171	0xbe21ddca	-0.15807262
172	0x3d7d9e88	0.061918765
173	0x3dd65e6f	0.104672305
174	0x3d841397	0.06449049
175	0xbd31a3a8	-0.043368965
176	0x3e0433ea	0.12910429
177	0xbd9824b5	-0.07428876
178	0xbdb3b729	-0.087751694
179	0xbc7b0659	-0.015321338
180	0x3e0ab0e6	0.13544044
181	0x3d1f1f60	0.03884828
182	0xbdafa9bf	-0.085772984
183	0x3cc7f500	0.024408817
184	0xbe4d1621	-0.20027973
185	0xbcb8c647	-0.022555484
186	0x3d2a377e	0.041556828
187	0xbd1093eb	-0.035297316
188	0xbdea4eaf	-0.11440789
189	0xbd9d5486	-0.07682137
190	0xbe21bc97	-0.15794598
191	0xbd58236a	-0.05276815
192	0xbcce4a74	-0.025181986
193	0xbd31322e	-0.043260746
194	0x3e28719b	0.16449587
195	0x3d5a445f	0.05328786
196	0x3e026d44	0.12736994
197	0xbcb68895	-0.022281924
198	0xbc76ce89	-0.01506389
199	0x3e1ee635	0.15517505
200	0xbd15120a	-0.036394157
201	0xbe69af8e	-0.22820875
202	0x3cb77359	0.02239387
203	0x3dc2e073	0.095154665
204	0x3dbc4f2b	0.091947876
205	0xbd1bb9fa	-0.038019158
206	0x3db9ae2b	0.09066423
207	0xbcb6b0cc	-0.0223011
208	0xbdc4c6e8	-0.09608251
209	0xbe44f447	-0.1923381
210	0xbd4effcd	-0.05053692
211	0x3d5ebb5a	0.05437789
212	0xbd5a4208	-0.05328563
213	0xbdabbcae	-0.08385597
214	0xbcabaaaa	-0.020955402
215	0x3e52cdbd	0.20586295
216	0x3d957199	0.07297058
217	0x3d301a95	0.0429941
218	0xbd863ab9	-0.06554169
219	0x3da6b520	0.081400156
220	0x3d882baf	0.06648957
221	0xbc1e715e	-0.0096705835
222	0xbb4d24eb	-0.0031302522
223	0xba5265e9	-0.000802605
224	0xbdf2c5f4	-0.11854163
225	0x3d8b32b7	0.067967825
226	0xbd2e4a11	-0.042551104
227	0xbde83816	-0.113388225
228	0x3dd449e4	0.10365656
229	0x3d4825ad	0.048864055
230	0x3da1d95f	0.07902788
231	0x3d07d964	0.033166304
232	0x3dc6ea99	0.09712715
233	0x3d92a40c	0.07160196
234	0xbdc42b3e	-0.0957856
235	0x3cd2049c	0.025636964
236	0xbdd787d4	-0.10523954
237	0xbe1fb468	-0.15596163
238	0x3d0cdc32	0.034389682
239	0xbd6a9268	-0.05726853
240	0xbc93eeff	-0.018058298
241	0xbe1dbfac	-0.15405148
242	0x3e0e9110	0.13922524
243	0xbbf98ae4	-0.007615434
244	0x3dee57ec	0.116378635
245	0x3db6f46e	0.0893334
246	0x3c04c993	0.0081047
247	0x3c97ac5b	0.018514803
248	0x3e226604	0.15859228
249	0xbcbe91c7	-0.023262871
250	0x3dd0cca4	0.10195282
251	0xbbb7f9e6	-0.005614507
252	0xbdbbc26c	-0.091679424
253	0x3daeac6a	0.08528979
254	0xbc649256	-0.013950905
255	0x3d22e71e	0.03977119

actor.0.bias f4 [256]
0	0xbc9b0381	-0.01892257
1	0xbd49d7d8	-0.04927811
2	0xbc61be60	-0.013778299
3	0xbcb1a57b	-0.021685353
4	0xbc8fc579	-0.017550217
5	0x3be5e653	0.007015982
6	0x3d2fbedf	0.04290664
7	0x3d074aab	0.033030193
8	0xbb915a81	-0.0044358377
9	0x3d42dd6c	0.047574446
10	0x3d28aeef	0.041182455
11	0x3c68b98e	0.014204396
12	0x3d800134	0.062502295
13	0x3c75aadb	0.014994348
14	0xbce65042	-0.028114442
15	0x3ab413c5	0.0013738802
16	0x3c769397	0.015049837
17	0x3c79f88d	0.015257013
18	0x3cc88eb1	0.024482103
19	0xbd0d02ea	-0.034426607
20	0x3cd23812	0.025661502
21	0x3b44c7da	0.0030026347
22	0x3d4a7b1e	0.04943382
23	0xbd54ee88	-0.051985294
24	0x3c6170d4	0.0137598105
25	0xbd737004	-0.059433
26	0xbca5359b	-0.020167163
27	0x3cee719f	0.029106913
28	0xbd4428f2	-0.04789061
29	0xbcd9c678	-0.026583895
30	0x3d0c0128	0.03418079
31	0xbd1f112e	-0.038834743
32	0x3c3d7eee	0.011565907
33	0x3d50e9af	0.051004108
34	0x3cc294f0	0.02375266
35	0xbd18ea59	-0.037332866
36	0xbd32ffe7	-0.04370108
37	0x3d13ba07	0.03606608
38	0x3d7ab162	0.06120432
39	0xbce5eda1	-0.028067412
40	0x3d6c093a	0.057625987
41	0xbc9bd777	-0.01902364
42	0x3d6b76ce	0.057486348
43	0x3d41a253	0.047273945
44	0xbd4855f5	-0.0489101
45	0x3d315e48	0.043302804
46	0xbcd2e01e	-0.025741633
47	0x3d7d6290	0.061861575
48	0x3d6bf291	0.057604376
49	0xbcdae1f2	-0.026719067
50	0xbd1fed7a	-0.039044835
51	0x3d3f1968	0.04665509
52	0x3be1818a	0.0068818973
53	0x3cca125d	0.02466696
54	0xbd36d481	-0.044636253
55	0xbd35a712	-0.044348784
56	0xbc9bc019	-0.019012498
57	0x3bf1a598	0.0073744766
58	0xbc119503	-0.008885625
59	0x3ccf9ee6	0.025344323
60	0x3c8e7c3a	0.01739322
61	0xbd477744	-0.048697725
62	0xbd8145dc	-0.06312153
63	0x3d6dec6f	0.05808681
64	0xbd8b4df0	-0.06801975
65	0xbd52fdcf	-0.051511582
66	0xbc999052	-0.018745575
67	0x3c54b05a	0.012981499
68	0x3cd6f5d5	0.026240269
69	0xbcc95a48	-0.024579182
70	0xbcde692d	-0.027149761
71	0xbbe3cfd3	-0.006952265
72	0x3d06a4d5	0.03287204
73	0xbc6a290f	-0.014292016
74	0x3c9dbcce	0.019255068
75	0xbd60114d	-0.054704
76	0xbc7d9b0c	-0.015478861
77	0x3c857845	0.0162927
78	0xbcd80bc4	-0.026372798
79	0xbd0bb2c6	-0.03410604
80	0x3d0fa08e	0.035065226
81	0xbd6269f9	-0.055276845
82	0xbd43e881	-0.047829155
83	0x3d5a2457	0.053257313
84	0x3d234dee	0.03986924
85	0xbd621330	-0.05519408
86	0xbd577eb2	-0.05261106
87	0xbd3cd18c	-0.046098277
88	0x3d10ca7e	0.03534936
89	0xbd25c7e8	-0.04047385
90	0xbd85c2e3	-0.06531312
91	0x3d10aa5d	0.03531872
92	0xbce4bba9	-0.027921515
93	0x3bcef87c	0.0063162427
94	0xbd215d8a	-0.039395846
95	0x3cdef898	0.027218148
96	0x3cfe2177	0.031021817
97	0x3d8027a8	0.06257564
98	0xbd3d66a7	-0.046240475
99	0x3c91f20b	0.01781561
100	0xbc96baff	-0.018399714
101	0xbb99e9e4	-0.0046970714
102	0xbd6b1c4c	-0.057400033
103	0xbd544edc	-0.05183302
104	0x3c198846	0.009370869
105	0xbd29e333	-0.04147644
106	0x3cf87782	0.030330423
107	0x3b838976	0.0040141894
108	0x3c2cd3b8	0.010548525
109	0x3b1a302f	0.0023527255
110	0xbcc482cd	-0.023988152
111	0x3cf37fde	0.029724058
112	0x3d162977	0.036660638
113	0xbd33e727	-0.043921616
114	0x3c1331a3	0.008984002
115	0x3cd60349	0.026124613
116	0xbccc9fd8	-0.024978563
117	0xbd383733	-0.044974517
118	0xbcad04e2	-0.021120492
119	0xbd717519	-0.058949564
120	0xbcf62d11	-0.030050786
121	0xbc6a1dbe	-0.014289318
122	0xbc909a7c	-0.017651789
123	0xbd2247b6	-0.03961917
124	0x3d001c2d	0.03127687
125	0x3d645e63	0.055754077
126	0xbcd0e956	-0.025501888
127	0xbd35f5df	-0.044423934
128	0xbc11b8d0	-0.00889416
129	0xbce772e0	-0.028253019
130	0x3d3e0ca9	0.046398792
131	0x3c5da275	0.013527502
132	0xbd415a01	-0.047204975
133	0x360dd305	2.1133467e-06
134	0xbc948978	-0.018131956
135	0xbd30c3de	-0.043155544
136	0xbd2a912f	-0.041642364
137	0xbd72f91a	-0.059319593
138	0xbd05f13f	-0.032700773
139	0xbb3f217d	-0.0029164248
140	0xbd81d1f3	-0.06338873
141	0x3d0949b6	0.03351756
142	0x3d0c0202	0.034181602
143	0x3cfb6fe2	0.030692998
144	0x3d5c776c	0.053824827
145	0xbb9e3269	-0.0048277867
146	0x3cf76032	0.030197237
147	0x3c796591	0.015221969
148	0xbc52acfe	-0.012858627
149	0x3c53735d	0.012905923
150	0x3d2d80f5	0.04235931
151	0x3d171294	0.03688295
152	0xbc8021ba	-0.015641082
153	0x3d628fb8	0.055312842
154	0x3d638af0	0.055552423
155	0x3d11a21e	0.035554998
156	0xbd2ff6d3	-0.04296
157	0x3d069403	0.032856
158	0x3b863cf7	0.004096623
159	0xbd1018b2	-0.0351798
160	0xbd73e908	-0.059548408
161	0x3c80bfe0	0.015716493
162	0x3ce6ffa5	0.028198073
163	0x3caa3007	0.020774854
164	0xbcfab9ff	-0.030606268
165	0xbd674e8d	-0.056471396
166	0x3d93aae3	0.072103284
167	0x3c6ec398	0.014573
168	0x3cad1dfb	0.02113246
169	0x3a57b0cb	0.00082279433
170	0xbd32d57d	-0.04366063
171	0x3d384775	0.04499002
172	0x3c3cc143	0.011520687
173	0x3d43a2c3	0.047762644
174	0xbd21a9a2	-0.039468415
175	0xbb6c4430	-0.0036051385
176	0x3d2dcba5	0.04243054
177	0x3d362de0	0.044477344
178	0x3cec1756	0.028819721
179	0x3d650252	0.055910416
180	0xbd3abdf6	-0.045591317
181	0xbd39f144	-0.045396104
182	0xbd1663fe	-0.036716454
183	0x3d46b0fb	0.048508625
184	0x3d014c78	0.031567067
185	0xbc0dca19	-0.008654141
186	0x3d1f7a6b	0.038935106
187	0xbce183f5	-0.027528742
188	0xbd65636f	-0.05600303
189	0xbc8d2232	-0.01722822
190	0xbbcd148e	-0.006258554
191	0xbd1f5d8b	-0.03890757
192	0xbd01a51f	-0.031651612
193	0xbd525cd9	-0.051358078
194	0xbd21f905	-0.039544124
195	0xbcf42f8b	-0.029807827
196	0x3d3bed08	0.045880347
197	0x3d5eb921	0.05437577
198	0x3cf22d72	0.029562686
199	0x3d824d23	0.06362369
200	0xbd58de8f	-0.052946623
201	0x3ca0f9a3	0.019650286
202	0x3d40b0e4	0.047043696
203	0xbb8211fb	-0.0039694286
204	0xbd4b1bba	-0.04958699
205	0x3c8bdbe5	0.017072627
206	0xbc91da01	-0.017804148
207	0xbc8991e7	-0.016793204
208	0x3cefd453	0.029276049
209	0xbc9294a2	-0.01789314
210	0xbcefb43b	-0.029260745
211	0xbd001f75	-0.03128
212	0x3d0b9dca	0.034086026
213	0xbcdc9597	-0.026926799
214	0x3d8493ef	0.064735286
215	0x3d05e0ed	0.03268521
216	0x3bb43a71	0.005500131
217	0x3b31834d	0.0027086318
218	0xbc123d56	-0.008925756
219	0xbcf427bc	-0.029804103
220	0xbd3e98e8	-0.04653254
221	0xbd6e894c	-0.058236405
222	0xbcdf183e	-0.02723324
223	0x3c71e1cc	0.014763307
224	0x3d5fb97f	0.054620262
225	0x3d71df3b	0.05905078
226	0xbbfe74ed	-0.0077654035
227	0x3c90319e	0.017601784
228	0x3d80db53	0.06291833
229	0x3d86f1cc	0.06589088
230	0xbd7c0f72	-0.061538167
231	0xbd26fb90	-0.040767252
232	0x3c4b5575	0.012410511
233	0xbcd026a5	-0.025409052
234	0x3c18149f	0.00928226
235	0xbd57b633	-0.052663993
236	0xbd34e0a8	-0.04415956
237	0x3c6a9fff	0.014320373
238	0xbd197d4c	-0.037473008
239	0xbd6bc112	-0.057557173
240	0xbc7d1fcd	-0.015449476
241	0x3cfd7f95	0.030944625
242	0xbd193dd7	-0.03741249
243	0xbc16560b	-0.009175788
244	0xbda16370	-0.07880294
245	0x3d33989b	0.043846708
246	0x3cd3dc16	0.025861781
247	0xbcf3ce8d	-0.029761577
248	0x3caa5a35	0.020794967
249	0x3c9018f5	0.017590025
250	0x3d16323a	0.036668994
251	0x3d21a2dd	0.03946196
252	0x3d433a69	0.047663126
253	0x3ce161e0	0.02751249
254	0x3c8358a2	0.016033474
255	0x3d2a008f	0.04150444

actor.2.weight f4 [128, 256]
0	0xbd0ccb99	-0.034373853
1	0x3e2ad846	0.16684064
2	0xbe1f6956	-0.15567526
3	0x3c28daf5	0.01030611
4	0xbd6ea0d7	-0.058258858
5	0xbdf5b72e	-0.119978294
6	0x3d1d76db	0.038443428
7	0x3db931b2	0.09042682
8	0x3cfd90f9	0.030952917
9	0x3e28b817	0.16476475
10	0xbd85c422	-0.0653155
11	0xbd95793d	-0.07298515
12	0xbd7cf836	-0.06176015
13	0x3dea16b9	0.11430115
14	0x3c8a7d5e	0.016905483
15	0x3d8b6874	0.06807032
16	0xbe26b7b6	-0.16281018
17	0xbd939e24	-0.07207897
18	0xbdea667c	-0.114453286
19	0x3e070bac	0.13188046
20	0x3e720d90	0.23637986
21	0xbcb47f00	-0.022033215
22	0xbdfca0b8	-0.12335342
23	0x3d9f77b4	0.077865034
24	0xbe286215	-0.16443665
25	0xbe110fe7	-0.14166223
26	0x3c3e0dd5	0.0115999775
27	0x3d1e81d8	0.038698047
28	0xbd8bd066	-0.06826858
29	0x3ce688bd	0.028141374
30	0xbd1bbf91	-0.03802449
31	0xbc83e10b	-0.01609852
32	0x3d000e95	0.031263907
33	0x3b947755	0.004530827
34	0x3d98c364	0.07459143
35	0x3cac03c0	0.020997882
36	0xbe651436	-0.22370991
37	0x3bfd4198	0.0077287666
38	0x3d849f20	0.06475663
39	0xbd20d972	-0.039269872
40	0x3dbcd30c	0.092199415
41	0x3e0654a2	0.13118222
42	0xbd934e2e	-0.07192646
43	0x3cb7b8e8	0.022427037
44	0x3d33c54d	0.043889333
45	0xbd837476	-0.064186975
46	0x3cf05420	0.029336989
47	0x3c51d3d5	0.012806852
48	0x3d099ef5	0.03359886
49	0xbe44c7c6	-0.19216833
50	0xbb4ef84b	-0.00315811
51	0x3d9d37a8	0.07676631
52	0xbca45744	-0.020061143
53	0xbdc66d8a	-0.09688862
54	0x3d393dbd	0.045224894
55	0xbcf8ef47	-0.030387534
56	0xbe1076b5	-0.14107783
57	0x3d064f79	0.032790635
58	0xbb766405	-0.0037596237
59	0xbd50030a	-0.05078415
60	0xbc80b2e7	-0.015710307
61	0x3e0dd009	0.1384889
62	0x3d9cb9a2	0.07652594
63	0xbe604993	-0.21903066
64	0x3d5d7c98	0.0540739
65	0xbdcf4626	-0.10120802
66	0x3d03da5c	0.032190666
67	0xbd91d66d	-0.071209766
68	0xbc06d154	-0.008228619
69	0xbd99cad3	-0.07509389
70	0xbd8d4053	-0.068970345
71	0xbd9bc849	-0.07606561
72	0xbd9d2cad	-0.07674537
73	0xbcd94ec5	-0.026526818
74	0xbd0915aa	-0.033467926
75	0x3dfdae1d	0.12386725
76	0xbdf100f4	-0.1176776
77	0x3cc7ed4b	0.024405142
78	0xbd0ce644	-0.034399286
79	0x3d620e3c	0.055189356
80	0x3d3c5990	0.04598385
81	0x3c4c9fe0	0.012489289
82	0x3d9bb8e6	0.07603626
83	0xbe4c0ee0	-0.1992755
84	0x3d26ff5f	0.040770885
85	0xbc8a1dbd	-0.016859883
86	0xbdcfd6b3	-0.101483725
87	0x3e6eacef	0.23308156
88	0xbcfea2ff	-0.031083582
89	0xbdb00993	-0.08595576
90	0xbb505276	-0.0031787432
91	0x3c7c6297	0.015404365
92	0x3d8884fa	0.06665988
93	0x3d0b1696	0.033957087
94	0xbc32716f	-0.0108913025
95	0x3d15cc80	0.03657198
96	0x3d063dd1	0.032773796
97	0x3c2a3d7c	0.010390636
98	0xbd0aef71	-0.033919755
99	0x3c4be33f	0.012444316
100	0xbde9e9b5	-0.11421529
101	0x3e272ec6	0.16326436
102	0x3d9b23d4	0.07575193
103	0x3e247a2b	0.16062228
104	0x3d0ef760	0.034903884
105	0xbce62e07	-0.02809812
106	0x3d6b2534	0.057408527
107	0x3d5faa58	0.05460581
108	0xbd9fe328	-0.078069985
109	0x3cec2c39	0.02882968
110	0x3d9497dd	0.07255528
111	0x3c8837a5	0.016628096
112	0xbd9138b4	-0.070908934
113	0x3c5fc455	0.013657649
114	0xbddf8879	-0.10914702
115	0xbe028b69	-0.12748493
116	0x3dab209e	0.083558306
117	0xbc4a5a3c	-0.012350615
118	0xbdb5f741	-0.088850506
119	0xbbf11cf6	-0.0073581887
120	0xbd00c464	-0.031437293
121	0x3e253711	0.16134287
122	0x3d29d5e5	0.04146375
123	0xbdd73ca1	-0.10509611
124	0xbd9750a3	-0.07388427
125	0x3d970734	0.07374421
126	0x3d313304	0.043261543
127	0x3dd9cd32	0.10634841
128	0x3d40578a	0.046958484
129	0x3c1f9874	0.0097409375
130	0x3d3e7340	0.04649663
131	0x3d6e1b3d	0.058131445
132	0xbd73ba91	-0.059504095
133	0x3e22ffbc	0.15917867
134	0xbd5ac214	-0.053407744
135	0x3cd74900	0.026279926
136	0xbc75dde3	-0.015006515
137	0x3e16bced	0.14720507
138	0xbde8f22a	-0.11374314
139	0xbe2a47f7	-0.16629015
140	0x3dc9a334	0.09845582
141	0x3c352a3b	0.011057432
142	0x3c40ba4b	0.011763166
143	0xbe22cc71	-0.158983
144	0xbc384803	-0.011247638
145	0xbda43bca	-0.08019216
146	0x3d91fe73	0.071286105
147	0x3d3b6351	0.045749012
148	0x3d1fed81	0.03904486
149	0x3da5e1ec	0.08099732
150	0x3d901ff2	0.07037343
151	0x3d5dc043	0.054138433
152	0xbd00a220	-0.031404614
153	0x3e0452e8	0.12922251
154	0xbc797f62	-0.015228124
155	0x3c13481f	0.008989363
156	0x3d03510a	0.032059707
157	0xbdc0a543	-0.09406521
158	0xbd0f9297	-0.03505191
159	0xbd64887b	-0.05579422
160	0x3e80d54d	0.25162736
161	0xbe22a2c1	-0.15882398
162	0x3b203c5c	0.002445004
163	0xbcd32d57	-0.025778456
164	0x3d481775	0.048850495
165	0xbe3fd35d	-0.18732972
166	0x3cb4726c	0.022027217
167	0xbe0a2a56	-0.13492712
168	0x3d86e030	0.06585729
169	0xbcbe8810	-0.023258239
170	0x3cab0a5b	0.020878961
171	0x3d801c03	0.06255343
172	0xbde027f4	-0.109451205
173	0x3d77e8b5	0.06052466
174	0xbbf3ff7c	-0.0074462276
175	0x3c57caba	0.013170892
176	0xbd8deed3	-0.06930318
177	0x3e2b4185	0.16724212
178	0x3de175f2	0.110088244
179	0x3cd6a595	0.026202003
180	0xbd4c7d7d	-0.049924362
181	0xbde07550	-0.109598756
182	0xbdf3907b	-0.11892792
183	0x3e05b4af	0.13057207
184	0xbc248732	-0.010041999
185	0x3db13960	0.086535215
186	0x3b01a0e2	0.0019779732
187	0x3dd99c3e	0.10625504
188	0xbd31bd8e	-0.043393664
189	0xbc75dc70	-0.01500617
190	0x3ce85dc9	0.028365033
191	0x3e02ef4d	0.12786599
192	0x3d0de195	0.03463896
193	0x3d35dcde	0.04440009
194	0x3d08fc01	0.033443455
195	0xbc198d3e	-0.009372054
196	0x3bddec41	0.0067725484
197	0xbc969c33	-0.018385028
198	0x3da6cd09	0.08144576
199	0x3b9cfb1e	0.0047906777
200	0x3d8b9562	0.06815602
201	0x3c9831aa	0.01857837
202	0xbdedd9aa	-0.11613782
203	0xbd16e332	-0.036837764
204	0xbc4599cc	-0.012060594
205	0xbd8b7848	-0.06810051
206	0x3c6b9e5e	0.014381019
207	0x3d99fb7a	0.075186685
208	0x3dba25ae	0.09089218
209	0xbd81c376	-0.06336109
210	0xbbdd0f76	-0.006746228
211	0xbe158d82	-0.14604762
212	0x3d7708a6	0.060310982
213	0xbde1bc37	-0.11022227
214	0x3d32d65c	0.04366146
215	0xbe0b5a44	-0.13608652
216	0x3ba98b0a	0.0051740455
217	0xbe182b76	-0.14860329
218	0x3db41862	0.08793713
219	0xbdb813a8	-0.08988124
220	0x3d7c2db6	0.06156703
221	0xbd30b3e6	-0.043140315
222	0x3c9f4c67	0.019445611
223	0x3dac8106	0.08423047
224	0x3d8c4580	0.068491936
225	0xbdc30876	-0.09523098
226	0x3dd253cf	0.102698915
227	0xbd4fc86a	-0.05072824
228	0x3da02bdc	0.078208655
229	0xbdb5cdcb	-0.088771425
230	0x3e2635cc	0.1623146
231	0xbe0f48ff	-0.1399269
232	0x3cba942e	0.022775736
233	0x3c5774e1	0.013150425
234	0xbdb92312	-0.09039892
235	0x3cc47554	0.023981728
236	0xbdb4174a	-0.087935045
237	0x3d5ad5bf	0.0534265
238	0xbd66df02	-0.05636502
239	0xbd58642c	-0.052829906
240	0x3d9c6886	0.07637124
241	0xbc83092b	-0.015995583
242	0x3c992d57	0.018698378
243	0xbe204d77	-0.1565455
244	0x3d422795	0.04740103
245	0x3e5e3f5e	0.2170386
246	0xbdc3db6d	-0.095633365
247	0xbe1121e1	-0.1417308
248	0x3df70895	0.12062184
249	0x3c628af4	0.013827074
250	0x3becd550	0.0072275773
251	0xbdf9a529	-0.12189705
252	0xbdeced93	-0.11568751
253	0xbd2e8406	-0.042606376
254	0x3dfc0964	0.123064786
255	0xbd662425	-0.056186814

actor.2.bias f4 [128]
0	0xbd0af563	-0.033925425
1	0x3cdb647a	0.02678131
2	0xbd224c90	-0.039623797
3	0xbd0bc81d	-0.03412639
4	0xbce9def3	-0.028548693
5	0x3cf40991	0.029789718
6	0xba0d38c9	-0.0005387185
7	0xbcbd6a5b	-0.023122003
8	0x3c13b022	0.009014161
9	0x3d236a88	0.039896518
10	0x3ba378a0	0.004988745
11	0x3d744197	0.059632864
12	0xbd8586f1	-0.06519879
13	0xbd88aaf6	-0.06673233
14	0xbc9e2eba	-0.01930939
15	0xbd27d984	-0.040978923
16	0x3ba710ab	0.0050984225
17	0xbd4224bb	-0.04739831
18	0xbca4d61b	-0.020121625
19	0x3b2f9f3a	0.0026797787
20	0x3cc5a568	0.024126723
21	0xbd622d7a	-0.05521915
22	0xbd855288	-0.06509882
23	0x3d325ca7	0.04354539
24	0xbd1c8e85	-0.038221855
25	0xbd2ee8b7	-0.042702403
26	0xbca6fa97	-0.020383162
27	0x3d11e3b2	0.035617538
28	0xbd0d9fe7	-0.034576323
29	0xbc36f885	-0.01116765
30	0x3d498350	0.049197495
31	0x3d4f6ac9	0.050638948
32	0xbbae1051	-0.0053120037
33	0xbd71b7be	-0.05901312
34	0x3cff2f03	0.031150347
35	0xbbdbb818	-0.0067052953
36	0xbab62f72	-0.0013899638
37	0x3d30e845	0.04319026
38	0xbba91078	-0.005159434
39	0xbd5ac514	-0.053410605
40	0x3bfee6b8	0.0077789687
41	0x3c2b4a33	0.010454702
42	0xbd175469	-0.036945734
43	0xbc28edd8	-0.010310613
44	0x3bb07878	0.0053854547
45	0xbd4219bb	-0.04738782
46	0x3cc9a0fe	0.0246129
47	0xbd69c19e	-0.057069413
48	0xbca8980a	-0.02058031
49	0x3d37e815	0.044899065
50	0xbd658a55	-0.056040127
51	0xbc04d55c	-0.008107509
52	0xbc957ec1	-0.018248918
53	0xbd145a1d	-0.03621875
54	0x3cea8d00	0.028631687
55	0x3d486c2a	0.04893128
56	0xbd299afe	-0.041407578
57	0x3d414eeb	0.047194403
58	0xbcd3d622	-0.025858942
59	0xbc02abc5	-0.007975523
60	0x3d12fe3a	0.03588698
61	0xbafac9b1	-0.0019133595
62	0x3d15c8a9	0.036568318
63	0x3c82bdb0	0.01595959
64	0x3c75fb83	0.015013578
65	0x3d0c6cdb	0.0342835
66	0xbc336ae6	-0.01095078
67	0x3ae665f3	0.0017577991
68	0x3d03bc30	0.03216189
69	0xbc32ab8b	-0.010905157
70	0x3d34ef24	0.044173375
71	0xbca77e17	-0.020445867
72	0x3cd6ebe6	0.026235532
73	0xbd163001	-0.036666874
74	0xbd80676f	-0.062697284
75	0x3d06b137	0.03288385
76	0xbcc9dfb8	-0.02464281
77	0x3d12088a	0.035652675
78	0xbc777f42	-0.015106024
79	0xbcafbd7b	-0.021452656
80	0xbcba35b4	-0.022730686
81	0xbd6f50e5	-0.058426756
82	0x3ce3c83d	0.027805442
83	0xbbfe2a42	-0.0077565024
84	0xbd41ec98	-0.047344774
85	0x3d784585	0.060613174
86	0x3d4b6908	0.049660712
87	0xbd5ac2f9	-0.053408597
88	0x3d578a02	0.05262185
89	0xbd4e769c	-0.050406083
90	0xbd323a0e	-0.043512397
91	0xbcdac311	-0.026704343
92	0xbd615f72	-0.055022664
93	0xbcec4acf	-0.028844265
94	0x3cc72854	0.024311222
95	0x3c7b5f34	0.015342522
96	0xbd1b01ed	-0.037843633
97	0x3bdfce4e	0.0068300134
98	0x3b6adc43	0.0035836853
99	0x3c8da55e	0.017290767
100	0x3ced2756	0.02894942
101	0x3ba11c25	0.004916685
102	0xbd652d5d	-0.055951465
103	0xbd785a03	-0.060632717
104	0xbd619718	-0.055075735
105	0xbca4b8cd	-0.020107651
106	0x3d752573	0.059850167
107	0x3bffba49	0.0078041893
108	0xbcf3951c	-0.029734187
109	0xbd87d6aa	-0.06632741
110	0x3ca5ad21	0.020224156
111	0xbcaccd0b	-0.021093866
112	0xbd3b5f99	-0.045745466
113	0xbd2a060a	-0.041509666
114	0x3d06fc43	0.03295542
115	0x3d1013cb	0.035175126
116	0xbcccd12a	-0.025002081
117	0x3c3562ad	0.011070889
118	0x3d768e8c	0.060194537
119	0xbd5f66d1	-0.054541413
120	0xbd2a88dc	-0.041634426
121	0xbca80d3c	-0.020514123
122	0xbcc25079	-0.023720013
123	0xbd6776f4	-0.056509927
124	0xbd57144b	-0.052509587
125	0xbcb4836e	-0.022035327
126	0x3c89fee0	0.016845167
127	0x3c7743d3	0.015091854

actor.4.weight f4 [64, 128]
0	0xbd78140e	-0.060566
1	0xbc9651ee	-0.018349614
2	0x3dd50904	0.1040211
3	0xbdf790c0	-0.12088156
4	0xbdf65e65	-0.12029723
5	0x3b7a9902	0.0038238172
6	0x3d8f514d	0.06997929
7	0xbe865860	-0.262393
8	0x3d085b42	0.033290155
9	0xbe856608	-0.26054406
10	0x3e052bf9	0.13005055
11	0x3e36c21c	0.17847484
12	0xbdd2e7c8	-0.10298115
13	0x3cf778ec	0.030209027
14	0x3d2269d8	0.03965172
15	0xbdcadf5a	-0.09905882
16	0x3e12d796	0.14340052
17	0xbd4a21c5	-0.04934861
18	0x3e377750	0.17916608
19	0xbdbb6f49	-0.09152085
20	0xbd7dd9a4	-0.061975136
21	0x3b06cdd2	0.0020569456
22	0x3df441ad	0.11926589
23	0xbb1d95e1	-0.0024045634
24	0xbdf59567	-0.11991387
25	0x3ceecfda	0.029151846
26	0x3d874542	0.06605007
27	0xbe519836	-0.2046822
28	0x3ce0f936	0.027462583
29	0xbcf53a52	-0.029935036
30	0x3d035027	0.03205886
31	0x3df156ed	0.11784158
32	0xbc91725a	-0.017754722
33	0x3e93d6b3	0.2887474
34	0xbd56628c	-0.052340075
35	0x3d0815e5	0.033224005
36	0x3c5df34d	0.013546777
37	0x3c27dcf6	0.010245552
38	0xbc6dfad1	-0.014525131
39	0xbdb23a75	-0.08702556
40	0xbd11593f	-0.035485502
41	0xbd09863a	-0.033575274
42	0xbe592d95	-0.21208794
43	0xbe57dedf	-0.21081112
44	0x3b467085	0.003027947
45	0x3d913afe	0.0709133
46	0x3d30ba2c	0.043146297
47	0xbdb8edfd	-0.09029768
48	0xbd79f026	-0.06102004
49	0x3d6a5f20	0.057219625
50	0x3de4d8af	0.111741416
51	0x3d8ac723	0.067762636
52	0x3e99a086	0.30005282
53	0xbdf09cc0	-0.11748648
54	0xbc2f8224	-0.01071218
55	0xbbd44f9e	-0.0064792177
56	0x3e0eb051	0.13934447
57	0xbe912873	-0.28351173
58	0x3d205f87	0.039153602
59	0xbda4132b	-0.080114685
60	0xbca12107	-0.019669069
61	0xbc2e99a4	-0.010656748
62	0x3e4e3b82	0.20139888
63	0x3dd92f0d	0.10604677
64	0x3e8ce11f	0.27515504
65	0x3d0029db	0.031289916
66	0xbebc534a	-0.36782295
67	0x3dd4d621	0.10392404
68	0xbdd5f9b1	-0.104480155
69	0xbdbcd427	-0.09220152
70	0xbda05254	-0.07828203
71	0x3e1dcdd7	0.15410553
72	0x3e6020d3	0.21887521
73	0x3ea06068	0.31323552
74	0x3e522084	0.20520216
75	0x3ce21622	0.027598444
76	0xbded4328	-0.11585075
77	0x3c1aa242	0.009438099
78	0x3e18dad1	0.14927222
79	0xbdf7d3d6	-0.121009514
80	0xbdc2e89a	-0.095170215
81	0x3c634d4b	0.013873409
82	0x3dc86fcf	0.09786951
83	0xbc5150b6	-0.012775591
84	0xbe7de779	-0.24795331
85	0xbdd376b2	-0.10325374
86	0xbdc10c80	-0.09426212
87	0xbdccc12f	-0.09997784
88	0x3e1c2f42	0.15252402
89	0xbe6a7452	-0.22895935
90	0xbcf5ff3d	-0.030028934
91	0xbde661ee	-0.11249147
92	0xbc8a45e9	-0.016879039
93	0x3d8e9c7a	0.06963439
94	0x3d49c372	0.049258657
95	0xba9d76f7	-0.0012013604
96	0x3d2eba27	0.042657997
97	0xbd9ca662	-0.076489225
98	0x3d0b437e	0.033999912
99	0xbdba0b9c	-0.090842456
100	0xbb06e872	-0.0020585326
101	0xbd817ffe	-0.06323241
102	0x3a9c9e84	0.0011949097
103	0x3d5c68d7	0.05381092
104	0xbd80a7cc	-0.06282005
105	0xbdaf5354	-0.085608155
106	0xbd56f1d7	-0.05247673
107	0xbd15ac2f	-0.03654116
108	0x3d462c56	0.048382126
109	0x3e10476b	0.14089744
110	0x3e006a6d	0.12540598
111	0x3e00f4c1	0.12593366
112	0x3e017c77	0.12645136
113	0x3db58cf5	0.08864776
114	0xbe5de03f	-0.21667574
115	0x3da576a9	0.08079273
116	0x3d3506fd	0.044196118
117	0xbd4a512a	-0.04939381
118	0xbe05d665	-0.13070066
119	0xbe1a415d	-0.15063997
120	0xbe5bf35d	-0.21479554
121	0x3e1dc820	0.15408373
122	0xbe00b563	-0.12569194
123	0x3c8894d7	0.016672535
124	0x3e264670	0.16237807
125	0x3e20fecf	0.15722202
126	0xbcadcba1	-0.021215262
127	0x3d7d5402	0.061847694
128	0x3d57f76c	0.052726194
129	0xbd3c9bc2	-0.04604698
130	0x3e20ba33	0.1569603
131	0x3d815722	0.063154474
132	0x3ce37c07	0.027769102
133	0xbe3e5fdc	-0.18591255
134	0xbe3ab8a5	-0.18234499
135	0xbdd08a2c	-0.10182604
136	0x3e36b9cd	0.17844315
137	0x3dc66527	0.09687262
138	0x3de1736e	0.110083446
139	0xbdeb0e24	-0.114773065
140	0x3e173f09	0.1477014
141	0x3e3b3ce2	0.18284944
142	0xbdb8ffb2	-0.09033145
143	0xbdcd3697	-0.10020178
144	0x3eaba790	0.33526278
145	0x3e382740	0.17983723
146	0x3dc36f05	0.0954266
147	0xbe3feabc	-0.18741888
148	0xbd1907ec	-0.03736107
149	0x3d7989ec	0.06092255
150	0xbdb2895b	-0.08717605
151	0xbe942be8	-0.28939748
152	0x3ca85720	0.020549357
153	0x3c0afd84	0.008483294
154	0xbbf77790	-0.0075520948
155	0x3c846293	0.016160285
156	0x3dc02eb3	0.09383907
157	0x3db385d4	0.0876576
158	0xbe3706f9	-0.17873754
159	0xbcaca950	-0.021076828
160	0x3d9b3889	0.075791426
161	0x3e250bc3	0.16117768
162	0x3d81daa8	0.063405335
163	0x3e1175d4	0.14205104
164	0x3d8c0ea7	0.06838732
165	0x3d24a81c	0.040199384
166	0x3e14d8cd	0.14535828
167	0x3e3360c1	0.17517377
168	0xbe14684d	-0.14492913
169	0xbe497af1	-0.19675805
170	0x3c8a99b8	0.016919002
171	0x3e07155a	0.13191739
172	0x3e668d3a	0.22514811
173	0xbc8a4950	-0.016880661
174	0xbdd9669d	-0.10615275
175	0x3cd4b1e6	0.025963735
176	0x3e31763f	0.17330264
177	0x3de6c1bb	0.1126742
178	0xbd798c4c	-0.060924813
179	0xbe08795a	-0.13327542
180	0x3b8561e8	0.004070509
181	0xbe429879	-0.19003476
182	0xbd3396c7	-0.043844964
183	0x3d6779cb	0.056512635
184	0xbcfcb3e0	-0.03084749
185	0x3d6a9d7d	0.0572791
186	0xbdb969ad	-0.09053359
187	0x3e3b039a	0.18263093
188	0x3cab10e1	0.020882072
189	0xbe241f5b	-0.16027586
190	0xbe766807	-0.24063121
191	0xbcfaf5a2	-0.030634705
192	0xbc653f53	-0.013992148
193	0xbd9fa6bc	-0.07795474
194	0x3e41b528	0.18916762
195	0xbc1e96d8	-0.009679519
196	0xbd00aedf	-0.03141677
197	0xbe327d5d	-0.17430635
198	0xbdfe7cef	-0.12426173
199	0x3e08e52d	0.13368674
200	0xbde02ac2	-0.109456554
201	0x3e0e1caf	0.1387813
202	0xbe228a03	-0.1587296
203	0xbe8cd090	-0.2750287
204	0x3db3a73b	0.08772131
205	0xbdb74782	-0.08949186
206	0x3de7ec12	0.11324324
207	0x3d237d42	0.039914377
208	0xbd5cc0df	-0.053894874
209	0xbe4be093	-0.19909887
210	0x3d2338cf	0.0398491
211	0x3d6c4d3d	0.057690848
212	0xbd512c1f	-0.051067468
213	0xbe60072b	-0.21877734
214	0xbd66e189	-0.05636743
215	0x3e9d1f40	0.30687904
216	0x3dd33c4c	0.10314235
217	0xbcad8c19	-0.021184968
218	0xbd295ef3	-0.041350316
219	0xbd525fa4	-0.05136074
220	0xbd2c57b6	-0.042075835
221	0xbc3e232f	-0.011605068
222	0xbdbe6ec8	-0.092984736
223	0x3d16b964	0.036797896
224	0x3d01112d	0.03151052
225	0x3dca87cd	0.09889183
226	0x3d1c818b	0.03820948
227	0xbe241cb4	-0.16026574
228	0xbd21c842	-0.03949762
229	0xbe5503bc	-0.20802206
230	0x3dc67f9d	0.09692309
231	0x3e52038f	0.2050917
232	0xbe3a26dd	-0.18178888
233	0x3dd66f4f	0.10470449
234	0xbd9d8b32	-0.07692565
235	0xbdc95840	-0.098312855
236	0x3ddd6351	0.10809959
237	0xbde55c6e	-0.1119927
238	0xbad77347	-0.0016437554
239	0x3dbf79a3	0.09349372
240	0x3d1ceb1f	0.038310166
241	0x3ddbafae	0.107268676
242	0x3d8e6043	0.06951954
243	0x3e0ed4b6	0.1394833
244	0xbe0f6937	-0.1400498
245	0xbd8b76af	-0.068097465
246	0xbdb54e60	-0.088528395
247	0xbd22fbc8	-0.0397909
248	0xbd21d5d8	-0.039510578
249	0xbe100145	-0.14062984
250	0xbd804c92	-0.06264605
251	0x3e35099c	0.17679447
252	0x3b077c95	0.0020673622
253	0xbe2b1a26	-0.16709194
254	0xbe510ea0	-0.20415735
255	0x3d51cf80	0.051223278

actor.4.bias f4 [64]
0	0x3bca08b1	0.006165587
1	0xbb664ed3	-0.0035142198
2	0xbd814d3d	-0.0631356
3	0xbb7856c7	-0.003789352
4	0xbdb03120	-0.0860312
5	0x3d118b71	0.035533372
6	0x3d11bbb9	0.035579417
7	0x3d9bc639	0.07606167
8	0xbda89ec6	-0.08233409
9	0x3d0cd80f	0.034385737
10	0x3c354feb	0.011066417
11	0xbcd8555b	-0.026407888
12	0x3d6be591	0.05759198
13	0x3cc385ad	0.023867453
14	0xbaa834e7	-0.0012833149
15	0x3d06513c	0.032792315
16	0x3d11862d	0.03552835
17	0xbc26b146	-0.010174101
18	0x3cf22eee	0.029563393
19	0xbd8020e6	-0.06256275
20	0x3d3d0626	0.04614844
21	0xbda676f4	-0.08128157
22	0xbc489545	-0.01224262
23	0xbbc82a0e	-0.006108529
24	0x3da3a474	0.07990351
25	0x3da09ae0	0.0784204
26	0x3d778ff5	0.060440022
27	0x3b38a4e3	0.0028174452
28	0x3d9cabaf	0.076499335
29	0x3d7f5e56	0.062345825
30	0xbd582b94	-0.052775934
31	0xbdb6d5e4	-0.08927515
32	0xbd81255a	-0.06305952
33	0x3d823ab2	0.063588515
34	0xbd1aa110	-0.037751257
35	0xbc01e46b	-0.007927994
36	0x3d5280d0	0.051392376
37	0x399b0cac	0.00029573345
38	0x3c4f312a	0.012645999
39	0x3d8c9454	0.06864229
40	0xbc8cfca7	-0.017210318
41	0xbcfd315c	-0.030907325
42	0xbd8aa55e	-0.067698225
43	0xbd3c5380	-0.04597807
44	0xbcc089c2	-0.023503188
45	0xbd08f5c7	-0.033437517
46	0x3d80addf	0.06283163
47	0xbdad0903	-0.084489845
48	0xbc4810cf	-0.012211039
49	0xbd0c8476	-0.034306012
50	0x3d095842	0.033531435
51	0x3d9fc08f	0.078003995
52	0xbce3adbb	-0.027792802
53	0xbdaa0954	-0.083025604
54	0x3d83078f	0.06397926
55	0x3d1ada5e	0.037805907
56	0x3d74003e	0.059570543
57	0xbd141d24	-0.036160603
58	0xbbbdd321	-0.005792991
59	0xbd6f9551	-0.05849201
60	0xbd8959e5	-0.06706599
61	0x3d984694	0.07435337
62	0x3d04f60a	0.032461204
63	0xbd7d4cba	-0.06184075

actor.6.weight f4 [3, 64]
0	0xbbebf2f0	-0.0072005913
1	0x3adbae90	0.0016760398
2	0x3c8108ea	0.01575132
3	0x3b67f074	0.0035391124
4	0xbc7a189d	-0.015264657
5	0xbb05e3c9	-0.002042996
6	0x3b6167b7	0.0034394094
7	0xbb66e7dd	-0.0035233416
8	0xbb2fa74b	-0.0026802595
9	0xba70599d	-0.0009168627
10	0xbacd251f	-0.0015651322
11	0x3a5addf5	0.0008349114
12	0xbc3825f7	-0.01123952
13	0x3d8355b8	0.06412834
14	0x3bc6ca1c	0.006066574
15	0xbc0c0b88	-0.008547671
16	0xba13a12e	-0.00056316226
17	0x3b0baa62	0.0021311273
18	0xbc5ea990	-0.013590232
19	0xbcc1af69	-0.023643212
20	0xbc808c92	-0.01569203
21	0x3bbb825d	0.0057223276
22	0x3b9f9215	0.0048697093
23	0x3b89ada6	0.0042016087
24	0xbbae634a	-0.005321895
25	0xbc06f40c	-0.008236896
26	0x3bb745c9	0.005593036
27	0x3b994ba0	0.0046782047
28	0x3b268a3c	0.0025411984
29	0xbbe94859	-0.00711922
30	0x3bbe8dd9	0.0058152494
31	0x3b526b20	0.0032107309
32	0xbc6a0b9a	-0.014284993
33	0x3c3052b8	0.010761909
34	0xbc4476d5	-0.011991222
35	0x3c8977aa	0.016780693
36	0x3c5ecfc4	0.01359934
37	0x3b00706c	0.0019598259
38	0xbc540eb3	-0.012942958
39	0xbc40d8da	-0.011770451
40	0x3ad6a4dc	0.0016376036
41	0xbb523a84	-0.0032078335
42	0x3c850cb8	0.016241416
43	0xba8a5d36	-0.0010556343
44	0x3b617f02	0.0034407978
45	0xbbcfbe1a	-0.0063398005
46	0x3ba80f64	0.005128788
47	0xbbedf9cc	-0.007262444
48	0xba815678	-0.0009867689
49	0x3ba88c1c	0.0051436555
50	0x3aa79b04	0.0012787287
51	0x3b3c48fd	0.0028730028
52	0x3c17b082	0.009258391
53	0xbc429f18	-0.011878751
54	0x3be77b16	0.0070642335
55	0xb9f66e40	-0.0004700292
56	0xbc81ddb4	-0.015852787
57	0xbcb484db	-0.022036007
58	0x39b49846	0.00034445728
59	0x3ba41a48	0.005008016
60	0x3b8d8762	0.0043191174
61	0xbc28fdf3	-0.010314452
62	0x3af686ee	0.0018808523
63	0xbc50a7a4	-0.012735281
64	0xbc40752e	-0.011746688
65	0x3c3e13f3	0.011601436
66	0x3c58f768	0.01324258
67	0x3c5d0220	0.013489276
68	0x3c284bd7	0.010271988
69	0xbb86f42c	-0.004118463
70	0x3c28fe5e	0.010314552
71	0xbc120f94	-0.008914847
72	0x3b690dd7	0.0035561228
73	0x3c4a26a2	0.012338312
74	0xbc00f50c	-0.007870924
75	0x3c224ffa	0.009906763
76	0xbc475064	-0.012165163
77	0x3c5d1505	0.013493781
78	0x3c67b1eb	0.01414154
79	0xbac301e5	-0.0014877884
80	0xbc4e96fe	-0.0126092415
81	0x3c6683b6	0.014069488
82	0xbc64a44c	-0.013955187
83	0xbca88c6b	-0.020574769
84	0xbc7b3044	-0.015331332
85	0x3c565941	0.013082803
86	0x3c2d9718	0.010595106
87	0x3c527277	0.012844673
88	0xbbb397f0	-0.005480759
89	0xbc1c6fe4	-0.009548161
90	0x3c8ac916	0.016941588
91	0x3c5847f3	0.013200748
92	0x3a6e7cf6	0.00090976
93	0xbbdffe8b	-0.006835764
94	0x3c6849f3	0.014177787
95	0x3c590970	0.013246879
96	0xbc155b37	-0.009115986
97	0x3c0425d8	0.008065663
98	0xbc268fbe	-0.010166107
99	0x3c5d49ea	0.013506392
100	0x3c9ec66d	0.019381726
101	0x3c55922c	0.013035338
102	0xba498ffa	-0.00076889957
103	0xbc714366	-0.014725542
104	0x3c40ee0a	0.011775503
105	0xba1fcedc	-0.0006096193
106	0x3c612838	0.013742499
107	0x3bee4019	0.0072708246
108	0x3c789ef9	0.015174621
109	0xbb86ad5b	-0.004110021
110	0x3c8acd86	0.016943704
111	0xbc0fc645	-0.0087752985
112	0x3c535b65	0.012900208
113	0x3c51b880	0.012800336
114	0x3a6eadd5	0.00091048825
115	0xba30e0d7	-0.0006747371
116	0x3c22934b	0.009922813
117	0xbbc223ce	-0.0059246784
118	0x3c5915d3	0.013249832
119	0x38623914	5.3935757e-05
120	0xbc376033	-0.011192369
121	0xbcbb2362	-0.02284402
122	0x3ad099ed	0.0015915014
123	0x3c3ad8a0	0.0114041865
124	0x3c46958d	0.012120617
125	0xbc18ef25	-0.00933436
126	0xbbf60968	-0.0075084455
127	0xbc720e8d	-0.014773977
128	0x3cf9a0a3	0.030472105
129	0x3d3ea137	0.046540465
130	0xbd2e36d1	-0.042532746
131	0x3d345fd0	0.044036686
132	0x3d0fc582	0.035100468
133	0x3d0e4975	0.034738023
134	0x3d3b5657	0.045736637
135	0xbd206aef	-0.03916448
136	0x3d2921fa	0.04129217
137	0x3d2a2971	0.041543428
138	0xbd7022ff	-0.058627125
139	0x3d36fee4	0.044676676
140	0x3d17110e	0.0368815
141	0xbe2198b7	-0.15780912
142	0x3d4d6d0f	0.050152835
143	0x3c4769cb	0.012171219
144	0xbdb551b0	-0.08853471
145	0x3d27e700	0.040991783
146	0x3d2fabb7	0.04288837
147	0x3bf0ac9c	0.0073447954
148	0x3d29bbcd	0.041438866
149	0x3d784bf9	0.06061933
150	0x3d38225d	0.044954646
151	0x3d3fc2a9	0.0468165
152	0x3d255e7d	0.040373314
153	0x3cd32b61	0.02577752
154	0x3d4c6ee1	0.04991043
155	0x3d22d47c	0.039753422
156	0xbd1df6a8	-0.038565308
157	0x3b7a9d07	0.0038240568
158	0x3d35c80e	0.04438024
159	0x3d6716dc	0.056418285
160	0x3c228d1f	0.009921341
161	0x3ce32c89	0.027731197
162	0x3c6285e9	0.013825872
163	0xbb942c8e	-0.004521913
164	0x3cd89564	0.026438423
165	0x3d379db2	0.044828124
166	0x3c808e4a	0.015692849
167	0x3d125974	0.03572984
168	0x3d1d51f9	0.038408253
169	0x3d0b50fe	0.034012787
170	0x3d6a42ae	0.057192497
171	0x3ce7d5ce	0.028300192
172	0x3d40076e	0.046882086
173	0x3ab1f3cf	0.0013576689
174	0x3d3bfde6	0.045896433
175	0x3d3cf6ee	0.046133928
176	0x3d2e024f	0.04248267
177	0x3d34b69a	0.044119455
178	0x3d0bae1f	0.0341016
179	0x3cf5ae7a	0.029990423
180	0xbd4910b4	-0.049088195
181	0x3d3c8c05	0.04603197
182	0x3d48d07f	0.049026962
183	0x3d1c4246	0.03814914
184	0x3c0d52b7	0.008625678
185	0xbcc57737	-0.024104698
186	0xbc6c2640	-0.014413416
187	0x3d338d7d	0.043836106
188	0x3d3b4ecf	0.045729455
189	0x3ca1cdc9	0.019751446
190	0xbd339834	-0.043846324
191	0x3d4690a7	0.048477795

actor.6.bias f4 [3]
0	0xbcf80e53	-0.030280268
1	0x3d47a756	0.04874357
2	0x3d3ef805	0.04662325

critic.0.weight f4 [256, 259]
0	0x3e18f7eb	0.14938323
1	0xbc7cce81	-0.015430094
2	0xbe7ad05a	-0.24493542
3	0xbc39877f	-0.011323809
4	0xbf358079	-0.7089916
5	0xbdc46a84	-0.09590629
6	0x3d91569f	0.070966
7	0xbd5adfe6	-0.053436182
8	0x3d1297d3	0.035789322
9	0x3b4bfcb1	0.0031125958
10	0x3d2d6320	0.04233086
11	0xbda668c7	-0.081254534
12	0x3db2a558	0.08722943
13	0x3e0fc9dd	0.14041848
14	0x3dfc0c1e	0.12306999
15	0xbc50caa7	-0.012743629
16	0x3e189865	0.14901884
17	0xbd9d1e1e	-0.0767176
18	0xbdd63fc1	-0.10461379
19	0xbd995b71	-0.07488144
20	0x3dd69d8b	0.10479268
21	0xbe61df6c	-0.22057885
22	0xc03cc7e2	-2.9496999
23	0x3df2e6b4	0.118604094
24	0xbde84558	-0.11341351
25	0x3d8f73a3	0.07004478
26	0xbe843abd	-0.25826064
27	0xbd70d437	-0.058796134
28	0xbb15ffb9	-0.0022888018
29	0x3f509d45	0.81489974
30	0x3deaa34c	0.11456928
31	0x3d8102bd	0.062993504
32	0x3b8e0b1f	0.004334822
33	0x3dfa5ab4	0.122243315
34	0xbde808e0	-0.11329818
35	0xbd2bd0b9	-0.0419471
36	0x3b936d9c	0.0044991504
37	0xbd33044a	-0.043705262
38	0xbd96bb47	-0.07359939
39	0x3d5d5abf	0.05404162
40	0x3d38ef27	0.04514995
41	0xbc6889e4	-0.014193032
42	0xbd102e5e	-0.03520047
43	0x3dc4fc65	0.09618453
44	0xbc4f945d	-0.01266965
45	0x3d93f062	0.07223584
46	0xbead47e7	-0.3384392
47	0x3e175469	0.14778294
48	0xbe29fd49	-0.16600527
49	0x3e194324	0.14967018
50	0xbd257c1b	-0.04040156
51	0x3cca4c56	0.024694603
52	0x3d537daa	0.051633514
53	0xbf511688	-0.81675005
54	0x3c31360c	0.010816108
55	0x3d82ec73	0.06392755
56	0xbd397e44	-0.045286432
57	0xba857c6f	-0.0010184179
58	0x3dc160e6	0.0944231
59	0xbb6bd459	-0.0035984723
60	0x3d9995b1	0.074992545
61	0x3cce56eb	0.02518793
62	0xbb9bb9ec	-0.004752388
63	0x3a544379	0.00080972124
64	0xbd3f9a6d	-0.04677813
65	0xbcbf2cec	-0.02333685
66	0x3e022531	0.127095
67	0x3d5ac6fe	0.05341243
68	0xbd2babf1	-0.041912023
69	0x3de8700e	0.11349498
70	0xbdce0017	-0.10058611
71	0x3d974c94	0.07387653
72	0xbe18f276	-0.14936242
73	0xbd882365	-0.06647376
74	0x3dcdb3e1	0.10044075
75	0xbe2baa5f	-0.1676421
76	0x3d81ac96	0.06331746
77	0xbcff31cb	-0.031151673
78	0x3d9d0e5c	0.076687545
79	0x3e8abf33	0.27098998
80	0xbc0b7f33	-0.008514213
81	0xbec4fa26	-0.38472098
82	0x3db1dded	0.08684907
83	0xbd0c6edd	-0.034285415
84	0x3dea23d0	0.11432612
85	0xbe95b5af	-0.29240176
86	0xbe9ad1c0	-0.30238152
87	0xbe03dd20	-0.12877321
88	0xbce8d6f9	-0.02842282
89	0xbd4c6a71	-0.049906198
90	0x3e259f4a	0.16174045
91	0x3ddee801	0.10884095
92	0x3d3da266	0.046297453
93	0xbdc05538	-0.09391254
94	0xbdaebe3f	-0.0853238
95	0x3d00e643	0.031469595
96	0x3a4e2fa4	0.00078653754
97	0xbd0a4317	-0.033755388
98	0x3d2d6a6c	0.04233782
99	0x3d9a134d	0.075232126
100	0xbd69d8a8	-0.057091385
101	0xbd92e03f	-0.07171678
102	0xbcdc3dff	-0.02688503
103	0x3d2f2bee	0.042766504
104	0x3ce8a941	0.028401019
105	0x3daa0b62	0.08302952
106	0xbe38206f	-0.17981122
107	0x3d94cbe2	0.0726545
108	0x3dd2f6a2	0.10300948
109	0x3c646f04	0.013942484
110	0x3d9d3542	0.07676174
111	0xbe0f6e58	-0.14006937
112	0xbb3570af	-0.0027685573
113	0xbd0f80f2	-0.03503508
114	0xbd83c5fa	-0.064342454
115	0xbbd15909	-0.0063887876
116	0xbbadc781	-0.0053033237
117	0xbd8d870e	-0.06910525
118	0x3d08f30e	0.03343492
119	0xbd9bfad1	-0.07616199
120	0xbc4a8584	-0.012360934
121	0xbd10cc76	-0.03535124
122	0x3d11c414	0.035587385
123	0x3db81dd5	0.08990065
124	0x3d44dbbd	0.04806112
125	0x3e51f18d	0.205023
126	0xbcd67e6a	-0.026183326
127	0x3d53091e	0.051522367
128	0xbef48f39	-0.4776552
129	0x3d96691b	0.07344266
130	0x3d90f387	0.07077699
131	0xbbea2acd	-0.0071462155
132	0x3d91c6fa	0.0711803
133	0xbccad31d	-0.02475887
134	0x3c89f24d	0.01683917
135	0x3d75e7e0	0.060035586
136	0xbe25077b	-0.16116135
137	0xbdeaab9d	-0.11458514
138	0x3c8b8252	0.017029915
139	0xbe8a4db2	-0.27012402
140	0x3e082bfd	0.1329803
141	0x3dc13240	0.094334126
142	0xbd66cb25	-0.056346077
143	0x3dea4810	0.11439526
144	0xbdb00f88	-0.08596712
145	0xbdb78ad9	-0.0896203
146	0x3d5aff1f	0.05346596
147	0xbc854d46	-0.016272198
148	0x3e32cafe	0.17460248
149	0x3d62c10c	0.055359885
150	0xbda66c06	-0.081260726
151	0x3d325ec0	0.043547392
152	0xbb6171cd	-0.0034400106
153	0xbe5abc37	-0.21360861
154	0xbcc6a216	-0.02424721
155	0x3e135032	0.14386061
156	0xbce438e4	-0.027859159
157	0xbdd67432	-0.10471381
158	0x3e0cc4e3	0.13746981
159	0xbc16930a	-0.00919033
160	0xbe18e014	-0.14929229
161	0xbdbf917d	-0.093539216
162	0xbb558f5a	-0.0032586665
163	0xbcd916c8	-0.02650012
164	0x3c1b113c	0.009464558
165	0xbb958c73	-0.004563862
166	0xbd87d215	-0.06631867
167	0x3da5b3f5	0.08090965
168	0xbd15e0e7	-0.036591437
169	0x3d3ee736	0.04660722
170	0xbd1a0455	-0.037601788
171	0x3daa6e20	0.08321786
172	0x3e361890	0.17782807
173	0x3cdaf34c	0.026727341
174	0xbd600e20	-0.05470097
175	0x3dd91654	0.10599962
176	0xbe1ba545	-0.15199764
177	0x3d9e72cf	0.07736742
178	0xbdde9045	-0.10867361
179	0x3bfb6188	0.0076715387
180	0xb9d0fd58	-0.00039861607
181	0x3e071913	0.13193159
182	0xbd1934f1	-0.037404004
183	0xbd03ef5a	-0.032210685
184	0x3d19232f	0.03738707
185	0x3e3ddffc	0.18542475
186	0x3e6c2bc4	0.2306357
187	0xbc262e89	-0.010142931
188	0xbd275fe4	-0.040862933
189	0x3d44c7c9	0.048042092
190	0xbdadf946	-0.08494811
191	0xbd88844d	-0.06665859
192	0x3e41d758	0.18929803
193	0xbc10ecd9	-0.008845531
194	0xbd3d0613	-0.04614837
195	0xbd98d892	-0.074631825
196	0x3de2be79	0.11071486
197	0xbc731415	-0.014836331
198	0xbdad1aee	-0.08452402
199	0x3d0e1e37	0.034696784
200	0x3dee463a	0.116344884
201	0x3df46dae	0.11934982
202	0xbdccd708	-0.100019515
203	0x3da14044	0.07873586
204	0xbcaeb6d7	-0.02132742
205	0x3df4c561	0.119517095
206	0xbd64956d	-0.055806566
207	0x3e5030c4	0.20331103
208	0xbdafb59e	-0.085795626
209	0xbb28180a	-0.0025649094
210	0x3c847c82	0.016172651
211	0x3e2da640	0.1695795
212	0x3cf8af9a	0.03035717
213	0x3d57d34a	0.052691735
214	0x3c490b93	0.012270826
215	0x3c892657	0.016741915
216	0x3d37fea4	0.04492058
217	0xbdd3f73c	-0.103498906
218	0xbd816340	-0.063177586
219	0xbdbd03c1	-0.092292316
220	0xbda7eb43	-0.081991695
221	0xbdc474b3	-0.09592571
222	0xbdcaa5cd	-0.09894905
223	0xbb97cd38	-0.0046326183
224	0x3da9e732	0.0829605
225	0xbdbb892f	-0.09157025
226	0xbf723780	-0.94615936
227	0xbcb02e1a	-0.021506358
228	0x3e0ad2b3	0.13556938
229	0xbe1cfa1c	-0.15329784
230	0x3d33f627	0.04393592
231	0xbe2db60e	-0.1696398
232	0x3d52c35a	0.051455833
233	0xbed6b024	-0.4193126
234	0x3cef7632	0.029231165
235	0xbce9ab6a	-0.02852412
236	0xbdd4571d	-0.10368178
237	0xbe0a6bb9	-0.13517655
238	0xbdb5217e	-0.08844279
239	0x3deb8985	0.11500839
240	0xbd56c919	-0.052437875
241	0x3daf9a47	0.08574348
242	0x3e2b71ce	0.16742632
243	0x3e31fafc	0.17380899
244	0xbda20649	-0.07911355
245	0xbdbccfc9	-0.092193194
246	0xbca07352	-0.019586239
247	0x3d919eba	0.07110353
248	0x3d67b4e0	0.05656898
249	0x3d34cc2a	0.04414002
250	0x3dcdbb4a	0.10045488
251	0x3d24c9cb	0.040231507
252	0x3d881c03	0.06645968
253	0x3daab8b2	0.08336009
254	0xbcfa8662	-0.030581657
255	0xbc280dd0	-0.010257199
