rlgpu/logs/cut/model_420.pt (torch, 868312 bytes, 16 tensors)

log_std f4 [3]
-0.5841042 -0.37017798 0.06302637
00000000: da87 15bf f887 bdbe f813 813d

actor.0.weight f4 [256, 259]
0.0377563 0.04452416 0.056583323 -0.026388286 -0.06814523 0.07406524 0.05401453 -0.07516963
0.030905848 0.03235621 0.018693084 -0.083656274 0.07003572 -0.09320621 -0.02383633 -0.08526527
-0.028209314 -0.034061257 -0.15597667 0.033374988 0.0606014 -0.0818612 -0.096840374 0.016583491
0.10504909 0.00021277112 0.06735613 -0.013655452 -0.007800805 -0.053836714 0.011216545 -0.08751848
0.0272308 0.10658446 0.089667365 -0.03426933 0.054826993 -0.013084031 -0.05635203 0.010654154
-0.01425882 -0.025194857 0.1721039 0.15205364 -0.101583675 0.15222083 0.07658793 -0.078700945
0.024438655 -0.07543191 -0.031922713 -0.14033031 -0.041157916 0.09663089 -0.057784628 0.056664646
0.22102988 0.093160495 0.012698164 -0.1516863 0.0166922 -0.044132277 -0.0059910626 0.015629578
-0.041150667 0.031327095 -0.094278 0.08416143 -0.026203422 -0.039389346 -0.078629695 0.07176348
-0.0842452 -0.024234632 -0.022025326 -0.043693535 -0.25250766 -0.008528275 0.034672026 -0.017532
0.03907665 0.1281493 -0.101290114 0.0076276595 -0.054326475 0.13548711 -0.0697469 -0.1306755
-0.092731506 -0.1011851 0.069239154 0.06622293 0.009034816 0.034289133 0.17356385 0.1301425
-0.03156782 -0.07131114 -0.020106804 0.08651132 0.068971865 -0.093786895 -0.014343053 -0.010593754
0.10643335 -0.050040677 -0.050181337 0.10266716 -0.006760071 0.20450318 -0.032475986 0.11752068
0.022668965 -0.041316994 -0.11184038 -0.104644954 -0.052421916 0.101015866 -0.07705662 -0.01502604
-0.073153 0.15434498 -0.09594187 0.008071118 0.04683039 0.11009792 0.016381403 -0.04757523
0.05553672 0.108338505 0.06878166 0.07088333 -0.07083545 -0.05915387 -0.06378129 0.19408448
-0.06521926 -0.09399564 0.07116556 -0.10090823 0.0413935 -0.18782151 -0.016495401 -0.014731391
-0.09373756 0.015762376 0.13251567 -0.0057149073 -0.076547466 -0.07783164 -0.13275573 0.08451604
-0.16251732 0.020139147 -0.012634028 0.12121669 0.1560739 0.061319947 -0.046962246 0.12586299
0.11976293 0.044356342 -0.12664047 -0.08308036 -0.0008075456 0.04605752 -0.058542117 -0.028366264
-0.1910734 -0.058742225 0.07078201 -0.15807262 0.061918765 0.104672305 0.06449049 -0.043368965
0.12657504 -0.07331366 -0.087751694 -0.015321338 0.13544044 0.038050175 -0.085772984 0.024408817
-0.20027973 -0.022555484 0.042006116 -0.037959427 -0.11440789 -0.07682137 -0.15794598 -0.054221574
-0.025181986 -0.043260746 0.16449587 0.05131307 0.12469724 -0.022281924 -0.0181786 0.15483972
-0.036394157 -0.22820875 0.020487074 0.095154665 0.09112296 -0.037963916 0.09066423 -0.0223011
-0.09608251 -0.1923381 -0.051488757 0.052681424 -0.05328563 -0.08385597 -0.020955402 0.20586295
0.07297058 0.0429941 -0.06554169 0.081400156 0.06648957 -0.0096705835 -0.0031302522 -0.002927255
-0.12113071 0.06662817 -0.042553622 -0.113388225 0.10073032 0.0498447 0.07728587 0.03099987
0.09712715 0.072492175 -0.0957856 0.024902731 -0.108213924 -0.15849863 0.033705216 -0.059845433
-0.020474184 -0.15445131 0.13806656 -0.0093712425 0.11401899 0.08607641 0.0081047 0.018514803
0.15709887 -0.026304696 0.10195282 -0.008203101 -0.091679424 0.08528979 -0.01476408 0.03977119
00000000: 5aa6 1a3d f75e 363d eac3 673d 3f2c d8bc
00000010: ba8f 8bbd 84af 973d 573e 5d3d 89f2 99bd
00000020: 432e fd3c f287 043d 3d22 993c fb53 abbd
00000030: e36e 8f3d e6e2 bebd 6844 c3bc 8f9f aebd
00000040: 3817 e7bc d183 0bbd 59b8 1fbe 36b4 083d
00000050: 2c39 783d d8a6 a7bd 3f54 c6bd 1ada 873c
00000060: fa23 d73d 501b 5f39 03f2 893d 1ebb 5fbc
00000070: e59d ffbb e383 5cbd 99c5 373c e43c b3bd
00000080: 2013 df3c f448 da3d 86a3 b73d ff5d 0cbd
00000090: 4592 603d 675e 56bc 63d1 66bd c38e 2e3c
000000a0: d39d 69bc 7265 cebc 013c 303e f3b3 1b3e
000000b0: 1a0b d0bd c7df 1b3e 22da 9c3d f62d a1bd
000000c0: 9333 c83c 0c7c 9abd 64c1 02bd c0b2 0fbe
000000d0: 3495 28bd 6be6 c53d 93af 6cbd 3019 683d
000000e0: a855 623e eeca be3d f60b 503c a753 1bbe
000000f0: 15be 883c 0cc4 34bd ad50 c4bb 9a09 803c
00000100: 9a8d 28bd d750 003d d314 c1bd d45c ac3d
00000110: 8fa8 d6bc b956 21bd 9b08 a1bd bbf8 923d
00000120: bf88 acbd b587 c6bc 756e b4bc fef7 32bd
00000130: af48 81be 2eba 0bbc 4104 0e3d 459f 8fbc
00000140: d60e 203d 9239 033e 3171 cfbd 72f1 f93b
00000150: 7085 5ebd 22bd 0a3e 76d7 8ebd cccf 05be
00000160: 04ea bdbd 223a cfbd 42cd 8d3d e39f 873d
00000170: c406 143c c372 0c3d b9ba 313e 1344 053e
00000180: 424d 01bd 930b 92bd 06b7 a4bc d92c b13d
00000190: 1f41 8d3d 5813 c0bd 20ff 6abc 6d91 2dbc
000001a0: baf9 d93d 74f7 4cbd f28a 4dbd 2943 d23d
000001b0: 9683 ddbb 4869 513e 8a05 05bd afae f03d
000001c0: 44b4 b93c 023c 29bd 920c e5bd 1850 d6bd
000001d0: 5db8 56bd 68e1 ce3d dccf 9dbd c82f 76bc
000001e0: 3dd1 95bd 9c0c 1e3e 2c7d c4bd b93c 043c
000001f0: 39d1 3f3d 057b e13d 4b32 863c 3fde 42bd
00000200: 797a 633d 94e0 dd3d 66dd 8c3d 482b 913d
00000210: 2d12 91bd 544b 72bd c49f 82bd 15be 463e
00000220: ad91 85bd c980 c0bd 40bf 913d f9a8 cebd
00000230: 3b8c 293d 4854 40be 5d21 87bc ef5b 71bc
00000240: 7af9 bfbd 1920 813c 30b2 073e 1e44 bbbb
00000250: ebc4 9cbd 3266 9fbd 1ef1 07be bf16 ad3d
00000260: f16a 26be dafa a43c f4fe 4ebc 7540 f83d
00000270: d6d1 1f3e a02a 7b3d 7c5b 40bd 3ae2 003e
00000280: 4446 f53d ffae 353d 0aae 01be 0926 aabd
00000290: 78b1 53ba cfa6 3c3d dcc9 6fbd 5e60 e8bc
000002a0: bfa8 43be b09b 70bd 29f6 903d cadd 21be
000002b0: 889e 7d3d 6f5e d63d 9713 843d a8a3 31bd
000002c0: e39c 013e 7925 96bd 29b7 b3bd 5906 7bbc
000002d0: e6b0 0a3e 80da 1b3d bfa9 afbd 00f5 c73c
000002e0: 2116 4dbe 47c6 b8bc 9b0e 2c3d 587b 1bbd
000002f0: af4e eabd 8654 9dbd 97bc 21be 7117 5ebd
00000300: 744a cebc 2e32 31bd 9b71 283e a72d 523d
00000310: 4461 ff3d 9588 b6bc 4aeb 94bc 4e8e 1e3e
00000320: 0a12 15bd 8eaf 69be 82d4 a73c 73e0 c23d
00000330: ad9e ba3d 0d80 1bbd 2bae b93d ccb0 b6bc
00000340: e8c6 c4bd 47f4 44be e0e5 52bd 7ac8 573d
00000350: 0842 5abd aebc abbd aaaa abbc bdcd 523e
00000360: 9971 953d 951a 303d b93a 86bd 20b5 a63d
00000370: af2b 883d 5e71 1ebc eb24 4dbb 30d7 3fbb
00000380: 6113 f8bd 5a74 883d b54c 2ebd 1638 e8bd
00000390: b34b ce3d f529 4c3d 0e48 9e3d 70f3 fd3c
000003a0: 99ea c63d c776 943d 3e2b c4bd d000 cc3c
000003b0: 439f ddbd 774d 22be 7b0e 0a3d 7c20 75bd
000003c0: 7ab9 a7bc 7c28 1ebe 5261 0d3e d789 19bc
000003d0: ca82 e93d d448 b03d 93c9 043c 5bac 973c
000003e0: 87de 203e f27c d7bc a4cc d03d 4d66 06bc
000003f0: 6cc2 bbbd 6aac ae3d 0ae5 71bc 1ee7 223d

actor.0.bias f4 [256]
-0.020902969 -0.05033472 -0.020067584 -0.028763963 -0.01463828 0.004331726 0.04727391 0.03400971
-0.012685685 0.0479856 0.040911745 0.017145036 0.061952595 0.012385232 -0.016955037 0.0059731533
0.021264572 0.008942838 0.020744877 -0.041562095 0.023395149 0.0015096788 0.046730585 -0.04993773
0.015578905 -0.05937329 -0.016076455 0.03573659 -0.05570902 -0.033941664 0.033952143 -0.036556903
0.018782578 0.046263468 0.03073345 -0.0271166 -0.04491334 0.044186912 0.06277335 -0.02754911
0.06127531 -0.013569589 0.055034548 0.04606687 -0.052449137 0.049658533 -0.02762334 0.06531045
0.0500706 -0.028512567 -0.045125816 0.058526546 0.0030560144 0.029478299 -0.04167059 -0.041878372
-0.016168557 7.780283e-05 -0.0006848363 0.025316382 0.018944055 -0.04530879 -0.056513302 0.060014907
-0.059310388 -0.058637343 -0.019640764 0.014314957 0.035319332 -0.017606167 -0.024856051 -0.012681491
0.034312844 -0.009760019 0.019207226 -0.04706607 -0.0148387905 0.017218618 -0.030432211 -0.032555487
0.02881 -0.05333589 -0.050099898 0.053114988 0.03730069 -0.06009743 -0.04617669 -0.046506457
0.03308681 -0.046287406 -0.055846453 0.041369677 -0.023529755 -0.0007603166 -0.04556783 0.023388999
0.029983863 0.04977557 -0.044554006 0.016980214 -0.013532912 -0.0016586302 -0.05727328 -0.05213758
0.0029621446 -0.037391454 0.027067352 -0.0014384363 0.0016773286 0.004191152 -0.010432406 0.025839085
0.030361502 -0.050907757 0.011316181 0.0281646 -0.026764918 -0.037682686 -0.02745105 -0.06129266
-0.027643552 -0.016049214 -0.017333306 -0.047940005 0.023084529 0.05357296 -0.030487884 -0.036944795
-0.003332116 -0.026935821 0.045556232 0.013007917 -0.051252794 -0.0004198147 -0.009866048 -0.04180629
-0.04109097 -0.056272242 -0.042796515 -0.0014067782 -0.064278215 0.030839033 0.035131134 0.036145758
0.056996517 0.0013807622 0.025421325 0.010408486 -0.0034258205 0.019316545 0.048124053 0.036512274
-0.014824856 0.05249815 0.055199247 0.04683004 -0.04139764 0.036736704 0.0022047886 -0.046546392
-0.059156794 0.015966095 0.026014505 0.02188845 -0.037092928 -0.06378817 0.06648305 0.006405962
0.03164448 -0.009636394 -0.04787068 0.04640606 0.021972086 0.05014428 -0.03097958 -0.00027298726
0.03103796 0.056171745 0.02359107 0.06300465 -0.05198685 -0.047578562 -0.0459696 0.05551816
0.031979296 -0.012622061 0.040135175 -0.022381274 -0.057733107 -0.01061683 -0.0073699025 -0.034840867
-0.032273095 -0.052639462 -0.04355018 -0.02774919 0.043964673 0.052190315 0.029126376 0.058085386
-0.050903287 0.016620046 0.050467048 0.00018013323 -0.04969955 0.016207289 -0.026613278 -0.024169017
0.03905355 -0.02035692 -0.030101066 -0.019165477 0.039778933 -0.030632876 0.059670415 0.03103733
0.014961166 -0.002618428 -0.015080776 -0.03610331 -0.043289874 -0.05688856 -0.02328816 0.01548101
0.051577467 0.048533045 -0.01238955 0.021759398 0.060494907 0.06911983 -0.05374223 -0.038684353
0.017571649 -0.026645146 0.005926706 -0.061527826 -0.044318635 0.013595575 -0.042821035 -0.06106964
-0.003508827 0.02830258 -0.038509533 -0.015060786 -0.069879025 0.04234154 0.031782214 -0.028030956
0.017428534 0.011181073 0.03176909 0.03572834 0.05193515 0.039835315 0.014431174 0.040580247
00000000: b43c abbc c82b 4ebd c664 a4bc 67a2 ebbc
00000010: 65d5 6fbc 27f1 8d3b 4aa2 413d c44d 0b3d
00000020: 9fd7 4fbc 8c8c 443d 1393 273d bf73 8c3c
00000030: 01c2 7d3d 6eeb 4a3c 4ae5 8abc 71ba c33b
00000040: 0a33 ae3c fb84 123c 29f1 a93c 043d 2abd
00000050: 2fa7 bf3c 6ae0 c53a 9268 3f3d 818b 4cbd
00000060: aa3e 7f3c 6831 73bd c5b2 83bc 8860 123d
00000070: 242f 64bd 6a06 0bbd 6711 0b3d b1bc 15bd
00000080: ecdd 993c c37e 3d3d b7c4 fb3c a223 debc
00000090: 0df7 37bd 56fd 343d 508f 803d acae e1bc
000000a0: d2fb 7a3d fb52 5ebc e86b 613d 9db0 3c3d
000000b0: e8d4 56bd bf66 4b3d 584a e2bc 7cc1 853d
000000c0: d416 4d3d 3093 e9bc d9d5 38bd 88b9 6f3d
000000d0: 6a47 483b 797c f13c c8ae 2abd a888 2bbd
000000e0: ec73 84bc 142a a338 9686 33ba 4d64 cf3c
000000f0: 9030 9b3c b695 39bd 7e7a 67bd 31d2 753d
00000100: 73ef 72bd b62d 70bd abe5 a0bc 4889 6a3c
00000110: 01ab 103d cf3a 90bc eb9e cbbc 07c6 4fbc
00000120: a08b 0c3d 7de8 1fbc 7958 9d3c 5ac8 40bd
00000130: 661e 73bc 0f0e 8d3c f94c f9bc e758 05bd
00000140: f302 ec3c bc76 5abd 8d35 4dbd 1a8f 593d
00000150: 9cc8 183d b928 76bd c523 3dbd 8e7d 3ebd
00000160: 0986 073d dd97 3dbd 40bf 64bd 4073 293d
00000170: 79c1 c0bc fc4f 47ba 55a5 3abd 499a bf3c
00000180: b8a0 f53c 78e1 4b3d 437e 36bd 171a 8b3c
00000190: 26b9 5dbc 6566 d9ba 6397 6abd 378e 55bd
000001a0: 8a20 423b c827 19bd 5abc dd3c ea89 bcba
000001b0: cfd9 db3a ee55 893b afec 2abc 7dac d33c
000001c0: afb8 f83c a784 50bd 8167 393c 72b9 e63c
000001d0: 1a42 dbbc 2959 1abd 06e1 e0bc 030e 7bbd
000001e0: bb74 e2bc a479 83bc 94fe 8dbc bd5c 44bd
000001f0: c41b bd3c 526f 5b3d bac1 f9bc 6d53 17bd
00000200: a15f 5abb 83a8 dcbc 2c99 3a3d 291f 553c
00000210: 73ee 51bd 931a dcb9 34a5 21bc 133d 2bbd
00000220: 014f 28bd b97d 66bd 664b 2fbd a563 b8ba
00000230: 4ca4 83bd 24a2 fc3c aae5 0f3d 930d 143d
00000240: 2e75 693d b1fa b43a 6240 d03c 5b88 2a3c
00000250: bb83 60bb bb3d 9e3c ba1d 453d e58d 153d
00000260: f4e3 72bc 4d08 573d 9b18 623d dbd0 3f3d
00000270: 9290 29bd 3a79 163d 377e 103b 6ea7 3ebd
00000280: 654e 72bd 54cb 823c 5f1c d53c 684f b33c
00000290: c1ee 17bd 5fa3 82bd 4428 883d 1be9 d13b
000002a0: a49d 013d f7e1 1dbc 0c14 44bd 4814 3e3d
000002b0: cefe b33c 1764 4d3d e3c8 fdbc bb1f 8fb9
000002c0: 5243 fe3c 5814 663d 0f42 c13c 9508 813d
000002d0: 2af0 54bd bde1 42bd 9f4a 3cbd 0367 633d
000002e0: b9fc 023d c3cc 4ebc c864 243d ef58 b7bc
000002f0: 8d79 6cbd 36f2 2dbc 397f f1bb 4cb5 0ebd
00000300: cb30 04bd 7a9c 57bd ac61 32bd 4552 e3bc
00000310: 4d14 343d 83c5 553d 709a ee3c f1ea 6d3d
00000320: f77f 50bd c326 883c 89b6 4e3d 25e2 3c39
00000330: c191 4bbd 26c5 843c 1704 dabc 1afe c5bc
00000340: 9ef6 1f3d 8ec3 a6bc 8396 f6bc eb00 9dbc
00000350: 3cef 223d ccf1 fabc f768 743d 0042 fe3c
00000360: ae1f 753c ef99 2bbb 5c15 77bc 10e1 13bd
00000370: b950 31bd fb03 69bd d0c6 bebc 10a4 7d3c
00000380: e542 533d 96ca 463d 8afd 4abc c440 b23c
00000390: 82c9 773d b38e 8d3d d020 5cbd 7c73 1ebd
000003a0: 6bf2 8f3c ec46 dabc d034 c23b 9a04 7cbd
000003b0: 7587 35bd f9bf 5e3c 1c65 2fbd 2924 7abd
000003c0: 59f4 65bb d0da e73c 2cbc 1dbd 84c1 76bc
000003d0: bc1c 8fbd 536e 2d3d 112e 023d 2da1 e5bc
000003e0: 49c6 8e3c d230 373c 4e20 023d e157 123d
000003f0: f4b9 543d 5b2a 233d bb70 6c3c 7937 263d

actor.2.weight f4 [128, 256]
-0.03947912 0.15528002 -0.1523681 0.011554537 -0.05371593 -0.13115472 0.029575327 0.10059898
0.019299548 0.15496907 -0.076205224 -0.08399718 -0.051424272 0.10404703 0.014362457 0.060446765
-0.1701234 -0.083974816 -0.11021776 0.12769003 0.24744679 -0.010516133 -0.13123758 0.06827897
-0.17627038 -0.1529246 0.008638909 0.029310811 -0.06959091 0.018183157 -0.033349175 -0.027673006
0.028850595 0.013785226 0.0872279 0.020945573 -0.2132743 0.0055769836 0.07532705 -0.04345524
0.09724562 0.1199013 -0.06450181 0.033063203 0.043112706 -0.074214086 0.037079833 0.02271612
0.039538555 -0.17892884 -0.014788981 0.08929162 -0.031784624 -0.10766054 0.034836758 -0.03518057
-0.15181752 0.0399124 0.0033176914 -0.058021434 -0.025288567 0.1503333 0.08728989 -0.23019148
0.04721214 -0.09375982 0.020521766 -0.08303398 0.0049922634 -0.06450876 -0.07902078 -0.071558125
-0.088693455 -0.01457106 -0.020338332 0.1144442 -0.10643214 0.014318629 -0.032703523 0.065208554
0.03483035 0.008253251 0.08641443 -0.1884465 0.049042773 -0.013745562 -0.09018102 0.24340186
-0.019262468 -0.07667184 -0.0067223837 0.0046109185 0.059021384 0.022886101 -0.021101475 0.04376239
0.022694813 0.004555171 -0.0455417 0.023483425 -0.124086805 0.16228797 0.06546731 0.15802811
0.042736422 -0.0369992 0.059080433 0.050226357 -0.088984996 0.017115537 0.07214879 0.02257374
-0.067762814 0.012004012 -0.09700568 -0.13741761 0.072841644 -0.003207796 -0.098238416 -0.0036698792
-0.020957429 0.17331956 0.040923584 -0.09848154 -0.08553285 0.08631504 0.054226924 0.09830419
0.05781902 0.021063667 0.036050748 0.06810596 -0.051552135 0.1702158 -0.05850006 0.014906186
-0.021738559 0.13984773 -0.12521677 -0.17684045 0.08708794 0.012835183 0.01753301 -0.16998611
-0.022756219 -0.090713784 0.07032607 0.035746325 0.027867459 0.07050433 0.060295504 0.04215542
-0.019492792 0.1185215 -0.0026580824 0.01621284 0.032672394 -0.104631595 -0.025908783 -0.058399912
0.2419571 -0.16624977 0.015142635 -0.019807918 0.040614195 -0.17876993 0.014106704 -0.1350316
0.061725948 -0.03324215 0.02331586 0.052072097 -0.099531874 0.049664278 0.004413226 0.0014016477
-0.059776183 0.17841737 0.11314486 0.015278057 -0.061247706 -0.10273636 -0.1288197 0.1207155
0.0005078868 0.07541477 0.0014365169 0.0971289 -0.054651823 -0.009934394 0.039015356 0.13823564
0.041185025 0.05147213 0.043734837 -0.0022871108 0.014250544 -0.029068632 0.092989214 -0.006956813
0.082353026 0.02447875 -0.12720479 -0.04530861 -0.0023773909 -0.080074646 0.0040608533 0.08436271
0.08629836 -0.074329555 0.002180113 -0.14848082 0.049501102 -0.120457865 0.052549858 -0.13200243
0.011917778 -0.1360038 0.09735521 -0.07842216 0.050239325 -0.054111738 0.010314516 0.07653659
0.0810331 -0.08623317 0.09081893 -0.05275392 0.08544426 -0.09056414 0.16076583 -0.13272898
0.011282572 0.019476213 -0.09614295 0.013864801 -0.09912139 0.043191668 -0.047506828 -0.04609747
0.08882325 -0.0043389387 0.01046841 -0.16746336 0.03826498 0.20519823 -0.10615082 -0.13254772
0.13289215 0.015076307 0.008950035 -0.11088356 -0.11883391 -0.04646579 0.11247744 -0.05879669
00000000: dcb4 21bd ba01 1f3e 6206 1cbe 3e4f 3d3c
00000010: 3c05 5cbd 6c4d 06be f547 f23c d706 ce3d
00000020: 161a 9e3c 36b0 1e3e 7c11 9cbd b706 acbd
00000030: 42a2 52bd 9c16 d53d 8350 6b3c 0797 773d
00000040: d434 2ebe fdfa abbd d9b9 e1bd 2dc1 023e
00000050: b162 7d3e dc4b 2cbc 2563 06be d8d5 8b3d
00000060: 3980 34be 4498 1cbe 368a 0d3c 3a1d f03c
00000070: ae85 8ebd d8f4 943c 2599 08bd 80b2 e2bc
00000080: 1558 ec3c 6edb 613c 8ba4 b23d 0d96 ab3c
00000090: 9464 5abe 21bf b63b 1245 9a3d 1ffe 31bd
000000a0: b628 c73d d08e f53d 8619 84bd 486d 073d
000000b0: f396 303d 8efd 97bd 06e1 173d 2817 ba3c
000000c0: 2ef3 213d 1f39 37be 7b4d 72bc 86de b63d
000000d0: 9830 02bd 217d dcbd fdb0 0e3d 8019 10bd
000000e0: 0d76 1bbe 2f7b 233d a06d 593b e2a7 6dbd
000000f0: f829 cfbc f9f0 193e 0bc5 b23d 51b7 6bbe
00000100: 8461 413d 2605 c0bd 431d a83c b80d aabd
00000110: 2496 a33b 2b1d 84bd a6d5 a1bd 118d 92bd
00000120: eaa4 b5bd 75bb 6ebc 939c a6bc b961 ea3d
00000130: 18f9 d9bd af98 6a3c 21f4 05bd 108c 853d
00000140: 45aa 0e3d a538 073c 0cfa b03d 1ff8 40be
00000150: 13e1 483d 1135 61bc d4b0 b8bd 563e 793e
00000160: 53cc 9dbc 2006 9dbd 7147 dcbb 3017 973b
00000170: 68c0 713d a27b bb3c 00dd acbc 3140 333d
00000180: 79ea b93c 8b43 953b ef89 3abd 5060 c03c
00000190: 3921 febd d12e 263e ba13 863d 1fd2 213e
000001a0: 630c 2f3d 798c 17bd 53fe 713d 27ba 4d3d
000001b0: c43d b6bd e235 8c3c bfc2 933d 90ec b83c
000001c0: 3bc7 8abd 7aac 443c eaaa c6bd 34b7 0cbe
000001d0: 002e 953d e339 52bb 3931 c9bd 5b82 70bb
000001e0: eaae abbc af7a 313e 7d9f 273d b1b0 c9bd
000001f0: d92b afbd f1c5 b03d 0d1d 5e3d b553 c93d
00000200: a3d3 6c3d b68d ac3c f3a9 133d 237b 8b3d
00000210: 5528 53bd 0d4d 2e3e c29d 6fbd 1339 743c
00000220: 1015 b2bc 3e34 0f3e d338 00be aa15 35be
00000230: 295b b23d a94a 523c 63a1 8f3c d710 2ebe
00000240: 406b babc 26c8 b9bd 1d07 903d bd6a 123d
00000250: 4c4a e43c 9364 903d 6bf8 763d 29ab 2c3d
00000260: 59af 9fbc 66bb f23d 3933 2ebb cad0 843c
00000270: 7dd3 053d 1749 d6bd a83e d4bc bf34 6fbd
00000280: 9ac3 773e 613d 2abe d118 783c 3744 a2bc
00000290: 125b 263d 770f 37be ce1f 673c b945 0abe
000002a0: 59d4 7c3d ec28 08bd e700 bf3c 8d49 553d
000002b0: 5ed7 cbbd c56c 4b3d d39c 903b 7eb7 b73a
000002c0: dfd7 74bd 0bb3 363e 7eb8 e73d d150 7a3c
000002d0: e0de 7abd 7167 d2bd 50e9 03be b039 f73d
000002e0: b523 053a 0f73 9a3d 8249 bc3a 84eb c63d
000002f0: 97da 5fbd dec3 22bc 91ce 1f3d a58d 0d3e
00000300: a1b1 283d 71d4 523d 4d23 333d 5ae3 15bb
00000310: 1d7b 693c 5721 eebc 2171 be3d faf5 e3bb
00000320: b4a8 a83d a987 c83c f941 02be 8595 39bd
00000330: 00ce 1bbb 2dfe a3bd e810 853b 5bc6 ac3d
00000340: 32bd b03d 183a 98bd 3ae0 0e3b 5b0b 18be
00000350: abc1 4a3d 9db2 f6bd 853e 573d a52b 07be
00000360: c942 433c 9544 0bbe 2b62 c73d cc9b a0bd
00000370: c0c7 4d3d 45a4 5dbd 37fe 283c 37bf 9c3d
00000380: aff4 a53d 049b b0bd 46ff b93d 7f14 58bd
00000390: 66fd ae3d b179 b9bd cc9f 243e 1bea 07be
000003a0: 89da 383c 948c 9f3c 98e6 c4bd 3129 633c
000003b0: 2800 cbbd bfe9 303d 8596 42bd b3d0 3cbd
000003c0: f7e8 b53d a82d 8ebb b283 2b3c 847b 2bbe
000003d0: bdbb 1c3d 7c1f 523e 9a65 d9bd 97ba 07be
000003e0: e114 083e 9d02 773c 2ba3 123c eb16 e3bd
000003f0: 315f f3bd ea52 3ebd 925a e63d ccd4 70bd

actor.2.bias f4 [128]
-0.023446664 0.029812438 -0.03975377 -0.03367149 -0.02545568 0.029944547 -0.0011425093 -0.013896504
0.008759715 0.039791383 -0.0017455834 0.05680854 -0.062751345 -0.06639586 -0.011164825 -0.046463978
0.009608459 -0.048367627 -0.017658714 0.0027692528 0.029207746 -0.048406318 -0.060027335 0.053380806
-0.03894687 -0.039984487 -0.013267622 0.039451078 -0.028733712 -0.013522635 0.044123564 0.040089082
-0.008460503 -0.056830537 0.03415917 -0.008445545 -0.0029164788 0.044414468 -0.002829201 -0.053923972
0.010178001 0.01439455 -0.034534436 -0.0030000298 0.009809172 -0.0412747 0.017583758 -0.05100136
-0.013718098 0.048084673 -0.056184515 -0.0078124623 -0.02316124 -0.028400669 0.02934534 0.046777796
-0.03339771 0.048260577 -0.026415266 -0.008083593 0.03511579 0.0010551937 0.03619834 0.018892948
0.018617459 0.036393795 -0.006415176 0.004326654 0.033528157 -0.008857974 0.04305226 -0.023977228
0.016505182 -0.032287296 -0.05659662 0.03845075 -0.018241335 0.038752243 -0.017785762 -0.013446461
-0.008966765 -0.05747766 0.03615744 0.00045436955 -0.043776922 0.057806443 0.054200996 -0.046093147
0.051719885 -0.04878125 -0.053270698 -0.024201643 -0.05363419 -0.03005891 0.030922571 0.014892197
-0.044309016 0.004264887 0.004740188 0.0054253396 0.026411155 0.0117873065 -0.05556049 -0.061862312
-0.054214537 -0.019423313 0.061240744 0.005488951 -0.029625025 -0.058985446 0.025011636 -0.016921492
-0.044586923 -0.04250752 0.03488804 0.041845337 -0.017047595 0.010607625 0.06653131 -0.054889333
-0.04323771 -0.017201688 -0.020122362 -0.05660208 -0.05071178 -0.018196749 0.010961408 0.021665277
00000000: 3813 c0bc 3739 f43c d9d4 22bd 1eeb 09bd
00000010: 6e88 d0bc 444e f53c 40c0 95ba 2aae 63bc
00000020: e884 0f3c 4afc 223d 0fcc e4ba 12b0 683d
00000030: c783 80bd 8dfa 87bd acec 36bc 0351 3ebd
00000040: cc6c 1d3c 221d 46bd 02a9 90bc 5a7c 353b
00000050: 1545 ef3c b445 46bd 39df 75bd d5a5 5a3d
00000060: c186 1fbd c6c6 23bd 7160 59bc 7497 213d
00000070: f662 ebbc 0b8e 5dbc e9ba 343d 7334 243d
00000080: ec9d 0abc 23c7 68bd 7cea 0b3d 2f5f 0abc
00000090: 6522 3fbb f2eb 353d 1e6a 39bb 62df 5cbd
000000a0: a1c1 263c 1ed7 6b3c fb73 0dbd 269c 44bb
000000b0: a6b6 203c a90f 29bd d00b 903c cde6 50bd
000000c0: e0c1 60bc 6ff4 443d bc21 66bd afff ffbb
000000d0: a4bc bdbc 85a8 e8bc a365 f03c 139a 3f3d
000000e0: 0acc 08bd e2ac 453d d464 d8bc 0c71 04bc
000000f0: 93d5 0f3d 6d4e 8a3a b644 143d 62c5 9a3c
00000100: a483 983c a911 153d 6636 d2bb 9bc6 8d3b
00000110: d254 093d 0921 11bc 9157 303d e46b c4bc
00000120: e035 873c af3f 04bd dbd1 67bd 897e 1d3d
00000130: da6e 95bc acba 1e3d 72b3 91bc 8c4e 5cbc
00000140: 57e9 12bc b26d 6bbd d319 143d 7338 ee39
00000150: 6e4f 33bd 73c6 6c3d dd01 5e3d 2bcc 3cbd
00000160: 3bd8 533d d9ce 47bd 6032 5abd 8642 c6bc
00000170: 86af 5bbd 1a3e f6bc 5551 fd3c 67fe 733c
00000180: 5f7d 35bd 77c0 8b3b 9453 9b3b 0cc7 b13b
00000190: 355c d83c 8c1f 413c 6593 63bd 5663 7dbd
000001a0: 1010 5ebd a41d 9fbc 93d7 7a3d a9dc b33b
000001b0: 2eb0 f2bc b99a 71bd 34e5 cc3c f19e 8abc
000001c0: c7a0 36bd 5e1c 2ebd c3e6 0e3d 0466 2b3d
000001d0: 66a7 8bbc 9bcb 2d3c 9141 883d a3d3 60bd
000001e0: 061a 31bd 8eea 8cbc a7d7 a4bc 95d7 67bd
000001f0: 28b7 4fbd 5911 95bc 7a97 333c 617b b13c

actor.4.weight f4 [64, 128]
-0.07622378 -0.008937988 0.113833785 -0.11122503 -0.11066128 -0.008129448 0.07766334 -0.27340433
0.041898537 -0.25099018 0.13104312 0.16732897 -0.096880354 0.038563453 0.040494967 -0.09756075
0.14577967 -0.057886623 0.18861961 -0.08285721 -0.054428574 0.010096505 0.12866886 -0.017180804
-0.11142272 0.038787793 0.07454209 -0.20383103 0.03685972 -0.040447496 0.019630829 0.12176178
-0.020091934 0.2979215 -0.04274912 0.04294081 0.02317345 0.019245546 -0.016452147 -0.08638486
-0.025803607 -0.023945417 -0.20237574 -0.2017143 0.0017155894 0.07840663 0.047434967 -0.08129849
-0.062033683 0.066399485 0.099777795 0.07719869 0.3112055 -0.11602235 -0.001022743 -0.018257737
0.14822869 -0.27381557 0.0344724 -0.07057025 -0.023868598 -0.0010115769 0.18975158 0.115532055
0.28477022 0.024795333 -0.35844636 0.09507389 -0.09506088 -0.08376311 -0.06912476 0.14176022
0.2310747 0.32283735 0.21438132 0.036385383 -0.11407844 0.019242423 0.15985544 -0.13301782
-0.11194264 0.016314017 0.09669036 -0.0042444356 -0.23848583 -0.11431091 -0.08497725 -0.101050526
0.15116902 -0.224825 -0.04164049 -0.103033274 -0.0066917455 0.06469436 0.050369654 -0.00624657
0.029204212 -0.089107424 0.04344482 -0.07883188 0.009213029 -0.062290635 -0.0097317705 0.0634125
-0.06828776 -0.08066463 -0.057357945 -0.046474293 0.043052103 0.14123309 0.13356267 0.113927476
0.13613315 0.09830142 -0.20698045 0.087517306 0.05231152 -0.039856043 -0.1296721 -0.14093907
-0.22608455 0.16352394 -0.11655315 0.007103009 0.15569998 0.1636407 -0.031281184 0.06369545
0.04170983 -0.045198288 0.15856911 0.06421295 0.028789453 -0.18706204 -0.18116482 -0.108582065
0.17856564 0.09786792 0.11839563 -0.117303364 0.1496179 0.18344323 -0.09630744 -0.095268324
0.33090028 0.17929092 0.096342914 -0.1876736 -0.03787392 0.060503908 -0.086296245 -0.2969748
0.020995237 0.0094659785 -0.0075881328 0.010227162 0.09461555 0.08664733 -0.18253958 -0.012550256
0.07649147 0.16244197 0.06439151 0.143288 0.06953098 0.04100616 0.14305504 0.17449623
-0.14388733 -0.19577152 0.018055633 0.1324111 0.22313727 -0.017596742 -0.09740909 0.026415387
0.16482742 0.11376413 -0.06881118 -0.13230857 0.0099501 -0.19530453 -0.042796582 0.054690838
-0.030458178 0.058312654 -0.09175721 0.18358275 0.023015859 -0.1592759 -0.24811567 -0.029705904
-0.013024855 -0.07884491 0.18996044 -0.009277221 -0.030402921 -0.17370468 -0.12305758 0.13023098
-0.10312912 0.13980049 -0.1581798 -0.27477035 0.082547225 -0.08734925 0.11867549 0.032661427
-0.06580446 -0.19952993 0.032277036 0.057678115 -0.05013753 -0.22078373 -0.055635992 0.29884118
0.10246256 -0.02280461 -0.043240927 -0.050472327 -0.040494304 -0.013450596 -0.0978551 0.035369657
0.027825024 0.09553196 0.03915621 -0.15599266 -0.03705765 -0.21395956 0.09044388 0.20610431
-0.18416971 0.10231334 -0.07861034 -0.09933646 0.10597329 -0.11851242 -0.0018761246 0.086254075
0.039381843 0.1084058 0.07064658 0.13812247 -0.14040676 -0.06620326 -0.09430689 -0.038669623
-0.041328676 -0.13977961 -0.06210514 0.17577799 0.004005921 -0.16772547 -0.20368724 0.046394166
00000000: 371b 9cbd a470 12bc b021 e93d f3c9 e3bd
00000010: 62a2 e2bd 6031 05bc f50d 9f3d a7fb 8bbe
00000020: cd9d 2b3d c981 80be 2b30 063e 4958 2b3e
00000030: 3569 c6bd b6f4 1d3d 0dde 253d eecd c7bd
00000040: 4447 153e 861a 6dbd 8025 413e 0ab1 a9bd
00000050: 7ff0 5ebd d06b 253c c5c1 033e c2be 8cbc
00000060: 9831 e4bd f3df 1e3d 86a9 983d 15b9 50be
00000070: 38fa 163d 46ac 25bd d5d0 a03c 3d5e f93d
00000080: d797 a4bc 2b89 983e b419 2fbd b4e2 2f3d
00000090: 3fd6 bd3c d6a8 9d3c a7c6 86bc 8cea b0bd
000000a0: 1662 d3bc 2e29 c4bc 963b 4fbe 328e 4ebe
000000b0: a1dd e03a a893 a03d 2b4b 423d d37f a6bd
000000c0: 0817 7ebd 74fc 873d 4d58 cc3d 591a 9e3d
000000d0: 5456 9f3e 209d edbd 8f0d 86ba 4091 95bc
000000e0: 43c9 173e 8e31 8cbe ee32 0d3d 2387 90bd
000000f0: 1488 c3bc e396 84ba 3d4e 423e 129c ec3d
00000100: 67cd 913e 951f cb3c 4886 b7be 1ab6 c23d
00000110: 47af c2bd fe8b abbd 4891 8dbd 9729 113e
00000120: d99e 6c3e f04a a53e c786 5b3e d708 153d
00000130: f5a1 e9bd 49a2 9d3c 25b1 233e d335 08be
00000140: 2f42 e5bd f9a4 853c 9805 c63d e814 8bbb
00000150: a135 74be d71b eabd 8d08 aebd 94f3 cebd
00000160: 0dcc 1a3e 8638 66be 388f 2abd 1c03 d3bd
00000170: 6e46 dbbb 7a7e 843d 6950 4e3d 07b0 ccbb
00000180: ac3d ef3c f47d b6bd 32f3 313d 9c72 a1bd
00000190: 3ff2 163c 7724 7fbd 0172 1fbc 6ade 813d
000001a0: 74da 8bbd 7f33 a5bd 2af0 6abd d45b 3ebd
000001b0: 6757 303d 689f 103e a7c4 083e cf52 e93d
000001c0: 7d66 0b3e 4152 c93d aff2 53be 463c b33d
000001d0: 9b44 563d 1740 23bd c3c8 04be 5552 10be
000001e0: b582 67be d272 273e 6bb3 eebd 5cc0 e83b
000001f0: d16f 1f3e 6d91 273e b320 00bd c372 823d
00000200: edd7 2a3d d721 39bd f15f 223e 1482 833d
00000210: dcd7 eb3c 318d 3fbe 4583 39be 4660 debd
00000220: e9d9 363e fa6e c83d 6879 f23d bf3c f0bd
00000230: 6f35 193e 8bd8 3b3e d63c c5bd 0a1c c3bd
00000240: c36b a93e 0a98 373e 6f4f c53d 822d 40be
00000250: af21 1bbd f2d2 773d 16bc b0bd 150d 98be
00000260: 34fe ab3c 3117 1b3c dfa5 f8bb d48f 273c
00000270: ccc5 c13d 2874 b13d a8eb 3abe 979f 4dbc
00000280: 8fa7 9c3d 3057 263e b2df 833d 17ba 123e
00000290: 4266 8e3d 13f6 273d 057d 123e 24af 323e
000002a0: 3357 13be 5478 48be 68e9 933c c796 073e
000002b0: 197e 643e 0b27 90bc 6b7e c7bd 1565 d83c
000002c0: 85c8 283e 2bfd e83d e0ec 8cbd e67b 07be
000002d0: bf05 233c e9fd 47be 784b 2fbd 8003 603d
000002e0: 6e83 f9bc 40d9 6e3d 34eb bbbd 1efd 3b3e
000002f0: c18b bc3c 3919 23be 0912 7ebe cc59 f3bc
00000300: 3466 55bc 7179 a1bd fd84 423e 7cff 17bc
00000310: 8c0f f9bc a4df 31be 9d05 fcbd 455b 053e
00000320: 5c35 d3bd dc27 0f3e e3f9 21be b3ae 8cbe
00000330: 850e a93d 2ae4 b2bd 230c f33d fdc7 053d
00000340: 7dc4 86bd 9351 4cbe ed34 043d e33f 6c3d
00000350: 035d 4dbd 2115 62be 91e2 63bd b601 993e
00000360: e4d7 d13d bcd0 babc 661d 31bd 12bc 4ebd
00000370: 5bdd 25bd e35f 5cbc 4168 c8bd c6df 103d
00000380: 4ef1 e33c 43a6 c33d 4362 203d 8abc 1fbe
00000390: c3c9 17bd 3718 5bbe a43a b93d 020d 533e
000003a0: fc96 3cbe a889 d13d 75fe a0bd ea70 cbbd
000003b0: 8608 d93d a4b6 f2bd 4ce8 f5ba faa5 b03d
000003c0: db4e 213d dc03 de3d 27af 903d fa6f 0d3e
000003d0: cac6 0fbe 9395 87bd f923 c1bd 0a64 1ebd
000003e0: 4248 29bd 6322 0fbe f661 7ebd 25ff 333e
000003f0: 1a44 833b 3ac0 2bbe 6393 50be cf07 3e3d

actor.4.bias f4 [64]
-0.001760569 -0.004210904 -0.0526629 -0.0011463531 -0.08717071 0.04010818 0.035242997 0.07276059
-0.07862242 0.03657157 0.02027126 -0.028840994 0.05216173 0.022366675 -0.0027188535 0.03800541
0.04347089 -0.010882103 0.019794866 -0.06610919 0.036893133 -0.080765955 -0.013234657 -0.008020372
0.0760666 0.07357463 0.059701197 0.0020372937 0.07770031 0.06836337 -0.056365494 -0.09067299
-0.074146524 0.05981858 -0.04909936 -0.0016605911 0.060072858 -0.00028609205 0.015505331 0.06001791
-0.017657772 -0.029380986 -0.070103966 -0.038260683 -0.025658624 -0.028432434 0.060733147 -0.088198386
-0.012347412 -0.036435798 0.03173177 0.07632943 -0.015029098 -0.08286052 0.06159552 0.039030675
0.05222756 -0.03994399 0.0004284638 -0.06255892 -0.065466784 0.06530937 0.04548814 -0.07128346
00000000: e5c2 e6ba 9ffb 89bb 0eb5 57bd 3a41 96ba
00000010: 8f86 b2bd 7a48 243d f65a 103d 8103 953d
00000020: cb04 a1bd 12cc 153d ea0f a63c f343 ecbc
00000030: 8aa7 553d 513a b73c cb2e 32bb 90ab 1b3d
00000040: 880e 323d d94a 32bc d828 a23c 4164 87bd
00000050: 411d 173d 9f68 a5bd 2dd6 58bc e167 03bc
00000060: cec8 9b3d 4cae 963d 3e89 743d 1e84 053b
00000070: 5721 9f3d 1802 8c3d 81df 66bd c3b2 b9bd
00000080: 22da 97bd 5404 753d 691c 49bd 31a8 d9ba
00000090: f50e 763d a0fe 95b9 120a 7e3c 57d5 753d
000000a0: 08a7 90bc 65b0 f0bc ab92 8fbd 3cb7 1cbd
000000b0: 0932 d2bc 23eb e8bc 52c3 783d 5ba1 b4bd
000000c0: cd4c 4abc b43d 15bd 2cf9 013d 9b52 9c3d
000000d0: 9b3c 76bc c7b2 a9bd 954b 7c3d a1de 1f3d
000000e0: 91ec 553d 4f9c 23bd 70a3 e039 e41e 80bd
000000f0: 7313 86bd ebc0 853d c651 3a3d 10fd 91bd

actor.6.weight f4 [3, 64]
0.006709885 0.001458582 -0.0045431117 0.0038257854 0.003573867 0.0061765513 0.0032212911 -0.006463415
-0.001062193 4.3537646e-05 -0.0043528196 0.001322723 0.0038681754 0.07086654 0.0058883172 -0.011034262
-0.0029188064 0.0018468087 0.0052741515 -0.0068958164 0.0033718331 0.005856923 0.004610824 0.0046026013
0.0068650506 0.003403144 0.005351861 0.0043592327 -0.00570869 -0.00799583 0.0062898328 0.0036008703
0.003972446 0.010991757 0.0046874485 -0.00019680396 0.0022759824 0.0017392908 -0.013473737 0.004562241
0.001691066 0.00095862604 0.015966855 0.005904053 0.004091964 -0.008465954 0.00537674 0.010574193
-0.0013183387 0.0050365473 0.0031061629 0.0050191493 -0.0062588966 -0.011518381 0.007036915 0.0016261723
0.004030535 -0.008509846 -0.006533128 0.0048776455 0.0043596616 0.0058312183 -0.0036281971 0.00599828
0.005544938 0.008220163 -0.012268021 0.010588546 0.009779269 0.011738067 0.0064083897 -0.013074948
0.007944629 0.012087536 -0.011529281 0.007109693 0.0068323878 0.019165924 0.010249022 -0.0069314274
-0.014339568 0.010142017 0.0088947 0.0002910875 0.008795271 0.010058921 0.0066515156 0.009866514
0.015057549 0.008055885 0.01300345 0.009216901 -0.012848664 -0.011883285 0.012326919 0.0102979755
0.009243633 0.004572818 0.0060940078 -0.001290157 0.0099524 0.00909614 -0.006754387 0.004866324
0.009062672 0.010658988 0.009802021 0.012095401 0.013149832 -0.009479391 0.014155806 0.014224438
0.008892378 0.009030916 0.009477002 0.0091989795 -0.010876637 -0.008569746 0.00956989 0.008118094
0.007961734 -0.011394676 -0.01265946 0.0075724046 0.009030231 0.0093460465 -0.017820112 0.009795881
0.032515142 0.03232218 -0.02928028 0.029879523 0.025279863 0.030026594 0.029960947 -0.030437063
0.03095137 0.029105177 -0.047233272 0.029750584 0.034012474 -0.13000107 0.034476623 -0.0035392332
-0.074555986 0.025409257 0.029601038 -0.002865461 0.027033262 0.046338074 0.029287387 0.031431485
0.030963793 0.027258776 0.034192957 0.024109857 -0.036888316 -0.011622445 0.030631172 0.042115998
0.0253233 0.0118471505 0.030306198 -0.0027281488 0.02523646 0.029164303 0.002644309 0.028437737
0.02464362 0.030737272 0.041577213 0.015379159 0.03216558 -0.013052717 0.03143391 0.03482334
0.02683345 0.028359452 0.027091293 0.025083834 -0.0345079 0.03190331 0.033068236 0.028886765
0.022665773 -0.020110412 -0.02035853 0.027677478 0.03163122 0.017652752 -0.040034067 0.03270117
00000000: 98de db3b e42d bf3a 62de 94bb 07ba 7a3b
00000010: 8a37 6a3b ab64 ca3b 4c1c 533b 0ecb d3bb
00000020: 4839 8bba 319c 3638 19a2 8ebb 385f ad3a
00000030: 3781 7d3b 7a22 913d c9f2 c03b 0dc9 34bc
00000040: 7249 3fbb 9e10 f23a cad2 ac3b 4df6 e1bb
00000050: f9f9 5c3b 6eeb bf3b 6516 973b 6bd1 963b
00000060: 38f4 e03b 4807 5f3b aa5e af3b e5d7 8e3b
00000070: f60f bbbb f100 03bc f11a ce3b 94fc 6b3b
00000080: 4b2b 823b c516 343c 2b99 993b 295d 4eb9
00000090: a628 153b eaf8 e33a f3c0 5cbc da7e 953b
000000a0: c2a6 dd3a 4e4c 7b3a eccc 823c c976 c13b
000000b0: e215 863b c9b4 0abc 5d2f b03b 613f 2d3c
000000c0: 1bcc acba 9f09 a53b c490 4b3b ad77 a43b
000000d0: 6e17 cdbb 97b7 3cbc ec95 e63b 4a25 d53a
000000e0: 9412 843b e26c 0bbc da13 d6bb a8d4 9f3b
000000f0: 7edb 8e3b ce13 bf3b 0cc7 6dbb 388d c43b
00000100: 50b2 b53b ddad 063c cfff 48bc 957b 2d3c
00000110: 3a39 203c 0551 403c 78fd d13b 4f38 56bc
00000120: 302a 023c cd0a 463c 4fe5 3cbc 6df8 e83b
00000130: 39e2 df3b db01 9d3c 84eb 273c 0721 e3bb
00000140: 82f0 6abc b42a 263c 13bb 113c 1a9d 9839
00000150: 0a1a 103c 2cce 243c f5f4 d93b 29a7 213c
00000160: f0b3 763c d5fc 033c 6c0c 553c 7c02 173c
00000170: 3483 52bc 1cb2 42bc d8f6 493c d7b8 283c
00000180: 9b72 173c 94d7 953b 3eb0 c73b 7c1a a9ba
00000190: 640f 233c fa07 153c e853 ddbb af75 9f3b
000001a0: 9a7b 143c 09a3 2e3c a898 203c ca2b 463c
000001b0: 6572 573c 734f 1bbc c1ed 673c 9e0d 693c
000001c0: 56b1 113c 68f6 133c 6d45 1b3c 51b7 163c
000001d0: ec33 32bc 1f68 0cbc 07cb 1c3c c101 053c
000001e0: ef71 023c bcb0 3abc a069 4fbc ef21 f83b
000001f0: 89f3 133c 2920 193c 7cfb 91bc e77e 203c
00000200: 992e 053d 4364 043d 33dd efbc e7c5 f43c
00000210: b717 cf3c 55fa f53c a970 f53c 2657 f9bc
00000220: ba8d fd3c fb6d ee3c ad77 41bd 7fb7 f33c
00000230: aa50 0b3d 001f 05be 5c37 0d3d 7bf2 67bb
00000240: cfb0 98bd 1327 d03c e07d f23c 75ca 3bbb
00000250: dc74 dd3c fecc 3d3d 1aec ef3c 4dbe 003d
00000260: c8a7 fd3c cc4d df3c ea0d 0c3d 0982 c53c
00000270: 3418 17bd 116c 3ebc 39ee fa3c d381 2c3d
00000280: cf72 cf3c 8d1a 423c b444 f83c beca 32bb
00000290: b1bc ce3c fae9 ee3c 254c 2d3b 42f6 e83c
000002a0: 6be1 c93c bbcc fb3c de4c 2a3d def8 7b3c
000002b0: 0ec0 033d 10db 55bc d8c0 003d eba2 0e3d
000002c0: d3d1 db3c 1552 e83c 8fee dd3c 9d7c cd3c
000002d0: 2858 0dbd 0cad 023d 8f72 073d f0a3 ec3c
000002e0: 92ad b93c 97be a4bc efc6 a6bc e1bb e23c
000002f0: bd8f 013d 819c 903c c3fa 23bd a9f1 053d

actor.6.bias f4 [3]
-0.030084413 0.05265861 0.060681585
00000000: 9673 f6bc 8eb0 573d 418d 783d

critic.0.weight f4 [256, 259]
0.09308722 0.015619829 -0.17651519 -0.011323809 -0.72492045 -0.09399624 0.070966 -0.053436182
0.035789322 0.0031125958 0.04233086 -0.078647576 0.08722943 0.14090124 0.12306999 -0.0064838994
0.14057322 -0.0767176 -0.10461379 -0.07488144 0.10479268 -0.21392794 -2.006739 0.118604094
-0.11341351 0.06841642 -0.29587486 -0.058796134 -0.062377643 0.8235331 0.10661369 0.062993504
0.004334822 0.122243315 -0.11207362 -0.040646292 0.0040442096 -0.07799484 -0.07359939 0.05169713
0.04514995 -0.014088531 -0.03520047 0.09618453 -0.012227183 0.06736275 -0.358401 0.14778294
-0.16491066 0.15192634 -0.044337064 0.024694603 0.051633514 -0.8213203 0.012205027 0.06392755
-0.04354051 0.0013710305 0.09679823 -0.001806911 0.074992545 0.01595866 -0.004752388 0.004629131
-0.045372695 -0.02333685 0.12549084 0.054092985 -0.041912023 0.11349498 -0.10058611 0.07387653
-0.14936242 -0.06647376 0.10261748 -0.1676421 0.0634935 -0.028459037 0.076687545 0.2704181
-0.008514213 -0.38866502 0.06327619 -0.034285415 0.11432612 -0.49281162 -0.3577542 -0.12877321
-0.02842282 -0.048173793 0.16174045 0.111403495 0.046297453 -0.09391254 -0.085841805 0.033740506
0.00078653754 -0.033755388 0.04233782 0.075232126 -0.055297025 -0.10140504 -0.02688503 0.042766504
0.028401019 0.08302952 -0.17981122 0.0726545 0.10085843 0.013942484 0.07676174 -0.14006937
-0.046904076 -0.033294223 -0.0633224 -0.0063887876 -0.0049346583 -0.07856033 0.03143207 -0.07616199
-0.012360934 -0.03535124 0.03733929 0.092130065 0.04806112 0.205023 -0.026183326 0.051522367
-0.46437898 0.07344266 0.07077699 -0.0034544163 0.0711803 -0.02475887 0.019983083 0.06302745
-0.16506451 -0.11458514 0.017029915 -0.26379058 0.13491262 0.094334126 -0.056346077 0.11439526
-0.08596712 -0.08877502 0.05346596 -0.016272198 0.17460248 0.057630192 -0.081260726 0.043547392
-0.0034400106 -0.21617174 -0.022090068 0.07976188 -0.027859159 -0.17425989 0.14382401 -0.00919033
-0.15483332 -0.093539216 -0.018644135 -0.02650012 0.011391593 -0.004563862 -0.06631867 0.08090965
-0.036591437 0.047510475 -0.036323275 0.08321786 0.17782807 0.026727341 -0.05470097 0.10599962
-0.14924462 0.04750889 -0.10867361 0.0076715387 -0.00039861607 0.12481113 -0.037404004 -0.032210685
0.03738707 0.18542475 0.2871314 -0.009408069 -0.040862933 0.048042092 -0.08494811 -0.06558108
0.18929803 -0.008845531 -0.04614837 -0.072648905 0.10709026 -0.014836331 -0.08270477 0.01674364
0.116344884 0.11934982 -0.09726206 0.07873586 -0.028037984 0.12021118 -0.055806566 0.20331103
-0.085795626 -0.0025649094 0.005709601 0.16835876 0.03035717 0.052691735 0.012270826 0.016741915
0.04492058 -0.103498906 -0.063177586 -0.092292316 -0.081991695 -0.09592571 -0.09894905 -0.0033477596
0.08512186 -0.09101532 -0.96903235 -0.021506358 0.13355179 -0.15266716 0.04204716 -0.1671322
0.051455833 -0.42067996 0.029231165 -0.027634975 -0.10413596 -0.13664146 -0.08876327 0.11634245
-0.050170865 0.09364465 0.16534679 0.17540467 -0.08109448 -0.08956746 -0.019586239 0.07110353
0.05280957 0.045929726 0.10045488 0.042788807 0.06645968 0.08336009 -0.0321987 -0.010257199
00000000: 83a4 be3d 50ea 7f3c 66c0 34be 7f87 39bc
00000010: 6394 39bf 1a81 c0bd 9f56 913d e6df 5abd
00000020: d397 123d b1fc 4b3b 2063 2d3d fb11 a1bd
00000030: 58a5 b23d 6a48 103e 1e0c fc3d e476 d4bb
00000040: 6df2 0f3e 1e1e 9dbd c13f d6bd 715b 99bd
00000050: 8b9d d63d ed0f 5bbe 696e 00c0 b4e6 f23d
00000060: 5845 e8bd e81d 8c3d e97c 97be 37d4 70bd
00000070: b37f 7fbd 11d3 523f 4758 da3d bd02 813d
00000080: 1f0b 8e3b b45a fa3d db86 e5bd ba7c 26bd
00000090: 4a85 843b c2bb 9fbd 47bb 96bd 5fc0 533d
000000a0: 27ef 383d 95d3 66bc 5e2e 10bd 65fc c43d
000000b0: 8654 48bc 7bf5 893d 5680 b7be 6954 173e
000000c0: 57de 28be 9492 1b3e c89a 35bd 564c ca3c
000000d0: aa7d 533d 0c42 52bf 98f7 473c 73ec 823d
000000e0: 8957 32bd 26b4 b33a 273e c63d dfd5 ecba
000000f0: b195 993d bcbb 823c ecb9 9bbb f7af 973b
00000100: b8d8 39bd ec2c bfbc ac80 003e 9b90 5d3d
00000110: f1ab 2bbd 0e70 e83d 1700 cebd 944c 973d
00000120: 76f2 18be 6523 88bd 1d29 d23d 5faa 2bbe
00000130: e108 823d ed22 e9bc 5c0e 9d3d 3e74 8a3e
00000140: 337f 0bbc 1aff c6be f296 813d dd6e 0cbd
00000150: d023 ea3d ce51 fcbe 8f2b b7be 20dd 03be
00000160: f9d6 e8bc e251 45bd 4a9f 253e 8427 e43d
00000170: 66a2 3d3d 3855 c0bd d4cd afbd 7c33 0a3d
00000180: a42f 4e3a 1743 0abd 6c6a 2d3d 4d13 9a3d
00000190: 227f 62bd 72ad cfbd ff3d dcbc ee2b 2f3d
000001a0: 41a9 e83c 620b aa3d 6f20 38be e2cb 943d
000001b0: dd8e ce3d 046f 643c 4235 9d3d 586e 0fbe
000001c0: 7d1e 40bd 865f 08bd 2daf 81bd 0959 d1bb
000001d0: eab2 a1bb 3de4 a0bd eabe 003d d1fa 9bbd
000001e0: 8485 4abc 76cc 10bd 15f1 183d b0ae bc3d
000001f0: bddb 443d 8df1 513e 6a7e d6bc 1e09 533d
00000200: 15c3 edbe 1b69 963d 87f3 903d 7d63 62bb
00000210: fac6 913d 1dd3 cabc 90b3 a33c 8914 813d
00000220: ac06 29be 9dab eabd 5282 8b3c 8f0f 87be
00000230: 8926 0a3e 4032 c13d 25cb 66bd 1048 ea3d
00000240: 880f b0bd adcf b5bd 1fff 5a3d 464d 85bc
00000250: feca 323e a30d 6c3d 066c a6bd c05e 323d
00000260: cd71 61bb 205c 5dbe 3bf6 b4bc 325a a33d
00000270: e438 e4bc 2f71 32be 9a46 133e 0a93 16bc
00000280: a08c 1ebe 7d91 bfbd 96bb 98bc c816 d9bc
00000290: cea3 3a3c 738c 95bb 15d2 87bd f5b3 a53d
000002a0: e7e0 15bd 589a 423d b7c7 14bd 206e aa3d
000002b0: 9018 363e 4cf3 da3c 200e 60bd 5416 d93d
000002c0: 95d3 18be af98 423d 4590 debd 8861 fb3b
000002d0: 58fd d0b9 fa9c ff3d f134 19bd 5aef 03bd
000002e0: 2f23 193d fcdf 3d3e e302 933e 4d24 1abc
000002f0: e45f 27bd c9c7 443d 46f9 adbd 604f 86bd
00000300: 58d7 413e d9ec 10bc 1306 3dbd f3c8 94bd
00000310: 2352 db3d 1514 73bc 1e61 a9bd f529 893c
00000320: 3a46 ee3d ae6d f43d 5531 c7bd 4440 a13d
00000330: eaaf e5bc 4731 f63d 6d95 64bd c430 503e
00000340: 9eb5 afbd 0a18 28bb 9b17 bb3b 3d66 2c3e
00000350: 9aaf f83c 4ad3 573d 930b 493c 5726 893c
00000360: a4fe 373d 3cf7 d3bd 4063 81bd c103 bdbd
00000370: 43eb a7bd b374 c4bd cda5 cabd 1666 5bbb
00000380: 5f54 ae3d 3d66 babd 8112 78bf 1a2e b0bc
00000390: cdc1 083e c854 1cbe a539 2c3d b424 2bbe
000003a0: 5ac3 523d 5d63 d7be 3276 ef3c be62 e2bc
000003b0: 3c45 d5bd bdeb 0bbe 84c9 b5bd f344 ee3d
000003c0: f77f 4dbd c4c8 bf3d ab50 293e 489d 333e
000003d0: dd14 a6bd 256f b7bd 5273 a0bc ba9e 913d
000003e0: d94e 583d cf20 3c3d 4abb cd3d 5143 2f3d
000003f0: 031c 883d b2b8 aa3d c9e2 03bd d00d 28bc

critic.0.bias f4 [256]
-0.028604552 0.0446385 0.032004017 0.01960442 0.026994588 -0.05699441 0.06603879 -0.078623675
-0.014653851 -0.018432537 -0.02511855 0.036835298 0.04095266 0.045262154 0.010342654 0.018500024
0.010560842 0.042098604 -0.02635497 0.07623952 0.020813823 0.11598737 0.0045431643 -0.031657647
-0.03407947 -0.031911585 -0.00930419 0.047454085 0.06400833 -0.034964167 -0.045228 -0.029630214
-0.013773521 0.016792595 -0.029457774 0.0069370857 -0.016427 -0.034607686 -0.0012233036 -0.019602446
0.008088477 0.004081817 -0.024730654 -0.05261805 0.09056172 0.077473305 -0.0317536 -0.03819994
-0.042241324 0.0136669045 -0.043885056 -0.052055687 0.09199582 -0.027524356 0.082875155 -0.056050334
-0.04212528 -0.061333265 -0.021902258 -0.035093058 -0.009984662 0.05068047 0.10119542 0.03473088
0.061046675 -0.022491064 -0.083315104 -0.030596182 -0.02774264 0.0019115416 0.010098025 0.020347247
0.06275931 -0.041751884 0.038529404 0.03951809 0.005617784 0.051717106 0.005102681 -0.056938194
0.08813366 0.05619143 -0.013884765 0.04578948 0.042733762 -0.01032293 0.07035813 -0.028791366
0.003061199 -0.044810988 0.05859041 0.01578768 -0.0041075707 0.08233108 0.020888712 -0.016221805
0.049068626 -0.049934834 0.099429384 0.058067836 0.013457829 -0.058176536 -0.05208263 0.08270959
-0.020975705 -0.03416373 0.011354469 0.034001544 0.047009245 0.031734966 0.074697256 0.03949495
-0.042772863 -0.013831029 0.033605974 -0.05705397 0.02099437 -0.013773745 0.0019835471 -0.03669353
0.08228421 -0.040705416 -0.029170748 0.011824889 0.006681205 -0.014990842 -0.00324016 0.028670756
0.042779382 -0.041941125 -0.052446034 0.07953313 0.101837315 0.018832963 -0.001073568 0.034757227
0.056751337 -0.009235206 0.015992386 0.040548984 -0.021510404 -0.035831265 -0.059548236 -0.023035238
-0.010944546 0.051752176 -0.03130656 -0.0574699 -0.06074092 0.0016114902 -0.04456829 0.03540864
0.019745728 0.048038818 0.02745536 0.036722634 -0.009682965 -0.01986355 0.04506152 0.034622133
-0.02524375 0.0050945743 0.040575273 -0.060999207 0.020251209 -0.051127963 0.04168347 -0.054146808
0.04446561 0.015500892 0.063743435 0.041494686 0.045694426 0.0062996005 -0.01838151 -0.055983692
0.016611218 -0.014143762 -0.0493588 0.079092614 -0.055953868 0.012284604 -0.04981092 -0.05646682
-0.020096378 0.01674093 -0.076262176 -0.0029567557 -0.00597394 -0.026256658 0.011946404 0.0032879766
0.020053893 -0.042391233 0.05595149 0.036665853 -0.003888547 0.03091147 -0.03169333 -0.021565827
-0.013215023 0.011130113 0.086744584 -0.041950278 -0.008710929 0.011913589 0.04902197 0.06283981
0.016541606 0.005259653 0.048940737 0.087887764 0.00229795 0.028601818 -0.007479664 0.098482646
0.027699566 0.03171047 0.07485809 0.041263286 0.1183185 -0.014035997 0.0015102297 0.08520641
0.039577868 -0.05540807 -0.0521416 -0.023430042 0.022870347 -0.052405924 -0.0029077744 0.02671469
-0.006934948 -0.00010298118 0.024479946 -0.0066891005 0.03397523 0.085941635 0.016193667 -0.03128597
0.027892975 0.09522367 -0.04692019 0.029130302 0.008080703 0.01891759 -0.054592814 0.042889573
-0.008435038 -0.038515326 -0.04124497 0.011678848 0.05751722 0.009624942 -0.0024044255 0.07330877
00000000: 1854 eabc dcd6 363d a516 033d 7399 a03c
00000010: c123 dd3c f872 69bd 583f 873d 7305 a1bd
00000020: b516 70bc d5ff 96bc 6bc5 cdbc 9ce0 163d
00000030: fabd 273d cf64 393d 3c74 293c 5d8d 973c
00000040: 6207 2d3c 966f 2c3d 61e6 d7bc 7723 9c3d
00000050: c081 aa3c c98a ed3d d3de 943b 73ab 01bd
00000060: ea96 0bbd b9b5 02bd 9a70 18bc 375f 423d
00000070: cd16 833d 9636 0fbd ff40 39bd 10bb f2bc
00000080: 56aa 61bc a090 893c 6e51 f1bc 7e50 e33b
00000090: ea91 86bc cac0 0dbd 4257 a0ba 4f95 a0bc
000000a0: 8885 043c c3c0 853b f197 cabc 0686 57bd
000000b0: 6c78 b93d 53aa 9e3d 1010 02bd 8a77 1cbd
000000c0: 3d05 2dbd 27eb 5f3c d1c0 33bd 5838 55bd
000000d0: 4e68 bc3d c27a e1bc 73ba a93d 0995 65bd
000000e0: 8f8b 2cbd 9738 7bbd 5d6c b3bc bdbd 0fbd
000000f0: b596 23bc 5396 4f3d 8b3f cf3d f841 0e3d
00000100: 140c 7a3d 2e3f b8bc 1ca1 aabd d8a4 fabc
00000110: 8844 e3bc b18c fa3a 3072 253c 45af a63c
00000120: f487 803d 0604 2bbd 02d1 1d3d b9dd 213d
00000130: 6315 b83b 51d5 533d 6434 a73b 0638 69bd
00000140: 6c7f b43d fc28 663d ed7c 63bc c08d 3b3d
00000150: 9909 2f3d 8221 29bc ec17 903d dfdb ebbc
00000160: 669e 483b ba8b 37bd 7ffc 6f3d 2a55 813c
00000170: cd98 86bb 339d a83d ce1e ab3c 97e3 84bc
00000180: 2ffc 483d 7888 4cbd a2a1 cb3d 8ad8 6d3d
00000190: 3a7e 5c3c 854a 6ebd 9954 55bd a563 a93d
000001a0: 3ed5 abbc 44ef 0bbd 1808 3a3c 3445 0b3d
000001b0: c48c 403d 86fc 013d e0fa 983d 75c5 213d
000001c0: 9932 2fbd 8a9b 62bc 6ba6 093d 6cb1 69bd
000001d0: 63fc ab3c 46ab 61bc 66fe 013b f44b 16bd
000001e0: a084 a83d b9ba 26bd 7ef7 eebc 2ebd 413c
000001f0: 02ee da3b 269c 75bc dd58 54bb efde ea3c
00000200: 6f39 2f3d 75ca 2bbd a7d1 56bd 44e2 a23d
00000210: 1590 d03d 9647 9a3c f7b6 8cba 985d 0e3d
00000220: 1774 683d 434f 17bc 7702 833c b116 263d
00000230: 9636 b0bc cec3 12bd dae8 73bd 65b4 bcbc
00000240: c150 33bc 17fa 533d 4f3b 00bd 8f65 6bbd
00000250: 79cb 78bd a338 d33a 3d8d 36bd a608 113d
00000260: cbc1 a13c 5ac4 443d 10ea e03c 796a 163d
00000270: 4da5 1ebc e2b8 a2bc 6e92 383d f0cf 0d3d
00000280: fbcb cebc 63f0 a63b 4232 263d 4eda 79bd
00000290: dde5 a53c 8e6b 51bd 49bc 2a3d 0bc9 5dbd
000002a0: 9221 363d 74f7 7d3c eb8b 823d 55f6 293d
000002b0: 142a 3b3d e16c ce3b d294 96bc 284f 65bd
000002c0: 4014 883c 3dbb 67bc 742c 4abd 4ffb a13d
000002d0: e22f 65bd 5d45 493c 8906 4cbd c149 67bd
000002e0: 29a1 a4bc 4624 893c 582f 9cbd 21c6 41bb
000002f0: 0ac1 c3bb 3418 d7bc daba 433c 187b 573b
00000300: 1048 a43c 6ea2 2dbd 642d 653d ef2e 163d
00000310: fed6 7ebb 0d3a fd3c ddd0 01bd d1aa b0bc
00000320: d383 58bc 145b 363c 25a7 b13d 0ed4 2bbd
00000330: 49b8 0ebc 3731 433c 43cb 483d 29b2 803d
00000340: 4382 873c 2b59 ac3b 1576 483d 80fe b33d
00000350: 3499 163b 5c4e ea3c f817 f5bb 45b1 c93d
00000360: 33ea e23c d6e2 013d 334f 993d b103 293d
00000370: f850 f23d 3df7 65bc e6f2 c53a b380 ae3d
00000380: 671c 223d 93f3 62bd 6e92 55bd 5cf0 bfbc
00000390: 985a bb3c 98a7 56bd 5c90 3ebb c4d8 da3c
000003a0: 8f3e e3bb 9af7 d7b8 2b8a c83c 3e30 dbbb
000003b0: 9c29 0b3d 2b02 b03d 95a8 843c b825 00bd
000003c0: cf7f e43c a104 c33d 632f 40bd aca2 ee3c
000003d0: ed64 043c 10f9 9a3c b79c 5fbd faac 2f3d
000003e0: 1d33 0abc 3fc2 1dbd 7cf0 28bd a458 3f3c
000003f0: 2d97 6b3d efb1 1d3c 9193 1dbb e922 963d
