rlgpu/logs/cut/model_515.pt (torch, 868312 bytes, 16 tensors)

log_std f4 [3]
0	0xbf33f9ee	-0.7030324
1	0xbefe7da7	-0.4970524
2	0x3ced421a	0.028962184

actor.0.weight f4 [256, 259]
0	0x3d1adac3	0.037806284
1	0x3d366781	0.044532303
2	0x3d67bc53	0.056576084
3	0xbcd82c3f	-0.026388286
4	0xbd8b87ab	-0.06812986
5	0x3d977147	0.07394653
6	0x3d5d3e57	0.05401453
7	0xbd99f289	-0.07516963
8	0x3cfd2e43	0.030905848
9	0x3d0487f2	0.03235621
10	0x3c99223d	0.018693084
11	0xbdab8cb8	-0.08376449
12	0x3d8f6ee3	0.07003572
13	0xbdbf4f46	-0.09341292
14	0xbcc34468	-0.02383633
15	0xbdaed10f	-0.085359685
16	0xbce76704	-0.028247364
17	0xbd0b83d1	-0.034061257
18	0xbe1fb859	-0.15597667
19	0x3d08b436	0.033374988
20	0x3d78392c	0.0606014
21	0xbda7b1e3	-0.08188226
22	0xbdc6543f	-0.096840374
23	0x3c87da1a	0.016583491
24	0x3dd723fa	0.10504909
25	0x394c57ae	0.0001948762
26	0x3d89fb48	0.06737381
27	0xbc5fbb1e	-0.013655452
28	0xbbfeca0a	-0.00777555
29	0xbd5c957c	-0.053853497
30	0x3c36dee6	0.011161542
31	0xbdb33ce4	-0.08751848
32	0x3cdf1320	0.0272308
33	0x3dda48f4	0.10658446
34	0x3db77fff	0.0895996
35	0xbd0cce50	-0.034376442
36	0x3d605e46	0.054777406
37	0xbc5664fb	-0.013085599
38	0xbd66d163	-0.05635203
39	0x3c2db8b1	0.010603116
40	0xbc699dd3	-0.01425882
41	0xbccedae7	-0.025250865
42	0x3e303c01	0.1721039
43	0x3e1bb3f3	0.15205364
44	0xbdd039d1	-0.101672776
45	0x3e1bdfa9	0.15222038
46	0x3d9ce1ed	0.076602794
47	0xbda12df6	-0.078700945
48	0x3cc69313	0.024240052
49	0xbd9a8e1d	-0.07546637
50	0xbd03309d	-0.032028783
51	0xbe0fb2c0	-0.14033031
52	0xbd289534	-0.041157916
53	0x3dc5e66b	0.09663089
54	0xbd6d9d81	-0.058011536
55	0x3d681930	0.056664646
56	0x3e62381a	0.22091714
57	0x3dbe7d51	0.09301246
58	0x3c4f6318	0.012657903
59	0xbe1b7e81	-0.15184976
60	0x3c88be15	0.0166922
61	0xbd34c2cb	-0.04413108
62	0xbbc450ad	-0.0059910626
63	0x3c7e08ae	0.015504999
64	0xbd2a2567	-0.041539576
65	0x3d0050d7	0.031327095
66	0xbdc149e6	-0.09437923
67	0x3dabcf30	0.08389127
68	0xbcd6a88f	-0.026203422
69	0xbd2156b9	-0.039389346
70	0xbda1089b	-0.078629695
71	0x3d92f8bb	0.07176348
72	0xbdac88bf	-0.0842452
73	0xbcc687b5	-0.024234632
74	0xbcb5328f	-0.022118835
75	0xbd32f7fe	-0.043693535
76	0xbe815994	-0.25263655
77	0xbc0db8f8	-0.008650057
78	0x3d0e0441	0.034672026
79	0xbc8ff66a	-0.017573554
80	0x3d200ed6	0.03907665
81	0x3e033b3c	0.12815565
82	0xbdcf7adb	-0.10130855
83	0x3bf9f172	0.0076276595
84	0xbd5e8570	-0.054326475
85	0x3e0abd25	0.13548715
86	0xbd8ecaaf	-0.069722526
87	0xbe05cfcc	-0.1306755
88	0xbdbdea04	-0.092731506
89	0xbdcff15e	-0.10153459
90	0x3d8dcd42	0.069239154
91	0x3d8740e9	0.066041775
92	0x3c1406c4	0.009034816
93	0x3d0c72c3	0.034289133
94	0x3e319dc4	0.17345339
95	0x3e04fbd3	0.12986688
96	0xbd014d42	-0.03156782
97	0xbd920b93	-0.07131114
98	0xbca4b706	-0.020106804
99	0x3db12cd9	0.08651132
100	0x3d8d1a58	0.0688979
101	0xbdc01167	-0.09378319
102	0xbc6aff20	-0.014343053
103	0xbc2d916d	-0.010593754
104	0x3dd9f9ba	0.10643335
105	0xbd4cf774	-0.050040677
106	0xbd4d8af2	-0.050181337
107	0x3dd24329	0.10266716
108	0xbbde547f	-0.006784975
109	0x3e516948	0.20450318
110	0xbd05058a	-0.032475986
111	0x3df0aeaf	0.11752068
112	0x3cb9a5e7	0.022662116
113	0xbd2a1584	-0.041524425
114	0xbde52b37	-0.11189883
115	0xbdd65018	-0.104644954
116	0xbd5740b9	-0.05255196
117	0x3dced359	0.10098905
118	0xbd9df6c4	-0.077130824
119	0xbc762fc8	-0.01502604
120	0xbd95d13d	-0.073153
121	0x3e1e0c9c	0.15434498
122	0xbdc4b98f	-0.09605705
123	0x3c03ca7d	0.008043882
124	0x3d3fd139	0.04683039
125	0x3de17b05	0.11009792
126	0x3c86324b	0.016381403
127	0xbd42de3f	-0.04757523
128	0x3d637eb9	0.055540774
129	0x3ddde094	0.108338505
130	0x3d8cdd66	0.06878166
131	0x3d90b766	0.070662305
132	0xbd91122d	-0.07083545
133	0xbd724b54	-0.05915387
134	0xbd82e041	-0.06390429
135	0x3e4686a1	0.19387294
136	0xbd8596c6	-0.065228984
137	0xbdc080c9	-0.09399564
138	0x3d91bf40	0.07116556
139	0xbdcea476	-0.10089962
140	0x3d28ea2e	0.041238956
141	0xbe405448	-0.18782151
142	0xbc87215d	-0.016495401
143	0xbc715bef	-0.014731391
144	0xbdbff97a	-0.09373756
145	0x3c7e873b	0.015535171
146	0x3e07b230	0.13251567
147	0xbbbb441e	-0.0057149073
148	0xbd9cc4eb	-0.076547466
149	0xbd9fa30b	-0.0779477
150	0xbe07f11e	-0.13275573
151	0x3dad16bf	0.08451604
152	0xbe266af1	-0.16251732
153	0x3ca48b4b	0.020085951
154	0xbc51f861	-0.012815566
155	0x3df85634	0.12125817
156	0x3e1fd1d6	0.1560739
157	0x3d7b4790	0.061347544
158	0xbd40d3f4	-0.047077134
159	0x3e00e23a	0.12586299
160	0x3df53f21	0.119749315
161	0x3d35aeff	0.044356342
162	0xbe01b08e	-0.12665007
163	0xbdaa2609	-0.08308036
164	0xba6cc2a0	-0.0009031687
165	0x3d3ca6cf	0.04605752
166	0xbd6fc9dc	-0.058542117
167	0xbce8605e	-0.028366264
168	0xbe43a8bf	-0.1910734
169	0xbd7123e1	-0.058872107
170	0x3d909d5a	0.070612624
171	0xbe21ddca	-0.15807262
172	0x3d7d9e88	0.061918765
173	0x3dd65e6f	0.104672305
174	0x3d841397	0.06449049
175	0xbd31a3a8	-0.043368965
176	0x3e0179db	0.1264414
177	0xbd962a34	-0.07332268
178	0xbdb3b729	-0.087751694
179	0xbc7b0659	-0.015321338
180	0x3e0ab0e6	0.13544044
181	0x3d1b933f	0.03798222
182	0xbdafa9bf	-0.085772984
183	0x3cc7f500	0.024408817
184	0xbe4d1621	-0.20027973
185	0xbcb8c647	-0.022555484
186	0x3d2be778	0.041968793
187	0xbd1c21dc	-0.03811823
188	0xbdea4eaf	-0.11440789
189	0xbd9d5486	-0.07682137
190	0xbe21bc97	-0.15794598
191	0xbd5e5cb6	-0.054287635
192	0xbcce4a74	-0.025181986
193	0xbd31322e	-0.043260746
194	0x3e28719b	0.16449587
195	0x3d51cacc	0.051218793
196	0x3dff0f7e	0.12454127
197	0xbcb68895	-0.022281924
198	0xbc96c67e	-0.018405195
199	0x3e1e80ce	0.15478823
200	0xbd15120a	-0.036394157
201	0xbe69af8e	-0.22820875
202	0x3ca72ccb	0.020407101
203	0x3dc2e073	0.095154665
204	0x3dba84d5	0.09107367
205	0xbd1bb4b0	-0.038014114
206	0x3db9ae2b	0.09066423
207	0xbcb6b0cc	-0.0223011
208	0xbdc4c6e8	-0.09608251
209	0xbe44f447	-0.1923381
210	0xbd533486	-0.051563762
211	0x3d576176	0.05258318
212	0xbd5a4208	-0.05328563
213	0xbdabbcae	-0.08385597
214	0xbcabaaaa	-0.020955402
215	0x3e52cdbd	0.20586295
216	0x3d957199	0.07297058
217	0x3d301a95	0.0429941
218	0xbd863ab9	-0.06554169
219	0x3da6b520	0.081400156
220	0x3d882baf	0.06648957
221	0xbc1e715e	-0.0096705835
222	0xbb4d24eb	-0.0031302522
223	0xbb479871	-0.0030455852
224	0xbdf85f88	-0.12127596
225	0x3d88497e	0.066546425
226	0xbd2e4b5e	-0.042552345
227	0xbde83816	-0.113388225
228	0x3dcdd856	0.100510284
229	0x3d4c2cea	0.04984752
230	0x3d9e18fa	0.07719608
231	0x3cfd0f98	0.030891225
232	0x3dc6ea99	0.09712715
233	0x3d9478b6	0.07249586
234	0xbdc42b3e	-0.0957856
235	0x3ccb8b47	0.024846686
236	0xbdde0eed	-0.108426906
237	0xbe2272a9	-0.15864052
238	0x3d09df90	0.03366047
239	0xbd75c311	-0.060000483
240	0xbca8c376	-0.020601016
241	0xbe1e35b2	-0.1545017
242	0x3e0d4fc5	0.13799961
243	0xbc1ada99	-0.009451532
244	0x3de941cc	0.11389503
245	0x3dafb702	0.08579828
246	0x3c04c993	0.0081047
247	0x3c97ac5b	0.018514803
248	0x3e20c8f9	0.15701665
249	0xbcd90fca	-0.026496787
250	0x3dd0cca4	0.10195282
251	0xbc08c52f	-0.0083477935
252	0xbdbbc26c	-0.091679424
253	0x3daeac6a	0.08528979
254	0xbc727011	-0.0147972265
255	0x3d22e71e	0.03977119

actor.0.bias f4 [256]
0	0xbcac0e1f	-0.021002827
1	0xbd4e365d	-0.050344814
2	0xbca3f24a	-0.020012993
3	0xbceb618b	-0.028733036
4	0xbc716e3c	-0.014735755
5	0x3b8d5431	0.004313015
6	0x3d410eb9	0.04713318
7	0x3d0b9505	0.034077663
8	0xbc4fbe33	-0.012679624
9	0x3d44cbf0	0.048046052
10	0x3d279fe4	0.040923968
11	0x3c8c200c	0.017105125
12	0x3d7df869	0.06200448
13	0x3c4a6bbb	0.0123547865
14	0xbc8a681c	-0.016895346
15	0x3bc3750f	0.005964882
16	0x3cae5950	0.021282822
17	0x3c12484f	0.0089283725
18	0x3caadc76	0.020857077
19	0xbd2a3259	-0.04155192
20	0x3cc0150c	0.023447536
21	0x3acd8e9a	0.0015682757
22	0x3d3f4d10	0.046704352
23	0xbd4c82ed	-0.049929548
24	0x3c7eedbc	0.01555961
25	0xbd733f34	-0.059386447
26	0xbc84680e	-0.016162898
27	0x3d11ff2c	0.03564374
28	0xbd64ab8c	-0.055827662
29	0xbd0af22e	-0.033922367
30	0x3d0ae13f	0.033906218
31	0xbd15d2cf	-0.036577996
32	0x3c999e26	0.018752169
33	0x3d3ddcbc	0.046353087
34	0x3cfbe7cc	0.030750178
35	0xbcdde755	-0.027087847
36	0xbd378959	-0.04480872
37	0x3d34f29e	0.04417669
38	0x3d80b2d7	0.06284111
39	0xbce21f69	-0.027602868
40	0x3d7aedee	0.061262064
41	0xbc5f23fd	-0.01361942
42	0x3d6165aa	0.055028595
43	0x3d3cbdf2	0.046079583
44	0xbd5697a1	-0.0523907
45	0x3d4b31e2	0.04960812
46	0xbce17c48	-0.027525082
47	0x3d85b541	0.06528712
48	0x3d4d1e52	0.050077744
49	0xbce960e9	-0.028488593
50	0xbd38d3bb	-0.045123797
51	0x3d6fd6a7	0.058554318
52	0x3b47b8b0	0.0030475073
53	0x3cf1380e	0.029445674
54	0xbd2a835d	-0.041629184
55	0xbd2bda87	-0.04195645
56	0xbc84346f	-0.016138284
57	0x38bcfef5	9.012028e-05
58	0xba458682	-0.0007534997
59	0x3ccf40af	0.025299398
60	0x3c9b3020	0.018943846
61	0xbd39bf9a	-0.04534874
62	0xbd676f90	-0.05650288
63	0x3d75a009	0.059967075
64	0xbd7306f0	-0.059332788
65	0xbd702ab1	-0.058634464
66	0xbca0cedd	-0.01962989
67	0x3c6a3c6e	0.014296634
68	0x3d10e278	0.035372227
69	0xbc9013ed	-0.017587626
70	0xbccbde9e	-0.024886426
71	0xbc4f9513	-0.012669819
72	0x3d0c88a1	0.034309987
73	0xbc1f5c0b	-0.009726535
74	0x3c9db7c2	0.019252662
75	0xbd40d94c	-0.04708223
76	0xbc73a35a	-0.014870489
77	0x3c8cdade	0.017194208
78	0xbcf8f6ad	-0.030391062
79	0xbd052588	-0.032506496
80	0x3cec09f7	0.028813345
81	0xbd5a87c2	-0.053352125
82	0xbd4d054c	-0.05005388
83	0x3d59a6b5	0.0531375
84	0x3d18c444	0.03729655
85	0xbd75b934	-0.059991077
86	0xbd3d3286	-0.04619076
87	0xbd3ea152	-0.046540566
88	0x3d078b1b	0.033091646
89	0xbd3d200f	-0.04617315
90	0xbd64d52d	-0.055867363
91	0x3d293cb7	0.041317668
92	0xbcc1a8dc	-0.023640089
93	0xba3f9679	-0.0007308494
94	0xbd3a8ce8	-0.045544535
95	0x3cc05315	0.023477117
96	0x3cf5bdad	0.029997671
97	0x3d4bd5a3	0.049764287
98	0xbd36a48f	-0.04459053
99	0x3c8bcae9	0.017064529
100	0xbc5e97a3	-0.013585958
101	0xbadda546	-0.0016910217
102	0xbd6ac670	-0.05731815
103	0xbd55cc8c	-0.052197024
104	0x3b46bd7d	0.0030325346
105	0xbd19ab1d	-0.037516702
106	0x3cde83a5	0.027162382
107	0xbabe727b	-0.0014529967
108	0x3adc58d3	0.001681114
109	0x3b88f698	0.004179787
110	0xbc2b5465	-0.010457133
111	0x3cd472b4	0.025933601
112	0x3cf9c9fe	0.030491825
113	0xbd5061c4	-0.050874487
114	0x3c38f6d0	0.011289313
115	0x3ce64139	0.028107272
116	0xbcdb3e69	-0.026763158
117	0xbd1a81c6	-0.037721418
118	0xbce13026	-0.02748878
119	0xbd7aa62d	-0.061193634
120	0xbce2b3aa	-0.027673561
121	0xbc82b0ff	-0.015953539
122	0xbc8db658	-0.017298862
123	0xbd43e43f	-0.047825094
124	0x3cbd060e	0.023074176
125	0x3d5bb20c	0.053636596
126	0xbcf9fdd4	-0.030516542
127	0xbd17101d	-0.0368806
128	0xbb598e2c	-0.0033196313
129	0xbcdca396	-0.026933473
130	0x3d3aa341	0.045565847
131	0x3c5619e7	0.013067699
132	0xbd51c922	-0.051217206
133	0xb9a1c1a8	-0.00030852598
134	0xbc2287db	-0.009920086
135	0xbd2b484f	-0.041817006
136	0xbd28727f	-0.041124817
137	0xbd66a708	-0.056311637
138	0xbd2f5ff1	-0.042816106
139	0xbabdb795	-0.0014474267
140	0xbd839f8c	-0.064269155
141	0x3cfd354b	0.030909201
142	0x3d0febb4	0.035136893
143	0x3d13afc9	0.036056314
144	0x3d696c09	0.056987796
145	0x3ab117f8	0.0013511172
146	0x3cd0f6c1	0.025508286
147	0x3c2a8b2e	0.01040916
148	0xbb62e372	-0.0034620431
149	0x3c9d5ee6	0.01921029
150	0x3d44ddd5	0.048063118
151	0x3d15896a	0.036508
152	0xbc71c60d	-0.014756692
153	0x3d56fe66	0.052488707
154	0x3d624c21	0.055248383
155	0x3d3fe6b1	0.046850864
156	0xbd295360	-0.04133928
157	0x3d1612ae	0.036638908
158	0x3b18294a	0.002321797
159	0xbd3ea715	-0.04654606
160	0xbd72a45e	-0.059238784
161	0x3c82caed	0.015965903
162	0x3cd60c3a	0.026128877
163	0x3cb2f506	0.021845352
164	0xbd17d711	-0.037070338
165	0xbd828674	-0.06373301
166	0x3d882767	0.066481404
167	0x3bd20104	0.0064088125
168	0x3d01926e	0.031633787
169	0xbc1d9401	-0.009617806
170	0xbd43c82a	-0.047798313
171	0x3d3dfc37	0.04638311
172	0x3cb3dac0	0.021954894
173	0x3d4d5d30	0.0501377
174	0xbcfda6a6	-0.030963253
175	0xb99fc19e	-0.000304711
176	0x3cfe0b16	0.031011146
177	0x3d6626f3	0.05618949
178	0x3cc0b4c8	0.023523703
179	0x3d81063d	0.06300018
180	0xbd54feef	-0.052000936
181	0xbd42f23c	-0.047594294
182	0xbd3c47ea	-0.04596702
183	0x3d632b6e	0.05546134
184	0x3d02a709	0.03189758
185	0xbc4ec9d4	-0.012621362
186	0x3d24845b	0.040165287
187	0xbcb72d12	-0.022360358
188	0xbd6c6e00	-0.05772209
189	0xbc2d7ce2	-0.010588856
190	0xbbf09c4e	-0.0073428517
191	0xbd0e93c2	-0.03480888
192	0xbd041f47	-0.03225639
193	0xbd578068	-0.052612692
194	0xbd32317c	-0.043504223
195	0xbce3a2d5	-0.027787605
196	0x3d34372c	0.04399793
197	0x3d55edd2	0.052228756
198	0x3cef32c8	0.02919902
199	0x3d6debe6	0.0580863
200	0xbd50774d	-0.050895024
201	0x3c887b9b	0.016660502
202	0x3d4ea062	0.05044592
203	0x3909c178	0.00013137411
204	0xbd4b7adf	-0.049677726
205	0x3c84c0b6	0.016205173
206	0xbcda2a8b	-0.026631614
207	0xbcc5a62f	-0.024127094
208	0x3d20123b	0.039079886
209	0xbca6ac0c	-0.02034571
210	0xbcf68dc2	-0.030096892
211	0xbc9d5628	-0.019206122
212	0x3d22f4cb	0.039784234
213	0xbcfaaf12	-0.030601058
214	0x3d747946	0.059685968
215	0x3cfea4b8	0.031084403
216	0x3c757cc7	0.0149833625
217	0xbb26213c	-0.00253494
218	0xbc75d451	-0.015004233
219	0xbd13c24e	-0.036073975
220	0xbd316fb1	-0.043319408
221	0xbd693d6f	-0.056943353
222	0xbcbfa1f7	-0.02339266
223	0x3c7d7d77	0.015471808
224	0x3d53ed11	0.051739756
225	0x3d46ead6	0.0485638
226	0xbc4ac3ef	-0.012375816
227	0x3cb0fbf4	0.021604516
228	0x3d78353e	0.06059765
229	0x3d8d65bc	0.0690417
230	0xbd5c6a91	-0.053812567
231	0xbd1e5be0	-0.038661838
232	0x3c8f71e0	0.017510355
233	0xbcd9f5bc	-0.026606433
234	0x3bc1ce44	0.0059144814
235	0xbd7c12cf	-0.061541375
236	0xbd3585fd	-0.044317234
237	0x3c5f61ed	0.013634187
238	0xbd2f54c4	-0.04280545
239	0xbd7a2625	-0.061071534
240	0xbb68750f	-0.0035470163
241	0x3ce83143	0.028343802
242	0xbd1d9cc8	-0.038479596
243	0xbc77896f	-0.01510845
244	0xbd8f2cc4	-0.0699096
245	0x3d2d713a	0.04234431
246	0x3d01f3bf	0.031726595
247	0xbce65c2f	-0.028120128
248	0x3c8efa1d	0.017453248
249	0x3c3887c2	0.011262836
250	0x3d023227	0.03178611
251	0x3d129107	0.03578284
252	0x3d54b34a	0.051928796
253	0x3d2310e0	0.039811015
254	0x3c6cd4e7	0.014455057
255	0x3d262101	0.04055882

actor.2.weight f4 [128, 256]
0	0xbd21b71e	-0.039481275
1	0x3e1edc42	0.15513709
2	0xbe1c0e90	-0.1523993
3	0x3c3c56a2	0.011495264
4	0xbd5bac98	-0.053631395
5	0xbe066c35	-0.13127215
6	0x3cf1ccce	0.029516604
7	0x3dce2895	0.10066334
8	0x3c9d0069	0.019165235
9	0x3e1e8ef4	0.1548422
10	0xbd9c57e8	-0.07633954
11	0xbdac437e	-0.084113106
12	0xbd524d79	-0.051343415
13	0x3dd4e870	0.103958964
14	0x3c6b6546	0.014367407
15	0x3d7794eb	0.060444754
16	0xbe2e4589	-0.17018713
17	0xbdac4b27	-0.08412772
18	0xbde1d933	-0.110277556
19	0x3e02a8cc	0.12759703
20	0x3e7d7b0a	0.24753967
21	0xbc29e39c	-0.010369208
22	0xbe066d8a	-0.13127723
23	0x3d8ba0cf	0.06817781
24	0xbe34a77a	-0.17642012
25	0xbe1cb863	-0.15304713
26	0x3c0e7177	0.008694044
27	0x3cefa903	0.029255396
28	0xbd8e98ff	-0.069627754
29	0x3c9411d7	0.018074913
30	0xbd08377d	-0.033256043
31	0xbce3d9f7	-0.027813895
32	0x3cec8c4c	0.028875493
33	0x3c62bc71	0.013838873
34	0x3db30d0e	0.08742724
35	0x3cabe721	0.020984234
36	0xbe5a4d68	-0.2131859
37	0x3bb87027	0.005628604
38	0x3d9a81f7	0.0754432
39	0xbd31db1e	-0.043421857
40	0x3dc743fc	0.09729764
41	0x3df547c2	0.11976577
42	0xbd83e885	-0.06440834
43	0x3d07ce1a	0.03315554
44	0x3d302e6e	0.04301303
45	0xbd982c45	-0.07430319
46	0x3d1817d9	0.037132118
47	0x3cbaa5de	0.02278417
48	0x3d2203e0	0.039554477
49	0xbe36f68f	-0.17867492
50	0xbc74aaf4	-0.0149333365
51	0x3db74550	0.08948767
52	0xbd02c83a	-0.031929232
53	0xbddcba8d	-0.10777769
54	0x3d0e4e9f	0.034742948
55	0xbd10196b	-0.03518049
56	0xbe1b915c	-0.15192169
57	0x3d23a0ce	0.039948277
58	0x3b5eadc2	0.003397808
59	0xbd6dbba3	-0.058040272
60	0xbcd0032c	-0.025392137
61	0x3e1a1d20	0.15050173
62	0x3db2fa2c	0.08739123
63	0xbe6bd99b	-0.23032229
64	0x3d416610	0.047216475
65	0xbdbff8c9	-0.09373624
66	0x3ca6dd2f	0.02036914
67	0xbdaa5c1c	-0.0831835
68	0x3baa8ab4	0.005204523
69	0xbd83eb47	-0.0644136
70	0xbda20836	-0.07911722
71	0xbd9292fe	-0.07156943
72	0xbdb5f80a	-0.088852
73	0xbc6c2d76	-0.014415136
74	0xbca4e161	-0.020127
75	0x3dea3cd9	0.11437387
76	0xbdd99cc2	-0.10625602
77	0x3c694cbe	0.014239488
78	0xbd0621fd	-0.032747258
79	0x3d85bb34	0.06529847
80	0x3d0e2f58	0.03471312
81	0x3c07ddbb	0.008292611
82	0x3db12432	0.08649482
83	0xbe40de9d	-0.1883492
84	0x3d49523d	0.049150694
85	0xbc61af41	-0.013774694
86	0xbdb86a0c	-0.09004602
87	0x3e7953ef	0.24348424
88	0xbc9c74db	-0.01909869
89	0xbd9ce8dc	-0.07661602
90	0xbbdbb929	-0.0067054224
91	0x3b934808	0.004494671
92	0x3d71c9d0	0.059030354
93	0x3cba836e	0.022767749
94	0xbcadc4ff	-0.0212121
95	0x3d33571d	0.04378425
96	0x3cb960c1	0.022629144
97	0x3b926b0e	0.0044683283
98	0xbd3b2183	-0.045686256
99	0x3cc18772	0.023624156
100	0xbdfe3f51	-0.124144204
101	0x3e263d83	0.16234402
102	0x3d85f066	0.06539993
103	0x3e21daf4	0.1580618
104	0x3d2f19e3	0.042749297
105	0xbd17e2d6	-0.037081562
106	0x3d71c438	0.05902502
107	0x3d4d5401	0.05012894
108	0xbdb6788e	-0.08909713
109	0x3c8b047a	0.016969908
110	0x3d93d6f8	0.072187364
111	0x3cb8e261	0.022568883
112	0xbd8ada91	-0.067799695
113	0x3c4347e9	0.011919
114	0xbdc65519	-0.096842
115	0xbe0ccb14	-0.13749343
116	0x3d94f1de	0.07272695
117	0xbb4b4217	-0.0031014734
118	0xbdc95de7	-0.098323636
119	0xbb725dab	-0.00369821
120	0xbcaaa4f6	-0.020830613
121	0x3e319f77	0.17345987
122	0x3d275b11	0.040858332
123	0xbdc9b9e7	-0.09849911
124	0xbdaf73e8	-0.08567029
125	0x3db12a69	0.08650667
126	0x3d5ea7e3	0.054359328
127	0x3dc94839	0.098282285
128	0x3d6d52c3	0.057940256
129	0x3cadb929	0.021206455
130	0x3d13474b	0.035956662
131	0x3d8b98ef	0.06816279
132	0xbd5302bf	-0.05151629
133	0x3e2e6ca7	0.17033635
134	0xbd6f868c	-0.058477923
135	0x3c7221da	0.014778579
136	0xbcb1f5b9	-0.021723615
137	0x3e0f2b5a	0.13981381
138	0xbe005b6d	-0.12534876
139	0xbe353002	-0.17694095
140	0x3db2146f	0.08695304
141	0x3c51be33	0.012801695
142	0x3c8fa433	0.017534351
143	0xbe2e2c2f	-0.17009042
144	0xbcbb8bd4	-0.022893824
145	0xbdb9fca1	-0.09081388
146	0x3d8fd7bc	0.0702357
147	0x3d121184	0.035661235
148	0x3ce33995	0.027737418
149	0x3d9031f4	0.07040778
150	0x3d76a262	0.060213454
151	0x3d2c02a5	0.04199471
152	0xbc9e6a62	-0.019337837
153	0x3df2841b	0.11841603
154	0xbb21a256	-0.002466341
155	0x3c856cee	0.016287293
156	0x3d05ea00	0.032693863
157	0xbdd68025	-0.104736604
158	0xbcd3eeb1	-0.025870653
159	0xbd6f85de	-0.058477275
160	0x3e77b31a	0.24189416
161	0xbe2a591a	-0.16635552
162	0x3c7b8340	0.015351117
163	0xbca1bdc2	-0.019743804
164	0x3d25e158	0.040498108
165	0xbe3702db	-0.17872183
166	0x3c658ee9	0.014011123
167	0xbe0a5b1d	-0.1351132
168	0x3d7ced1b	0.06174956
169	0xbd0871f4	-0.0333118
170	0x3cbe851d	0.023256833
171	0x3d54df19	0.051970575
172	0xbdcb997c	-0.09941384
173	0x3d4aea43	0.049539816
174	0x3b959c9b	0.004565788
175	0x3aa413b8	0.0012518084
176	0xbd746aee	-0.05967229
177	0x3e36d6d5	0.1785539
178	0x3de7aed7	0.11312645
179	0x3c789d46	0.015174216
180	0xbd7b6b8e	-0.06138187
181	0xbdd25b8f	-0.1027137
182	0xbe040803	-0.12893681
183	0x3df7120d	0.1206399
184	0x3a25fa8b	0.00063315843
185	0x3d9a2fb1	0.07528628
186	0x3ab04562	0.0013448412
187	0x3dc6be55	0.09704272
188	0xbd6070ea	-0.054795183
189	0xbc218d50	-0.009860352
190	0x3d20303f	0.03910851
191	0x3e0da683	0.1383305
192	0x3d28da66	0.041223906
193	0x3d52f085	0.05149891
194	0x3d338de3	0.043836486
195	0xbb0f967e	-0.0021909769
196	0x3c69cb21	0.014269621
197	0xbcef4176	-0.029206019
198	0x3dbeb56b	0.093119465
199	0xbbe8c35a	-0.007103366
200	0x3da94bd4	0.08266416
201	0x3cc89ace	0.02448788
202	0xbe0260b5	-0.12732203
203	0xbd39c5fb	-0.045354825
204	0xbb182338	-0.0023214351
205	0xbda452d1	-0.080236085
206	0x3b8198d8	0.003954988
207	0x3dace9e3	0.08443048
208	0x3db0bfc7	0.086303286
209	0xbd988095	-0.074464
210	0x3b12cd87	0.0022400336
211	0xbe17ff70	-0.14843535
212	0x3d4a42a7	0.04937997
213	0xbdf6f1ad	-0.12057815
214	0x3d576ced	0.052594114
215	0xbe072ca1	-0.13200618
216	0x3c4498ee	0.011999352
217	0xbe0b0f39	-0.13580026
218	0x3dc78156	0.09741466
219	0xbda05999	-0.078295894
220	0x3d4d41b8	0.050111502
221	0xbd5e25f3	-0.05423541
222	0x3c27efb1	0.010250018
223	0x3d9c99f3	0.07646551
224	0x3da641ad	0.081179954
225	0xbdb06f18	-0.086149395
226	0x3db9ae89	0.09066493
227	0xbd57d32e	-0.05269163
228	0x3daf0756	0.08546321
229	0xbdb9605d	-0.09051583
230	0x3e24b076	0.1608294
231	0xbe07e846	-0.13272199
232	0x3c369ee2	0.011146279
233	0x3c9f79d3	0.01946727
234	0xbdc4f311	-0.09616674
235	0x3c61a28a	0.0137716625
236	0xbdcb4575	-0.09925357
237	0x3d305fc8	0.043060094
238	0xbd424f89	-0.047439132
239	0xbd3c8c22	-0.04603208
240	0x3db645ab	0.08900007
241	0xbb890951	-0.004182019
242	0x3c2987fd	0.010347364
243	0xbe2b9745	-0.16756923
244	0x3d1c6373	0.03818078
245	0x3e51f6fe	0.20504376
246	0xbdd99d59	-0.10625715
247	0xbe079801	-0.13241579
248	0x3e084377	0.13306986
249	0x3c75bd1a	0.014998699
250	0x3c127345	0.008938615
251	0xbde2caeb	-0.1107386
252	0xbdf34890	-0.118790746
253	0xbd3e30ec	-0.046433374
254	0x3de6146e	0.112343654
255	0xbd70a488	-0.05875066

actor.2.bias f4 [128]
0	0xbcbf3bae	-0.023343887
1	0x3cf409b3	0.029789781
2	0xbd22e467	-0.039768603
3	0xbd09f684	-0.03368236
4	0xbcd09a74	-0.025464274
5	0x3cf57222	0.02996165
6	0xba95e422	-0.0011435787
7	0xbc6366a9	-0.013879457
8	0x3c0fdcce	0.008780671
9	0x3d22fc41	0.03979135
10	0xbae721ff	-0.0017634033
11	0x3d69006f	0.05688518
12	0xbd8081f2	-0.06274785
13	0xbd87f901	-0.066392906
14	0xbc399c80	-0.011328816
15	0xbd3e23f4	-0.046421006
16	0x3c1d14e3	0.009587499
17	0xbd45e3fa	-0.04831312
18	0xbc909fd3	-0.017654335
19	0x3b37774e	0.0027994695
20	0x3cef9c88	0.029249445
21	0xbd46a03d	-0.04849266
22	0xbd75f963	-0.060052287
23	0x3d5b0204	0.05346872
24	0xbd1f7105	-0.038926143
25	0xbd23d2c3	-0.03999592
26	0xbc59c716	-0.013292095
27	0x3d214aab	0.03937785
28	0xbceba93f	-0.028767226
29	0xbc5b6386	-0.013390427
30	0x3d351c45	0.044216413
31	0x3d2480bf	0.040161844
32	0xbc0a6167	-0.008446074
33	0xbd68c629	-0.056829605
34	0x3d0bde0e	0.034147315
35	0xbc0a63b5	-0.008446624
36	0xbb3ef6e3	-0.0029138855
37	0x3d35f1f8	0.044420213
38	0xbb3e9b2e	-0.0029084194
39	0xbd5cc75c	-0.05390106
40	0x3c26936b	0.010166983
41	0x3c6bb8e2	0.014387341
42	0xbd0d7ded	-0.03454392
43	0xbb4573c9	-0.0030128828
44	0x3c1ffc01	0.009764672
45	0xbd28e51c	-0.04123412
46	0x3c8feefe	0.017570015
47	0xbd510542	-0.051030405
48	0xbc5fa6a4	-0.01365057
49	0x3d44ecdf	0.04807746
50	0xbd6584a1	-0.056034688
51	0xbc002498	-0.007821225
52	0xbcbdced2	-0.023169909
53	0xbce8f951	-0.028439196
54	0x3cf06755	0.029346148
55	0x3d3fb7fb	0.046806317
56	0xbd0983e0	-0.03357303
57	0x3d45abd0	0.048259556
58	0xbcd81f52	-0.026382122
59	0xbc0448b4	-0.008073974
60	0x3d0fc8a3	0.03510345
61	0x3a88ae94	0.0010428005
62	0x3d14bcbc	0.036312804
63	0x3c9aa387	0.018876804
64	0x3c987ccd	0.018614197
65	0x3d14fdd9	0.0363749
66	0xbbd23898	-0.006415438
67	0x3b8e63f4	0.0043454114
68	0x3d0943a2	0.033511765
69	0xbc10e9df	-0.008844822
70	0x3d304fd1	0.04304487
71	0xbcc42f36	-0.023948293
72	0x3c874854	0.01651398
73	0xbd045848	-0.032310754
74	0xbd67f9c1	-0.05663467
75	0x3d1d59ab	0.038415592
76	0xbc95d151	-0.018288286
77	0x3d1eb219	0.038744066
78	0xbc91b049	-0.017784255
79	0xbc5c11db	-0.013431991
80	0xbc12bc7c	-0.008956071
81	0xbd6b5e74	-0.057463124
82	0x3d142b3a	0.036174037
83	0x39ae74f8	0.00033275015
84	0xbd335a44	-0.043787256
85	0x3d6d60e0	0.057953715
86	0x3d5dd570	0.054158628
87	0xbd3d1791	-0.046165053
88	0x3d53e33d	0.051730383
89	0xbd47d73f	-0.04878926
90	0xbd59fa9b	-0.05321751
91	0xbcc62ba6	-0.024190735
92	0xbd5bc50c	-0.053654715
93	0xbcf5d8a1	-0.030010523
94	0x3cfd73b8	0.030938968
95	0x3c744311	0.014908568
96	0xbd34d423	-0.04414762
97	0x3b8f99e9	0.004382361
98	0x3b9b9907	0.004748467
99	0x3bb1b834	0.00542357
100	0x3cd8281b	0.026386311
101	0x3c3ff336	0.011715701
102	0xbd637beb	-0.0555381
103	0xbd7d65bf	-0.06186461
104	0xbd5d7ba9	-0.05407301
105	0xbc9f4077	-0.019439919
106	0x3d7af1c6	0.06126573
107	0x3bb5d506	0.005549076
108	0xbcf24ed9	-0.029578613
109	0xbd71d323	-0.059039246
110	0x3ccc8755	0.024966875
111	0xbc8a3cb1	-0.016874643
112	0xbd36a963	-0.044595134
113	0xbd2e21a9	-0.04251257
114	0x3d0ed90e	0.03487497
115	0x3d2b2209	0.041780505
116	0xbc8ca18a	-0.017166872
117	0x3c2d9825	0.010595356
118	0x3d88216e	0.06647001
119	0xbd60d726	-0.05489268
120	0xbd30cc81	-0.04316378
121	0xbc8d03bc	-0.017213695
122	0xbca4ea7f	-0.020131348
123	0xbd675080	-0.056473255
124	0xbd4f9566	-0.050679587
125	0xbc94d5d1	-0.018168362
126	0x3c34dc90	0.011038914
127	0x3cb1ea45	0.021718154

actor.4.weight f4 [64, 128]
0	0xbd9c2200	-0.076236725
1	0xbc125903	-0.008932355
2	0x3de9250e	0.11384021
3	0xbde3c67a	-0.11121841
4	0xbde29ebc	-0.110654324
5	0xbc055900	-0.008138895
6	0x3d9f1169	0.077669926
7	0xbe8bfc93	-0.27341136
8	0x3d2ba160	0.041901946
9	0xbe8080f5	-0.25098386
10	0x3e063141	0.13104726
11	0x3e2b5612	0.16732052
12	0xbdc6662b	-0.09687456
13	0x3d1dfba7	0.038570073
14	0x3d25da6a	0.0404915
15	0xbdc7cb43	-0.09755566
16	0x3e154712	0.14577892
17	0xbd6d1da8	-0.05788961
18	0x3e41274c	0.18862647
19	0xbda9afb8	-0.08285469
20	0xbd5eec27	-0.05442443
21	0x3c257850	0.0100994855
22	0x3e03c363	0.12867503
23	0xbc8cf462	-0.017206375
24	0xbde42e7c	-0.11141679
25	0x3d1ee741	0.03879476
26	0x3d98aae0	0.07454467
27	0xbe50ba56	-0.20383582
28	0x3d1700e6	0.03686609
29	0xbd25b7b6	-0.040458404
30	0x3ca0b8f3	0.01961944
31	0x3df9605b	0.121765815
32	0xbca48cbd	-0.02008664
33	0x3e9889ea	0.2979272
34	0xbd2f1271	-0.042742196
35	0x3d2fea0a	0.042947806
36	0x3cbde47e	0.023180243
37	0x3c9db6ce	0.019252207
38	0xbc86eeac	-0.01647123
39	0xbdb0e7cc	-0.08637962
40	0xbcd353a8	-0.025796726
41	0xbcc41aea	-0.023938615
42	0xbe4f39d0	-0.20236897
43	0xbe4e8c9e	-0.20170829
44	0x3ae08c70	0.0017131697
45	0x3da095aa	0.07841046
46	0x3d424fe5	0.047439475
47	0xbda67d0f	-0.08129322
48	0xbd7e22ad	-0.06204479
49	0x3d87ff7a	0.06640525
50	0x3dcc5678	0.0997743
51	0x3d9e1d58	0.077204406
52	0x3e9f56f2	0.31121022
53	0xbded9fa5	-0.116027154
54	0xba852259	-0.0010157331
55	0xbc95ab7e	-0.01827025
56	0x3e17c9ff	0.14823149
57	0xbe8c30b2	-0.27380902
58	0x3d0d37f0	0.034477174
59	0xbd9083d9	-0.07056398
60	0xbcc38b53	-0.023870146
61	0xba83b1b4	-0.0010047466
62	0x3e424d2f	0.18974756
63	0x3dec9fa4	0.115538865
64	0x3e91ce20	0.28477573
65	0x3ccafc25	0.024778435
66	0xbeb7857d	-0.3584403
67	0x3dc2b510	0.09507191
68	0xbdc2ac0c	-0.095054716
69	0xbdab8899	-0.08375663
70	0xbd8d8e12	-0.069118634
71	0x3e1126d9	0.14174975
72	0x3e6ca0c5	0.23108204
73	0x3ea54ba5	0.32284275
74	0x3e5b88a1	0.21438839
75	0x3d150eb4	0.036390975
76	0xbde9a0f4	-0.114076525
77	0x3c9daec3	0.019248372
78	0x3e23b30c	0.1598627
79	0xbe083806	-0.13302621
80	0xbde54c73	-0.11196222
81	0x3c85b20d	0.016320253
82	0x3dc600a5	0.09668092
83	0xbb8afe02	-0.004241706
84	0xbe7433cb	-0.23847882
85	0xbdea1fb5	-0.11431829
86	0xbdae060e	-0.084972486
87	0xbdcef5ec	-0.101054996
88	0x3e1acdfa	0.15117636
89	0xbe663875	-0.22482474
90	0xbd2aa0fe	-0.04165744
91	0xbdd2ffa9	-0.103026696
92	0xbbdb14dd	-0.0066858367
93	0x3d847ff3	0.06469717
94	0x3d4e4ee3	0.0503682
95	0xbbcc89da	-0.006242019
96	0x3cef09dd	0.029179508
97	0xbdb68531	-0.08912123
98	0x3d31fa44	0.043451563
99	0xbda16f26	-0.07882528
100	0x3c170982	0.009218575
101	0xbd7f23df	-0.06229007
102	0xbc1f8d92	-0.009738343
103	0x3d81e1f9	0.06341929
104	0xbd8bda2c	-0.06828722
105	0xbda533e5	-0.08066539
106	0xbd6aeb87	-0.057353523
107	0xbd3e62c6	-0.046480916
108	0x3d305dd9	0.04305825
109	0x3e10a000	0.14123535
110	0x3e08c54c	0.13356513
111	0x3de9503d	0.11392257
112	0x3e0b6844	0.13613993
113	0x3dc955c1	0.098308094
114	0xbe53f0ec	-0.20697373
115	0x3db33cae	0.08751808
116	0x3d5647a1	0.052314404
117	0xbd23390a	-0.03984932
118	0xbe04ca5b	-0.12967817
119	0xbe10508a	-0.14093223
120	0xbe678512	-0.22609356
121	0x3e2774a4	0.16353089
122	0xbdeeb07d	-0.11654756
123	0x3be8a4c2	0.007099719
124	0x3e1f6f81	0.15569879
125	0x3e2792c8	0.16364586
126	0xbd002b8b	-0.031291526
127	0x3d8272e8	0.06369573
128	0x3d2ab616	0.041677557
129	0xbd391226	-0.045183323
130	0x3e226426	0.15858516
131	0x3d838b3e	0.06423043
132	0x3cebfcd2	0.028807078
133	0xbe3f93c9	-0.1870872
134	0xbe397f07	-0.18114863
135	0xbdde6852	-0.10859741
136	0x3e36dc6a	0.17857519
137	0x3dc8783f	0.0978856
138	0x3df27ed8	0.118406
139	0xbdf04851	-0.11732543
140	0x3e19395d	0.14963289
141	0x3e3bdd0b	0.1834604
142	0xbdc540de	-0.09631513
143	0xbdc31564	-0.09525564
144	0x3ea96ae9	0.33089378
145	0x3e37966e	0.17928478
146	0x3dc557f8	0.09635919
147	0xbe402ba1	-0.18766643
148	0xbd1b1a00	-0.037866592
149	0x3d77d669	0.06050721
150	0xbdb0b3de	-0.08628057
151	0xbe981584	-0.29703915
152	0x3cac1d09	0.021009939
153	0x3c1b6093	0.009483474
154	0xbbf8645e	-0.007580324
155	0x3c2751ed	0.010212404
156	0x3dc1ce5f	0.0946319
157	0x3db168a6	0.08662538
158	0xbe3af383	-0.18256955
159	0xbc4d718f	-0.0125392815
160	0x3d9caf4d	0.076506235
161	0x3e265bce	0.16245958
162	0x3d83e8c3	0.0644088
163	0x3e12bed2	0.14330605
164	0x3d8e6f26	0.06954794
165	0x3d280813	0.041023325
166	0x3e127086	0.14300737
167	0x3e32b2c9	0.17451014
168	0xbe135272	-0.14386919
169	0xbe4873ba	-0.19575396
170	0x3c940dc2	0.018072966
171	0x3e079a58	0.13242471
172	0x3e647e0e	0.22313711
173	0xbc90135a	-0.017587353
174	0xbdc77779	-0.097395845
175	0x3cd8836b	0.026429852
176	0x3e28c0c9	0.16479792
177	0x3de904b3	0.113778494
178	0xbd8cf21b	-0.068821155
179	0xbe0777fb	-0.13229363
180	0x3c234c36	0.009966901
181	0xbe480008	-0.19531262
182	0xbd2f38ae	-0.042778663
183	0x3d5fe43d	0.054661024
184	0xbcf97476	-0.03045104
185	0x3d6eec0f	0.05833059
186	0xbdbbe40f	-0.09174358
187	0x3e3c015a	0.1835989
188	0x3cbc8365	0.023011873
189	0xbe231471	-0.15925767
190	0xbe7e14bf	-0.24812602
191	0xbcf336a5	-0.029689142
192	0xbc551e1b	-0.013007666
193	0xbda18fdc	-0.07888767
194	0x3e42894f	0.18997692
195	0xbc181100	-0.009281397
196	0xbcf8eefb	-0.030387392
197	0xbe31db47	-0.17368804
198	0xbdfbfcee	-0.12304102
199	0x3e0553df	0.13020276
200	0xbdd32d8c	-0.10311422
201	0x3e0f2c61	0.13981773
202	0xbe21f5e4	-0.15816456
203	0xbe8cacee	-0.27475685
204	0x3da90fb0	0.08254945
205	0xbdb2dcaf	-0.08733498
206	0x3df31501	0.118692406
207	0x3d05b5ce	0.032644086
208	0xbd86de4d	-0.06585369
209	0xbe4c4d46	-0.19951352
210	0x3d041a84	0.03225185
211	0x3d6c45ec	0.05768387
212	0xbd4d4be3	-0.0501212
213	0xbe6219a4	-0.22080094
214	0xbd63d43c	-0.055622324
215	0x3e98ffe6	0.29882735
216	0x3dd1df9d	0.10247729
217	0xbcbad279	-0.02280544
218	0xbd314830	-0.043281734
219	0xbd4eaabf	-0.050455805
220	0xbd25cce6	-0.04047861
221	0xbc5c3e20	-0.013442546
222	0xbdc86a22	-0.09785868
223	0x3d10ebd1	0.035381142
224	0x3ce37782	0.027766947
225	0x3dc394b7	0.095498495
226	0x3d207447	0.03917339
227	0xbe1fb80a	-0.15597549
228	0xbd17ba32	-0.037042804
229	0xbe5b193c	-0.21396345
230	0x3db932a9	0.09042866
231	0x3e5311b8	0.20612228
232	0xbe3c95b8	-0.18416488
233	0x3dd18840	0.10231066
234	0xbda0f8f8	-0.07859987
235	0xbdcb787a	-0.099350885
236	0x3dd910d7	0.10598915
237	0xbdf2b902	-0.11851694
238	0xbaf4f8db	-0.0018689887
239	0x3db09eab	0.086240135
240	0x3d21616b	0.039399546
241	0x3dde0d14	0.10842338
242	0x3d90b856	0.07066409
243	0x3e0d713f	0.13812731
244	0xbe0fc515	-0.14040025
245	0xbd878c9d	-0.06618617
246	0xbdc12af5	-0.094320215
247	0xbd1e516a	-0.03865186
248	0xbd2960ab	-0.041351955
249	0xbe0f1e07	-0.13976298
250	0xbd7e52b1	-0.06209058
251	0x3e33fd1b	0.17577021
252	0x3b832d18	0.0040031783
253	0xbe2bbcfa	-0.16771308
254	0xbe5099da	-0.2037119
255	0x3d3e06f0	0.046393335

actor.4.bias f4 [64]
0	0xbae74a8b	-0.0017646117
1	0xbb8a5301	-0.0042213206
2	0xbd5776be	-0.052603476
3	0xba9669da	-0.0011475638
4	0xbdb2aca3	-0.08724334
5	0x3d240cde	0.040051334
6	0x3d105afe	0.035243027
7	0x3d9533df	0.07285284
8	0xbda10a8f	-0.07863342
9	0x3d15cab7	0.036570277
10	0x3ca6e825	0.020374367
11	0xbcec4ed7	-0.028846188
12	0x3d55a561	0.05215967
13	0x3cbbba0f	0.022915868
14	0xbb32465d	-0.0027202584
15	0x3d1bba17	0.038019266
16	0x3d32d476	0.04365965
17	0xbc324ee8	-0.0108830705
18	0x3ca1f34c	0.019769333
19	0xbd8755fd	-0.06608198
20	0x3d1708dd	0.036873687
21	0xbda56b95	-0.0807716
22	0xbc58da09	-0.013235577
23	0xbc0378a7	-0.008024371
24	0x3d9bc677	0.076062135
25	0x3d96ad17	0.07357233
26	0x3d748875	0.059700448
27	0x3b057f91	0.0020370225
28	0x3d9f52af	0.077794425
29	0x3d8c10db	0.068391524
30	0xbd66e399	-0.056369398
31	0xbdb9be03	-0.09069445
32	0xbd97eae6	-0.0741785
33	0x3d750592	0.059819765
34	0xbd493c41	-0.04912973
35	0xbad72d7b	-0.0016416752
36	0x3d75fa10	0.06005293
37	0xb996a343	-0.0002873187
38	0x3c7e3bc0	0.015517175
39	0x3d75c8b0	0.060005844
40	0xbc90acd8	-0.017660543
41	0xbcf0de84	-0.029402979
42	0xbd8f9467	-0.070107274
43	0xbd1d181b	-0.038353067
44	0xbcd23774	-0.025661208
45	0xbce8c731	-0.028415294
46	0x3d78bc9b	0.060726743
47	0xbdb4ab22	-0.088217035
48	0xbc4a4ea9	-0.012347856
49	0xbd153f6e	-0.036437444
50	0x3d01f212	0.031724997
51	0x3d9c50ee	0.076326236
52	0xbc752651	-0.014962749
53	0xbda9baaf	-0.0828756
54	0x3d7c4961	0.061593417
55	0x3d1fdbf4	0.039028123
56	0x3d55e5dd	0.052221168
57	0xbd23643e	-0.03989052
58	0x3a0032c3	0.00048903766
59	0xbd802037	-0.062561445
60	0xbd86158f	-0.06547081
61	0x3d85bf9d	0.06530688
62	0x3d3aa150	0.045563996
63	0xbd92108b	-0.071320616

actor.6.weight f4 [3, 64]
0	0x3bda0373	0.006653243
1	0x3ab990e6	0.0014157563
2	0xbb8e882f	-0.0043497304
3	0x3b7666a3	0.0037597797
4	0x3b4bb5e1	0.003108375
5	0x3bc0b604	0.005881073
6	0x3b4ef1dc	0.0031577265
7	0xbbd8df0c	-0.006618386
8	0xba99e63b	-0.0011741588
9	0xb7e58e85	-2.7365293e-05
10	0xbb89b179	-0.0042020646
11	0x3aa5ff92	0.0012664667
12	0x3b78fca7	0.003799239
13	0x3d938222	0.07202555
14	0x3bbedccb	0.0058246604
15	0xbc373954	-0.011183102
16	0xbb37931b	-0.0028011266
17	0x3aea0e2a	0.0017857004
18	0x3ba617ce	0.0050687557
19	0xbbdf5e05	-0.006816628
20	0x3b547aea	0.0032421895
21	0x3bbe04b8	0.0057989024
22	0x3b94cac7	0.0045407745
23	0x3b945a85	0.0045273923
24	0x3bde7d62	0.006789849
25	0x3b597da0	0.003318645
26	0x3bad58ec	0.0052901413
27	0x3b8cede1	0.0043008183
28	0xbbb20a70	-0.005433373
29	0xbc067639	-0.008206897
30	0x3bce0418	0.006287109
31	0x3b65dffb	0.003507613
32	0x3b79f8a8	0.0038142595
33	0x3c330e76	0.010928741
34	0x3b957a63	0.004561709
35	0xb953c61e	-0.00020196332
36	0x3b068983	0.002052874
37	0x3adaeb4a	0.0016702202
38	0xbc60e11f	-0.013725548
39	0x3b912417	0.004429351
40	0x3ad676db	0.0016362326
41	0x3a5abad2	0.00083438784
42	0x3c824fdd	0.015907222
43	0x3bb903fb	0.0056462265
44	0x3b84578c	0.0040387567
45	0xbc09bd04	-0.008406881
46	0x3baea104	0.005329253
47	0x3c2ba040	0.010475218
48	0xbab54a50	-0.0013831351
49	0x3ba2bb6c	0.00496619
50	0x3b463a45	0.0030247134
51	0x3ba40015	0.0050048926
52	0xbbcb1750	-0.0061978474
53	0xbc4107b9	-0.011781626
54	0x3be430b1	0.0069638123
55	0x3acc3538	0.0015579825
56	0x3b78da83	0.003797204
57	0xbc0ec23f	-0.008713304
58	0xbbd0b549	-0.006369267
59	0x3b9e080e	0.0048227375
60	0x3b8c7570	0.0042864606
61	0x3bbbfcf4	0.0057369415
62	0xbb665f5e	-0.0035152058
63	0x3bc17199	0.0059034345
64	0x3ba479d5	0.0050194063
65	0x3bfe7f59	0.007766646
66	0xbc425550	-0.01186116
67	0x3c254696	0.01008763
68	0x3c13705c	0.0089989565
69	0x3c385c2f	0.011252447
70	0x3bc1294a	0.0058948146
71	0xbc4e2237	-0.0125814
72	0x3bf52309	0.007480983
73	0x3c3df18e	0.011593236
74	0xbc369f98	-0.011146449
75	0x3bd883d5	0.0066075125
76	0x3bcf01f9	0.006317374
77	0x3cc16d07	0.023611559
78	0x3c1f7622	0.009732755
79	0xbbfdd012	-0.007745751
80	0xbc625248	-0.013813563
81	0x3c1deae8	0.009638526
82	0x3c0b63b4	0.008507658
83	0xb789c808	-1.642482e-05
84	0x3c086803	0.00832558
85	0x3c1ca747	0.009561366
86	0x3bc94d4f	0.006143249
87	0x3c19181d	0.009344128
88	0x3c6e728b	0.014553676
89	0x3bf7e97d	0.007565676
90	0x3c4caa0c	0.012491714
91	0x3c0eab05	0.008707766
92	0xbc4ad3f5	-0.012379636
93	0xbc4a7deb	-0.012359123
94	0x3c41b180	0.011822104
95	0x3c2136af	0.009839698
96	0x3c0e1f82	0.008674504
97	0x3b842935	0.0040332326
98	0x3bbc13e2	0.005739675
99	0xba285424	-0.00064212293
100	0x3c19ff20	0.009399205
101	0x3c0cddc2	0.008597793
102	0xbc001542	-0.007817568
103	0x3b91e83e	0.0044527343
104	0x3c0d44e9	0.0086223865
105	0x3c277533	0.010220814
106	0x3c18259c	0.0092863105
107	0x3c48cfad	0.012256545
108	0x3c4f4d5a	0.012652719
109	0xbc206f5d	-0.009792176
110	0x3c60634e	0.013695551
111	0x3c601dc8	0.013678975
112	0x3c096b37	0.008387378
113	0x3c0bab84	0.008524779
114	0x3c1311e5	0.008976434
115	0x3c0e8817	0.008699439
116	0xbc290010	-0.010314956
117	0xbc22f57e	-0.009946225
118	0x3c145a63	0.009054753
119	0x3bf98798	0.007615041
120	0x3bf70853	0.007538834
121	0xbc3b7aeb	-0.01144288
122	0xbc51be87	-0.012801773
123	0x3be76160	0.0070611686
124	0x3c0bccf6	0.008532753
125	0x3c0fc0d3	0.008774
126	0xbc8e8a94	-0.017400064
127	0x3c178bc1	0.0092496285
128	0x3d0f5836	0.034996234
129	0x3d0e0bdc	0.03467928
130	0xbcfab336	-0.030603033
131	0x3d04ab26	0.032389782
132	0x3cd74196	0.026276391
133	0x3d00df6e	0.03146308
134	0x3d0526d8	0.032507747
135	0xbcf1b219	-0.029503869
136	0x3d084ed7	0.033278313
137	0x3d016fa8	0.031600624
138	0xbd4db046	-0.050216936
139	0x3d03e8c6	0.032204412
140	0x3d1596ca	0.036520757
141	0xbe17750e	-0.14790747
142	0x3d178da2	0.037000306
143	0x391dfe82	0.00015067498
144	0xbda054d2	-0.07828678
145	0x3ce4c79d	0.027927214
146	0x3d01c505	0.031682033
147	0xba8f469a	-0.0010931075
148	0x3ceea03a	0.029129136
149	0x3d4808ee	0.04883664
150	0x3d025146	0.03181579
151	0x3d0ae4fd	0.033909786
152	0x3d08f8ef	0.033440527
153	0x3cf3e33a	0.029771436
154	0x3d166e4b	0.036726277
155	0x3cda40c5	0.026642213
156	0xbd1c150a	-0.038106002
157	0xbc1a6221	-0.00942281
158	0x3d0787be	0.03308844
159	0x3d35fc0d	0.044429827
160	0x3cddc67a	0.02707218
161	0x3c6c3456	0.014416775
162	0x3d044b8f	0.03229862
163	0xbb19c39b	-0.0023462537
164	0x3cdeca15	0.02719597
165	0x3d01c368	0.031680495
166	0x3bd80d6f	0.0065933983
167	0x3cfb4e1c	0.030676894
168	0x3cddbf4a	0.027068753
169	0x3d066bab	0.032817524
170	0x3d348c97	0.04407939
171	0x3c5233af	0.012829705
172	0x3d0de445	0.034641523
173	0xbc34c161	-0.011032433
174	0x3d0a7ed6	0.033812366
175	0x3d1828ea	0.037148394
176	0x3cf099ef	0.029370276
177	0x3cfcd84b	0.030864855
178	0x3cf1d799	0.02952175
179	0x3ce14143	0.02749694
180	0xbd163e02	-0.03668023
181	0x3d15e13e	0.03659176
182	0x3d11b9c8	0.035577565
183	0x3d007bd0	0.031368077
184	0x3cca672b	0.024707397
185	0xbc98f323	-0.018670624
186	0xbc9e7c88	-0.01934649
187	0x3cf72723	0.030170029
188	0x3d0bba97	0.034113493
189	0x3ca44010	0.020050079
190	0xbd2d7062	-0.042343505
191	0x3d0e40d6	0.0347298

actor.6.bias f4 [3]
0	0xbcf5ec6a	-0.030019958
1	0x3d5975e5	0.05309095
2	0x3d70bf2a	0.05877606

critic.0.weight f4 [256, 259]
0	0x3e1a7594	0.15083915
1	0xbb57b397	-0.003291344
2	0xbe69ca82	-0.22831157
3	0xbc39877f	-0.011323809
4	0xbf38bef0	-0.7216635
5	0xbdc3fd22	-0.095697656
6	0x3d91569f	0.070966
7	0xbd5adfe6	-0.053436182
8	0x3d1297d3	0.035789322
9	0x3b4bfcb1	0.0031125958
10	0x3d2d6320	0.04233086
11	0xbda4bc73	-0.08043756
12	0x3db2a558	0.08722943
13	0x3e0ee334	0.13953859
14	0x3dfc0c1e	0.12306999
15	0xbc1c52d1	-0.009541229
16	0x3e1116fe	0.14168927
17	0xbd9d1e1e	-0.0767176
18	0xbdd63fc1	-0.10461379
19	0xbd995b71	-0.07488144
20	0x3dd69d8b	0.10479268
21	0xbe5cda1d	-0.21567579
22	0xc0166cc4	-2.3503885
23	0x3df2e6b4	0.118604094
24	0xbde84558	-0.11341351
25	0x3d8af747	0.06785446
26	0xbe91fe80	-0.2851448
27	0xbd70d437	-0.058796134
28	0xbd361327	-0.04445186
29	0x3f4fba9b	0.8114411
30	0x3ddc55fb	0.10758587
31	0x3d8102bd	0.062993504
32	0x3b8e0b1f	0.004334822
33	0x3dfa5ab4	0.122243315
34	0xbde80e36	-0.113308355
35	0xbd2d0178	-0.04223773
36	0x3b4fb075	0.003169087
37	0xbd8c31c3	-0.06845429
38	0xbd96bb47	-0.07359939
39	0x3d51c045	0.051208753
40	0x3d38ef27	0.04514995
41	0xbc783ee9	-0.015151718
42	0xbd102e5e	-0.03520047
43	0x3dc4fc65	0.09618453
44	0xbc5bb634	-0.01341014
45	0x3d8b9b91	0.06816781
46	0xbeb388f9	-0.3506544
47	0x3e175469	0.14778294
48	0xbe2a7270	-0.16645217
49	0x3e1a27ff	0.1505432
50	0xbd361edd	-0.044463027
51	0x3cca4c56	0.024694603
52	0x3d537daa	0.051633514
53	0xbf5909c1	-0.8478051
54	0x3c3083ae	0.010773582
55	0x3d82ec73	0.06392755
56	0xbd391c0e	-0.04519277
57	0xb9b8ed02	-0.000352718
58	0x3dc34d71	0.09536255
59	0xbb66bc29	-0.0035207367
60	0x3d9995b1	0.074992545
61	0x3c89f1ec	0.01683899
62	0xbb9bb9ec	-0.004752388
63	0x3b401091	0.002930675
64	0xbd4082f0	-0.04699987
65	0xbcbf2cec	-0.02333685
66	0x3dff5cc0	0.124688625
67	0x3d57c128	0.052674443
68	0xbd2babf1	-0.041912023
69	0x3de8700e	0.11349498
70	0xbdce0017	-0.10058611
71	0x3d974c94	0.07387653
72	0xbe18f276	-0.14936242
73	0xbd882365	-0.06647376
74	0x3dcf175b	0.101118766
75	0xbe2baa5f	-0.1676421
76	0x3d7f1787	0.062278297
77	0xbcf838f5	-0.030300597
78	0x3d9d0e5c	0.076687545
79	0x3e89b229	0.26893738
80	0xbc0b7f33	-0.008514213
81	0xbec49359	-0.38393667
82	0x3d8d7375	0.06906787
83	0xbd0c6edd	-0.034285415
84	0x3dea23d0	0.11432612
85	0xbedd1bbb	-0.4318522
86	0xbead41f1	-0.33839372
87	0xbe03dd20	-0.12877321
88	0xbce8d6f9	-0.02842282
89	0xbd4c583e	-0.04988884
90	0x3e259f4a	0.16174045
91	0x3de04ef3	0.10952558
92	0x3d3da266	0.046297453
93	0xbdc05538	-0.09391254
94	0xbdb1ec21	-0.08687616
95	0x3d033e77	0.032041993
96	0x3a4e2fa4	0.00078653754
97	0xbd0a4317	-0.033755388
98	0x3d2d6a6c	0.04233782
99	0x3d9a134d	0.075232126
100	0xbd693fcc	-0.056945607
101	0xbdb90c67	-0.09035569
102	0xbcdc3dff	-0.02688503
103	0x3d2f2bee	0.042766504
104	0x3ce8a941	0.028401019
105	0x3daa0b62	0.08302952
106	0xbe38206f	-0.17981122
107	0x3d94cbe2	0.0726545
108	0x3dcde5ef	0.10053622
109	0x3c646f04	0.013942484
110	0x3d9d3542	0.07676174
111	0xbe0f6e58	-0.14006937
112	0xbd14240a	-0.036167182
113	0xbd0ead76	-0.034833394
114	0xbd84a2f1	-0.06476391
115	0xbbd15909	-0.0063887876
116	0xbbcde050	-0.0062828436
117	0xbd9d7dd4	-0.076900154
118	0x3cfd54df	0.030924259
119	0xbd9bfad1	-0.07616199
120	0xbc4a8584	-0.012360934
121	0xbd10cc76	-0.03535124
122	0x3d11eace	0.035624318
123	0x3db8fdc6	0.090327784
124	0x3d44dbbd	0.04806112
125	0x3e51f18d	0.205023
126	0xbcd67e6a	-0.026183326
127	0x3d53091e	0.051522367
128	0xbeeca27d	-0.4621772
129	0x3d96691b	0.07344266
130	0x3d90f387	0.07077699
131	0xbbbccf6b	-0.005762031
132	0x3d91c6fa	0.0711803
133	0xbccad31d	-0.02475887
134	0x3c911844	0.017711766
135	0x3d7a4e2a	0.0611097
136	0xbe285abf	-0.16440867
137	0xbdeaab9d	-0.11458514
138	0x3c8b8252	0.017029915
139	0xbe862b50	-0.2620492
140	0x3e0883fe	0.13331601
141	0x3dc13240	0.094334126
142	0xbd66cb25	-0.056346077
143	0x3dea4810	0.11439526
144	0xbdb00f88	-0.08596712
145	0xbdb8ebf7	-0.09029382
146	0x3d5aff1f	0.05346596
147	0xbc854d46	-0.016272198
148	0x3e32cafe	0.17460248
149	0x3d649930	0.055810153
150	0xbda66c06	-0.081260726
151	0x3d325ec0	0.043547392
152	0xbb6171cd	-0.0034400106
153	0xbe5d6c4c	-0.21623343
154	0xbcc37b39	-0.023862468
155	0x3dc4e83b	0.09614607
156	0xbce438e4	-0.027859159
157	0xbe1b8aed	-0.15189715
158	0x3e1008d5	0.14065869
159	0xbc16930a	-0.00919033
160	0xbe1d81d2	-0.15381554
161	0xbdbf917d	-0.093539216
162	0xbc1bed7b	-0.009517069
163	0xbcd916c8	-0.02650012
164	0x3c202718	0.009774946
165	0xbb958c73	-0.004563862
166	0xbd87d215	-0.06631867
167	0x3da5b3f5	0.08090965
168	0xbd15e0e7	-0.036591437
169	0x3d3d08dc	0.046151027
170	0xbd1aef9f	-0.037826177
171	0x3daa6e20	0.08321786
172	0x3e361890	0.17782807
173	0x3cdaf34c	0.026727341
174	0xbd600e20	-0.05470097
175	0x3dd91654	0.10599962
176	0xbe1ab54a	-0.15108219
177	0x3d632589	0.05545572
178	0xbdde9045	-0.10867361
179	0x3bfb6188	0.0076715387
180	0xb9d0fd58	-0.00039861607
181	0x3e00c0b2	0.12573507
182	0xbd1934f1	-0.037404004
183	0xbd03ef5a	-0.032210685
184	0x3d19232f	0.03738707
185	0x3e3ddffc	0.18542475
186	0x3e84c29e	0.2592973
187	0xbc31809e	-0.010833887
188	0xbd275fe4	-0.040862933
189	0x3d44c7c9	0.048042092
190	0xbdadf946	-0.08494811
191	0xbd89314b	-0.06698855
192	0x3e41d758	0.18929803
193	0xbc10ecd9	-0.008845531
194	0xbd3d0613	-0.04614837
195	0xbd97c6e7	-0.074109845
196	0x3ddaad75	0.106776156
197	0xbc731415	-0.014836331
198	0xbdaca622	-0.08430125
199	0x3ca6c1d8	0.020356104
200	0x3dee463a	0.116344884
201	0x3df46dae	0.11934982
202	0xbdca6b93	-0.098837994
203	0x3da14044	0.07873586
204	0xbcdfce8e	-0.027320173
205	0x3df1c296	0.118046924
206	0xbd64956d	-0.055806566
207	0x3e5030c4	0.20331103
208	0xbdafb59e	-0.085795626
209	0xbb28180a	-0.0025649094
210	0x3bfb6558	0.007671993
211	0x3e2b9e57	0.1675962
212	0x3cf8af9a	0.03035717
213	0x3d57d34a	0.052691735
214	0x3c490b93	0.012270826
215	0x3c892657	0.016741915
216	0x3d37fea4	0.04492058
217	0xbdd3f73c	-0.103498906
218	0xbd816340	-0.063177586
219	0xbdbd03c1	-0.092292316
220	0xbda7eb43	-0.081991695
221	0xbdc474b3	-0.09592571
222	0xbdcaa5cd	-0.09894905
223	0xbb984335	-0.0046466836
224	0x3daaa28e	0.08331786
225	0xbdbc9fe9	-0.09210188
226	0xbf7ad8e8	-0.9798722
227	0xbcb02e1a	-0.021506358
228	0x3e080c0e	0.13285848
229	0xbe1bcd5f	-0.15215062
230	0x3d2994c5	0.041401643
231	0xbe2cdd7c	-0.16881365
232	0x3d52c35a	0.051455833
233	0xbed49293	-0.41518077
234	0x3cef7632	0.029231165
235	0xbceae782	-0.028674845
236	0xbdd74c57	-0.105126075
237	0xbe0cd6a2	-0.13753751
238	0xbdb76413	-0.089546345
239	0x3deb3885	0.114853896
240	0xbd54b928	-0.05193439
241	0x3dba54ce	0.090982065
242	0x3e28ce57	0.16484962
243	0x3e31f697	0.17379223
244	0xbda76889	-0.081742354
245	0xbdbb3291	-0.09140504
246	0xbca07352	-0.019586239
247	0x3d919eba	0.07110353
248	0x3d584ba0	0.052806497
249	0x3d34e78b	0.04416613
250	0x3dcdbb4a	0.10045488
251	0x3d279ee0	0.040923
252	0x3d881c03	0.06645968
253	0x3daab8b2	0.08336009
254	0xbd06fe63	-0.032957446
255	0xbc280dd0	-0.010257199
