rlgpu/logs/cut/model_705.pt (torch, 868312 bytes, 16 tensors)

log_std f4 [3]
-0.7148098 -0.5063465 0.039595854
00000000: c6fd 36bf ed9f 01bf 432f 223d

actor.0.weight f4 [256, 259]
0.038956765 0.044022247 0.05604163 -0.026388286 -0.06866723 0.076296374 0.05401453 -0.07516963
0.030905848 0.03235621 0.018693084 -0.08166359 0.07003572 -0.09032007 -0.02383633 -0.08359419
-0.027664527 -0.034061257 -0.15597667 0.033374988 0.0606014 -0.08238118 -0.09684049 0.016583491
0.10504909 -0.0006536573 0.06655699 -0.013655452 -0.008448194 -0.054398324 0.011973187 -0.08751848
0.0272308 0.10658446 0.09067999 -0.03206693 0.05542047 -0.014078231 -0.05635203 0.01146594
-0.01425882 -0.024388999 0.1721039 0.15205364 -0.099931486 0.1512939 0.07599662 -0.078700945
0.02729428 -0.075099155 -0.029971313 -0.14033031 -0.041157916 0.096631095 -0.054857474 0.056664646
0.22312857 0.09573245 0.013307257 -0.14901626 0.0166922 -0.04473151 -0.0059910626 0.017726457
-0.03782875 0.031327095 -0.09223598 0.08729022 -0.026203422 -0.039389346 -0.078629695 0.07176348
-0.0842452 -0.024234632 -0.020211669 -0.043693535 -0.25025645 -0.0062319073 0.034672026 -0.017589904
0.03907665 0.1274635 -0.10206384 0.0076276595 -0.054326475 0.13548742 -0.07020792 -0.1306755
-0.092731506 -0.09789178 0.069239154 0.0690265 0.009034816 0.034289133 0.17552647 0.13332288
-0.03156782 -0.07131114 -0.020106804 0.08651132 0.07034919 -0.0944338 -0.014343053 -0.010593754
0.10643335 -0.050040677 -0.050181337 0.10266716 -0.007183362 0.20450318 -0.032475986 0.11752068
0.02171014 -0.038354002 -0.11053194 -0.104644954 -0.050160103 0.10045471 -0.0758871 -0.01502604
-0.073153 0.15434498 -0.09383429 0.007988254 0.04683039 0.11009792 0.016381403 -0.04757523
0.054692462 0.108338505 0.06878166 0.07385287 -0.07083545 -0.05915387 -0.06179315 0.19704643
-0.06614985 -0.09399564 0.07116556 -0.10190625 0.04411474 -0.18782151 -0.016495401 -0.014731391
-0.09373756 0.01879802 0.13251567 -0.0057149073 -0.076547466 -0.07567303 -0.13275573 0.08451604
-0.16251732 0.02073701 -0.009781406 0.12028661 0.1560739 0.06072792 -0.045153894 0.12586299
0.11928741 0.044356342 -0.12755935 -0.08308036 0.0010854498 0.04605752 -0.058542117 -0.028366264
-0.1910734 -0.056458905 0.07347226 -0.15807262 0.061918765 0.104672305 0.06449049 -0.043368965
0.12904829 -0.07429339 -0.087751694 -0.015321338 0.13544044 0.03882674 -0.085772984 0.024408817
-0.20027973 -0.022555484 0.04155259 -0.03535512 -0.11440789 -0.07682137 -0.15794598 -0.05280187
-0.025181986 -0.043260746 0.16449587 0.053246588 0.12731238 -0.022281924 -0.015140647 0.15515538
-0.036394157 -0.22820875 0.022351597 0.095154665 0.09192331 -0.038035616 0.09066423 -0.0223011
-0.09608251 -0.1923381 -0.050563447 0.05434297 -0.05328563 -0.08385597 -0.020955402 0.20586295
0.07297058 0.0429941 -0.06554169 0.081400156 0.06648957 -0.0096705835 -0.0031302522 -0.0008469425
-0.11859853 0.06793691 -0.042551104 -0.113388225 0.103593245 0.04885735 0.07899026 0.03311976
0.09712715 0.07160044 -0.0957856 0.02561319 -0.10530937 -0.15601711 0.0343674 -0.057324864
-0.018110614 -0.15407129 0.13919705 -0.007654074 0.116328545 0.08924463 0.0081047 0.018514803
0.15855868 -0.02333598 0.10195282 -0.005671682 -0.091679424 0.08528979 -0.01397678 0.03977119
00000000: 2191 1f3d ac50 343d e98b 653d 3f2c d8bc
00000010: 68a1 8cbd 4641 9c3d 573e 5d3d 89f2 99bd
00000020: 432e fd3c f287 043d 3d22 993c 3e3f a7bd
00000030: e36e 8f3d bbf9 b8bd 6844 c3bc 6e33 abbd
00000040: b8a0 e2bc d183 0bbd 59b8 1fbe 36b4 083d
00000050: 2c39 783d 77b7 a8bd 4f54 c6bd 1ada 873c
00000060: fa23 d73d 335a 2bba 084f 883d 1ebb 5fbc
00000070: 4b6a 0abc c7d0 5ebd 302b 443c e43c b3bd
00000080: 2013 df3c f448 da3d 6eb6 b93d 9d58 03bd
00000090: 9300 633d 61a8 66bc 63d1 66bd a3db 3b3c
000000a0: d39d 69bc 70cb c7bc 013c 303e f3b3 1b3e
000000b0: e1a8 ccbd caec 1a3e 1ea4 9b3d f62d a1bd
000000c0: 4198 df3c 96cd 99bd 6686 f5bc c0b2 0fbe
000000d0: 3495 28bd 86e6 c53d 3bb2 60bd 3019 683d
000000e0: d17b 643e 600f c43d ae06 5a3c b897 18be
000000f0: 15be 883c 6338 37bd ad50 c4bb 1337 913c
00000100: 52f2 1abd d750 003d 38e6 bcbd 37c5 b23d
00000110: 8fa8 d6bc b956 21bd 9b08 a1bd bbf8 923d
00000120: bf88 acbd b587 c6bc f192 a5bc fef7 32bd
00000130: 9d21 80be 0735 ccbb 4104 0e3d b418 90bc
00000140: d60e 203d cb85 023e d906 d1bd 72f1 f93b
00000150: 7085 5ebd 37bd 0a3e 2cc9 8fbd cccf 05be
00000160: 04ea bdbd 7c7b c8bd 42cd 8d3d c45d 8d3d
00000170: c406 143c c372 0c3d 36bd 333e cb85 083e
00000180: 424d 01bd 930b 92bd 06b7 a4bc d92c b13d
00000190: 3c13 903d 8266 c1bd 20ff 6abc 6d91 2dbc
000001a0: baf9 d93d 74f7 4cbd f28a 4dbd 2943 d23d
000001b0: 6862 ebbb 4869 513e 8a05 05bd afae f03d
000001c0: 77d9 b13c 1619 1dbd 925e e2bd 1850 d6bd
000001d0: ae74 4dbd 33bb cd3d b26a 9bbd c82f 76bc
000001e0: 3dd1 95bd 9c0c 1e3e 312c c0bd 2ae1 023c
000001f0: 39d1 3f3d 057b e13d 4b32 863c 3fde 42bd
00000200: 3405 603d 94e0 dd3d 66dd 8c3d 2c40 973d
00000210: 2d12 91bd 544b 72bd d01a 7dbd 8ac6 493e
00000220: 9379 87bd c980 c0bd 40bf 913d 39b4 d0bd
00000230: a8b1 343d 4854 40be 5d21 87bc ef5b 71bc
00000240: 7af9 bfbd 4efe 993c 30b2 073e 1e44 bbbb
00000250: ebc4 9cbd 76fa 9abd 1ef1 07be bf16 ad3d
00000260: f16a 26be a9e0 a93c 3142 20bc d458 f63d
00000270: d6d1 1f3e d7bd 783d 4af3 38bd 3ae2 003e
00000280: f54c f43d ffae 353d eb9e 02be 0926 aabd
00000290: a745 8e3a cfa6 3c3d dcc9 6fbd 5e60 e8bc
000002a0: bfa8 43be 7441 67bd a078 963d cadd 21be
000002b0: 889e 7d3d 6f5e d63d 9713 843d a8a3 31bd
000002c0: 3c25 043e 2227 98bd 29b7 b3bd 5906 7bbc
000002d0: e6b0 0a3e ca08 1f3d bfa9 afbd 00f5 c73c
000002e0: 2116 4dbe 47c6 b8bc 0c33 2a3d 88d0 10bd
000002f0: af4e eabd 8654 9dbd 97bc 21be c646 58bd
00000300: 744a cebc 2e32 31bd 9b71 283e 1819 5a3d
00000310: 2d5e 023e 9588 b6bc 7a10 78bc 0de1 1e3e
00000320: 0a12 15bd 8eaf 69be b21a b73c 73e0 c23d
00000330: 4a42 bc3d 3ccb 1bbd 2bae b93d ccb0 b6bc
00000340: e8c6 c4bd 47f4 44be 9e1b 4fbd bc96 5e3d
00000350: 0842 5abd aebc abbd aaaa abbc bdcd 523e
00000360: 9971 953d 951a 303d b93a 86bd 20b5 a63d
00000370: af2b 883d 5e71 1ebc eb24 4dbb 5905 5eba
00000380: c9e3 f2bd 8222 8b3d 114a 2ebd 1638 e8bd
00000390: b228 d43d a51e 483d a5c5 a13d 96a8 073d
000003a0: 99ea c63d 40a3 923d 3e2b c4bd c1d2 d13c
000003b0: 70ac d7bd f3c2 1fbe d5c4 0c3d 7acd 6abd
000003c0: b65c 94bc ddc4 1dbe ac89 0e3e 07cf fabb
000003d0: a93d ee3d e3c5 b63d 93c9 043c 5bac 973c
000003e0: 355d 223e 192b bfbc a4cc d03d 84d9 b9bb
000003f0: 6cc2 bbbd 6aac ae3d ddfe 64bc 1ee7 223d

actor.0.bias f4 [256]
-0.018964764 -0.049293164 -0.013805099 -0.021652056 -0.017630994 0.0069521572 0.042826343 0.032968316
-0.0045004603 0.047616083 0.04116085 0.014201723 0.062625065 0.01495133 -0.028118711 0.001403033
0.01507844 0.015211989 0.024561113 -0.0345203 0.025624987 0.0030033581 0.049463898 -0.051955227
0.013770275 -0.059414405 -0.020342259 0.02906165 -0.047958616 -0.026566612 0.03425018 -0.038848978
0.011557027 0.051003 0.023894586 -0.037262212 -0.043701038 0.035989627 0.06111359 -0.028072808
0.05781181 -0.019026516 0.05753498 0.04740638 -0.04892748 0.043266 -0.025608715 0.061949942
0.05762893 -0.026754467 -0.039082807 0.046784263 0.0068822675 0.0246591 -0.044526298 -0.044382043
-0.018946476 0.007454418 -0.0089572705 0.025456602 0.017398762 -0.048647627 -0.06304613 0.058108587
-0.067976706 -0.051604394 -0.01874194 0.012978807 0.0265008 -0.024413347 -0.027292013 -0.00690263
0.032884046 -0.014184054 0.019338205 -0.054712117 -0.015518715 0.016164057 -0.026297044 -0.034130536
0.035177585 -0.055307467 -0.047789905 0.053238746 0.03982173 -0.055129655 -0.05252743 -0.04607671
0.03535037 -0.040560614 -0.065306716 0.035307825 -0.027921008 0.006363985 -0.039407846 0.027210975
0.031007273 0.06259816 -0.046232376 0.01772655 -0.018369803 -0.004539929 -0.057264168 -0.051717203
0.009486519 -0.04154946 0.030432753 0.003841793 0.010560841 0.0023535925 -0.023944749 0.029615652
0.03662555 -0.043943096 0.009010805 0.02612305 -0.025006648 -0.04488115 -0.021357464 -0.05890617
-0.029960006 -0.014408064 -0.017758671 -0.03969938 0.031211827 0.05576365 -0.025361316 -0.044457268
-0.008949731 -0.028197186 0.04638516 0.013565796 -0.04720051 0.000118529715 -0.018086672 -0.043171443
-0.041619826 -0.059309013 -0.03272204 -0.0029064992 -0.06343661 0.03335543 0.034171417 0.03063004
0.053846166 -0.0048207156 0.030248819 0.015186311 -0.012850905 0.012884142 0.042360798 0.0368824
-0.0154797025 0.055222683 0.055576563 0.035632893 -0.042908665 0.032834508 0.0041197115 -0.03534449
-0.05956208 0.01580195 0.028142681 0.020810092 -0.030496826 -0.05637631 0.07216345 0.0145390285
0.021055883 0.0008519495 -0.04372773 0.044963885 0.011608815 0.047819734 -0.039410297 -0.003590239
0.04238583 0.04452023 0.028853662 0.05592288 -0.04565197 -0.045501254 -0.036805242 0.048474744
0.031586405 -0.008617568 0.03895241 -0.027441446 -0.05600556 -0.017259171 -0.0062404363 -0.038708325
-0.031716418 -0.05135696 -0.03957672 -0.02981821 0.045796387 0.05443104 0.029575454 0.063595705
-0.05290211 0.01962978 0.04708007 -0.003918012 -0.049518 0.017057382 -0.017719291 -0.01677938
0.029370403 -0.017841415 -0.029318051 -0.031309836 0.034123305 -0.026976433 0.0649578 0.032708883
0.0054631876 0.0027922266 -0.009021972 -0.029962959 -0.046545662 -0.058291223 -0.027259253 0.014717951
0.054726183 0.058843065 -0.00775952 0.01748939 0.0630068 0.065961145 -0.061369997 -0.04091671
0.012389433 -0.02545176 0.009246634 -0.052713342 -0.044120017 0.014392614 -0.037574407 -0.057540897
-0.015353316 0.030968865 -0.037234657 -0.009079103 -0.0787764 0.043825507 0.025865616 -0.02983592
0.020767314 0.017556716 0.036658693 0.039503723 0.047797758 0.027509406 0.016105581 0.041508257
00000000: fe5b 9bbc a1e7 49bd c82e 62bc a75f b1bc
00000010: e06e 90bc ecce e33b ad6a 2f3d c909 073d
00000020: 9978 93bb 1509 433d 4898 283d 58ae 683c
00000030: 9241 803d 6cf6 743c 3659 e6bc fae5 b73a
00000040: 900b 773c b53b 793c 6334 c93c 2865 0dbd
00000050: 7eeb d13c fdd3 443b a89a 4a3d 01cf 54bd
00000060: b89c 613c 855c 73bd cfa4 a6bc b312 ee3c
00000070: 4170 44bd 39a2 d9bc eb49 0c3d 1b20 1fbd
00000080: af59 3d3c 86e8 503d 94be c33c 43a0 18bd
00000090: dcff 32bd dc69 133d 3e52 7a3d f2f8 e5bc
000000a0: 14cc 6c3d 7fdd 9bbc cda9 6b3d 312d 423d
000000b0: 2e68 48bd b037 313d 5ec9 d1bc 39bf 7d3d
000000c0: 500c 6c3d 2f2c dbbc 4b15 20bd dba0 3f3d
000000d0: a584 e13b e201 ca3c 3561 36bd f2c9 35bd
000000e0: a435 9bbc 3144 f43b 84c1 12bc 5d8a d03c
000000f0: d987 8e3c bc42 47bd 541e 81bd 4503 6e3d
00000100: 5f37 8bbd 215f 53bd b288 99bc 10a5 543c
00000110: 3518 d93c 80fe c7bc 8093 dfbc 752f e2bb
00000120: 6cb1 063d 3c64 68bc 286b 9e3c d019 60bd
00000130: 3542 7ebc 7c6a 843c e66c d7bc 76cc 0bbd
00000140: 5f16 103d 158a 62bd 59bf 43bd df10 5a3d
00000150: 1c1c 233d a2cf 61bd 0127 57bd efba 3cbd
00000160: 8dcb 103d e322 26bd 87bf 85bd f09e 103d
00000170: 99ba e4bc fa88 d03b 1f6a 21bd 8de9 de3c
00000180: f702 fe3c 7733 803d 295e 3dbd 4537 913c
00000190: 457c 96bc afc3 94bb d58d 6abd 6bd5 53bd
000001a0: 586d 1b3c c42f 2abd 1c4e f93c 97c6 7b3b
000001b0: 6107 2d3c bb3e 1a3b c727 c4bc 869c f23c
000001c0: ac04 163d adfd 33bd 0ea2 133c 0200 d63c
000001d0: beda ccbc 4cd5 37bd d9f5 aebc 9947 71bd
000001e0: b06e f5bc cd0f 6cbc a27a 91bc d19b 22bd
000001f0: f2af ff3c 6d68 643d 89c2 cfbc d318 36bd
00000200: e4a1 12bc c9fd e6bc 5efe 3d3d 1343 5e3c
00000210: 5255 41bd 2893 f838 802a 94bc 8ad4 30bd
00000220: 8d79 2abd 02ee 72bd 8c07 06bd f77a 3ebb
00000230: 0eeb 81bd b49f 083d 54f7 0b3d daeb fa3c
00000240: cc8d 5c3d 18f7 9dbb 5fcc f73c 01d0 783c
00000250: 9a8c 52bc 0218 533c 8482 2d3d 0012 173d
00000260: 949e 7dbc 2e31 623d 40a4 633d ccf3 113d
00000270: ffc0 2fbd 7a7d 063d a5fe 863b 62c5 10bd
00000280: 5ef7 73bd 1773 813c 7b8b e63c ed79 aa3c
00000290: 7bd4 f9bc d8ea 66bd 6eca 933d 1b35 6e3c
000002a0: 637d ac3c 5d55 5f3a d91b 33bd 0d2c 383d
000002b0: e632 3e3c a0de 433d b16c 21bd 374a 6bbb
000002c0: c49c 2d3d d85a 363d 845e ec3c 640f 653d
000002d0: 8ffd 3abd 865f 3abd 18c1 16bd 748d 463d
000002e0: bf60 013d b330 0dbc 908c 1f3d e2cc e0bc
000002f0: 1666 65bd 1b63 8dbc 937c ccbb 9f8c 1ebd
00000300: 13e9 01bd ad5b 52bd 331b 22bd 5245 f4bc
00000310: fe94 3b3d 15f3 5e3d 3948 f23c 773e 823d
00000320: e2af 58bd a2ce a03c 08d7 403d ab62 80bb
00000330: 63d3 4abd ecbb 8b3c 0c28 91bc e974 89bc
00000340: 339a f03c 2928 92bc 692c f0bc be3e 00bd
00000350: e1c4 0b3d aefd dcbc 9808 853d c0f9 053d
00000360: 8a04 b33b cafd 363b e5d0 13bc e174 f5bc
00000370: aaa6 3ebd c7c2 6ebd cc4e dfbc 9023 713c
00000380: 9028 603d 6d05 713d 9243 febb e945 8f3c
00000390: b609 813d a316 873d 1b5f 7bbd 4898 27bd
000003a0: 0cfd 4a3c 3680 d0bc 327f 173c f2e9 57bd
000003b0: 31b7 34bd 00cf 6b3c 9fe7 19bd 01b0 6bbd
000003c0: 7a8c 7bbc 6bb2 fd3c 5e83 18bd 85c0 14bc
000003d0: 8555 a1bd 6082 333d 21e4 d33c 766a f4bc
000003e0: 3720 aa3c 1ad3 8f3c 6d27 163d a8ce 213d
000003f0: 95c7 433d 685b e13c daef 833c 9004 2a3d

actor.2.weight f4 [128, 256]
-0.034337882 0.16670144 -0.1556097 0.010348448 -0.05818945 -0.12007103 0.038340244 0.090487845
0.030864503 0.16462433 -0.065459 -0.07311227 -0.061676305 0.114246726 0.01676175 0.06798696
-0.16291977 -0.07221029 -0.1144331 0.1318914 0.2364933 -0.021899475 -0.12333218 0.07772858
-0.16458586 -0.14177962 0.011580669 0.038581435 -0.06817629 0.028146299 -0.03789202 -0.016240241
0.031184886 0.004637371 0.0747396 0.020875093 -0.22362086 0.007649479 0.064826794 -0.039246973
0.092187814 0.13103864 -0.071803056 0.022526396 0.04381088 -0.064312026 0.029393665 0.0128337145
0.033704534 -0.19195098 -0.0032709364 0.07681263 -0.020192552 -0.09701732 0.045111384 -0.030422961
-0.14120185 0.032951955 -0.0038246592 -0.050786626 -0.015845165 0.13863702 0.07653099 -0.21915783
0.053948205 -0.10108695 0.03203896 -0.07135862 -0.008111433 -0.07507686 -0.06906618 -0.07597743
-0.07690052 -0.026440673 -0.03327725 0.1237315 -0.11752195 0.02430854 -0.034374624 0.055241603
0.045938715 0.012502587 0.07615084 -0.19918758 0.04090944 -0.016818522 -0.101396695 0.23317164
-0.030927088 -0.08585085 -0.0032845251 0.01526981 0.06657751 0.033936962 -0.01093367 0.036633164
0.032725297 0.010479324 -0.034062635 0.012562216 -0.11432417 0.1633077 0.075686224 0.16068071
0.035003994 -0.028201329 0.0573808 0.054603785 -0.07805116 0.028682843 0.072412945 0.0166728
-0.07084888 0.013661623 -0.10900952 -0.12757628 0.083470464 -0.0123276785 -0.088865064 -0.0073409877
-0.031362608 0.16149566 0.04135009 -0.104992434 -0.07396134 0.0739228 0.043472648 0.106221505
0.0470022 0.009856389 0.04642385 0.058192376 -0.05943004 0.1592839 -0.053509224 0.026145209
-0.015008667 0.14714673 -0.11378671 -0.1663859 0.09833027 0.011040249 0.01175841 -0.15911905
-0.011389165 -0.08032501 0.07124384 0.045747463 0.0388927 0.080865264 0.07024944 0.053983133
-0.031286653 0.1291597 -0.015058792 0.008895873 0.03207729 -0.09418589 -0.034987513 -0.05570009
0.25155416 -0.15895894 0.0026334587 -0.025715757 0.04885117 -0.18720639 0.021983407 -0.13488133
0.06571964 -0.023160834 0.02088556 0.062443405 -0.10944509 0.060403995 -0.007378945 0.01302154
-0.06910323 0.16725513 0.11013723 0.026053596 -0.050013244 -0.10956013 -0.11890561 0.13044839
-0.009954672 0.086433955 0.0018517391 0.10614206 -0.043536387 -0.015049431 0.028451217 0.12791069
0.034663126 0.044437766 0.033568762 -0.009272656 0.006805486 -0.018520636 0.08155704 0.0046672695
0.06842653 0.018616829 -0.116269425 -0.03693427 -0.011996436 -0.068255186 0.014412088 0.075365
0.09076515 -0.06347634 -0.006687186 -0.14618129 0.060171165 -0.110319376 0.043766573 -0.13607726
0.005077103 -0.14838855 0.08805698 -0.08969656 0.061421122 -0.04325994 0.01935145 0.084163114
0.068662785 -0.0950476 0.10255882 -0.050708365 0.078250945 -0.08876477 0.1622701 -0.13995782
0.022628974 0.013158477 -0.09035576 0.024035832 -0.08807329 0.05329193 -0.056243792 -0.052714787
0.07643477 -0.015851326 0.01858753 -0.1565775 0.047260124 0.21689336 -0.09576525 -0.14160593
0.12080335 0.01386139 0.007272224 -0.12175664 -0.11572823 -0.042745743 0.12293474 -0.0561135
00000000: e1a5 0cbd c8b3 2a3e 2658 1fbe 898c 293c
00000010: 1058 6ebd cde7 f5bd a90a 1d3d b151 b93d
00000020: 8ed7 fc3c 4893 283e 5e0f 86bd e3bb 95bd
00000030: 4ba0 7cbd 30fa e93d f04f 893c bf3c 8b3d
00000040: 71d4 26be fde2 93bd e75b eabd 8a0e 073e
00000050: 4d2b 723e 8766 b3bc 9595 fcbd 2930 9f3d
00000060: 3289 28be ad2e 11be d9bc 3d3c 9107 1e3d
00000070: 03a0 8bbd 1193 e63c aa34 1bbd 410a 85bc
00000080: 7277 ff3c 16f5 973b 1311 993d 3e02 ab3c
00000090: defc 64be 7ba8 fa3b e9c3 843d 6fc1 20bd
000000a0: f7cc bc3d fe2e 063e 7b0d 93bd 4789 b83c
000000b0: 0a73 333d 06b6 83bd fcca f03c 8044 523c
000000c0: c40d 0a3d cc8e 44be 355d 56bb f14f 9d3d
000000d0: da6a a5bc 04b1 c6bd b7c6 383d 9339 f9bc
000000e0: 3897 10be a1f8 063d 22a7 7abb a305 50bd
000000f0: b8cd 81bc ddf6 0d3e 48bc 9c3d e96a 60be
00000100: cbf8 5c3d ad06 cfbd 493b 033d 7824 92bd
00000110: d1e5 04bc e6c1 99bd 9272 8dbd 0e9a 9bbd
00000120: 057e 9dbd 1c9a d8bc ba4d 08bd f166 fd3d
00000130: 59af f0bd b422 c73c 68cc 0cbd 0545 623d
00000140: 3c2a 3c3d a7d7 4c3c f9f4 9b3d d4f7 4bbe
00000150: a890 273d ffc6 89bc 12a9 cfbd 8cc4 6e3e
00000160: ce5a fdbc 92d2 afbd 3041 57bb 3a2e 7a3c
00000170: ca59 883d 7c01 0b3d 2323 33bc a80c 163d
00000180: f60a 063d 78b1 2b3c 4385 0bbd c1d1 4d3c
00000190: ca22 eabd 223a 273e 6101 9b3d 7c89 243e
000001a0: 5960 0f3d 7906 e7bc 2108 6b3d 38a8 5f3d
000001b0: 49d9 9fbd 48f8 ea3c 3d4d 943d 6595 883c
000001c0: 3819 91bd 00d5 5f3c 6240 dfbd 5ba3 02be
000001d0: 90f2 aa3d 08fa 49bc e3fe b5bd ab8c f0bb
000001e0: 1476 00bd 1e5f 253e b65e 293d 4606 d7bd
000001f0: 0b79 97bd d664 973d 6010 323d a98a d93d
00000200: 6185 403d b17c 213c ef26 3e3d 215b 6e3d
00000210: ea6c 73bd 521b 233e 7d2c 5bbd 7a2e d63c
00000220: e9e6 75bc a2ad 163e 0209 e9bd 1161 2abe
00000230: 6161 c93d 29e2 343c 59a6 403c 1bf0 22be
00000240: 9f99 3abc 7081 a4bd 4ae8 913d b161 3b3d
00000250: f44d 1f3d b09c a53d f0de 8f3d 6b1d 5d3d
00000260: 6f26 00bd 7142 043e 27b9 76bc ffbf 113c
00000270: 7a63 033d 88e4 c0bd 114f 0fbd c725 64bd
00000280: b5cb 803e 22c6 22be 1b96 2c3b daa9 d2bc
00000290: 2a18 483d 08b3 3fbe 8c16 b43c 551e 0abe
000002a0: 0598 863d cabb bdbc 3218 ab3c a8c4 7f3d
000002b0: bf24 e0bd 2e6a 773d 14cb f1bb 4c58 553c
000002c0: ff85 8dbd ee44 2b3e a18f e13d 5a6e d53c
000002d0: b0da 4cbd 1061 e0bd c984 f3bd 4394 053e
000002e0: ec18 23bc 4904 b13d 0eb6 f23a 0261 d93d
000002f0: 3653 32bd e391 76bc 8712 e93c 05fb 023e
00000300: ecfa 0d3d 6004 363d 667f 093d 57ec 17bc
00000310: 8e00 df3b 97b8 97bc 6107 a73d e5ef 983b
00000320: 3523 8c3d 5282 983c aa1e eebd 6448 17bd
00000330: b38c 44bc 60c9 8bbd ae20 6c3c f758 9a3d
00000340: 14e3 b93d e2ff 81bd 2f20 dbbb 8cb0 15be
00000350: 0a76 763d 20ef e1bd 9444 333d d657 0bbe
00000360: d45d a63b 2bf3 17be 3857 b43d d4b2 b7bd
00000370: b794 7b3d 5631 31bd ef86 9e3c b65d ac3d
00000380: 139f 8c3d 51a8 c2bd 5c0a d23d 93b3 4fbd
00000390: 0842 a03d 4eca b5bd 222a 263e 1a51 0fbe
000003a0: 6660 b93c a796 573c 710c b9bd cbe6 c43c
000003b0: c55f b4bd a448 5a3d e45f 66bd 76eb 57bd
000003c0: d589 9c3d a4da 81bc e044 983c da55 20be
000003d0: d593 413d 4b19 5e3e 9220 c4bd 2501 11be
000003e0: bf67 f73d e21a 633c d64b ee3b 8c5b f9bd
000003f0: ec02 edbd 2916 2fbd 35c5 fb3d 45d7 65bd

actor.2.bias f4 [128]
-0.033820063 0.026774108 -0.039736688 -0.034149427 -0.02855937 0.029722536 -0.00054925575 -0.023115566
0.00902915 0.039904103 0.0047866367 0.05977637 -0.065191515 -0.06672576 -0.019315692 -0.04096386
0.0052269767 -0.047290836 -0.020131363 0.0027731303 0.024156466 -0.055220727 -0.06511926 0.043767676
-0.038098227 -0.04270843 -0.020377759 0.0356602 -0.034600623 -0.01110322 0.049309473 0.050405726
-0.005371961 -0.05900875 0.03113771 -0.006717977 -0.0013108031 0.04320455 -0.0050033187 -0.05341108
0.0077581867 0.010449611 -0.036952812 -0.01031454 0.005390894 -0.047397405 0.024453172 -0.057094496
-0.020430792 0.044860687 -0.05598164 -0.008196633 -0.01840559 -0.036166128 0.028629383 0.04898191
-0.04141564 0.0471932 -0.025824042 -0.007982851 0.035917573 -0.0019217852 0.03661884 0.015932292
0.01500748 0.03411716 -0.010931532 0.0017426009 0.032129165 -0.010889768 0.044198316 -0.020490786
0.026358372 -0.036698654 -0.062697865 0.032872755 -0.024639588 0.035543144 -0.0151367355 -0.021414591
-0.022676885 -0.058422893 0.02783155 -0.0077573243 -0.04734644 0.060687922 0.049614113 -0.053418033
0.05263104 -0.050180595 -0.043599065 -0.026707176 -0.05519101 -0.028788574 0.024396919 0.015332836
-0.03780286 0.0069937794 0.0036021916 0.017394656 0.028728986 0.004912347 -0.055894475 -0.06064405
-0.055034444 -0.020237198 0.0598622 0.0076870085 -0.029724814 -0.06633181 0.020223923 -0.021081492
-0.04575786 -0.04151663 0.03293776 0.03516888 -0.025023302 0.011040883 0.060166072 -0.054556195
-0.041661974 -0.020525765 -0.023714228 -0.056419015 -0.05275863 -0.021895012 0.01664978 0.015067933
00000000: e886 0abd 6055 db3c f0c2 22bd 45e0 0bbd
00000010: 57f5 e9bc ad7c f33c eefb 0fba db5c bdbc
00000020: 00ef 133c 7c72 233d 38d9 9c3b 11d8 743d
00000030: 2183 85bd 84a7 88bd f13b 9ebc b8c9 27bd
00000040: 0f47 ab3b 09b4 41bd 87ea a4bc 68bd 353b
00000050: c8e3 c53c 212f 62bd 3f5d 85bd bc45 333d
00000060: e30c 1cbd 09ef 2ebd 42ef a6bc 6e10 123d
00000070: 62b9 0dbd 48ea 35bc bbf8 493d 3c76 4e3d
00000080: 4607 b0bb 29b3 71bd 8314 ff3c 7a22 dcbb
00000090: 41cf abba 41f7 303d e1f2 a3bb 94c5 5abd
000000a0: 6338 fe3b d834 2b3c d55b 17bd 51fe 28bc
000000b0: 19a6 b03b c823 42bd 0552 c83c ebdb 69bd
000000c0: 7a5e a7bc d7bf 373d 014d 65bd 2c4b 06bc
000000d0: 52c7 96bc ef22 14bd 2b88 ea3c 41a1 483d
000000e0: 72a3 29bd a84d 413d f18c d3bc 81ca 02bc
000000f0: 4e1e 133d 69e4 fbba a3fd 153d 7084 823c
00000100: efe1 753c 6fbe 0b3d 2b1a 33bc fc67 e43a
00000110: df99 033d ff6a 32bc 4b09 353d 4bdc a7bc
00000120: 83ed d73c 5451 16bd bd67 80bd 95a5 063d
00000130: f6d8 c9bc b095 113d 1200 78bc a76d afbc
00000140: e0c4 b9bc d84c 6fbd fefe e33c 2731 febb
00000150: 57ee 41bd e693 783d 2b38 4b3d decc 5abd
00000160: a593 573d 2b8a 4dbd ef94 32bd 02c9 dabc
00000170: f80f 62bd 04d6 ebbc 0cdc c73c 9336 7b3c
00000180: 2cd7 1abd 132c e53b bf12 6c3b 3d7f 8e3c
00000190: 0d59 eb3c c1f7 a03b 9bf1 64bd e565 78bd
000001a0: cc6b 61bd 7bc8 a5bc 1132 753d 4de3 fb3b
000001b0: 7481 f3bc f9d8 87bd a4ac a53c 18b3 acbc
000001c0: 986c 3bbd 580d 2abd bfe9 063d 3e0d 103d
000001d0: abfd ccbc d2e4 343c b370 763d 5176 5fbd
000001e0: bfa5 2abd a625 a8bc 5744 c2bc a017 67bd
000001f0: 6f19 58bd 2b5d b3bc 1f65 883c 7edf 763c

actor.4.weight f4 [64, 128]
-0.06030753 -0.01797511 0.10428294 -0.12050962 -0.11992091 0.0035825826 0.07037764 -0.26207533
0.033377785 -0.260163 0.12975407 0.17781888 -0.10253844 0.030602464 0.04003337 -0.0991521
0.14359275 -0.049444493 0.179534 -0.09180181 -0.061700646 0.0024078724 0.11963016 -0.0028939287
-0.119632795 0.029532796 0.06642011 -0.20459789 0.027831586 -0.030453796 0.031414106 0.11719445
-0.017643465 0.2891248 -0.051967718 0.033567507 0.013824309 0.010631566 -0.015360065 -0.086678974
-0.03510742 -0.033205118 -0.211729 -0.2104364 0.0033335711 0.07127437 0.042739667 -0.0899235
-0.061149728 0.05754606 0.11183632 0.06808932 0.30025125 -0.11712828 -0.010332834 -0.0069898446
0.13971728 -0.2831267 0.03948313 -0.07983662 -0.020165619 -0.010275671 0.20127288 0.106400274
0.2755334 0.03036867 -0.36745378 0.10400825 -0.1041244 -0.091810994 -0.077918634 0.15355466
0.21807608 0.31360534 0.20558141 0.027934838 -0.11547167 0.009674015 0.14949459 -0.12067836
-0.09480938 0.014321217 0.09813053 -0.012396106 -0.2475809 -0.10366156 -0.093905315 -0.09960104
0.15289748 -0.229165 -0.031177646 -0.11212863 -0.016685296 0.06987121 0.04954714 -0.00081582
0.041677874 -0.076995924 0.034372427 -0.09140504 -0.0021360724 -0.062859654 0.0013727524 0.054187387
-0.062487904 -0.08581983 -0.05210698 -0.036928296 0.048746992 0.14127676 0.12572287 0.12593223
0.1268268 0.08900863 -0.21630964 0.081161484 0.04454435 -0.04903249 -0.13035294 -0.15026757
-0.2152353 0.15446089 -0.12533659 0.01652429 0.1624606 0.15748638 -0.02199715 0.06220065
0.05273059 -0.046040587 0.15696397 0.063160755 0.027775345 -0.18591686 -0.18233883 -0.1018217
0.17844406 0.09687887 0.110079326 -0.114785954 0.14770803 0.18285581 -0.09032502 -0.100202866
0.33526435 0.1798352 0.09543276 -0.18742257 -0.037356548 0.060928375 -0.08716989 -0.28940797
0.020553747 0.008489678 -0.007545923 0.01616189 0.093845315 0.087644435 -0.1787518 -0.02108653
0.07579338 0.16118397 0.06341154 0.14205681 0.06839191 0.04020586 0.14534743 0.17517789
-0.14492276 -0.1967517 0.016924962 0.13192374 0.22515175 -0.016874744 -0.106158964 0.025969941
0.17330033 0.11267929 -0.060922936 -0.13326994 0.0040736767 -0.19002868 -0.043838523 0.056500755
-0.030841343 0.057285644 -0.09052857 0.18263489 0.020874511 -0.16026944 -0.24063319 -0.030628853
-0.01398579 -0.077968545 0.18917397 -0.00967798 -0.03141086 -0.17430013 -0.124256 0.13367441
-0.10946805 0.13878764 -0.15872324 -0.27502322 0.087727554 -0.08948807 0.11324665 0.039919265
-0.053889222 -0.19909254 0.039853327 0.057697292 -0.051061127 -0.21878736 -0.056361474 0.30688494
0.10314716 -0.021188416 -0.04137693 -0.051354453 -0.04207272 -0.011600896 -0.092980295 0.036803365
0.031481817 0.09887918 0.03821589 -0.16027454 -0.03949878 -0.20801567 0.09692602 0.20509803
-0.1817826 0.10470081 -0.076919705 -0.09832107 0.10810579 -0.11198647 -0.0016386403 0.09349372
0.03831661 0.10727472 0.06952576 0.1394897 -0.14004369 -0.068091586 -0.08852274 -0.039784547
-0.039521378 -0.1406235 -0.06264019 0.17679158 0.002069374 -0.1670885 -0.2041752 0.05122909
00000000: 0705 77bd 8a40 93bc 4b92 d53d bfcd f6bd
00000010: 1899 f5bd c3c9 6a3b 2722 903d bd2e 86be
00000020: 25b7 083d 1634 85be 40de 043e 2716 363e
00000030: acff d1bd 05b2 fa3c 08fa 233d 4210 cbbd
00000040: fa09 133e 4f86 4abd c3d7 373e 9602 bcbd
00000050: d1b9 7cbd 65cd 1d3b a800 f53d 11a8 3dbb
00000060: 0a02 f5bd c3ee f13c 4407 883d 1c82 51be
00000070: 11ff e33c 3d7a f9bc 14ac 003d a503 f03d
00000080: 0789 90bc 2a08 943e 1adc 54bd 157e 093d
00000090: 5b7f 623c 0530 2e3c c8a8 7bbc bf84 b1bd
000000a0: cccc 0fbd 1702 08bd 7dcf 58be a47c 57be
000000b0: 0b78 5a3b 4cf8 913d ca0f 2f3d d029 b8bd
000000c0: 2378 7abd 6bb5 6b3d 710a e53d 6a72 8b3d
000000d0: 88ba 993e f4e0 efbd 0c4b 29bc 110b e5bb
000000e0: 0c12 0f3e fcf5 90be 10b9 213d 6281 a3bd
000000f0: 5e32 a5bc 4a5b 28bc 7a1a 4e3e 63e8 d93d
00000100: b712 8d3e b8c7 f83c e722 bcbe 4702 d53d
00000110: 2c3f d5bd 6707 bcbd ce93 9fbd 6f3d 1d3e
00000120: 564f 5f3e e190 a03e ef83 523e 9ad7 e43c
00000130: 697c ecbd c37f 1e3c 1c15 193e 3726 f7bd
00000140: 6c2b c2bd 8aa3 6a3c a9f8 c83d 0919 4bbc
00000150: d985 7dbe 834c d4bd 6e51 c0bd a1fb cbbd
00000160: 2891 1c3e 3baa 6abe 4368 ffbc b2a3 e5bd
00000170: 9aaf 88bc a318 8f3d f1f1 4a3d c1dc 55ba
00000180: 6bb6 2a3d 0ab0 9dbd 1aca 0c3d 9132 bbbd
00000190: 59fd 0bbb 90bc 80bd eded b33a 98f3 5d3d
000001a0: 51f3 7fbd 4fc2 afbd 216e 55bd 2042 17bd
000001b0: edaa 473d dbaa 103e 7fbd 003e 61f4 003e
000001c0: e2de 013e 284a b63d 4680 5dbe fe37 a63d
000001d0: 2374 363d 4bd6 48bd 3e7b 05be bedf 19be
000001e0: a466 5cbe ff2a 1e3e 3c58 00be f35d 873c
000001f0: 125c 263e 1c44 213e 5e33 b4bc 1cc6 7e3d
00000200: 08fc 573d 0e95 3cbd 2abb 203e 6d5a 813d
00000210: 1f89 e33c fd60 3ebe 08b7 3abe e587 d0bd
00000220: 0aba 363e 6e68 c63d 4571 e13d e614 ebbd
00000230: c640 173e 8e3e 3b3e 53fc b8bd 2937 cdbd
00000240: c5a7 ab3e b826 383e 4072 c33d b4eb 3fbe
00000250: 2e03 19bd 0890 793d 2186 b2bd 482d 94be
00000260: 5560 a83c 4a18 0b3c ca43 f7bb f165 843c
00000270: f931 c03d ed7e b33d b60a 37be a9bd acbc
00000280: 8f39 9b3d 690d 253e e9dd 813d 5777 113e
00000290: 0f11 8c3d e6ae 243d f5d5 143e d561 333e
000002a0: a266 14be 4779 49be 38a6 8a3c 0417 073e
000002b0: 2e8e 663e e73c 8abc df69 d9bd eabe d43c
000002c0: a475 313e 66c4 e63d 548a 79bd ea77 08be
000002d0: 7a7c 853b e196 42be 0690 33bd 566d 673d
000002e0: fca6 fcbc 5aa4 6a3d 0b67 b9bd a404 3b3e
000002f0: 0601 ab3c ac1d 24be 8c68 76be 5ce9 fabc
00000300: a824 65bc f9ad 9fbd d2b6 413e 6490 1ebc
00000310: ada8 00bd bc7b 32be ee79 febd f2e1 083e
00000320: c930 e0bd 591e 0e3e 5888 22be d8cf 8cbe
00000330: 81aa b33d 8545 b7bd dced e73d 6282 233d
00000340: f2ba 5cbd eade 4bbe 3e3d 233d ff53 6c3d
00000350: 7925 51bd cb09 60be 4adb 66bd 0620 9d3e
00000360: d13e d33d 5493 adbc db7a 29bd 0c59 52bd
00000370: 7254 2cbd af11 3ebc 746c bebd 20bf 163d
00000380: 14f3 003d 2b81 ca3d 4488 1c3d 021f 24be
00000390: 79c9 21bd 0f02 55be 2681 c63d 3805 523e
000003a0: 3825 3abe 616d d63d 1488 9dbd 8f5c c9bd
000003b0: 9266 dd3d 2a59 e5bd a5c7 d6ba a379 bf3d
000003c0: e1f1 1c3d d9b2 db3d 8663 8e3d 63d6 0e3e
000003d0: 9d67 0fbe 9a73 8bbd 694b b5bd 1ff5 22bd
000003e0: 2be1 21bd 9bff 0fbe 8049 80bd da08 353e
000003f0: 569e 073b 3f19 2bbe 4e13 51be 98d5 513d

actor.4.bias f4 [64]
0.005923647 -0.0035180012 -0.0630595 -0.0037957584 -0.08604409 0.035526022 0.035579417 0.07615242
-0.082337126 0.034380533 0.011231342 -0.02642048 0.057330143 0.024227217 -0.0012919565 0.032782093
0.035754982 -0.010174553 0.029263107 -0.062740706 0.045847494 -0.08129238 -0.012244067 -0.006112768
0.07984461 0.07827021 0.060438663 0.0028170717 0.07669605 0.062344488 -0.052787703 -0.08928492
-0.06317453 0.06357277 -0.037899617 -0.007924697 0.0513943 0.0002929609 0.012584263 0.06836432
-0.017214201 -0.030937111 -0.06769948 -0.04598783 -0.023504792 -0.033438377 0.06283167 -0.08478395
-0.01221154 -0.034309305 0.03345909 0.0779439 -0.027790109 -0.08324587 0.063978665 0.03778369
0.059445478 -0.036229663 -0.0057765334 -0.058503393 -0.06706805 0.07417843 0.03246702 -0.06217694
00000000: 271b c23b 448e 66bb 5725 81bd 42c2 78bb
00000010: e237 b0bd bc83 113d b9bb 113d cdf5 9b3d
00000020: 5ea0 a8bd 9ad2 0c3d aa03 383c c36f d8bc
00000030: 03d3 6a3d 2878 c63c de56 a9ba 8446 063d
00000040: d173 123d 2bb3 26bc 2fb9 ef3c 337e 80bd
00000050: 95ca 3b3d 9f7c a6bd 579b 48bc 9d4d c8bb
00000060: 9285 a33d 224c a03d 888e 773d 9f9e 383b
00000070: d212 9d3d ef5c 7f3d eb37 58bd 03db b6bd
00000080: a661 81bd 7132 823d a13c 1bbd 97d6 01bc
00000090: d482 523d 8c98 9939 3a2e 4e3c 9802 8c3d
000000a0: cc04 8dbc d36f fdbc 06a6 8abd bc5d 3cbd
000000b0: 1f8d c0bc aef6 08bd e4ad 803d 35a3 adbd
000000c0: e912 48bc ea87 0cbd 660c 093d 0da1 9f3d
000000d0: 15a8 e3bc d07c aabd 3f07 833d 12c3 1a3d
000000e0: 1a7d 733d 8e65 14bd 1349 bdbb 41a1 6fbd
000000f0: f95a 89bd dcea 973d 23fc 043d 3fad 7ebd

actor.6.weight f4 [3, 64]
-0.0074621877 0.001847493 0.015949061 0.0036990768 -0.0164588 -0.0018409227 0.0036061762 -0.0042228936
-0.0025018367 -0.00075069774 -0.0016697089 0.0010255652 -0.011330989 0.06399299 0.0062247263 -0.008386589
-0.0006721003 0.002297847 -0.013896661 -0.024095656 -0.015795497 0.005898396 0.0050364477 0.0043774527
-0.0050564595 -0.008209936 0.005758118 0.00484516 0.0026932321 -0.0069372808 0.0059971823 0.0033870295
-0.015064009 0.010928864 -0.012979854 0.0169727 0.013794514 0.002125584 -0.012961112 -0.012027135
0.0018101078 -0.0030393067 0.01640834 -0.00070989854 0.0036599587 -0.006166076 0.005320306 -0.0072329757
-0.00082083314 0.0053119157 0.0014219168 0.003068651 0.009420371 -0.011756414 0.007238786 -0.0002971369
-0.016549509 -0.023397846 0.00052174384 0.005185 0.004488165 -0.010756974 0.0019759864 -0.012837622
-0.011167173 0.010561109 0.01232175 0.012432744 0.016196556 -0.0059781354 0.00945678 -0.0073297247
0.0016898175 0.010855563 -0.0070941886 0.008862596 -0.011765037 0.014285104 0.013305799 -0.0023221183
-0.011672839 0.013196843 -0.012843701 -0.019089855 -0.014577251 0.012033174 0.009732243 0.011840892
-0.0065460713 -0.009970692 0.016092625 0.01233992 0.0008528908 -0.007710108 0.012892404 0.012147008
-0.007869601 0.0072371676 -0.008764031 0.012573582 0.01834661 0.012188339 -4.409882e-05 -0.014037276
0.010587834 -0.0014208475 0.012880515 0.0062223803 0.013998677 -0.00497634 0.015830109 -0.008564485
0.012042238 0.011920716 -0.0002834502 -0.0017132318 0.009064114 -0.006587848 0.01236993 -0.0016321739
-0.009990836 -0.020063572 0.00074643985 0.010575795 0.011037852 -0.008406835 -0.008203418 -0.014215101
0.028492972 0.048519228 -0.040640883 0.0459466 0.028343637 0.03696244 0.047670946 -0.044327814
0.04343458 0.04367754 -0.05984948 0.04670013 0.03538488 -0.15974952 0.052024923 0.0139540965
-0.090404354 0.042927194 0.040167816 0.0035393527 0.039455574 0.06266958 0.046884637 0.048900932
0.043199413 0.027276022 0.051819175 0.041677296 -0.038630143 0.005758104 0.046533458 0.058431573
0.0053359475 0.029556962 0.008049596 -0.0025584558 0.028425822 0.046724346 0.014546999 0.033497628
0.04043609 0.035829596 0.059119117 0.030899264 0.04937515 0.0032758745 0.048104014 0.04539313
0.044404194 0.04608141 0.03577463 0.031710237 -0.0468223 0.047133468 0.051025663 0.040196907
0.004348779 -0.032307103 -0.0127562815 0.04572638 0.0477065 0.016470946 -0.042207595 0.047232494
00000000: 5e85 f4bb 9427 f23a 9ba7 823c 366c 723b
00000010: 9bd4 86bc 1e4b f1ba 9955 6c3b 3360 8abb
00000020: dbf5 23bb 79ca 44ba 22da daba 426c 863a
00000030: 9da5 39bc c20e 833d caf8 cb3b e767 09bc
00000040: e32f 30ba 7a97 163b d2ae 63bc 4164 c5bc
00000050: 8f65 81bc 5547 c13b c908 a53b bc70 8f3b
00000060: a8b0 a5bb f882 06bc 98ae bc3b 26c4 9e3b
00000070: f080 303b 2152 e3bb 0384 c43b edf8 5d3b
00000080: 09cf 76bc fa0e 333c 74a9 54bc 550a 8b3c
00000090: 6302 623c 624d 0b3b d85a 54bc 760d 45bc
000000a0: 2441 ed3a 1b2f 47bb c86a 863c 7c18 3aba
000000b0: ebdb 6f3b cb0c cabb f655 ae3b 9902 edbb
000000c0: 2e2d 57ba 940f ae3b 9c5f ba3a 6c1b 493b
000000d0: e657 1a3c f99d 40bc 5733 ed3b 0ac9 9bb9
000000e0: d692 87bc d7ac bfbc a3c5 083a efe6 a93b
000000f0: 7511 933b 053e 30bc 8d7f 013b e454 52bc
00000100: 85f6 36bc 8008 2d3c 2ae1 493c b5b2 4b3c
00000110: a4ae 843c 3ce4 c3bb 9cf0 1a3c 302e f0bb
00000120: de7c dd3a 88db 313c 5e76 e8bb 6c34 113c
00000130: 24c2 40bc 120c 6a3c 9100 5a3c ae2e 18bb
00000140: 6f3f 3fbc 9237 583c 636e 52bc 5462 9cbc
00000150: 6cd5 6ebc ca26 453c fc73 1f3c 4d00 423c
00000160: 6d80 d6bb 1d5c 23bc aed4 833c 602d 4a3c
00000170: 8894 5f3a 13a5 fcbb a93a 533c 3f04 473c
00000180: 80ef 00bc c325 ed3b 0397 0fbc 6d01 4e3c
00000190: a14b 963c 99b1 473c bff6 38b8 9afc 65bc
000001a0: 9878 2d3c bb3b baba cc08 533c 1ce5 cb3b
000001b0: b55a 653c 9110 a3bb 25ae 813c 0e52 0cbc
000001c0: cf4c 453c 1b4f 433c 0b9c 94b9 858e e0ba
000001d0: a681 143c e0de d7bb 3fab 4a3c abee d5ba
000001e0: 9ab0 23bc 5c5c a4bc bbac 433a 1946 2d3c
000001f0: 1bd8 343c d2bc 09bc a167 06bc 74e6 68bc
00000200: 186a e93c 19bc 463d 0e77 26bd 8132 3c3d
00000210: ea30 e83c ed65 173d 9c42 433d 1591 35bd
00000220: 75e8 313d 38e7 323d ba24 75bd a348 3f3d
00000230: bcef 103d 6195 23be 1618 553d b99f 643c
00000240: eb25 b9bd 6dd4 2f3d 0287 243d 7cf4 673b
00000250: 2b9c 213d e958 803d 1b0a 403d 584c 483d
00000260: def1 303d f771 df3c 5840 543d d0b5 2a3d
00000270: a43a 1ebd 7aae bc3b de99 3e3d f255 6f3d
00000280: 2cd9 ae3b 7121 f23c 74e2 033c c4ab 27bb
00000290: 45dd e83c 0762 3f3d 8956 6e3c cf34 093d
000002a0: 50a0 253d 0ec2 123d e326 723d 7420 fd3c
000002b0: 993d 4a3d 0eb0 563b b708 453d 26ee 393d
000002c0: 2ce1 353d dcbf 3c3d 6b88 123d 98e2 013d
000002d0: bdc8 3fbd 060f 413d 4900 513d 83a5 243d
000002e0: 3480 8e3b 7454 04bd b9ff 50bc 964b 3b3d
000002f0: e467 433d 14ee 863c dfe1 2cbd dc76 413d

actor.6.bias f4 [3]
-0.030435327 0.049576685 0.04507289
00000000: 8253 f9bc ec10 4b3d 5a9e 383d

critic.0.weight f4 [256, 259]
0.16501108 -0.030904949 -0.2868549 -0.011323809 -0.70615417 -0.096813045 0.070966 -0.053436182
0.035789322 0.0031125958 0.04233086 -0.08229909 0.08722943 0.13969861 0.12306999 -0.01432775
0.14956653 -0.0767176 -0.10461379 -0.07488144 0.10479268 -0.22268224 -3.2421224 0.118604094
-0.11341351 0.06958911 -0.25474715 -0.058796134 0.004145071 0.8104444 0.11492714 0.062993504
0.004334822 0.122243315 -0.11428466 -0.042789306 0.0038327717 -0.0399898 -0.07359939 0.053685892
0.04514995 -0.014929497 -0.03520047 0.09618453 -0.013445623 0.0717928 -0.33702648 0.14778294
-0.16679843 0.14862859 -0.04056182 0.024694603 0.051633514 -0.92052716 0.009865145 0.06392755
-0.046182517 -0.002029986 0.093382 -0.0044741333 0.074992545 0.02549492 -0.004752388 -0.00060657045
-0.047577173 -0.02333685 0.12667194 0.05266405 -0.041912023 0.11349498 -0.10058611 0.07387653
-0.14936242 -0.06647376 0.09940787 -0.1676421 0.06259123 -0.0321894 0.076687545 0.27057195
-0.008514213 -0.385556 0.089261115 -0.034285415 0.11432612 -0.29215547 -0.297003 -0.12877321
-0.02842282 -0.050784543 0.16174045 0.107833154 0.046297453 -0.09391254 -0.08593697 0.030501984
0.00078653754 -0.033755388 0.04233782 0.075232126 -0.057994712 -0.069504164 -0.02688503 0.042766504
0.028401019 0.08302952 -0.17981122 0.0726545 0.10253381 0.013942484 0.07676174 -0.14006937
0.003017556 -0.035964373 -0.06517804 -0.0063887876 -0.0060121287 -0.06866653 0.03295496 -0.07616199
-0.012360934 -0.03535124 0.03471743 0.088772625 0.04806112 0.205023 -0.026183326 0.051522367
-0.48250884 0.07344266 0.07077699 -0.00828763 0.0711803 -0.02475887 0.015827931 0.058950886
-0.16142271 -0.11458514 0.017029915 -0.27289754 0.13202237 0.094334126 -0.056346077 0.11439526
-0.08596712 -0.09033497 0.05346596 -0.016272198 0.17460248 0.054405957 -0.081260726 0.043547392
-0.0034400106 -0.21403219 -0.025204778 0.1504581 -0.027859159 -0.09734914 0.13596073 -0.00919033
-0.14941831 -0.093539216 -0.004459726 -0.02650012 0.0085273 -0.004563862 -0.06631867 0.08090965
-0.036591437 0.045787085 -0.03845452 0.08321786 0.17782807 0.026727341 -0.05470097 0.10599962
-0.153037 0.080500536 -0.10867361 0.0076715387 -0.00039861607 0.13205998 -0.037404004 -0.032210685
0.03738707 0.18542475 0.22694398 -0.01088992 -0.040862933 0.048042092 -0.08494811 -0.06752005
0.18929803 -0.008845531 -0.04614837 -0.075661026 0.11057852 -0.014836331 -0.085462436 0.03643006
0.116344884 0.11934982 -0.101107016 0.07873586 -0.021070953 0.119047344 -0.055806566 0.20331103
-0.085795626 -0.0025649094 0.016645668 0.16901697 0.03035717 0.052691735 0.012270826 0.016741915
0.04492058 -0.103498906 -0.063177586 -0.092292316 -0.081991695 -0.09592571 -0.09894905 -0.0055945334
0.08203234 -0.0924453 -1.0139855 -0.021506358 0.13514404 -0.15449597 0.043497745 -0.17067938
0.051455833 -0.4217209 0.029231165 -0.029488992 -0.1043265 -0.13558531 -0.08914767 0.11413366
-0.053395562 0.083699204 0.16695185 0.17291099 -0.07944753 -0.09321807 -0.019586239 0.07110353
0.056305364 0.043239005 0.10045488 0.039235204 0.06645968 0.08336009 -0.031144986 -0.010257199
00000000: aaf8 283e 602c fdbc a5de 92be 7f87 39bc
00000010: 85c6 34bf eb45 c6bd 9f56 913d e6df 5abd
00000020: d397 123d b1fc 4b3b 2063 2d3d 6d8c a8bd
00000030: 58a5 b23d 270d 0f3e 1e0c fc3d f0be 6abc
00000040: f827 193e 1e1e 9dbd c13f d6bd 715b 99bd
00000050: 8b9d d63d d006 64be ef7e 4fc0 b4e6 f23d
00000060: 5845 e8bd bc84 8e3d 386e 82be 37d4 70bd
00000070: 60d3 873b 4979 4f3f ec5e eb3d bd02 813d
00000080: 1f0b 8e3b b45a fa3d 130e eabd d743 2fbd
00000090: 3d2f 7b3b 58cc 23bd 47bb 96bd bde5 5b3d
000000a0: 27ef 383d d99a 74bc 5e2e 10bd 65fc c43d
000000b0: 084b 5cbc 1b08 933d bc8e acbe 6954 173e
000000c0: 35cd 2abe 1832 183e 2724 26bd 564c ca3c
000000d0: aa7d 533d aba7 6bbf 6ba1 213c 73ec 823d
000000e0: e129 3dbd 8309 05bb 103f bf3d c09b 92bb
000000f0: b195 993d b9da d03c ecb9 9bbb 4102 1fba
00000100: 48e0 42bd ec2c bfbc 4ab6 013e 42b6 573d
00000110: f1ab 2bbd 0e70 e83d 1700 cebd 944c 973d
00000120: 76f2 18be 6523 88bd 5a96 cb3d 5faa 2bbe
00000130: d52f 803d 08d9 03bd 5c0e 9d3d 6888 8a3e
00000140: 337f 0bbc 9967 c5be 88ce b63d dd6e 0cbd
00000150: d023 ea3d 6795 95be c710 98be 20dd 03be
00000160: f9d6 e8bc 7403 50bd 4a9f 253e a1d7 dc3d
00000170: 66a2 3d3d 3855 c0bd b9ff afbd 4cdf f93c
00000180: a42f 4e3a 1743 0abd 6c6a 2d3d 4d13 9a3d
00000190: dd8b 6dbd 3358 8ebd ff3d dcbc ee2b 2f3d
000001a0: 41a9 e83c 620b aa3d 6f20 38be e2cb 943d
000001b0: 3ffd d13d 046f 643c 4235 9d3d 586e 0fbe
000001c0: 30c2 453b 614f 13bd 107c 85bd 0959 d1bb
000001d0: 6401 c5bb 0aa1 8cbd c8fb 063d d1fa 9bbd
000001e0: 8485 4abc 76cc 10bd dd33 0e3d 6cce b53d
000001f0: bddb 443d 8df1 513e 6a7e d6bc 1e09 533d
00000200: 660b f7be 1b69 963d 87f3 903d d7c8 07bc
00000210: fac6 913d 1dd3 cabc 94a9 813c 7c76 713d
00000220: ff4b 25be 9dab eabd 5282 8b3c 3ab9 8bbe
00000230: df30 073e 4032 c13d 25cb 66bd 1048 ea3d
00000240: 880f b0bd 8a01 b9bd 1fff 5a3d 464d 85bc
00000250: feca 323e c8d8 5e3d 066c a6bd c05e 323d
00000260: cd71 61bb 412b 5bbe 407a cebc b011 1a3e
00000270: e438 e4bc fc5e c7bd 4a39 0b3e 0a93 16bc
00000280: 1d01 19be 7d91 bfbd e522 92bb c816 d9bc
00000290: 17b6 0b3c 738c 95bb 15d2 87bd f5b3 a53d
000002a0: e7e0 15bd 3d8b 3b3d 7d82 1dbd 206e aa3d
000002b0: 9018 363e 4cf3 da3c 200e 60bd 5416 d93d
000002c0: bbb5 1cbe 77dd a43d 4590 debd 8861 fb3b
000002d0: 58fd d0b9 bb3a 073e f134 19bd 5aef 03bd
000002e0: 2f23 193d fcdf 3d3e 0164 683e a36b 32bc
000002f0: e45f 27bd c9c7 443d 46f9 adbd f447 8abd
00000300: 58d7 413e d9ec 10bc 1306 3dbd 2bf4 9abd
00000310: fe76 e23d 1514 73bc ee06 afbd b037 153d
00000320: 3a46 ee3d ae6d f43d 3211 cfbd 4440 a13d
00000330: fe9c acbc 18cf f33d 6d95 64bd c430 503e
00000340: 9eb5 afbd 0a18 28bb 7f5c 883c c912 2d3e
00000350: 9aaf f83c 4ad3 573d 930b 493c 5726 893c
00000360: a4fe 373d 3cf7 d3bd 4063 81bd c103 bdbd
00000370: 43eb a7bd b374 c4bd cda5 cabd 5952 b7bb
00000380: 9200 a83d f653 bdbd 47ca 81bf 1a2e b0bc
00000390: 3363 0a3e 3134 1ebe b12a 323d 93c6 2ebe
000003a0: 5ac3 523d cdeb d7be 3276 ef3c e692 f1bc
000003b0: 22a9 d5bd e0d6 0abe 0e93 b6bd e9be e93d
000003c0: 4eb5 5abd 7d6a ab3d 6df5 2a3e 940f 313e
000003d0: 63b5 a2bd 1ee9 bebd 5273 a0bc ba9e 913d
000003e0: 74a0 663d 621b 313d 4abb cd3d 18b5 203d
000003f0: 031c 883d b2b8 aa3d c523 ffbc d00d 28bc

critic.0.bias f4 [256]
-0.032213338 0.03011702 0.029701259 0.01905749 0.029610012 -0.06430103 0.06858754 -0.09289809
-0.017491532 -0.015716705 -0.028517343 0.035475973 0.034277022 0.042713985 0.007902522 0.017949753
0.005815908 0.010608296 -0.0257314 0.07435373 0.018253665 0.09700159 -0.0040206825 -0.03305661
-0.036312908 -0.03473912 -0.02778698 0.045273654 0.07723698 -0.043739703 -0.045579996 -0.031651657
-0.023213837 0.014094594 -0.036522187 0.0036049497 -0.019167762 -0.04309264 -0.00490083 -0.029403655
-0.009926373 -0.0040454604 -0.043709863 -0.05491125 0.088513754 0.07526839 -0.034015253 -0.035165362
-0.04355496 0.011407097 -0.046449628 -0.04409121 0.08506139 -0.03082609 0.078707196 -0.05970358
-0.045052823 -0.06968706 -0.0070362403 -0.037534103 -0.0020897056 0.04309307 0.09687824 0.02921812
0.059388075 -0.02765882 -0.09816493 -0.021832403 -0.037619773 0.0027271286 0.0074906484 0.010917811
0.05829476 -0.059049636 0.03687541 0.037499443 0.0037402713 0.049653213 0.0037254912 -0.04699653
0.06742255 0.05314917 -0.017503018 0.04376019 0.04013245 -0.00814137 0.06833697 -0.035993654
0.002734344 -0.047161933 0.05745317 0.013299355 -0.0062192897 0.06639535 0.020650415 -0.01845416
0.044212542 -0.053545903 0.09020788 0.054783296 0.00961509 -0.06390654 -0.054435268 0.08191863
-0.025805702 -0.036645345 0.008884955 0.03196585 -0.00037535693 0.028847922 0.07205171 0.037175864
-0.047794152 -0.010166998 0.030007286 -0.059463337 0.020379484 0.0016160358 0.0016235975 -0.034836244
0.04389422 -0.04306991 -0.032039918 0.011860477 0.00014126905 -0.015679285 0.00917363 0.01938427
0.046189412 -0.048661035 -0.052915253 0.078409985 0.09737473 0.014147158 -0.00849731 0.031133663
0.056277975 -0.014625911 0.010845215 0.036628585 -0.042281732 -0.037899043 -0.06268382 -0.025346963
-0.013443546 0.06417693 -0.03386129 -0.06250323 -0.06434797 -0.0008553661 -0.04710296 0.034910813
0.021104507 0.03806819 0.025883246 0.026765553 -0.010506043 -0.022957066 0.04357404 0.03214493
-0.027477091 0.016334817 0.033568524 -0.06351609 0.015232202 -0.051572744 0.03491566 -0.056506667
0.033525433 0.013416881 0.06145336 0.03892996 0.043659877 0.0037008147 -0.012059386 -0.053963885
0.015708417 -0.02008029 -0.039333362 0.07738782 -0.03985909 0.010175388 -0.038281765 -0.05870083
-0.022330247 0.014713716 -0.08892784 -0.004743688 -0.008285308 -0.014861979 0.010142974 -0.028970666
0.01863699 -0.04464112 0.06455268 0.03448102 0.015268568 0.028864717 -0.017389355 -0.024063457
-0.010568013 0.00908068 0.083825275 -0.044230938 -0.009666604 0.008858553 0.00790172 0.060444195
-0.0015021897 0.0030505774 0.047313485 0.08545584 -0.000117081814 0.02630296 -0.009710356 0.09403176
0.021857977 0.03173265 0.07015218 0.028947435 0.07536675 -0.016264161 -0.009937487 0.08019216
0.026614277 -0.059459955 -0.05976534 -0.02519491 0.017762773 -0.052650318 -0.0040947096 -0.015000144
-0.002843752 -0.0024680612 0.023478651 -0.008566444 0.042809263 0.083581015 -0.0047778036 -0.03990757
0.025043873 0.09198781 -0.051718436 0.02713161 0.0059657767 0.031205734 -0.056167807 0.040105667
-0.017521419 -0.038735878 -0.043587226 -0.0009771481 0.055384826 0.0055975886 0.003806326 0.06762273
00000000: 22f2 03bd f8b7 f63c 0e50 f33c 741e 9c3c
00000010: b290 f23c 42b0 83bd a077 8c3d 5b41 bebd
00000020: 674a 8fbc 52c0 80bc 349d e9bc 414f 113d
00000030: 1066 0c3d dcf4 2e3d 9479 013c 5c0b 933c
00000040: 5f93 be3b 6bce 2d3c a8ca d2bc c546 983d
00000050: b688 953c c5a8 c63d eebf 83bb 5e66 07bd
00000060: d8bc 14bd 9c4a 0ebd 85a1 e3bc de70 393d
00000070: 6c2e 9e3d 6728 33bd 17b2 3abd 2ba5 01bd
00000080: f22a bebc 03ed 663c 4a98 15bd 0541 6c3b
00000090: b605 9dbc e881 30bd 2497 a0bb efdf f0bc
000000a0: 3aa2 22bc c88f 84bb 1d09 33bd 9eea 60bd
000000b0: b346 b53d 5026 9a3d 9453 0bbd 8e09 10bd
000000c0: b066 32bd d5e4 3a3c f741 3ebd fc98 34bd
000000d0: ab34 ae3d ff86 fcbc 3d31 a13d be8b 74bd
000000e0: 4f89 38bd 17b8 8ebd 4390 e6bb 5cbd 19bd
000000f0: 71f3 08bb 5c82 303d 1968 c63d d75a ef3c
00000100: e940 733d c094 e2bc b20a c9bd ded9 b2bc
00000110: 3117 1abd a0b9 323b 1d74 f53b 9ee0 323c
00000120: 7cc6 6e3d 08de 71bd ab0a 173d 0499 193d
00000130: 571f 753b 2b61 4b3d 5f27 743b 6f7f 40bd
00000140: d514 8a3d f2b2 593d 7d62 8fbc e33d 333d
00000150: ed61 243d 6163 05bc 41f4 8b3d 156e 13bd
00000160: ae32 333b df2c 41bd 0454 6b3d 8ae5 593c
00000170: 2fcb cbbb 49fa 873d 0f2b a93c 2e2d 97bc
00000180: 3618 353d f352 5bbd e9be b83d 7364 603d
00000190: 9c88 1d3c 6fe1 82bd 84f7 5ebd f4c4 a73d
000001a0: 7b66 d3bc 6e19 16bd 3492 113c a0ee 023d
000001b0: 8ecb c4b9 7a52 ec3c d98f 933d b845 183d
000001c0: cdc3 43bd 7b93 26bc d7d1 f53c d48f 73bd
000001d0: e0f2 a63c 2ad1 d33a e4ce d43a 73b0 0ebd
000001e0: 6dca 333d 136a 30bd 4a3c 03bd 7252 423c
000001f0: 9f21 1439 d871 80bc fe4c 163c c3cb 9e3c
00000200: 1c31 3d3d cb50 47bd aabd 58bd 6a95 a03d
00000210: 676c c73d 7bc9 673c 4d38 0bbc 060c ff3c
00000220: bc83 663d 84a1 6fbc 21b0 313c db07 163d
00000230: 9c2f 2dbd 073c 1bbd 6060 80bd 6fa4 cfbc
00000240: 5242 5cbc 326f 833d 23b2 0abd b201 80bd
00000250: dec8 83bd a63a 60ba 09ef 40bd a4fe 0e3d
00000260: 5ce3 ac3c 64ed 1b3d 1a09 d43c 6f43 db3c
00000270: 8a21 2cbc 7510 bcbc b17a 323d 67aa 033d
00000280: a317 e1bc 98d0 853c 267f 093d b914 82bd
00000290: 7c90 793c f13d 53bd b903 0f3d 8973 67bd
000002a0: f751 093d 7ad2 5b3c 85b6 7b3d 0675 1f3d
000002b0: b3d4 323d 5e89 723b bb94 45bc 3c09 5dbd
000002c0: f0ae 803c 6c7f a4bc 051c 21bd 817d 9e3d
000002d0: 4943 23bd acb6 263c 57cd 1cbd 4870 70bd
000002e0: eced b6bc cc11 713c cd1f b6bd f070 9bbb
000002f0: 1abf 07bc a87f 73bc b72e 263c e453 edbc
00000300: 9aac 983c 9bd9 36bd 3234 843d f83b 0d3d
00000310: 0429 7a3c b375 ec3c 1f74 8ebc ba20 c5bc
00000320: 7625 2dbc 22c7 143c 96ac ab3d 802b 35bd
00000330: ad60 1ebc 7723 113c 3776 013c 5594 773d
00000340: 1fe5 c4ba 32ec 473b c9cb 413d 7903 af3d
00000350: d289 f5b8 4e79 d73c 2f18 1fbc b993 c03d
00000360: 800f b33c 18fa 013d f2ab 8f3d 2c23 ed3c
00000370: e259 9a3d 6b3c 85bc d7d0 22bc ca3b a43d
00000380: 2f06 da3c 488c 73bd 80cc 74bd 8e65 cebc
00000390: 3c83 913c dca7 57bd ea2c 86bb 2ac3 75bc
000003a0: 3e5e 3abb 32bf 21bb 4d56 c03c 455a 0cbc
000003b0: c458 2f3d 862c ab3d 1f8f 9cbb 1f76 23bd
000003c0: cf28 cd3c 1b64 bc3d b6d6 53bd 1c43 de3c
000003d0: 907c c33b 2ba3 ff3c 3710 66bd d745 243d
000003e0: 1489 8fbc 83a9 1ebd 8588 32bd a613 80ba
000003f0: 33db 623d fa6b b73b 8e73 793b c97d 8a3d
