rlgpu/logs/cut/model_765.pt (torch, 868312 bytes, 16 tensors)

log_std f4 [3]
0	0xbf42e730	-0.76134014
1	0xbf0d66dc	-0.55235076
2	0x3d235f10	0.03988558

actor.0.weight f4 [256, 259]
0	0x3d1f94cb	0.03896026
1	0x3d3455b1	0.044027034
2	0x3d658ad7	0.05604061
3	0xbcd82c3f	-0.026388286
4	0xbd8ca1ed	-0.068668224
5	0x3d9c31ab	0.07626661
6	0x3d5d3e57	0.05401453
7	0xbd99f289	-0.07516963
8	0x3cfd2e43	0.030905848
9	0x3d0487f2	0.03235621
10	0x3c99223d	0.018693084
11	0xbda74d83	-0.08169081
12	0x3d8f6ee3	0.07003572
13	0xbdb911f1	-0.09036625
14	0xbcc34468	-0.02383633
15	0xbdab3bfe	-0.08361052
16	0xbce2bcfa	-0.027678002
17	0xbd0b83d1	-0.034061257
18	0xbe1fb859	-0.15597667
19	0x3d08b436	0.033374988
20	0x3d78392c	0.0606014
21	0xbda8bbab	-0.0823892
22	0xbdc6544f	-0.09684049
23	0x3c87da1a	0.016583491
24	0x3dd723fa	0.10504909
25	0xba2c6695	-0.0006576565
26	0x3d884cf8	0.066553056
27	0xbc5fbb1e	-0.013655452
28	0xbc0a7914	-0.008451719
29	0xbd5ec9b1	-0.054391567
30	0x3c43fb45	0.011961763
31	0xbdb33ce4	-0.08751848
32	0x3cdf1320	0.0272308
33	0x3dda48f4	0.10658446
34	0x3db9ae37	0.09066432
35	0xbd0377ae	-0.032096557
36	0x3d62f3c9	0.055408273
37	0xbc66b8bd	-0.014082131
38	0xbd66d163	-0.05635203
39	0x3c3ba2e3	0.011452409
40	0xbc699dd3	-0.01425882
41	0xbcc7e831	-0.02440271
42	0x3e303c01	0.1721039
43	0x3e1bb3f3	0.15205364
44	0xbdccb433	-0.09995308
45	0x3e1aeb8a	0.15128914
46	0x3d9ba2e2	0.07599427
47	0xbda12df6	-0.078700945
48	0x3cdf3958	0.027249023
49	0xbd99d36c	-0.07511029
50	0xbcf5b814	-0.029995002
51	0xbe0fb2c0	-0.14033031
52	0xbd289534	-0.041157916
53	0x3dc5e686	0.096631095
54	0xbd60e63d	-0.054907072
55	0x3d681930	0.056664646
56	0x3e64749f	0.22310112
57	0x3dc3fa59	0.095692344
58	0x3c59d03f	0.013294279
59	0xbe18a231	-0.14905621
60	0x3c88be15	0.0166922
61	0xbd373f04	-0.04473783
62	0xbbc450ad	-0.0059910626
63	0x3c9102e5	0.017701576
64	0xbd1b59c8	-0.03792742
65	0x3d0050d7	0.031327095
66	0xbdbcf42d	-0.0922626
67	0x3db2a575	0.08722965
68	0xbcd6a88f	-0.026203422
69	0xbd2156b9	-0.039389346
70	0xbda1089b	-0.078629695
71	0x3d92f8bb	0.07176348
72	0xbdac88bf	-0.0842452
73	0xbcc687b5	-0.024234632
74	0xbca5c2f2	-0.020234559
75	0xbd32f7fe	-0.043693535
76	0xbe80253e	-0.25028414
77	0xbbcd4324	-0.0062641073
78	0x3d0e0441	0.034672026
79	0xbc902934	-0.017597772
80	0x3d200ed6	0.03907665
81	0x3e028577	0.12746225
82	0xbdd109be	-0.10206936
83	0x3bf9f172	0.0076276595
84	0xbd5e8570	-0.054326475
85	0x3e0abd37	0.13548742
86	0xbd8fcaa6	-0.07021074
87	0xbe05cfcc	-0.1306755
88	0xbdbdea04	-0.092731506
89	0xbdc8a6d2	-0.097974434
90	0x3d8dcd42	0.069239154
91	0x3d8d4601	0.06898118
92	0x3c1406c4	0.009034816
93	0x3d0c72c3	0.034289133
94	0x3e33b704	0.17550284
95	0x3e08733e	0.13325211
96	0xbd014d42	-0.03156782
97	0xbd920b93	-0.07131114
98	0xbca4b706	-0.020106804
99	0x3db12cd9	0.08651132
100	0x3d900962	0.0703304
101	0xbdc1679e	-0.094435915
102	0xbc6aff20	-0.014343053
103	0xbc2d916d	-0.010593754
104	0x3dd9f9ba	0.10643335
105	0xbd4cf774	-0.050040677
106	0xbd4d8af2	-0.050181337
107	0x3dd24329	0.10266716
108	0xbbeb98d4	-0.0071898494
109	0x3e516948	0.20450318
110	0xbd05058a	-0.032475986
111	0x3df0aeaf	0.11752068
112	0x3cb1d205	0.02170659
113	0xbd1d4c56	-0.038402878
114	0xbde2688e	-0.110550985
115	0xbdd65018	-0.104644954
116	0xbd4d92cc	-0.050188825
117	0x3dcdb874	0.10044947
118	0xbd9b731b	-0.07590314
119	0xbc762fc8	-0.01502604
120	0xbd95d13d	-0.073153
121	0x3e1e0c9c	0.15434498
122	0xbdc03af0	-0.093862414
123	0x3c02bf93	0.007980245
124	0x3d3fd139	0.04683039
125	0x3de17b05	0.11009792
126	0x3c86324b	0.016381403
127	0xbd42de3f	-0.04757523
128	0x3d60032a	0.054690517
129	0x3ddde094	0.108338505
130	0x3d8cdd66	0.06878166
131	0x3d9727e2	0.07380654
132	0xbd91122d	-0.07083545
133	0xbd724b54	-0.05915387
134	0xbd7d3073	-0.061813783
135	0x3e49b850	0.19699216
136	0xbd877bdf	-0.066154234
137	0xbdc080c9	-0.09399564
138	0x3d91bf40	0.07116556
139	0xbdd0b5da	-0.101909354
140	0x3d34893b	0.044076186
141	0xbe405448	-0.18782151
142	0xbc87215d	-0.016495401
143	0xbc715bef	-0.014731391
144	0xbdbff97a	-0.09373756
145	0x3c998985	0.018742332
146	0x3e07b230	0.13251567
147	0xbbbb441e	-0.0057149073
148	0xbd9cc4eb	-0.076547466
149	0xbd9b0927	-0.07570105
150	0xbe07f11e	-0.13275573
151	0x3dad16bf	0.08451604
152	0xbe266af1	-0.16251732
153	0x3ca9c902	0.02072573
154	0xbc210abb	-0.0098292185
155	0x3df655d8	0.12028092
156	0x3e1fd1d6	0.1560739
157	0x3d78b9f9	0.060724232
158	0xbd3904a1	-0.04517043
159	0x3e00e23a	0.12586299
160	0x3df44998	0.119280994
161	0x3d35aeff	0.044356342
162	0xbe029fa6	-0.12756214
163	0xbdaa2609	-0.08308036
164	0x3a8aefe9	0.0010600063
165	0x3d3ca6cf	0.04605752
166	0xbd6fc9dc	-0.058542117
167	0xbce8605e	-0.028366264
168	0xbe43a8bf	-0.1910734
169	0xbd676164	-0.056489363
170	0x3d9662f0	0.073430896
171	0xbe21ddca	-0.15807262
172	0x3d7d9e88	0.061918765
173	0x3dd65e6f	0.104672305
174	0x3d841397	0.06449049
175	0xbd31a3a8	-0.043368965
176	0x3e041c05	0.12901314
177	0xbd98294a	-0.0742975
178	0xbdb3b729	-0.087751694
179	0xbc7b0659	-0.015321338
180	0x3e0ab0e6	0.13544044
181	0x3d1efdc7	0.03881624
182	0xbdafa9bf	-0.085772984
183	0x3cc7f500	0.024408817
184	0xbe4d1621	-0.20027973
185	0xbcb8c647	-0.022555484
186	0x3d2a3b41	0.041560415
187	0xbd10f777	-0.03539225
188	0xbdea4eaf	-0.11440789
189	0xbd9d5486	-0.07682137
190	0xbe21bc97	-0.15794598
191	0xbd585bd4	-0.05282195
192	0xbcce4a74	-0.025181986
193	0xbd31322e	-0.043260746
194	0x3e28719b	0.16449587
195	0x3d5a00ff	0.053223606
196	0x3e0254b9	0.12727632
197	0xbcb68895	-0.022281924
198	0xbc78f28e	-0.015194548
199	0x3e1ede8d	0.15514584
200	0xbd15120a	-0.036394157
201	0xbe69af8e	-0.22820875
202	0x3cb6e650	0.022326618
203	0x3dc2e073	0.095154665
204	0x3dbc3a3b	0.09190794
205	0xbd1bcfe7	-0.038040068
206	0x3db9ae2b	0.09066423
207	0xbcb6b0cc	-0.0223011
208	0xbdc4c6e8	-0.09608251
209	0xbe44f447	-0.1923381
210	0xbd4f2a5b	-0.050577503
211	0x3d5e81ef	0.054323133
212	0xbd5a4208	-0.05328563
213	0xbdabbcae	-0.08385597
214	0xbcabaaaa	-0.020955402
215	0x3e52cdbd	0.20586295
216	0x3d957199	0.07297058
217	0x3d301a95	0.0429941
218	0xbd863ab9	-0.06554169
219	0x3da6b520	0.081400156
220	0x3d882baf	0.06648957
221	0xbc1e715e	-0.0096705835
222	0xbb4d24eb	-0.0031302522
223	0xba64a9dc	-0.0008722821
224	0xbdf2f6d4	-0.11863485
225	0x3d8b1925	0.06791905
226	0xbd2e4a11	-0.042551104
227	0xbde83816	-0.113388225
228	0x3dd41389	0.103552885
229	0x3d481abd	0.048853625
230	0x3da1ba45	0.07896856
231	0x3d078a89	0.0330911
232	0x3dc6ea99	0.09712715
233	0x3d92a24b	0.07159861
234	0xbdc42b3e	-0.0957856
235	0x3cd1b469	0.025598722
236	0xbdd7c57f	-0.10535716
237	0xbe1fcbf5	-0.15605147
238	0x3d0cb729	0.034354363
239	0xbd6af3d1	-0.057361428
240	0xbc94a087	-0.018142952
241	0xbe1dc7f3	-0.15408306
242	0x3e0e85ef	0.13918279
243	0xbbfb9303	-0.0076774373
244	0x3dee2e16	0.11629884
245	0x3db6a23b	0.08917662
246	0x3c04c993	0.0081047
247	0x3c97ac5b	0.018514803
248	0x3e2257c8	0.15853798
249	0xbcbf94e4	-0.023386426
250	0x3dd0cca4	0.10195282
251	0xbbbb0b71	-0.005708151
252	0xbdbbc26c	-0.091679424
253	0x3daeac6a	0.08528979
254	0xbc653c02	-0.013991358
255	0x3d22e71e	0.03977119

actor.0.bias f4 [256]
0	0xbc9b91f0	-0.018990487
1	0xbd49d7d7	-0.049278107
2	0xbc6291a6	-0.013828671
3	0xbcb15b37	-0.02164994
4	0xbc90576e	-0.017619815
5	0x3be3041e	0.006927981
6	0x3d2f7ed2	0.042845555
7	0x3d06d424	0.032917157
8	0xbb93d8bd	-0.004511921
9	0x3d430680	0.04761362
10	0x3d288f39	0.041152213
11	0x3c68cc61	0.014208884
12	0x3d8050b4	0.06265393
13	0x3c7570b6	0.014980486
14	0xbce64ab2	-0.02811179
15	0x3ab82703	0.0014049712
16	0x3c776944	0.015100781
17	0x3c7904ec	0.015198927
18	0x3cc91f90	0.024551183
19	0xbd0d7c21	-0.034542207
20	0x3cd1b5fd	0.025599474
21	0x3b43413b	0.002979352
22	0x3d4aa99b	0.049478155
23	0xbd54c9c5	-0.051950235
24	0x3c61a3ed	0.013771993
25	0xbd7359be	-0.059411757
26	0xbca6abfb	-0.020345679
27	0x3cedfe82	0.029052023
28	0xbd4456b2	-0.04793424
29	0xbcd997b8	-0.026561603
30	0x3d0c31e4	0.034227267
31	0xbd1f240b	-0.038852733
32	0x3c3d778c	0.011564147
33	0x3d50bee1	0.050963286
34	0x3cc39e8f	0.023879318
35	0xbd189e94	-0.037260607
36	0xbd333011	-0.04374701
37	0x3d135d0f	0.03597742
38	0x3d7a4d5c	0.061108932
39	0xbce5f8d5	-0.028072754
40	0x3d6cd8ea	0.057824053
41	0xbc9bbdab	-0.01901134
42	0x3d6bc06e	0.057556562
43	0x3d4221fd	0.047395695
44	0xbd489398	-0.04896888
45	0x3d31378a	0.043265857
46	0xbcd1ea04	-0.025624283
47	0x3d7dcb2c	0.061961338
48	0x3d6be407	0.05759051
49	0xbcdb4dff	-0.02677059
50	0xbd201698	-0.039084047
51	0x3d3f8c51	0.046764676
52	0x3be1f972	0.0068961913
53	0x3cca134e	0.024667408
54	0xbd3650f2	-0.04451079
55	0xbd35f8f8	-0.04442689
56	0xbc9b51d4	-0.018959917
57	0x3bf463a0	0.0074581653
58	0xbc12e3be	-0.008965431
59	0x3cd08cae	0.025457706
60	0x3c8e95d1	0.017405422
61	0xbd47461a	-0.04865084
62	0xbd810fa6	-0.06301813
63	0x3d6e106e	0.058121137
64	0xbd8b387b	-0.06797882
65	0xbd5364ef	-0.05160993
66	0xbc998c39	-0.018743621
67	0x3c549173	0.012974131
68	0x3cd930a7	0.026512457
69	0xbcc7f56a	-0.024409015
70	0xbcdf922a	-0.027291376
71	0xbbe25f29	-0.0069083166
72	0x3d06b408	0.032886535
73	0xbc688b3a	-0.01419335
74	0x3c9e46cb	0.019320866
75	0xbd600fe0	-0.05470264
76	0xbc7dc635	-0.015489151
77	0x3c842ccd	0.016134644
78	0xbcd7881e	-0.026310023
79	0xbd0bd3f8	-0.034137696
80	0x3d10216e	0.03518813
81	0xbd6284c0	-0.05530238
82	0xbd43bc48	-0.04778698
83	0x3d5a1847	0.05324581
84	0x3d230d42	0.039807566
85	0xbd61e36f	-0.05514854
86	0xbd572985	-0.05252983
87	0xbd3cb428	-0.046070248
88	0x3d10b237	0.03532621
89	0xbd2634c0	-0.04057765
90	0xbd85bf37	-0.06530612
91	0x3d10b71e	0.035330884
92	0xbce461ab	-0.027878603
93	0x3bcfbebf	0.0063398774
94	0xbd2168f5	-0.039406735
95	0x3cded093	0.027199065
96	0x3cfdd68d	0.030986095
97	0x3d80375e	0.062605605
98	0xbd3d4801	-0.046211246
99	0x3c91054d	0.017702723
100	0xbc966ae3	-0.018361514
101	0xbb940063	-0.0045166477
102	0xbd6a901c	-0.05726634
103	0xbd53d589	-0.051717315
104	0x3c1af31a	0.009457374
105	0xbd2a2a12	-0.041544028
106	0x3cf95b2e	0.030438986
107	0x3b7c11d1	0.0038462768
108	0x3c2ccd3e	0.01054698
109	0x3b1ac59d	0.0023616322
110	0xbcc4028f	-0.023927001
111	0x3cf25e8f	0.029586105
112	0x3d15d700	0.036581993
113	0xbd33fff5	-0.04394527
114	0x3c13622c	0.008995574
115	0x3cd62031	0.026138397
116	0xbccd428a	-0.025056142
117	0xbd37c99e	-0.04487001
118	0xbcaec4cc	-0.021334074
119	0xbd71518f	-0.05891567
120	0xbcf53a63	-0.029935068
121	0xbc6d0ac9	-0.014467903
122	0xbc9188bf	-0.0177654
123	0xbd22d5c1	-0.039754633
124	0x3cff9c62	0.031202499
125	0x3d644bd3	0.055736374
126	0xbccfd1fc	-0.025368683
127	0xbd360825	-0.04444136
128	0xbc1313e0	-0.008976907
129	0xbce74629	-0.028231697
130	0x3d3e0190	0.04638821
131	0x3c5e97d8	0.013586007
132	0xbd417a60	-0.047235847
133	0x38e7d0ca	0.00011053828
134	0xbc93daab	-0.018048605
135	0xbd30c1cd	-0.043153573
136	0xbd2a711f	-0.041611787
137	0xbd72dc74	-0.05929227
138	0xbd062390	-0.03274876
139	0xbb3d39ef	-0.0028873642
140	0xbd81e30b	-0.06342133
141	0x3d088db1	0.033338252
142	0x3d0becc3	0.03416134
143	0x3cfb0a05	0.030644426
144	0x3d5c9aec	0.053858683
145	0xbb9e1bf5	-0.00482511
146	0x3cf76ede	0.030204233
147	0x3c79eb92	0.015253918
148	0xbc5275ce	-0.01284547
149	0x3c5366e7	0.012902952
150	0x3d2d894e	0.042367272
151	0x3d171426	0.03688445
152	0xbc7d7020	-0.015468627
153	0x3d621859	0.055199
154	0x3d636a78	0.05552146
155	0x3d121200	0.035661697
156	0xbd2fb57e	-0.042897694
157	0x3d068d11	0.032849375
158	0x3b85b411	0.0040803035
159	0xbd10cd9c	-0.035352334
160	0xbd740217	-0.059572306
161	0x3c81af01	0.015830519
162	0x3ce6794b	0.028134009
163	0x3caab38b	0.020837566
164	0xbcfa1006	-0.030525219
165	0xbd66fc0d	-0.056392718
166	0x3d93c885	0.072159804
167	0x3c6d8833	0.014497804
168	0x3cac48a9	0.02103074
169	0x3a65225a	0.00087407755
170	0xbd332923	-0.043740403
171	0x3d38322b	0.04496972
172	0x3c3dc256	0.011581978
173	0x3d43e981	0.04783011
174	0xbd217270	-0.039415777
175	0xbb6aa907	-0.0035806315
176	0x3d2d91c9	0.04237536
177	0x3d367cc6	0.044552587
178	0x3cec8b88	0.028875127
179	0x3d6513f7	0.055927243
180	0xbd3ae98a	-0.045632876
181	0xbd3a5bb5	-0.045497615
182	0xbd16bb8c	-0.036799952
183	0x3d46961c	0.048483
184	0x3d016687	0.03159192
185	0xbc0ce0c3	-0.008598509
186	0x3d1fb034	0.0389864
187	0xbce08bf3	-0.027410483
188	0xbd656ae7	-0.056010153
189	0xbc8d535b	-0.017251661
190	0xbbccb4a2	-0.006247119
191	0xbd1e6f60	-0.038680434
192	0xbd01e4ac	-0.03171222
193	0xbd5282e3	-0.051394355
194	0xbd224040	-0.039612055
195	0xbcf41201	-0.029793741
196	0x3d3b7cb0	0.04577321
197	0x3d5f15c3	0.054464113
198	0x3cf20d2f	0.029547302
199	0x3d823fe3	0.06359842
200	0xbd58b34b	-0.052905362
201	0x3ca0b305	0.019616613
202	0x3d40da3d	0.04708313
203	0xbb809f46	-0.003925237
204	0xbd4ae31e	-0.049533002
205	0x3c8bbac1	0.017056825
206	0xbc90f27e	-0.017693754
207	0xbc896402	-0.01677132
208	0x3cf091db	0.029366424
209	0xbc91fbc5	-0.017820248
210	0xbcf015ab	-0.029307207
211	0xbd003b63	-0.031306636
212	0x3d0bce96	0.034132563
213	0xbcdd3fbb	-0.027007928
214	0x3d84f6e9	0.06492407
215	0x3d05f404	0.032703415
216	0x3bb193a4	0.0054192115
217	0x3b326280	0.0027219355
218	0xbc13f60f	-0.009030833
219	0xbcf5b6f2	-0.029994462
220	0xbd3e9dfb	-0.04653738
221	0xbd6eb78c	-0.058280513
222	0xbcdf1f19	-0.027236508
223	0x3c71fe7d	0.014770147
224	0x3d601501	0.05470753
225	0x3d70e396	0.058810793
226	0xbbfe5d1c	-0.0077625643
227	0x3c8f3f3f	0.017486213
228	0x3d810115	0.062990345
229	0x3d8713e7	0.06595593
230	0xbd7b2338	-0.061312884
231	0xbd279a2c	-0.040918514
232	0x3c4b2bbe	0.012400566
233	0xbcd0aaef	-0.025472132
234	0x3c1737b9	0.009229594
235	0xbd57dc30	-0.05270022
236	0xbd34a784	-0.044105068
237	0x3c6c0305	0.014405017
238	0xbd19e189	-0.037568603
239	0xbd6bd90f	-0.05758005
240	0xbc7b5388	-0.01533974
241	0x3cfdb344	0.03096927
242	0xbd1855cd	-0.0371912
243	0xbc140084	-0.009033326
244	0xbda151f1	-0.07876957
245	0x3d338371	0.043826524
246	0x3cd3e244	0.025864728
247	0xbcf4639f	-0.02983266
248	0x3ca9e6f5	0.020740012
249	0x3c8fcbc4	0.017553218
250	0x3d162ad7	0.03666195
251	0x3d21b69f	0.0394808
252	0x3d43eb93	0.047832083
253	0x3ce1589f	0.027508078
254	0x3c83dfaf	0.016097872
255	0x3d29f4fa	0.041493393

actor.2.weight f4 [128, 256]
0	0xbd0ca36e	-0.034335546
1	0x3e2ab118	0.16669118
2	0xbe1f55fa	-0.15560141
3	0x3c299054	0.010349352
4	0xbd6e5010	-0.058181822
5	0xbdf5ec36	-0.12007944
6	0x3d1d000d	0.038330127
7	0x3db95647	0.09049659
8	0x3cfcbbdb	0.030851295
9	0x3e28912b	0.16461627
10	0xbd8615ab	-0.065471016
11	0xbd95c128	-0.07312232
12	0xbd7c9bbb	-0.061671954
13	0x3de9f82d	0.11424289
14	0x3c8943b3	0.016755914
15	0x3d8b3657	0.06797474
16	0xbe26d4d9	-0.16292132
17	0xbd93e8db	-0.07222148
18	0xbdea5bd5	-0.11443297
19	0x3e070d51	0.13188674
20	0x3e722e7f	0.2365055
21	0xbcb355e3	-0.02189154
22	0xbdfc953c	-0.12333152
23	0x3d9f2903	0.07771494
24	0xbe288ce7	-0.1646
25	0xbe1130a0	-0.14178705
26	0x3c3dbe3c	0.011581
27	0x3d1dfbe0	0.038570285
28	0xbd8b9f96	-0.06817548
29	0x3ce694f0	0.02814719
30	0xbd1b2a74	-0.037882283
31	0xbc8525d2	-0.016253386
32	0x3cff74ec	0.031183682
33	0x3b9869f4	0.0046513025
34	0x3d991440	0.074745655
35	0x3caaf41b	0.020868352
36	0xbe64f9ab	-0.22360866
37	0x3bfa8059	0.0076446948
38	0x3d84c325	0.06482533
39	0xbd20c660	-0.039251685
40	0x3dbccabc	0.09218356
41	0x3e062c0f	0.13102745
42	0xbd930c7d	-0.07180116
43	0x3cb8985a	0.022533584
44	0x3d336bbb	0.04380391
45	0xbd83bb62	-0.06432225
46	0x3cf0bdb1	0.029387327
47	0x3c523548	0.012830086
48	0x3d0a0f1b	0.033705812
49	0xbe448ae8	-0.19193614
50	0xbb56d217	-0.0032779032
51	0x3d9d4ddc	0.07680866
52	0xbca5867e	-0.020205732
53	0xbdc6b55f	-0.097025625
54	0x3d38bce3	0.04510201
55	0xbcf93273	-0.030419564
56	0xbe109a6a	-0.14121404
57	0x3d070149	0.03296021
58	0xbb7aae65	-0.003825092
59	0xbd50091d	-0.05078994
60	0xbc81e15e	-0.015854534
61	0x3e0dfa24	0.13864952
62	0x3d9cbd7f	0.07653331
63	0xbe606d52	-0.21916702
64	0x3d5cead8	0.053934902
65	0xbdcf0051	-0.10107482
66	0x3d032f11	0.032027308
67	0xbd922c16	-0.07137315
68	0xbc04c347	-0.008103198
69	0xbd99c030	-0.0750736
70	0xbd8d743d	-0.06906936
71	0xbd9b9619	-0.07596988
72	0xbd9d8556	-0.076914474
73	0xbcd89e6d	-0.02644273
74	0xbd083963	-0.033257853
75	0x3dfd6156	0.12372081
76	0xbdf0aa55	-0.11751238
77	0x3cc71a1e	0.024304446
78	0xbd0cce0e	-0.034376197
79	0x3d624317	0.055239763
80	0x3d3c2505	0.045933742
81	0x3c4cc29b	0.012497569
82	0x3d9bfa34	0.07616082
83	0xbe4bf5a5	-0.19917925
84	0x3d2795ca	0.040914334
85	0xbc89c350	-0.016816765
86	0xbdcfa699	-0.10139198
87	0x3e6ec6b8	0.23317993
88	0xbcfd3add	-0.030911857
89	0xbdafcf5a	-0.08584471
90	0xbb57792f	-0.0032878628
91	0x3c7a07aa	0.015260616
92	0x3d8852ed	0.06656442
93	0x3d0b00ab	0.033936184
94	0xbc332c02	-0.010935785
95	0x3d160e12	0.036634512
96	0x3d06013c	0.03271602
97	0x3c2bb055	0.010479053
98	0xbd0b924a	-0.03407506
99	0x3c4de120	0.012565881
100	0xbdea28fe	-0.114336
101	0x3e273a7c	0.16330904
102	0x3d9afda6	0.07567911
103	0x3e248b92	0.16068867
104	0x3d0f6a77	0.035013642
105	0xbce70aba	-0.028203357
106	0x3d6afd21	0.05737031
107	0x3d5fb5f7	0.054616895
108	0xbd9fd769	-0.07804758
109	0x3ceadd1f	0.028669892
110	0x3d9449f1	0.07240666
111	0x3c88ab27	0.016683174
112	0xbd91152e	-0.07084118
113	0x3c5fd2f8	0.013661139
114	0xbddf3a22	-0.1089976
115	0xbe02a69a	-0.12758866
116	0x3daaf01e	0.0834658
117	0xbc49fb63	-0.012328002
118	0xbdb600b8	-0.08886856
119	0xbbf062fa	-0.0073360177
120	0xbd0077b3	-0.031364154
121	0x3e256237	0.16150747
122	0x3d2955ef	0.04134172
123	0xbdd70091	-0.10498155
124	0xbd977ae2	-0.07396485
125	0x3d976c57	0.07393711
126	0x3d3222cb	0.043490212
127	0x3dd9840f	0.10620891
128	0x3d407ded	0.046995092
129	0x3c217182	0.0098537225
130	0x3d3e2423	0.04642118
131	0x3d6e5da0	0.058194757
132	0xbd736723	-0.05942453
133	0x3e231b4e	0.15928385
134	0xbd5b355f	-0.053517696
135	0x3cd6167c	0.026133768
136	0xbc75d7c9	-0.0150050605
137	0x3e16ad73	0.14714603
138	0xbde90b03	-0.113790534
139	0xbe2a6315	-0.1663936
140	0x3dc95c28	0.098320305
141	0x3c34cc43	0.011035028
142	0x3c40aa6b	0.011759381
143	0xbe22f339	-0.15913095
144	0xbc3aca9d	-0.011400846
145	0xbda48855	-0.08033816
146	0x3d91e473	0.07123651
147	0x3d3b640b	0.045749705
148	0x3d1f40f8	0.03888032
149	0x3da59664	0.08085325
150	0x3d8fd8d2	0.07023777
151	0x3d5d0e91	0.05396897
152	0xbd00226b	-0.031282824
153	0x3e0440cb	0.12915342
154	0xbc767e90	-0.015044823
155	0x3c11afd6	0.00889202
156	0x3d036ede	0.032088153
157	0xbdc0e92c	-0.09419474
158	0xbd0f4536	-0.034978114
159	0xbd641ed4	-0.055693462
160	0x3e80cb60	0.25155163
161	0xbe22c7e1	-0.1589656
162	0x3b2dfab2	0.002654713
163	0xbcd2abe6	-0.025716733
164	0x3d481bbd	0.04885458
165	0xbe3fb2ce	-0.18720552
166	0x3cb41287	0.02198149
167	0xbe0a1d69	-0.13487782
168	0x3d869574	0.06571475
169	0xbcbdb8fe	-0.0231595
170	0x3cab25ad	0.020891989
171	0x3d7fbb6f	0.06243461
172	0xbde025c2	-0.10944702
173	0x3d776181	0.06039572
174	0xbbf1a23b	-0.0073740757
175	0x3c5521e7	0.013008571
176	0xbd8d7f68	-0.069090664
177	0x3e2b44f2	0.1672552
178	0x3de18fce	0.11013757
179	0x3cd55085	0.026039371
180	0xbd4cdeed	-0.050017286
181	0xbde05fdb	-0.10955783
182	0xbdf38382	-0.118903175
183	0x3e05922a	0.13044038
184	0xbc230b63	-0.009951445
185	0x3db101dc	0.08642933
186	0x3af1d1a9	0.0018449324
187	0x3dd95d58	0.10613507
188	0xbd325db1	-0.043546382
189	0xbc76b57e	-0.01505792
190	0x3ce91b6d	0.02845546
191	0x3e02fb69	0.12791218
192	0x3d0df91e	0.034661405
193	0x3d36044c	0.04443769
194	0x3d0988f0	0.03357786
195	0xbc17d350	-0.009266689
196	0x3bdf27d2	0.006810167
197	0xbc97c710	-0.018527538
198	0x3da70b91	0.08156503
199	0x3b988e19	0.0046556112
200	0x3d8c3081	0.06845189
201	0x3c988414	0.018617667
202	0xbdee24d6	-0.1162812
203	0xbd174dc0	-0.036939383
204	0xbc447247	-0.0119901365
205	0xbd8bd066	-0.06826858
206	0x3c6c3310	0.014416471
207	0x3d9a5efa	0.075376466
208	0x3db9dec0	0.09075689
209	0xbd8202ee	-0.06348215
210	0xbbdb0db3	-0.0066849827
211	0xbe15b2cf	-0.14618991
212	0x3d766b77	0.06016108
213	0xbde1f0d8	-0.110322654
214	0x3d334992	0.043771334
215	0xbe0b58a1	-0.13608028
216	0x3ba639a6	0.00507279
217	0xbe17edc0	-0.14836788
218	0x3db45ccc	0.08806762
219	0xbdb7a968	-0.089678586
220	0x3d7b88c5	0.06140973
221	0xbd313869	-0.043266688
222	0x3c9e7507	0.019342912
223	0x3dac605a	0.08416815
224	0x3d8ca638	0.06867641
225	0xbdc2a386	-0.09503846
226	0x3dd20415	0.10254685
227	0xbd4fb3b3	-0.050708484
228	0x3da04438	0.07825512
229	0xbdb5cbe5	-0.088767804
230	0x3e262935	0.16226657
231	0xbe0f4f49	-0.13995089
232	0x3cb9443f	0.02261555
233	0x3c578845	0.013155048
234	0xbdb90ec8	-0.090360224
235	0x3cc4f471	0.02404234
236	0xbdb46602	-0.08808519
237	0x3d5a40a2	0.053284295
238	0xbd6659d6	-0.056238018
239	0xbd57e6f1	-0.052710477
240	0x3d9c8c12	0.07643904
241	0xbc81c210	-0.015839607
242	0x3c983b1e	0.018582877
243	0xbe205673	-0.15657978
244	0x3d418927	0.04724994
245	0x3e5e15f6	0.21688065
246	0xbdc42567	-0.095774464
247	0xbe110007	-0.14160167
248	0x3df76f56	0.120817825
249	0x3c6334be	0.013867555
250	0x3bee3b27	0.007270235
251	0xbdf95b6c	-0.121756405
252	0xbded0b1f	-0.11574387
253	0xbd2f2050	-0.042755425
254	0x3dfbc035	0.1229252
255	0xbd65d697	-0.056112852

actor.2.bias f4 [128]
0	0xbd0a7d98	-0.03381118
1	0x3cdb5873	0.026775574
2	0xbd22d25f	-0.039751407
3	0xbd0bde47	-0.034147527
4	0xbce9f1fb	-0.028557768
5	0x3cf37f09	0.029723661
6	0xba0ec0a2	-0.00054455746
7	0xbcbd6a80	-0.023122072
8	0x3c1384c3	0.009003821
9	0x3d237574	0.039906934
10	0x3b9d18c3	0.0047942116
11	0x3d74a077	0.059723344
12	0xbd858270	-0.065190196
13	0xbd88a7b2	-0.0667261
14	0xbc9e3a8b	-0.019315025
15	0xbd280bd4	-0.041026905
16	0x3bab89a5	0.0052349144
17	0xbd41ad4d	-0.047284413
18	0xbca4e975	-0.020130852
19	0x3b35956c	0.002770747
20	0x3cc5e6a3	0.024157828
21	0xbd622a60	-0.055216193
22	0xbd855a98	-0.0651142
23	0x3d33224e	0.043733887
24	0xbd1c1bef	-0.038112577
25	0xbd2eee03	-0.042707454
26	0xbca6e56b	-0.020373067
27	0x3d11f963	0.035638224
28	0xbd0db902	-0.034600265
29	0xbc3673c2	-0.011135997
30	0x3d49de94	0.049284533
31	0x3d4e29d7	0.05033287
32	0xbbb32be6	-0.0054678796
33	0xbd71b0e2	-0.05900658
34	0x3cff1742	0.03113902
35	0xbbdc2ed5	-0.00671945
36	0xbaab7051	-0.0013079738
37	0x3d30fa0b	0.04320721
38	0xbba25536	-0.0049540056
39	0xbd5ab8fb	-0.053399067
40	0x3bfe3ae1	0.0077584838
41	0x3c2b3dd4	0.010451753
42	0xbd175a92	-0.03695161
43	0xbc28fc24	-0.010314021
44	0x3bb0dd78	0.005397495
45	0xbd4223ca	-0.047397412
46	0x3cc81fba	0.02442919
47	0xbd69df24	-0.05709757
48	0xbca762dd	-0.020432884
49	0x3d37b5b7	0.04485103
50	0xbd658b00	-0.056040764
51	0xbc068c4f	-0.008212163
52	0xbc9729b9	-0.018452512
53	0xbd14163f	-0.036154028
54	0x3cea8868	0.028629497
55	0x3d485aa5	0.04891457
56	0xbd299ffe	-0.041412346
57	0x3d414d75	0.04719301
58	0xbcd384cd	-0.02582016
59	0xbc0351ae	-0.008015079
60	0x3d1304f7	0.035893407
61	0xbafbe2d2	-0.0019217378
62	0x3d15fa19	0.036615465
63	0x3c827cf9	0.015928732
64	0x3c75d34f	0.015003993
65	0x3d0ba81c	0.03409587
66	0xbc330ac3	-0.010927859
67	0x3ae213ce	0.0017248334
68	0x3d039df0	0.032133043
69	0xbc325614	-0.01088478
70	0x3d350d27	0.044201996
71	0xbca7ef45	-0.020499835
72	0x3cd7c9cf	0.026341347
73	0xbd165195	-0.036698896
74	0xbd8066f2	-0.06269635
75	0x3d06ab1a	0.03287802
76	0xbcc9d405	-0.024637232
77	0x3d11898a	0.035531558
78	0xbc786cf3	-0.015162694
79	0xbcaf66e4	-0.021411367
80	0xbcb9a442	-0.022661332
81	0xbd6f4b18	-0.058421224
82	0x3ce4071a	0.027835418
83	0xbbfe1ee3	-0.007755147
84	0xbd41ea91	-0.04734284
85	0x3d78649e	0.06064283
86	0x3d4b3cde	0.049618594
87	0xbd5acd6c	-0.05341856
88	0x3d57914a	0.052628793
89	0xbd4d7b86	-0.05016663
90	0xbd32d268	-0.04365769
91	0xbcdaceb4	-0.026709892
92	0xbd621404	-0.05519487
93	0xbcebe831	-0.02879724
94	0x3cc80bb5	0.024419645
95	0x3c7b35a8	0.015332617
96	0xbd1b4749	-0.03790978
97	0x3be4be72	0.0069807107
98	0x3b6c2eee	0.0036038714
99	0x3c8e4c9f	0.01737052
100	0x3ceb1ffe	0.028701779
101	0x3ba0fbc4	0.0049128253
102	0xbd64f6b0	-0.055899322
103	0xbd786562	-0.06064356
104	0xbd6167d8	-0.055030674
105	0xbca5fe61	-0.020262899
106	0x3d753751	0.059867207
107	0x3bfaf5ed	0.007658711
108	0xbcf388d4	-0.02972833
109	0xbd87d916	-0.06633203
110	0x3ca5be02	0.020232204
111	0xbcacf6b1	-0.021113725
112	0xbd3b6d9c	-0.04575883
113	0xbd2a074c	-0.041510865
114	0x3d06eb2f	0.032939132
115	0x3d100e25	0.03516974
116	0xbcccfca9	-0.025022822
117	0x3c350d05	0.011050467
118	0x3d76711d	0.060166467
119	0xbd5f7503	-0.05455495
120	0xbd2ab9fd	-0.04168128
121	0xbca827b4	-0.020526744
122	0xbcc23b7c	-0.023710005
123	0xbd672d77	-0.056439843
124	0xbd582147	-0.05276611
125	0xbcb32e25	-0.02187259
126	0x3c87f089	0.016594188
127	0x3c77058d	0.015077007

actor.4.weight f4 [64, 128]
0	0xbd76d52c	-0.06026189
1	0xbc92abf9	-0.017904269
2	0x3dd5a746	0.104322955
3	0xbdf6a8ee	-0.120439395
4	0xbdf57421	-0.119850405
5	0x3b66b11e	0.0035200785
6	0x3d904442	0.07044269
7	0xbe862862	-0.26202685
8	0x3d08bd10	0.03338343
9	0xbe852ab7	-0.2600915
10	0x3e04d175	0.12970527
11	0x3e35f407	0.1776887
12	0xbdd1da97	-0.10246771
13	0x3cfb423d	0.030671233
14	0x3d2445a5	0.04010548
15	0xbdcb177c	-0.09916589
16	0x3e1312f4	0.14362699
17	0xbd4a9466	-0.04945793
18	0x3e37e9ec	0.17960328
19	0xbdbc1d10	-0.09185231
20	0xbd7c89d6	-0.061654888
21	0x3b221ca6	0.0024736314
22	0x3df524ea	0.119699314
23	0xbb444dca	-0.0029953592
24	0xbdf4e783	-0.1195822
25	0x3cf285db	0.029604843
26	0x3d882c2e	0.066490516
27	0xbe5180e9	-0.20459332
28	0x3ce48f46	0.02790035
29	0xbcfa86af	-0.0305818
30	0x3d000dc1	0.031263117
31	0x3defcce5	0.117090024
32	0xbc90681f	-0.017627774
33	0x3e941137	0.28919384
34	0xbd54936a	-0.051898398
35	0x3d09c107	0.03363135
36	0x3c6358c7	0.013876147
37	0x3c2f562f	0.0107017
38	0xbc7d7b79	-0.015471333
39	0xbdb16784	-0.08662322
40	0xbd0f81e5	-0.035035986
41	0xbd07b8e4	-0.03313531
42	0xbe58be46	-0.21166334
43	0xbe576a08	-0.21036541
44	0x3b5dd0c5	0.003384636
45	0x3d921adf	0.071340315
46	0x3d2ec75d	0.042670596
47	0xbdb80535	-0.08985368
48	0xbd7a8fb3	-0.0611722
49	0x3d6beffe	0.05760192
50	0x3de51397	0.11185377
51	0x3d8b92a2	0.06815077
52	0x3e99bf3f	0.30028722
53	0xbdefbe63	-0.11706235
54	0xbc282037	-0.010261587
55	0xbbe96f06	-0.0071238307
56	0x3e0f247f	0.13978766
57	0xbe90ec73	-0.28305396
58	0x3d21f5fd	0.039541233
59	0xbda36806	-0.07978825
60	0xbca5d5cf	-0.020243553
61	0xbc272c8e	-0.010203494
62	0x3e4e1282	0.20124248
63	0x3dda09af	0.10646378
64	0x3e8d1c2d	0.2756056
65	0x3cf78417	0.030214353
66	0xbebc1a08	-0.3673861
67	0x3dd507e6	0.10401897
68	0xbdd51c24	-0.10405758
69	0xbdbbe2dc	-0.09174129
70	0xbd9f71ac	-0.07785353
71	0x3e1d19b3	0.15341835
72	0x3e5f2eda	0.21795216
73	0x3ea099ed	0.31367436
74	0x3e5296c3	0.20565324
75	0x3ce5575c	0.027995758
76	0xbdec5792	-0.1154014
77	0x3c1f2b99	0.009714984
78	0x3e191fb0	0.14953494
79	0xbdf70701	-0.12061883
80	0xbdc209d8	-0.09474534
81	0x3c6bcd91	0.014392273
82	0x3dc9103c	0.098175496
83	0xbc49ec7e	-0.012324451
84	0xbe7d7381	-0.24751092
85	0xbdd481c7	-0.103763156
86	0xbdc02e2f	-0.09383809
87	0xbdcbd70d	-0.09953127
88	0x3e1c9e28	0.15294707
89	0xbe6aae5d	-0.22918077
90	0xbd00eb0e	-0.031474166
91	0xbde580d1	-0.112062104
92	0xbc887143	-0.01665557
93	0x3d8f2eb7	0.06991332
94	0x3d4b21e9	0.049592886
95	0xba45ea6b	-0.00075498846
96	0x3d29802b	0.041381996
97	0xbd9df4f8	-0.0771274
98	0x3d0d1191	0.03444058
99	0xbdbb5efb	-0.091489755
100	0xbb0cdc78	-0.0021493714
101	0xbd80985d	-0.06279061
102	0x3ab97294	0.0014148527
103	0x3d5e3d9f	0.054257985
104	0xbd7fafcc	-0.062423512
105	0xbdafd628	-0.08585769
106	0xbd5529af	-0.052041706
107	0xbd17a726	-0.03702464
108	0x3d47f52c	0.0488178
109	0x3e10bd79	0.14134778
110	0x3e00cc74	0.12577993
111	0x3e00f22f	0.12592386
112	0x3e01f121	0.1268964
113	0x3db66d81	0.08907605
114	0xbe5d6e79	-0.21624173
115	0x3da65c25	0.08123044
116	0x3d36b95d	0.04461037
117	0xbd4892c1	-0.04896808
118	0xbe056a4b	-0.13028829
119	0xbe19cd71	-0.15019776
120	0xbe5c867c	-0.21535677
121	0x3e1e3d86	0.15453157
122	0xbe00466f	-0.12526868
123	0x3c870e80	0.016486406
124	0x3e265fc2	0.16247466
125	0x3e214d1d	0.15752073
126	0xbcb5e8fe	-0.022205826
127	0x3d7f0bca	0.062267102
128	0x3d57fa05	0.05272867
129	0xbd3c983b	-0.046043616
130	0x3e20ba79	0.15696134
131	0x3d8158c6	0.0631576
132	0x3ce38281	0.02777219
133	0xbe3e6078	-0.18591487
134	0xbe3ab7cd	-0.18234177
135	0xbdd088f2	-0.1018237
136	0x3e36b9db	0.17844336
137	0x3dc666c2	0.09687568
138	0x3de17274	0.11008158
139	0xbdeb116b	-0.114779316
140	0x3e173ff4	0.1477049
141	0x3e3b3dd0	0.18285298
142	0xbdb8fe0b	-0.0903283
143	0xbdcd36b9	-0.10020203
144	0x3eaba797	0.33526298
145	0x3e382703	0.17983632
146	0x3dc37099	0.09542961
147	0xbe3feaea	-0.18741956
148	0xbd190562	-0.03735865
149	0x3d798d03	0.060925495
150	0xbdb287af	-0.08717286
151	0xbe942cb5	-0.2894036
152	0x3ca85bb7	0.020551546
153	0x3c0b0aeb	0.00848649
154	0xbbf75cf8	-0.0075489245
155	0x3c8463fc	0.016160958
156	0x3dc03056	0.09384219
157	0x3db3829e	0.087651476
158	0xbe3708c5	-0.17874439
159	0xbcacb4a7	-0.021082236
160	0x3d9b39b3	0.07579365
161	0x3e250ca9	0.1611811
162	0x3d81dc47	0.06340843
163	0x3e1176ab	0.14205424
164	0x3d8c0fbe	0.0683894
165	0x3d24abb6	0.04020282
166	0x3e14d797	0.14535366
167	0x3e33611d	0.17517515
168	0xbe146772	-0.14492586
169	0xbe497a0c	-0.19675463
170	0x3c8a9fe5	0.016921947
171	0x3e071637	0.13192068
172	0x3e668d97	0.2251495
173	0xbc8a4300	-0.016877651
174	0xbdd9684a	-0.10615595
175	0x3cd4b877	0.025966866
176	0x3e3175e8	0.17330134
177	0x3de6c2fd	0.1126766
178	0xbd798c1c	-0.060924634
179	0xbe08789b	-0.13327257
180	0x3b857238	0.004072454
181	0xbe42979b	-0.19003145
182	0xbd339357	-0.043841686
183	0x3d677340	0.056506395
184	0xbcfcad67	-0.030844403
185	0x3d6aa0fc	0.057282433
186	0xbdb96845	-0.09053091
187	0x3e3b040a	0.1826326
188	0x3cab081b	0.020877888
189	0xbe241e84	-0.16027266
190	0xbe76681b	-0.2406315
191	0xbcfaeff5	-0.030631999
192	0xbc6531f9	-0.013988965
193	0xbd9faa6b	-0.077961765
194	0x3e41b615	0.18917115
195	0xbc1e93af	-0.009678765
196	0xbd00abb4	-0.03141375
197	0xbe327c89	-0.17430319
198	0xbdfe7b6e	-0.12425886
199	0x3e08e38d	0.13368054
200	0xbde02e17	-0.10946291
201	0x3e0e1d92	0.13878468
202	0xbe22892b	-0.15872638
203	0xbe8cd030	-0.27502584
204	0x3db3a8d1	0.087724335
205	0xbdb746a0	-0.089490175
206	0x3de7ecff	0.113245
207	0x3d237ff7	0.03991696
208	0xbd5cbdee	-0.05389207
209	0xbe4bdfbb	-0.19909565
210	0x3d233a89	0.039850745
211	0x3d6c50ad	0.057694126
212	0xbd5128bb	-0.051064234
213	0xbe600860	-0.21878195
214	0xbd66de55	-0.056364376
215	0x3e9d1fa6	0.30688208
216	0x3dd33d48	0.10314423
217	0xbcad9055	-0.021186987
218	0xbd296b5f	-0.041362163
219	0xbd525c2f	-0.051357444
220	0xbd2c55e5	-0.042074103
221	0xbc3e1942	-0.011602702
222	0xbdbe6d99	-0.09298248
223	0x3d16bc53	0.036800694
224	0x3d010356	0.031497322
225	0x3dca84ce	0.09888612
226	0x3d1c851b	0.038212877
227	0xbe241e0b	-0.16027085
228	0xbd21c81d	-0.039497484
229	0xbe5502ca	-0.20801845
230	0x3dc68046	0.09692435
231	0x3e520464	0.20509487
232	0xbe3a25e4	-0.18178517
233	0x3dd66e1e	0.10470222
234	0xbd9d899d	-0.07692263
235	0xbdc95a93	-0.09831729
236	0x3ddd64eb	0.10810264
237	0xbde55ae3	-0.11198976
238	0xbad7211c	-0.0016413066
239	0x3dbf79a3	0.09349372
240	0x3d1ceea3	0.03831352
241	0x3ddbb141	0.10727168
242	0x3d8e61ec	0.06952271
243	0x3e0ed5a6	0.13948688
244	0xbe0f6855	-0.14004643
245	0xbd8b7516	-0.06809442
246	0xbdb54ceb	-0.088525616
247	0xbd22f83b	-0.039787512
248	0xbd21dba2	-0.0395161
249	0xbe100071	-0.14062668
250	0xbd804b10	-0.06264317
251	0x3e35096c	0.17679375
252	0x3b078996	0.0020681373
253	0xbe2b19f9	-0.16709127
254	0xbe5110df	-0.20416592
255	0x3d51d277	0.051226106

actor.4.bias f4 [64]
0	0x3bc0b9f2	0.0058815414
1	0xbb666f56	-0.0035161576
2	0xbd8121a5	-0.06305245
3	0xbb787615	-0.003791218
4	0xbdb04f64	-0.086088926
5	0x3d11854d	0.035527516
6	0x3d11bbb6	0.035579406
7	0x3d9bd3cd	0.07608757
8	0xbda89fc4	-0.08233598
9	0x3d0cd651	0.034384076
10	0x3c374c5e	0.011187641
11	0xbcd86434	-0.026414968
12	0x3d6ab0c4	0.057297483
13	0x3cc5a66e	0.024127211
14	0xbaa8cc91	-0.0012878348
15	0x3d064f00	0.032790184
16	0x3d123683	0.035696518
17	0xbc26b13a	-0.01017409
18	0x3cef5720	0.02921635
19	0xbd809602	-0.06278612
20	0x3d3b9a7d	0.04580163
21	0xbda67b5d	-0.081289984
22	0xbc489841	-0.012243331
23	0xbbc83cb9	-0.0061107543
24	0x3da38c4a	0.079857424
25	0x3da054c1	0.078286655
26	0x3d778fda	0.060439922
27	0x3b38a30d	0.0028173358
28	0x3d9d0f92	0.076689854
29	0x3d7f5d93	0.0623451
30	0xbd582fd6	-0.052779995
31	0xbdb6d8a6	-0.08928041
32	0xbd817d67	-0.06322747
33	0x3d8237a0	0.06358266
34	0xbd1b7cd0	-0.037960827
35	0xbc01d0e5	-0.0079233395
36	0x3d528489	0.051395927
37	0x399a68e4	0.0002945132
38	0x3c4dc004	0.012557987
39	0x3d8bed7e	0.068324074
40	0xbc8cfd68	-0.017210677
41	0xbcfd605e	-0.03092974
42	0xbd8aa5a2	-0.06769873
43	0xbd3c53de	-0.04597842
44	0xbcc08a4e	-0.023503449
45	0xbd08f5fa	-0.033437707
46	0x3d80ae25	0.062832154
47	0xbdadabcd	-0.08480034
48	0xbc481189	-0.012211212
49	0xbd0c861f	-0.034307595
50	0x3d092551	0.033482853
51	0x3d9fa863	0.07795789
52	0xbce3a6f9	-0.02778958
53	0xbdaa719d	-0.08322451
54	0x3d83077a	0.063979104
55	0x3d1ac887	0.037788894
56	0x3d73469a	0.059393503
57	0xbd149e91	-0.036284033
58	0xbbbcf312	-0.005766281
59	0xbd6f9b70	-0.058497846
60	0xbd895a61	-0.067066915
61	0x3d97cff8	0.07412714
62	0x3d04ff1d	0.032469857
63	0xbd7ed5f0	-0.062215745

actor.6.weight f4 [3, 64]
0	0xbbe7a4ab	-0.0070691905
1	0x3b065121	0.0020495134
2	0x3c8407eb	0.016117057
3	0x3b80e4ba	0.0039335163
4	0xbc89aff4	-0.016807534
5	0xbad5e680	-0.0016319305
6	0x3b79c0b6	0.003810925
7	0xbb950149	-0.0045472723
8	0xbb162bca	-0.0022914284
9	0xba0f76a6	-0.0005472697
10	0xbaec2918	-0.0018017618
11	0x3aa3b3c2	0.0012489485
12	0xbc3a168a	-0.011357913
13	0x3d8218bb	0.06352373
14	0x3bd1b650	0.006399907
15	0xbc061617	-0.008183978
16	0xba858c61	-0.0010188931
17	0x3b243059	0.0025053232
18	0xbc60f16d	-0.013729435
19	0xbcc69d60	-0.024244964
20	0xbc817d14	-0.015806712
21	0x3bc83ec2	0.006110997
22	0x3bac0944	0.005250128
23	0x3b9632ff	0.004583716
24	0xbb9dca6b	-0.00481539
25	0xbbf404b8	-0.0074468516
26	0x3bc3a9eb	0.0059711835
27	0x3ba57b51	0.005050101
28	0x3b11bd10	0.0022237934
29	0xbbdc9ec9	-0.006732796
30	0x3bcb55e2	0.0062053064
31	0x3b6d58ba	0.0036216215
32	0xbc7a7982	-0.015287759
33	0x3c36b2dd	0.011151043
34	0xbc54d2fb	-0.012989755
35	0x3c8cb707	0.017177118
36	0x3c6568b8	0.014002018
37	0x3b19b96d	0.002345647
38	0xbc4e0486	-0.012574321
39	0xbc477447	-0.012173719
40	0x3b04e9bd	0.002028092
41	0xbb350e75	-0.0027627025
42	0x3c881b81	0.016614677
43	0xba0d0e44	-0.0005380849
44	0x3b7be1ca	0.0038434141
45	0xbbc35800	-0.005961418
46	0x3bb4d3bb	0.0055184043
47	0xbbe5f14f	-0.0070172916
48	0xba204df2	-0.00061151304
49	0x3bb495c6	0.0055110184
50	0x3add4e60	0.001688432
51	0x3b596ee2	0.0033177664
52	0x3c1dc473	0.009629357
53	0xbc3af95b	-0.01141199
54	0x3bf3d41d	0.0074410574
55	0xb834b619	-4.3084936e-05
56	0xbc86f6e9	-0.016475158
57	0xbcbfa551	-0.023394259
58	0x3a3346e3	0.0006838871
59	0x3bae5f8a	0.0053214477
60	0x3b9a6aa9	0.004712422
61	0xbc2fe458	-0.010735594
62	0x3b128ac3	0.002236054
63	0xbc5628a1	-0.01307121
64	0xbc3b46cd	-0.011430454
65	0x3c2d2f29	0.010570326
66	0x3c496eca	0.012294481
67	0x3c4bce15	0.0124392705
68	0x3c81b22d	0.015832031
69	0xbbc51009	-0.0060138744
70	0x3c1b5247	0.009480066
71	0xbbedad10	-0.0072532967
72	0x3ada228a	0.0016642374
73	0x3c317944	0.010832135
74	0xbbefb3a4	-0.007315116
75	0x3c1218b0	0.008917019
76	0xbc370844	-0.011171404
77	0x3c6728a8	0.014108814
78	0x3c5a02c2	0.013306322
79	0xbb139010	-0.0022516288
80	0xbc40b165	-0.011761044
81	0x3c5899a7	0.013220227
82	0xbc510f22	-0.012759956
83	0xbc9cad2f	-0.01912555
84	0xbc68bc4a	-0.014205048
85	0x3c4518d2	0.012029843
86	0x3c1fd86b	0.009756188
87	0x3c420729	0.011842527
88	0xbbd2e691	-0.006436177
89	0xbc203057	-0.00977715
90	0x3c840e01	0.016119959
91	0x3c4a8d72	0.012362825
92	0x3a90ef3c	0.0011057626
93	0xbbfbfb39	-0.00768986
94	0x3c525bbd	0.012839255
95	0x3c474966	0.012163496
96	0xbc0045cd	-0.007829142
97	0x3bee2823	0.0072679683
98	0xbc0f9971	-0.008764611
99	0x3c4e34c0	0.012585819
100	0x3c9659a1	0.018353285
101	0x3c4834b4	0.012219597
102	0x39b3cc91	0.00034293954
103	0xbc6857b4	-0.014181066
104	0x3c2da2f4	0.010597933
105	0xbab92189	-0.0014124374
106	0x3c53745f	0.012906163
107	0x3bcce525	0.006252902
108	0x3c6569dc	0.01400229
109	0xbba23839	-0.00495055
110	0x3c81b7f6	0.01583479
111	0xbc053726	-0.008130824
112	0x3c45a9ae	0.012064381
113	0x3c437c1d	0.011931446
114	0xb8d7d671	-0.00010291942
115	0xbad41137	-0.0016179447
116	0x3c14dc38	0.009085707
117	0xbbd63fd6	-0.0065383716
118	0x3c4b0b26	0.012392795
119	0xbad2263d	-0.0016033124
120	0xbc268814	-0.0101642795
121	0xbca49c88	-0.020094171
122	0x3a581966	0.0008243531
123	0x3c2daf57	0.010600886
124	0x3c350cfc	0.011050459
125	0xbc0b0f6c	-0.008487564
126	0xbc05d01b	-0.008167292
127	0xbc65fc09	-0.014037141
128	0x3ce7c15b	0.028290441
129	0x3d46db75	0.048549134
130	0xbd267b7a	-0.0406451
131	0x3d3c4be0	0.045970798
132	0x3ce7b255	0.028283278
133	0x3d177cf3	0.036984395
134	0x3d436317	0.04770192
135	0xbd353e8d	-0.044249106
136	0x3d3207b0	0.043464363
137	0x3d32fac7	0.04369619
138	0xbd753855	-0.059868176
139	0x3d3f58b0	0.04671544
140	0x3d11811e	0.035523526
141	0xbe23d938	-0.16000831
142	0x3d554036	0.05206319
143	0x3c650a7d	0.013979551
144	0xbdb9533d	-0.090490796
145	0x3d2ff3bf	0.042957064
146	0x3d244bdb	0.040111404
147	0x3b636949	0.0034700206
148	0x3d21be22	0.039487965
149	0x3d806326	0.06268911
150	0x3d4028b2	0.04691381
151	0x3d4869d9	0.04892907
152	0x3d314f0d	0.04328828
153	0x3cdf79e4	0.027279802
154	0x3d546031	0.051849548
155	0x3d2ad586	0.041707538
156	0xbd1cb58e	-0.03825908
157	0x3bbda259	0.0057871756
158	0x3d3ea8ff	0.046547886
159	0x3d6f746d	0.05846064
160	0x3bb36ab2	0.0054753656
161	0x3cf23174	0.029564597
162	0x3c03156c	0.008000713
163	0xbb25c8e2	-0.0025296737
164	0x3ce90ced	0.028448546
165	0x3d3f7b92	0.046748705
166	0x3c6f3296	0.014599463
167	0x3d09212e	0.03347891
168	0x3d25be73	0.04046483
169	0x3d12b642	0.035818346
170	0x3d724820	0.059150815
171	0x3cfd4ac2	0.030919436
172	0x3d4a5932	0.04940147
173	0x3b58b33b	0.0033065814
174	0x3d45265b	0.04813228
175	0x3d3a0220	0.045412183
176	0x3d35ffda	0.044433452
177	0x3d3cdb80	0.04610777
178	0x3d130355	0.03589185
179	0x3d01b73f	0.031668898
180	0xbd3fabea	-0.04679481
181	0x3d40a05e	0.047027938
182	0x3d511f44	0.051055208
183	0x3d24bba4	0.04021801
184	0x3b8ac32b	0.0042346916
185	0xbd0425ff	-0.0322628
186	0xbc50c4fc	-0.012742277
187	0x3d3b7abc	0.045771345
188	0x3d43843c	0.04773353
189	0x3c86e945	0.016468653
190	0xbd2cc668	-0.042181402
191	0x3d412a3e	0.047159426

actor.6.bias f4 [3]
0	0xbcfacc68	-0.030615047
1	0x3d4b0210	0.049562514
2	0x3d388c63	0.04505576

critic.0.weight f4 [256, 259]
0	0x3e395524	0.18098885
1	0xbd2aaf1f	-0.041670915
2	0xbea1d546	-0.31608027
3	0xbc39877f	-0.011323809
4	0xbf33717a	-0.70095026
5	0xbdc7e045	-0.09759573
6	0x3d91569f	0.070966
7	0xbd5adfe6	-0.053436182
8	0x3d1297d3	0.035789322
9	0x3b4bfcb1	0.0031125958
10	0x3d2d6320	0.04233086
11	0xbdaa5cd4	-0.08318487
12	0x3db2a558	0.08722943
13	0x3e0e5874	0.1390093
14	0x3dfc0c1e	0.12306999
15	0xbc80ab69	-0.015706735
16	0x3e1989b3	0.14993934
17	0xbd9d1e1e	-0.0767176
18	0xbdd63fc1	-0.10461379
19	0xbd995b71	-0.07488144
20	0x3dd69d8b	0.10479268
21	0xbe659640	-0.22420597
22	0xc05dc545	-3.4651654
23	0x3df2e6b4	0.118604094
24	0xbde84558	-0.11341351
25	0x3d8dd580	0.069254875
26	0xbe808be9	-0.25106743
27	0xbd70d437	-0.058796134
28	0x3c33b085	0.0109673785
29	0x3f4e0848	0.80481386
30	0x3dec0c2f	0.11525761
31	0x3d8102bd	0.062993504
32	0x3b8e0b1f	0.004334822
33	0x3dfa5ab4	0.122243315
34	0xbdebd8f4	-0.1151599
35	0xbd3241a6	-0.04351964
36	0x3b54440a	0.0032389187
37	0xbd173a6f	-0.03692096
38	0xbd96bb47	-0.07359939
39	0x3d5ad4a3	0.053425442
40	0x3d38ef27	0.04514995
41	0xbc7f6c90	-0.015589848
42	0xbd102e5e	-0.03520047
43	0x3dc4fc65	0.09618453
44	0xbc67a84e	-0.014139248
45	0x3d92b995	0.07164303
46	0xbeaa9f50	-0.3332467
47	0x3e175469	0.14778294
48	0xbe2b8e3d	-0.16753478
49	0x3e177e68	0.14794314
50	0xbd26cf55	-0.04072507
51	0x3cca4c56	0.024694603
52	0x3d537daa	0.051633514
53	0xbf6c0173	-0.9218971
54	0x3c1385c4	0.00900406
55	0x3d82ec73	0.06392755
56	0xbd405f80	-0.046966076
57	0xbb3c6838	-0.0028748643
58	0x3dbdda7b	0.092701875
59	0xbbabefd6	-0.0052470965
60	0x3d9995b1	0.074992545
61	0x3cd29f44	0.02571071
62	0xbb9bb9ec	-0.004752388
63	0xbadbfe15	-0.0016784096
64	0xbd459925	-0.048241753
65	0xbcbf2cec	-0.02333685
66	0x3e014af2	0.12626246
67	0x3d54cc13	0.051952433
68	0xbd2babf1	-0.041912023
69	0x3de8700e	0.11349498
70	0xbdce0017	-0.10058611
71	0x3d974c94	0.07387653
72	0xbe18f276	-0.14936242
73	0xbd882365	-0.06647376
74	0x3dca0d20	0.09865785
75	0xbe2baa5f	-0.1676421
76	0x3d7d90bb	0.061905604
77	0xbd076191	-0.03305203
78	0x3d9d0e5c	0.076687545
79	0x3e8a44be	0.2700557
80	0xbc0b7f33	-0.008514213
81	0xbec492a9	-0.38393143
82	0x3dba593c	0.09099051
83	0xbd0c6edd	-0.034285415
84	0x3dea23d0	0.11432612
85	0xbe81dc32	-0.25363308
86	0xbe940a34	-0.28914034
87	0xbe03dd20	-0.12877321
88	0xbce8d6f9	-0.02842282
89	0xbd533e27	-0.051572945
90	0x3e259f4a	0.16174045
91	0x3ddb11ad	0.10696731
92	0x3d3da266	0.046297453
93	0xbdc05538	-0.09391254
94	0xbdb13f9f	-0.08654713
95	0x3cf3c30b	0.02975609
96	0x3a4e2fa4	0.00078653754
97	0xbd0a4317	-0.033755388
98	0x3d2d6a6c	0.04233782
99	0x3d9a134d	0.075232126
100	0xbd70bc0c	-0.058773085
101	0xbd882265	-0.06647185
102	0xbcdc3dff	-0.02688503
103	0x3d2f2bee	0.042766504
104	0x3ce8a941	0.028401019
105	0x3daa0b62	0.08302952
106	0xbe38206f	-0.17981122
107	0x3d94cbe2	0.0726545
108	0x3dd1122d	0.10208545
109	0x3c646f04	0.013942484
110	0x3d9d3542	0.07676174
111	0xbe0f6e58	-0.14006937
112	0x3bf2fe8c	0.0074155983
113	0xbd164e94	-0.03669603
114	0xbd86e501	-0.06586648
115	0xbbd15909	-0.0063887876
116	0xbbdad7d8	-0.0066785626
117	0xbd8c62b8	-0.068547666
118	0x3d04e189	0.03244165
119	0xbd9bfad1	-0.07616199
120	0xbc4a8584	-0.012360934
121	0xbd10cc76	-0.03535124
122	0x3d0b0097	0.03393611
123	0x3db3db62	0.08782078
124	0x3d44dbbd	0.04806112
125	0x3e51f18d	0.205023
126	0xbcd67e6a	-0.026183326
127	0x3d53091e	0.051522367
128	0xbef7f9dd	-0.48432818
129	0x3d96691b	0.07344266
130	0x3d90f387	0.07077699
131	0xbc183c43	-0.009291711
132	0x3d91c6fa	0.0711803
133	0xbccad31d	-0.02475887
134	0x3c74212c	0.014900487
135	0x3d6db1e5	0.05803098
136	0xbe2539d8	-0.16135347
137	0xbdeaab9d	-0.11458514
138	0x3c8b8252	0.017029915
139	0xbe8bdc53	-0.27316532
140	0x3e066333	0.13123779
141	0x3dc13240	0.094334126
142	0xbd66cb25	-0.056346077
143	0x3dea4810	0.11439526
144	0xbdb00f88	-0.08596712
145	0xbdba3fc5	-0.09094194
146	0x3d5aff1f	0.05346596
147	0xbc854d46	-0.016272198
148	0x3e32cafe	0.17460248
149	0x3d5b7056	0.05357393
150	0xbda66c06	-0.081260726
151	0x3d325ec0	0.043547392
152	0xbb6171cd	-0.0034400106
153	0xbe5b5b49	-0.21421541
154	0xbcd530e0	-0.026024282
155	0x3e2038b1	0.15646626
156	0xbce438e4	-0.027859159
157	0xbdb6905e	-0.089142546
158	0x3e09d98f	0.13461898
159	0xbc16930a	-0.00919033
160	0xbe18dea4	-0.1492868
161	0xbdbf917d	-0.093539216
162	0xbbad464a	-0.00528792
163	0xbcd916c8	-0.02650012
164	0x3bfdda85	0.007746997
165	0xbb958c73	-0.004563862
166	0xbd87d215	-0.06631867
167	0x3da5b3f5	0.08090965
168	0xbd15e0e7	-0.036591437
169	0x3d3883cf	0.045047577
170	0xbd209f25	-0.039214272
171	0x3daa6e20	0.08321786
172	0x3e361890	0.17782807
173	0x3cdaf34c	0.026727341
174	0xbd600e20	-0.05470097
175	0x3dd91654	0.10599962
176	0xbe1d8d0b	-0.15385835
177	0x3da9b75a	0.08286925
178	0xbdde9045	-0.10867361
179	0x3bfb6188	0.0076715387
180	0xb9d0fd58	-0.00039861607
181	0x3e0716df	0.13192318
182	0xbd1934f1	-0.037404004
183	0xbd03ef5a	-0.032210685
184	0x3d19232f	0.03738707
185	0x3e3ddffc	0.18542475
186	0x3e61e116	0.2205852
187	0xbc3dc15c	-0.011581745
188	0xbd275fe4	-0.040862933
189	0x3d44c7c9	0.048042092
190	0xbdadf946	-0.08494811
191	0xbd8bbdee	-0.068233356
192	0x3e41d758	0.18929803
193	0xbc10ecd9	-0.008845531
194	0xbd3d0613	-0.04614837
195	0xbd9c92df	-0.07645201
196	0x3de21aa4	0.110402375
197	0xbc731415	-0.014836331
198	0xbdb09acd	-0.08623276
199	0x3d1a4e77	0.037672486
200	0x3dee463a	0.116344884
201	0x3df46dae	0.11934982
202	0xbdd08971	-0.10182465
203	0x3da14044	0.07873586
204	0xbcab7552	-0.020929966
205	0x3df28f1f	0.118437044
206	0xbd64956d	-0.055806566
207	0x3e5030c4	0.20331103
208	0xbdafb59e	-0.085795626
209	0xbb28180a	-0.0025649094
210	0x3c8a25a8	0.016863659
211	0x3e2c790b	0.16843049
212	0x3cf8af9a	0.03035717
213	0x3d57d34a	0.052691735
214	0x3c490b93	0.012270826
215	0x3c892657	0.016741915
216	0x3d37fea4	0.04492058
217	0xbdd3f73c	-0.103498906
218	0xbd816340	-0.063177586
219	0xbdbd03c1	-0.092292316
220	0xbda7eb43	-0.081991695
221	0xbdc474b3	-0.09592571
222	0xbdcaa5cd	-0.09894905
223	0xbbd1484b	-0.006386792
224	0x3da65b85	0.08122925
225	0xbdbef589	-0.09324176
226	0xbf808aab	-1.0042318
227	0xbcb02e1a	-0.021506358
228	0x3e09dc36	0.1346291
229	0xbe1e2f0d	-0.15447636
230	0x3d30727d	0.043077935
231	0xbe2f9a18	-0.17148626
232	0x3d52c35a	0.051455833
233	0xbed7d457	-0.4215419
234	0x3cef7632	0.029231165
235	0xbcf8612d	-0.030319775
236	0xbdd6ba19	-0.10484714
237	0xbe0b47b3	-0.1360157
238	0xbdb79014	-0.089630276
239	0x3de8259b	0.11335298
240	0xbd5ded4d	-0.054181386
241	0x3da8200f	0.0820924
242	0x3e2a772f	0.16647027
243	0x3e304875	0.1721514
244	0xbda32094	-0.07965198
245	0xbdc0a30b	-0.09406098
246	0xbca07352	-0.019586239
247	0x3d919eba	0.07110353
248	0x3d654ac7	0.055979516
249	0x3d2ddedf	0.042448875
250	0x3dcdbb4a	0.10045488
251	0x3d1d45b0	0.038396537
252	0x3d881c03	0.06645968
253	0x3daab8b2	0.08336009
254	0xbd017a58	-0.031610817
255	0xbc280dd0	-0.010257199
