rlgpu/logs/cut/model_725.pt (torch, 868312 bytes, 16 tensors)

log_std f4 [3]
00000000: 30c7 3cbf 2fbe 08bf b973 ef3c
-0.73741436 -0.534152 0.029229986

actor.0.weight f4 [256, 259]
00000000: 7391 1f3d ec50 343d c78b 653d 3f2c d8bc
00000010: a8a0 8cbd a53f 9c3d 573e 5d3d 89f2 99bd
00000020: 432e fd3c f287 043d 3d22 993c 2a41 a7bd
00000030: e36e 8f3d f3fc b8bd 6844 c3bc f032 abbd
00000040: dca5 e2bc d183 0bbd 59b8 1fbe 36b4 083d
00000050: 2c39 783d b6b8 a8bd 4f54 c6bd 1ada 873c
00000060: fa23 d73d ec67 2bba 6a4f 883d 1ebb 5fbc
00000070: e863 0abc 4cc9 5ebd 6f32 443c e43c b3bd
00000080: 2013 df3c f448 da3d 42b5 b93d 415a 03bd
00000090: 71fe 623d 31af 66bc 63d1 66bd 8fda 3b3c
000000a0: d39d 69bc 1ad0 c7bc 013c 303e f3b3 1b3e
000000b0: a9aa ccbd e3ec 1a3e 7aa4 9b3d f62d a1bd
000000c0: fa8c df3c 42ce 99bd f586 f5bc c0b2 0fbe
000000d0: 3495 28bd 86e6 c53d bfb7 60bd 3019 683d
000000e0: f97a 643e ae0c c43d d5ff 593c cf98 18be
000000f0: 15be 883c 4a35 37bd ad50 c4bb f732 913c
00000100: 27fa 1abd d750 003d b5e7 bcbd 01c1 b23d
00000110: 8fa8 d6bc b956 21bd 9b08 a1bd bbf8 923d
00000120: bf88 acbd b587 c6bc 1b93 a5bc fef7 32bd
00000130: 0322 80be 2153 ccbb 4104 0e3d 0c1b 90bc
00000140: d60e 203d dc85 023e b507 d1bd 72f1 f93b
00000150: 7085 5ebd 37bd 0a3e 72c8 8fbd cccf 05be
00000160: 04ea bdbd ff7f c8bd 42cd 8d3d 5d5b 8d3d
00000170: c406 143c c372 0c3d 47bc 333e 7b84 083e
00000180: 424d 01bd 930b 92bd 06b7 a4bc d92c b13d
00000190: 1812 903d dd66 c1bd 20ff 6abc 6d91 2dbc
000001a0: baf9 d93d 74f7 4cbd f28a 4dbd 2943 d23d
000001b0: b16d ebbb 4869 513e 8a05 05bd afae f03d
000001c0: 3ed7 b13c 6c19 1dbd f65e e2bd 1850 d6bd
000001d0: 3878 4dbd 30ba cd3d 6d6c 9bbd c82f 76bc
000001e0: 3dd1 95bd 9c0c 1e3e e22d c0bd 6ce3 023c
000001f0: 39d1 3f3d 057b e13d 4b32 863c 3fde 42bd
00000200: e504 603d 94e0 dd3d 66dd 8c3d a73e 973d
00000210: 2d12 91bd 544b 72bd 301c 7dbd b5c4 493e
00000220: d579 87bd c980 c0bd 40bf 913d c3b4 d0bd
00000230: 89b0 343d 4854 40be 5d21 87bc ef5b 71bc
00000240: 7af9 bfbd a2f6 993c 30b2 073e 1e44 bbbb
00000250: ebc4 9cbd f3fb 9abd 1ef1 07be bf16 ad3d
00000260: f16a 26be 69e0 a93c 5a53 20bc 715b f63d
00000270: d6d1 1f3e 98bf 783d 29f3 38bd 3ae2 003e
00000280: 364d f43d ffae 353d 649f 02be 0926 aabd
00000290: f7e0 8d3a cfa6 3c3d dcc9 6fbd 5e60 e8bc
000002a0: bfa8 43be 2546 67bd 5676 963d cadd 21be
000002b0: 889e 7d3d 6f5e d63d 9713 843d a8a3 31bd
000002c0: 4b24 043e f327 98bd 29b7 b3bd 5906 7bbc
000002d0: e6b0 0a3e 2e05 1f3d bfa9 afbd 00f5 c73c
000002e0: 2116 4dbe 47c6 b8bc 6d36 2a3d 41d5 10bd
000002f0: af4e eabd 8654 9dbd 97bc 21be 2648 58bd
00000300: 744a cebc 2e32 31bd 9b71 283e 0719 5a3d
00000310: fe5d 023e 9588 b6bc 231b 78bc e4e0 1e3e
00000320: 0a12 15bd 8eaf 69be 2415 b73c 73e0 c23d
00000330: 9f40 bc3d 23cb 1bbd 2bae b93d ccb0 b6bc
00000340: e8c6 c4bd 47f4 44be d01d 4fbd da92 5e3d
00000350: 0842 5abd aebc abbd aaaa abbc bdcd 523e
00000360: 9971 953d 951a 303d b93a 86bd 20b5 a63d
00000370: af2b 883d 5e71 1ebc eb24 4dbb ecd8 5eba
00000380: 9ce5 f2bd f520 8b3d 114a 2ebd 1638 e8bd
00000390: f224 d43d 381e 483d a8c4 a13d 80a5 073d
000003a0: 99ea c63d 5ea3 923d 3e2b c4bd a0cd d13c
000003b0: 38ad d7bd c8c3 1fbe 3ac4 0c3d e4d1 6abd
000003c0: f962 94bc 90c5 1dbe 0989 0e3e 25dc fabb
000003d0: 203e ee3d 0ec3 b63d 93c9 043c 5bac 973c
000003e0: 735c 223e 4e2f bfbc a4cc d03d 5ff8 b9bb
000003f0: 6cc2 bbbd 6aac ae3d 6efa 64bc 1ee7 223d
0.03895707 0.044022486 0.056041505 -0.026388286 -0.0686658 0.07629327 0.05401453 -0.07516963
0.030905848 0.03235621 0.018693084 -0.08166726 0.07003572 -0.09032621 -0.02383633 -0.08359325
-0.027666979 -0.034061257 -0.15597667 0.033374988 0.0606014 -0.08238356 -0.09684049 0.016583491
0.10504909 -0.0006538618 0.06655772 -0.013655452 -0.008446671 -0.05439119 0.011974915 -0.08751848
0.0272308 0.10658446 0.09067775 -0.032068495 0.055418435 -0.014079855 -0.05635203 0.011465683
-0.01425882 -0.024391223 0.1721039 0.15205364 -0.09993488 0.15129428 0.07599731 -0.078700945
0.027288903 -0.07510044 -0.02997158 -0.14033031 -0.041157916 0.096631095 -0.054862734 0.056664646
0.22312535 0.09572731 0.013305624 -0.14902042 0.0166922 -0.044728555 -0.0059910626 0.017724497
-0.03783622 0.031327095 -0.09223882 0.08728219 -0.026203422 -0.039389346 -0.078629695 0.07176348
-0.0842452 -0.024234632 -0.020211747 -0.043693535 -0.2502595 -0.0062354957 0.034672026 -0.017591022
0.03907665 0.12746376 -0.10206548 0.0076276595 -0.054326475 0.13548742 -0.07020654 -0.1306755
-0.092731506 -0.09790038 0.069239154 0.06902192 0.009034816 0.034289133 0.17552291 0.13331787
-0.03156782 -0.07131114 -0.020106804 0.08651132 0.07034701 -0.09443448 -0.014343053 -0.010593754
0.10643335 -0.050040677 -0.050181337 0.10266716 -0.007184707 0.20450318 -0.032475986 0.11752068
0.02170908 -0.038354322 -0.110532686 -0.104644954 -0.050163478 0.10045278 -0.0758904 -0.01502604
-0.073153 0.15434498 -0.093837515 0.007988792 0.04683039 0.11009792 0.016381403 -0.04757523
0.054692168 0.108338505 0.06878166 0.07384997 -0.07083545 -0.05915387 -0.06179446 0.19703944
-0.066150345 -0.09399564 0.07116556 -0.101907276 0.04411367 -0.18782151 -0.016495401 -0.014731391
-0.09373756 0.018794362 0.13251567 -0.0057149073 -0.076547466 -0.07567587 -0.13275573 0.08451604
-0.16251732 0.02073689 -0.009785498 0.1202916 0.1560739 0.060729593 -0.04515377 0.12586299
0.11928789 0.044356342 -0.12756115 -0.08308036 0.0010824491 0.04605752 -0.058542117 -0.028366264
-0.1910734 -0.05646338 0.073467895 -0.15807262 0.061918765 0.104672305 0.06449049 -0.043368965
0.1290447 -0.07429495 -0.087751694 -0.015321338 0.13544044 0.0388233 -0.085772984 0.024408817
-0.20027973 -0.022555484 0.04155581 -0.035359625 -0.11440789 -0.07682137 -0.15794598 -0.05280318
-0.025181986 -0.043260746 0.16449587 0.053246524 0.12731168 -0.022281924 -0.015143189 0.15515476
-0.036394157 -0.22820875 0.022348948 0.095154665 0.09192013 -0.038035523 0.09066423 -0.0223011
-0.09608251 -0.1923381 -0.05056554 0.054339267 -0.05328563 -0.08385597 -0.020955402 0.20586295
0.07297058 0.0429941 -0.06554169 0.081400156 0.06648957 -0.0096705835 -0.0031302522 -0.0008500952
-0.11860201 0.067933954 -0.042551104 -0.113388225 0.10358609 0.048856944 0.07898837 0.033116817
0.09712715 0.07160066 -0.0957856 0.025610745 -0.10531086 -0.15602028 0.034366824 -0.057329074
-0.0181136 -0.15407395 0.13919462 -0.007655638 0.11632943 0.089239225 0.0081047 0.018514803
0.15855579 -0.023337986 0.10195282 -0.00567536 -0.091679424 0.08528979 -0.013975723 0.03977119

actor.0.bias f4 [256]
00000000: ac62 9bbc fee3 49bd 3f3f 62bc f45b b1bc
00000010: bd6e 90bc 72ba e33b da6d 2f3d 97ff 063d
00000020: ee83 93bb ba08 433d 3697 283d b7b7 683c
00000030: 1644 803d e4fc 743c 8b53 e6bc 7431 b83a
00000040: c822 773c 8d31 793c d535 c93c 6569 0dbd
00000050: b2e8 d13c 3da2 443b 139f 4a3d 08cd 54bd
00000060: 2e9d 613c 5d5b 73bd 9da6 a6bc 3110 ee3c
00000070: 056d 44bd b29e d9bc 9445 0c3d 3921 1fbd
00000080: 6176 3d3c 80e2 503d 24b6 c33c 86a0 18bd
00000090: 4e04 33bd 2b67 133d ae4e 7a3d a1f7 e5bc
000000a0: cdd1 6c3d 26d6 9bbc 5bab 6b3d 8a2b 423d
000000b0: 8a6b 48bd 0135 313d d7cb d1bc 67c2 7d3d
000000c0: e80a 6c3d b92f dbbc ca15 20bd a49f 3f3d
000000d0: 9a9e e13b 6600 ca3c c05a 36bd f0db 35bd
000000e0: 0d3a 9bbc 1249 f43b fab8 12bc 24b1 d03c
000000f0: e887 8e3c 843f 47bd 881c 81bd 9806 6e3d
00000100: 0737 8bbd c761 53bd ab88 99bc 60a4 543c
00000110: eb1d d93c adf8 c7bc 4196 dfbc a952 e2bb
00000120: 50b2 063d cd69 68bc 946c 9e3c 4b18 60bd
00000130: c426 7ebc 735f 843c a872 d7bc d8cf 0bbd
00000140: 631c 103d 918a 62bd 4fbd 43bd d813 5a3d
00000150: 361b 233d 94d3 61bd 172c 57bd 02b4 3cbd
00000160: 48c8 103d e727 26bd 5ac1 85bd 2aa3 103d
00000170: 5aaf e4bc e963 d03b f667 21bd abe9 de3c
00000180: 0d00 fe3c a334 803d d859 3dbd 9028 913c
00000190: 3179 96bc 31ad 94bb eb8d 6abd e8d6 53bd
000001a0: 0459 1b3c 5331 2abd 9847 f93c 88e1 7b3b
000001b0: e7f8 2c3c a756 1a3b 391a c4bc b28e f23c
000001c0: bcfd 153d b9fe 33bd a48c 133c f803 d63c
000001d0: 85f4 ccbc 08d3 37bd d8ea aebc 0648 71bd
000001e0: 4b68 f5bc a143 6cbc 107b 91bc 2da5 22bd
000001f0: d7af ff3c b963 643d 62c6 cfbc a318 36bd
00000200: afb2 12bc e00b e7bc 06fd 3d3d 1c50 5e3c
00000210: 645c 41bd bc23 fa38 7821 94bc 84d0 30bd
00000220: cf76 2abd 7fe9 72bd d007 06bd cd58 3ebb
00000230: bbe8 81bd 1499 083d 17f6 0b3d fbec fa3c
00000240: 8090 5c3d 3cf5 9dbb 23bd f73c e508 793c
00000250: c285 52bc 1524 533c 7c83 2d3d 9912 173d
00000260: ad95 7dbc 202e 623d 8f98 633d fff9 113d
00000270: b8c4 2fbd f87d 063d 89b8 863b 6dc6 10bd
00000280: 72f7 73bd 3c8c 813c 5485 e63c 857f aa3c
00000290: b5d9 f9bc 5aee 66bd 02cb 933d c011 6e3c
000002a0: 4671 ac3c 8167 5f3a c919 33bd ca2e 383d
000002b0: 32fe 3d3c 52de 433d 106c 21bd ba1c 6bbb
000002c0: 8f9b 2d3d 6253 363d 3e64 ec3c af0f 653d
000002d0: cbf9 3abd 3c5e 3abd 05c5 16bd 768c 463d
000002e0: 9160 013d 1a22 0dbc af92 1f3d ffc5 e0bc
000002f0: 6a65 65bd 305a 8dbc 9872 ccbb b485 1ebd
00000300: c3e9 01bd b760 52bd d31e 22bd 673d f4bc
00000310: 0090 3b3d 1502 5f3d 3e43 f23c 7e3d 823d
00000320: aab3 58bd ddcc a03c cad8 403d fd75 80bb
00000330: f1d5 4abd 83ba 8b3c d719 91bc c17c 89bc
00000340: 229d f03c 8e25 92bc 8b29 f0bc d03c 00bd
00000350: 8cc6 0b3d c70b ddbc 1306 853d e3f8 053d
00000360: 02c2 b23b cc01 363b 91db 13bc 417e f5bc
00000370: 30a4 3ebd 67c2 6ebd 9846 dfbc 513f 713c
00000380: c627 603d acfd 703d 704b febb 434c 8f3c
00000390: 7909 813d 4b15 873d 8056 7bbd 5c9a 27bd
000003a0: fe09 4b3c 5f8b d0bc 2679 173c b5e6 57bd
000003b0: 57b1 34bd d8de 6b3c c0e7 19bd 27b5 6bbd
000003c0: fb7b 7bbc afb4 fd3c 6277 18bd 35a1 14bc
000003d0: 1755 a1bd 0282 333d d0e3 d33c ce70 f4bc
000003e0: ed19 aa3c 47d5 8f3c 9129 163d 69c9 213d
000003f0: aac2 433d af5e e13c 84ee 833c 4200 2a3d
-0.018967949 -0.049289696 -0.013809024 -0.021650292 -0.01763093 0.0069497162 0.042829372 0.032958593
-0.004501811 0.047615744 0.04115983 0.014203957 0.06262986 0.014952872 -0.028116008 0.0014052824
0.015083976 0.015209568 0.024561802 -0.03452434 0.025623653 0.0030003928 0.04946811 -0.051953346
0.013770385 -0.059413303 -0.02034312 0.029060455 -0.04795553 -0.02656493 0.034246042 -0.038850043
0.011563868 0.050997257 0.023890562 -0.037262462 -0.043705277 0.03598706 0.06111019 -0.02807218
0.05781727 -0.019023012 0.057536464 0.047404803 -0.048930682 0.04326344 -0.025609894 0.061952975
0.05762759 -0.026756154 -0.03908328 0.046783105 0.006885362 0.024658393 -0.04452014 -0.044399202
-0.01894858 0.0074549997 -0.008955235 0.025475092 0.01739879 -0.048644558 -0.0630427 0.058111757
-0.06797605 -0.05160692 -0.018741926 0.012978643 0.026503524 -0.02441057 -0.027293326 -0.0069068265
0.032884896 -0.014185381 0.019338883 -0.054710668 -0.015512172 0.016158795 -0.02629979 -0.034133762
0.03518332 -0.05530793 -0.04778796 0.05324158 0.039820872 -0.055133417 -0.05253228 -0.046070106
0.035347253 -0.040565398 -0.065310195 0.035311855 -0.027915645 0.0063595665 -0.039405786 0.027211031
0.031005884 0.0626004 -0.04622826 0.017719537 -0.018368335 -0.0045372476 -0.05726425 -0.051718622
0.009481672 -0.041550945 0.030429646 0.0038433988 0.01055739 0.0023550184 -0.023938285 0.029609058
0.036618933 -0.043944094 0.009005699 0.02612494 -0.02501894 -0.04487899 -0.021352217 -0.058906578
-0.029956957 -0.014420421 -0.017758876 -0.039708305 0.031211777 0.055759165 -0.025363151 -0.04445709
-0.008953734 -0.028203905 0.04638388 0.013568904 -0.04720725 0.00011927585 -0.018082365 -0.043167606
-0.04161721 -0.05930471 -0.032722294 -0.0029044629 -0.06343218 0.03334911 0.034170236 0.03063058
0.053848743 -0.004820494 0.030241555 0.0151998745 -0.012849273 0.012887021 0.04236172 0.03688297
-0.01547758 0.05521977 0.055565413 0.035638805 -0.042912215 0.032834977 0.004111354 -0.035345484
-0.059562154 0.01581394 0.028139748 0.02081276 -0.030499319 -0.056379654 0.07216455 0.014530599
0.021050107 0.0008522198 -0.043725763 0.044966497 0.011596249 0.047819443 -0.039409697 -0.0035875277
0.04238468 0.044513114 0.028856393 0.05592316 -0.045648377 -0.045500025 -0.036808986 0.048473798
0.031586234 -0.0086140875 0.038958248 -0.027438162 -0.05600492 -0.017254919 -0.0062392466 -0.038701728
-0.031717073 -0.051361766 -0.039580178 -0.029814435 0.045791626 0.054445345 0.02957308 0.06359385
-0.052905716 0.019628936 0.047081746 -0.0039203153 -0.049520437 0.01705671 -0.017712517 -0.01678312
0.029371802 -0.017840173 -0.029316684 -0.031307995 0.034124896 -0.026983155 0.06495299 0.03270806
0.0054552564 0.0027772067 -0.009024517 -0.02996743 -0.0465433 -0.058290865 -0.027255341 0.014724568
0.05472543 0.05883567 -0.0077604577 0.01749242 0.06300635 0.06595858 -0.06136179 -0.040918693
0.012392519 -0.025457082 0.009245193 -0.052710254 -0.044114437 0.014396392 -0.03757453 -0.057545807
-0.0153493835 0.030969946 -0.037223227 -0.009071638 -0.07877558 0.043825157 0.025865465 -0.029838946
0.020764316 0.017557753 0.036660735 0.03949872 0.047793068 0.027510969 0.016104944 0.041504152

actor.2.weight f4 [128, 256]
00000000: b6a5 0cbd e7b2 2a3e ee57 1fbe 1f8d 293c
00000010: e256 6ebd 15ea f5bd cc07 1d3d 1652 b93d
00000020: cfc9 fc3c a792 283e 7411 86bd d6bd 95bd
00000030: 9ea0 7cbd 94f9 e93d 1d4c 893c c439 8b3d
00000040: 4fd4 26be 03e5 93bd c95b eabd 850d 073e
00000050: 282d 723e 9163 b3bc 6e95 fcbd e82c 9f3d
00000060: 898a 28be 7b2f 11be d1ae 3d3c fd02 1e3d
00000070: 1fa1 8bbd f493 e63c 5233 1bbd 9813 85bc
00000080: 217b ff3c f618 983b 7c13 993d 8afe aa3c
00000090: 84fb 64be f4a1 fa3b 0fc4 843d a8c3 20bd
000000a0: 4dcc bc3d 002e 063e 490d 93bd 8d8d b83c
000000b0: eb6b 333d 03b8 83bd 8dc5 f03c 783f 523c
000000c0: 0e0c 0a3d 718d 44be 9e7b 56bb 7f4e 9d3d
000000d0: 1f73 a5bc 7cb2 c6bd 6ac4 383d ee2f f9bc
000000e0: a598 10be 8efb 063d 1f7b 7abb 0206 50bd
000000f0: c2d4 81bc 35f8 0d3e 72bd 9c3d 986b 60be
00000100: 8ff4 5c3d 3804 cfbd 2437 033d 2c27 92bd
00000110: ded9 04bc c2be 99bd 4172 8dbd 9297 9bbd
00000120: a680 9dbd 5d9f d8bc 0645 08bd aa64 fd3d
00000130: aeac f0bd 3a20 c73c ebcc 0cbd bb43 623d
00000140: 6629 3c3d 15c7 4c3c 13f7 9b3d 3df7 4bbe
00000150: 9c94 273d 51c5 89bc b8a8 cfbd 71c5 6e3e
00000160: f950 fdbc aed2 afbd 6d39 57bb 7921 7a3c
00000170: 3556 883d 9100 0b3d 7d1c 33bc 1f0f 163d
00000180: de01 063d d1a9 2b3c ce89 0bbd 79d5 4d3c
00000190: f824 eabd b63a 273e ccfe 9a3d 968a 243e
000001a0: cd64 0f3d 0905 e7bc 7000 6b3d f2ad 5f3d
000001b0: 21d7 9fbd beee ea3c 564c 943d b09e 883c
000001c0: 2517 91bd 78d5 5f3c 2a3e dfbd c3a4 02be
000001d0: e6f1 aa3d 38fd 49bc 7a00 b6bd ca85 f0bb
000001e0: bb77 00bd 3860 253e f05c 293d fb03 d7bd
000001f0: 797a 97bd 1567 973d 9214 323d d087 d93d
00000200: 2182 403d 4e71 213c e324 3e3d 015d 6e3d
00000210: 3f6b 73bd f41a 233e 7431 5bbd ee26 d63c
00000220: f8ea 75bc f8ad 163e 4d09 e9bd 7661 2abe
00000230: 265f c93d 67e3 343c 45a3 403c 59f1 22be
00000240: 83a9 3abc 7a84 a4bd f6e6 913d 8762 3b3d
00000250: 9a49 1f3d 059a a53d fbdc 8f3d 2918 5d3d
00000260: 5c26 00bd b341 043e 11a8 76bc eec9 113c
00000270: 3c6a 033d ebe5 c0bd 294a 0fbd 3a25 64bd
00000280: a6cb 803e 7dc6 22be 7c0c 2d3b f6ab d2bc
00000290: b31a 483d b3b2 3fbe 860d b43c c61d 0abe
000002a0: db97 863d 49bb bdbc bf1a ab3c d8bf 7f3d
000002b0: 0124 e0bd 3668 773d 30a7 f1bb 5445 553c
000002c0: 4c83 8dbd 8444 2b3e ca8e e13d ed62 d53c
000002d0: 86dc 4cbd bf5f e0bd 6f84 f3bd c393 053e
000002e0: 8512 23bc 7903 b13d 359d f23a 795f d93d
000002f0: 4056 32bd 63a1 76bc 901a e93c 24fb 023e
00000300: d9f5 0d3d 0604 363d d980 093d ade0 17bc
00000310: da10 df3b 32b8 97bc aa08 a73d 11cc 983b
00000320: f525 8c3d 1682 983c 8c20 eebd 1049 17bd
00000330: f087 44bc cccb 8bbd a624 6c3c b55b 9a3d
00000340: 7be1 b93d 4501 82bd 2026 dbbb ffb0 15be
00000350: d871 763d 7aef e1bd 4e45 333d 3f58 0bbe
00000360: 0b5a a63b 95f1 17be b459 b43d 84af b7bd
00000370: 8590 7b3d bd32 31bd a47d 9e3c b65e ac3d
00000380: e0a2 8c3d 20a7 c2bd 3508 d23d 0bb4 4fbd
00000390: d643 a03d f2ca b5bd 3f2a 263e be50 0fbe
000003a0: 7256 b93c 4a8d 573c 2a0e b9bd dae8 c43c
000003b0: 7861 b4bd a346 5a3d 5b5d 66bd 3cec 57bd
000003c0: 818a 9c3d 6ed6 81bc 3341 983c 5e55 20be
000003d0: 838f 413d 0e18 5e3e da21 c4bd 2301 11be
000003e0: 1d6a f73d 9323 633c 6e46 ee3b 7a5b f9bd
000003f0: 1907 edbd bf19 2fbd 48c3 fb3d 0ed8 65bd
-0.03433772 0.16669808 -0.15560886 0.010348587 -0.058188327 -0.12007538 0.038337514 0.0904886
0.030857949 0.16462193 -0.06546298 -0.07311599 -0.061676614 0.114245564 0.016759926 0.06798127
-0.16291927 -0.07221415 -0.11443288 0.13188751 0.23650038 -0.021898063 -0.12333189 0.07772237
-0.16459097 -0.14178269 0.011577324 0.03857707 -0.06817841 0.028146721 -0.03789074 -0.016244695
0.031186642 0.0046416475 0.074744195 0.020873327 -0.2236157 0.007648701 0.06482708 -0.039249092
0.09218655 0.13103485 -0.07180268 0.022528434 0.04380409 -0.06431582 0.029391075 0.012832515
0.033702902 -0.1919458 -0.003272749 0.076809876 -0.020196496 -0.09702012 0.04510919 -0.030418362
-0.1412073 0.032954745 -0.0038220359 -0.05078698 -0.015848521 0.13864215 0.07653321 -0.21916044
0.053944167 -0.101082265 0.032035008 -0.07136378 -0.008108584 -0.07507087 -0.06906558 -0.07597269
-0.07690553 -0.026443178 -0.03326895 0.12372716 -0.11751686 0.024307359 -0.034375113 0.055240374
0.045937918 0.012498637 0.07615485 -0.19918533 0.04091321 -0.01681772 -0.101396024 0.23317505
-0.0309224 -0.08585106 -0.0032840625 0.01526677 0.06657068 0.033936087 -0.010932085 0.036635514
0.032716624 0.010477499 -0.034066968 0.012563103 -0.114328325 0.1633099 0.0756813 0.16068491
0.03500824 -0.028200643 0.057373464 0.054609247 -0.078047045 0.028678294 0.072411224 0.01667723
-0.070844926 0.013661735 -0.10900529 -0.12758164 0.0834692 -0.012328438 -0.0888681 -0.0073401676
-0.031364184 0.16149986 0.041348398 -0.10498806 -0.07396407 0.07392708 0.04347665 0.10621607
0.0469991 0.009853674 0.046421897 0.058194164 -0.05942845 0.1592825 -0.05351396 0.02614161
-0.015009634 0.14714801 -0.11378727 -0.16638741 0.09832601 0.011040545 0.0117576765 -0.1591238
-0.011392954 -0.080330804 0.071241304 0.04574826 0.03888855 0.080860175 0.070245706 0.05397812
-0.031286582 0.12915687 -0.015054719 0.008898241 0.032083735 -0.09418853 -0.034982834 -0.055699565
0.2515537 -0.1589603 0.0026405146 -0.025716763 0.048853587 -0.18720512 0.021979105 -0.1348792
0.06571933 -0.023160594 0.020886777 0.062438816 -0.10944367 0.060402118 -0.0073746666 0.013017017
-0.069098085 0.16725355 0.11013563 0.026048148 -0.050014995 -0.10955762 -0.11890494 0.13044648
-0.009953146 0.086432405 0.0018509986 0.10613913 -0.043539286 -0.015053126 0.028455049 0.12791115
0.034658287 0.04443743 0.033570144 -0.0092698755 0.006807429 -0.018520448 0.081559494 0.0046629985
0.06843177 0.018616717 -0.116273016 -0.036934912 -0.011995301 -0.068259805 0.014413035 0.07537023
0.0907621 -0.063478984 -0.0066878945 -0.146183 0.060167164 -0.11032005 0.043767266 -0.13607882
0.005076652 -0.1483825 0.08806172 -0.08969024 0.06141712 -0.04326128 0.01934702 0.08416502
0.068670034 -0.09504533 0.102554716 -0.05070881 0.07825439 -0.08876599 0.16227053 -0.13995644
0.022624228 0.0131562445 -0.09035905 0.024036814 -0.08807653 0.05329002 -0.056241374 -0.052715525
0.07643605 -0.015849318 0.018585777 -0.15657565 0.047256004 0.21688864 -0.09576769 -0.1416059
0.120807864 0.013863462 0.0072715795 -0.12175651 -0.115736194 -0.042749163 0.12293106 -0.05611425

actor.2.bias f4 [128]
00000000: 8083 0abd ec55 db3c cec7 22bd eddf 0bbd
00000010: fbf3 e9bc 897d f33c dc7a 0fba bd5d bdbc
00000020: dbd0 133c 2773 233d f6dd 9c3b efce 743d
00000030: f382 85bd 2ea7 88bd bb3b 9ebc 0dd4 27bd
00000040: be76 ab3b feb0 41bd 99eb a4bc dccd 353b
00000050: bdd4 c53c 2a2f 62bd 845c 85bd 2541 333d
00000060: 0110 1cbd b8ee 2ebd 4fee a6bc eb0d 123d
00000070: 11ba 0dbd a8f7 35bc a8f4 493d 2a6a 4e3d
00000080: a063 b0bb c3b0 71bd 3316 ff3c 9521 dcbb
00000090: b4a1 abba 42f8 303d 54cf a3bb 76c4 5abd
000000a0: a034 fe3b b136 2b3c 625b 17bd 54fe 28bc
000000b0: 91a3 b03b 4124 42bd ce42 c83c e4dc 69bd
000000c0: f063 a7bc 05bc 373d d558 65bd 5748 06bc
000000d0: 03d4 96bc 9620 14bd 1d87 ea3c 4d99 483d
000000e0: f2a2 29bd a44d 413d 2e8e d3bc dad3 02bc
000000f0: 711a 133d efe3 fbba 4dfa 153d 087e 823c
00000100: cfdd 753c 03b9 0b3d f716 33bc 3c3b e43a
00000110: c79a 033d 2d64 32bc bd0a 353d 81de a7bc
00000120: cbe3 d73c f751 16bd 7867 80bd 4fa7 063d
00000130: 91d7 c9bc 4797 113d 7516 78bc f06d afbc
00000140: 53be b9bc 924c 6fbd 99f5 e33c 942e febb
00000150: c7ec 41bd 888b 783d 4738 4b3d 0ace 5abd
00000160: 3c94 573d 6886 4dbd daa0 32bd ddcc dabc
00000170: b914 62bd 2adb ebbc 32e4 c73c fc38 7b3c
00000180: b1e6 1abd d708 e53b a21e 6c3b 5679 8e3c
00000190: a649 eb3c 82ee a03b eef0 64bd 2366 78bd
000001a0: 4469 61bd 96cd a5bc c032 753d 64c4 fb3b
000001b0: 4182 f3bc 88d9 87bd 7baf a53c a8c2 acbc
000001c0: 176c 3bbd c90b 2abd 6fe9 063d 4d0d 103d
000001d0: 96fa ccbc abeb 343c 9771 763d 5d76 5fbd
000001e0: 74a6 2abd dd25 a8bc c143 c2bc 231a 67bd
000001f0: 7b18 58bd f33b b3bc 0a4e 883c f8e5 763c
-0.033816814 0.02677437 -0.03974133 -0.0341491 -0.028558722 0.029722946 -0.00054733246 -0.023115987
0.009021963 0.03990474 0.004787202 0.05976766 -0.06519117 -0.06672512 -0.019315591 -0.04097371
0.005232661 -0.047287934 -0.020131873 0.002774111 0.024149293 -0.05522076 -0.065117866 0.0437633
-0.0381012 -0.04270813 -0.020377306 0.035657804 -0.034601275 -0.011106409 0.049305588 0.050394215
-0.00538297 -0.059006464 0.031138515 -0.0067178705 -0.0013094456 0.043205507 -0.0049990807 -0.053410016
0.007757738 0.010450051 -0.036952384 -0.010314543 0.0053905924 -0.047397856 0.024445917 -0.057095423
-0.020433396 0.044857044 -0.05599292 -0.008195958 -0.018411642 -0.03616389 0.02862888 0.048974324
-0.041415162 0.047193184 -0.025824632 -0.00798508 0.03591389 -0.001921771 0.03661566 0.015929237
0.015006497 0.034111988 -0.010930768 0.0017412673 0.03213003 -0.010888142 0.044199694 -0.02049184
0.026353737 -0.03669926 -0.06269735 0.0328744 -0.024638923 0.03554466 -0.015142073 -0.021414727
-0.022673761 -0.058422633 0.027827071 -0.0077570174 -0.04734495 0.060679942 0.049614217 -0.05341915
0.0526316 -0.050177008 -0.04361043 -0.026709015 -0.055195544 -0.028791029 0.024400804 0.01533341
-0.03781766 0.006989579 0.0036029 0.017391842 0.028721642 0.004911245 -0.05589383 -0.06064428
-0.05503203 -0.020239633 0.059862852 0.0076833237 -0.029725196 -0.06633288 0.020225277 -0.021088913
-0.04575738 -0.041515145 0.032937463 0.035168935 -0.025021832 0.011042516 0.06016692 -0.05455624
-0.04166265 -0.020525867 -0.023713948 -0.05642141 -0.05275772 -0.021879172 0.016638774 0.015069477

actor.4.weight f4 [64, 128]
00000000: c400 77bd cd2e 93bc 8a93 d53d 60c9 f6bd
00000010: d594 f5bd f3e6 693b 6525 903d 3e2e 86be
00000020: 39b4 083d 1933 85be 0fdf 043e bd15 363e
00000030: 66fb d1bd b3c1 fa3c d102 243d 560e cbbd
00000040: 7e0a 133e 5286 4abd d2d9 373e 8905 bcbd
00000050: edb6 7cbd ab4c 1e3b 3705 f53d 8354 3ebb
00000060: cdfe f4bd 6f00 f23c ab0b 883d 8b82 51be
00000070: d20e e43c db87 f9bc e09e 003d fbfc ef3d
00000080: 6980 90bc 2409 943e aed3 54bd 4785 093d
00000090: 0f90 623c 9051 2e3c 53b9 7bbc 0d81 b1bd
000000a0: 43c4 0fbd a9f9 07bd b9cd 58be 697a 57be
000000b0: 6513 5b3b f8fb 913d 8f06 2f3d 9d25 b8bd
000000c0: 757d 7abd 77ba 6b3d f409 e53d b876 8b3d
000000d0: f3ba 993e 3cdd efbd 9329 29bc d592 e5bb
000000e0: 3314 0f3e e9f4 90be f1c0 213d ee7d a3bd
000000f0: ce40 a5bc 3f38 28bc 0419 4e3e 67eb d93d
00000100: be13 8d3e dca4 f83c f721 bcbe 82ff d43d
00000110: 203b d5bd 4503 bcbd 1490 9fbd f739 1d3e
00000120: d84b 5f3e de91 a03e 2286 523e 2ae3 e43c
00000130: 6f78 ecbd 0694 1e3c ba15 193e 4d22 f7bd
00000140: bd27 c2bd 74c5 6a3c eef8 c83d 71f6 4abc
00000150: d683 7dbe ac51 d4bd 5a4d c0bd a6f7 cbbd
00000160: d691 1c3e dda8 6abe a497 ffbc 1aa0 e5bd
00000170: 40ac 88bc c71b 8f3d 96f5 4a3d f734 54ba
00000180: b6a2 2a3d e6b2 9dbd 8fd1 0c3d 8537 bbbd
00000190: 84ff 0bbb 8bb8 80bd 46a7 b43a b4fb 5d3d
000001a0: 33ec 7fbd 3bc5 afbd 2566 55bd 044e 17bd
000001b0: a5b3 473d fbac 103e 0cbf 003e a1f2 003e
000001c0: e4e0 013e f44d b63d 4e7e 5dbe 0e3c a63d
000001d0: a37c 363d 89ce 48bd 0a79 05be a3dd 19be
000001e0: d469 5cbe 1d2d 1e3e 0856 00be 5052 873c
000001f0: cc5a 263e 3343 213e 3a56 b4bc 66cd 7e3d
00000200: 66fb 573d d995 3cbd f3ba 203e f859 813d
00000210: 7b87 e33c b060 3ebe 41b7 3abe 4688 d0bd
00000220: f0b9 363e f567 c63d 8071 e13d 3214 ebbd
00000230: 8a40 173e 583e 3b3e c9fc b8bd 0e37 cdbd
00000240: b7a7 ab3e ce26 383e cf71 c33d 87eb 3fbe
00000250: a903 19bd 458f 793d 9686 b2bd 052d 94be
00000260: 315f a83c da14 0b3c 794a f7bb e765 843c
00000270: 8f31 c03d 957f b33d 350a 37be 3dbb acbc
00000280: 7239 9b3d 330d 253e 78dd 813d 2277 113e
00000290: d710 8c3d 20ae 243d 58d6 143e 9661 333e
000002a0: e266 14be 8279 49be a0a4 8a3c c916 073e
000002b0: e78d 663e 823e 8abc 6c69 d9bd 45bd d43c
000002c0: ba75 313e 12c4 e63d 658a 79bd 2678 08be
000002d0: cc79 853b 1d97 42be dd90 33bd 0a6f 673d
000002e0: 9ea8 fcbc 81a3 6a3d 6a67 b9bd 6f04 3b3e
000002f0: e102 ab3c eb1d 24be 6468 76be f1ea fabc
00000300: 0d28 65bc 37ad 9fbd 9fb6 413e 238f 1ebc
00000310: 6fa9 00bd f77b 32be 5b7a febd 5ce2 083e
00000320: f52f e0bd 1f1e 0e3e 9888 22be eecf 8cbe
00000330: 0aaa b33d c345 b7bd b4ed e73d b181 233d
00000340: b0bb 5cbd 26df 4bbe cd3c 233d 2353 6c3d
00000350: 3a26 51bd 8209 60be 16dc 66bd e11f 9d3e
00000360: 7a3e d33d b792 adbc 9277 29bd cf59 52bd
00000370: f054 2cbd a813 3ebc bf6c bebd 71be 163d
00000380: 9ef6 003d eb81 ca3d 8787 1c3d b61e 24be
00000390: 65c9 21bd 4202 55be cd80 c63d fb04 523e
000003a0: 6d25 3abe 9b6d d63d 7f88 9dbd 1c5c c9bd
000003b0: 2066 dd3d a259 e5bd a4de d6ba a379 bf3d
000003c0: 1cf1 1c3d 61b2 db3d 1263 8e3d 2cd6 0e3e
000003d0: d467 0fbe 0c74 8bbd de4b b5bd e5f5 22bd
000003e0: a9df 21bd d9ff 0fbe f049 80bd 1909 353e
000003f0: bf9b 073b 7d19 2bbe c112 51be ded4 513d
-0.060303465 -0.017966652 0.104285315 -0.12050128 -0.11991278 0.0035690635 0.070383824 -0.26207155
0.033375 -0.26015547 0.12975715 0.1778173 -0.102530286 0.030609941 0.04004175 -0.09914844
0.14359471 -0.049444504 0.17954186 -0.09180743 -0.06169789 0.0024154584 0.11963885 -0.0029042072
-0.11962662 0.029541222 0.066428505 -0.20459954 0.027839098 -0.030460289 0.031401515 0.11718174
-0.017639356 0.28913224 -0.051959686 0.03357437 0.013828292 0.010639563 -0.015364009 -0.086671926
-0.03509928 -0.03319708 -0.21172227 -0.2104279 0.0033428308 0.07128137 0.042730864 -0.08991549
-0.0611548 0.057550874 0.11183539 0.06809753 0.30025443 -0.11712119 -0.0103248535 -0.007006029
0.13972549 -0.28311852 0.039490644 -0.079830036 -0.020172503 -0.010267316 0.2012673 0.106406026
0.27554125 0.030352049 -0.36744663 0.10400297 -0.10411668 -0.09180311 -0.077911526 0.15354143
0.21806276 0.31361288 0.2055898 0.027940352 -0.115464084 0.009678846 0.14949694 -0.12067089
-0.09480236 0.014329303 0.098131046 -0.012387858 -0.24757323 -0.1036714 -0.09389754 -0.099593446
0.15290007 -0.22915979 -0.031200238 -0.112121776 -0.016683698 0.0698772 0.049550615 -0.00080950506
0.04165908 -0.07700138 0.03437954 -0.09141449 -0.0021362016 -0.06285199 0.0013782762 0.05419512
-0.062481117 -0.085825406 -0.052099366 -0.036939636 0.048755307 0.14128487 0.12572879 0.12592556
0.12683445 0.08901587 -0.21630213 0.08116923 0.044552457 -0.049025092 -0.13034454 -0.15025954
-0.21524745 0.15446897 -0.12532818 0.016518742 0.16245574 0.1574829 -0.022013772 0.062207602
0.052729987 -0.046041343 0.15696315 0.06315988 0.027774563 -0.18591571 -0.18233968 -0.10182242
0.17844367 0.09687797 0.110079765 -0.11478461 0.14770713 0.18285501 -0.0903259 -0.100202665
0.33526394 0.17983553 0.09543192 -0.1874219 -0.037357006 0.060927648 -0.087170765 -0.28940597
0.020553203 0.008488858 -0.0075467196 0.016161872 0.093844526 0.08764569 -0.17874987 -0.021085376
0.07579316 0.16118316 0.0634107 0.14205602 0.068391494 0.04020512 0.1453489 0.17517695
-0.14492372 -0.19675258 0.016924202 0.13192286 0.22515069 -0.01687551 -0.10615811 0.025969157
0.17330065 0.11267866 -0.060923 -0.13327083 0.004073357 -0.19002958 -0.043839324 0.05650238
-0.030842122 0.057284836 -0.09052928 0.1826341 0.020875396 -0.16027038 -0.2406326 -0.030629607
-0.0139866 -0.0779671 0.1891732 -0.009677681 -0.031411584 -0.17430101 -0.12425681 0.13367599
-0.10946647 0.13878678 -0.15872419 -0.27502388 0.08772667 -0.08948853 0.11324635 0.039918605
-0.05388993 -0.19909343 0.039852906 0.057696473 -0.051061846 -0.21878627 -0.056362234 0.30688384
0.10314651 -0.021188123 -0.041373797 -0.05135518 -0.04207319 -0.011601366 -0.092980854 0.036802713
0.031485192 0.09888061 0.038215186 -0.1602734 -0.039498705 -0.20801643 0.096925355 0.20509712
-0.1817834 0.10470124 -0.0769205 -0.098320216 0.108104944 -0.11198737 -0.0016393256 0.09349372
0.038315877 0.107273825 0.0695249 0.13948888 -0.14004451 -0.068092436 -0.08852361 -0.039785285
-0.03951994 -0.14062442 -0.062641025 0.17679252 0.0020692197 -0.16708942 -0.2041731 0.051228397

actor.4.bias f4 [64]
00000000: edf1 c13b 4386 66bb 8623 81bd 53a3 78bb
00000010: 4f38 b0bd f183 113d b9bb 113d f4ee 9b3d
00000020: 3ca0 a8bd 66d3 0c3d b3dc 373c 936c d8bc
00000030: 06cf 6a3d 8865 c63c e94d a9ba 9e46 063d
00000040: 1865 123d 9eb2 26bc 20ac ef3c b984 80bd
00000050: 0dc4 3b3d c57b a6bd 089a 48bc 1e45 c8bb
00000060: 6086 a33d 0c4a a03d ff8e 773d cca0 383b
00000070: 7b11 9d3d ba5c 7f3d 6d34 58bd f5d9 b6bd
00000080: 8e66 81bd ac33 823d ae47 1bbd 85d3 01bc
00000090: 5c84 523d 91f0 9939 fa24 4e3c 88ff 8b3d
000000a0: c902 8dbc 946d fdbc e1a5 8abd 0a5c 3cbd
000000b0: 418c c0bc aff6 08bd f9ad 803d 61a3 adbd
000000c0: 3f12 48bc f786 0cbd 5d0e 093d ffa1 9f3d
000000d0: dda7 e3bc 947c aabd 5607 833d 9dc3 1a3d
000000e0: ac72 733d e377 14bd 2743 bdbb c7a0 6fbd
000000f0: a35a 89bd 24e7 973d b7fb 043d 69b1 7ebd
0.0059187324 -0.003517524 -0.06305604 -0.0037939146 -0.0860449 0.03552622 0.035579417 0.07613936
-0.08233687 0.034381293 0.011222052 -0.02641896 0.05732634 0.024218336 -0.0012916896 0.03278219
0.03574094 -0.010174422 0.02925688 -0.06275315 0.045841265 -0.08129076 -0.012243755 -0.006111755
0.07984614 0.07826623 0.060439106 0.0028172014 0.0766935 0.06234429 -0.052784372 -0.08928291
-0.06318389 0.06357512 -0.037910156 -0.007923965 0.05139576 0.0002936167 0.012582058 0.06835848
-0.017213242 -0.03093604 -0.0676992 -0.045986213 -0.023504378 -0.03343838 0.06283183 -0.08478428
-0.012211381 -0.0343084 0.033460964 0.0779457 -0.027790004 -0.08324543 0.063978836 0.037784208
0.05943553 -0.036247145 -0.0057758274 -0.05850294 -0.06706741 0.074171335 0.032466616 -0.06218091

actor.6.weight f4 [3, 64]
00000000: 375a e7bb 5bf3 ee3a 570b 833c df8f 723b
00000010: 0357 87bc 2359 f4ba 71f0 6a3b 1517 8ebb
00000020: 6509 25bb 8d2e 4bba bb20 d5ba 834b 843a
00000030: 192d 41bc cff2 823d a03e ca3b af89 09bc
00000040: a3a4 39ba 8e3a 153b 0c4a 60bc e704 c5bc
00000050: 3df4 82bc 6d2d c13b b57a a43b c30f 8f3b
00000060: 744c a9bb 9ef7 03bc 6e20 bc3b fc18 9e3b
00000070: e7b8 0e3b d603 e4bb 0425 c43b e6bf 5d3b
00000080: eb94 7abc bdda 323c 5d7a 51bc 42dd 8a3c
00000090: 5bb6 613c 7ab5 0a3b b477 52bc 0a44 46bc
000000a0: 06d7 eb3a ffd0 45bb cd3d 863c 3f83 4aba
000000b0: c44a 6d3b 35c3 cabb 6876 ad3b c2e9 f2bb
000000c0: c051 5cba 5973 ad3b 5e84 b13a 2dbb 473b
000000d0: b90b 1a3c 8121 41bc 106d ec3b 64d7 a0b9
000000e0: 0949 86bc 9aba bebc 77f7 023a 6cc6 a73b
000000f0: 81a9 923b 7bb9 2fbc 09cd 023b 1f42 52bc
00000100: db22 32bc 80ca 293c 5747 473c 6ca4 483c
00000110: 2f70 853c 6095 cbbb 39e2 173c 9c97 e8bb
00000120: 66bd be3a 9846 2e3c 1355 e2bb 6b7b 0e3c
00000130: 80a8 3fbc 34bf 6d3c dfd0 563c cb28 23bb
00000140: b97d 3cbc 822a 553c ef24 50bc 1d3c 9bbc
00000150: 0d49 6bbc 71f4 413c fa76 1c3c 34df 3e3c
00000160: eab7 dcbb c5c7 23bc fd54 823c ab24 473c
00000170: 6f74 223a b757 01bc 92ec 4f3c 4c14 443c
00000180: a887 fdbb 579a e73b 417f 0bbc 53f6 4a3c
00000190: dac3 943c fad2 443c 13c8 0839 3c28 64bc
000001a0: 3841 2a3c d6c5 caba 15fe 4f3c a3cb c53b
000001b0: 52ed 613c 651e a9bb ddf9 7f3c 1915 0cbc
000001c0: 164a 423c 3d53 403c 3eb5 0fba e843 f2ba
000001d0: c97c 113c 417b dbbb ad9a 473c a124 f0ba
000001e0: 65c4 1fbc 59fd a1bc 6d57 153a f823 2a3c
000001f0: 95a2 313c 5eda 07bc efef 08bc 6305 67bc
00000200: 09d5 ea3c 7954 463d 3ac8 26bd 3cd3 3b3d
00000210: b575 e93c 7cfc 163d 24d9 423d d9a1 34bd
00000220: 107f 313d b97c 323d c398 74bd 8ae1 3e3d
00000230: 5ac3 103d b953 23be aeb3 543d d1fe 623c
00000240: dbd0 b8bd eb6a 2f3d ae05 253d 3478 723b
00000250: dff9 213d 5327 803d 69a1 3f3d 1ce7 473d
00000260: 6289 303d 0bab de3c 00d8 533d e94c 2a3d
00000270: 032f 1ebd a86a b93b e846 3e3d d1f3 6e3d
00000280: 70dc b33b 6164 f13c 47bf 073c b918 2ebb
00000290: b511 e83c 9efa 3e3d 3f82 6e3c 45bd 093d
000002a0: 1239 253d 736c 123d dbbd 713d c554 fc3c
000002b0: d0d1 493d 8b2c 503b 239d 443d 18b4 393d
000002c0: 8678 353d c15b 3c3d 8624 123d 3a88 013d
000002d0: 3a34 40bd 39a8 403d 7e96 503d 423e 243d
000002e0: 1588 963b cc1c 03bd 3f8f 52bc 9ee7 3a3d
000002f0: 6cfe 423d b833 883c 7c41 2dbd a1ab 413d
-0.007060315 0.0018230485 0.015996618 0.0037012023 -0.016520983 -0.0018642287 0.003584888 -0.0043362477
-0.0025182602 -0.0007750772 -0.0016260365 0.0010093305 -0.011790537 0.06393968 0.0061720163 -0.008394643
-0.0007081723 0.0022770497 -0.013689529 -0.02405019 -0.015985603 0.0058953078 0.0050195106 0.0043658926
-0.0051665846 -0.008054642 0.0057411706 0.0048247557 0.002177769 -0.006958465 0.005985858 0.0033836304
-0.015294294 0.010916409 -0.012785521 0.016951207 0.013776387 0.0021165297 -0.012845922 -0.012101183
0.0017993159 -0.0030184386 0.01638689 -0.00077252457 0.0036207894 -0.0061878213 0.005293656 -0.00741312
-0.00084045157 0.0052932915 0.0013543477 0.0030476556 0.009402209 -0.011787773 0.0072151497 -0.00030678057
-0.016392248 -0.023282338 0.00049959816 0.0051200893 0.004475773 -0.010725374 0.0019958636 -0.012833147
-0.010872568 0.010363221 0.012163005 0.0122462325 0.016288845 -0.0062128752 0.009270244 -0.0070981514
0.0014552295 0.010636948 -0.0069071143 0.008696417 -0.011697888 0.014510918 0.013111322 -0.002489614
-0.011504584 0.013010623 -0.012704118 -0.018949563 -0.014360678 0.0118380645 0.009549851 0.011649895
-0.0067357915 -0.009996359 0.015909666 0.012154738 0.00061971595 -0.007894448 0.01269068 0.01196773
-0.0077371188 0.0070679593 -0.008514226 0.01238783 0.018159796 0.012013191 0.00013044504 -0.013925608
0.010391526 -0.0015470337 0.012694855 0.0060362383 0.013789492 -0.005161094 0.015623537 -0.008549952
0.011858484 0.011738596 -0.0005482024 -0.0018483372 0.008879849 -0.0066980426 0.012182874 -0.0018321463
-0.009751414 -0.019774126 0.00056969264 0.010384552 0.010841985 -0.008291809 -0.008357986 -0.014100405
0.028666036 0.048420403 -0.040718295 0.045855746 0.02849851 0.03686188 0.047570363 -0.044099662
0.043334067 0.043575976 -0.059715997 0.04660181 0.03534255 -0.15949906 0.05192917 0.013854698
-0.09024211 0.042826574 0.04028862 0.0036997916 0.039544936 0.062575005 0.046784792 0.048804387
0.04309977 0.027181169 0.051719666 0.041577253 -0.038619053 0.0056584664 0.04645434 0.05833799
0.0054889247 0.02946681 0.00828535 -0.0026565029 0.028328756 0.046625726 0.01455742 0.033627767
0.04033763 0.035747956 0.05901895 0.03080214 0.04927236 0.003176483 0.04800142 0.045337766
0.044304393 0.04598594 0.035679363 0.031624056 -0.046924807 0.04703543 0.05092477 0.040098436
0.004593859 -0.032009885 -0.012851535 0.045631044 0.047605917 0.016626224 -0.04229878 0.04728282

actor.6.bias f4 [3]
00000000: ad24 f9bc 0fa3 4b3d e6df 383d
-0.030412996 0.04971605 0.0451354

critic.0.weight f4 [256, 259]
00000000: 2bd5 2e3e 8959 0dbd 1ce1 97be 7f87 39bc
00000010: 6069 34bf 97c8 c6bd 9f56 913d e6df 5abd
00000020: d397 123d b1fc 4b3b 2063 2d3d 5820 a9bd
00000030: 58a5 b23d b4d4 0e3e 1e0c fc3d d2d5 71bc
00000040: 5046 193e 1e1e 9dbd c13f d6bd 715b 99bd
00000050: 8b9d d63d 6888 64be c121 54c0 b4e6 f23d
00000060: 5845 e8bd 6648 8e3d 72dd 81be 37d4 70bd
00000070: 64db ca3b 6f10 4f3f ea8f eb3d bd02 813d
00000080: 1f0b 8e3b b45a fa3d 319e eabd 8f37 30bd
00000090: f7d7 6e3b 94de 1fbd 47bb 96bd a785 5b3d
000000a0: 27ef 383d 2606 78bc 5e2e 10bd 65fc c43d
000000b0: 7ae2 5fbc 32e6 923d 8809 acbe 6954 173e
000000c0: e109 2bbe d9f4 173e 915e 26bd 564c ca3c
000000d0: aa7d 533d 13b9 6cbf d436 1d3c 73ec 823d
000000e0: 922e 3ebd 82bf 16bb 77c5 be3d 88a3 9abb
000000f0: b195 993d c969 d13c ecb9 9bbb c4ea 79ba
00000100: b0c1 43bd ec2c bfbc 1294 013e 43cd 563d
00000110: f1ab 2bbd 0e70 e83d 1700 cebd 944c 973d
00000120: 76f2 18be 6523 88bd fc13 cb3d 5faa 2bbe
00000130: fd7e 7f3d c6fa 04bd 5c0e 9d3d c073 8a3e
00000140: 337f 0bbc 2f3b c5be 89f0 b73d dd6e 0cbd
00000150: d023 ea3d 6610 90be b0e7 96be 20dd 03be
00000160: f9d6 e8bc 4408 51bd 4a9f 253e 7647 dc3d
00000170: 66a2 3d3d 3855 c0bd 2463 b0bd 42df f73c
00000180: a42f 4e3a 1743 0abd 6c6a 2d3d 4d13 9a3d
00000190: ce8f 6ebd 8197 8cbd ff3d dcbc ee2b 2f3d
000001a0: 41a9 e83c 620b aa3d 6f20 38be e2cb 943d
000001b0: 04b3 d13d 046f 643c 4235 9d3d 586e 0fbe
000001c0: 8293 903b 1449 14bd 52f0 85bd 0959 d1bb
000001d0: c6da cbbb 2286 8cbd 8f56 063d d1fa 9bbd
000001e0: 8485 4abc 76cc 10bd 6d31 0d3d 3c30 b53d
000001f0: bddb 443d 8df1 513e 6a7e d6bc 1e09 533d
00000200: 2969 f7be 1b69 963d 87f3 903d 51f9 0cbc
00000210: fac6 913d 1dd3 cabc 298d 7e3c 9c43 703d
00000220: 6e4d 25be 9dab eabd 5282 8b3c 36d7 8bbe
00000230: a3ee 063e 4032 c13d 25cb 66bd 1048 ea3d
00000240: 880f b0bd 6c68 b9bd 1fff 5a3d 464d 85bc
00000250: feca 323e 17c4 5d3d 066c a6bd c05e 323d
00000260: cd71 61bb fb3e 5bbe 8e9d d0bc e1f9 1b3e
00000270: e438 e4bc ac5b c2bd 1acb 0a3e 0a93 16bc
00000280: 04fd 18be 7d91 bfbd b99a 9abb c816 d9bc
00000290: f69b 073c 738c 95bb 15d2 87bd f5b3 a53d
000002a0: e7e0 15bd de96 3a3d 5c7e 1ebd 206e aa3d
000002b0: 9018 363e 4cf3 da3c 200e 60bd 5416 d93d
000002c0: 7afb 1cbe d367 a63d 4590 debd 8861 fb3b
000002d0: 58fd d0b9 1a33 073e f134 19bd 5aef 03bd
000002e0: 2f23 193d fcdf 3d3e 078a 663e 64fc 35bc
000002f0: e45f 27bd c9c7 443d 46f9 adbd 24c0 8abd
00000300: 58d7 413e d9ec 10bc 1306 3dbd 507b 9bbd
00000310: f958 e23d 1514 73bc e188 afbd cfd7 163d
00000320: 3a46 ee3d ae6d f43d 2291 cfbd 4440 a13d
00000330: df42 acbc 656e f33d 6d95 64bd c430 503e
00000340: 9eb5 afbd 0a18 28bb dafb 883c a4e3 2c3e
00000350: 9aaf f83c 4ad3 573d 930b 493c 5726 893c
00000360: a4fe 373d 3cf7 d3bd 4063 81bd c103 bdbd
00000370: 43eb a7bd b374 c4bd cda5 cabd 36a2 bfbb
00000380: 9a7a a73d 8bd6 bdbd 6fce 81bf 1a2e b0bc
00000390: b23a 0a3e 2147 1ebe d89e 313d 7f0b 2fbe
000003a0: 5ac3 523d 37f7 d7be 3276 ef3c b3ba f3bc
000003b0: 7502 d6bd 5dfa 0abe 8ce9 b6bd 993d e93d
000003c0: 7abe 5bbd c85d aa3d 55ce 2a3e f0cf 303e
000003d0: acdd a2bd 0c77 bfbd 5273 a0bc ba9e 913d
000003e0: 8337 663d b514 303d 4abb cd3d 199c 1f3d
000003f0: 031c 883d b2b8 aa3d e92f 00bd d00d 28bc
0.17073505 -0.034509216 -0.29663932 -0.011323809 -0.7047329 -0.09706228 0.070966 -0.053436182
0.035789322 0.0031125958 0.04233086 -0.08258122 0.08722943 0.13948327 0.12306999 -0.014760451
0.14968228 -0.0767176 -0.10461379 -0.07488144 0.10479268 -0.2231766 -3.3145602 0.118604094
-0.11341351 0.06947403 -0.25364262 -0.058796134 0.006190704 0.8088445 0.11502059 0.062993504
0.004334822 0.122243315 -0.11455954 -0.043021735 0.0036444643 -0.039030626 -0.07359939 0.053594258
0.04514995 -0.015138185 -0.03520047 0.09618453 -0.013664836 0.071728125 -0.33601022 0.14778294
-0.16702987 0.14839496 -0.04061753 0.024694603 0.051633514 -0.924699 0.009595592 0.06392755
-0.04643113 -0.002300233 0.09315007 -0.0047192015 0.074992545 0.025563138 -0.004752388 -0.0009533579
-0.047792137 -0.02333685 0.1265414 0.052441847 -0.041912023 0.11349498 -0.10058611 0.07387653
-0.14936242 -0.06647376 0.09915921 -0.1676421 0.062376965 -0.03246572 0.076687545 0.27041435
-0.008514213 -0.38521716 0.08981425 -0.034285415 0.11432612 -0.2813751 -0.2947364 -0.12877321
-0.02842282 -0.051033273 0.16174045 0.107558176 0.046297453 -0.09391254 -0.086126596 0.030257825
0.00078653754 -0.033755388 0.04233782 0.075232126 -0.05824261 -0.068648346 -0.02688503 0.042766504
0.028401019 0.08302952 -0.17981122 0.0726545 0.10239223 0.013942484 0.07676174 -0.14006937
0.0044121156 -0.036202505 -0.06539978 -0.0063887876 -0.006221148 -0.06861521 0.032797392 -0.07616199
-0.012360934 -0.03535124 0.034470964 0.088470906 0.04806112 0.205023 -0.026183326 0.051522367
-0.48322418 0.07344266 0.07077699 -0.008604364 0.0711803 -0.02475887 0.015536585 0.058658227
-0.16142818 -0.11458514 0.017029915 -0.2731263 0.1317697 0.094334126 -0.056346077 0.11439526
-0.08596712 -0.0905312 0.05346596 -0.016272198 0.17460248 0.054142084 -0.081260726 0.043547392
-0.0034400106 -0.21410744 -0.025465753 0.1523204 -0.027859159 -0.09490141 0.1355404 -0.00919033
-0.14940268 -0.093539216 -0.0047181514 -0.02650012 0.00827693 -0.004563862 -0.06631867 0.08090965
-0.036591437 0.045554034 -0.038694724 0.08321786 0.17782807 0.026727341 -0.05470097 0.10599962
-0.15330306 0.08125272 -0.10867361 0.0076715387 -0.00039861607 0.13203087 -0.037404004 -0.032210685
0.03738707 0.18542475 0.22513591 -0.011107538 -0.040862933 0.048042092 -0.08494811 -0.06774929
0.18929803 -0.008845531 -0.04614837 -0.07591879 0.110521264 -0.014836331 -0.085710295 0.036826905
0.116344884 0.11934982 -0.10135104 0.07873586 -0.02102798 0.118862905 -0.055806566 0.20331103
-0.085795626 -0.0025649094 0.016721655 0.16883713 0.03035717 0.052691735 0.012270826 0.016741915
0.04492058 -0.103498906 -0.063177586 -0.092292316 -0.081991695 -0.09592571 -0.09894905 -0.0058481945
0.08177681 -0.092694364 -1.0141124 -0.021506358 0.13498953 -0.15456821 0.043364376 -0.17094229
0.051455833 -0.42180797 0.029231165 -0.029752111 -0.104496874 -0.13572069 -0.08931264 0.11388702
-0.05364845 0.083186686 0.16680272 0.17266822 -0.07952437 -0.09348878 -0.019586239 0.07110353
0.056205284 0.042988498 0.10045488 0.038967226 0.06645968 0.08336009 -0.03129569 -0.010257199

critic.0.bias f4 [256]
00000000: 4317 05bd 9437 e33c 89b7 f23c 6b32 9b3c
00000010: ecba f23c d137 84bd fb7a 8c3d 3d96 bfbd
00000020: 1f45 90bc a54b 7ebc 2909 ecbc 86a4 103d
00000030: c6ea 0a3d 337e 2e3d 6c0c 013c f1bc 913c
00000040: e2e1 b63b 7d84 153c 909c d4bc 5be1 973d
00000050: 0c8e 933c 2850 c63d d4ac 8ebb d1ac 06bd
00000060: 5919 15bd f729 0fbd aa37 eabc fc19 393d
00000070: b6c8 9e3d ab86 35bd 8fbc 3abd f7f9 01bd
00000080: b055 c2bc 9d01 673c f32f 17bd 1fa8 5b3b
00000090: cf5a 9dbc 2db7 32bd 07a5 a2bb 46ec f4bc
000000a0: 68a4 59bc 0e90 8abb 835f 36bd f840 61bd
000000b0: b301 b53d 0afa 993d aab3 0bbd 3f97 0fbd
000000c0: 8799 33bd 1980 393c 971f 3fbd 8643 34bd
000000d0: 7cb3 ad3d d5a9 febc 3871 a03d 561c 75bd
000000e0: bad3 38bd cbb7 8fbd 3d1a d8bb 100a 1abd
000000f0: 0e33 eaba 6328 2f3d 95db c53d f2db ed3c
00000100: 68e2 723d e971 e4bc 8274 cabd a191 b3bc
00000110: 09d9 17bd 846d 363b 8c05 f33b 572f 0c3c
00000120: e76e 6e3d 9b99 74bd d955 163d 8a20 173d
00000130: be3b 4b3b be54 4b3d 8cf7 653b decf 40bd
00000140: c75f 883d f6ad 593d 6833 93bc e9df 323d
00000150: c85f 223d 1d3c 04bc b0b2 8b3d 0499 14bd
00000160: 0347 2f3b 6983 41bd f041 653d 6712 5a3c
00000170: 02a7 d5bb 864a 863d 0821 a93c 15dc 97bc
00000180: 195e 343d 7e35 5dbd 9f77 b83d 5ab5 5f3d
00000190: 05bc 183c 9250 83bd f002 5fbd 5865 a73d
000001a0: 1cc8 d4bc 2a61 16bd 715d 113c 4382 023d
000001b0: 6157 09bb 54db ea3c 0a3f 933d aafb 173d
000001c0: 734c 45bd a80e 1fbc 34da f43c 31d2 73bd
000001d0: 679f a63c 7967 0c3b adfd c33a c263 0ebd
000001e0: a650 283d a938 31bd 5291 03bd 4c22 423c
000001f0: a539 81ba c7ce 80bc 9987 153c be1b 9b3c
00000200: 9719 3d3d 0a29 48bd 66e3 58bd ad4f a03d
00000210: 76da c63d 80da 633c e294 12bc a764 fd3c
00000220: 982a 663d 9c2e 74bc 4d13 2b3c a269 143d
00000230: 4c7e 2fbd b88f 1bbd bbd4 80bd 5c31 d0bc
00000240: 969b 5dbc d50a 843d 47ff 0abd 4278 80bd
00000250: 4919 84bd 1015 83ba 9e0e 41bd 32a6 0e3d
00000260: 3956 aa3c b260 1a3d 0c6e d33c 5dd1 d63c
00000270: ef17 2ebc 3b02 bdbc 6898 303d e79c 003d
00000280: 92ce e1bc f1b6 883c 173c 073d e314 82bd
00000290: f272 753c b186 54bd 971b 0d3d eebf 67bd
000002a0: 6a3f 073d 444a 5a3c 56e8 7b3d d86d 1e3d
000002b0: 3d40 323d 4085 6f3b be53 46bc 52b3 5cbd
000002c0: 1b57 803c 4bfc a5bc 57bf 20bd fc57 9e3d
000002d0: a463 22bd 2a19 253c f564 1bbd b0c4 70bd
000002e0: c203 b8bc a731 703c 0341 b7bd 9d5f 9ebb
000002f0: 043d 0fbc c78e 6bbc 4979 253c 0701 f7bc
00000300: 8960 973c f326 37bd 0821 843d 0180 0b3d
00000310: c9d7 833c 22c4 eb3c 0eef 8abc 46c5 c5bc
00000320: fb3d 2cbc 15a3 173c ee79 ab3d ec86 35bd
00000330: c305 1fbc f2e8 113c f647 8b3b 9ce4 753d
00000340: e819 c2bb a3d2 433b 90e3 403d d0c2 ae3d
00000350: ac6a 1db9 06e0 d63c 916f 20bc 640e c03d
00000360: efb6 b03c 345c 013d 3f25 8f3d 2e3c d13c
00000370: 85f7 973d b3bf 85bc cbd3 28bc 23d1 a23d
00000380: 1e29 d73c 85df 73bd ed9a 76bd c4b1 cfbc
00000390: 3c82 903c 69b7 57bd 2352 89bb 0b4d 88bc
000003a0: d780 3fbb d134 1ebb 2152 c03c 06bd 0dbc
000003b0: 7bb0 2f3d 42d7 aa3d e839 dbbb 125b 25bd
000003c0: 090a cf3c 6fd0 b93d 5a3c 55bd 35ba dd3c
000003d0: 5832 bf3b 1ea3 013d aedd 66bd 67fb 223d
000003e0: 5410 93bc d3b0 1ebd 71a7 32bd fcec c1ba
000003f0: 83d7 623d 491c af3b 2296 743b def8 843d
-0.032492887 0.027736463 0.029628532 0.01894494 0.029630147 -0.06455959 0.06859394 -0.093548276
-0.017611085 -0.015520965 -0.028812962 0.03531315 0.033915304 0.04260082 0.007876497 0.01779029
0.0055811265 0.009125826 -0.025953561 0.0741603 0.01801207 0.09683257 -0.004354099 -0.032879654
-0.036401127 -0.03495213 -0.028590996 0.045190796 0.07753126 -0.044317883 -0.04558998 -0.031732526
-0.0237225 0.014099506 -0.036910962 0.0033516956 -0.01920834 -0.04363172 -0.0049635204 -0.02989782
-0.013283826 -0.0042285984 -0.04452468 -0.0549936 0.08838215 0.07518394 -0.034106888 -0.03505635
-0.043847587 0.011322045 -0.046660986 -0.044009708 0.084814996 -0.031086842 0.07834095 -0.059841476
-0.045123793 -0.070174776 -0.0065949247 -0.037607253 -0.0017867999 0.042763125 0.096610226 0.029035542
0.05929795 -0.027886348 -0.09885503 -0.021920027 -0.037072215 0.0027836272 0.0074164327 0.008556209
0.058211233 -0.059716802 0.036702964 0.036896266 0.003101095 0.049641363 0.0035090176 -0.047073238
0.06658893 0.053144418 -0.017968848 0.04367057 0.039642125 -0.008070973 0.06821191 -0.03627874
0.0026745207 -0.047244463 0.055971086 0.0133100515 -0.006520153 0.06557183 0.020645633 -0.01853756
0.04403505 -0.054006092 0.09007191 0.05461631 0.009322171 -0.06411852 -0.05444616 0.08173627
-0.025974326 -0.036713757 0.008872376 0.03186251 -0.0020956623 0.028669037 0.07189758 0.03710524
-0.04816861 -0.009708084 0.029889204 -0.059526626 0.02033968 0.002142398 0.0014952921 -0.034763105
0.041092537 -0.043266926 -0.03212101 0.011848997 -0.0009859098 -0.0157236 0.009126567 0.018934127
0.046166983 -0.048867263 -0.05295124 0.07827697 0.09709637 0.013907075 -0.008946629 0.030931784
0.056192964 -0.014903691 0.010441613 0.03623355 -0.042845055 -0.037978858 -0.06290575 -0.025414161
-0.013525864 0.064473785 -0.033934858 -0.06272937 -0.06450135 -0.0010000784 -0.04713308 0.034826465
0.020793067 0.037689872 0.02580931 0.026222879 -0.010625823 -0.023072353 0.043114096 0.031399634
-0.02756432 0.016688796 0.03301629 -0.0635164 0.014981018 -0.051886264 0.03445014 -0.056579523
0.03301946 0.01332337 0.06150087 0.038678974 0.043518294 0.003654793 -0.012104927 -0.05388195
0.015666535 -0.020261904 -0.039244976 0.077316254 -0.039645806 0.0100768 -0.037938077 -0.058781326
-0.02246273 0.014660276 -0.08947947 -0.0048331753 -0.008742575 -0.0143773025 0.010099717 -0.030151857
0.018478649 -0.04471488 0.06451613 0.03405762 0.016094105 0.028780047 -0.016959693 -0.024141919
-0.010512824 0.00925519 0.083728656 -0.044318125 -0.009705964 0.008905636 0.004250522 0.060032472
-0.0059234984 0.0029880188 0.04709202 0.08533251 -0.00015012425 0.02622987 -0.0097922245 0.09377745
0.021571605 0.031582072 0.06989526 0.025541391 0.074202575 -0.01632676 -0.010304402 0.07950046
0.026264723 -0.059539337 -0.060206342 -0.02535332 0.017640226 -0.052665148 -0.0041906997 -0.0166383
-0.0029221082 -0.0024140368 0.023476662 -0.008651024 0.042892914 0.083418384 -0.0066902526 -0.040370055
0.02527334 0.09072959 -0.05205951 0.02706633 0.005834859 0.0316497 -0.056363754 0.039790537
-0.017952122 -0.03874285 -0.043616716 -0.0014795358 0.05538131 0.005343948 0.0037320931 0.0649278
