rlgpu/logs/cut/model_455.pt (torch, 868312 bytes, 16 tensors)

log_std f4 [3]
000000 63 f8 1b bf 9a 75 da be 37 ed 36 3d
       -0.60925883 -0.42667848 0.04465982

actor.0.weight f4 [256, 259]
000000 07 ac 1a 3d e5 78 36 3d c6 c0 67 3d 3f 2c d8 bc
       0.037761714 0.044548888 0.056580327 -0.026388286
000010 41 90 8b bd 87 83 97 3d 57 3e 5d 3d 89 f2 99 bd
       -0.068146236 0.07398134 0.05401453 -0.07516963
000020 43 2e fd 3c f2 87 04 3d 3d 22 99 3c 1f 7a ab bd
       0.030905848 0.03235621 0.018693084 -0.08372902
000030 e3 6e 8f 3d 7a 2b bf bd 68 44 c3 bc b1 bb ae bd
       0.07003572 -0.09334464 -0.02383633 -0.08531893
000040 b3 5c e7 bc d1 83 0b bd 59 b8 1f be 36 b4 08 3d
       -0.028242445 -0.034061257 -0.15597667 0.033374988
000050 2c 39 78 3d 28 ae a7 bd 3f 54 c6 bd 1a da 87 3c
       0.0606014 -0.081875145 -0.096840374 0.016583491
000060 fa 23 d7 3d ae 42 55 39 8f f3 89 3d 1e bb 5f bc
       0.10504909 0.00020338103 0.06735908 -0.013655452
000070 5a 76 ff bb 57 7d 5c bd 48 41 37 3c e4 3c b3 bd
       -0.007796091 -0.05383047 0.011184998 -0.08751848
000080 20 13 df 3c f4 48 da 3d 95 8c b7 3d cb af 0c bd
       0.0272308 0.10658446 0.08962361 -0.034347337
000090 d0 6d 60 3d 90 71 56 bc 63 d1 66 bd 20 f5 2d 3c
       0.054792225 -0.013088599 -0.05635203 0.010617524
0000a0 d3 9d 69 bc a6 b6 ce bc 01 3c 30 3e f3 b3 1b 3e
       -0.01425882 -0.025233578 0.1721039 0.15205364
0000b0 f6 2a d0 bd 46 de 1b 3e 6c da 9c 3d f6 2d a1 bd
       -0.10164444 0.1522151 0.07658848 -0.078700945
0000c0 7a 1a c7 3c 2a 8a 9a bd 17 08 03 bd c0 b2 0f be
       0.024304617 -0.07545884 -0.031990137 -0.14033031
0000d0 34 95 28 bd 6b e6 c5 3d 4c 4a 6d bd 30 19 68 3d
       -0.041157916 0.09663089 -0.057932183 0.056664646
0000e0 33 41 62 3e 18 93 be 3d 48 8a 4f 3c 69 71 1b be
       0.22095184 0.093054 0.012667246 -0.15179981
0000f0 15 be 88 3c db c9 34 bd ad 50 c4 bb 0d d9 7e 3c
       0.0166922 -0.044137817 -0.0059910626 0.015554679
000100 5b a3 29 bd d7 50 00 3d 8d 3c c1 bd 5a fe ab 3d
       -0.041415554 0.031327095 -0.09435377 0.08398123
000110 8f a8 d6 bc b9 56 21 bd 9b 08 a1 bd bb f8 92 3d
       -0.026203422 -0.039389346 -0.078629695 0.07176348
000120 bf 88 ac bd b5 87 c6 bc 8a ed b4 bc fe f7 32 bd
       -0.0842452 -0.024234632 -0.022085924 -0.043693535
000130 18 54 81 be 56 2b 0d bc 41 04 0e 3d 6b d5 8f bc
       -0.2525947 -0.008616289 0.034672026 -0.01755782
000140 d6 0e 20 3d d6 39 03 3e 05 79 cf bd 72 f1 f9 3b
       0.03907665 0.12815031 -0.101305045 0.0076276595
000150 70 85 5e bd 22 bd 0a 3e 20 d6 8e bd cc cf 05 be
       -0.054326475 0.13548711 -0.06974435 -0.1306755
000160 04 ea bd bd bf b8 cf bd 42 cd 8d 3d f1 5d 87 3d
       -0.092731506 -0.101426594 0.069239154 0.06609715
000170 c4 06 14 3c c3 72 0c 3d 9f a7 31 3e 43 12 05 3e
       0.009034816 0.034289133 0.17349099 0.12995248
000180 42 4d 01 bd 93 0b 92 bd 06 b7 a4 bc d9 2c b1 3d
       -0.03156782 -0.07131114 -0.020106804 0.08651132
000190 c9 25 8d 3d e4 13 c0 bd 20 ff 6a bc 6d 91 2d bc
       0.068919726 -0.09378794 -0.014343053 -0.010593754
0001a0 ba f9 d9 3d 74 f7 4c bd f2 8a 4d bd 29 43 d2 3d
       0.10643335 -0.050040677 -0.050181337 0.10266716
0001b0 ec 17 de bb 48 69 51 3e 8a 05 05 bd af ae f0 3d
       -0.006777754 0.20450318 -0.032475986 0.11752068
0001c0 d0 9e b9 3c 33 d0 29 bd 14 25 e5 bd 18 50 d6 bd
       0.022658736 -0.04145832 -0.11188713 -0.104644954
0001d0 7c 12 57 bd 73 d8 ce 3d 77 e9 9d bd c8 2f 76 bc
       -0.052507862 0.10099878 -0.077105455 -0.01502604
0001e0 3d d1 95 bd 9c 0c 1e 3e 63 a6 c4 bd 13 ef 03 3c
       -0.073153 0.15434498 -0.09602048 0.008052605
0001f0 39 d1 3f 3d 05 7b e1 3d 4b 32 86 3c 3f de 42 bd
       0.04683039 0.11009792 0.016381403 -0.04757523
000200 42 7b 63 3d 94 e0 dd 3d 66 dd 8c 3d 3b e0 90 3d
       0.05553747 0.108338505 0.06878166 0.070740186
000210 2d 12 91 bd 54 4b 72 bd c2 c6 82 bd 85 97 46 3e
       -0.07083545 -0.05915387 -0.06385566 0.19393738
000220 61 95 85 bd c9 80 c0 bd 40 bf 91 3d 86 a8 ce bd
       -0.065226324 -0.09399564 0.07116556 -0.10090737
000230 8f 12 29 3d 48 54 40 be 5d 21 87 bc ef 5b 71 bc
       0.041277464 -0.18782151 -0.016495401 -0.014731391
000240 7a f9 bf bd 37 be 7f 3c 30 b2 07 3e 1e 44 bb bb
       -0.09373756 0.015609316 0.13251567 -0.0057149073
000250 eb c4 9c bd 4f 90 9f bd 1e f1 07 be bf 16 ad 3d
       -0.076547466 -0.077911966 -0.13275573 0.08451604
000260 f1 6a 26 be 8f bc a4 3c 6b 1e 51 bc b9 46 f8 3d
       -0.16251732 0.020109443 -0.0127636 0.12122864
000270 d6 d1 1f 3e 0c 30 7b 3d a1 9f 40 bd 3a e2 00 3e
       0.1560739 0.061325118 -0.047027234 0.12586299
000280 42 3e f5 3d ff ae 35 3d 1c af 01 be 09 26 aa bd
       0.11974765 0.044356342 -0.12664455 -0.08308036
000290 9a 9d 65 ba cf a6 3c 3d dc c9 6f bd 5e 60 e8 bc
       -0.0008759141 0.04605752 -0.058542117 -0.028366264
0002a0 bf a8 43 be 40 f8 70 bd 8a b8 90 3d ca dd 21 be
       -0.1910734 -0.0588305 0.07066448 -0.15807262
0002b0 88 9e 7d 3d 6f 5e d6 3d 97 13 84 3d a8 a3 31 bd
       0.061918765 0.104672305 0.06449049 -0.043368965
0002c0 14 84 01 3e 55 2a 96 bd 29 b7 b3 bd 59 06 7b bc
       0.1264804 -0.07332293 -0.087751694 -0.015321338
0002d0 e6 b0 0a 3e d3 af 1b 3d bf a9 af bd 00 f5 c7 3c
       0.13544044 0.038009476 -0.085772984 0.024408817
0002e0 21 16 4d be 47 c6 b8 bc dc 08 2c 3d ed ed 1b bd
       -0.20027973 -0.022555484 0.042000636 -0.0380687
0002f0 af 4e ea bd 86 54 9d bd 97 bc 21 be a6 4b 5e bd
       -0.11440789 -0.07682137 -0.15794598 -0.054271363
000300 74 4a ce bc 2e 32 31 bd 9b 71 28 3e b1 e7 51 3d
       -0.025181986 -0.043260746 0.16449587 0.05124635
000310 c3 29 ff 3d 95 88 b6 bc a6 2f 96 bc 5a 86 1e 3e
       0.12459137 -0.022281924 -0.018333267 0.15480939
000320 0a 12 15 bd 8e af 69 be 49 54 a7 3c 73 e0 c2 3d
       -0.036394157 -0.22820875 0.020425932 0.095154665
000330 60 8a ba 3d fb 9a 1b bd 2b ae b9 3d cc b0 b6 bc
       0.09108424 -0.037989598 0.09066423 -0.0223011
000340 e8 c6 c4 bd 47 f4 44 be 4a 12 53 bd 33 87 57 3d
       -0.09608251 -0.1923381 -0.051531114 0.05261917
000350 08 42 5a bd ae bc ab bd aa aa ab bc bd cd 52 3e
       -0.05328563 -0.08385597 -0.020955402 0.20586295
000360 99 71 95 3d 95 1a 30 3d b9 3a 86 bd 20 b5 a6 3d
       0.07297058 0.0429941 -0.06554169 0.081400156
000370 af 2b 88 3d 5e 71 1e bc eb 24 4d bb d8 c4 44 bb
       0.06648957 -0.0096705835 -0.0031302522 -0.0030024555
000380 1e 49 f8 bd c8 59 88 3d 9a 4c 2e bd 16 38 e8 bd
       -0.12123321 0.066577494 -0.04255352 -0.113388225
000390 4d 03 ce 3d 88 27 4c 3d 4b 27 9e 3d 20 55 fd 3c
       0.10059223 0.049842387 0.07722338 0.03092438
0003a0 99 ea c6 3d 60 77 94 3d 3e 2b c4 bd 72 b3 cb 3c
       0.09712715 0.072493315 -0.0957856 0.02486584
0003b0 9f e4 dd bd 36 68 22 be 60 eb 09 3d 1a 8e 75 bd
       -0.10834622 -0.15860066 0.033671737 -0.05994997
0003c0 10 75 a8 bc 23 30 1e be 24 55 0d 3e 53 83 1a bc
       -0.020563632 -0.1544805 0.1380201 -0.009430724
0003d0 15 59 e9 3d 03 e6 af 3d 93 c9 04 3c 5b ac 97 3c
       0.11393944 0.08588793 0.0081047 0.018514803
0003e0 d8 cf 20 3e 9e 9a d8 bc a4 cc d0 3d b4 0f 08 bc
       0.15704286 -0.026440915 0.10195282 -0.008304525
0003f0 6c c2 bb bd 6a ac ae 3d e7 62 72 bc 1e e7 22 3d
       -0.091679424 0.08528979 -0.014794088 0.03977119

actor.0.bias f4 [256]
000000 58 d1 ab bc ce 34 4e bd ae 03 a4 bc ba 75 eb bc
       -0.020973846 -0.050343327 -0.020021286 -0.02874266
000010 03 2c 71 bc 95 12 8d 3b 30 1c 41 3d 4a 90 0b 3d
       -0.014719966 0.0043051937 0.047146022 0.03407315
000020 d1 d0 4f bc c8 c4 44 3d c1 a4 27 3d f5 37 8c 3c
       -0.012684063 0.048039228 0.040928606 0.017116526
000030 98 ef 7d 3d 4e 71 4a 3c 9a 60 8a bc 51 04 c4 3b
       0.061996073 0.0123561155 -0.016891766 0.00598196
000040 f8 5a ae 3c ae 4b 12 3c 9b 7d aa 3c 53 3b 2a bd
       0.021283612 0.008929176 0.020811846 -0.041560482
000050 b2 eb bf 3c a7 9e cf 3a 1e 4e 3f 3d 57 7c 4c bd
       0.023427818 0.0015840129 0.046705358 -0.049923267
000060 58 f3 7e 3c be 42 73 bd a9 0a 84 bc a9 12 12 3d
       0.015560947 -0.059389822 -0.016118364 0.035662327
000070 30 93 64 bd 16 fb 0a bd 5a fe 0a 3d 4e cc 15 bd
       -0.05580443 -0.03393086 0.033933975 -0.036571793
000080 e8 a3 99 3c 98 d1 3d 3d a0 04 fc 3c 4a 0a de bc
       0.018754914 0.046342462 0.030763924 -0.027104516
000090 24 8a 37 bd 51 05 35 3d 85 bb 80 3d 6a 20 e2 bc
       -0.044809476 0.044194523 0.062857665 -0.027603347
0000a0 9b f4 7a 3d 3b 1e 5f bc f9 63 61 3d 6b be 3c 3d
       0.06126843 -0.013618047 0.055026982 0.046080034
0000b0 8e 9e 56 bd 20 3f 4b 3d 37 95 e1 bc 07 bd 85 3d
       -0.052397303 0.049620748 -0.027536971 0.06530195
0000c0 35 17 4d 3d 95 4f e9 bc 4a dd 38 bd e3 d8 6f 3d
       0.05007096 -0.02848033 -0.045132913 0.05855645
0000d0 c3 54 47 3b 4d 4f f1 3c 4a 90 2a bd fa b8 2b bd
       0.0030415512 0.029456759 -0.04164151 -0.041924454
0000e0 85 4e 84 bc 3d c5 89 38 e8 21 3d ba 29 5f cf 3c
       -0.016150722 6.5694076e-05 -0.000721483 0.02531393
0000f0 12 32 9b 3c 7c 95 39 bd 06 73 67 bd 2a a3 75 3d
       0.018944774 -0.045308575 -0.05650618 0.05997006
000100 c5 ff 72 bd f7 3b 70 bd b9 cd a0 bc 01 34 6a 3c
       -0.059325952 -0.058650937 -0.019629346 0.014294625
000110 b3 ed 10 3d 8d 2c 90 bc 39 c4 cb bc 30 16 50 bc
       0.035382938 -0.017599368 -0.02487384 -0.012700602
000120 29 88 0c 3d 48 b4 1f bc a5 b3 9d 3c f6 cc 40 bd
       0.03430954 -0.009747572 0.0192507 -0.047070466
000130 c9 9d 73 bc 3b ee 8c 3c f5 c4 f8 bc 05 2c 05 bd
       -0.014869162 0.01720344 -0.030367354 -0.032512683
000140 16 05 ec 3c ab 82 5a bd 1b f3 4c bd 55 94 59 3d
       0.028811019 -0.05334727 -0.05003653 0.053119976
000150 93 ba 18 3d e5 c6 75 bd e8 16 3d bd 2c 8a 3e bd
       0.037287306 -0.060004134 -0.046164423 -0.04651849
000160 60 a2 07 3d 3a 50 3d bd a2 c2 64 bd 86 4b 29 3d
       0.033113837 -0.046219088 -0.05584968 0.04133179
000170 91 64 c1 bc 37 f1 3e ba 55 91 3a bd 5b 13 c0 3c
       -0.023607524 -0.00072838686 -0.045548756 0.02344673
000180 d0 c6 f5 3c 6c d6 4b 3d d4 9e 36 bd a0 04 8c 3c
       0.030002028 0.049765036 -0.044585064 0.01709205
000190 c6 fd 5d bc 40 40 dd ba 14 ad 6a bd b4 c9 55 bd
       -0.013549274 -0.001688011 -0.057293966 -0.052194312
0001a0 f3 de 46 3b d1 aa 19 bd b0 29 de 3c bf ea bd ba
       0.003034529 -0.03751642 0.027119488 -0.0014489515
0001b0 e9 7f d9 3a 20 fe 88 3b 1b d9 2a bc d4 52 d4 3c
       0.0016593906 0.0041806847 -0.010427739 0.025918402
0001c0 d7 c5 f9 3c 1b 68 50 bd 89 73 39 3c 44 64 e6 3c
       0.030489845 -0.050880533 0.01131905 0.028123982
0001d0 2d 41 db bc 2e 7e 1a bd 74 40 e1 bc 39 b2 7a bd
       -0.026764477 -0.03771799 -0.027496554 -0.061205123
0001e0 d6 63 e2 bc 0a dd 82 bc b6 a7 8d bc 72 f5 43 bd
       -0.027635496 -0.01597454 -0.017291885 -0.047841497
0001f0 a7 07 bd 3c 35 bc 5b 3d 9b ed f9 bc 4a 0c 17 bd
       0.023074938 0.053646285 -0.030508807 -0.036876954
000200 3f d4 58 bb b6 a6 dc bc 9e 9b 3a 3d 66 e8 55 3c
       -0.0033085493 -0.026934963 0.045558564 0.013055896
000210 76 cd 51 bd 21 fd 9f b9 20 da 21 bc e6 42 2b bd
       -0.051221333 -0.0003051544 -0.009878665 -0.041811846
000220 2d 42 28 bd 92 ab 66 bd 13 69 2f bd 9b c3 ba ba
       -0.041078735 -0.056315966 -0.042824816 -0.0014248969
000230 c7 aa 83 bd f1 33 fd 3c 1f da 0f 3d c0 bd 13 3d
       -0.064290576 0.030908557 0.035120126 0.03606963
000240 19 70 69 3d a6 27 b0 3a 2d b7 d0 3c 0b 14 2a 3c
       0.05699167 0.001343955 0.02547797 0.010380755
000250 c3 55 62 bb 2f 9d 9d 3c 83 e0 44 3d 39 8a 15 3d
       -0.0034535981 0.01923999 0.048065674 0.036508773
000260 5a 11 72 bc e4 0b 57 3d 7d 55 62 3d 7e e3 3f 3d
       -0.014774645 0.052501574 0.05525731 0.046847813
000270 b0 60 29 bd 1e 22 16 3d cc e6 17 3b 8d c4 3e bd
       -0.041351974 0.03665363 0.0023178337 -0.046574164
000280 0c 90 72 bd a4 e9 82 3c a8 e7 d5 3c 07 1a b3 3c
       -0.059219405 0.01598055 0.026111439 0.021862997
000290 57 cd 17 bd 6d 8c 82 bd f9 2f 88 3d 93 c4 d1 3b
       -0.03706106 -0.0637444 0.06649775 0.0064016073
0002a0 ea ba 01 3d f5 cf 1d bc 1d c7 43 bd c6 fd 3d 3d
       0.031672396 -0.0096321 -0.04779731 0.046384595
0002b0 0f f8 b3 3c 94 57 4d 3d 05 61 fd bc 49 08 9e b9
       0.02196887 0.05013235 -0.030930052 -0.0003014228
0002c0 b2 10 fe 3c f6 31 66 3d bb d6 c0 3c ae 0a 81 3d
       0.03101382 0.05619999 0.023539891 0.06300865
0002d0 20 0c 55 bd 58 d8 42 bd a9 4d 3c bd 14 5f 63 3d
       -0.052013516 -0.047569603 -0.0459725 0.055510595
0002e0 f8 c8 02 3d b8 d7 4e bc dd 7e 24 3d d3 64 b7 bc
       0.03192994 -0.012624674 0.04016005 -0.022386944
0002f0 67 76 6c bd f7 9a 2d bc ad 9d f0 bb d6 97 0e bd
       -0.057730105 -0.0105960285 -0.007343015 -0.03481277
000300 79 21 04 bd ef 70 57 bd 7c 41 32 bd a9 a6 e3 bc
       -0.032258485 -0.052597936 -0.043519482 -0.02778943
000310 49 36 34 3d 78 e4 55 3d 3c 20 ef 3c a3 eb 6d 3d
       0.043997083 0.052219838 0.029190175 0.05808605
000320 0d 75 50 bd 16 9d 88 3c 65 a3 4e 3d d7 d0 20 39
       -0.05089288 0.016676467 0.050448794 0.00015336588
000330 f9 74 4b bd a1 bb 84 3c 83 34 da bc 2d b0 c5 bc
       -0.0496721 0.01620275 -0.026636368 -0.024131859
000340 e5 08 20 3d eb ac a6 bc a0 64 f6 bc 3b 1f 9d bc
       0.039070982 -0.020346126 -0.030077279 -0.01917993
000350 09 f2 22 3d eb ce fa bc c4 7a 74 3d bb 6a fe 3c
       0.039781604 -0.030616244 0.05968739 0.031056752
000360 54 e3 75 3c 6f 58 26 bb f8 7c 76 bc f1 d5 13 bd
       0.0150078125 -0.00253823 -0.015044443 -0.036092702
000370 98 5f 31 bd e4 4a 69 bd 72 80 bf bc 4b 12 7d 3c
       -0.043304056 -0.056956187 -0.023376677 0.015446256
000380 9e bc 53 3d 5a e6 46 3d 02 d2 4a bc 1d 39 b1 3c
       0.05169355 0.048559524 -0.012379171 0.021633679
000390 3e 25 78 3d b2 6c 8d 3d c8 4a 5c bd 3a 56 1e bd
       0.060582392 0.069054976 -0.053782254 -0.03865645
0003a0 ca 63 8f 3c 43 ff d9 bc f4 50 c1 3b 5a ff 7b bd
       0.017503638 -0.026610976 0.005899543 -0.06152282
0003b0 a8 7e 35 bd 12 42 5f 3c 35 52 2f bd c2 37 7a bd
       -0.044310242 0.013626592 -0.042803008 -0.06108833
0003c0 26 33 67 bb 9f 19 e8 3c ca a5 1d bd 2f 95 77 bc
       -0.003527829 0.02833253 -0.038488187 -0.015111252
0003d0 9f 29 8f bd ba 6c 2d 3d 0c fb 01 3d 89 3c e6 bc
       -0.069903605 0.042340018 0.031733558 -0.028105037
0003e0 d3 f1 8e 3c 65 44 38 3c 69 2f 02 3d 1c a3 12 3d
       0.017449295 0.011246775 0.031783495 0.035800084
0003f0 74 aa 54 3d f1 1a 23 3d 3d c3 6c 3c 34 1e 26 3d
       0.05192037 0.039820615 0.014450845 0.040556148

actor.2.weight f4 [128, 256]
000000 24 b2 21 bd e3 db 1e 3e a7 0d 1c be a5 47 3c 3c
       -0.03947653 0.15513568 -0.15239583 0.011491691
000010 1f ab 5b bd 14 6c 06 be 9f ce f1 3c 96 29 ce 3d
       -0.05362999 -0.13127166 0.02951747 0.10066526
000020 4b f9 9c 3c e4 8f 1e 3e d9 56 9c bd 2d 43 ac bd
       0.01916184 0.15484577 -0.076337524 -0.0841125
000030 ed 50 52 bd b2 e8 d4 3d 7f 8a 6b 3c 98 82 77 3d
       -0.051346708 0.103959456 0.014376282 0.06042728
000040 27 3e 2e be 92 4b ac bd be d7 e1 bd 83 a8 02 3e
       -0.17015897 -0.084128514 -0.11027478 0.12759595
000050 73 7c 7d 3e 49 05 2a bc fd 6b 06 be f5 9c 8b 3d
       0.24754505 -0.010377237 -0.13127132 0.068170466
000060 e3 a7 34 be e4 b8 1c be 6e 6d 0e 3c 53 92 ef 3c
       -0.17642169 -0.15304905 0.008693082 0.029244578
000070 5e 99 8e bd 4a 17 94 3c 2d 38 08 bd 92 d6 e3 bc
       -0.06962846 0.018077511 -0.0332567 -0.027812276
000080 6d a0 ec 3c b5 c1 62 3c 2d 0a b3 3d 27 ed ab 3c
       0.02888509 0.013840129 0.08742175 0.020987106
000090 d4 4a 5a be 7a 71 b8 3b 43 7a 9a 3d 79 e0 31 bd
       -0.21317607 0.005628762 0.07542851 -0.043426964
0000a0 a0 40 c7 3d 39 4a f5 3d a8 ef 83 bd d0 cd 07 3d
       0.09729123 0.119770475 -0.06442195 0.033155262
0000b0 70 28 30 3d 03 2c 98 bd c6 05 18 3d e8 a3 ba 3c
       0.043007314 -0.074302696 0.03711488 0.022783235
0000c0 eb f7 21 3d 06 f8 36 be 98 a4 74 bc d7 3c b7 3d
       0.039543074 -0.17868051 -0.01493182 0.08947151
0000d0 9b c9 02 bd 4c b7 dc bd 82 51 0e 3d 68 10 10 bd
       -0.031930547 -0.107771486 0.0347457 -0.035171896
0000e0 64 93 1b be 17 a2 23 3d 4b ca 5e 3b b0 b6 6d bd
       -0.15192944 0.039949503 0.0033995088 -0.058035553
0000f0 b7 0a d0 bc 9a 1d 1a 3e a5 f9 b2 3d 14 d8 6b be
       -0.025395734 0.15050355 0.08739022 -0.23031646
000100 4b 5f 41 3d e0 f6 bf bd c0 df a6 3c b3 5c aa bd
       0.04721002 -0.093732595 0.020370364 -0.08318462
000110 5a 5d aa 3b 67 e6 83 bd c7 02 a2 bd 3b 8e 92 bd
       0.0051991167 -0.0644043 -0.07910686 -0.071560346
000120 15 f8 b5 bd dd 66 6c bc 24 d0 a4 bc 2f 3a ea 3d
       -0.088852085 -0.014428821 -0.02011878 0.11436879
000130 2c a1 d9 bd 59 41 69 3c fc 20 06 bd b9 b4 85 3d
       -0.10626444 0.0142367715 -0.0327463 0.06528611
000140 c3 2c 0e 3d 0d c0 07 3c 61 27 b1 3d d9 dd 40 be
       0.034710657 0.008285535 0.08650089 -0.18834628
000150 ac 4c 49 3d 3a a5 61 bc d0 67 b8 bd bb 55 79 3e
       0.049145386 -0.013772303 -0.09004176 0.2434911
000160 74 81 9c bc 79 ea 9c bd 22 50 db bb 1e 6c 93 3b
       -0.019104697 -0.076619096 -0.006692902 0.0044989726
000170 1d ad 71 3d 3a 82 ba 3c 37 c7 ad bc ba 59 33 3d
       0.059002984 0.022767175 -0.021213157 0.04378674
000180 cc 41 b9 3c e0 10 92 3b ae 1e 3b bd 9b 75 c1 3c
       0.022614382 0.004457578 -0.045683555 0.023615649
000190 4f 43 fe bd af 3f 26 3e ac e9 85 3d 5e de 21 3e
       -0.12415182 0.16235231 0.0653871 0.15807483
0001a0 7e 22 2f 3d 4f d1 17 bd 59 b7 71 3d 69 62 4d 3d
       0.042757504 -0.037064847 0.059012745 0.05014268
0001b0 e4 75 b6 bd 1c 04 8b 3c 76 e1 93 3d 69 ec b8 3c
       -0.089092046 0.016969733 0.07220738 0.022573667
0001c0 50 d5 8a bd ac 2e 43 3c aa 54 c6 bd 96 cd 0c be
       -0.067789674 0.011912983 -0.09684117 -0.137503
0001d0 fa f4 94 3d 52 4e 4b bb 5a 62 c9 bd 3b e6 71 bb
       0.07273288 -0.0031022024 -0.09833212 -0.003691091
0001e0 cd ba aa bc e9 9f 31 3e 30 56 27 3d 92 b5 c9 bd
       -0.020841027 0.17346157 0.04085368 -0.09849085
0001f0 fd 73 af bd 24 27 b1 3d a0 a6 5e 3d 24 42 c9 3d
       -0.08567045 0.086500436 0.054358125 0.098270684
000200 61 48 6d 3d 7d 99 ad 3c de 46 13 3d e9 98 8b 3d
       0.057930354 0.021191353 0.035956256 0.06816275
000210 9f 05 53 bd 0e 6b 2e 3e a5 88 6f bd 79 24 72 3c
       -0.051519033 0.17033026 -0.058479924 0.014779204
000220 87 fd b1 bc 0c 2e 0f 3e 92 5b 00 be dc 2d 35 be
       -0.021727337 0.13982409 -0.12534931 -0.17693275
000230 7b 14 b2 3d 57 85 51 3c ba b2 8f 3c 8b 2d 2e be
       0.086953126 0.012788138 0.017541278 -0.17009561
000240 45 8a bb bc 83 fe b9 bd af d5 8f 3d d1 0f 12 3d
       -0.02289308 -0.090817474 0.07023179 0.035659615
000250 5f 41 e3 3c ed 30 90 3d af 9d 76 3d 90 02 2c 3d
       0.027741132 0.07040582 0.060208973 0.04199463
000260 33 7b 9e bc a0 84 f2 3d ac d8 21 bb 8c 7c 85 3c
       -0.019345855 0.118417025 -0.0024695797 0.01629474
000270 ab fb 05 3d e7 7d d6 bd f4 dd d3 bc 4e 90 6f bd
       0.032710712 -0.10473233 -0.025862671 -0.05848723
000280 d0 b3 77 3e fc 58 2a be fe 66 7b 3c d0 c1 a1 bc
       0.24189687 -0.16635507 0.0153443795 -0.019745737
000290 0f e8 25 3d ca 02 37 be 3e 79 65 3c 4f 59 0a be
       0.04050451 -0.17872158 0.014005957 -0.13510631
0002a0 38 f0 7c 3d fe 78 08 bd 41 81 be 3c bf de 54 3d
       0.061752528 -0.033318512 0.023254992 0.05197024
0002b0 9b 98 cb bd 94 f1 4a 3d 60 a1 95 3b 5d 2d a4 3a
       -0.099412166 0.049546793 0.0045663565 0.0012525726
0002c0 98 74 74 bd c5 d6 36 3e ec a7 e7 3d 31 84 78 3c
       -0.059681505 0.17855366 0.113113254 0.015168236
0002d0 c1 69 7b bd cc 57 d2 bd ca 06 04 be 0e 18 f7 3d
       -0.06138015 -0.10270652 -0.12893215 0.12065135
0002e0 4c 7f 23 3a ae 2f 9a 3d 0e a5 b0 3a a9 c0 c6 3d
       0.0006236925 0.075286254 0.0013476925 0.09704716
0002f0 20 6f 60 bd 85 ad 21 bc 3b 31 20 3d 70 a5 0d 3e
       -0.054793477 -0.00986803 0.03910945 0.1383264
000300 6a ca 28 3d 0c ee 52 3d ad 80 33 3d d1 51 0f bb
       0.041208662 0.05149655 0.043823887 -0.0021868835
000310 05 d9 69 3c f7 33 ef bc c4 b1 be 3d 1b d3 e8 bb
       0.014272933 -0.029199583 0.0931125 -0.007105244
000320 89 4b a9 3d 1b 9a c8 3c 86 60 02 be 9d ba 39 bd
       0.0826636 0.024487546 -0.12732133 -0.045343984
000330 11 e8 17 bb 76 52 a4 bd 9d c2 81 3b 8f ea ac 3d
       -0.0023179094 -0.08023541 0.0039599673 0.08443176
000340 77 c0 b0 3d 9d 7e 98 bd 93 01 13 3b d9 ff 17 be
       0.0863046 -0.074460246 0.0022431358 -0.14843692
000350 a0 48 4a 3d e0 f1 f6 bd d7 6d 57 3d 0e 2e 07 be
       0.049385667 -0.12057853 0.052594986 -0.13201162
000360 7f 72 44 3c 7d 10 0b be 77 82 c7 3d a4 57 a0 bd
       0.011990189 -0.13580509 0.09741681 -0.07829216
000370 c1 3e 4d 3d 3b 1f 5e bd e2 ed 27 3c 48 a0 9c 3d
       0.050108675 -0.054229002 0.010249587 0.07647759
000380 5f 45 a6 3d 72 74 b0 bd d6 ad b9 3d 96 cc 57 bd
       0.081187 -0.0861596 0.0906636 -0.052685343
000390 af 07 af 3d 14 60 b9 bd 94 b1 24 3e cf e6 07 be
       0.085463874 -0.090515286 0.16083366 -0.1327164
0003a0 0c 95 36 3c 81 6f 9f 3c 5c fa c4 bd e8 a5 61 3c
       0.011143934 0.019462349 -0.09618065 0.013772465
0003b0 b4 45 cb bd 15 62 30 3d 6b 57 42 bd ec 92 3c bd
       -0.09925404 0.04306229 -0.04744665 -0.046038553
0003c0 49 46 b6 3d 1b 14 89 bb c8 a6 29 3c 62 96 2b be
       0.089001246 -0.004183305 0.010354705 -0.16756585
0003d0 fe 6d 1c 3d 1e f7 51 3e f4 98 d9 bd 62 9a 07 be
       0.038190834 0.20504424 -0.106248766 -0.13242486
0003e0 e5 40 08 3e d1 e1 75 3c f5 31 12 3c c8 d3 e2 bd
       0.13306005 0.015007452 0.0089230435 -0.1107555
0003f0 23 4f f3 bd 0d 35 3e bd f7 14 e6 3d 4d a9 70 bd
       -0.118803285 -0.046437312 0.112344675 -0.058755208

actor.2.bias f4 [128]
000000 1d 3b bf bc 12 1a f4 3c 7c e4 22 bd 76 f6 09 bd
       -0.023343617 0.029797588 -0.03976868 -0.03368231
000010 2e 9b d0 bc 8e 57 f5 3c e2 5c 96 ba 8f ee 62 bc
       -0.02546462 0.029948976 -0.0011471773 -0.013850822
000020 11 c0 0f 3c c5 fc 22 3d d1 f9 e6 ba d6 f1 68 3d
       0.00877382 0.03979184 -0.0017622059 0.056871258
000030 08 84 80 bd 00 f9 87 bd 0f ff 38 bc 57 30 3e bd
       -0.06275183 -0.0663929 -0.011291279 -0.04643282
000040 d8 75 1d 3c 24 ee 45 bd fc a4 90 bc a7 a2 35 3b
       0.009610616 -0.04832281 -0.017656796 0.0027715357
000050 a0 c9 ef 3c 2e 64 46 bd e8 f5 75 bd c7 20 5b 3d
       0.029270947 -0.048435383 -0.060048968 0.053498056
000060 81 7b 1f bd 87 d1 23 bd b6 b8 59 bc 65 68 21 3d
       -0.038936142 -0.039994743 -0.013288667 0.0394062
000070 3a a1 eb bc 74 a9 5b bc fa 22 35 3d a2 68 24 3d
       -0.028763402 -0.0134071 0.04422281 0.040138848
000080 72 62 0a bc 78 c6 68 bd 53 dc 0b 3d 8d 68 0a bc
       -0.008446323 -0.0568299 0.034145664 -0.008447778
000090 27 f6 3e bb d3 f4 35 3d 76 d0 3c bb 66 d0 5c bd
       -0.0029138417 0.044422936 -0.0028810776 -0.05390968
0000a0 84 96 26 3c 93 c9 6b 3c 76 7c 0d bd 5b af 44 bb
       0.010167722 0.014391321 -0.034542523 -0.0030011747
0000b0 02 58 20 3c 81 fc 28 bd ed 09 90 3c 7a 06 51 bd
       0.009786608 -0.04125643 0.017582858 -0.051031567
0000c0 c6 80 5f bc f2 e8 44 3d db 99 65 bd 7c 3b 00 bc
       -0.013641542 0.048073716 -0.05605493 -0.007826682
0000d0 f5 c7 bd bc 0b d0 e8 bc ea 67 f0 3c 0f b9 3f 3d
       -0.023166636 -0.028419515 0.029346425 0.046807345
0000e0 57 3f 09 bd 11 ac 45 3d 4e 23 d8 bc 90 57 04 bc
       -0.03350767 0.0482598 -0.026384022 -0.008077517
0000f0 ac c7 0f 3d de cc 88 3a 30 ac 14 3d 34 9e 9a 3c
       0.03510253 0.0010437032 0.036297023 0.018874265
000100 cd 7d 98 3c e2 09 15 3d 50 40 d2 bb d5 56 8e 3b
       0.018614674 0.036386378 -0.006416358 0.0043438473
000110 7e 47 09 3d 33 ef 10 bc 3a 52 30 3d ab 2e c4 bc
       0.033515446 -0.008846092 0.043047167 -0.023948034
000120 45 3b 87 3c 60 54 04 bd 8c e6 67 bd 46 69 1d 3d
       0.016507754 -0.03230703 -0.05661635 0.038430475
000130 8d e0 95 bc 41 ad 1e 3d 67 b5 91 bc 9b f6 5b bc
       -0.01829555 0.038739447 -0.017786695 -0.013425495
000140 09 3a 12 bc cc 5d 6b bd f3 3f 14 3d d6 ef cf 39
       -0.0089249695 -0.0574625 0.0361938 0.00039660808
000150 0f 5c 33 bd b3 34 6d 3d f9 dd 5d 3d 17 08 3d bd
       -0.043788966 0.057911586 0.054166768 -0.046150293
000160 31 e9 53 3d e9 18 48 bd 0c fb 59 bd 77 33 c6 bc
       0.05173606 -0.04885188 -0.053217933 -0.024194462
000170 0e c4 5b bd 02 bd f5 bc 55 76 fd 3c b4 46 74 3c
       -0.05365377 -0.029997353 0.030940214 0.014909435
000180 68 f2 34 bd 48 f4 8f 3b 25 9b 9b 3b 89 9d b1 3b
       -0.04417649 0.0043931343 0.0047487193 0.005420391
000190 36 2f d8 3c f1 4d 40 3c da 5e 63 bd 8e 66 7d bd
       0.0263897 0.011737333 -0.05551038 -0.061865382
0001a0 9c 67 5d bd 55 3f 9f bc 37 eb 7a 3d 77 bb b5 3b
       -0.054053888 -0.019439379 0.061259475 0.005546029
0001b0 00 62 f2 bc 9d c5 71 bd 94 be cc 3c 9d 56 8a bc
       -0.029587746 -0.05902635 0.024993218 -0.016887004
0001c0 ee aa 36 bd 22 22 2e bd 78 d6 0e 3d ac 21 2b 3d
       -0.044596605 -0.04251302 0.034872502 0.04178016
0001d0 a3 4d 8c bc 38 9b 2d 3c fe 2f 88 3d cf d8 60 bd
       -0.017126864 0.010596089 0.06649779 -0.054894265
0001e0 be c4 30 bd 4b 03 8d bc b5 f0 a4 bc 45 65 67 bd
       -0.043156378 -0.017213484 -0.02013431 -0.056493063
0001f0 65 8f 4f bd d4 e6 94 bc db b2 34 3c d3 af b1 3c
       -0.05067386 -0.018176474 0.011028971 0.021690285

actor.4.weight f4 [64, 128]
000000 fb 28 9c bd c2 3c 12 bc 2a 28 e9 3d ae c2 e3 bd
       -0.07625004 -0.008925619 0.11384614 -0.111211166
000010 09 9b e2 bd 44 87 05 bc bf 14 9f 3d 37 fd 8b be
       -0.11064727 -0.008149926 0.07767629 -0.27341625
000020 f7 a5 2b 3d e6 7f 80 be 51 32 06 3e bb 53 2b 3e
       0.041906323 -0.2509758 0.13105132 0.1673116
000030 06 63 c6 bd 13 03 1e 3d 46 d8 25 3d a5 c8 c7 bd
       -0.09686856 0.03857715 0.040489458 -0.09755067
000040 ad 45 15 3e 19 1f 6d bd ef 28 41 3e 54 ae a9 bd
       0.1457736 -0.057890985 0.18863271 -0.082852036
000050 ce ec 5e bd fc 6f 25 3c 19 c5 03 3e 3a 30 8d bc
       -0.054425053 0.0100975 0.12868156 -0.01723491
000060 61 2b e4 bd b6 ee 1e 3d f1 ac 98 3d 1f bc 50 be
       -0.11141086 0.03880187 0.07454861 -0.20384263
000070 78 07 17 3d 4d bd 25 bd 37 9d a0 3c e4 62 f9 3d
       0.036872357 -0.040463734 0.019606216 0.12177065
000080 00 7f a4 bc f5 8a 98 3e 24 0b 2f bd 7f f1 2f 3d
       -0.02008009 0.29793516 -0.042735234 0.042954918
000090 f5 f2 bd 3c be c5 9d 3c 34 19 87 bc 00 e5 b0 bd
       0.02318714 0.01925933 -0.01649151 -0.08637428
0000a0 7f 44 d3 bc 31 0c c4 bc f9 37 4f be 65 8b 4e be
       -0.025789497 -0.023931595 -0.20236196 -0.20170362
0000b0 62 bb e0 3a 26 97 a0 3d ef 55 42 3d f7 79 a6 bd
       0.0017145688 0.07841329 0.047445234 -0.08128732
0000c0 13 31 7e bd 01 02 88 3d ea 53 cc 3d a4 20 9e 3d
       -0.06205852 0.06641007 0.09976943 0.077210695
0000d0 18 58 9f 3e ac a0 ed bd a0 2d 84 ba 18 c2 95 bc
       0.31121898 -0.11602911 -0.0010084398 -0.018281028
0000e0 ea ca 17 3e a5 2f 8c be 65 3e 0d 3d a1 80 90 bd
       0.148235 -0.273801 0.034483332 -0.07055784
0000f0 e0 8e c3 bc 23 be 82 ba ba 4b 42 3e f9 a2 ec 3d
       -0.023871839 -0.0009974878 0.189742 0.11554522
000100 30 cf 91 3e 97 d4 ca 3c 8d 84 b7 be 07 b4 c2 3d
       0.28478384 0.024759574 -0.35843316 0.09506994
000110 a1 a8 c2 bd 0c 85 ab bd 67 8a 8d bd db 23 11 3e
       -0.0950482 -0.08374986 -0.06911164 0.14173834
000120 15 a2 6c 3e b4 4c a5 3e f7 89 5b 3e 75 12 15 3d
       0.23108704 0.32285082 0.21439348 0.036394555
000130 0f a2 e9 bd 62 ba 9d 3c ae b4 23 3e 46 39 08 be
       -0.11407863 0.019253913 0.15986893 -0.13303098
000140 23 57 e5 bd 28 c0 85 3c af fa c5 3d 28 eb 8a bb
       -0.11198261 0.016326979 0.09666955 -0.0042394586
000150 25 32 74 be e1 22 ea bd ad 02 ae bd 11 fb ce bd
       -0.23847254 -0.11432434 -0.08496604 -0.10106481
000160 2e cf 1a 3e 86 38 66 be d4 b1 2a bd 4c fc d2 bd
       0.15118095 -0.224825 -0.041673496 -0.10302028
000170 84 df da bb fa 81 84 3d 78 4c 4e 3d 48 61 cc bb
       -0.006679477 0.064701036 0.050365895 -0.0062371828
000180 de dc ee 3c 10 8c b6 bd 6e 01 32 3d 85 6b a1 bd
       0.029158052 -0.089134336 0.043458395 -0.07881836
000190 3a 25 17 3c c1 28 7f bd d0 9f 1f bc be e5 81 3d
       0.009225184 -0.062294725 -0.009742692 0.06342648
0001a0 47 d8 8b bd 74 34 a5 bd 5b e7 6a bd 17 68 3e bd
       -0.06828361 -0.08066645 -0.057349544 -0.046485987
0001b0 95 64 30 3d 20 9e 10 3e 1b c6 08 3e 6c 4c e9 3d
       0.043064672 0.1412282 0.13356821 0.113915294
0001c0 2a 6a 0b 3e 97 59 c9 3d 11 ef 53 be ca 3d b3 3d
       0.13614717 0.09831541 -0.20696665 0.0875202
0001d0 80 49 56 3d 8b 31 23 bd 60 cb 04 be 97 4e 10 be
       0.05231619 -0.03984217 -0.12968206 -0.1409248
0001e0 8e 87 67 be 40 76 27 3e 2f ad ee bd 1c 87 e8 3b
       -0.22610304 0.16353703 -0.11654126 0.0070961844
0001f0 60 6f 1f 3e ee 93 27 3e 8c 34 00 bd c3 72 82 3d
       0.1556983 0.16365024 -0.031300113 0.06369545
000200 ff ab 2a 3d 3d 0c 39 bd 4a 65 22 3e 2e 8e 83 3d
       0.041667935 -0.045177687 0.15858951 0.06423603
000210 83 08 ec 3c e5 95 3f be b3 7d 39 be 0d 6a de bd
       0.028812652 -0.18709524 -0.18114357 -0.10860071
000220 67 dd 36 3e 48 7b c8 3d bd 80 f2 3d 83 4b f0 bd
       0.17857896 0.09789139 0.11840961 -0.11733153
000230 94 3a 19 3e 8c de 3b 3e fd 40 c5 bd 6c 13 c3 bd
       0.14963752 0.18346614 -0.09631536 -0.09525189
000240 79 6a a9 3e 0b 96 37 3e b1 5a c5 3d 0c 2b 40 be
       0.33089045 0.1792833 0.09636439 -0.18766421
000250 05 1c 1b bd af d4 77 3d 0d b1 b0 bd 6c 18 98 be
       -0.03786852 0.060505565 -0.0862752 -0.29706132
000260 e8 26 ac 3c 73 78 1b 3c df 44 f8 bb b4 3a 27 3c
       0.021014646 0.009489167 -0.0075765694 0.010206867
000270 ce d0 c1 3d b4 66 b1 3d 51 f6 3a be 46 62 4d bc
       0.094636545 0.08662167 -0.18258025 -0.012535637
000280 06 b2 9c 3d 3d 5d 26 3e a7 eb 83 3d 4b c0 12 3e
       0.07651143 0.16246505 0.064414315 0.14331166
000290 18 72 8e 3d 20 0e 28 3d 94 6c 12 3e d5 b3 32 3e
       0.069553554 0.041029096 0.14299232 0.17451413
0002a0 f6 50 13 be 3a 72 48 be 64 19 94 3c 4f 9b 07 3e
       -0.14386353 -0.19574824 0.018078513 0.1324284
0002b0 19 7e 64 3e 21 0f 90 bc 78 75 c7 bd 72 8c d8 3c
       0.22313727 -0.017585339 -0.09739202 0.026434157
0002c0 16 be 28 3e 53 06 e9 3d 4b f4 8c bd a8 76 07 be
       0.16478762 0.113781594 -0.06882533 -0.13228858
0002d0 95 63 23 3c 70 00 48 be b8 32 2f bd a9 da 5f 3d
       0.009972473 -0.19531417 -0.04277298 0.05465189
0002e0 a3 6c f9 bc 2f f2 6e 3d 9e e1 bb bd 85 02 3c 3e
       -0.03044731 0.058336433 -0.091738924 0.18360336
0002f0 18 80 bc 3c ff 12 23 be 24 16 7e be e4 2c f3 bc
       0.023010299 -0.15925215 -0.24813133 -0.029684491
000300 d8 06 55 bc 9b 97 a1 bd a1 8a 42 3e b1 1c 18 bc
       -0.01300212 -0.078902446 0.18998195 -0.009284184
000310 f5 e3 f8 bc c3 d9 31 be 2b fa fb bd 99 51 05 3e
       -0.030382136 -0.17368226 -0.12303575 0.13019408
000320 64 2b d3 bd df 2d 0f 3e be f4 21 be 9c ac 8c be
       -0.103110105 0.13982342 -0.15816018 -0.2747544
000330 75 0e a9 3d 5e da b2 bd cb 17 f3 3d 99 b2 05 3d
       0.082547106 -0.087330565 0.118697725 0.032641027
000340 3e e6 86 bd dc 4b 4c be 37 11 04 3d db 48 6c 3d
       -0.06586884 -0.19950813 0.03224298 0.057686668
000350 6d 46 4d bd ca 1a 62 be d0 ce 63 bd aa fe 98 3e
       -0.05011599 -0.22080532 -0.055617154 0.29881793
000360 89 e1 d1 3d f2 d0 ba bc 13 55 31 bd ad a5 4e bd
       0.102480955 -0.022804711 -0.043294024 -0.05045097
000370 14 c8 25 bd 88 31 5c bc 8f 6b c8 bd 4d f0 10 3d
       -0.040474012 -0.013439544 -0.0978614 0.03538542
000380 cb 55 e3 3c 3f 8f c3 3d ee 79 20 3d 93 b6 1f be
       0.02775087 0.095488064 0.03917878 -0.1559699
000390 85 b4 17 bd 4b 1a 5b be 8a 31 b9 3d 34 13 53 3e
       -0.03703739 -0.21396749 0.09042652 0.20612794
0003a0 f8 94 3c be 2b 88 d1 3d 51 f7 a0 bd c7 7a cb bd
       -0.18416202 0.1023105 -0.07859672 -0.09935527
0003b0 6b 13 d9 3d 40 bb f2 bd 3b c4 f4 ba 3a 9b b0 3d
       0.10599407 -0.11852121 -0.0018674204 0.08623357
0003c0 4a 67 21 3d 04 10 de 3d 40 bb 90 3d 5b 71 0d 3e
       0.039405145 0.108428985 0.07066965 0.13812773
0003d0 cd c4 0f be aa 89 87 bd 65 2c c1 bd 71 4b 1e bd
       -0.14039917 -0.06618054 -0.09432296 -0.038646165
0003e0 f2 68 29 bd ad 1c 0f be 13 4d 7e bd 45 fc 33 3e
       -0.04135985 -0.13975783 -0.062085222 0.17576702
0003f0 dd 27 83 3b 24 bc 2b be 84 9b 50 be a0 06 3e 3d
       0.004002555 -0.16770989 -0.20371825 0.046393037

actor.4.bias f4 [64]
000000 bf d9 e7 ba 3c 6f 8a bb 79 6e 57 bd 9e 88 96 ba
       -0.0017688795 -0.004224686 -0.05259559 -0.0011484807
000010 4c a8 b2 bd 91 0e 24 3d f6 5a 10 3d 45 27 95 3d
       -0.08723506 0.040052954 0.035242997 0.07282881
000020 c3 0c a1 bd 66 c9 15 3d bc 08 a7 3c bc 54 ec bc
       -0.07863762 0.03656902 0.020389907 -0.028848998
000030 01 a5 55 3d b7 fa ba 3c b5 4a 32 bb 3b a8 1b 3d
       0.052159313 0.022824628 -0.0027205173 0.038002234
000040 d1 cc 32 3d 2b 52 32 bc 21 e8 a1 3c 95 62 87 bd
       0.04365236 -0.010883848 0.019764008 -0.066106
000050 33 01 17 3d 3f 6c a5 bd 81 dc 58 bc 01 7c 03 bc
       0.036866378 -0.08077287 -0.013236166 -0.00802517
000060 c1 c5 9b 3d b2 ab 96 3d de 87 74 3d 15 76 05 3b
       0.07606078 0.07356967 0.059699886 0.0020364572
000070 42 50 9f 3d d3 03 8c 3d 42 eb 66 bd bf be b9 bd
       0.0777898 0.06836667 -0.056376703 -0.09069585
000080 05 ef 97 bd 3c 02 75 3d 2a 45 49 bd 75 63 d8 ba
       -0.07418636 0.059816584 -0.049138226 -0.0016509133
000090 e1 ec 75 3d 76 24 97 b9 a1 f6 7d 3c 3f c3 75 3d
       0.06004036 -0.0002882813 0.015500695 0.060000654
0000a0 03 b6 90 bc 6b ee f0 bc 0c 95 8f bd 14 d3 1c bd
       -0.017664915 -0.029410562 -0.0701085 -0.038287237
0000b0 fe 3a d2 bc 27 dc e8 bc fa b7 78 3d 79 aa b4 bd
       -0.025662895 -0.02842529 0.06072233 -0.088215776
0000c0 e0 51 4a bc 63 40 15 bd c4 ee 01 3d 53 4c 9c 3d
       -0.012348622 -0.036438357 0.031721845 0.07631745
0000d0 73 d1 74 bc 74 bd a9 bd 1e 49 7c 3d 20 da 1f 3d
       -0.014942515 -0.082880884 0.061593167 0.03902638
0000e0 71 d1 55 3d 45 85 23 bd ad 45 f1 39 29 21 80 bd
       0.052201692 -0.039922018 0.00046019015 -0.06256325
0000f0 75 16 86 bd ce bc 85 3d 91 af 3a 3d b5 11 92 bd
       -0.06547252 0.06530152 0.04557759 -0.071322836

actor.6.weight f4 [3, 64]
000000 21 03 dc 3b 13 ed bf 3a 47 d9 94 bb e6 e9 7a 3b
       0.00671424 0.0014642797 -0.004542503 0.0038286387
000010 e2 aa 69 3b 1b 08 cb 3b 76 47 53 3b 7b 6b d3 bb
       0.0035654833 0.0061960346 0.003223864 -0.0064520217
000020 28 f1 8a ba 89 d8 41 38 bc 9f 8e bb f8 ce ad 3a
       -0.0010600435 4.621645e-05 -0.004352538 0.0013260534
000030 23 a5 7d 3b 17 4c 92 3d f9 06 c1 3b 90 43 34 bc
       0.0038703165 0.07143419 0.005890724 -0.011002436
000040 d3 9f 3f bb 08 5e f2 3a dc ee ac 3b 74 aa e1 bb
       -0.002923955 0.0018491158 0.0052774977 -0.0068867747
000050 fe 03 5d 3b ef 03 c0 3b f2 2a 97 3b 32 e8 96 3b
       0.0033724303 0.005859844 0.004613274 0.0046053166
000060 86 02 e1 3b 66 30 5f 3b a9 75 af 3b 8b ee 8e 3b
       0.006866756 0.0034055947 0.0053546024 0.0043619326
000070 86 7a bb bb bc ff 02 bc 57 5a ce 3b 07 ea 6b 3b
       -0.005721393 -0.007995542 0.0062973904 0.0035997645
000080 2e 28 82 3b d3 21 34 3c c3 a5 99 3b a9 00 53 b9
       0.003972075 0.010994392 0.00468895 -0.00020122774
000090 5e fb 15 3b 7a 50 e4 3a ae ef 5c bc 99 a2 95 3b
       0.0022885422 0.0017419003 -0.013484878 0.0045665023
0000a0 d1 0e de 3a c6 f0 7d 3a 98 d3 82 3c 0a 92 c1 3b
       0.0016941671 0.0009687062 0.015970036 0.005907302
0000b0 8b 32 86 3b 13 ac 0a bc fa 50 b0 3b dd 3c 2d 3c
       0.0040953807 -0.008463877 0.005380747 0.010573593
0000c0 7c 6a ac ba 91 1c a5 3b eb 88 4b 3b 14 aa a4 3b
       -0.0013154293 0.005038806 0.0031056951 0.0050251577
0000d0 52 0a cd bb c4 62 3c bc 29 ae e6 3b a7 9d d5 3a
       -0.006257334 -0.011498157 0.0070398045 0.0016297594
0000e0 fd db 84 3b 85 61 0b bc f5 03 d6 bb 98 ec 9f 3b
       0.004054545 -0.008507137 -0.0065312334 0.004880499
0000f0 81 fa 8e 3b 50 16 bf 3b ff cf 6d bb 60 5a c4 3b
       0.0043633585 0.0058315173 -0.0036287305 0.005992219
000100 73 62 a6 3b 5b d7 fd 3b 1a dc 46 bc 21 a2 25 3c
       0.005077654 0.0077466196 -0.012137437 0.010109455
000110 02 a3 1a 3c 87 b5 3a 3c 74 0d c2 3b 9c 6f 58 bc
       0.009438278 0.011395819 0.005922014 -0.0132102035
000120 7e e8 f5 3b 43 43 3e 3c 88 a3 37 bc dc 9b d9 3b
       0.007504522 0.011612716 -0.0112084225 0.0066408943
000130 f5 52 d0 3b 50 fd c6 3c 0d 06 20 3c af b0 01 bc
       0.0063575455 0.02429071 0.009767068 -0.00791566
000140 a9 da 64 bc 3b 45 1e 3c d1 d1 0a 3c 25 66 d0 b8
       -0.013968148 0.0096600605 0.008472876 -9.937239e-05
000150 c4 11 0a 3c 3f 02 1d 3c 42 36 ca 3b 4a dd 19 3c
       0.008427087 0.009583055 0.006171019 0.009391138
000160 55 eb 6e 3c d4 71 f8 3b ef 1a 4d 3c 9a 10 0f 3c
       0.014582475 0.0075819287 0.0125186285 0.008731985
000170 42 11 50 bc 62 88 48 bc f7 b2 41 3c 61 99 21 3c
       -0.012699427 -0.012239547 0.011822454 0.009863229
000180 6c 85 11 3c 35 64 85 3b fd 6a bb 3b 2b 38 9f ba
       0.008881908 0.0040707835 0.005719541 -0.0012147477
000190 ba 42 1d 3c a4 30 0d 3c a3 a9 fc bb f5 d5 90 3b
       0.009598428 0.008617554 -0.007710652 0.004420037
0001a0 27 d2 0c 3c ce c4 27 3c 27 bd 18 3c d1 7f 4c 3c
       0.008595026 0.010239793 0.009322441 0.012481646
0001b0 84 a4 4f 3c b7 5a 21 bc f1 85 60 3c c3 d9 61 3c
       0.012673501 -0.009848288 0.013703809 0.013784829
0001c0 ab c2 09 3c e7 2c 0c 3c f4 b1 13 3c 9b cb 0e 3c
       0.008408229 0.008555627 0.009014595 0.0087155355
0001d0 2f 21 2e bc 42 74 24 bc 71 f5 14 3c ff 96 fa 3b
       -0.010628029 -0.010037484 0.009091721 0.0076473947
0001e0 3c 46 f8 3b 3a b9 3d bc 86 09 52 bc 96 60 e8 3b
       0.007576732 -0.011579806 -0.012819653 0.007091592
0001f0 17 54 0c 3c ea 10 12 3c 60 ec 8f bc 27 00 1a 3c
       0.00856497 0.008915165 -0.017568767 0.00939945
000200 02 94 0a 3d b8 97 09 3d 29 e2 f3 bc 64 c1 ff 3c
       0.033832557 0.033591956 -0.029770928 0.031220146
000210 0f 86 d4 3c 6b 65 fc 3c df 4c 00 3d cd 7a f6 bc
       0.02594283 0.030810079 0.03132331 -0.030087853
000220 45 d5 03 3d c4 55 f9 3c a9 b7 45 bd 48 75 fe 3c
       0.03218581 0.030436404 -0.048270855 0.031061783
000230 d0 cc 10 3d b5 c8 13 be 28 bf 12 3d 4d ac 85 ba
       0.035351574 -0.14432032 0.035826832 -0.0010198444
000240 bd 19 9b bd 35 36 db 3c 74 cf fb 3c a8 41 fb ba
       -0.075732686 0.026759246 0.03073857 -0.0019169347
000250 a8 6b e6 3c 3a 45 43 3d 98 fc fa 3c c5 29 06 3d
       0.028127506 0.04767344 0.030638024 0.03275468
000260 af 4d 04 3d 44 4a ea 3c 62 9b 11 3d cd 9d d0 3c
       0.032300647 0.028599866 0.035548575 0.02546587
000270 58 ca 18 bd b1 17 2c bc 9e fa 02 3d ca 9a 31 3d
       -0.037302345 -0.010503695 0.03197729 0.04336051
000280 c1 aa d7 3c 8e 13 59 3c b1 7d 00 3d 0f f0 2b bb
       0.026326539 0.013249291 0.03136987 -0.0026235615
000290 a7 bf d6 3c a4 eb f9 3c 64 54 af 3b 35 dd f2 3c
       0.026214434 0.03050787 0.0053506363 0.029646495
0002a0 2d 93 d4 3c 04 66 02 3d 2d c8 2f 3d d0 87 65 3c
       0.025949085 0.03183557 0.042915512 0.014009431
0002b0 72 2b 09 3d 7e 74 44 bc 36 ed 05 3d 7a c0 13 3d
       0.0334887 -0.0119906645 0.032696925 0.03607223
0002c0 79 ee e6 3c c2 48 f3 3c eb c3 e8 3c 28 3a d8 3c
       0.028189884 0.02969778 0.028413733 0.026394919
0002d0 3d 8d 10 bd 59 71 10 3d 4d ed 0c 3d a5 6d f7 3c
       -0.035290945 0.035264347 0.034405995 0.03020365
0002e0 b6 1b c2 3c cc c0 9f bc 6f ff a2 bc df b6 ed 3c
       0.023694854 -0.019501112 -0.01989719 0.029017864
0002f0 f9 f3 06 3d 82 01 9b 3c 71 29 27 bd 6b 9c 0a 3d
       0.032947514 0.018921617 -0.040811006 0.033840578

actor.6.bias f4 [3]
000000 77 78 f6 bc 63 70 59 3d 02 ee 73 3d
       -0.030086739 0.053085696 0.059553154

critic.0.weight f4 [256, 259]
000000 66 5d f2 3d a6 60 0b 3c 91 a9 48 be 7f 87 39 bc
       0.118342206 0.0085069295 -0.19595934 -0.011323809
000010 33 7b 39 bf 96 ca c1 bd 9f 56 91 3d e6 df 5a bd
       -0.7245361 -0.09462468 0.070966 -0.053436182
000020 d3 97 12 3d b1 fc 4b 3b 20 63 2d 3d e8 69 a2 bd
       0.035789322 0.0031125958 0.04233086 -0.07930356
000030 58 a5 b2 3d 26 c4 0f 3e 1e 0c fc 3d c1 91 f7 bb
       0.08722943 0.14039668 0.12306999 -0.007555217
000040 30 41 10 3e 1e 1e 9d bd c1 3f d6 bd 71 5b 99 bd
       0.14087367 -0.0767176 -0.10461379 -0.07488144
000050 8b 9d d6 3d 2f b8 5b be f3 54 07 c0 b4 e6 f2 3d
       0.10479268 -0.21456979 -2.11456 0.118604094
000060 58 45 e8 bd fe 94 8b 3d ce c5 95 be 37 d4 70 bd
       -0.11341351 0.068155274 -0.29252476 -0.058796134
000070 6f 8a 68 bd ff d6 51 3f ad d7 da 3d bd 02 81 3d
       -0.056772646 0.81968683 0.10685668 0.062993504
000080 1f 0b 8e 3b b4 5a fa 3d ba 78 e6 bd 82 eb 28 bd
       0.004334822 0.122243315 -0.112534955 -0.041240223
000090 a1 67 72 3b ef 64 99 bd 47 bb 96 bd b0 c5 52 3d
       0.0036988037 -0.07489955 -0.07359939 0.05145806
0000a0 27 ef 38 3d 0d 7f 6d bc 5e 2e 10 bd 65 fc c4 3d
       0.04514995 -0.014495623 -0.03520047 0.09618453
0000b0 81 aa 4f bc a8 4e 8a 3d 9b 72 b6 be 69 54 17 3e
       -0.012674929 0.06753284 -0.35634312 0.14778294
0000c0 e7 72 29 be 30 03 1b 3e d5 0c 36 bd 56 4c ca 3c
       -0.16547738 0.15137935 -0.04444583 0.024694603
0000d0 aa 7d 53 3d a8 91 56 bf c9 54 3f 3c 73 ec 82 3d
       0.051633514 -0.83816004 0.011677929 0.06392755
0000e0 ee d6 34 bd 21 61 40 3a b4 15 c5 3d e5 bb 1f bb
       -0.044150285 0.0007338692 0.0962328 -0.0024373468
0000f0 b1 95 99 3d 2a 71 84 3c ec b9 9b bb 78 0a 83 3b
       0.074992545 0.016167242 -0.004752388 0.0039990507
000100 db 58 3c bd ec 2c bf bc bd 29 00 3e 5e 6c 5b 3d
       -0.045983177 -0.02333685 0.12515922 0.053570144
000110 f1 ab 2b bd 0e 70 e8 3d 17 00 ce bd 94 4c 97 3d
       -0.041912023 0.11349498 -0.10058611 0.07387653
000120 76 f2 18 be 65 23 88 bd 00 fb d0 3d 5f aa 2b be
       -0.14936242 -0.06647376 0.102041245 -0.1676421
000130 37 1a 81 3d 14 b2 ee bc 5c 0e 9d 3d 9a 2c 8a 3e
       0.06303828 -0.029137649 0.076687545 0.26987153
000140 33 7f 0b bc d3 5f c6 be 78 71 85 3d dd 6e 0c bd
       -0.008514213 -0.38744983 0.06515783 -0.034285415
000150 d0 23 ea 3d 2a 94 f3 be 2f 36 b4 be 20 dd 03 be
       0.11432612 -0.47573978 -0.3519759 -0.12877321
000160 f9 d6 e8 bc 6f e4 47 bd 4a 9f 25 3e bf bf e2 3d
       -0.02842282 -0.048801836 0.16174045 0.11071729
000170 66 a2 3d 3d 38 55 c0 bd fc 9a b0 bd 93 95 07 3d
       0.046297453 -0.09391254 -0.08623311 0.03310163
000180 a4 2f 4e 3a 17 43 0a bd 6c 6a 2d 3d 4d 13 9a 3d
       0.00078653754 -0.033755388 0.04233782 0.075232126
000190 4b ff 64 bd b7 94 c8 bd ff 3d dc bc ee 2b 2f 3d
       -0.05590753 -0.0979399 -0.02688503 0.042766504
0001a0 41 a9 e8 3c 62 0b aa 3d 6f 20 38 be e2 cb 94 3d
       0.028401019 0.08302952 -0.17981122 0.0726545
0001b0 73 3c ce 3d 04 6f 64 3c 42 35 9d 3d 58 6e 0f be
       0.100701235 0.013942484 0.07676174 -0.14006937
0001c0 6c d1 31 bd 0d c3 0a bd dd ce 82 bd 09 59 d1 bb
       -0.04341261 -0.03387742 -0.06387112 -0.0063887876
0001d0 a5 26 b2 bb 1e c8 9f bd 7f c7 ff 3c d1 fa 9b bd
       -0.0054367357 -0.07801841 0.031223057 -0.07616199
0001e0 84 85 4a bc 76 cc 10 bd c9 5c 16 3d 5e 53 bb 3d
       -0.012360934 -0.03535124 0.03670958 0.091467604
0001f0 bd db 44 3d 8d f1 51 3e 6a 7e d6 bc 1e 09 53 3d
       0.04806112 0.205023 -0.026183326 0.051522367
000200 ae 83 ed be 1b 69 96 3d 87 f3 90 3d d9 43 8c bb
       -0.46389526 0.07344266 0.07077699 -0.004280549
000210 fa c6 91 3d 1d d3 ca bc e5 0b 9d 3c d2 4b 7f 3d
       0.0711803 -0.02475887 0.01917071 0.062328167
000220 86 e9 28 be 9d ab ea bd 52 82 8b 3c 9e e8 86 be
       -0.16495332 -0.11458514 0.017029915 -0.26349348
000230 e2 89 09 3e 40 32 c1 3d 25 cb 66 bd 10 48 ea 3d
       0.13431504 0.094334126 -0.056346077 0.11439526
000240 88 0f b0 bd c1 fc b6 bd 1f ff 5a 3d 46 4d 85 bc
       -0.08596712 -0.08934928 0.05346596 -0.016272198
000250 fe ca 32 3e 28 53 69 3d 06 6c a6 bd c0 5e 32 3d
       0.17460248 0.05696407 -0.081260726 0.043547392
000260 cd 71 61 bb 8d 78 5d be 3e 4f ba bc 6e fc ad 3d
       -0.0034400106 -0.21628018 -0.022742864 0.08495413
000270 e4 38 e4 bc ae 46 2b be c9 24 12 3e 0a 93 16 bc
       -0.027859159 -0.16726181 0.14271845 -0.00919033
000280 40 4e 1e be 7d 91 bf bd f0 ad 7e bc c8 16 d9 bc
       -0.15459538 -0.093539216 -0.0155444 -0.02650012
000290 29 c4 30 3c 73 8c 95 bb 15 d2 87 bd f5 b3 a5 3d
       0.010788956 -0.004563862 -0.06631867 0.08090965
0002a0 e7 e0 15 bd eb 87 40 3d bb 11 17 bd 20 6e aa 3d
       -0.036591437 0.04700462 -0.036882143 0.08321786
0002b0 90 18 36 3e 4c f3 da 3c 20 0e 60 bd 54 16 d9 3d
       0.17782807 0.026727341 -0.05470097 0.10599962
0002c0 6c 86 19 be 44 36 4d 3d 45 90 de bd 88 61 fb 3b
       -0.14992684 0.05010058 -0.10867361 0.0076715387
0002d0 58 fd d0 b9 4f 1b 00 3e f1 34 19 bd 5a ef 03 bd
       -0.00039861607 0.12510417 -0.037404004 -0.032210685
0002e0 2f 23 19 3d fc df 3d 3e f3 65 8e 3e f5 d0 22 bc
       0.03738707 0.18542475 0.27812156 -0.009937515
0002f0 e4 5f 27 bd c9 c7 44 3d 46 f9 ad bd 36 68 87 bd
       -0.040862933 0.048042092 -0.08494811 -0.066116735
000300 58 d7 41 3e d9 ec 10 bc 13 06 3d bd e4 ec 95 bd
       0.18929803 -0.008845531 -0.04614837 -0.07320574
000310 fb f8 da 3d 15 14 73 bc 74 9a aa bd e0 89 92 3c
       0.106920205 -0.014836331 -0.08330241 0.01788801
000320 3a 46 ee 3d ae 6d f4 3d 38 72 c8 bd 44 40 a1 3d
       0.116344884 0.11934982 -0.097874105 0.07873586
000330 9f 44 e4 bc 12 9d f4 3d 6d 95 64 bd c4 30 50 3e
       -0.027864752 0.11944021 -0.055806566 0.20331103
000340 9e b5 af bd 0a 18 28 bb d3 37 cf 3b 07 19 2c 3e
       -0.085795626 -0.0025649094 0.0063237934 0.16806422
000350 9a af f8 3c 4a d3 57 3d 93 0b 49 3c 57 26 89 3c
       0.03035717 0.052691735 0.012270826 0.016741915
000360 a4 fe 37 3d 3c f7 d3 bd 40 63 81 bd c1 03 bd bd
       0.04492058 -0.103498906 -0.063177586 -0.092292316
000370 43 eb a7 bd b3 74 c4 bd cd a5 ca bd 19 8f 7b bb
       -0.081991695 -0.09592571 -0.09894905 -0.0038384853
000380 bf f8 ac 3d 47 3c bb bd 2f 97 7a bf 1a 2e b0 bc
       0.08445882 -0.09142356 -0.9788694 -0.021506358
000390 fc 7b 08 3e a1 59 1c be fb 17 2b 3d 00 ca 2b be
       0.13328546 -0.15268566 0.041770916 -0.16776276
0003a0 5a c3 52 3d 30 97 d6 be 32 76 ef 3c 7b a6 e5 bc
       0.051455833 -0.41912222 0.029231165 -0.028033486
0003b0 e8 15 d6 bd d1 49 0c be 8d 7c b6 bd 5b 23 ed 3d
       -0.10453397 -0.13700034 -0.08910475 0.11579009
0003c0 64 2e 50 bd c1 de bd 3d c5 18 29 3e 8e ff 32 3e
       -0.05082549 0.092710026 0.16513355 0.17480299
0003d0 28 b2 a6 bd 80 d2 b8 bd 52 73 a0 bc ba 9e 91 3d
       -0.08139449 -0.09024525 -0.019586239 0.07110353
0003e0 1f 18 58 3d fc 77 39 3d 4a bb cd 3d 9f 74 2c 3d
       0.05275738 0.04528044 0.10045488 0.042103406
0003f0 03 1c 88 3d b2 b8 aa 3d 82 37 05 bd d0 0d 28 bc
       0.06645968 0.08336009 -0.03252364 -0.010257199
