rlgpu/logs/cut/model_750.pt (torch, 868312 bytes, 16 tensors)

log_std f4 [3]
00000000: 0f71 43bf 3870 0bbf c85d 223d
-0.7634439 -0.5446811 0.039640218

actor.0.weight f4 [256, 259]
00000000: 6093 1f3d 1154 343d cd8a 653d 3f2c d8bc
00000010: 1aa1 8cbd e135 9c3d 573e 5d3d 89f2 99bd
00000020: 432e fd3c f287 043d 3d22 993c cf49 a7bd
00000030: e36e 8f3d 450c b9bd 6844 c3bc bc39 abbd
00000040: 69b4 e2bc d183 0bbd 59b8 1fbe 36b4 083d
00000050: 2c39 783d 85ba a8bd 4f54 c6bd 1ada 873c
00000060: fa23 d73d c3f5 2bba 544e 883d 1ebb 5fbc
00000070: 296b 0abc dec9 5ebd ce14 443c e43c b3bd
00000080: 2013 df3c f448 da3d 88b0 b93d 946e 03bd
00000090: 03f7 623d 59b3 66bc 63d1 66bd 7ab8 3b3c
000000a0: d39d 69bc ebe0 c7bc 013c 303e f3b3 1b3e
000000b0: 55b1 ccbd 1aec 1a3e f1a3 9b3d f62d a1bd
000000c0: 7350 df3c 76d1 99bd 90a5 f5bc c0b2 0fbe
000000d0: 3495 28bd 86e6 c53d bcd7 60bd 3019 683d
000000e0: 7876 643e 1200 c43d 06e3 593c 6c9f 18be
000000f0: 15be 883c 323b 37bd ad50 c4bb 4d15 913c
00000100: 003c 1bbd d750 003d 39f0 bcbd e5ac b23d
00000110: 8fa8 d6bc b956 21bd 9b08 a1bd bbf8 923d
00000120: bf88 acbd b587 c6bc 17b1 a5bc fef7 32bd
00000130: 5a24 80be bff7 ccbb 4104 0e3d 4325 90bc
00000140: d60e 203d c185 023e b008 d1bd 72f1 f93b
00000150: 7085 5ebd 37bd 0a3e 2ec9 8fbd cccf 05be
00000160: 04ea bdbd e69b c8bd 42cd 8d3d 6f4c 8d3d
00000170: c406 143c c372 0c3d 67b8 333e 0f79 083e
00000180: 424d 01bd 930b 92bd 06b7 a4bc d92c b13d
00000190: 100c 903d 3467 c1bd 20ff 6abc 6d91 2dbc
000001a0: baf9 d93d 74f7 4cbd f28a 4dbd 2943 d23d
000001b0: 508b ebbb 4869 513e 8a05 05bd afae f03d
000001c0: 40d5 b13c 993a 1dbd 2965 e2bd 1850 d6bd
000001d0: 748b 4dbd dcb8 cd3d 5971 9bbd c82f 76bc
000001e0: 3dd1 95bd 9c0c 1e3e 0337 c0bd 44cb 023c
000001f0: 39d1 3f3d 057b e13d 4b32 863c 3fde 42bd
00000200: fb04 603d 94e0 dd3d 66dd 8c3d 392e 973d
00000210: 2d12 91bd 544b 72bd 6f2b 7dbd 13bc 493e
00000220: e37a 87bd c980 c0bd 40bf 913d bbb4 d0bd
00000230: 7797 343d 4854 40be 5d21 87bc ef5b 71bc
00000240: 7af9 bfbd caab 993c 30b2 073e 1e44 bbbb
00000250: ebc4 9cbd 4d05 9bbd 1ef1 07be bf16 ad3d
00000260: f16a 26be efd3 a93c ebd1 20bc ee58 f63d
00000270: d6d1 1f3e c1bd 783d 8d00 39bd 3ae2 003e
00000280: ae4b f43d ffae 353d 589f 02be 0926 aabd
00000290: 6ada 8b3a cfa6 3c3d dcc9 6fbd 5e60 e8bc
000002a0: bfa8 43be aa59 67bd eb68 963d cadd 21be
000002b0: 889e 7d3d 6f5e d63d 9713 843d a8a3 31bd
000002c0: c51e 043e 8028 98bd 29b7 b3bd 5906 7bbc
000002d0: e6b0 0a3e 1dff 1e3d bfa9 afbd 00f5 c73c
000002e0: 2116 4dbe 47c6 b8bc ef37 2a3d b7ed 10bd
000002f0: af4e eabd 8654 9dbd 97bc 21be 4c55 58bd
00000300: 744a cebc 2e32 31bd 9b71 283e e609 5a3d
00000310: 0658 023e 9588 b6bc 80ab 78bc 96df 1e3e
00000320: 0a12 15bd 8eaf 69be 81f8 b63c 73e0 c23d
00000330: 653c bc3d 36cf 1bbd 2bae b93d ccb0 b6bc
00000340: e8c6 c4bd 47f4 44be c025 4fbd 5586 5e3d
00000350: 0842 5abd aebc abbd aaaa abbc bdcd 523e
00000360: 9971 953d 951a 303d b93a 86bd 20b5 a63d
00000370: af2b 883d 5e71 1ebc eb24 4dbb 01e0 62ba
00000380: a8f1 f2bd 8a1b 8b3d 114a 2ebd 1638 e8bd
00000390: 7d17 d43d 5a1d 483d acbd a13d 9793 073d
000003a0: 99ea c63d 5ea3 923d 3e2b c4bd 3dbd d13c
000003b0: e9bc d7bd 61c9 1fbe 6cbc 0c3d 6be9 6abd
000003c0: 178d 94bc 4ac7 1dbe d686 0e3e 1157 fbbb
000003d0: 1b34 ee3d a7ac b63d 93c9 043c 5bac 973c
000003e0: 5c59 223e 1076 bfbc a4cc d03d 12b7 babb
000003f0: 6cc2 bbbd 6aac ae3d b924 65bc 1ee7 223d
0.038958907 0.044025484 0.056040574 -0.026388286 -0.06866665 0.07627464 0.05401453 -0.07516963
0.030905848 0.03235621 0.018693084 -0.08168375 0.07003572 -0.09035543 -0.02383633 -0.08360621
-0.027673917 -0.034061257 -0.15597667 0.033374988 0.0606014 -0.08238701 -0.09684049 0.016583491
0.10504909 -0.00065597537 0.06655565 -0.013655452 -0.008448401 -0.054391734 0.011967851 -0.08751848
0.0272308 0.10658446 0.09066874 -0.032087877 0.05541135 -0.014080846 -0.05635203 0.011457557
-0.01425882 -0.024399241 0.1721039 0.15205364 -0.09994761 0.15129128 0.07599629 -0.078700945
0.02726004 -0.07510655 -0.029986173 -0.14033031 -0.041157916 0.096631095 -0.05489324 0.056664646
0.22310817 0.09570326 0.0132987555 -0.14904565 0.0166922 -0.044734187 -0.0059910626 0.017710352
-0.037899017 0.031327095 -0.09225506 0.08724383 -0.026203422 -0.039389346 -0.078629695 0.07176348
-0.0842452 -0.024234632 -0.020226045 -0.043693535 -0.25027734 -0.0062551196 0.034672026 -0.017595893
0.03907665 0.12746336 -0.10206735 0.0076276595 -0.054326475 0.13548742 -0.07020794 -0.1306755
-0.092731506 -0.0979536 0.069239154 0.06899344 0.009034816 0.034289133 0.17550813 0.1332743
-0.03156782 -0.07131114 -0.020106804 0.08651132 0.07033551 -0.094435126 -0.014343053 -0.010593754
0.10643335 -0.050040677 -0.050181337 0.10266716 -0.007188238 0.20450318 -0.032475986 0.11752068
0.02170813 -0.03838596 -0.11054451 -0.104644954 -0.05018182 0.10045025 -0.07589979 -0.01502604
-0.073153 0.15434498 -0.09385493 0.007983033 0.04683039 0.11009792 0.016381403 -0.04757523
0.05469225 0.108338505 0.06878166 0.07381863 -0.07083545 -0.05915387 -0.061809 0.19700651
-0.06615236 -0.09399564 0.07116556 -0.101907216 0.04408976 -0.18782151 -0.016495401 -0.014731391
-0.09373756 0.018758673 0.13251567 -0.0057149073 -0.076547466 -0.075693704 -0.13275573 0.08451604
-0.16251732 0.02073094 -0.009815673 0.12028681 0.1560739 0.06072784 -0.04516654 0.12586299
0.11928497 0.044356342 -0.12756097 -0.08308036 0.0010669951 0.04605752 -0.058542117 -0.028366264
-0.1910734 -0.056481995 0.0734423 -0.15807262 0.061918765 0.104672305 0.06449049 -0.043368965
0.12902363 -0.074296 -0.087751694 -0.015321338 0.13544044 0.038817514 -0.085772984 0.024408817
-0.20027973 -0.022555484 0.04155725 -0.035382953 -0.11440789 -0.07682137 -0.15794598 -0.05281572
-0.025181986 -0.043260746 0.16449587 0.053232096 0.12728891 -0.022281924 -0.015177608 0.15514979
-0.036394157 -0.22820875 0.022335293 0.095154665 0.09191207 -0.03803941 0.09066423 -0.0223011
-0.09608251 -0.1923381 -0.05057311 0.054327328 -0.05328563 -0.08385597 -0.020955402 0.20586295
0.07297058 0.0429941 -0.06554169 0.081400156 0.06648957 -0.0096705835 -0.0031302522 -0.0008654595
-0.118624985 0.06792362 -0.042551104 -0.113388225 0.103560425 0.048856117 0.07897505 0.033099737
0.09712715 0.07160066 -0.0957856 0.025602931 -0.10534079 -0.15604164 0.03435938 -0.05735151
-0.018133683 -0.15408054 0.13918623 -0.0076702912 0.11631032 0.089196496 0.0081047 0.018514803
0.158544 -0.023371726 0.10195282 -0.005698093 -0.091679424 0.08528979 -0.013985806 0.03977119

actor.0.bias f4 [256]
00000000: 5b83 9bbc a7da 49bd e979 62bc be5b b1bc
00000010: 0263 90bc fe37 e33b 3479 2f3d 8be0 063d
00000020: cdc5 93bb 5308 433d 3b93 283d 2dc5 683c
00000030: 1b4e 803d b23e 753c a74b e6bc fb2a b83a
00000040: ec57 773c 9112 793c 712e c93c a078 0dbd
00000050: 8fcd d13c fbfe 433b 73a8 4a3d 52ca 54bd
00000060: e89f 613c 125b 73bd 58ae a6bc ea04 ee3c
00000070: 2a60 44bd 5a9c d9bc f833 0c3d 1a24 1fbd
00000080: 757a 3d3c 71ca 503d eea3 c33c b19e 18bd
00000090: f31a 33bd ca61 133d 484e 7a3d 1ffe e5bc
000000a0: 98da 6c3d 1fc7 9bbc a2b9 6b3d 6227 423d
000000b0: ed81 48bd e833 313d 37dd d1bc fdcb 7d3d
000000c0: 5cf2 6b3d 2b42 dbbc c415 20bd 3792 3f3d
000000d0: 5df0 e13b 1b0a ca3c 344f 36bd 0cf9 35bd
000000e0: a04b 9bbc ea39 f43b 96c8 12bc 3a9f d03c
000000f0: d391 8e3c 7b44 47bd fb13 81bd cc0c 6e3d
00000100: d637 8bbd e363 53bd e18a 99bc 5c95 543c
00000110: 4e2d d93c 60ee c7bc 1590 dfbc 1a73 e2bb
00000120: 93b3 063d 4d79 68bc fb5c 9e3c 4e11 60bd
00000130: dfcd 7dbc bc3a 843c e284 d7bc 9dd3 0bbd
00000140: f523 103d 3888 62bd 5abc 43bd 1d1a 5a3d
00000150: 9c12 233d 40de 61bd 432c 57bd 53b1 3cbd
00000160: 33ba 103d d031 26bd dac0 85bd adb0 103d
00000170: 2a7b e4bc c1e9 cf3b a96a 21bd 4fd9 de3c
00000180: f0e3 fd3c 6037 803d 984e 3dbd a513 913c
00000190: eb6f 96bc e835 94bb 4e90 6abd f0d7 53bd
000001a0: 5421 1b3c 1a2e 2abd d858 f93c dd89 7b3b
000001b0: 30cf 2c3c c6a3 1a3b d001 c4bc 0568 f23c
000001c0: 30e2 153d 5dff 33bd d06e 133c 7b0d d63c
000001d0: 1c2c cdbc b1cc 37bd dfc7 aebc f24f 71bd
000001e0: 704c f5bc 6bdd 6cbc b480 91bc aec6 22bd
000001f0: 3f9d ff3c c254 643d 85ce cfbc ad0d 36bd
00000200: 5cf1 12bc 5238 e7bc d7fb 3d3d 7c83 5e3c
00000210: f670 41bd dd24 f538 3af0 93bc f5c4 30bd
00000220: 8871 2abd 75e1 72bd 8319 06bd c1b5 3dbb
00000230: 19e5 81bd ae91 083d ecf2 0b3d f5fe fa3c
00000240: aa97 5c3d 380f 9ebb bc8b f73c 42aa 793c
00000250: 5679 52bc 804c 533c 7c86 2d3d 9f13 173d
00000260: e877 7dbc e91f 623d 077a 633d ea0b 123d
00000270: cebc 2fbd c884 063d 9d0e 863b 35d0 10bd
00000280: 9aff 73bd 29ad 813c 1e79 e63c d4a4 aa3c
00000290: 94f9 f9bc cbf8 66bd 1fc7 933d d2a6 6d3c
000002a0: 8656 ac3c 3a24 623a 1e1f 33bd b331 383d
000002b0: f4a7 3d3c a8e4 433d fc6c 21bd 98c7 6abb
000002c0: 6b95 2d3d 8667 363d 367e ec3c 6e13 653d
000002d0: feef 3abd 6d5b 3abd 61c3 16bd 1691 463d
000002e0: c864 013d 08f2 0cbc 37a8 1f3d cda2 e0bc
000002f0: 1768 65bd 884d 8dbc 447a ccbb 2f75 1ebd
00000300: 8be7 01bd eb77 52bd b634 22bd 5c27 f4bc
00000310: 2c80 3b3d 7915 5f3d 2024 f23c 6f3e 823d
00000320: 54b5 58bd b6c0 a03c 90da 403d 469d 80bb
00000330: c3db 4abd dcb9 8b3c 0cf6 90bc 8a72 89bc
00000340: 7397 f03c 6c08 92bc bf1a f0bc d839 00bd
00000350: accb 0b3d 6e32 ddbc 69fc 843d 58f4 053d
00000360: 02e2 b13b 775f 333b 4beb 13bc 02a7 f5bc
00000370: 439f 3ebd 30bd 6ebd 852b dfbc 36c0 713c
00000380: ac1a 603d 66e8 703d e456 febb 2f44 8f3c
00000390: a505 813d 3a13 873d ce34 7bbd 0097 27bd
000003a0: 191f 4b3c 39a3 d0bc f64e 173c 5edf 57bd
000003b0: c6a8 34bd b1f7 6b3c 3be5 19bd fdcd 6bbd
000003c0: ff5e 7bbc 60b6 fd3c c45c 18bd 0a3b 14bc
000003d0: 5a53 a1bd 0782 333d 12e1 d33c bf6d f4bc
000003e0: 86f2 a93c 56d1 8f3c 1e2d 163d c9bc 213d
000003f0: c3dd 433d 7d5f e13c a0e7 833c 60f6 293d
-0.018983534 -0.04928079 -0.013823011 -0.021650191 -0.017625336 0.006934165 0.042840198 0.032928985
-0.0045096637 0.04761536 0.041156035 0.014207167 0.062648974 0.014968561 -0.028112246 0.0014050895
0.015096646 0.0152021805 0.024558278 -0.034538865 0.025610713 0.002990662 0.049477052 -0.05195076
0.013771035 -0.059413023 -0.020346805 0.029055078 -0.04794327 -0.026563812 0.03422925 -0.03885279
0.011564841 0.050974313 0.023881879 -0.037260715 -0.043726873 0.03598193 0.06110981 -0.028075276
0.057825655 -0.019015847 0.05755008 0.04740084 -0.048952032 0.043262392 -0.025618179 0.061962117
0.05760418 -0.02676495 -0.039083257 0.0467703 0.0068951086 0.024663022 -0.044509128 -0.044426963
-0.01895696 0.007453193 -0.008958956 0.02546655 0.017403519 -0.048649292 -0.06302639 0.058117673
-0.06797759 -0.05160893 -0.01874298 0.012975063 0.02651086 -0.024405658 -0.027290383 -0.006910694
0.0328861 -0.014189077 0.019331446 -0.054704003 -0.015490978 0.016141288 -0.02630848 -0.034137357
0.03519054 -0.05530569 -0.047787048 0.05324756 0.03981267 -0.055143595 -0.052532446 -0.046067547
0.035333823 -0.04057485 -0.06530924 0.03532474 -0.02789076 0.0063450043 -0.03940836 0.02720323
0.030992478 0.06260562 -0.04621753 0.017709563 -0.018363914 -0.0045230277 -0.057266526 -0.051719606
0.009468395 -0.041547872 0.030437872 0.0038381733 0.010547444 0.0023596152 -0.023926646 0.029590616
0.036592662 -0.043944705 0.008998588 0.026129475 -0.025045447 -0.044872943 -0.02133554 -0.058914132
-0.029943675 -0.014457087 -0.017761566 -0.039740257 0.03120291 0.055744894 -0.02536703 -0.044446636
-0.008968677 -0.028225098 0.04638275 0.013581153 -0.04722687 0.00011689377 -0.018058885 -0.043156583
-0.041612178 -0.059297044 -0.032739174 -0.0028947445 -0.06342525 0.033342056 0.034167215 0.030639151
0.053855576 -0.0048235916 0.030217998 0.0152383465 -0.012846312 0.012896657 0.042364582 0.036883947
-0.015470482 0.055206213 0.055536296 0.035655893 -0.042904668 0.032841474 0.0040910975 -0.03535481
-0.059569933 0.01582964 0.028133925 0.02083055 -0.030514516 -0.05638961 0.07215714 0.014505105
0.021037351 0.0008626614 -0.043730848 0.044969272 0.011575688 0.047825485 -0.039410576 -0.0035824534
0.042378824 0.04453232 0.028868776 0.055926733 -0.04563903 -0.045497347 -0.03680742 0.04847821
0.031590253 -0.008602627 0.03897878 -0.02742138 -0.05600747 -0.017248884 -0.006240161 -0.038685974
-0.031714957 -0.051383894 -0.03960105 -0.029803924 0.04577653 0.054463837 0.029558241 0.063595645
-0.052907303 0.019623142 0.047083437 -0.0039249985 -0.049525987 0.017056398 -0.01769545 -0.01677825
0.029369092 -0.017826281 -0.029309629 -0.031305164 0.034129784 -0.027001586 0.06493456 0.032703727
0.0054285536 0.0027370134 -0.009028266 -0.029986862 -0.046538603 -0.058285892 -0.027242431 0.014755299
0.054712936 0.058815382 -0.007761823 0.017488567 0.06299905 0.06595464 -0.061329655 -0.04091549
0.012397551 -0.025468456 0.009235134 -0.052703254 -0.044106267 0.014402316 -0.037572127 -0.057569493
-0.015342473 0.030970752 -0.037197843 -0.009047279 -0.07877226 0.043825176 0.025864158 -0.029837487
0.020745527 0.017555874 0.03666412 0.03948668 0.04781891 0.027511353 0.016101658 0.041494727

actor.2.weight f4 [128, 256]
00000000: 03a5 0cbd 14b1 2a3e 8b56 1fbe 7394 293c
00000010: 2253 6ebd 68ec f5bd a501 1d3d c254 b93d
00000020: 56bb fc3c 6e91 283e 0115 86bd 21c1 95bd
00000030: e39c 7cbd 4af8 e93d 6843 893c 4536 8b3d
00000040: dad4 26be ffe8 93bd 6d5b eabd 700d 073e
00000050: e72e 723e 6656 b3bc a394 fcbd e128 9f3d
00000060: c08c 28be 1031 11be 67b6 3d3c d7fb 1d3d
00000070: fd9e 8bbd 9b95 e63c 572d 1bbd 3424 85bc
00000080: 8176 ff3c f655 983b 3515 993d 28f5 aa3c
00000090: 98f9 64be 3878 fa3b ddc3 843d 0cc5 20bd
000000a0: 16cb bc3d 2d2c 063e 430c 93bd 3e96 b83c
000000b0: 6468 333d 45bb 83bd 73c1 f03c 903d 523c
000000c0: 000e 0a3d 298a 44be bdd8 56bb 6e4e 9d3d
000000d0: 5b83 a5bc 71b5 c6bd 15be 383d f731 f9bc
000000e0: a49a 10be ea00 073d c5a8 7abb 0807 50bd
000000f0: c9e1 81bc 6ffa 0d3e 1ebe 9c3d 296d 60be
00000100: 4bed 5c3d 5900 cfbd 4c2f 033d b92b 92bd
00000110: 74c6 04bc 47be 99bd e873 8dbd a695 9bbd
00000120: 2e85 9dbd d89d d8bc 4738 08bd 1c61 fd3d
00000130: 60aa f0bd b318 c73c e3cd 0cbd 5243 623d
00000140: aa25 3c3d 9dbc 4c3c 53fa 9b3d dff5 4bbe
00000150: c299 273d 1ac0 89bc 20a7 cfbd c3c6 6e3e
00000160: 143d fdbc 07d0 afbd a86a 57bb a605 7a3c
00000170: b852 883d d1ff 0a3d 8e23 33bc 5811 163d
00000180: 01fd 053d 5ba9 2b3c e591 0bbd 83e7 4d3c
00000190: ef28 eabd f93a 273e ccfb 9a3d bf8b 243e
000001a0: 4b6a 0f3d 8d0a e7bc e4fc 6a3d 12b5 5f3d
000001b0: a6d6 9fbd b0dd ea3c 934a 943d c5a6 883c
000001c0: f714 91bd 95d3 5f3c d93a dfbd 96a6 02be
000001d0: 43f0 aa3d d2fd 49bc db00 b6bd 9266 f0bb
000001e0: 1777 00bd 5c62 253e af56 293d 3501 d7bd
000001f0: 167c 97bd 076c 973d 5d1f 323d ef83 d93d
00000200: fa7f 403d 9e74 213c 4623 3e3d 625e 6e3d
00000210: f467 73bd 8a1b 233e d335 5bbd d117 d63c
00000220: 9fe5 75bc c2ad 163e e70a e9bd 7162 2abe
00000230: 995b c93d 09cb 343c 0ead 403c 48f3 22be
00000240: 4cc9 3abc 9088 a4bd d5e4 913d b062 3b3d
00000250: 4941 1f3d 4596 a53d 0cd9 8f3d f90e 5d3d
00000260: e421 00bd 0d41 043e 8381 76bc 8dbb 113c
00000270: 996e 033d fbe8 c0bd 6745 0fbd 1b22 64bd
00000280: 61cb 803e d4c7 22be 21d1 2d3b dfaa d2bc
00000290: 4c1c 483d d7b1 3fbe c609 b43c ca1c 0abe
000002a0: 4e95 863d 97b6 bdbc cb20 ab3c 27bb 7f3d
000002b0: 3024 e0bd e762 773d e897 f1bb 6323 553c
000002c0: 447f 8dbd ae44 2b3e d18e e13d 3c51 d53c
000002d0: 60df 4cbd 4d5e e0bd 9a83 f3bd 4792 053e
000002e0: f509 23bc d201 b13d 8ce2 f13a 9c5c d93d
000002f0: 875d 32bd c7b2 76bc d51e e93c 5bfb 023e
00000300: 1ff7 0d3d 8c04 363d e785 093d 54cf 17bc
00000310: 2529 df3b a3c4 97bc aa0b a73d e08d 983b
00000320: a72f 8c3d 5186 983c 6624 eebd 8c4c 17bd
00000330: 3d77 44bc 4ad0 8bbd 0532 6c3c d45f 9a3d
00000340: 74de b93d f702 82bd be0b dbbb 8db2 15be
00000350: 606b 763d 00f1 e1bd c849 333d 6558 0bbe
00000360: 8339 a63b 05ee 17be 025d b43d 7fa9 b7bd
00000370: a688 7b3d 4838 31bd 0973 9e3c a95e ac3d
00000380: c9a7 8c3d 96a3 c2bd 1404 d23d 8cb2 4fbd
00000390: d244 a03d 4bcb b5bd 6729 263e f44f 0fbe
000003a0: f944 b93c 6988 573c 690f b9bd 7fef c43c
000003b0: 5c65 b4bd 0940 5a3d f159 66bd 5ce8 57bd
000003c0: 1b8c 9c3d c3c2 81bc d73a 983c 4d55 20be
000003d0: f288 413d f915 5e3e df24 c4bd 9500 11be
000003e0: 116f f73d ac35 633c d236 ee3b 7e5a f9bd
000003f0: 600b edbd d31f 2fbd 58c0 fb3d c6d7 65bd
-0.034337055 0.16669112 -0.15560357 0.010350334 -0.05818475 -0.120079815 0.038331646 0.090493694
0.030851047 0.16461727 -0.06546975 -0.07312227 -0.061673056 0.114243105 0.016755775 0.067974605
-0.16292134 -0.07222175 -0.11443219 0.1318872 0.23650704 -0.021891784 -0.12333038 0.07771469
-0.16459942 -0.14178872 0.011579133 0.03857025 -0.06817434 0.02814751 -0.037885036 -0.016252615
0.031184437 0.004648919 0.07474748 0.020868853 -0.22360837 0.0076437257 0.064826705 -0.03925042
0.09218423 0.13102789 -0.07180073 0.022532579 0.043800727 -0.06432203 0.029389119 0.01283206
0.033704758 -0.19193329 -0.0032782995 0.07680975 -0.020204237 -0.09702576 0.04510315 -0.030419333
-0.1412149 0.032959856 -0.0038247567 -0.050787956 -0.015854733 0.13865064 0.076534495 -0.21916641
0.053937238 -0.10107488 0.032027528 -0.07137246 -0.008103956 -0.07506996 -0.06906873 -0.075969025
-0.07691418 -0.026442453 -0.033256795 0.12372038 -0.117512465 0.02430377 -0.034376036 0.055239983
0.045934357 0.012496141 0.07616105 -0.19918011 0.04091812 -0.016815234 -0.101392984 0.23318009
-0.030912913 -0.085846 -0.0032869969 0.015260136 0.06656402 0.03393537 -0.01093377 0.036637634
0.032711986 0.010477389 -0.034074683 0.012567404 -0.11433589 0.1633109 0.07567558 0.16068934
0.03501348 -0.028203273 0.05737008 0.05461604 -0.07804613 0.028670162 0.072407864 0.016681084
-0.07084077 0.013661285 -0.10899896 -0.1275886 0.083466075 -0.012328582 -0.08886882 -0.007336446
-0.031363573 0.16150802 0.041342434 -0.10498277 -0.073967144 0.073936515 0.04348694 0.106208675
0.046997048 0.009854464 0.046420358 0.05819548 -0.05942531 0.15928474 -0.053518128 0.026134403
-0.015008359 0.14714721 -0.113790326 -0.16639115 0.09831924 0.0110347355 0.011760009 -0.15913117
-0.011400532 -0.0803386 0.07123724 0.045748413 0.03888062 0.08085302 0.0702382 0.053969357
-0.03128232 0.1291544 -0.015045526 0.008894813 0.032087896 -0.094194375 -0.034978297 -0.055696588
0.25155166 -0.15896541 0.0026522356 -0.025716243 0.04885511 -0.18720184 0.021977317 -0.13487545
0.06571446 -0.023158355 0.02088966 0.06243434 -0.10944402 0.060397055 -0.007372845 0.013008925
-0.069090396 0.16725418 0.11013568 0.026039712 -0.050017715 -0.109554864 -0.118903354 0.13044082
-0.009951104 0.08642925 0.0018454357 0.10613367 -0.043546226 -0.015057272 0.028457085 0.12791197
0.0346595 0.04443793 0.033574965 -0.0092657395 0.0068103247 -0.01852638 0.081565216 0.0046555847
0.068450265 0.018618735 -0.11628036 -0.036938235 -0.011991319 -0.06826837 0.014416222 0.07537809
0.09075633 -0.06348222 -0.0066847494 -0.14618893 0.060160995 -0.11032295 0.043771535 -0.13607939
0.005072774 -0.14836891 0.08806802 -0.08967876 0.061409615 -0.043266565 0.019341962 0.084164925
0.0686794 -0.09503858 0.10254684 -0.050707385 0.078256264 -0.08876666 0.16226731 -0.13995343
0.022615897 0.013155081 -0.090361424 0.024039982 -0.08808395 0.053283725 -0.05623812 -0.05271183
0.076439105 -0.01583994 0.018582745 -0.1565754 0.04724974 0.2168807 -0.09577345 -0.14160378
0.12081731 0.013867777 0.0072697187 -0.12175463 -0.11574435 -0.04275496 0.12292546 -0.05611398

actor.2.bias f4 [128]
00000000: cd7d 0abd 5657 db3c 06d1 22bd 4fdf 0bbd
00000010: f0f3 e9bc 2783 f33c 9ece 0eba c466 bdbc
00000020: 8a85 133c b274 233d e0fe 9c3b 33aa 743d
00000030: 6182 85bd 19a7 88bd 3b3b 9ebc c5fc 27bd
00000040: 129a ab3b 6ba8 41bd 67eb a4bc 9da8 353b
00000050: 58d9 c53c e72c 62bd 605b 85bd 3e2d 333d
00000060: 2d1b 1cbd 70ee 2ebd ebe8 a6bc 3ffd 113d
00000070: efb9 0dbd f930 36bc 73e8 493d ff3a 4e3d
00000080: f332 b2bb 45af 71bd 7315 ff3c f02b dcbb
00000090: 1140 abba 3dfa 303d 02f2 a2bb 05bc 5abd
000000a0: b735 fe3b 4d3b 2b3c 9e5b 17bd 5e01 29bc
000000b0: 93d3 b03b 4124 42bd a924 c83c dcde 69bd
000000c0: 7062 a7bc 3db8 373d 507a 65bd 7975 06bc
000000d0: 2307 97bc b118 14bd 8a87 ea3c 4a6f 483d
000000e0: 69a1 29bd 7f4d 413d 1086 d3bc f727 03bc
000000f0: f50a 133d 56ee fbba faf8 153d e779 823c
00000100: aed4 753c 7ea8 0b3d 640e 33bc d421 e33a
00000110: e99c 033d 9f57 32bc e50c 353d 67ea a7bc
00000120: 05ca d73c 0652 16bd 0a67 80bd 19a9 063d
00000130: e7d4 c9bc 848e 113d 2152 78bc 686b afbc
00000140: 75a8 b9bc 204b 6fbd 42fa e33c 5024 febb
00000150: b4ea 41bd 7171 783d b13a 4b3d 76ce 5abd
00000160: c893 573d f17e 4dbd b1c7 32bd 1fcf dabc
00000170: de16 62bd b7de ebbc 7e02 c83c 943a 7b3c
00000180: fd23 1bbd 38f1 e43b b42f 6c3b 5f5b 8e3c
00000190: 681b eb3c 5ff1 a03b a8f2 64bd c365 78bd
000001a0: c865 61bd a9f0 a5bc 6536 753d 4953 fb3b
000001b0: 5785 f3bc 90d9 87bd 2dba a53c f3e7 acbc
000001c0: 546d 3bbd ce07 2abd 64e9 063d 7f0d 103d
000001d0: 55fe ccbc 1902 353c f071 763d ae75 5fbd
000001e0: 7aad 2abd 6a27 a8bc 4e3f c2bc 1222 67bd
000001f0: 9519 58bd ed1f b3bc f90c 883c c4fd 763c
-0.03381138 0.026775043 -0.03975012 -0.03414851 -0.028558701 0.029725624 -0.00054476585 -0.023120292
0.009004006 0.03990621 0.0047911257 0.059732627 -0.065190084 -0.06672496 -0.019315353 -0.041012544
0.0052368725 -0.047279757 -0.02013178 0.002771891 0.02415149 -0.055218603 -0.06511569 0.04374432
-0.038111854 -0.04270786 -0.020374736 0.035641905 -0.03460115 -0.011120074 0.049293946 0.05034923
-0.0054382025 -0.05900504 0.031138157 -0.006719105 -0.0013065358 0.043207396 -0.0049726972 -0.053401966
0.007757868 0.01045115 -0.036952607 -0.010315267 0.0053963154 -0.047397856 0.024431543 -0.0570973
-0.02043268 0.044853438 -0.05602485 -0.008206719 -0.01843602 -0.03615636 0.028629083 0.04893426
-0.0414137 0.047193047 -0.025820762 -0.008005134 0.03589912 -0.001922081 0.036614396 0.015927268
0.01500432 0.034096234 -0.010928724 0.0017328807 0.032132063 -0.010885148 0.04420175 -0.020497514
0.026341448 -0.036699317 -0.06269653 0.032876108 -0.024637653 0.035536304 -0.0151563 -0.02141352
-0.022663334 -0.058421254 0.027829293 -0.0077557936 -0.04734297 0.06065506 0.04961652 -0.053419553
0.05263117 -0.05016989 -0.04364747 -0.026710091 -0.05519759 -0.028792722 0.02441525 0.01533379
-0.037876118 0.0069867633 0.0036039175 0.017377554 0.028699592 0.004911586 -0.055895478 -0.060643923
-0.055028707 -0.020256357 0.059866328 0.0076698405 -0.029726667 -0.06633294 0.020230377 -0.021106696
-0.04575856 -0.04151135 0.032937422 0.03516912 -0.025023619 0.011047863 0.060167253 -0.054555587
-0.041669346 -0.020526607 -0.023711827 -0.056428976 -0.052758772 -0.02186581 0.016607748 0.015075151

actor.4.weight f4 [64, 128]
00000000: 0ae5 76bd 66da 92bc f99f d53d 80b4 f6bd
00000010: c07f f5bd 37ad 673b f438 903d 7c2a 86be
00000020: 21b7 083d aa2d 85be ffd6 043e 6b00 363e
00000030: 4ce6 d1bd cd13 fb3c d72d 243d 7813 cbbd
00000040: ea0f 133e 738f 4abd 0fe4 373e ed13 bcbd
00000050: 599a 7cbd bbc1 203b d819 f53d ca1e 42bb
00000060: 17ef f4bd 7556 f23c c920 883d 3881 51be
00000070: 8561 e43c ff28 fabc ef43 003d badc ef3d
00000080: 166c 90bc 390e 943e 08aa 54bd 43ab 093d
00000090: c505 633c 93f9 2e3c 4fc9 7cbc be70 b1bd
000000a0: 9599 0fbd 0ed0 07bd cbc3 58be d06f 57be
000000b0: 24f0 5c3b fa0f 923d 15e0 2e3d b010 b8bd
000000c0: 6b8a 7abd 68de 6b3d cb0e e53d 6689 8b3d
000000d0: d2bd 993e 9fc9 efbd 0a7f 28bc 802a e8bb
000000e0: bf1e 0f3e 71ef 90be bce5 213d 8f6e a3bd
000000f0: 6ba1 a5bc e38b 27bc 9615 4e3e 85fe d93d
00000100: 2a19 8d3e 63e7 f73c ed1c bcbe a404 d53d
00000110: 4427 d5bd 7eee bbbd 987c 9fbd f724 1d3e
00000120: e239 5f3e 0897 a03e d490 523e 542e e53c
00000130: 6c63 ecbd 4df1 1e3c f21b 193e 5211 f7bd
00000140: bf14 c2bd 0b6f 6b3c 7c06 c93d f34a 4abc
00000150: 5f79 7dbe 2171 d4bd 7d39 c0bd bde2 cbbd
00000160: 5999 1c3e e6ab 6abe 7680 00bd e48b e5bd
00000170: ce83 88bc 5a29 8f3d 3d10 4b3d ba3b 4bba
00000180: beec 293d aedc 9dbd d4fa 0c3d 7952 bbbd
00000190: 6f81 0cbb cfa3 80bd 461e b73a 0626 5e3d
000001a0: f3c5 7fbd 75d2 afbd 0b3f 55bd 0587 17bd
000001b0: d7dd 473d 8cb7 103e a8c7 003e 67f1 003e
000001c0: 53eb 013e 3362 b63d 1874 5dbe b350 a63d
000001d0: caa3 363d 5fa7 48bd 656f 05be 32d3 19be
000001e0: f57b 5cbe a937 1e3e e74b 00be 9c2b 873c
000001f0: f25c 263e 8c48 213e 4e52 b5bc bff4 7e3d
00000200: 55fa 573d 9197 3cbd 9fba 203e 1859 813d
00000210: c583 e33c 7960 3ebe b6b7 3abe bf88 d0bd
00000220: d4b9 363e 1667 c63d 1c72 e13d 4f12 ebbd
00000230: 1040 173e ea3d 3b3e b3fd b8bd 0037 cdbd
00000240: 90a7 ab3e ef26 383e e970 c33d 1feb 3fbe
00000250: f804 19bd 9c8d 793d 6e87 b2bd b42c 94be
00000260: 8a5c a83c a10d 0b3c 2358 f7bb 0f64 843c
00000270: a330 c03d f081 b33d 3509 37be 56b5 acbc
00000280: 8c39 9b3d c20c 253e 93dc 813d ba76 113e
00000290: 0310 8c3d 61ac 243d 3cd7 143e 4d61 333e
000002a0: 5567 14be f179 49be 34a1 8a3c 5416 073e
000002b0: ae8d 663e be41 8abc a468 d9bd b3b9 d43c
000002c0: e175 313e 4ac3 e63d bc8b 79bd 8c78 08be
000002d0: 1074 853b 8497 42be aa92 33bd 6572 673d
000002e0: 24ac fcbc ada1 6a3d 1e68 b9bd 2804 3b3e
000002f0: ce06 ab3c 641e 24be 3968 76be 8eee fabc
00000300: 3b2f 65bc 13ab 9fbd 2eb6 413e 4093 1ebc
00000310: 12ab 00bd 6d7c 32be 307b febd 36e3 083e
00000320: 9d2e e0bd ad1d 0e3e 0e89 22be 13d0 8cbe
00000330: 28a9 b33d 6546 b7bd 26ed e73d 7a80 233d
00000340: 45bd 5cbd 9fdf 4bbe 683b 233d 5651 6c3d
00000350: 0328 51bd 9108 60be b2dd 66bd bf1f 9d3e
00000360: 9c3d d33d df90 adbc b66e 29bd 935b 52bd
00000370: bb55 2cbd 5918 3ebc 626d bebd f4bc 163d
00000380: 0b00 013d 0684 ca3d bf85 1c3d 211e 24be
00000390: 46c8 21bd b002 55be 8980 c63d 8204 523e
000003a0: d625 3abe 176e d63d 5c89 9dbd e65a c9bd
000003b0: 3e65 dd3d 895a e5bd 680f d7ba a379 bf3d
000003c0: 4fef 1c3d 88b1 db3d 3662 8e3d c0d5 0e3e
000003d0: 4368 0fbe dc74 8bbd b54c b5bd 93f7 22bd
000003e0: cedc 21bd 5500 10be d34a 80bd 4f09 353e
000003f0: a792 073b c119 2bbe 5f11 51be 34d3 513d
-0.060277022 -0.017926406 0.10430903 -0.120461464 -0.11987257 0.0035351047 0.07042113 -0.26204288
0.03337777 -0.260114 0.1297264 0.17773597 -0.10249004 0.03064909 0.04008278 -0.09915823
0.1436154 -0.04945321 0.17958091 -0.09183488 -0.061670635 0.0024529535 0.1196782 -0.0029620402
-0.11959665 0.029582242 0.06646878 -0.2045945 0.027878532 -0.030537127 0.031314787 0.11712022
-0.017629664 0.289171 -0.051919967 0.033610594 0.013856356 0.01067962 -0.015428855 -0.08664082
-0.035058577 -0.0331574 -0.21168439 -0.21038747 0.003371247 0.071319535 0.04269417 -0.08987558
-0.061167162 0.05758515 0.11184462 0.06813316 0.30027634 -0.11708378 -0.010284195 -0.0070851445
0.13976572 -0.2830768 0.039525732 -0.07980072 -0.020218572 -0.010226223 0.20125422 0.10644249
0.2755826 0.030261701 -0.3674082 0.10401276 -0.1040788 -0.09176348 -0.07787436 0.15346132
0.21799424 0.31365228 0.2056306 0.027976193 -0.11542401 0.009701085 0.14952067 -0.120638505
-0.09476613 0.014369736 0.0981569 -0.012346971 -0.2475333 -0.1037314 -0.09385965 -0.09955356
0.15292872 -0.22917137 -0.03137251 -0.11208323 -0.016664412 0.06990309 0.049576033 -0.00077527354
0.04148554 -0.07708107 0.034418896 -0.0914659 -0.0021439453 -0.06281244 0.0013970814 0.05423548
-0.06244464 -0.08585063 -0.052062076 -0.036994 0.048795547 0.14132518 0.12576163 0.12592088
0.12687425 0.08905449 -0.21626318 0.08120861 0.044589795 -0.048987743 -0.13030775 -0.15021971
-0.21531661 0.1545092 -0.12528954 0.016500287 0.16246393 0.1575033 -0.022133972 0.062245127
0.05272897 -0.046042982 0.1569619 0.063158214 0.027772794 -0.18591489 -0.18234143 -0.10182332
0.17844325 0.09687631 0.11008093 -0.114781015 0.14770532 0.18285337 -0.09032764 -0.10020256
0.33526278 0.17983602 0.0954302 -0.18742035 -0.037358254 0.060926065 -0.087172374 -0.28940356
0.020551939 0.008487136 -0.0075483485 0.016160993 0.09384277 0.08765018 -0.17874606 -0.021082561
0.075793356 0.16118148 0.06340899 0.14205447 0.068389915 0.040203456 0.1453523 0.17517586
-0.14492543 -0.19675423 0.01692257 0.13192111 0.22514984 -0.016877051 -0.10615662 0.025967455
0.17330123 0.11267717 -0.060924277 -0.13327235 0.0040726736 -0.19003111 -0.04384104 0.05650558
-0.030843802 0.057283092 -0.09053062 0.18263304 0.020877268 -0.16027218 -0.24063195 -0.03063133
-0.013988311 -0.07796302 0.18917152 -0.009678662 -0.031413145 -0.17430277 -0.1242584 0.13367924
-0.10946391 0.13878508 -0.15872595 -0.27502498 0.08772498 -0.089489736 0.11324529 0.039917447
-0.05389144 -0.19909523 0.039851576 0.057694755 -0.05106355 -0.21878268 -0.05636377 0.30688283
0.103144854 -0.021187244 -0.041365348 -0.051356863 -0.042073946 -0.011602485 -0.09298207 0.036801293
0.03149418 0.09888463 0.038213488 -0.16027118 -0.039497636 -0.20801806 0.09692485 0.20509532
-0.18178496 0.10470217 -0.07692215 -0.098317906 0.10810326 -0.11198909 -0.001640779 0.09349372
0.03831416 0.10727221 0.06952326 0.13948727 -0.14004616 -0.068093985 -0.08852521 -0.039786886
-0.039517216 -0.14062627 -0.062642716 0.17679332 0.0020686777 -0.16709043 -0.20416783 0.05122681

actor.4.bias f4 [64]
00000000: 1029 c13b 7675 66bb e520 81bd 7079 78bb
00000010: 184a b0bd b284 113d b8bb 113d 2fda 9b3d
00000020: f89f a8bd 7bd5 0c3d 766a 373c e066 d8bc
00000030: 57b9 6a3d 0f1e c63c fc05 a9ba 884a 063d
00000040: df3e 123d 79b1 26bc c06e ef3c 2c97 80bd
00000050: b2a4 3b3d fa7a a6bd a298 48bc 383c c8bb
00000060: 458a a33d be4f a03d df8f 773d 87a3 383b
00000070: 350f 9d3d 1d5d 7f3d 9930 58bd 06d9 b6bd
00000080: 5079 81bd 5537 823d 7170 1bbd 89d0 01bc
00000090: c784 523d 5767 9a39 46d1 4d3c 5ff2 8b3d
000000a0: a7fe 8cbc 6066 fdbc 98a5 8abd f256 3cbd
000000b0: ce8a c0bc 60f6 08bd 23ae 803d e7a7 adbd
000000c0: e711 48bc 4786 0cbd c61e 093d 52a6 9f3d
000000d0: 48a7 e3bc ec78 aabd 7c07 833d 02c7 1a3d
000000e0: 164d 733d 28a3 14bd d616 bdbb 859c 6fbd
000000f0: 5e5a 89bd 50d6 973d a9fd 043d 43ca 7ebd
0.0058947876 -0.0035165227 -0.06305102 -0.003791418 -0.08607882 0.03552694 0.035579413 0.076099746
-0.082336366 0.03438328 0.011194816 -0.026416242 0.05730566 0.024184255 -0.001289546 0.032785922
0.03570449 -0.010174149 0.029227614 -0.06278834 0.045811363 -0.08128925 -0.012243422 -0.0061106943
0.07985357 0.078277096 0.06043994 0.0028173642 0.07668916 0.06234466 -0.05278072 -0.08928113
-0.06321967 0.0635821 -0.03794903 -0.007923254 0.051396158 0.00029450163 0.012562102 0.06833338
-0.017211271 -0.030932605 -0.06769866 -0.045981355 -0.023503687 -0.033438087 0.06283214 -0.084792905
-0.0122112995 -0.034307744 0.033476613 0.07795395 -0.027789727 -0.08323845 0.06397912 0.037787445
0.059399687 -0.03628841 -0.0057705445 -0.058498878 -0.06706689 0.07413924 0.03246847 -0.06220461

actor.6.weight f4 [3, 64]
00000000: b3e1 debb f72f de3a 26ab 813c e6c0 6a3b
00000010: 5d43 86bc 6257 02bb c55c 623b e52d 88bb
00000020: 1c6f 2dbb 7350 6bba 704d beba e2c5 693a
00000030: c4dd 3abc d722 833d ff2a c63b 9988 0bbc
00000040: 1869 1dba 50cf 0c3b 9174 5bbc 5c3e c3bc
00000050: 3e99 7fbc bdd3 bc3b 254c a03b 3eb2 8a3b
00000060: 1072 abbb afe8 01bc 3cf4 b73b a4cf 993b
00000070: c685 093b 794b e8bb 6927 c03b 44d7 553b
00000080: e0d9 75bc a40e 313c 1f06 4ebc 8bce 893c
00000090: 249c 5f3c bb67 023b 3306 4dbc 7129 42bc
000000a0: 9814 db3a 70f0 4bbb c32d 853c 5ebe 68ba
000000b0: cf9c 643b de03 cfbb f227 a93b 26b6 e8bb
000000c0: 6900 7eba d409 a93b 99c5 a83a e4be 423b
000000d0: 6aec 173c b8f0 3fbc 5024 e83b 1717 d5b9
000000e0: ba14 84bc 989b bcbc d922 b739 8f0d a33b
000000f0: 1ea3 8e3b b851 2bbc c2b7 f63a f73e 50bc
00000100: 9683 37bc fcac 2b3c 9c5d 493c a163 4a3c
00000110: 5f12 833c b7ee c7bb 18c7 193c da30 efbb
00000120: 445b ce3a 2504 303c df1d edbb 6b9d 103c
00000130: 6810 3cbc 2c82 693c 361b 583c 64da 19bb
00000140: 5dbf 3ebc c810 573c 2974 4ebc 756f 9bbc
00000150: 660f 6abc bbcb 433c 9a54 1e3c 14a1 403c
00000160: 3320 d8bb fda7 21bc f94e 833c 1b09 493c
00000170: 2dae 483a 3208 ffbb 89ea 503c 5ca8 453c
00000180: 3108 01bc 7b77 eb3b ce2d 0cbc ffb6 4c3c
00000190: 4498 953c ecc5 463c c98c f239 ec51 68bc
000001a0: a228 2c3c e3c5 c3ba 8fe4 513c 2178 c93b
000001b0: b9da 633c 6a47 a5bb 56f5 803c f44e 05bc
000001c0: ae20 443c 97f0 413c 1d9f a0b9 8883 deba
000001d0: d656 133c 68ce d7bb f97d 493c c6dc deba
000001e0: 9a9c 24bc 8d4e a4bc cb19 443a 9409 2c3c
000001f0: af98 333c e1fe 0abc 602c 07bc e2a8 64bc
00000200: dbb2 e93c 050a 463d ce12 27bd 1d88 3b3d
00000210: d3fa e93c 78ad 163d df8e 423d 8b98 33bd
00000220: c936 313d 6231 323d 6485 74bd 7b8c 3e3d
00000230: 4292 113d 12fd 22be 586a 543d 6df5 613c
00000240: 1863 b8bd 9b20 2f3d c39c 253d f0bf 7c3b
00000250: 3ed1 223d c4fe 7f3d d255 3f3d 309c 473d
00000260: e970 303d d574 de3c c68e 533d 5802 2a3d
00000270: fd56 1dbd a80a b73b 4ceb 3d3d 2aa7 6e3d
00000280: ea35 bc3b 2bb9 f03c 8df5 0b3c 35de 32bb
00000290: 5f6c e73c 93ad 3e3d f65c 703c dbe4 093d
000002a0: d4f1 243d 3efe 113d 5174 713d b6bf fb3c
000002b0: 7e86 493d 8886 4b3b e152 443d 0638 3a3d
000002c0: 7f2c 353d c30d 3c3d dc44 123d 0b0c 013d
000002d0: ca7e 40bd ae2a 403d 9b4b 503d 85f4 233d
000002e0: 3809 973b 914e 02bd 6f71 53bc 3fad 3a3d
000002f0: 99b1 423d 8da4 883c 9493 2dbd 884e 423d
-0.006801808 0.001695155 0.01582868 0.0035820543 -0.016389543 -0.001988851 0.0034540158 -0.0041558617
-0.0026463931 -0.00089765264 -0.0014518928 0.00089177315 -0.011405412 0.064031295 0.006047606 -0.008516454
-0.0006004735 0.0021485873 -0.013394491 -0.023833446 -0.015600501 0.005762546 0.0048918896 0.004232674
-0.005232103 -0.007929011 0.005613832 0.004693942 0.0020984276 -0.007089075 0.005864073 0.003262953
-0.015005559 0.010806713 -0.012574702 0.01682212 0.013648067 0.0019898254 -0.012513685 -0.011850701
0.0016714511 -0.0031118654 0.016257172 -0.00088784646 0.0034883504 -0.0063175997 0.0051622326 -0.007101792
-0.0009689392 0.0051586423 0.0012876272 0.002971583 0.009272674 -0.011715107 0.007084407 -0.0004064373
-0.016123164 -0.023023412 0.00034930444 0.0049759815 0.004352941 -0.010456495 0.0018823075 -0.0127103245
-0.011200806 0.010478254 0.012290385 0.012352855 0.015999971 -0.006101455 0.009385847 -0.0072995247
0.0015743752 0.010743176 -0.007236227 0.008826594 -0.011478521 0.014252227 0.013190081 -0.0023476118
-0.011642304 0.01312656 -0.012600937 -0.018974045 -0.014285898 0.011950429 0.009663725 0.011757154
-0.0065956353 -0.009866712 0.016028868 0.012270237 0.0007655349 -0.0077829594 0.01275123 0.012064066
-0.007875488 0.007185874 -0.008555843 0.012494802 0.018261082 0.012132149 0.0004626273 -0.014179688
0.0105077345 -0.0014936294 0.01281084 0.0061483537 0.013907128 -0.0050439136 0.015741985 -0.0081365
0.011970682 0.011837146 -0.00030636127 -0.0016976455 0.008992871 -0.006585885 0.012298101 -0.0017003051
-0.010047102 -0.020056987 0.000748065 0.0105003305 0.010961696 -0.008483619 -0.008250326 -0.01395628
0.028527668 0.0483494 -0.040789418 0.045784105 0.028561985 0.036786526 0.047499534 -0.04384665
0.043265138 0.043504126 -0.059697524 0.04652069 0.035539873 -0.15916851 0.05185923 0.013791424
-0.09003276 0.042755704 0.040432703 0.0038566552 0.03975033 0.062498823 0.046712704 0.048732936
0.04307643 0.02715532 0.05164983 0.04150614 -0.038413037 0.005585987 0.046366975 0.05826489
0.0057437317 0.02938517 0.008542431 -0.002729309 0.028249918 0.046552252 0.014670601 0.03366552
0.040269688 0.035642855 0.05894882 0.030731063 0.049200527 0.0031055529 0.047930602 0.045463584
0.044231888 0.04591156 0.0357102 0.031505626 -0.046995915 0.046915703 0.050853353 0.040028114
0.0046092533 -0.031813208 -0.012905463 0.045575377 0.04753265 0.016680026 -0.04237707 0.047438174

actor.6.bias f4 [3]
00000000: 6b50 f8bc 504d 4b3d ed0c 393d
-0.030311784 0.049634278 0.045178343

critic.0.weight f4 [256, 259]
00000000: 2eec 343e 30b6 1fbd 351c 9ebe 7f87 39bc
00000010: 91d5 33bf 9b7a c7bd 9f56 913d e6df 5abd
00000020: d397 123d b1fc 4b3b 2063 2d3d cde8 a9bd
00000030: 58a5 b23d a385 0e3e 1e0c fc3d 218b 7bbc
00000040: a26c 193e 1e1e 9dbd c13f d6bd 715b 99bd
00000050: 8b9d d63d cd30 65be 2104 5ac0 b4e6 f23d
00000060: 5845 e8bd 1afa 8d3d 1211 81be 37d4 70bd
00000070: 50e7 143c 6f70 4e3f 3ad3 eb3d bd02 813d
00000080: 1f0b 8e3b b45a fa3d 6264 ebbd d284 31bd
00000090: 8dd2 5d3b bb9a 1abd 47bb 96bd b109 5b3d
000000a0: 27ef 383d 28be 7cbc 5e2e 10bd 65fc c43d
000000b0: 54d5 64bc a0c3 923d 6d31 abbe 6954 173e
000000c0: 105e 2bbe 4ea8 173e f6b1 26bd 564c ca3c
000000d0: aa7d 533d 3ecd 6cbf cf19 173c 73ec 823d
000000e0: 3293 3fbd 49a6 2ebb 6d2d be3d eba5 a5bb
000000f0: b195 993d f10c d23c ecb9 9bbb faff b8ba
00000100: 17f1 44bd ec2c bfbc 1f64 013e fa86 553d
00000110: f1ab 2bbd 0e70 e83d 1700 cebd 944c 973d
00000120: 76f2 18be 6523 88bd 076b ca3d 5faa 2bbe
00000130: 7444 7e3d 1b81 06bd 5c0e 9d3d 2c55 8a3e
00000140: 337f 0bbc 48d9 c4be 5e69 b93d dd6e 0cbd
00000150: d023 ea3d 5715 88be 572c 95be 20dd 03be
00000160: f9d6 e8bc c76f 52bd 4a9f 253e 0e83 db3d
00000170: 66a2 3d3d 3855 c0bd dfef b0bd 7c3c f53c
00000180: a42f 4e3a 1743 0abd 6c6a 2d3d 4d13 9a3d
00000190: d2f1 6fbd 92e8 89bd ff3d dcbc ee2b 2f3d
000001a0: 41a9 e83c 620b aa3d 6f20 38be e2cb 943d
000001b0: 134b d13d 046f 643c 4235 9d3d 586e 0fbe
000001c0: e5bd cc3b 2795 15bd 0a8d 86bd 0959 d1bb
000001d0: 386d d5bb 2273 8cbd 1268 053d d1fa 9bbd
000001e0: 8485 4abc 76cc 10bd 07cd 0b3d b158 b43d
000001f0: bddb 443d 8df1 513e 6a7e d6bc 1e09 533d
00000200: 1bc5 f7be 1b69 963d 87f3 903d cd14 14bc
00000210: fac6 913d 1dd3 cabc b4f4 773c 8ba3 6e3d
00000220: c945 25be 9dab eabd 5282 8b3c 94de 8bbe
00000230: a195 063e 4032 c13d 25cb 66bd 1048 ea3d
00000240: 880f b0bd b1f3 b9bd 1fff 5a3d 464d 85bc
00000250: feca 323e eb49 5c3d 066c a6bd c05e 323d
00000260: cd71 61bb ca54 5bbe f085 d3bc aa8e 1e3e
00000270: e438 e4bc 9532 bbbd be33 0a3e 0a93 16bc
00000280: adee 18be 7d91 bfbd 936c a5bb c816 d9bc
00000290: 6a14 023c 738c 95bb 15d2 87bd f5b3 a53d
000002a0: e7e0 15bd 7645 393d 84d8 1fbd 206e aa3d
000002b0: 9018 363e 4cf3 da3c 200e 60bd 5416 d93d
000002c0: 4d58 1dbe e66e a83d 4590 debd 8861 fb3b
000002d0: 58fd d0b9 3620 073e f134 19bd 5aef 03bd
000002e0: 2f23 193d fcdf 3d3e a1a9 633e 70f0 3abc
000002f0: e45f 27bd c9c7 443d 46f9 adbd 6b62 8bbd
00000300: 58d7 413e d9ec 10bc 1306 3dbd 1e2e 9cbd
00000310: f32b e23d 1514 73bc d937 b0bd 88ed 183d
00000320: 3a46 ee3d ae6d f43d 7731 d0bd 4440 a13d
00000330: d5dc abbc 29de f23d 6d95 64bd c430 503e
00000340: 9eb5 afbd 0a18 28bb dea3 893c c29f 2c3e
00000350: 9aaf f83c 4ad3 573d 930b 493c 5726 893c
00000360: a4fe 373d 3cf7 d3bd 4063 81bd c103 bdbd
00000370: 43eb a7bd b374 c4bd cda5 cabd eadd cabb
00000380: fec3 a63d af8b bebd 1e5b 81bf 1a2e b0bc
00000390: 57fe 093e bc3f 1ebe 61da 303d 8c66 2fbe
000003a0: 5ac3 523d 9ce5 d7be 3276 ef3c fca8 f6bc
000003b0: 627a d6bd c62c 0bbe b357 b7bd 018c e83d
000003c0: 0423 5dbd 19f8 a83d 4296 2a3e 8c79 303e
000003d0: 0e0f a3bd 0736 c0bd 5273 a0bc ba9e 913d
000003e0: f29c 653d 8eac 2e3d 4abb cd3d cb1f 1e3d
000003f0: 031c 883d b2b8 aa3d ee07 01bd d00d 28bc
0.1766822 -0.038992107 -0.30880895 -0.011323809 -0.7024775 -0.09740182 0.070966 -0.053436182
0.035789322 0.0031125958 0.04233086 -0.08296356 0.08722943 0.13918166 0.12306999 -0.015352995
0.14982846 -0.0767176 -0.10461379 -0.07488144 0.10479268 -0.22381897 -3.406502 0.118604094
-0.11341351 0.06932469 -0.25208336 -0.058796134 0.009088352 0.8064031 0.11514898 0.062993504
0.004334822 0.122243315 -0.11493756 -0.043339558 0.0033847422 -0.03774522 -0.07359939 0.05347604
0.04514995 -0.015426196 -0.03520047 0.09618453 -0.013966877 0.07166219 -0.33436146 0.14778294
-0.16735101 0.14810297 -0.04069706 0.024694603 0.051633514 -0.92500675 0.009222462 0.06392755
-0.046771236 -0.0026649407 0.09286008 -0.0050551794 0.074992545 0.025640937 -0.004752388 -0.0014114373
-0.048081484 -0.02333685 0.1263585 0.052130677 -0.041912023 0.11349498 -0.10058611 0.07387653
-0.14936242 -0.06647376 0.09883695 -0.1676421 0.062077 -0.03283797 0.076687545 0.27018106
-0.008514213 -0.38447022 0.090533 -0.034285415 0.11432612 -0.2657878 -0.2913539 -0.12877321
-0.02842282 -0.05137613 0.16174045 0.10718356 0.046297453 -0.09391254 -0.08639502 0.029936068
0.00078653754 -0.033755388 0.04233782 0.075232126 -0.058580227 -0.067338124 -0.02688503 0.042766504
0.028401019 0.08302952 -0.17981122 0.0726545 0.102193974 0.013942484 0.07676174 -0.14006937
0.006248223 -0.036519196 -0.0656987 -0.0063887876 -0.006513264 -0.06857897 0.032569952 -0.07616199
-0.012360934 -0.03535124 0.034131076 0.08805979 0.04806112 0.205023 -0.026183326 0.051522367
-0.48392567 0.07344266 0.07077699 -0.009038162 0.0711803 -0.02475887 0.015134025 0.058261435
-0.16139902 -0.11458514 0.017029915 -0.2731825 0.13143016 0.094334126 -0.056346077 0.11439526
-0.08596712 -0.090796836 0.05346596 -0.016272198 0.17460248 0.05378143 -0.081260726 0.043547392
-0.0034400106 -0.21419063 -0.025820702 0.1548411 -0.027859159 -0.09140507 0.134963 -0.00919033
-0.14934798 -0.093539216 -0.0050483434 -0.02650012 0.007939437 -0.004563862 -0.06631867 0.08090965
-0.036591437 0.04523226 -0.039024845 0.08321786 0.17782807 0.026727341 -0.05470097 0.10599962
-0.15365715 0.08224277 -0.10867361 0.0076715387 -0.00039861607 0.13195881 -0.037404004 -0.032210685
0.03738707 0.18542475 0.22232677 -0.011409864 -0.040862933 0.048042092 -0.08494811 -0.06805881
0.18929803 -0.008845531 -0.04614837 -0.07625984 0.11043539 -0.014836331 -0.08604402 0.037335902
0.116344884 0.11934982 -0.10165685 0.07873586 -0.020979324 0.1185878 -0.055806566 0.20331103
-0.085795626 -0.0025649094 0.01680177 0.16857818 0.03035717 0.052691735 0.012270826 0.016741915
0.04492058 -0.103498906 -0.063177586 -0.092292316 -0.081991695 -0.09592571 -0.09894905 -0.006191005
0.08142851 -0.09303986 -1.0105932 -0.021506358 0.13475929 -0.15454 0.043177012 -0.17128962
0.051455833 -0.42167366 0.029231165 -0.030109875 -0.104725614 -0.13591298 -0.08952274 0.113548286
-0.05398847 0.08250446 0.16658881 0.17233866 -0.07961856 -0.09385305 -0.019586239 0.07110353
0.056057878 0.04264503 0.10045488 0.03860454 0.06645968 0.08336009 -0.031501703 -0.010257199

critic.0.bias f4 [256]
00000000: 76a2 06bd b47f ca3c 99cf f13c e380 9a3c
00000010: 2741 f33c 6eed 84bd d850 8c3d ab53 c1bd
00000020: bbcd 91bc b644 7cbc f66e efbc 487f 0f3d
00000030: a3e8 083d 300f 2e3d 78bf 003c f974 8f3c
00000040: bae2 ac3b be47 633b eb32 d8bc cf2b 973d
00000050: 77ad 8f3c c2a3 c53d be2c 9dbb 5c03 07bd
00000060: 2582 15bd eda8 10bd a9e6 f2bc 9bb7 383d
00000070: 4643 9f3d c9d6 36bd 858e 3abd 7f73 02bd
00000080: 22c9 cabc 0df9 643c 463d 19bd 6cfa 393b
00000090: de58 9dbc b9aa 35bd 43f6 a4bb aa4e fabc
000000a0: e2d8 74bc 0cf4 98bb ebbf 3abd bea6 61bd
000000b0: f669 b43d 66c6 993d cc16 0cbd 20a1 0ebd
000000c0: 7554 35bd 66e5 373c 9e94 40bd 34d5 33bd
000000d0: 350a ad3d b5a6 00bd 1dd1 9e3d 1dda 75bd
000000e0: 763d 39bd b70d 91bd 16d9 d2bb b785 1abd
000000f0: a035 b0ba bd80 2d3d e014 c53d 03c7 eb3c
00000100: ab6d 723d dcbf e6bc 2e45 ccbd 7adc b3bc
00000110: aff1 12bd 5feb 343b 8a88 f63b ca1d d13b
00000120: 62c6 6b3d 5240 78bd 1db7 153d ce72 123d
00000130: 7b2d a73a 23e6 4a3d 20e6 4a3b 4c33 41bd
00000140: 4b86 843d 5044 593d 852f 9bbc a578 323d
00000150: 1ea4 203d 4c5f 04bc d62d 8b3d 5e17 16bd
00000160: f700 253b e2f6 41bd 6d51 5e3d fe2e 5a3c
00000170: 1192 e1bb dd32 833d 5a52 a93c 979d 98bc
00000180: 0a5a 333d 72d3 5abd 3d26 b73d 38a0 5e3d
00000190: c1b5 0f3c 2be5 83bd 326e 5fbd d4ba a63d
000001a0: 2add d6bc 0ed6 16bd 1bb7 103c 0593 013d
000001b0: f890 19bb 0fb3 e83c 35c4 923d fe82 173d
000001c0: 354f 47bd 0cbe 10bc 0bb2 ee3c 7ee9 73bd
000001d0: 2ad3 a53c 28e1 2a3b 8440 ae3a 1fa0 0fbd
000001e0: c70f 213d 2a29 32bd 2eb4 03bd 17b3 423c
000001f0: a125 41bb 1f14 81bc e3cd 143c b148 963c
00000200: 86cb 3c3d 0bb7 47bd 57e6 58bd 01a2 9f3d
00000210: 55bd c53d 31b3 5d3c f448 1cbc 828f fb3c
00000220: b366 653d ea1e 7cbc dca2 223c f158 113d
00000230: 8286 33bd a600 1cbd a26a 81bd 8d0d d1bc
00000240: 3354 5cbc 59c8 843d a539 0bbd 3918 81bd
00000250: c08e 84bd 6d52 9eba d122 41bd 5537 0e3d
00000260: 179e a73c 7560 183d cc26 d23c 6b24 d13c
00000270: 3369 31bc 7819 bfbc 9a82 2d3d 400e fc3c
00000280: d793 e5bc 7190 8d3c fd5c 033d 6348 82bd
00000290: ffa2 6d3c 9482 56bd 4458 0a3d 2a30 68bd
000002a0: 42b0 043d 628f 583c c77e 7b3d bd47 1d3d
000002b0: 1a84 313d 5d0c 5b3b 90a6 47bc f53f 5cbd
000002c0: 3b4d 7d3c a2c2 a8bc 974d 20bd 61e6 9d3d
000002d0: a0d7 20bd d8ae 233c e449 19bd 502c 71bd
000002e0: 0a8b bbbc 8a29 6e3c 1bbd b8bd ad6a 9fbb
000002f0: 14e8 23bc c869 61bc e142 233c 92f9 03bd
00000300: e0ac 943c 7897 37bd 7702 843d 9c58 093d
00000310: f5e7 923c 9de8 ea3c e058 86bc 4338 c5bc
00000320: c6ff 2abc d043 1d3c e2d0 aa3d 4500 36bd
00000330: 8385 21bc 69bc 123c 7de6 02bb e4be 713d
00000340: c71b 5fbc 5b22 373b 9371 3f3d 5cb0 ae3d
00000350: eb4d e1b8 2a7b d83c 039e 21bc 9698 bf3d
00000360: c301 ac3c 3749 003d fd9c 8e3d 8781 a73c
00000370: 0cdc 8d3d d3b5 86bc 7330 33bc 559a 983d
00000380: e62b d43c 9761 74bd 27ed 78bd 0a34 d1bc
00000390: 8bb0 8f3c b498 57bd f94d 8ebb 160f 95bc
000003a0: eddf 45bb d6d2 23bb 58d9 bf3c 7256 0fbc
000003b0: ed18 303d d268 aa3d 8ca7 18bc 41f4 27bd
000003c0: 1222 ce3c 9a5d b73d 4828 57bd 57ed db3c
000003d0: 0c8e b43b 232b 043d ff24 68bd 7b82 213d
000003e0: ba6f 99bc 73a0 1ebd bcf5 31bd 090e 0ebb
000003f0: ba6c 623d 3f44 a03b d222 6e3b dd90 773d
-0.03286978 0.024719097 0.029517936 0.018860286 0.029694153 -0.064905986 0.06851357 -0.094397865
-0.017798295 -0.015397241 -0.029227715 0.035033494 0.033424985 0.042494953 0.00785815 0.017511832
0.0052760513 0.0034680213 -0.026391467 0.07381403 0.01753877 0.09650375 -0.0047965935 -0.032962188
-0.03650107 -0.03531735 -0.029651003 0.045096975 0.07776503 -0.04463843 -0.045546073 -0.031848427
-0.02475411 0.013975394 -0.03741195 0.0028378023 -0.019207414 -0.044352267 -0.0050342395 -0.030555088
-0.014944287 -0.0046677645 -0.045593183 -0.05509066 0.08809273 0.075085446 -0.03420143 -0.03482163
-0.044269998 0.011224126 -0.047016732 -0.0439045 0.084492125 -0.031408984 0.07754729 -0.060022462
-0.04522463 -0.07082694 -0.00643457 -0.037725177 -0.0013443716 0.042359103 0.09623122 0.02878142
0.05918662 -0.028167658 -0.099741325 -0.021955717 -0.03587502 0.0027606112 0.007523601 0.006381725
0.05756224 -0.060608216 0.036551584 0.035754018 0.0012754643 0.04953588 0.003095992 -0.04716806
0.06470927 0.053043664 -0.018943558 0.043572087 0.039219014 -0.008079361 0.06795852 -0.03664338
0.0025177577 -0.047354586 0.054276872 0.013316868 -0.0068838676 0.06406186 0.020669151 -0.018629832
0.04378704 -0.053424306 0.0894284 0.054352015 0.008771361 -0.06440195 -0.05454845 0.081411034
-0.026228506 -0.036825232 0.008832718 0.03163435 -0.0023432355 0.028405694 0.0716633 0.03699016
-0.048659522 -0.008834373 0.029137632 -0.059548847 0.020242292 0.0026074145 0.0013294374 -0.035064813
0.039321687 -0.04349629 -0.032154255 0.011883519 -0.0029471891 -0.015756665 0.00908229 0.018345209
0.046092533 -0.048758548 -0.052954044 0.07794572 0.09655253 0.013531492 -0.009538878 0.030708078
0.056006145 -0.01538823 0.009926524 0.03548521 -0.04382945 -0.038086556 -0.06319167 -0.025519157
-0.013447809 0.06483526 -0.03399052 -0.06303448 -0.0647254 -0.0012079008 -0.047152344 0.034720737
0.020461125 0.037201364 0.025653265 0.02553006 -0.010828304 -0.023327574 0.04236088 0.030768514
-0.028024597 0.01728079 0.032071102 -0.06361463 0.014504193 -0.052370623 0.033775583 -0.056686558
0.032394655 0.013217779 0.0614002 0.038398493 0.043338872 0.0033424117 -0.012185708 -0.05377193
0.015460308 -0.02060062 -0.039136495 0.07709957 -0.039268136 0.0099904165 -0.037423983 -0.05888015
-0.022893447 0.014536271 -0.09020444 -0.0048650117 -0.010004062 -0.01375813 0.009964676 -0.03222043
0.01814884 -0.044822186 0.06445783 0.03353177 0.017932871 0.028675372 -0.0163998 -0.02407468
-0.010436958 0.009598687 0.083406225 -0.04443385 -0.009858492 0.008956053 -0.0019973808 0.059019938
-0.0136174625 0.0027944061 0.046739172 0.08529732 -0.000107433494 0.026425917 -0.009864333 0.09355275
0.020996934 0.031319823 0.06963537 0.020447506 0.06926736 -0.016444122 -0.010936844 0.074513115
0.025899839 -0.05966338 -0.06077304 -0.02553751 0.017540237 -0.052635863 -0.004342791 -0.01819567
-0.0030193285 -0.0024997494 0.023419067 -0.0087486375 0.04299252 0.08320774 -0.00931729 -0.041004423
0.02516273 0.089534 -0.05252865 0.02684657 0.0055100974 0.0322677 -0.056675907 0.039431076
-0.018730033 -0.038727235 -0.04344724 -0.0021675846 0.05527947 0.004890948 0.0036336672 0.060440887
