rlgpu/logs/traceCurve/model_1600.pt (torch, 890603 bytes, 16 tensors)

log_std f4 [10]
0	0xbf363e12	-0.7118846
1	0xbf38a7bc	-0.7213094
2	0xbec5aa1d	-0.3860635
3	0xbe5be858	-0.21475351
4	0xbe872b58	-0.26400256
5	0xbc995bb7	-0.01872049
6	0xbe0487c6	-0.12942418
7	0xbc47f268	-0.01220379
8	0xbda0e804	-0.078567535
9	0xbda2e67b	-0.07954117

actor.0.weight f4 [256, 269]
0	0xbc67e4ee	-0.014153702
1	0x3c367cc9	0.01113815
2	0x3d07d3d9	0.033161018
3	0x3c97c80a	0.018528003
4	0x3d003d16	0.031308256
5	0x3cf1d97a	0.029522646
6	0x3e21281d	0.15737958
7	0x3da1b4f3	0.078958414
8	0xb71707b4	-9.002095e-06
9	0x3d90103b	0.07034346
10	0x3b6f740f	0.0036537682
11	0xbe0e4e98	-0.13897169
12	0x3e18cd6b	0.1492211
13	0x3e1a3f53	0.15063219
14	0xbd16db61	-0.03683031
15	0x3bead8cc	0.0071669575
16	0xbdccdb77	-0.10002797
17	0xbe25bf12	-0.16186169
18	0x3dac8169	0.084231205
19	0xbe01a1b3	-0.1265934
20	0xbbc227bd	-0.0059251473
21	0xbd2a4ab6	-0.041575156
22	0x3cbbfc3a	0.02294742
23	0xbcfa2304	-0.030534275
24	0xbd767fa4	-0.06018032
25	0x3dbc432e	0.09192501
26	0x3b09ed90	0.002104614
27	0x3dae9321	0.08524156
28	0xbc886c41	-0.016653182
29	0xbcd0aa78	-0.02547191
30	0xbcfdc8f7	-0.030979617
31	0xbd3ce706	-0.04611876
32	0x3d10b73b	0.035330992
33	0x3e0b4e9b	0.13604204
34	0xbd600187	-0.054688957
35	0x3b73b545	0.0037186902
36	0xbd48bff6	-0.049011193
37	0x3d2735f1	0.040822927
38	0xbd1cbb91	-0.038264815
39	0x3e2ff997	0.17185055
40	0xbcd061d6	-0.025437277
41	0xbcdd04b8	-0.02697979
42	0xbde6fb58	-0.11278409
43	0x3e53c956	0.20682272
44	0xbd15ef48	-0.03660515
45	0xbe2723a4	-0.1632219
46	0xbc553bca	-0.013014743
47	0xbc757d4e	-0.014983488
48	0xbd2c4256	-0.04205545
49	0x3dd995a2	0.10624243
50	0xbde6bd75	-0.11266605
51	0xbd3aaa4f	-0.045572575
52	0xbc0c8fcd	-0.008579207
53	0x3d3401e6	0.043947123
54	0xbd19b54f	-0.037526425
55	0xbc7c7d9b	-0.015410806
56	0xbe0d3bfe	-0.13792416
57	0xbdd30856	-0.10304324
58	0xbc472a77	-0.0121561205
59	0x3c699960	0.014257759
60	0x3df9b6ba	0.121930555
61	0xbc6487a9	-0.0139483595
62	0xbe633f8b	-0.22192208
63	0x3d24ccb7	0.040234294
64	0x3d2b1ff9	0.04177854
65	0xbdb23382	-0.087012306
66	0x3c8283fe	0.01593208
67	0xbc32889c	-0.010896828
68	0xbdba6d41	-0.0910287
69	0x3da66e13	0.08126464
70	0x3d4aece1	0.04954231
71	0xbd4ddbd5	-0.050258476
72	0x3d7db03e	0.061935656
73	0x3e3afb1c	0.18259853
74	0x3dd95f92	0.10613932
75	0x3e1e2e93	0.15447454
76	0xbc417cad	-0.01180951
77	0x3c9797e1	0.018505039
78	0x3d6efdb2	0.05834741
79	0x3dc0179e	0.093795046
80	0xba07dbce	-0.0005182595
81	0xbe0338f2	-0.12814692
82	0xbe48eae3	-0.19620852
83	0x3dfce6b5	0.123486914
84	0x3dbf62fc	0.09345052
85	0xbd31ae25	-0.043378968
86	0xbdfcd938	-0.12346119
87	0xbcaa25da	-0.020770002
88	0x3e420772	0.18948153
89	0xbaa98051	-0.0012931918
90	0xbd8d8f4a	-0.06912096
91	0xbe021397	-0.12702785
92	0xbd654456	-0.055973373
93	0xbdd20889	-0.10255534
94	0x3d913051	0.07089294
95	0xbd0bc076	-0.034119092
96	0x3d0a2d7e	0.03373479
97	0xbcfcef81	-0.030875923
98	0xbd188820	-0.037239194
99	0xbd93b922	-0.07213046
100	0xbd6267a8	-0.055274636
101	0x3d023eba	0.031798102
102	0xbc531ec0	-0.012885749
103	0xbd21383a	-0.039360262
104	0x3cac155e	0.021006282
105	0xbd097cde	-0.03356635
106	0xbd0c9e9b	-0.034330945
107	0xba144eed	-0.0005657513
108	0x3cfef089	0.031120555
109	0xbd9bf762	-0.07615544
110	0xbc9fb20f	-0.019494085
111	0xbd280050	-0.041015923
112	0x3d91fc5a	0.0712821
113	0x3d027dd8	0.031858295
114	0x3df51224	0.11966351
115	0xbdbb0827	-0.09132414
116	0xbd6b2d30	-0.05741614
117	0xbd9093b9	-0.07059426
118	0xbd47b3ea	-0.048755564
119	0x3b63dae6	0.0034767925
120	0xbe139e4f	-0.14415859
121	0x3e3fb0ee	0.18719837
122	0x3e81f043	0.25378618
123	0x3dd9f414	0.10642257
124	0x3e11acbe	0.14226052
125	0x3beb9c3f	0.007190257
126	0xbd040698	-0.03223285
127	0x3dd6d0df	0.10489058
128	0xbda266f2	-0.079297915
129	0x3da61d65	0.08111075
130	0x3c9fe199	0.019516753
131	0xbcc76c43	-0.024343615
132	0x3c4b0e9b	0.012393619
133	0x39acbc54	0.00032946712
134	0xbd03acaa	-0.032147087
135	0xbd1c8d44	-0.03822066
136	0x3d632d3a	0.055463053
137	0x3dddecce	0.108361825
138	0x3e0dfd99	0.13866271
139	0x3e10eb16	0.14152178
140	0xbc8870be	-0.016655322
141	0xbb95aa6d	-0.0045674355
142	0xbd3da650	-0.046301186
143	0xbd58c4c1	-0.052922014
144	0xbd367331	-0.04454345
145	0x3e32f854	0.17477542
146	0xbc451eb2	-0.012031244
147	0xbd2e8170	-0.04260391
148	0x3db12b24	0.086508065
149	0x3dea7d62	0.11449696
150	0x3d78814c	0.060670182
151	0x3d0022f7	0.031283345
152	0x3d35b0e9	0.044358168
153	0xbe242c1f	-0.16032456
154	0x3e3d9069	0.1851212
155	0x3e35c4ec	0.17750901
156	0x3d33e07d	0.04391526
157	0x3d70fd2d	0.058835197
158	0xbe236056	-0.15954718
159	0x3c4e5516	0.012593528
160	0x3c40e7e9	0.011774042
161	0x3d1f6398	0.03891334
162	0xbd7a5da2	-0.06112445
163	0x3cd1dcb5	0.025617937
164	0x3d4ba44c	0.049717233
165	0xbbc35bc7	-0.0059618684
166	0x3a3f2401	0.0007291437
167	0xbd50bd76	-0.050961934
168	0xbdb8930b	-0.09012421
169	0xbacf0eb5	-0.001579723
170	0x3d0fa56b	0.035069864
171	0x3cce30e4	0.025169797
172	0xbd1f13e0	-0.038837314
173	0xbced2e1f	-0.028952656
174	0x3db087c9	0.08619649
175	0xbdeeafa2	-0.11654593
176	0x3daa6588	0.08320147
177	0xbd91c657	-0.071179084
178	0xbd84f34a	-0.06491716
179	0x3d96d493	0.07364764
180	0x3cbfc43a	0.023408998
181	0x3dae0371	0.0849675
182	0x3ce2d571	0.027689667
183	0xbdb585f4	-0.0886344
184	0x3d4b1a99	0.049585912
185	0xbd257428	-0.04039398
186	0xbc0960fa	-0.008384937
187	0xbc61e1e6	-0.013786769
188	0x3d87a692	0.06623568
189	0x3d2a0b90	0.041514933
190	0x3cbde8e5	0.023182342
191	0xbcd22a88	-0.025655046
192	0x3db35e47	0.08758216
193	0xbd1c8902	-0.0382166
194	0x3be215b7	0.0068995613
195	0xbd5f3722	-0.054495938
196	0xbdfda689	-0.1238528
197	0x3e24f9a7	0.1611086
198	0xbe13eacb	-0.14445035
199	0x3da5db1b	0.08098432
200	0xbbc4fa16	-0.006011258
201	0xbde23cac	-0.110467285
202	0x3c9c29c1	0.019062879
203	0x3da48936	0.080339834
204	0x3df308f6	0.118669435
205	0xbe4bccc2	-0.19902328
206	0x3d375220	0.044756055
207	0xbe147726	-0.14498577
208	0xbc89d3c7	-0.016824616
209	0x3d10317e	0.03520345
210	0x3d09d919	0.033654306
211	0xbcf33349	-0.02968754
212	0x3e1828fc	0.14859384
213	0x3b9859b3	0.004649365
214	0x3d856c82	0.06514837
215	0xbd344fa8	-0.04402128
216	0xbd9d498e	-0.07680045
217	0xbdcc65c6	-0.09980349
218	0x3c153042	0.009105744
219	0xbcdb33d9	-0.026758121
220	0xbdac071a	-0.08399792
221	0xbe174eab	-0.14776103
222	0x3d99c0ec	0.075075
223	0x3d53e1a1	0.05172885
224	0xbd9f7004	-0.07785037
225	0x3d0c3a37	0.034235206
226	0xbd1832e8	-0.037157923
227	0xbdea8fec	-0.11453232
228	0xbd5766e8	-0.052588373
229	0xbe473dd9	-0.19457187
230	0xbe137746	-0.14400968
231	0x3d8e19f4	0.06938544
232	0x3a63d8c1	0.00086916616
233	0xbd8dd349	-0.06925065
234	0xbe0cedd9	-0.13762607
235	0x3d3f486b	0.046699923
236	0x3dadab7d	0.084799744
237	0xbd88199a	-0.06645508
238	0xbe39a2ac	-0.1812846
239	0x3e1407f3	0.14456157
240	0x3d2b8a99	0.041880224
241	0x3dd25c4e	0.10271512
242	0xbd9bba1c	-0.07603857
243	0xbe1a8f5b	-0.15093748
244	0xbdc5a57c	-0.09650704
245	0xbd1acc23	-0.037792336
246	0x3b2220c5	0.002473877
247	0xbc367704	-0.011136774
248	0x3e21078e	0.15725538
249	0xbe1f2f56	-0.15545401
250	0xbde71394	-0.11283031
251	0xbd8bc9f8	-0.06825632
252	0x3db76959	0.0895564
253	0xbced9b40	-0.029004693
254	0xbdc9301f	-0.098236315
255	0xbd310f70	-0.043227613

actor.0.bias f4 [256]
0	0xbabea1a6	-0.0014544025
1	0x3a7ab7ec	0.00095641497
2	0x3c2a4479	0.010392302
3	0xbc31af99	-0.010845088
4	0xbb9aef2b	-0.004728218
5	0xba8a149d	-0.0010534708
6	0xba70fb00	-0.00091926754
7	0xbd503482	-0.050831325
8	0xbc9eb415	-0.01937298
9	0xbc3f813d	-0.011688528
10	0xbd739da8	-0.059476525
11	0x3c734877	0.01484882
12	0xbd6e989b	-0.058251005
13	0xbc807660	-0.015681446
14	0xbd4134f3	-0.047169637
15	0x3ca52444	0.020158894
16	0xbd194c21	-0.037426118
17	0x3d38be1b	0.045103174
18	0xbcac85bb	-0.021059861
19	0xba68832a	-0.00088696426
20	0xbb61cf78	-0.0034455936
21	0xbc9d66b6	-0.019214015
22	0x3c8bc04e	0.017059471
23	0x3cd8b6db	0.02645438
24	0xbb4d2ec7	-0.00313084
25	0x3d2c3398	0.04204139
26	0xbd54e4ca	-0.051976003
27	0x3d048b0d	0.03235917
28	0xbc197333	-0.009365845
29	0x3d6d449e	0.057926767
30	0x3c0b85e8	0.008515812
31	0x3d3c91d8	0.046037525
32	0xbd1151fd	-0.03547858
33	0x3b2b9edb	0.0026187215
34	0x3d6a53d1	0.05720884
35	0x3c3b8687	0.011445648
36	0xbd238423	-0.039920937
37	0x3ca145e4	0.019686647
38	0xbd5c0a3b	-0.053720694
39	0xbd080a74	-0.033213094
40	0xbd1e69ae	-0.038675003
41	0x3d33ce43	0.04389788
42	0xbc2dd7cc	-0.010610532
43	0xbbf574d0	-0.007490732
44	0x3bb7955b	0.0056025214
45	0xbc8691b7	-0.016426904
46	0xbc1d102c	-0.009586375
47	0xbd19f439	-0.037586424
48	0xbc940765	-0.018069932
49	0xbd30864b	-0.04309682
50	0xbd4e0f0f	-0.05030733
51	0xbd54f219	-0.051988695
52	0x3c974deb	0.018469771
53	0xbd003f0a	-0.03131012
54	0x3c2e1ea5	0.010627423
55	0xbd0999d5	-0.03359397
56	0xbd4efff3	-0.05053706
57	0xbd226c03	-0.03965379
58	0x3d6103fe	0.054935448
59	0xbb8e506d	-0.0043430836
60	0xbd18340e	-0.03715902
61	0x3cf535d6	0.029932898
62	0x3d63f794	0.05565603
63	0xbc339f60	-0.010963291
64	0x3d671ab9	0.05642197
65	0x3bf091b7	0.0073415893
66	0x3bd1cc4a	0.006402527
67	0xbd49b9d8	-0.0492495
68	0xbd68dc15	-0.05685051
69	0xbd69ecf9	-0.05711076
70	0x3d0e25ff	0.034704205
71	0x3c1d9d3a	0.009620005
72	0x3d0499b6	0.032373153
73	0xbd34dc0e	-0.044155173
74	0x3d27741e	0.040882222
75	0x3d671f10	0.056426108
76	0xbd0b381e	-0.033989064
77	0x3b8711a6	0.004121977
78	0xbd348a2d	-0.044077087
79	0xbd31d870	-0.0434193
80	0x3d44839b	0.04797707
81	0xbd489649	-0.048971448
82	0xbcccaeac	-0.024985634
83	0x3caafae2	0.020871583
84	0x3d5da64a	0.054113664
85	0xbd695854	-0.056969002
86	0xbd48a9f6	-0.048990212
87	0xbc716596	-0.014733693
88	0x3c643493	0.01392855
89	0x3c65af0e	0.014018787
90	0x3d2f3325	0.042773385
91	0xb9370667	-0.00017454625
92	0xbd3d1a6c	-0.046167776
93	0x3d1a6587	0.03769448
94	0xbbdcba61	-0.0067360853
95	0x3d37f464	0.044910803
96	0x3d399be9	0.045314703
97	0x3d2de010	0.04245001
98	0xbca7956b	-0.02045699
99	0x3d721e75	0.059111077
100	0x3d75802a	0.05993668
101	0xbc6f047e	-0.014588473
102	0xbc7f08c3	-0.015566054
103	0x3d56f710	0.05248171
104	0xbd197933	-0.0374691
105	0xbcb5226f	-0.022111146
106	0x3d00ede9	0.03147689
107	0xbccf3382	-0.025293116
108	0x3cf18e6d	0.02948686
109	0xbbdc4bb1	-0.0067228903
110	0x3c13c948	0.009020157
111	0xbd056e5d	-0.032575954
112	0x3d5c6fd0	0.05381757
113	0xbd00f923	-0.031487595
114	0x3d0b33cd	0.033984948
115	0x3c9d810f	0.019226579
116	0xbd719d19	-0.05898771
117	0x3ba28d26	0.004960674
118	0x3d5418da	0.051781513
119	0xbd1dd680	-0.03853464
120	0x3d0034ff	0.03130054
121	0xbd185d70	-0.037198484
122	0xbd731956	-0.059350334
123	0xbd3057f2	-0.04305262
124	0xbd50f3cb	-0.05101375
125	0x3d7324d8	0.05936131
126	0x3d271cdf	0.040799018
127	0x3d726f7f	0.059188362
128	0x3d15528c	0.036455676
129	0x3d6f6901	0.05844975
130	0x3c80c067	0.015716745
131	0xbc6c57ee	-0.014425261
132	0x3c322109	0.010872134
133	0x3d0300ef	0.031983312
134	0x3d17a103	0.037018787
135	0xbbdf160a	-0.006808047
136	0xbcfea3c7	-0.031083954
137	0xbcbf58fa	-0.023357857
138	0x3d622896	0.055214487
139	0xbd04db9a	-0.03243599
140	0xbd0dd257	-0.034624424
141	0xbc8fb8e7	-0.017544223
142	0x3cd476a8	0.025935486
143	0xbcf66f3e	-0.030082341
144	0xbc6f28b6	-0.014597109
145	0x3d3a8c94	0.045544222
146	0x3c6db20c	0.014507782
147	0x3cc415d8	0.023936197
148	0xbd30e03b	-0.043182593
149	0xbb98e491	-0.004665919
150	0x3d2781ce	0.040895276
151	0xbd27d1f5	-0.040971715
152	0xbb92c513	-0.0044790595
153	0xbce4a6f2	-0.027911637
154	0xbccdc35d	-0.02511757
155	0xbc42b1cc	-0.01188321
156	0x3c954c25	0.018224785
157	0xbc955e1a	-0.018233348
158	0x3bacf752	0.0052785063
159	0x3d5fa482	0.054600246
160	0xbc496882	-0.012292983
161	0xbcd1df86	-0.02561928
162	0x3d22f975	0.039788682
163	0xbc8a7bd7	-0.016904755
164	0x394436e8	0.00018712471
165	0xbce7497f	-0.028233288
166	0xbc9eaba9	-0.019368963
167	0x3d34b707	0.04411986
168	0x3d0fedd0	0.035138905
169	0x3d01100b	0.03150944
170	0xbc983e77	-0.018584473
171	0xbd12d8ff	-0.035851475
172	0x3ca8faf3	0.020627474
173	0xbd549fc3	-0.051910173
174	0x3c134c9b	0.008990432
175	0xbd38024b	-0.04492406
176	0xbc7fc8ef	-0.015611871
177	0x3ba5c9ad	0.005059442
178	0xbd58e40f	-0.05295187
179	0x3bbeac02	0.005818845
180	0xbca6c6c7	-0.020358456
181	0x3d854cd4	0.065087944
182	0xba6805ab	-0.0008850942
183	0xbd6679f9	-0.056268666
184	0xbd1e84c4	-0.038700834
185	0xbbc59e10	-0.0060308054
186	0xbb9d59e7	-0.004801977
187	0xbc4533ae	-0.012036247
188	0xbbb63a73	-0.005561167
189	0xbb53ce86	-0.0032319142
190	0x3c167277	0.009182564
191	0xbd3f2d8c	-0.046674296
192	0x3c5eeb04	0.013605837
193	0x3c23526d	0.009968382
194	0x3c42e7ac	0.011896055
195	0xbd385c16	-0.045009695
196	0xbccdb8ae	-0.025112476
197	0x3cdc88ab	0.026920637
198	0xbc5926b7	-0.013253859
199	0x3d547575	0.05186983
200	0x3bb3288a	0.005467479
201	0xbbf01e50	-0.0073278323
202	0xbcf283d4	-0.029603876
203	0x3c1b80e3	0.009491178
204	0xbd64663b	-0.055761557
205	0xbd3750b4	-0.0447547
206	0xbcc0d8e6	-0.023540925
207	0xbd7303c0	-0.05932975
208	0x3cf68a32	0.030095194
209	0xbd0fa350	-0.035067856
210	0x3be57cc7	0.0070034
211	0x3d1c8a5d	0.03821789
212	0xbc53b08d	-0.012920511
213	0x3d50870a	0.050910033
214	0xbc9f51f2	-0.019448254
215	0xbd6deade	-0.058085315
216	0x3b951886	0.0045500426
217	0xbd5df8f5	-0.054192502
218	0xbc1f746d	-0.009732348
219	0x3d11f6e0	0.03563583
220	0xbade03b3	-0.0016938358
221	0xbd305bec	-0.043056414
222	0x3d360e9d	0.04444753
223	0x3cb8e87a	0.022571791
224	0x3d2f4385	0.042789
225	0xbd61db0c	-0.05514054
226	0xbd80c494	-0.06287494
227	0xbd67017e	-0.056397907
228	0x3b925f05	0.0044668936
229	0xbc7b9e38	-0.0153575465
230	0xbd4e673a	-0.050391413
231	0x3bcec108	0.006309632
232	0xbb7b8b0f	-0.0038382446
233	0xbd0a3c7e	-0.033749096
234	0x3d47b6ca	0.048758306
235	0xbd02a75f	-0.0318979
236	0x3d6ad97a	0.057336308
237	0xbcc7208c	-0.024307512
238	0xbd1e0432	-0.03857822
239	0xbd18d802	-0.037315376
240	0xbcf83595	-0.030298987
241	0xbd3619ba	-0.04445813
242	0xbcc5fbab	-0.024167856
243	0xbce60f37	-0.028083427
244	0x3d3c7c21	0.046016816
245	0xbd55982d	-0.05214708
246	0x3cc292ee	0.023751702
247	0xbd582063	-0.05276526
248	0x3d4abee4	0.049498454
249	0x3c69ebae	0.014277382
250	0x3d53f2d4	0.05174525
251	0x3cdbb437	0.026819332
252	0xbcc4c70e	-0.024020698
253	0x3cc40dfd	0.023932451
254	0x3d592ead	0.05302303
255	0xbd5b2447	-0.053501394

actor.2.weight f4 [128, 256]
0	0xbddaa807	-0.1067658
1	0x3bbc3586	0.005743685
2	0xbe170d76	-0.14751229
3	0xbdd72068	-0.10504228
4	0xbddc1b03	-0.107473396
5	0xbe2ef0d8	-0.17084062
6	0xbd088925	-0.033333916
7	0x3d5f4108	0.054505378
8	0xbdc46057	-0.09588688
9	0x3d02f59d	0.031972516
10	0x3d617a0b	0.05504803
11	0xbd850b6d	-0.0649632
12	0x3d23b141	0.039963964
13	0x3c21a124	0.009865079
14	0xbd8a2f23	-0.06747272
15	0x3c81c728	0.015842035
16	0xbcff9f97	-0.031204028
17	0x3db0a73d	0.08625648
18	0x3e17087d	0.14749332
19	0x3e10177e	0.14071462
20	0xbe1194b8	-0.14216888
21	0xbd3e66d0	-0.04648477
22	0x3d49d564	0.04927577
23	0x3e63854a	0.22218814
24	0x3e781889	0.2422811
25	0xbd59d06f	-0.053177293
26	0x3e078316	0.13233599
27	0xbd316c98	-0.043316454
28	0xbd92b9d8	-0.07164353
29	0x3af54fc7	0.0018715792
30	0xbd87cccd	-0.066308595
31	0xbcfa063c	-0.03052055
32	0xbdb594ad	-0.08866248
33	0x3c0ed9be	0.008718906
34	0x3afbf970	0.0019224118
35	0xbe17347f	-0.1476612
36	0x3ddaaed9	0.10677881
37	0xbda45070	-0.08023155
38	0x3dc64946	0.096819445
39	0x3d755f5e	0.059905402
40	0x3d90b6f5	0.07066146
41	0x3e0b7437	0.13618551
42	0xbdc043ad	-0.09387908
43	0xbb2a4ee2	-0.002598696
44	0x3e35487c	0.17703432
45	0x3de0551a	0.10953732
46	0xbd911ef7	-0.07085984
47	0xbd62b09b	-0.055344205
48	0xbcb7fe82	-0.022460226
49	0xbb8ba372	-0.0042614276
50	0xbd965f6b	-0.07342418
51	0x3de2b920	0.11070466
52	0x3b9c47b6	0.004769291
53	0xbbf4a92a	-0.007466455
54	0x3d3cf0fa	0.04612825
55	0xbca8235d	-0.020524675
56	0x3e127e47	0.14305983
57	0x3e14de37	0.14537893
58	0x3e1c4e8d	0.1526434
59	0xbe8e6d69	-0.27817848
60	0xbc84f2d8	-0.016229078
61	0x3d36d2de	0.044634692
62	0x3dde1ce1	0.10845352
63	0xbd63dce1	-0.05563057
64	0x3d57da51	0.052698437
65	0x3d9987cc	0.07496604
66	0x3dbb7e4c	0.091549486
67	0xbd82bc5a	-0.063835815
68	0x3d8b88ba	0.06813188
69	0x3e19c0b9	0.15014924
70	0xbdfa5f4e	-0.12225209
71	0xbe0e4468	-0.13893282
72	0x3cc60c81	0.024175884
73	0xbd8944f3	-0.06702604
74	0x3ccfe4cd	0.025377655
75	0xbd138065	-0.03601112
76	0xbbb66ffc	-0.005567549
77	0x3de6900d	0.11257944
78	0xbcb4a42a	-0.022050936
79	0xbe864f49	-0.26232365
80	0x3dce04b7	0.10059493
81	0xbd4b5893	-0.049645018
82	0x3d059dcf	0.0326212
83	0x3dfbb62c	0.12290606
84	0xbdafd278	-0.085850656
85	0xbcc3eec1	-0.023917558
86	0xbd2d2a6b	-0.04227678
87	0xbd957b73	-0.07298937
88	0x3d86afce	0.06576501
89	0xbcbb3fcb	-0.022857567
90	0xbb8908fd	-0.0041819797
91	0x3da3fabb	0.080068074
92	0x3c806e70	0.01567766
93	0xbd2ac991	-0.041696135
94	0xbb7d6969	-0.0038667566
95	0xbe126380	-0.14295769
96	0x3ca19952	0.01972643
97	0xbd8d79af	-0.06907975
98	0x3dc7a616	0.09748475
99	0xbc49aa78	-0.012308709
100	0xbd7e53cc	-0.062091634
101	0xbcb4214b	-0.021988532
102	0x3d6ccc62	0.057812102
103	0x3e4c6826	0.19961604
104	0xbdd93cbe	-0.10607289
105	0xbbf70c87	-0.007539335
106	0x3d8fafc8	0.070159495
107	0xbdeefa8c	-0.11668882
108	0x3c885271	0.016640874
109	0xbcc107e3	-0.023563331
110	0xbda26799	-0.07929916
111	0x3e086c16	0.13322482
112	0xbcde1875	-0.027111271
113	0xbda11d8e	-0.07866965
114	0x3dbe9e98	0.09307593
115	0xbd4f8054	-0.050659493
116	0x3db34ad0	0.08754504
117	0x3e198fc7	0.14996253
118	0x3a9cdb74	0.0011967258
119	0xbdd38775	-0.10328571
120	0xbd6db583	-0.05803443
121	0xbe75148d	-0.23933621
122	0x3d14ed07	0.03635886
123	0xbdb6b8be	-0.089219555
124	0x3e10fc0e	0.14158651
125	0xbc54e8ab	-0.0129949255
126	0xbdf7c092	-0.12097277
127	0x3e20b9fa	0.15695944
128	0xbc99a64f	-0.01875606
129	0x3b00f441	0.0019676837
130	0xbdce239e	-0.10065387
131	0xbe4ec82e	-0.2019355
132	0x3d9c7be7	0.0764082
133	0x3dbcc573	0.09217348
134	0x3d2ad465	0.04170646
135	0x3d454f8e	0.048171572
136	0x3dcf1d30	0.10112989
137	0xbdb74a7e	-0.08949755
138	0x3c0e115c	0.008671131
139	0x3da23265	0.07919768
140	0x3c9222d3	0.017838871
141	0xbda0a992	-0.07844843
142	0x3d02048d	0.03174262
143	0x3e119bd5	0.14219601
144	0x3ba64536	0.0050741686
145	0x3de4e5cf	0.11176645
146	0xbd3ebc00	-0.04656601
147	0x3ccd7cd0	0.02508393
148	0xbd745db0	-0.05965966
149	0xbd5eb0da	-0.054367878
150	0xbd0e2c53	-0.03471024
151	0xbe16d730	-0.14730525
152	0x3d73d126	0.05952563
153	0xbdf50931	-0.11964644
154	0xbdd7cfcb	-0.1053768
155	0x3cfd3061	0.030906858
156	0x3c9dc302	0.019258026
157	0x3d498c1a	0.049205877
158	0xbc964773	-0.018344617
159	0x3cb3acf4	0.021933056
160	0x3d54368d	0.051809836
161	0xbb1cd640	-0.0023931414
162	0x3d062b74	0.032756284
163	0xbd3c2789	-0.04593614
164	0xbd0b3b84	-0.033992305
165	0x3dec0d9b	0.115260325
166	0x3aff2e34	0.0019468726
167	0xbb18403d	-0.0023231648
168	0xbe280161	-0.16406776
169	0x3daf8cba	0.08571763
170	0xbe1a3eb6	-0.15062985
171	0x3e06df2e	0.13171074
172	0xbd09da0f	-0.033655223
173	0xbe45ab5b	-0.19303648
174	0xbca19227	-0.019723011
175	0xbd61d209	-0.055131946
176	0x3dd79323	0.10526111
177	0xbe478b1a	-0.19486657
178	0x3da9741d	0.082741
179	0x3d3d46f1	0.046210233
180	0xbd284976	-0.041085683
181	0x3cad15a0	0.021128476
182	0xbbf1e4d8	-0.0073820166
183	0x3dd093d3	0.10184445
184	0x3ac1935b	0.0014768647
185	0x3d903a15	0.07042328
186	0xbdad3776	-0.08457844
187	0x3da7fd2c	0.082025856
188	0xbd283c7f	-0.04107332
189	0x3c0fa0dd	0.00876638
190	0xbcce2f80	-0.025169134
191	0xbd73e0fd	-0.059540737
192	0x3c0768c3	0.008264723
193	0x3d66bbd6	0.056331478
194	0xbdb72641	-0.08942843
195	0x3c933764	0.017970748
196	0xbd3d1a6b	-0.046167772
197	0x3dfb9738	0.12284702
198	0x3e0a83c5	0.13526829
199	0xbd3eb4d2	-0.046559162
200	0x3e0aacb5	0.13542445
201	0x3d17f13a	0.037095286
202	0xbde507dd	-0.111831404
203	0xbd3ffd7f	-0.046872612
204	0x3bfe5cce	0.007762528
205	0x3da19e29	0.07891495
206	0xbc4eb2d0	-0.012615874
207	0x3da5f02b	0.08102449
208	0x3d946e34	0.07247582
209	0x3de971ba	0.11398645
210	0x3c2f75cb	0.010709236
211	0x3e1db4d3	0.1540101
212	0xbdb5c00d	-0.088745214
213	0x3d52eba4	0.051494256
214	0x3cd00e5d	0.025397474
215	0x3da68bd0	0.08132136
216	0x3da9c8bd	0.08290241
217	0xbceba9c3	-0.028767472
218	0xbbd4c933	-0.0064937114
219	0xbd93120c	-0.071811765
220	0xbdfbc591	-0.12293542
221	0xbc9a3132	-0.018822286
222	0xbb5b9a6e	-0.0033508795
223	0xbdba7edc	-0.09106228
224	0xbe1018ea	-0.14072004
225	0xbd006c92	-0.03135354
226	0xbd5cffd7	-0.053954925
227	0xbdcae469	-0.09906847
228	0x3d977b2e	0.073965415
229	0x3dad92d9	0.084752746
230	0xbab995ee	-0.0014159062
231	0xbd5cebd2	-0.053935833
232	0x3dcf363d	0.10117767
233	0xbc6b3aad	-0.014357251
234	0x3de29eeb	0.110654674
235	0x3d37e278	0.04489371
236	0x3dba56f0	0.09098613
237	0xbd9b89e2	-0.075946584
238	0x3da81505	0.08207134
239	0xbd224ff5	-0.039627034
240	0xbcaa4454	-0.020784535
241	0x3d580bf2	0.052745767
242	0x3d89ef5e	0.06735109
243	0xbb7c8a6d	-0.0038534657
244	0x3d1cf237	0.03831693
245	0x3b6ebb01	0.003642738
246	0x3e262fef	0.16229223
247	0xbde33325	-0.110937394
248	0xbd7dd63c	-0.061971888
249	0x3ce2855c	0.027651481
250	0xbd800822	-0.06251551
251	0xbb3d8877	-0.002892045
252	0xbd1e3e22	-0.038633473
253	0x3d32c50f	0.04364496
254	0x3de49e60	0.1116302
255	0x3c2fbc60	0.010726064

actor.2.bias f4 [128]
0	0xbc0f917c	-0.0087627135
1	0xbd5c8cb4	-0.053845122
2	0x3d627dda	0.055295803
3	0x3d457f13	0.04821689
4	0x3c400371	0.0117195705
5	0xbd019086	-0.03163197
6	0x3a4918f0	0.00076712575
7	0xbc9eb6e5	-0.01937432
8	0x3b4dd4ef	0.0031407436
9	0xbc6d47e5	-0.014482473
10	0xbc909a01	-0.01765156
11	0xbcb1fc03	-0.021726614
12	0xbd069461	-0.03285635
13	0x3d76c228	0.060243756
14	0x3d1db2cc	0.038500592
15	0xbd27951c	-0.040913686
16	0xbce0bff7	-0.027435286
17	0x3c257b75	0.010100235
18	0xbc0e679b	-0.008691694
19	0x3d2573de	0.040393703
20	0x3c1355a7	0.008992589
21	0xbd2aa643	-0.041662466
22	0xbd07ec8d	-0.033184577
23	0x3d6bdee7	0.057585623
24	0x3d297da1	0.041379575
25	0xbd4a872e	-0.049445324
26	0xbd0e18f7	-0.034691777
27	0x3d34ebf6	0.044170342
28	0x3d19c366	0.037539862
29	0xbbf23190	-0.007391162
30	0x3ca53300	0.02016592
31	0xbd714db8	-0.05891201
32	0xbd3b88c9	-0.045784745
33	0x3b4e489a	0.003147638
34	0xbd124fef	-0.035720762
35	0xbc907771	-0.01763508
36	0x3d5d9edf	0.05410659
37	0xbd6bc73b	-0.057563048
38	0xbaecf316	-0.0018077816
39	0x3bcec3de	0.0063099703
40	0x3bcb78f5	0.0062094876
41	0x3c598081	0.013275267
42	0x3d6fba05	0.05852701
43	0xbc250a8d	-0.010073316
44	0xbd4b7e64	-0.049681082
45	0xbd3c660f	-0.04599577
46	0x3cbc19b7	0.02296148
47	0xbcb244dd	-0.021761352
48	0x3d0a1be8	0.03371802
49	0xbd47e4bd	-0.048802126
50	0x3d6fde6a	0.05856172
51	0x3d7ea068	0.062164694
52	0x3d51c802	0.051216133
53	0x3bd06e8e	0.0063608354
54	0x3d601c58	0.05471453
55	0x3b06fec0	0.002059862
56	0xbd0a9581	-0.033833984
57	0x3d5cadd5	0.053876717
58	0xbc89486b	-0.016758164
59	0x3d36d513	0.044636797
60	0xbd713b7c	-0.05889462
61	0xbd4d3a06	-0.050104164
62	0x39ff39da	0.00048680493
63	0xbd28844b	-0.04114179
64	0x3d274c2c	0.040844128
65	0xbd40feca	-0.047117986
66	0x3c394c79	0.011309736
67	0xbd34aba5	-0.044109005
68	0xbd2421a1	-0.040071134
69	0xbd18de0a	-0.037321128
70	0x3c09bdf2	0.008407103
71	0xbd5e7d83	-0.054318916
72	0x3cdbcd21	0.026831212
73	0xbc015f09	-0.007896193
74	0x3cff7439	0.031183349
75	0xbc76231b	-0.015023018
76	0x3c0a1530	0.008427903
77	0xbd7e14b7	-0.062031474
78	0xbc019198	-0.007908247
79	0x3ce1e00b	0.027572652
80	0x3d11b94c	0.035577103
81	0x3c702af2	0.014658676
82	0x3d417855	0.0472339
83	0xbd186d93	-0.037213873
84	0x3d16094a	0.036629952
85	0x3d4d6388	0.05014375
86	0x3bbd52cd	0.005777693
87	0x3d4548da	0.04816518
88	0xbaf0fb4f	-0.0018385443
89	0xbcc3b428	-0.023889616
90	0x3d0856c3	0.033285867
91	0x3d28353a	0.041066386
92	0x3c284ca8	0.0102721825
93	0xbc1c7e4d	-0.009551597
94	0x3baf9134	0.0053578857
95	0xbd3416d6	-0.04396709
96	0x3d1409b5	0.03614207
97	0x3c6174b6	0.013760736
98	0xbc6379b8	-0.0138840005
99	0xbd5f1fcf	-0.054473694
100	0xbb8ca02d	-0.0042915554
101	0x3d48dc77	0.049038377
102	0xbd31ac8c	-0.043377444
103	0x3c19411e	0.009353904
104	0xbc13f908	-0.009031542
105	0xbbd4b6f0	-0.0064915344
106	0x3d3ed8b7	0.046593394
107	0xbd571447	-0.052509572
108	0xbd6febbc	-0.058574423
109	0xbd6bef3c	-0.0576012
110	0xbca9b122	-0.020714346
111	0x3ccb9b49	0.02485432
112	0xbd7a5b2b	-0.0611221
113	0x3d72e9cb	0.059304994
114	0x3c3b05f5	0.0114149945
115	0xbd54de97	-0.05197009
116	0xbcaa3c1c	-0.020780616
117	0x3d5a076f	0.053229745
118	0x3c36977d	0.011144516
119	0xbce1caba	-0.027562488
120	0xbcce83fb	-0.025209418
121	0x3d127b3d	0.03576206
122	0x3d71dccc	0.05904846
123	0xbd322e4d	-0.043501187
124	0x3d47fef2	0.04882712
125	0x3d740ffb	0.059585553
126	0xbc3400fd	-0.010986564
127	0xbd5382dd	-0.051638473

actor.4.weight f4 [64, 128]
0	0x3b9d9fde	0.0048103174
1	0xbdcc13ea	-0.09964736
2	0xbd3bca7d	-0.045847405
3	0xbd9f6979	-0.07783789
4	0x3dde1792	0.108443394
5	0xbe2ff1c8	-0.17182076
6	0xbd642587	-0.05569985
7	0x3e78c294	0.24292976
8	0xbd27b749	-0.04094628
9	0x3e516bb6	0.20451245
10	0x3e8478ef	0.25873515
11	0x3e3441f2	0.17603281
12	0xbde55b66	-0.111990735
13	0xbd3bfadf	-0.045893546
14	0x3d9d4d95	0.07680813
15	0xbcd4f03b	-0.025993457
16	0xbe645017	-0.22296177
17	0xbdcb7db1	-0.09936083
18	0x3d6e2c1c	0.058147535
19	0x3b2ff6b3	0.0026849925
20	0x3d564948	0.05231598
21	0xbe0c3351	-0.1369145
22	0x3e21b3df	0.15791272
23	0x3cd1965b	0.02558439
24	0x3c5c5be2	0.013449641
25	0xbe5de5f3	-0.2166975
26	0xbd28592b	-0.041100662
27	0xbe322812	-0.17398098
28	0xbe334fd9	-0.17510928
29	0xbe09737e	-0.13422963
30	0x3e1038f5	0.14084227
31	0x3d1fcf31	0.039015952
32	0xbd23a0fb	-0.039948445
33	0x3dee4cb0	0.11635721
34	0xbe771da4	-0.24132401
35	0x3de8f3f0	0.113746524
36	0xbd9627af	-0.07331788
37	0x3dc8e7cc	0.09809837
38	0x3dac5c15	0.08416001
39	0xbd82268a	-0.06355007
40	0x3c9b0b87	0.018926395
41	0xbd2af75a	-0.0417398
42	0xbe27ee68	-0.16399539
43	0xbe1301ac	-0.14356107
44	0xbdf47e61	-0.11938167
45	0x3dfbb75a	0.12290831
46	0xbce69c09	-0.028150575
47	0xbc022c71	-0.007945166
48	0x3dddfcc4	0.10839227
49	0x3d5fbe92	0.0546251
50	0xbe7b8413	-0.24562101
51	0xbd888ffe	-0.06668089
52	0x3d39dc36	0.045376025
53	0x3da12d1a	0.078699306
54	0x3e1364ac	0.14393872
55	0xbd6dfca4	-0.058102265
56	0xbea477d9	-0.32122687
57	0xbe2e3726	-0.17013225
58	0x3d4f47bb	0.050605517
59	0x3e4325b5	0.19057353
60	0xbe2d118c	-0.16901225
61	0xbdc4bdae	-0.09606491
62	0xbcd2ff26	-0.02575643
63	0x3e10b8c8	0.14132988
64	0x3c99f1a1	0.018791975
65	0x3e3456b8	0.17611206
66	0xbad4915d	-0.0016217638
67	0x3e90f9f1	0.2831569
68	0xbcc78748	-0.0243565
69	0x3c1a91f7	0.009434215
70	0x3e02d9f7	0.1277846
71	0x3d0af081	0.03392077
72	0x3db58644	0.088635
73	0xbd8c4858	-0.06849736
74	0x3daa44a6	0.08313875
75	0x3e3f02f1	0.18653466
76	0x3e43675b	0.19082396
77	0xbd3143b1	-0.043277446
78	0x3e0a50a3	0.13507323
79	0xbe01e93b	-0.12686627
80	0x3ddb96e8	0.107221425
81	0x3e14dec3	0.14538102
82	0x3b964953	0.0045863776
83	0xbda4f44d	-0.08054409
84	0x3bcd533b	0.0062660254
85	0xbd3e5594	-0.046468332
86	0xbc9abf13	-0.01888994
87	0xbd44c212	-0.048036642
88	0x3ddbb0d7	0.10727089
89	0x3d14635f	0.03622758
90	0x3c62828a	0.013825068
91	0xbc63895e	-0.013887731
92	0xbeadf894	-0.33978713
93	0xbd499af9	-0.04922006
94	0x3dba4b64	0.09096411
95	0x3da2d930	0.079515815
96	0xbdc52c8b	-0.096276365
97	0x3b8e7183	0.0043470277
98	0xbdae68a0	-0.085160494
99	0x3d6bc798	0.057563394
100	0x3dca1f05	0.09869198
101	0xbdb3a384	-0.087714225
102	0xbb7770f7	-0.0037756541
103	0x3df5ef0e	0.12008487
104	0xbdde4805	-0.108535804
105	0xbdbfafbc	-0.093596905
106	0xbe8b7a47	-0.27241728
107	0xbe558af4	-0.20853788
108	0x3d12a390	0.035800517
109	0x3e2f5f56	0.17126212
110	0x3c898f7c	0.016792051
111	0xbe31f185	-0.17377289
112	0x3de4b580	0.11167431
113	0xbd893ced	-0.06701074
114	0xbd5d8729	-0.054083977
115	0xbc1c8716	-0.009553691
116	0x3d5a8198	0.053346246
117	0xbc559818	-0.01303675
118	0x3e61cd53	0.22050981
119	0xbd3910f0	-0.04518217
120	0x3dd2c24e	0.10290967
121	0xbdb9a505	-0.09064678
122	0x3b73c736	0.0037197596
123	0x3ccc70ef	0.024956195
124	0xbdfeabbe	-0.12435101
125	0x3ddf9979	0.109179445
126	0xbd7e064a	-0.062017716
127	0x3ea60283	0.3242379
128	0xbd4f2280	-0.05057001
129	0xbd2f5e63	-0.042814624
130	0x3d462b7e	0.04838132
131	0xbe2038bb	-0.15646641
132	0x3d8ab671	0.06773079
133	0x3ea1adca	0.31577903
134	0x3e3f457a	0.18678847
135	0x3dde3be8	0.1085127
136	0xbe442621	-0.1915517
137	0x3e8a47fa	0.2700804
138	0x3c119fc3	0.008888188
139	0xbe239aaa	-0.15976968
140	0xbea4d7d3	-0.3219591
141	0xbc374921	-0.011186869
142	0xbe3b2b1b	-0.18278162
143	0x3d824040	0.06359911
144	0xbdaa8291	-0.08325685
145	0x3d6c39da	0.05767236
146	0xbd287504	-0.04112722
147	0x3e6b6ace	0.22989962
148	0xbd58da3d	-0.052942503
149	0x3d740236	0.05957242
150	0xbe94ee2f	-0.2908797
151	0x3c7171e4	0.014736626
152	0x3c5e4616	0.0135665145
153	0xbdd471cb	-0.10373267
154	0xbd11514b	-0.035477918
155	0x3dbfa532	0.093576804
156	0xbd9ee920	-0.07759309
157	0x3d8b6158	0.06805676
158	0x3e2222a5	0.15833528
159	0xbcb8e779	-0.022571312
160	0xbe1319c2	-0.14365295
161	0x3e7a8c4f	0.24467586
162	0xbcfc512e	-0.030800428
163	0xbe00982e	-0.12558052
164	0x3d86f38e	0.06589423
165	0xbd90585a	-0.07048102
166	0x3d096d3e	0.033551447
167	0x3d209683	0.03920604
168	0xbe7929b1	-0.2433231
169	0xbe325077	-0.17413507
170	0xbd91d61c	-0.07120916
171	0xbd77d661	-0.060507182
172	0x3da211b2	0.07913531
173	0x3ce9075b	0.02844589
174	0x3d309c04	0.043117538
175	0x3df82d51	0.121180184
176	0xbd88964e	-0.06669293
177	0xbdfe7ebb	-0.12426516
178	0x3da9accc	0.082849115
179	0xbd0ae7a7	-0.033912327
180	0x3daf3799	0.08555526
181	0xbe8c67d6	-0.2742297
182	0xbd946862	-0.07246472
183	0xbe44f763	-0.19234996
184	0xbd3fbea8	-0.046812683
185	0x3dcc239b	0.09967729
186	0xbd631daf	-0.05544823
187	0xbdb01a53	-0.08598771
188	0xbde44b3a	-0.11147161
189	0xbd5f50a8	-0.05452028
190	0x3e1beee5	0.1522785
191	0x3e570c54	0.21000797
192	0xbdc7387b	-0.0972757
193	0xbe0ee73e	-0.139554
194	0x3c932a3a	0.017964471
195	0x3de762ef	0.11298167
196	0xbdba5123	-0.09097507
197	0x3dafe8bb	0.08589312
198	0xbb6c9793	-0.0036101087
199	0x3e066e6f	0.13128065
200	0x3c7d4107	0.015457398
201	0x3e016b80	0.12638664
202	0xbdf04a79	-0.117329545
203	0xbd5428ef	-0.05179685
204	0xbd4c7b98	-0.049922556
205	0xbd56f480	-0.052479267
206	0x3e081115	0.13287766
207	0xbe10a563	-0.1412559
208	0xbde62ad8	-0.112386405
209	0xbe040f1d	-0.1289639
210	0x3d689959	0.05678687
211	0xbdfee4d2	-0.12445988
212	0xbe86d98b	-0.26337847
213	0xbbc2999e	-0.0059387228
214	0xbd4290e3	-0.047501456
215	0xbd8a5e4a	-0.067562655
216	0xbe548cec	-0.20756882
217	0xbe5e6c37	-0.21720968
218	0xbe12ddfd	-0.14342494
219	0xbc9c2a4f	-0.019063143
220	0x3d962b3e	0.073324665
221	0xbde30da4	-0.11086586
222	0x3d80c88a	0.0628825
223	0xbd8de111	-0.06927694
224	0xbda25208	-0.079258025
225	0x3e2493af	0.16071962
226	0xbd2f40cf	-0.042786416
227	0x3d595401	0.053058628
228	0xbdc104b1	-0.09424723
229	0x3da5e460	0.081002
230	0x3d436b53	0.047709774
231	0x3d9cd52a	0.07657845
232	0xbdde87de	-0.10865758
233	0xbe47b71a	-0.19503441
234	0x3e0acb20	0.13554049
235	0xbe2a9e2f	-0.16661905
236	0xbe48853a	-0.19582072
237	0x3cb1c6a5	0.021701166
238	0xbcdfbfdf	-0.027313171
239	0x3d793aeb	0.060847204
240	0xbd8c2c24	-0.06844357
241	0xbe96c9dc	-0.2945088
242	0xbd87dc4a	-0.06633814
243	0x3e7d2459	0.24720897
244	0x3cb0d000	0.021583557
245	0xbd8002b2	-0.06250514
246	0x3cf2e097	0.029648108
247	0xbd463be1	-0.04839695
248	0x3d114c4a	0.035473146
249	0x3e06c27f	0.13160132
250	0xbdcc652d	-0.09980235
251	0xbd8e28c7	-0.069413714
252	0xbdc61824	-0.09672573
253	0xbe1189cc	-0.14212722
254	0x3c630802	0.01385689
255	0xbd3056c2	-0.04305149

actor.4.bias f4 [64]
0	0xbd4c2c91	-0.04984719
1	0xbc85a7ad	-0.016315306
2	0xbd2ea618	-0.042638868
3	0xbda0f025	-0.07858304
4	0x3d4406e6	0.04785814
5	0xbda85632	-0.082195655
6	0x3d10a31e	0.03531181
7	0x3d98e8b7	0.07466262
8	0x3d1a152b	0.037617844
9	0x3c4b9f26	0.012428081
10	0xbc4b35c7	-0.012402958
11	0x3cb446f8	0.022006497
12	0xbd3c4d12	-0.045971937
13	0x3af7a6e8	0.0018894346
14	0x3ce4e9d6	0.027943533
15	0xbd9cb5a3	-0.07651832
16	0x3c97a7cb	0.018512627
17	0x3d003c43	0.03130747
18	0xbd98d3ff	-0.0746231
19	0x3d9da087	0.07696634
20	0xbc3c7b1e	-0.011503963
21	0xbcf63fe5	-0.030059764
22	0xbae3d743	-0.0017382879
23	0xbd32d6d8	-0.043661922
24	0x3d76a97d	0.06022023
25	0xbcedc67b	-0.029025307
26	0xbc4c2645	-0.012460296
27	0xbd09babb	-0.033625346
28	0xbd51c94c	-0.051217362
29	0x3da00b2d	0.078146316
30	0xbc8bacd4	-0.017050184
31	0xbbf8d6e4	-0.0075939763
32	0x3dac8c93	0.0842525
33	0x3bd84e03	0.0066010966
34	0x3ca48e88	0.020087495
35	0x3da8c8fb	0.08241459
36	0xbd3f6416	-0.04672631
37	0xbabff4cf	-0.0014645102
38	0xbd931ef0	-0.07183635
39	0xbd53d690	-0.051718295
40	0xbc925d41	-0.017866733
41	0xbba78d89	-0.005113308
42	0x3db18ef5	0.08669845
43	0xbda4c65a	-0.08045645
44	0xbd6ea699	-0.05826435
45	0x3c97db1f	0.018537102
46	0x3d4be6c1	0.04978061
47	0xbd548635	-0.051885802
48	0x3d3e824b	0.046510976
49	0x3da9aacb	0.08284529
50	0x3cfd50c9	0.03092231
51	0x3d4041fb	0.046937924
52	0x38a4279c	7.827507e-05
53	0xbc8c23e0	-0.01710695
54	0xbd0443e5	-0.03229131
55	0xbbb93189	-0.005651657
56	0xbcf15b29	-0.029462414
57	0xbcbd88cc	-0.023136519
58	0xbdb2aa55	-0.087238945
59	0xbdbb6d9d	-0.091517664
60	0x3c6666f6	0.014062634
61	0xbd84aaa3	-0.06477859
62	0xbade0197	-0.001693773
63	0x3d98ea69	0.07466585

actor.6.weight f4 [10, 64]
0	0x3b89b2fc	0.004202245
1	0xbceeee5e	-0.029166397
2	0xbccf05b7	-0.02527128
3	0x3c81f08a	0.015861768
4	0x3c4a15f4	0.012334336
5	0xbc6c172e	-0.014409823
6	0xbd01b96d	-0.031670976
7	0xbbfefc1f	-0.00778152
8	0xbccfb84e	-0.025356438
9	0xbafa269f	-0.0019084996
10	0xbc0dc5c3	-0.008653107
11	0x3bb5e9bb	0.0055515445
12	0x3c14bff1	0.0090789655
13	0xbbb756f5	-0.005595083
14	0xbc182f44	-0.009288613
15	0x3c7d1d62	0.0154489
16	0x3ae62177	0.0017557581
17	0x3cf3afdd	0.029746944
18	0x3c26a991	0.010172264
19	0xbb121cd2	-0.002229501
20	0xbc127def	-0.008941158
21	0xbc061f94	-0.00818624
22	0x3ba03850	0.0048895255
23	0x3ca43174	0.020043112
24	0xbb468758	-0.0030293074
25	0x3cacfa62	0.021115486
26	0xbc2f6422	-0.010705026
27	0x3be7c712	0.0070732916
28	0x3b048450	0.0020220466
29	0x3c6acbb5	0.014330794
30	0xbb0cd709	-0.0021490476
31	0x3d267dfa	0.040647484
32	0xbb287bb1	-0.0025708491
33	0xbb5e02c9	-0.0033876172
34	0x3c6f208e	0.014595164
35	0xbbc376e3	-0.0059651
36	0xbb9ced85	-0.0047890567
37	0x3ac81fe1	0.001526829
38	0x3c20f9e2	0.009825202
39	0x3bf343ea	0.0074238675
40	0x3cc47ee4	0.023986287
41	0xbc30ed90	-0.010798827
42	0xbc3e0ed8	-0.011600219
43	0x3b0ef98d	0.0021816224
44	0x3c0694b7	0.008214167
45	0x3c851607	0.016245855
46	0xbb0b31a7	-0.0021239312
47	0xbbd1bbb4	-0.00640055
48	0xbbd14298	-0.0063861124
49	0xba678269	-0.00088313833
50	0x3a687726	0.0008867852
51	0xbd29c9f5	-0.041452367
52	0xbc213adb	-0.009840692
53	0x3bbe7413	0.005812177
54	0xbb54bf7f	-0.0032462773
55	0xba1a1b00	-0.0005878657
56	0xbc5cb78c	-0.013471495
57	0xba7a01f2	-0.0009537033
58	0xbccc852d	-0.024965847
59	0x3d17d155	0.03706487
60	0x3b809845	0.003924402
61	0xbc3c1596	-0.011479756
62	0xb9392c91	-0.00017659577
63	0x3bc339d0	0.0059578195
64	0x3c75f607	0.015012271
65	0xbd3a1720	-0.04543221
66	0x3d0d39e4	0.034479037
67	0x3be8d1e1	0.0071050976
68	0xbcccdfd9	-0.025009083
69	0x3c85f1af	0.016350595
70	0x3d169edf	0.036772605
71	0xbce21cea	-0.027601678
72	0xbd2cc9ea	-0.042184748
73	0xbc88ccc4	-0.016699202
74	0x3d811c2c	0.063042015
75	0xba2bcdee	-0.0006553818
76	0xbca14b38	-0.019689187
77	0xbbcc13eb	-0.0062279603
78	0x3b96dc6e	0.004603914
79	0x3c1945d1	0.009355024
80	0xbba2c425	-0.00496723
81	0x3cdb40fc	0.026764385
82	0xbbaa18f1	-0.0051909615
83	0xbc18f8ea	-0.0093366895
84	0xbcd108f0	-0.025516957
85	0x3c934149	0.017975466
86	0x38d068e6	9.937752e-05
87	0xbd194d7c	-0.03742741
88	0x3c31de55	0.010856231
89	0xba8e5b47	-0.0010860943
90	0x3ba28b29	0.004960437
91	0x3cede24f	0.029038576
92	0x3d2e2223	0.042513024
93	0x3a3d7c09	0.00072282605
94	0x3b0922ab	0.0020925205
95	0xbc821028	-0.015876845
96	0xbaafb0eb	-0.0013404166
97	0x3b1ab8ce	0.0023608687
98	0xbba4b379	-0.0050262776
99	0x3c036f93	0.008022207
100	0x3c028d5d	0.007968274
101	0xbbe19508	-0.006884221
102	0x3b77ff37	0.003784133
103	0xbd1feeb4	-0.039046004
104	0xbb0c4735	-0.0021404747
105	0xbd51f58e	-0.05125957
106	0x3c8add95	0.016951362
107	0xbca5f7fc	-0.02025985
108	0xbb3bfa5a	-0.0028683157
109	0xbcd34921	-0.025791707
110	0x3b911b45	0.0044282996
111	0x3b69648b	0.0035612907
112	0xb9e14e0e	-0.000429735
113	0xbd2bde32	-0.04195995
114	0xbc62e758	-0.013849102
115	0xbbc939c3	-0.006140919
116	0x3bbe3be3	0.005805479
117	0xbbcc2034	-0.006229425
118	0x3b291962	0.0025802483
119	0x3b81cf00	0.003961444
120	0x3ca1947c	0.019724123
121	0x3d3ebcb4	0.04656668
122	0xbd0454fb	-0.032307606
123	0xbcc3f4d2	-0.02392045
124	0x3b86cf1b	0.0041140444
125	0xbd04c5ab	-0.032415073
126	0x3d096c82	0.033550747
127	0xbd363ad8	-0.04448971
128	0xbd508c45	-0.05091502
129	0x3c4f0dc8	0.012637563
130	0x3c09e49a	0.008416319
131	0x3d237a5b	0.03991161
132	0x3bd99553	0.0066401153
133	0xbcafb3d5	-0.021448055
134	0xbbf829dd	-0.00757335
135	0x3c99a189	0.018753784
136	0xbcb541ba	-0.022126067
137	0xbd5471c3	-0.051866304
138	0x3ca6a910	0.020344287
139	0x3d605340	0.054766893
140	0xbd30b3a7	-0.04314008
141	0x3c5f1101	0.013614894
142	0xbd1e3354	-0.03862317
143	0x3d5f38f0	0.05449766
144	0xbc222fb0	-0.009899065
145	0x3d3b52ce	0.045733266
146	0xbd58ce48	-0.0529311
147	0x3cf53e8b	0.02993705
148	0xbc273e9e	-0.0102078
149	0xbc3d7b5f	-0.0115650585
150	0xbd4f745e	-0.050648086
151	0xbcbee8ea	-0.023304421
152	0x3c81ce12	0.015845332
153	0xbb81ca39	-0.0039608744
154	0xbd411bb8	-0.047145575
155	0x3d5affef	0.053466734
156	0x3cd235a9	0.025660353
157	0x3d672181	0.056428436
158	0xbd6e52fc	-0.05818461
159	0x3ac363e8	0.0014907094
160	0xbd656387	-0.05600312
161	0xbd54a84b	-0.05191831
162	0x3bebf121	0.0072003757
163	0x3ce99344	0.028512605
164	0xbd23072a	-0.039801754
165	0xbbb3c80b	-0.0054864935
166	0xbd37cb3d	-0.044871558
167	0x3c6ee773	0.014581549
168	0x3d0d1213	0.034441065
169	0xbc5d3030	-0.013500258
170	0xbd07d71c	-0.03316413
171	0x3c07c9b4	0.008287836
172	0xbd7b261f	-0.061315652
173	0xbb2fe16b	-0.002683724
174	0x3cd79757	0.026317282
175	0xbd5ecd77	-0.054395165
176	0xbd5cdcdb	-0.05392156
177	0x3a8f0e0e	0.0010914223
178	0xbc4e6407	-0.012597091
179	0xb99bf6e3	-0.0002974785
180	0xbd41873f	-0.04724812
181	0xbceeabdb	-0.029134681
182	0xbd69fc71	-0.057125513
183	0x3cedfb2d	0.029050434
184	0x3c7cffef	0.015441879
185	0x3d29d32f	0.041461166
186	0xbaaca352	-0.0013171232
187	0x3c2c30f8	0.010509722
188	0xbaed0ea6	-0.0018086031
189	0xbc656a1c	-0.014002349
190	0x3c72ff2a	0.014831344
191	0x3c1d13a3	0.009587201
192	0x3d192f69	0.03739873
193	0x3dd1b4ff	0.102396004
194	0xbc53f53e	-0.012936888
195	0xbd5c8b4f	-0.053843793
196	0xbc7d6b78	-0.015467517
197	0xbd013568	-0.031545073
198	0xbce30b82	-0.027715448
199	0x3d8a28b2	0.06746043
200	0x3dba7c67	0.09105759
201	0x3cfa8e7f	0.030585526
202	0xbda0d9fd	-0.07854078
203	0xbd6c5da2	-0.057706483
204	0x3ccc609d	0.024948413
205	0x3d3a9faa	0.045562424
206	0x3d632708	0.055457145
207	0xbce90255	-0.028443495
208	0xbc2f42cf	-0.010697081
209	0xbd71270f	-0.05887514
210	0x3d127877	0.035759415
211	0xbb768fd7	-0.0037622356
212	0x3d9ebce1	0.077508695
213	0xbd309101	-0.043107037
214	0x3d17ed5c	0.037091598
215	0x3d6ca561	0.057774905
216	0xbd8161e8	-0.06317502
217	0xbd354ff5	-0.044265706
218	0x3d5d3cee	0.054013185
219	0xbd5903c8	-0.05298212
220	0xbd308f56	-0.043105446
221	0xbd882483	-0.06647589
222	0x3d3d5c7c	0.046230778
223	0x3d53e671	0.051733438
224	0x3d09f75c	0.033683166
225	0x3d1b6c3d	0.03794502
226	0xbd76c956	-0.060250603
227	0x3c5cdd82	0.013480546
228	0x3cdaef4e	0.026725437
229	0x3c5ed519	0.013600611
230	0x3cc67c4d	0.024229193
231	0x3c6f06a0	0.014588982
232	0xbc9c788f	-0.019100456
233	0x3d92d0b4	0.07168713
234	0xbb675e8d	-0.003530416
235	0x3cffbe8b	0.031218788
236	0x3cf7ac1d	0.030233437
237	0x3d72f6dc	0.059317455
238	0xba95c05f	-0.0011425129
239	0x3d119c0b	0.035549205
240	0x3d3fed6f	0.046857294
241	0x3d8504d2	0.0649506
242	0xbc3ac11a	-0.011398578
243	0x3cb1ca4a	0.021702904
244	0x3d22a5b4	0.039708808
245	0x3d3a9a9e	0.04555761
246	0x3d25dd55	0.04049428
247	0xbd374d40	-0.044751406
248	0xbcc978e9	-0.024593787
249	0xbd245eb9	-0.040129397
250	0x3dad27d5	0.08454863
251	0x3d699ff0	0.057037294
252	0xbc872fca	-0.01650228
253	0x3da15167	0.078768544
254	0xbd753d38	-0.059872836
255	0x3d5897b1	0.05287904

actor.6.bias f4 [10]
0	0xbde5d21c	-0.11221716
1	0xbd464041	-0.04840112
2	0xbd9cc3ed	-0.076545574
3	0xbd349c57	-0.04409441
4	0xbd9b38fd	-0.07579229
5	0x3db1b57a	0.08677192
6	0xbdb73e0a	-0.0894738
7	0x3df26212	0.11835112
8	0xbd168482	-0.036747463
9	0xbb69ce35	-0.0035675887

critic.0.weight f4 [256, 269]
0	0xbccceb80	-0.025014639
1	0x3fd1e178	1.6396933
2	0xbef2e54d	-0.47440568
3	0xbb1d334b	-0.0023986872
4	0x3f095694	0.5364773
5	0xbcfb9c16	-0.030714076
6	0x3dfc58cf	0.123216264
7	0xbe34626c	-0.1761567
8	0xbe5c7a92	-0.21531132
9	0xbc138399	-0.009003543
10	0xbe8bb24e	-0.27284473
11	0xbec404b4	-0.38284838
12	0xbf728fef	-0.94750875
13	0x3e630318	0.22169149
14	0xbcf38a0b	-0.02972891
15	0x3e0a6a9c	0.13517231
16	0x3d58f6e1	0.052969817
17	0xbd0b3689	-0.033987556
18	0x3b1657aa	0.0022940435
19	0x3dbaf53b	0.09128805
20	0x3d44ee06	0.04807856
21	0xbbc271d7	-0.005933981
22	0xbceeff8a	-0.029174585
23	0xbda0eaad	-0.07857261
24	0xbcdbe095	-0.026840487
25	0x3c9db9b6	0.019253593
26	0x3d696e8a	0.056990184
27	0x3dbfac5e	0.09359048
28	0x3e0e1254	0.13874179
29	0xbdafe3c5	-0.085883655
30	0xbb99c9c0	-0.00469324
31	0xbec282d1	-0.3799043
32	0x3cc4c28f	0.024018554
33	0x3c02e942	0.007990183
34	0x3d0be8f0	0.034157693
35	0x3c746faa	0.014919201
36	0xbd23359f	-0.03984606
37	0x3d5cc410	0.053897917
38	0xbcfd0251	-0.030884894
39	0xbd2983a6	-0.041385315
40	0x3e305dc6	0.17223272
41	0x3cd1febd	0.025634164
42	0xbe25ba8f	-0.16184448
43	0x3d9e5d40	0.0773263
44	0xbdfad9a4	-0.12248543
45	0xbd755196	-0.05989226
46	0x3e9eb0cc	0.3099426
47	0xbb9f7860	-0.0048666447
48	0x3dddc17d	0.108279206
49	0xbcd145d3	-0.02554599
50	0x3ccc5145	0.024941096
51	0xbbd9edd9	-0.006650668
52	0x3e0a10de	0.13482997
53	0x3d0ffc0e	0.035152487
54	0xbde6b96a	-0.11265834
55	0x3dcf3edf	0.101194136
56	0x3d9f3bb4	0.07775059
57	0x3b327d44	0.0027235309
58	0xbc6e18d9	-0.014532291
59	0xbd28e728	-0.041236073
60	0xbcaf637e	-0.021409746
61	0x3da7c125	0.08191136
62	0x3e108bb7	0.14115797
63	0xbd97e478	-0.07416624
64	0xbcad8625	-0.02118213
65	0xbdc6a505	-0.09699444
66	0x3d8ca2a9	0.068669625
67	0xba993960	-0.0011690073
68	0x3ce01337	0.027352912
69	0x3da09b19	0.078420825
70	0x3c006a54	0.007837851
71	0x3c30bad7	0.010786734
72	0xbd46eead	-0.048567463
73	0x3cc6136e	0.024179187
74	0x3e17066f	0.14748548
75	0x3d03bf76	0.032165013
76	0x3e076d3e	0.13225266
77	0xbd98bde7	-0.07458096
78	0x3ded8296	0.11597173
79	0xbe14cf3d	-0.1453218
80	0xbd497161	-0.049180392
81	0x3e0821fa	0.13294211
82	0xbd5a3411	-0.05327231
83	0x3d1e0004	0.038574234
84	0xbe0134b1	-0.12617756
85	0x3d995b41	0.074881084
86	0x3cbfc713	0.023410356
87	0xbbec72de	-0.0072158417
88	0x3ca4ae7b	0.02010273
89	0xbd87c371	-0.06629074
90	0xbf7de16e	-0.99172103
91	0x3dc05579	0.093913026
92	0xbc837b22	-0.016049925
93	0x3cdcaa73	0.026936745
94	0x3db575ff	0.088603966
95	0x3cb8c2a3	0.022553748
96	0x3d978acd	0.07399521
97	0x3e041e13	0.12902097
98	0xbd850eff	-0.06497001
99	0x3e4636e4	0.19356877
100	0x3ca74c3f	0.0204221
101	0x3d9dff6e	0.07714735
102	0x3c34000e	0.010986341
103	0x3b4acb4d	0.003094393
104	0x3e000937	0.12503515
105	0xbd7080e0	-0.058716655
106	0x3f367554	0.7127278
107	0x3e112460	0.14174032
108	0x3d88f838	0.06687969
109	0xbc3f0933	-0.011659908
110	0x3cb34879	0.021885144
111	0xb9de09d2	-0.00042350456
112	0xbd95285d	-0.07283089
113	0xbe1b7d0c	-0.1518442
114	0x3ddf7875	0.10911647
115	0x3d07fc32	0.033199497
116	0x3e23cd90	0.15996385
117	0xba0ec109	-0.00054456346
118	0xbee1f677	-0.4413335
119	0x3cdb5565	0.026774118
120	0xbe68cecb	-0.22735135
121	0xbd1aa868	-0.03775826
122	0x3dd85f5e	0.10565065
123	0x3ce8c284	0.028413065
124	0xb987c33b	-0.00025894665
125	0x3d05c550	0.032658875
126	0x3c0086fc	0.007844683
127	0xbcc933ce	-0.024560835
128	0x3e169ffa	0.14709464
129	0xbda91a23	-0.08256938
130	0x3d17e1b9	0.0370805
131	0xbcf84b19	-0.030309247
132	0xbd5e893c	-0.054330096
133	0x3c3ac847	0.011400289
134	0x3deb00eb	0.114747845
135	0xbc6d4fc7	-0.014484352
136	0xbc001723	-0.007818016
137	0x3df47aa4	0.11937454
138	0x3d7e4cdf	0.06208503
139	0x3cfe3ee9	0.031035857
140	0x3de2d0d1	0.11074985
141	0x3d9d46cd	0.0767952
142	0xbd188605	-0.037237186
143	0xbe0a7f69	-0.13525166
144	0xbccc6d3b	-0.024954429
145	0x3d1c66cf	0.038183983
146	0x3ce5d0f3	0.028053736
147	0xbe1de2f2	-0.15418604
148	0x3c8f9c53	0.017530596
149	0x3d1f1507	0.038838413
150	0xbd86b8ad	-0.06578193
151	0x3c60b840	0.013715804
152	0x3c78d685	0.015187864
153	0x3d08edea	0.033430018
154	0x3dab9c8a	0.08379467
155	0x3e11e6b8	0.14248168
156	0xbd9da442	-0.07697345
157	0xbd8c3e1b	-0.06847783
158	0xbd70a063	-0.058746707
159	0x3dc0f42b	0.09421571
160	0xbd9b036c	-0.07569012
161	0xbe0ab5a1	-0.13545848
162	0x3d9fbd7d	0.07799814
163	0xbcc422fb	-0.023942461
164	0xbd06541a	-0.03279505
165	0xbcaffe5f	-0.021483598
166	0x3d7d141c	0.061786756
167	0x3d355f60	0.04428041
168	0x3dac4097	0.08410757
169	0x3e57c732	0.2107208
170	0x3db6e54a	0.08930452
171	0x3d4a821b	0.049440484
172	0xbd97b790	-0.07408059
173	0x3e92eea3	0.2869769
174	0x3e2f5dcb	0.17125623
175	0x3e04ba96	0.12961802
176	0x3d423e32	0.047422595
177	0x3e1b5ae4	0.15171391
178	0xbd16eae0	-0.036845088
179	0x3d8638a1	0.0655377
180	0xbe884bf4	-0.26620448
181	0xbda2837a	-0.079352334
182	0x3dd08f86	0.10183625
183	0xbe203927	-0.15646802
184	0x3d423e92	0.047422953
185	0x3e127830	0.1430366
186	0xbd4da9d4	-0.05021079
187	0x3d864066	0.06555252
188	0x3e450068	0.19238436
189	0x3d1a7826	0.03771224
190	0x3cad9907	0.021191133
191	0xbdc34b99	-0.095359035
192	0x3d90b7b6	0.0706629
193	0xbdb235da	-0.087016776
194	0xbd94f17a	-0.072726205
195	0x3df5f161	0.1200893
196	0x3da11278	0.07864851
197	0xbd083eee	-0.03326314
198	0x3c54d300	0.012989759
199	0x3d353145	0.04423644
200	0x3df9a6b1	0.12189997
201	0x3c9d85d2	0.01922885
202	0x3d535479	0.05159423
203	0x3df713be	0.120643124
204	0xbca6ca00	-0.020359993
205	0x3e632dae	0.22185394
206	0x3e02718e	0.1273863
207	0x3daed901	0.08537484
208	0xbe3db466	-0.18525848
209	0x3e1473d9	0.14497317
210	0x3da897ef	0.08232104
211	0x3d7d4173	0.061829995
212	0x3d075d70	0.033048093
213	0x3b114f73	0.00221726
214	0x3dfc4136	0.123171255
215	0xbc8cccd7	-0.017187519
216	0xbca07be2	-0.019590322
217	0x3db4f38f	0.088355176
218	0x3d4253bd	0.04744314
219	0xbc0ed94c	-0.0087188
220	0x3e96475d	0.2935132
221	0xbe1ea760	-0.15493536
222	0xbd9dbaaf	-0.07701623
223	0x3e01a7c0	0.12661648
224	0xbd5af365	-0.053454775
225	0x3c3f4edc	0.011676516
226	0x3dcd2117	0.10016077
227	0xbe10d228	-0.14142668
228	0xbe80f4c3	-0.25186738
229	0xbca38a88	-0.019963518
230	0xbc23b7df	-0.009992569
231	0xbe2f118d	-0.17096539
232	0x3d0bc8a9	0.03412691
233	0x3e08eaad	0.13370772
234	0x3d38d058	0.045120567
235	0xbda33771	-0.07969559
236	0x3e03a760	0.12856817
237	0x3b565505	0.0032704484
238	0x3e053c16	0.13011202
239	0x3e39ef8b	0.18157785
240	0x3e18ce16	0.14922366
241	0xbcfb84c2	-0.030702952
242	0x3d836473	0.064156435
243	0xbd9fb899	-0.07798881
244	0x3b84099c	0.004029466
245	0x3df86009	0.12127692
246	0xbce65bf9	-0.028120028
247	0x3e194d84	0.14970976
248	0x3d731cce	0.059353642
249	0x3d32d941	0.04366422
250	0x3c6387b4	0.013887335
251	0x3d1143e3	0.035465132
252	0x3da37e81	0.07983113
253	0x3ddc3fe6	0.10754375
254	0xbdc2af43	-0.09506085
255	0xbd157cb8	-0.036495894
