rlgpu/logs/cut_815/model_70.pt (torch, 868293 bytes, 16 tensors)

log_std f4 [3]
00000000: 99ec a5be 5e92 08be 705e 63bc
-0.32407072 -0.13337085 -0.013877496

actor.0.weight f4 [256, 259]
00000000: fe89 093d 4b12 3d3d e1fd 693d 3f2c d8bc
00000010: 0f59 8dbd 383c 913d 573e 5d3d 89f2 99bd
00000020: 432e fd3c f287 043d 3d22 993c 42b1 b0bd
00000030: e36e 8f3d 55e4 c7bd 6844 c3bc f66b b5bd
00000040: 79cd e9bc d183 0bbd 59b8 1fbe 36b4 083d
00000050: 2c39 783d 0375 a6bd 524e c6bd 1ada 873c
00000060: fa23 d73d 90e8 3d3a 5092 873d 1ebb 5fbc
00000070: a937 1bbc 9433 6dbd 73d5 2d3c e43c b3bd
00000080: 2013 df3c f448 da3d c49f b53d e646 1bbd
00000090: 8240 5e3d f029 3ebc 63d1 66bd 30cb 203c
000000a0: d39d 69bc 6f52 d5bc 013c 303e f3b3 1b3e
000000b0: 54d1 d3bd f382 1b3e 7b2f 9c3d f62d a1bd
000000c0: 5dd0 a33c 83b2 9bbd 74ce 0bbd c0b2 0fbe
000000d0: 3495 28bd 43e5 c53d 3800 7fbd 3019 683d
000000e0: 3067 5f3e 8e06 b73d 541b 423c cb84 1fbe
000000f0: 15be 883c df94 3fbd ad50 c4bb 1b99 553c
00000100: 1e8e 47bd d750 003d b266 c6bd 3c6e a13d
00000110: 8fa8 d6bc b956 21bd 9b08 a1bd bbf8 923d
00000120: bf88 acbd b587 c6bc 77ea c7bc fef7 32bd
00000130: 17c1 82be ca91 41bc 4104 0e3d 408d 92bc
00000140: d60e 203d 0301 043e 7b46 ccbd 72f1 f93b
00000150: 7085 5ebd e0b9 0a3e 745f 91bd cccf 05be
00000160: 04ea bdbd 2b0b ddbd 42cd 8d3d 7cd9 7c3d
00000170: c406 143c c372 0c3d 886f 2f3e a0d2 fd3d
00000180: 424d 01bd 930b 92bd 06b7 a4bc d92c b13d
00000190: 8974 893d e00d bebd 20ff 6abc 6d91 2dbc
000001a0: baf9 d93d 74f7 4cbd f28a 4dbd 2943 d23d
000001b0: 3603 d2bb 4869 513e 8a05 05bd afae f03d
000001c0: 055b c53c 486b 3dbd 4aef e9bd 1850 d6bd
000001d0: c607 63bd 13e0 d03d b39a 9fbd c82f 76bc
000001e0: 3dd1 95bd 9c0c 1e3e 8491 cabd 0ac2 da3b
000001f0: 39d1 3f3d 057b e13d 4b32 863c 3fde 42bd
00000200: b9ab 673d 94e0 dd3d 66dd 8c3d be75 863d
00000210: 2d12 91bd 544b 72bd b641 88bd 3694 413e
00000220: 6255 84bd c980 c0bd 40bf 913d 5dfb cbbd
00000230: 54f7 183d 4854 40be 5d21 87bc ef5b 71bc
00000240: 7af9 bfbd 1e3a 2a3c 30b2 073e 1e44 bbbb
00000250: ebc4 9cbd 3eaf a5bd 1ef1 07be bf16 ad3d
00000260: f16a 26be 43e4 9f3c 140c 8fbc 9255 ed3d
00000270: d6d1 1f3e 1d35 743d 4847 4cbd 3ae2 003e
00000280: d7e6 f63d ffae 353d 7549 febd 0926 aabd
00000290: 1603 57bb cfa6 3c3d dcc9 6fbd 5e60 e8bc
000002a0: bfa8 43be 777d 7cbd d2c4 883d cadd 21be
000002b0: 889e 7d3d 6f5e d63d 9713 843d a8a3 31bd
000002c0: 47b6 fb3d d7bd 92bd 29b7 b3bd 5906 7bbc
000002d0: e6b0 0a3e 9216 1c3d bfa9 afbd 00f5 c73c
000002e0: 2116 4dbe 47c6 b8bc e897 2c3d aacf 2abd
000002f0: af4e eabd 8654 9dbd 97bc 21be 42b8 67bd
00000300: 744a cebc 2e32 31bd 9b71 283e eb22 483d
00000310: f4ee f73d 9588 b6bc a092 bfbc 49eb 1e3e
00000320: 0a12 15bd 8eaf 69be e6ab 933c 73e0 c23d
00000330: 06a6 b93d 0fcf 1cbd 2bae b93d ccb0 b6bc
00000340: e8c6 c4bd 47f4 44be 6138 52bd 0215 513d
00000350: 0842 5abd aebc abbd aaaa abbc bdcd 523e
00000360: 9971 953d 951a 303d b93a 86bd 20b5 a63d
00000370: af2b 883d 5e71 1ebc eb24 4dbb 2cc6 b2bb
00000380: c1f3 ffbd 29d7 853d 470c 2ebd 1638 e8bd
00000390: 5a8a c63d 9720 503d 4831 9a3d 541f e63c
000003a0: 99ea c63d 0fae 963d 3e2b c4bd 26c5 c73c
000003b0: 9de3 e6bd 81db 25be 3164 073d a5c1 81bd
000003c0: 6d18 c4bc 529d 1ebe 925a 0c3e a283 46bc
000003d0: 98eb e23d a4e8 a33d 93c9 043c 5bac 973c
000003e0: 379c 1f3e 7497 02bd a4cc d03d 3b58 45bc
000003f0: 6cc2 bbbd 6aac ae3d c2f9 8dbc 1ee7 223d
0.033578865 0.046160024 0.057126883 -0.026388286 -0.06901752 0.07091564 0.05401453 -0.07516963
0.030905848 0.03235621 0.018693084 -0.08627559 0.07003572 -0.09760348 -0.02383633 -0.088584825
-0.02854036 -0.034061257 -0.15597667 0.033374988 0.0606014 -0.08127787 -0.09682907 0.016583491
0.10504909 0.00072444323 0.06619704 -0.013655452 -0.00947372 -0.057910517 0.010609972 -0.08751848
0.0272308 0.10658446 0.088683635 -0.03790941 0.05426074 -0.011606678 -0.05635203 0.009814069
-0.01425882 -0.026040284 0.1721039 0.15205364 -0.103426605 0.15186672 0.07626244 -0.078700945
0.019996816 -0.07602408 -0.034132436 -0.14033031 -0.041157916 0.09662869 -0.062256068 0.056664646
0.21816707 0.08936797 0.011847336 -0.15578 0.0166922 -0.046772834 -0.0059910626 0.0130369915
-0.048719518 0.031327095 -0.09687556 0.07882354 -0.026203422 -0.039389346 -0.078629695 0.07176348
-0.0842452 -0.024234632 -0.024403794 -0.043693535 -0.2553794 -0.011814544 0.034672026 -0.017889619
0.03907665 0.12891011 -0.099743806 0.0076276595 -0.054326475 0.13547468 -0.07098284 -0.1306755
-0.092731506 -0.10793146 0.069239154 0.061730847 0.009034816 0.034289133 0.1713239 0.12393689
-0.03156782 -0.07131114 -0.020106804 0.08651132 0.067116804 -0.0927999 -0.014343053 -0.010593754
0.10643335 -0.050040677 -0.050181337 0.10266716 -0.006409074 0.20450318 -0.032475986 0.11752068
0.024091253 -0.04624489 -0.11422594 -0.104644954 -0.055427335 0.10198989 -0.077931784 -0.01502604
-0.073153 0.15434498 -0.09891036 0.0066759633 0.04683039 0.11009792 0.016381403 -0.04757523
0.05656025 0.108338505 0.06878166 0.06565426 -0.07083545 -0.05915387 -0.06653158 0.18904194
-0.06461598 -0.09399564 0.07116556 -0.09960053 0.037345245 -0.18782151 -0.016495401 -0.014731391
-0.09373756 0.010389833 0.13251567 -0.0057149073 -0.076547466 -0.080900654 -0.13275573 0.08451604
-0.16251732 0.019518023 -0.017461814 0.11588587 0.1560739 0.059620965 -0.049872667 0.12586299
0.12055748 0.044356342 -0.124163546 -0.08308036 -0.0032808236 0.04605752 -0.058542117 -0.028366264
-0.1910734 -0.06164309 0.066781655 -0.15807262 0.061918765 0.104672305 0.06449049 -0.043368965
0.12290626 -0.07165115 -0.087751694 -0.015321338 0.13544044 0.038107462 -0.085772984 0.024408817
-0.20027973 -0.022555484 0.042137057 -0.04170195 -0.11440789 -0.07682137 -0.15794598 -0.056572206
-0.025181986 -0.043260746 0.16449587 0.048861425 0.121061236 -0.022281924 -0.023385346 0.15519442
-0.036394157 -0.22820875 0.018026303 0.095154665 0.090648696 -0.038283404 0.09066423 -0.0223011
-0.09608251 -0.1923381 -0.0513233 0.051045425 -0.05328563 -0.08385597 -0.020955402 0.20586295
0.07297058 0.0429941 -0.06554169 0.081400156 0.06648957 -0.0096705835 -0.0031302522 -0.005455753
-0.12497664 0.06535179 -0.042492177 -0.113388225 0.09694357 0.05081233 0.07528931 0.02809111
0.09712715 0.07357418 -0.0957856 0.024386 -0.112738825 -0.16197015 0.033054534 -0.06335763
-0.023937428 -0.154897 0.13706425 -0.012116345 0.11080092 0.08003357 0.0081047 0.018514803
0.15586935 -0.03188272 0.10195282 -0.012044962 -0.091679424 0.08528979 -0.017331008 0.03977119

actor.0.bias f4 [256]
00000000: 2f2a c0bc 69bc 5fbd 472d 96bc 2585 fdbc
00000010: 75d6 46bc 1db3 803c f9de 0e3d 2a33 f13c
00000020: b648 febb b960 533d 3a64 5a3d 7bae d83c
00000030: 76f5 8d3d d93e bc3c d08e b1bc c839 863c
00000040: 0fe3 803c 08cf f23b 2eda cc3c 861d 20bd
00000050: 884c ae3c a75a 323c 3adb 3e3d c68c 5fbd
00000060: 6842 713c cc62 3abd 6cf0 e6bc 66f2 003d
00000070: f51c 68bd 8fb9 0ebd 65e3 d73c cf8a 15bd
00000080: bdd2 df3c f7ac 433d ad67 a93c 088a bebc
00000090: fe4f 5fbd 295b 373d 2af0 723d a6a3 ecbc
000000a0: 4f14 613d a6a2 22bc 00f9 883d b5bf 2c3d
000000b0: 3fbf 5dbd 5c0f 683d 717a d6bc 926d 6f3d
000000c0: a4f1 343d 497a d5bc e7c6 4bbd b739 603d
000000d0: 289e b43b fe45 1d3d 8950 51bd 4eda 1fbd
000000e0: 5d4b b3bb ca8f b33b 03a1 15bc 4dc7 a23c
000000f0: 6537 2c3c 5ed9 6bbd c6b5 6cbd 23c6 623d
00000100: 2b14 8dbd 034d 67bd 93a0 9dbc ef28 5a3c
00000110: ace4 133d 117f cdbc a308 10bc 2802 1ebc
00000120: d27a 103d a060 71bc b979 c63c 7505 73bd
00000130: 6d47 f6bb 31b8 963c b663 09bd 6ea4 03bd
00000140: c805 3f3d a01f 55bd 085f 82bd 12c7 5d3d
00000150: fedd 123d 346e 7fbd ee32 38bd 433f 4bbd
00000160: 8ecd 093d 26e6 1ebd 051b 6fbd 62e7 573d
00000170: 06d0 b3bc dc2c 143b 162b 1cbd 9e85 d43c
00000180: 345d 243d 9373 373d a846 28bd 08f4 7a3c
00000190: 7c98 c8bc 2012 a2bb 2502 77bd 2a9f 61bd
000001a0: 6b9b 063b dbc4 1dbd 2baf f73c 5d64 2f39
000001b0: eba4 463a 1125 e33b bfba a3bc 324e 7c3c
000001c0: d65a 093d d743 74bd 2bb4 0cba 92b2 123d
000001d0: b0e5 dcbc 1add f3bc bf95 a2bc 6e08 89bd
000001e0: e932 c9bc f335 c2bc 34d3 81bc ee28 28bd
000001f0: 78fe ca3c 5314 4c3d 7391 1cbd 2041 c9bc
00000200: cca2 a8bb b71e b5bc fbda 273d 4263 6d3c
00000210: 65fc 4dbd c15f 98bb 80be febb 9b7a 0ebd
00000220: e122 42bd aa34 65bd 9522 36bd cb49 54b9
00000230: 5b1c 4bbd d0ea 133d 432a 303d 79be 213d
00000240: 8125 683d 56ab 2e3c 07ff 1f3d 3ec6 523c
00000250: 3a38 193c c3f2 6d3c 027e 393d c9e2 0a3d
00000260: 217f 25bb 44f6 483d 2a95 553d 2b1b 3a3d
00000270: 9cdd 19bd 6bf2 063d 6507 dc3a a09f 43bd
00000280: 0083 63bd fb2d 2c3c abb8 8e3c 7f0b 483c
00000290: f645 1dbd ab28 89bd ba7c 713d 5b53 b5ba
000002a0: b334 183d a93d 8abb e6aa 7bbd a910 fa3c
000002b0: f7ef 053d f450 413d c6bf 1ebd 32f6 07ba
000002c0: 12e2 d83c cdc9 6e3d 48e5 d03c c571 6d3d
000002d0: 95fc 7cbd f214 4bbd eefd 2bbd c227 343d
000002e0: c05a 943c 9490 97bb c97f 1f3d 135b 8cbc
000002f0: d08f 86bd a8c0 54bc 5968 b3bb aa92 07bd
00000300: a118 c6bc 3ac4 55bd 0631 72bd 83b0 01bd
00000310: afe0 293d c83e 593d a654 dd3c e3ba 6c3d
00000320: b308 4bbd 3f54 9f3c 81a7 513d 6502 32bc
00000330: 21cc 50bd fb38 813c acd5 c3bc f802 24bc
00000340: 088e 4b3d 0c7f 73bc 3e64 29bd a87d 82bb
00000350: 987e 5d3d b4e7 c0bc f8fb 5d3d d472 ab3c
00000360: a1dc 963c a4ae 99bb 1e66 90bb b048 b1bc
00000370: 3512 34bd e2d7 66bd 3f3d ebbc af14 c33c
00000380: 2b09 593d 3b8b 193d c36e babb b681 063d
00000390: 934c 763d 5047 783d f94b 82bd 8601 27bd
000003a0: 12f5 ad3c 464d a9bc 3ada c03b 0fac 4dbd
000003b0: 6b19 56bd 403a 1d3c 51b9 27bd f357 84bd
000003c0: f98a 55bc d665 ef3c ddda 1dbd 2b33 e1bb
000003d0: df6d 5ebd c31d 363d 6ff7 023d 472c f1bc
000003e0: 68c0 c43c 4004 8bba 68fb 343d 537b 0f3d
000003f0: 2527 543d b083 ff3c f0f6 b43c c3d3 553d
-0.023457615 -0.05462304 -0.018332137 -0.030947277 -0.0121360915 0.015710408 0.034880612 0.029443342
-0.0077601327 0.051605914 0.05331824 0.026450386 0.069315836 0.022979187 -0.021674544 0.016384974
0.01573327 0.007409934 0.02500638 -0.039090656 0.021276727 0.010885871 0.04659579 -0.05457761
0.014725305 -0.045504376 -0.028190814 0.03148117 -0.05666824 -0.03484493 0.026353547 -0.03650933
0.027322168 0.047772374 0.02067932 -0.023259178 -0.054519646 0.04476467 0.05931107 -0.028886627
0.05495101 -0.009926474 0.06688118 0.042175014 -0.054137465 0.056655273 -0.026181431 0.058454104
0.04417576 -0.026059287 -0.049750235 0.05474254 0.0055120178 0.038396828 -0.051102195 -0.03902655
-0.0054716305 0.0054797875 -0.0091326265 0.019870425 0.010511254 -0.057580344 -0.05779054 0.05536474
-0.06888612 -0.05646993 -0.019241607 0.013315423 0.03610675 -0.025085004 -0.008791122 -0.009644069
0.03527338 -0.01473251 0.024227964 -0.059331376 -0.007515839 0.018398376 -0.033542357 -0.032139234
0.046636373 -0.052032113 -0.06365782 0.054144926 0.03585624 -0.062360957 -0.044970445 -0.049620878
0.033643298 -0.038793705 -0.058375377 0.0527109 -0.02194978 0.0022609746 -0.038127027 0.02594262
0.040127948 0.044787955 -0.041083008 0.015316971 -0.024486773 -0.0049460083 -0.06030478 -0.05508343
0.0020539414 -0.038517814 0.030234894 0.00016726689 0.0007577675 0.006931909 -0.019986508 0.015399503
0.033533894 -0.05963501 -0.00053674233 0.03581483 -0.026964992 -0.029768515 -0.019846795 -0.06691061
-0.024560409 -0.023707366 -0.01584778 -0.04105466 0.024779543 0.04982407 -0.03822465 -0.024567187
-0.00514636 -0.022109373 0.04098032 0.014488997 -0.05028953 -0.0046500866 -0.007774174 -0.034784894
-0.047396544 -0.055958427 -0.044466574 -0.00020245386 -0.04958759 0.036112607 0.043009054 0.03948829
0.05667639 0.010660967 0.039061572 0.012864647 0.009351784 0.014523211 0.045286186 0.033907685
-0.0025252777 0.049062982 0.052144207 0.045436066 -0.03756486 0.03294603 0.0016786872 -0.047759652
-0.055544853 0.0105090095 0.01742204 0.012209772 -0.038396798 -0.0669721 0.05895684 -0.0013834046
0.037159633 -0.0042187762 -0.06144228 0.030525522 0.03269955 0.047196344 -0.03875711 -0.0005186527
0.026474986 0.05829792 0.025499955 0.057969827 -0.06176432 -0.049580522 -0.041990213 0.04398323
0.01810968 -0.0046253894 0.038940225 -0.017133271 -0.06570399 -0.012985386 -0.0054750857 -0.033098854
-0.024181666 -0.05218909 -0.059128784 -0.031662475 0.04147404 0.05303839 0.027017903 0.057795417
-0.049568843 0.019449351 0.051185135 -0.010864829 -0.050975922 0.01577424 -0.023905598 -0.010010473
0.049696 -0.014861833 -0.041355364 -0.0039822645 0.054075807 -0.023547985 0.054195374 0.020928778
0.018415751 -0.0046900082 -0.0044067046 -0.021641105 -0.043962676 -0.056358226 -0.028715728 0.023813574
0.05298726 0.037486296 -0.0056894734 0.032838546 0.06013162 0.060614884 -0.06362147 -0.040772937
0.021235023 -0.02066673 0.0058853896 -0.050212916 -0.052270334 0.009596407 -0.040948216 -0.064620875
-0.013033622 0.029223364 -0.038538802 -0.006872555 -0.054304 0.044461977 0.031974252 -0.029440058
0.024017528 -0.0010606125 0.044185072 0.03502972 0.051795144 0.031190723 0.022090405 0.052203905

actor.2.weight f4 [128, 256]
00000000: dbda 12bd 0d33 213e ddcb 23be 93b0 463c
00000010: 9c7e 73bd 0f7a 0ebe 1829 e63c 4238 c23d
00000020: 1e80 b83c 8b91 203e d1a7 b8bd 9585 c5bd
00000030: ada0 76bd 4cb5 c63d 8df1 953c 7921 713d
00000040: 416d 22be afa7 a6bd cf05 d6bd 1ed7 fc3d
00000050: cb41 7f3e 845e 74bc 0df2 03be 9802 8d3d
00000060: 9700 32be 093b 1bbe dfde 9e3c f834 133d
00000070: f466 87bd 747d d53c 5dc1 f6bc 1d2d d0bc
00000080: c966 bf3c 44b7 0d3c f14d a33d 9011 7d3c
00000090: 12e1 50be 2d99 623b 012e 8f3d 4219 14bd
000000a0: 4e10 c13d 4704 fc3d 2235 7fbd 0c3f 013d
000000b0: 6317 3c3d 69ed b5bd dd17 f33c 0989 a83c
000000c0: ed24 ec3c b798 3cbe 522b 4ebc 7c84 ac3d
000000d0: 063d efbc b819 efbd c416 183d 7bb2 22bd
000000e0: 2d10 1ebe a94b 073d 9b70 c63c 4762 63bd
000000f0: 6c2a c6bc d1ab 233e 8296 bd3d 6658 6abe
00000100: 63db 453d 5bd8 d4bd 8181 bb3c 6624 a5bd
00000110: e857 ca3a 45b2 6abd 098c b4bd 7c19 91bd
00000120: e77e b0bd 177e 3dbc 1e45 d1bc 593f f53d
00000130: 386f e6bd c910 7b3c cc17 00bd 77b3 7c3d
00000140: 9e09 193d d900 683b ab98 b73d f071 46be
00000150: f8cf 713d 28dc aabc 9560 bfbd 2de0 783e
00000160: 93f1 c1bc 90ed b5bd 1c49 6abc 8b72 6dba
00000170: dc05 833d c735 cb3c f201 bdbc 4228 3c3d
00000180: 9f6d 6a3c 9c00 d33b 1d4b 2dbd ced0 a53c
00000190: 1ee9 f7bd a7e1 203e 5084 933d 7b25 1f3e
000001a0: 7895 343d 3772 1ebd c2e9 643d 540f 613d
000001b0: 87b0 b1bd 69bc 9b3c 54bd ac3d d7fd c13c
000001c0: a828 a4bd 90d2 5c3c 7b70 c1bd 3950 0dbe
000001d0: 310f 9b3d ae6c 06bc f0b3 b9bd 3f33 eebb
000001e0: 0b7a c7bc dd3c 2f3e 5207 2f3d e039 d4bd
000001f0: df28 acbd 3306 ab3d e1ef 653d 6232 d23d
00000200: 779d 613d 8f27 933c 6ea1 203d 0892 8a3d
00000210: 6643 77bd eb16 2d3e 04d4 51bd a31f 813c
00000220: 19d3 a9bc 1994 143e 4ba9 fcbd 59bc 2bbe
00000230: 5aaf b63d 7ac5 233c d773 8c3a 528f 28be
00000240: b5d1 aabc a183 ccbd d9e7 7c3d 89fd 293d
00000250: 8728 c83c 1042 963d 40a0 803d 06b4 363d
00000260: 0929 b1bc 8625 003e 0dac ddbb 60ad 343c
00000270: 4385 ef3c 8bf7 d1bd f203 12bd 1293 6bbd
00000280: e994 743e 81f5 28be cd65 3e3c f080 1fbc
00000290: 746c 143d 7afe 3dbe 0c2a 7b3c 1f76 0abe
000002a0: d232 793d a55b 07bd fec3 bb3c 9c90 5f3d
000002b0: 92ab d3bd a96c 583d faad 2a3b 1e15 853b
000002c0: acb9 7cbd 2094 323e f820 d43d cb1b 963c
000002d0: d116 77bd 635b bdbd 769c 0dbe 4511 fd3d
000002e0: 118d 413c a8f6 9e3d 0a81 fe3b 499d d03d
000002f0: 7ee5 57bd 3609 30bc ed2e 193d 88ef 0d3e
00000300: 92e6 1e3d 911e 7a3d 7ce3 3a3d b273 96bb
00000310: 6bd5 e13c 76d9 dcbc a674 bb3d 17c7 9abb
00000320: 9421 9b3d c3c5 b63c 2b05 00be c664 32bd
00000330: dfce 83ba feff 9ebd f6a9 ff3b 4644 a63d
00000340: 3979 ae3d a68e 91bd b328 db3a 4dd7 1ebe
00000350: c106 423d 189e f5bd 03d6 5a3d 3268 08be
00000360: e91f 2a3c 0eb8 10be 6a06 b33d bc3f adbd
00000370: b57d 533d 3d31 4bbd 1d82 a23c 7cc0 953d
00000380: c57b 9b3d 7af5 abbd f986 bf3d 7b80 73bd
00000390: 934d 9e3d 146c acbd d610 283e 29f7 09be
000003a0: 048d 5d3c 5ec2 513c b051 babd 0847 cbba
000003b0: 5fe2 c8bd 8cbc 3e3d f72b 47bd 67cc 25bd
000003c0: 78f0 ac3d 2e0e 09bc 70ba 373c b847 31be
000003d0: a73e 013d a955 543e ae2b e0bd b9aa 09be
000003e0: 823e 043e f49f 8c3c 9a3a 89bb 920e ecbd
000003f0: d73d f4bd 87a9 45bd 594a e93d 957b 7cbd
-0.035853248 0.1574213 -0.15995736 0.0121270595 -0.059446916 -0.13913749 0.028095767 0.094833866
0.022522029 0.1568052 -0.090163834 -0.096446194 -0.060211826 0.097025484 0.018303657 0.058869813
-0.1586199 -0.08137452 -0.10450327 0.12345718 0.24927442 -0.014915112 -0.12885304 0.0688526
-0.17383038 -0.15159239 0.019393383 0.035939187 -0.066114336 0.026060797 -0.0301215 -0.025412137
0.023364441 0.008649651 0.079738505 0.015446082 -0.20398358 0.0034576163 0.069911964 -0.0361569
0.09426938 0.12305503 -0.06230653 0.031554267 0.04592074 -0.08883173 0.029674465 0.020573156
0.028826201 -0.18417631 -0.012583571 0.08423707 -0.029203903 -0.11674827 0.037131086 -0.039720993
-0.15435858 0.03303114 0.024223616 -0.055513646 -0.02419015 0.15983512 0.09257223 -0.22885284
0.048304927 -0.10392829 0.0228889 -0.08063583 0.0015437575 -0.057298917 -0.08815772 -0.07084939
-0.08617955 -0.011565707 -0.025545653 0.11974973 -0.11251682 0.015323826 -0.031272694 0.06169459
0.037362687 0.0035400896 0.08964666 -0.19379401 0.059036225 -0.020856932 -0.093445934 0.24304266
-0.023674762 -0.08883202 -0.014299657 -0.0009057901 0.06397602 0.024805916 -0.023072217 0.04593683
0.014308362 0.0064392816 -0.04230796 0.020241167 -0.121050104 0.1571108 0.07202971 0.15541641
0.044087857 -0.038683143 0.05588699 0.05494626 -0.08676248 0.01901074 0.08434549 0.02368061
-0.08015567 0.013477936 -0.09445282 -0.13800134 0.07571257 -0.008204622 -0.090675235 -0.0072692926
-0.024350187 0.17113061 0.04273159 -0.10362601 -0.08406233 0.08350792 0.05613697 0.10263516
0.05508181 0.017963199 0.03921645 0.067661345 -0.06036701 0.16903274 -0.051227584 0.015762156
-0.020730542 0.1450962 -0.123369776 -0.16771068 0.089201644 0.009995813 0.0010715675 -0.16460922
-0.02085195 -0.09986044 0.061744545 0.041501556 0.024433387 0.07336819 0.06280565 0.044605277
-0.021626012 0.12514314 -0.006764895 0.011027664 0.029238349 -0.10252293 -0.035648294 -0.057513304
0.2388493 -0.16499902 0.011620951 -0.009735331 0.03623624 -0.18554106 0.015329849 -0.13521622
0.06083948 -0.033046383 0.022920605 0.05458127 -0.10335459 0.052838 0.002604364 0.0040613553
-0.061700508 0.17439318 0.10357851 0.0183238 -0.060324494 -0.09245946 -0.13829216 0.123568095
0.011813418 0.0776189 0.0077668475 0.1018625 -0.052709095 -0.010744384 0.037398268 0.13860905
0.038794108 0.061064307 0.045627102 -0.0045914287 0.027567586 -0.026959162 0.09153108 -0.0047234404
0.07574764 0.022311097 -0.12501971 -0.043553136 -0.0010056159 -0.077636704 0.0078022433 0.08118491
0.08519215 -0.07107286 0.0016720503 -0.15511818 0.047369722 -0.119930446 0.053426754 -0.13320997
0.010383585 -0.14132711 0.08741458 -0.08459422 0.051633555 -0.049607504 0.019837433 0.07312104
0.075919665 -0.0839643 0.09351916 -0.0594487 0.0772964 -0.08419052 0.16412672 -0.1347319
0.01352239 0.012802688 -0.09097612 -0.001550884 -0.09808802 0.04656653 -0.048625913 -0.040478136
0.08444303 -0.008365197 0.011213884 -0.17312515 0.03155389 0.20735802 -0.10945831 -0.13444032
0.1291447 0.017166115 -0.004187894 -0.115262166 -0.119258575 -0.048257377 0.11391134 -0.061641295

actor.2.bias f4 [128]
00000000: 926f c9bc 29df fb3c 4a5e 21bd 04a5 babc
00000010: 5849 c7bc 36a0 143d 6cb0 0ebb 41b8 01bc
00000020: fc3f e63b 1896 1b3d c90e 223c 8e31 813d
00000030: 80b8 48bd cc1a 3fbd 140c a5bb 5a44 4bbd
00000040: 1741 363b 2dd2 1ebd b6bb 7abc 785f ae3c
00000050: 7fe8 023d fc1e 22bd cb16 32bd 9254 333d
00000060: fb59 31bd 34c3 c1bc a8b5 b0bc 075e 093d
00000070: a648 9dbc cee8 03bc 72e3 3d3d ab55 163d
00000080: b198 0fbc c2b3 53bd 32b2 1c3d e533 fdbb
00000090: c48e 80bb 3057 373d ee4d 1dbc a26f 56bd
000000a0: 919e 453c c823 9e3b 3378 01bd ab0f a5bb
000000b0: 719a 853c 2572 03bd 22d0 913c fd2f 42bd
000000c0: 2f67 89bb 68d2 633d 9ced 4dbd 3aca d33a
000000d0: f43c fcbc 23de c2bc ff5c f73c c46e 153d
000000e0: 280c 11bd 14dc 423d 1bca 9abc 490a 4cbc
000000f0: 8e1a 3d3d 9723 8f3c a72c eb3c ac79 023d
00000100: 3ff5 a33c 0f11 273d d171 edbb 5b7f 6f3b
00000110: a0d0 453d c5b5 42bc bb32 0f3d f9a8 0bbd
00000120: 68ee 423c 1189 5fbc 78ee 5dbd c894 163d
00000130: 2088 9fbc 8da6 4a3d 8a20 8abc 93f1 75bc
00000140: 58e2 83bc 483b 7bbd c480 223d dcae a9bb
00000150: d331 3dbd 4138 663d 1e79 4f3d e046 45bd
00000160: afff 303d 1715 15bd 9a8f 5cbd a1fa b2bc
00000170: 644b 23bd 65eb fdbc 1674 2c3d 9bc8 ac3c
00000180: 486f 1dbd ca07 7bba 5b74 073c 5f2b 773c
00000190: 1431 d63c 7a08 fa3a 396a 88bd 5898 44bd
000001a0: b3e2 29bd b49f 85bc 229b 5c3d 37a6 74bb
000001b0: bc4a 03bd 0071 7dbd db55 fc3c 19b0 e8bb
000001c0: ba2b 2abd d1a7 28bd cedf 0d3d e2d9 f03c
000001d0: 0cf4 9abc 1ec9 0f3c f9d3 703d 6e79 09bd
000001e0: ed39 35bd e45d 99bc 7066 3aba 2259 5fbd
000001f0: 0285 3bbd 302b b4bc a411 42ba 0a63 cb3c
-0.024589334 0.03074606 -0.03939656 -0.022783764 -0.024326965 0.0362856 -0.0021772636 -0.007917465
0.0070266705 0.037984937 0.00989122 0.0630828 -0.049004078 -0.046656415 -0.00503684 -0.049625732
0.0027809793 -0.038774658 -0.015303543 0.021285757 0.031960007 -0.03958033 -0.04347877 0.043781824
-0.043298703 -0.02365265 -0.021570995 0.033536937 -0.01919968 -0.00805111 0.046359487 0.036702793
-0.008764432 -0.051685102 0.038255878 -0.0077271336 -0.003923269 0.044760883 -0.009601099 -0.052352555
0.012061731 0.004826043 -0.03160877 -0.005037268 0.016308995 -0.03209128 0.01779944 -0.047409046
-0.0041932086 0.05562058 -0.05027543 0.0016158291 -0.030790783 -0.023787564 0.030195711 0.036482587
-0.035411984 0.047573164 -0.0188952 -0.012453624 0.046167903 0.017473025 0.028707815 0.031854317
0.020014403 0.040787753 -0.007246234 0.0036544416 0.048294663 -0.011884158 0.03496049 -0.03409669
0.011897661 -0.013643519 -0.0541825 0.036762983 -0.01947409 0.04947524 -0.016861219 -0.015011209
-0.01609914 -0.061335832 0.03967358 -0.0051783156 -0.046190094 0.05620599 0.050652616 -0.048163295
0.04321259 -0.036397066 -0.053847887 -0.021848025 -0.03986682 -0.030996034 0.042102896 0.02109175
-0.038436204 -0.0009576051 0.008267487 0.015086024 0.02614645 0.0019076013 -0.06660885 -0.04799685
-0.041475963 -0.016311504 0.053858884 -0.0037330517 -0.032053694 -0.061875343 0.030802658 -0.0071010706
-0.041545607 -0.041175667 0.034637265 0.02940077 -0.018915199 0.008775977 0.058795903 -0.03356307
-0.044244695 -0.018721528 -0.00071106013 -0.054528363 -0.045781143 -0.02199325 -0.00074031414 0.024827499

actor.4.weight f4 [64, 128]
00000000: 543a 93bd 69f0 7ebc 1fca e63d 376d f0bd
00000010: 5d7d f2bd d0f5 1dbc 03bc a23d c89c 8abe
00000020: 76ca 0e3d 1a1f 7bbe 76bc 063e 300d 2b3e
00000030: f510 e1bd 53d6 0b3d 898a 2b3d 70a1 d8bd
00000040: aeb9 283e a6a9 5ebd 77e0 393e 298d 9bbd
00000050: aa1b 74bd 3a7b e53b a475 ff3d c067 08bc
00000060: dea1 c8bd a787 1e3d 8c19 ab3d e84d 48be
00000070: 59ab 423d 589d 0bbd 4bee b33c f013 093e
00000080: 15e3 32bc b251 933e b800 33bd 7dad 153d
00000090: ca07 913c 98c3 353c 35ca 0cbc fdb7 9cbd
000000a0: 45e6 03bd bacf f1bc 5e86 54be f806 4ebe
000000b0: 3a3c 5cbc 6da9 a33d c8ab 2b3d 2da1 a8bd
000000c0: 2877 68bd 4894 853d 620d d33d 806b 883d
000000d0: 1ead 9c3e cbc6 f6bd 662a f1bb f63b b4bc
000000e0: c0f6 223e ab76 8fbe 18e5 143d c845 9dbd
000000f0: 72e0 92bc eb5a d5bb d0ad 493e 80ff dd3d
00000100: c3f8 8c3e 46a8 033d 0af9 b9be 3b1a d63d
00000110: 24f2 c7bd dd24 90bd 396b 98bd fe2c 1b3e
00000120: 6bda 663e ed0a a23e c10c 623e 4006 663d
00000130: e3da e7bd 124c 453c 9164 1d3e 413d 0dbe
00000140: 56e8 d1bd fff3 613c fee5 ce3d d420 12bc
00000150: 55af 79be eaa6 d1bd f1e1 bebd dddd b5bd
00000160: c244 143e 3adb 5ebe e465 11bd 9f51 e1bd
00000170: eb09 3dbc 7138 6c3d 4597 5d3d ccda 3dbc
00000180: c7ec 153d cd9c abbd 15b1 103d be78 aebd
00000190: 1e2e 253c 826f 40bd c629 2fba d383 5d3d
000001a0: 2c1c 85bd 5366 a6bd d274 80bd 51a2 17bd
000001b0: 3f4c 143d 0581 183e 8477 123e d5dc ed3d
000001c0: bf77 083e 5e06 e93d 5108 59be b7eb a63d
000001d0: 7a99 913d 22f4 34bd 7b8b 0abe 4f99 1ebe
000001e0: 8e54 54be cf3d 213e 5acc f1bd 9f85 323b
000001f0: 00a6 1b3e 8ac5 2c3e ada1 8abc e744 8d3d
00000200: 7657 373d 674d 29bd d48b 1d3e a80c 8a3d
00000210: fcdd 9a3c d5fb 37be f75b 3cbe 5798 c7bd
00000220: e737 293e 83d4 c03d 98c4 fd3d ff29 e0bd
00000230: aed2 193e df77 3c3e 531e acbd 2e2f e1bd
00000240: 8bde a93e 7111 413e 121b a83d f1ec 31be
00000250: cc76 00bd c24d 843d c6ef b3bd c90b 91be
00000260: 1d3b cf3c b982 ed3b 5f22 81bc a636 c439
00000270: 743d d03d 077c c83d 68ba 32be 7a69 16bc
00000280: 40f9 b53d 3260 243e 3ea4 953d 6744 063e
00000290: 5a68 6d3d 1e7a 043d d97f 233e f253 3f3e
000002a0: dfbb 1fbe e0f6 54be c289 643b b80a f33d
000002b0: f401 653e 2cfd 4fbc db64 e1bd 24f9 023d
000002c0: fe7a 353e 459f f03d 6865 78bd 6289 04be
000002d0: 65ed 19bb b833 45be b5ad 61bd 0811 723d
000002e0: 00cc a4bc 20a1 3c3d 8c1d 99bd 603f 2f3e
000002f0: 0eee 083d dc00 26be 774a 83be 57ef aebc
00000300: 5d07 dbbc b51d 88bd 8a5d 293e c661 a23b
00000310: c6d8 e6bc 61b0 2cbe eddf 09be d178 023e
00000320: b790 ebbd 5f67 023e 1365 11be b0d9 8abe
00000330: e94a c23d e0d6 9ebd 643b dc3d 3b40 193d
00000340: bdc8 47bd e0aa 58be 7e54 283d da5b 383d
00000350: 0530 7bbd 783b 5abe d4e1 83bd d46b 983e
00000360: 7313 b93d 2ab3 25bc 5eea 0bbd 336f 61bd
00000370: 4c70 00bd 62bd c3bc d469 b9bd 7564 a63c
00000380: e8a5 263d 0210 db3d fe06 c43c 23fb 1dbe
00000390: 17a2 04bd e9f4 64be 08b4 c13d 4209 4d3e
000003a0: 3d57 2ebe f3cb d93d df6c b8bd 238f c6bd
000003b0: c239 bf3d 7800 cbbd 6fe8 85bb f95a c03d
000003c0: 2922 ef3c cc15 023e b85f 733d 5361 013e
000003d0: 1cce f9bd d431 9fbd 4bb3 d7bd 7c2f 16bd
000003e0: 21d6 dfbc d4ab 1cbe 5786 4dbd 6c9b 313e
000003f0: 3958 c13b 1a02 30be 4a74 4ebe 87a7 4d3d
-0.071888596 -0.015560248 0.1126902 -0.11739581 -0.118403174 -0.009641126 0.07946017 -0.2707274
0.03486105 -0.24523583 0.1315783 0.1670425 -0.109895624 0.034139942 0.041880164 -0.10577667
0.16477081 -0.054361008 0.18152033 -0.075952835 -0.059596695 0.007003215 0.1247361 -0.008325517
-0.09796499 0.038703587 0.08354482 -0.19560969 0.04752669 -0.0340856 0.021964213 0.13386512
-0.010918398 0.28773266 -0.043701857 0.036542404 0.01770391 0.011093996 -0.008593132 -0.076522805
-0.032202024 -0.029517997 -0.20754382 -0.20119846 -0.0134420935 0.079913 0.04191187 -0.08233867
-0.05675426 0.06522423 0.10305287 0.06661129 0.30600828 -0.120496355 -0.0073597906 -0.022001248
0.1591444 -0.28020224 0.036351293 -0.07679325 -0.01792929 -0.0065110824 0.1969521 0.108397484
0.2753354 0.0321429 -0.36322814 0.10454222 -0.097629815 -0.07038281 -0.07442326 0.15153882
0.22544257 0.3164896 0.22075178 0.056158304 -0.11321046 0.012042062 0.15370394 -0.13792898
-0.10249393 0.013791083 0.10102461 -0.00891896 -0.2438329 -0.102369145 -0.09320439 -0.08880208
0.14479354 -0.21763316 -0.03549756 -0.11001896 -0.011538009 0.057671014 0.05409934 -0.01158781
0.03660276 -0.08379517 0.03532513 -0.085191235 0.010081796 -0.046981342 -0.0006681945 0.054080795
-0.06499514 -0.081249855 -0.06272282 -0.03702003 0.036205526 0.14892967 0.14303404 0.11614386
0.1332693 0.113781676 -0.21194579 0.08150428 0.071093515 -0.044178136 -0.1352977 -0.1548817
-0.2073538 0.15746234 -0.11806555 0.002724029 0.15200043 0.1687223 -0.016922796 0.06897908
0.044761144 -0.041333582 0.15385371 0.06740695 0.018904679 -0.1796716 -0.18394457 -0.097458534
0.16525231 0.094155334 0.12391013 -0.1094551 0.15021774 0.18405102 -0.084042214 -0.10995327
0.331776 0.1885431 0.08208288 -0.17375542 -0.031363294 0.064601436 -0.087859675 -0.28329304
0.025296742 0.0072482494 -0.01576346 0.0003742475 0.10167971 0.09789281 -0.17453921 -0.009180421
0.08885431 0.1605232 0.07306717 0.13112031 0.057960846 0.032343023 0.15966739 0.18684366
-0.15599011 -0.207973 0.003487215 0.11867279 0.22364026 -0.012694638 -0.11005565 0.03197588
0.17722699 0.11749128 -0.060643584 -0.12943032 -0.0023487445 -0.1925801 -0.0550973 0.059098274
-0.020116806 0.0460521 -0.07476339 0.1711402 0.03343015 -0.16211265 -0.2564275 -0.02135436
-0.02673691 -0.06646291 0.16539589 0.004955503 -0.028179538 -0.16864158 -0.13464327 0.127414
-0.115022115 0.12734745 -0.14198713 -0.27119207 0.09486944 -0.07755828 0.10753515 0.03741477
-0.048775423 -0.21158934 0.041096203 0.04500947 -0.061325092 -0.21311748 -0.06439558 0.29769766
0.09036913 -0.010113517 -0.034159057 -0.05503769 -0.031357095 -0.023894016 -0.09053388 0.020311574
0.040685564 0.106964126 0.023929115 -0.15427832 -0.032381143 -0.22359051 0.09458166 0.20023063
-0.17025466 0.10634603 -0.090051405 -0.0969527 0.09337188 -0.09912199 -0.004086546 0.09392352
0.029191094 0.12703627 0.059417456 0.12634782 -0.12197515 -0.07773176 -0.10532244 -0.03666638
-0.027323784 -0.15299922 -0.050176945 0.17344445 0.0059004095 -0.17188302 -0.20161548 0.050208595

actor.4.bias f4 [64]
00000000: d52a 453b 7640 c53b 1ea0 61bd d4bc 37bc
00000010: 9d4c bdbd 39f3 3c3d 2bd8 0c3d f51b 963d
00000020: 1c08 9ebd f5d6 d33c a6dd a93c 9d72 17bd
00000030: c1b6 6f3d e9bc b53b d778 05bc 840c 023d
00000040: 7ac2 2b3d d9c3 0dbc b2a1 3e3c ed52 59bd
00000050: dd82 073d c3dc b6bd 22ff a2bc 78df afba
00000060: b270 a13d b19a 7d3d 0be8 793d 1793 7abb
00000070: 875c b73d d073 b33d ebe8 6abd fafe b9bd
00000080: 42d9 a7bd 8175 803d 5513 4bbd 8e34 39bc
00000090: 6930 603d 5d16 d7bb 0cb7 d63c e044 973d
000000a0: 81ab abbc 4b9c 00bd 6fa5 82bd df21 3ebd
000000b0: aaaf cfbc abec 08bd 3ac2 623d 25aa a4bd
000000c0: a6cf 46bc 04f9 f9bc 4c01 cc3c 68e5 b83d
000000d0: 583b aebc 505c bebd b4a5 823d e3cc 0f3d
000000e0: abbb 3f3d a6a9 41bd b483 19bc d1c8 69bd
000000f0: 8b98 83bd 905e 9b3d f047 043d f273 94bd
0.0030085344 0.0060196472 -0.05508434 -0.011214454 -0.092431284 0.046130393 0.03438584 0.07329551
-0.077163905 0.025859335 0.020735573 -0.036974538 0.058523897 0.0055462015 -0.008146486 0.031750217
0.041933514 -0.008652651 0.011635231 -0.0530576 0.033083785 -0.08928826 -0.019897047 -0.0013418039
0.07882823 0.061915103 0.06101231 -0.0038234645 0.08953195 0.08762324 -0.057351034 -0.09081836
-0.081957355 0.06272412 -0.049578983 -0.011304034 0.054733668 -0.006563945 0.02621033 0.07386184
-0.020955803 -0.031399053 -0.0637921 -0.04641902 -0.025352318 -0.03342883 0.05536101 -0.08040265
-0.012134468 -0.030514248 0.024902962 0.09028131 -0.021268532 -0.09294951 0.063792616 0.035107505
0.046809833 -0.04728093 -0.009369779 -0.05707628 -0.0642558 0.07586396 0.032295167 -0.07248677

actor.6.weight f4 [3, 64]
00000000: f55f f63a 3096 423a fd63 fe3a f351 403b
00000010: bc2b e63a da40 b6bb 3fb5 263b 39e1 2c39
00000020: a2ed ef3a 6bb4 b3ba bf61 a13a 8005 b738
00000030: f5f8 1437 e023 d03a 15a6 d1ba 4cc3 203b
00000040: 0a8c ac3a eda2 e038 5fec dc39 e02c a43a
00000050: 81a3 793a a021 043a 6d66 5d3b 193c f939
00000060: e807 453b 2171 e63a d017 b939 fa7e 943a
00000070: 8bc6 943a 47d3 a93a db7b 4f3a 9fa9 d83a
00000080: ff51 d53a 179e 4539 b35f a0ba 4b79 23bb
00000090: 8427 4239 9b71 ed39 6ae6 123a 2288 f139
000000a0: 4726 2a3b b4a4 2339 daa3 c8b7 4ccb c73a
000000b0: 2c55 473b 4d10 943a b138 93b9 d273 82b9
000000c0: f424 50bb 3639 23b9 8d09 f13a c2b5 ea39
000000d0: dfdb 9e3a 2b65 f339 6454 fc38 9dcb b839
000000e0: de5f 113b 1c38 a83a e238 0c3b 7ca5 1bba
000000f0: ce15 af38 66c8 983a cc77 723a b42c 283a
00000100: 43fb 26bb de39 1e3b 6d64 adbb 5d69 2bbb
00000110: 0b6e 83bb 382a 4bbb ead6 94bb a59c a6ba
00000120: c97b 09bc c61f bcba 48c5 87bb c3a4 c8bb
00000130: 672a 0638 48d4 9bbb 63be 58bb 2afe babb
00000140: 5e51 3d3a 348a 1f39 e527 30bb 7663 723b
00000150: e04d e1bb aa06 4ebb a7ce d2bb f272 0aba
00000160: 3da0 59bb d2ef b2bb 16e7 a8bb d95f 3abb
00000170: 6ea4 183a 2783 de3b b8c0 8fbb 635a 11bc
00000180: 6a13 aebb b5c9 a7ba d2ca cbbb af4c 57bb
00000190: 8a59 79bb 3da5 99bb 7f25 5e3a b1cd 01b9
000001a0: 9ad4 8dbb d309 57bb d2c6 a5b9 c2e1 84bb
000001b0: 0eaa b3bb f400 febb a48f 04bc ce4a 933b
000001c0: ac34 a2bb de89 af39 3929 86bb 9bc6 8db9
000001d0: c99f acbb cd0a 08bc 925f a1b9 eb30 adbb
000001e0: 3a8e a7bb 6e82 f0bb 4c29 06bc 3929 edba
000001f0: 1402 9e39 2f65 8c3a 51f2 0dbc ccfe 29bb
00000200: b1aa fa3b 372f 2bbb 994a 223c ef02 b93c
00000210: 7479 b23c 1f97 e13b fda4 b43c fb2c 44bb
00000220: 4561 ed3c c67b b23c 4fff 5c3b 62ff b83c
00000230: 275a 4eba 1b1c c03c 3afc 503c 6c40 ab3c
00000240: 01eb 42bc 97a7 07bb 39b7 e73b 7d48 b3bc
00000250: dd57 a03c dc47 733c bd3f bb3c f8ab 9f3b
00000260: 0b7a 2a3c 03a1 a83c 320d cd3c 4fb2 753c
00000270: 4ba1 73bc ead5 d2bc 4cf2 863c dc48 f23c
00000280: 52d7 b33c eb94 a1ba 2a46 d03c 31d5 443c
00000290: f035 ab3c 88af b63c e13e 17bc ba5c 04bc
000002a0: bb87 b63c 817c 9e3c 01d5 7cba 6e05 a23c
000002b0: a514 5f3c 81a9 be3c 590a e53c bc24 77bc
000002c0: 872b a63c 45dc fd3a 04ae a23c 521f 19bc
000002d0: 0373 ac3c a530 e33c 6bf8 823a 6584 b33c
000002e0: f654 993c d94d ee3c 93e6 d53c 88c9 d13a
000002f0: 4070 92ba 7e67 46bc 2348 df3c 6495 503c
0.0018796908 0.00074228924 0.0019408461 0.002934572 0.0017560641 -0.00556193 0.002543762 0.000164871
0.0018305073 -0.0013710385 0.0012312456 8.7271444e-05 8.879452e-06 0.0015879832 -0.0015994931 0.0024530469
0.0013164293 0.000107114996 0.0004213778 0.0012525581 0.000952296 0.0005040411 0.0033782974 0.00047537757
0.0030064527 0.0017581322 0.0003530369 0.0011329346 0.0011350674 0.0012956642 0.0007914879 0.0016530043
0.0016275047 0.00018846277 -0.0012235552 -0.0024944122 0.00018516002 0.00045288805 0.00056037924 0.0004606853
0.0025962756 0.00015606248 -2.3918157e-05 0.0015243082 0.0030415757 0.0011296362 -0.00028080263 -0.00024881825
-0.0031760307 -0.00015566204 0.0018389687 0.00044767378 0.001211997 0.00046423948 0.000120320154 0.0003524692
0.0022182385 0.0012834105 0.002139621 -0.000593744 8.348712e-05 0.0011656403 0.00092494185 0.00064153527
-0.0025479353 0.0024143378 -0.0052915127 -0.002615533 -0.004010921 -0.0031000506 -0.0045422213 -0.0012711479
-0.008391329 -0.0014352731 -0.004143391 -0.0061231568 3.198758e-05 -0.0047555305 -0.0033072464 -0.0057065682
0.00072219025 0.00015214906 -0.0026879248 0.0036985553 -0.0068757385 -0.0031437078 -0.0064333263 -0.00052814104
-0.0033207082 -0.0054607177 -0.0051545007 -0.0028438477 0.0005822842 0.006790537 -0.0043869875 -0.0088716475
-0.005312373 -0.0012801202 -0.0062192464 -0.0032852103 -0.0038047754 -0.0046888874 0.0008474215 -0.00012379025
-0.0043283226 -0.0032812252 -0.00031619385 -0.0040552327 -0.0054829186 -0.0077515785 -0.008090887 0.0044950014
-0.0049501266 0.0003348132 -0.0040942696 -0.00027041588 -0.0052680713 -0.008303356 -0.00030779518 -0.0052853725
-0.0051133903 -0.007339767 -0.008188557 -0.001809395 0.00030137657 0.0010711307 -0.00866373 -0.0025939224
0.0076497425 -0.0026120672 0.009905481 0.022584407 0.021786429 0.00688447 0.022051329 -0.0029934037
0.028977046 0.021787535 0.0033721512 0.022582714 -0.000787171 0.023450902 0.012755448 0.020904742
-0.01189685 -0.0020699257 0.0070714024 -0.021885151 0.019573146 0.014848676 0.022857541 0.004872795
0.010405074 0.020584589 0.025030706 0.014996125 -0.014869998 -0.025736768 0.016472958 0.029575758
0.021953259 -0.0012327706 0.025424082 0.012013719 0.020899743 0.022300497 -0.0092313 -0.008078748
0.022281518 0.019346477 -0.0009644777 0.01977798 0.013615762 0.023274185 0.027959036 -0.015084442
0.020284427 0.0019368014 0.019858368 -0.009345846 0.021050936 0.027733156 0.0009992247 0.021913717
0.01871727 0.029089855 0.026110923 0.0016005496 -0.0011172369 -0.012109635 0.027256077 0.01273093

actor.6.bias f4 [3]
00000000: 1da5 ecbc c763 873d 863f 883d
-0.028887326 0.06610828 0.06652741

critic.0.weight f4 [256, 259]
00000000: 6e63 a23d e306 c43d 0a04 8d3b 7f87 39bc
00000010: 2b3a 87bd 8b13 b8bd 9f56 913d e6df 5abd
00000020: d397 123d b1fc 4b3b 2063 2d3d daaf 95bd
00000030: 58a5 b23d c954 fd3d 1e0c fc3d 2b77 cfbc
00000040: a218 0e3e 1e1e 9dbd c13f d6bd 715b 99bd
00000050: 8b9d d63d bd4e 1cbe 1690 4fbe b4e6 f23d
00000060: 5845 e8bd 7916 a33d 42a1 d43c 37d4 70bd
00000070: 0ee3 a23e 196a 953e 74fb c63d bd02 813d
00000080: 1f0b 8e3b b45a fa3d 95ed fbbd 3c18 f8bc
00000090: d768 39bb 8d94 2abd 47bb 96bd 32fd 823d
000000a0: 27ef 383d a04c b8bc 5e2e 10bd 65fc c43d
000000b0: 97f7 a0bc e2c0 453e 2cf1 4e3e 6954 173e
000000c0: cf84 34be a710 583e 853d 61bd 564c ca3c
000000d0: aa7d 533d c80c dbbe b467 6bba 73ec 823d
000000e0: b4c9 2fbd 214e 633c 8a81 203e 3684 1dbb
000000f0: b195 993d 60bc 863d ecb9 9bbb 9a8f ea3c
00000100: 85c2 12bd ec2c bfbc eabc fa3d 0ac3 173d
00000110: f1ab 2bbd 0e70 e83d 1700 cebd 944c 973d
00000120: 76f2 18be 6523 88bd c97a 0c3e 5faa 2bbe
00000130: 944a 3a3d 5e31 7abc 5c0e 9d3d 97ca 683e
00000140: 337f 0bbc 4388 cebd 4d49 763c dd6e 0cbd
00000150: d023 ea3d 959b a7bd 6294 2e3e 20dd 03be
00000160: f9d6 e8bc ed37 5cbd 4a9f 253e 681a ed3d
00000170: 66a2 3d3d 3855 c0bd 4734 dfbd bf8a 6d3d
00000180: a42f 4e3a 1743 0abd 6c6a 2d3d 4d13 9a3d
00000190: 8e79 4fbd 846b ad3d ff3d dcbc ee2b 2f3d
000001a0: 41a9 e83c 620b aa3d 6f20 38be e2cb 943d
000001b0: d13a b43d 046f 643c 4235 9d3d 586e 0fbe
000001c0: 0d3d c3bd 6c26 8dbc 5fec 10bd 0959 d1bb
000001d0: c23b a8bc 0fbf 27be 2aab ebba d1fa 9bbd
000001e0: 8485 4abc 76cc 10bd 1b24 103d 09f2 d43d
000001f0: bddb 443d 8df1 513e 6a7e d6bc 1e09 533d
00000200: a1b8 2abe 1b69 963d 87f3 903d 1c75 3dbc
00000210: fac6 913d 1dd3 cabc 00af 33bb b9f3 933d
00000220: 70ad 87bd 9dab eabd 5282 8b3c ed1d ee3c
00000230: 76e4 143e 4032 c13d 25cb 66bd 1048 ea3d
00000240: 880f b0bd ed97 aabd 1fff 5a3d 464d 85bc
00000250: feca 323e 9a6c 723d 066c a6bd c05e 323d
00000260: cd71 61bb 1fcf 30be 0a1e 5bbc 7492 923e
00000270: e438 e4bc 59e1 573e f8d1 e63d 0a93 16bc
00000280: 266b aebd 7d91 bfbd d403 453b c816 d9bc
00000290: 8c10 c63c 738c 95bb 15d2 87bd f5b3 a53d
000002a0: e7e0 15bd 55be 1c3d 2878 1fbd 206e aa3d
000002b0: 9018 363e 4cf3 da3c 200e 60bd 5416 d93d
000002c0: 6d80 03be 6b78 bf3c 4590 debd 8861 fb3b
000002d0: 58fd d0b9 527b 2b3d f134 19bd 5aef 03bd
000002e0: 2f23 193d fcdf 3d3e 4d4e dfbd 61c5 a1bc
000002f0: e45f 27bd c9c7 443d 46f9 adbd 0282 3bbd
00000300: 58d7 413e d9ec 10bc 1306 3dbd d8ba 56bd
00000310: 15d6 c33d 1514 73bc 41f3 96bd 72de 19bd
00000320: 3a46 ee3d ae6d f43d dd3a 1dbd 4440 a13d
00000330: 5331 09bd b777 4f3d 6d95 64bd c430 503e
00000340: 9eb5 afbd 0a18 28bb fa13 54bd 9fc4 0a3e
00000350: 9aaf f83c 4ad3 573d 930b 493c 5726 893c
00000360: a4fe 373d 3cf7 d3bd 4063 81bd c103 bdbd
00000370: 43eb a7bd b374 c4bd cda5 cabd 742b 9cbb
00000380: c393 b73d e16b dcbd c0d6 4fbe 1a2e b0bc
00000390: e886 b23d 00ac 933d b361 133d 1487 12be
000003a0: 5ac3 523d 7c33 2cbe 3276 ef3c feab 03bd
000003b0: 403c cebd 211e 15be 887e 69bd 9b7b e43d
000003c0: 170d 14bd e3a0 ec3d 0409 103e 7b75 443e
000003d0: 4a75 67bd c87d 9ebd 5273 a0bc ba9e 913d
000003e0: a11d f33c 915d 533d 4abb cd3d 0e30 553d
000003f0: 031c 883d b2b8 aa3d 9c4f 053b d00d 28bc
0.07929121 0.09571626 0.00430346 -0.011323809 -0.066028915 -0.089881025 0.070966 -0.053436182
0.035789322 0.0031125958 0.04233086 -0.07308932 0.08722943 0.12369687 0.12306999 -0.025325378
0.13876584 -0.0767176 -0.10461379 -0.07488144 0.10479268 -0.15264411 -0.20269808 0.118604094
-0.11341351 0.07963271 0.0259558 -0.058796134 0.31813854 0.2918251 0.097159296 0.062993504
0.004334822 0.122243315 -0.123011746 -0.030284993 -0.002829125 -0.041645575 -0.07359939 0.063959494
0.04514995 -0.022497475 -0.03520047 0.09618453 -0.01964931 0.1931186 0.20209187 0.14778294
-0.17628787 0.21100102 -0.05499031 0.024694603 0.051633514 -0.4278319 -0.00089799915 0.06392755
-0.04291697 0.013873608 0.15674415 -0.0024035103 0.074992545 0.065788984 -0.004752388 0.028632928
-0.03583004 -0.02333685 0.12243064 0.037051238 -0.041912023 0.11349498 -0.10058611 0.07387653
-0.14936242 -0.06647376 0.13718714 -0.1676421 0.04548128 -0.015270559 0.076687545 0.22733532
-0.008514213 -0.100845836 0.015032125 -0.034285415 0.11432612 -0.08183972 0.17048791 -0.12877321
-0.02842282 -0.053764272 0.16174045 0.11577302 0.046297453 -0.09391254 -0.10898643 0.057993647
0.00078653754 -0.033755388 0.04233782 0.075232126 -0.050653033 0.084677726 -0.02688503 0.042766504
0.028401019 0.08302952 -0.17981122 0.0726545 0.08800281 0.013942484 0.07676174 -0.14006937
-0.09533129 -0.017230235 -0.03538167 -0.0063887876 -0.020536307 -0.16381477 -0.0017980088 -0.07616199
-0.012360934 -0.03535124 0.035190683 0.10397727 0.04806112 0.205023 -0.026183326 0.051522367
-0.16671993 0.07344266 0.07077699 -0.011563566 0.0711803 -0.02475887 -0.002741754 0.07224221
-0.066248775 -0.11458514 0.017029915 0.029067004 0.14540276 0.094334126 -0.056346077 0.11439526
-0.08596712 -0.08329759 0.05346596 -0.016272198 0.17460248 0.0591856 -0.081260726 0.043547392
-0.0034400106 -0.1726651 -0.013373861 0.2862736 -0.027859159 0.21082057 0.11270517 -0.00919033
-0.08516531 -0.093539216 0.0030062096 -0.02650012 0.024177812 -0.004563862 -0.06631867 0.08090965
-0.036591437 0.038267452 -0.03893295 0.08321786 0.17782807 0.026727341 -0.05470097 0.10599962
-0.1284196 0.02337285 -0.10867361 0.0076715387 -0.00039861607 0.041865654 -0.037404004 -0.032210685
0.03738707 0.18542475 -0.109036066 -0.019747438 -0.040862933 0.048042092 -0.08494811 -0.045778282
0.18929803 -0.008845531 -0.04614837 -0.05242428 0.09562317 -0.014836331 -0.07370616 -0.037565656
0.116344884 0.11934982 -0.038386215 0.07873586 -0.033494305 0.05065128 -0.055806566 0.20331103
-0.085795626 -0.0025649094 -0.051776864 0.13551567 0.03035717 0.052691735 0.012270826 0.016741915
0.04492058 -0.103498906 -0.063177586 -0.092292316 -0.081991695 -0.09592571 -0.09894905 -0.004765922
0.0896373 -0.10762764 -0.20296764 -0.021506358 0.087171376 0.07210541 0.035981845 -0.1430934
0.051455833 -0.16816515 0.029231165 -0.032146446 -0.100700855 -0.14562275 -0.057005435 0.11156388
-0.036145296 0.11554124 0.14065939 0.1918544 -0.05650834 -0.077388346 -0.019586239 0.07110353
0.029677214 0.051602904 0.10045488 0.05204778 0.06645968 0.08336009 0.002034164 -0.010257199

critic.0.bias f4 [256]
00000000: f985 92bc 3c78 853c 7fa9 293d c96c 6abc
00000010: 634e c63c 1b07 61bd 5328 793d 5a93 63bd
00000020: 34ab 65bd 6607 67bc e2e1 6ebc e890 373c
00000030: 3040 603d b252 613d f404 023c cdd8 353c
00000040: 4776 c53c a87f 3238 79ea f5bc de88 2d3d
00000050: 58e3 e0bb 5203 713d e570 123c d315 dbbc
00000060: 09b0 10bd c060 16bd eaf0 e23c 9022 1f3d
00000070: ba4e 873d bef8 81bd 5f95 28bd bdef c9bc
00000080: 02f7 43bd cd09 c83c 7843 6fbd 4ca4 f7bc
00000090: 8a2d 6ebc df39 e4bc 3dbe 493c f839 74bd
000000a0: dad3 15bd 395a 0fbd afc5 443c 0cff 3ebd
000000b0: d55f 443d 4865 a03d 36b5 22bd d30a ccbc
000000c0: b544 45bd 95d3 bc3c 8150 31bd 893a 5dbd
000000d0: c70c 673d 9d65 69bc 2961 503d 046c 2abd
000000e0: 5e36 05bd 6b77 40bd 21a1 41bc 1705 e5bc
000000f0: 1098 503c 0e4f 803d 1f69 793d 3ccb 4e3d
00000100: 2d55 c23c 3d23 b0bb 958c 68bd b2d7 b5bb
00000110: d976 1bbd 3183 953b d302 8d3c 7f7e 44bb
00000120: fed9 933c 99cf 08bc a986 783b 537f 86ba
00000130: 8651 27bd 836c 653d 07ab 9bbc 2f01 55bd
00000140: cd6d 303d 2b7b 743d 6342 50bd ac1f 603d
00000150: 742c c23c 85b7 37bc cb4b 493d 46de e3bc
00000160: 32a6 473a f8b7 73bd 6bf7 4b3a e0f7 cf3c
00000170: 5e04 35bd c716 b13c 7b2b 883b ea3d 27bc
00000180: d871 783d cef8 0abd c85a 613d b42c 9f3c
00000190: f2b8 353b 0fab 5fbd 6002 45bd 14dd 3f3d
000001a0: 973f 583b 4740 e8bc d4ec aa3c 7829 d3bb
000001b0: 401e 043c 9a72 063d 8f06 d73c 5bdf 073d
000001c0: 53dd 0bbd 6710 333c 7622 40bc bade 4dbd
000001d0: fdfd a33c c011 dfbb 4f30 99bc 3d93 3bbd
000001e0: d06d 513c 5d76 0abd c090 bcbc 3598 8d3c
000001f0: 31f3 82bd 2717 e2bc a4a0 a7ba caca 2e3d
00000200: a384 9d3c 5726 a8bb 8573 41bd 32c2 463d
00000210: 20c6 6a3d 5fd8 9abc 305b 5f3c d008 c93b
00000220: 95b7 963c ffd0 12bd 0c20 c23c 88bf 73ba
00000230: d648 7abd 69b8 e8bc 9a2d 4cbd 7753 4fbc
00000240: c12d f3ba 63c1 793d 4172 e5bc ec2d 4abd
00000250: 3230 56bd 8520 3d3c 166d 64bd 9850 4c3c
00000260: 6b0a c6bc 667d 903d 5aaf 0cbc 7ad5 593d
00000270: 14f2 5cbd d594 6cbd c706 8d3b e038 b1bb
00000280: 9183 5ebd e0cc 303c d55c b1bb f636 55bd
00000290: 527c aabc e781 5cbd 59f8 453c 608a 58bd
000002a0: 22e3 743d cc37 973b 1315 893d 39cc d23b
000002b0: bd02 603d cc8a e9bc 0ed8 a4bc 1b66 64bd
000002c0: ec1d 033c 5bf7 54bd f0de 4dbd 4265 683d
000002d0: 02ef 39bd 3ce3 a33c 56ce 29bd f490 55bd
000002e0: ab7a 1cbd 24db da3c 3e10 3cbd 50ea 50bd
000002f0: bf4d 8abd 8d66 b1bc 677a 1abd 6e65 28bd
00000300: e83c adbb aa4c e3bc dfb3 5b3d 6eae aabb
00000310: 016a be3c 74f9 233d d9d6 25bd a795 0abd
00000320: e2dd acbc 96d5 0d3d fe35 5f3d af95 06bd
00000330: 0688 2cbd 1aa5 5a3c 7043 8f3a e669 d43c
00000340: e62a edbc 9427 ddbc 101e b03c 1a86 443d
00000350: 705d 2b3c 2e31 183d 8c93 97ba 1901 593d
00000360: 0b50 ad3c 7956 0a3b 162a 393d b362 283a
00000370: ca90 753d 4ca3 a2bb f471 bdbc ace7 9e3c
00000380: 866f 3bbc 547b 4ebd b7b6 13bd 8f4b 15bd
00000390: 29c2 a0bc dead 34bd 6a53 3bbd 56ac 1ebd
000003a0: 37e9 41bc 93b6 1a3c 9592 71bc 42fb a23b
000003b0: cd9d 063d 3d06 4e3d 76bc 6cbc 9a04 59bc
000003c0: bab7 bc3c dfdf 6f3d ebcd 45bd 01e7 a8bc
000003d0: 7dec c23a 83e6 ec3c 43bf 80bd 697f bcbb
000003e0: ef76 64bd b838 02bd d627 31bd b079 0b3d
000003f0: 40bc daba 09ed 17bd dedd ecb9 b3c0 603d
-0.017886149 0.016292684 0.04142141 -0.014308163 0.0242073 -0.054938417 0.06082947 -0.055560447
-0.056071475 -0.014100885 -0.014580222 0.011203982 0.054748714 0.055010505 0.007935751 0.011099053
0.02410425 4.2557396e-05 -0.030019032 0.042366855 -0.006863039 0.058841057 0.008938049 -0.026743805
-0.03532413 -0.03671336 0.027702767 0.03885132 0.06606813 -0.06346272 -0.041158076 -0.024650449
-0.047842987 0.024418736 -0.058413953 -0.03022971 -0.014537225 -0.027859626 0.012313423 -0.059625596
-0.03657899 -0.034998152 0.012010022 -0.04662995 0.047942955 0.07831818 -0.039723597 -0.024907505
-0.048161227 0.023050109 -0.043289665 -0.0540109 0.05640867 -0.014245418 0.05087391 -0.041606918
-0.03252255 -0.046988886 -0.011818201 -0.027956529 0.012731567 0.062650785 0.060891267 0.05048679
0.023722256 -0.0053752945 -0.056774694 -0.0055493945 -0.03795514 0.0045627584 0.01721326 -0.0029982624
0.018048283 -0.008350276 0.003792206 -0.0010261334 -0.04084923 0.056011688 -0.01900245 -0.052003082
0.043073464 0.059687775 -0.05084456 0.054717705 0.023702838 -0.011213188 0.049144547 -0.02781595
0.00076160126 -0.05950162 0.00077807036 0.02538675 -0.044193618 0.021617306 0.004155574 -0.010207633
0.060655445 -0.033928685 0.055018216 0.019430496 0.0027728644 -0.054606494 -0.048097968 0.046841696
0.0032996887 -0.028350962 0.020864882 -0.0064441524 0.008063853 0.032824136 0.026248245 0.033171993
-0.034146618 0.010929204 -0.011726966 -0.050261237 0.020018572 -0.006807536 -0.018699793 -0.045794714
0.012782529 -0.033804286 -0.02301824 0.017284492 -0.06394041 -0.02759893 -0.0012788964 0.042673863
0.019228285 -0.0051315236 -0.04722931 0.048525043 0.057317853 -0.018902002 0.013632581 0.0061350837
0.018398086 -0.035843845 0.023696922 -0.0009298255 -0.061104618 -0.028408246 -0.049848177 -0.012654177
-0.0018553064 0.060975444 -0.028008582 -0.0493602 -0.052292056 0.011543398 -0.055768095 0.012470387
-0.02417489 0.07055168 -0.008586729 0.053182103 -0.0539418 -0.057759125 0.0043037864 -0.0054083914
-0.05432469 0.0107910335 -0.005412678 -0.052054368 -0.020811234 -0.053834822 0.0120831365 -0.05286634
0.059786923 0.004614806 0.06693473 0.0064330366 0.05469011 -0.028508566 -0.020122554 -0.055761438
0.008002739 -0.05199371 -0.050261438 0.056737192 -0.04539395 0.020005815 -0.041456543 -0.05214019
-0.038202923 0.026715823 -0.045913927 -0.051004708 -0.0675311 -0.021655345 -0.03771439 -0.041112356
-0.0052868016 -0.027746517 0.053638335 -0.005208782 0.023243906 0.04003282 -0.040488098 -0.033834126
-0.021101896 0.03462752 0.05449485 -0.032857593 -0.04212191 0.013345027 0.0010930132 0.025929403
-0.02895112 -0.026996411 0.02149871 0.04797945 0.010459289 0.037156276 -0.0011564358 0.052979562
0.021156332 0.002110867 0.045206152 0.0006423399 0.059952535 -0.004963314 -0.023125626 0.01939758
-0.0114401635 -0.050410584 -0.036062922 -0.03644901 -0.019623833 -0.044111125 -0.045733847 -0.03873857
-0.011835388 0.009442943 -0.014744421 0.0049738 0.032865334 0.050298918 -0.014449229 -0.013245726
0.023036826 0.05856311 -0.04829208 -0.020617964 0.0014871504 0.02891851 -0.0628648 -0.005752493
-0.055777486 -0.031792372 -0.04325088 0.034051597 -0.0016688183 -0.03709129 -0.00045178732 0.054871272
