rlgpu/logs/pointReacher/model_100.pt (torch, 868312 bytes, 16 tensors)

log_std f4 [3]
0	0xbe2dfacd	-0.16990204
1	0xbea2c364	-0.31789696
2	0x3d44f4a3	0.048084866

actor.0.weight f4 [256, 259]
0	0x3d5dbfc6	0.054137968
1	0x3dc6df9d	0.097106196
2	0x3d17b4b8	0.03703758
3	0x3de6f0a4	0.11276367
4	0xbd8dec77	-0.06929868
5	0xbcceed33	-0.02525959
6	0x3dae9dfe	0.08526228
7	0xbda79900	-0.08183479
8	0xbe03c0b1	-0.12866475
9	0x3c7ed30f	0.01555325
10	0xbe4eca73	-0.20194416
11	0xbda33b15	-0.079702534
12	0xbc564351	-0.013077573
13	0x3d2a1947	0.041528013
14	0xbdc289ca	-0.094989374
15	0xbd8d3d2b	-0.068964325
16	0x3da43e49	0.080196925
17	0x3d61e3f0	0.05514902
18	0x3db02166	0.0860012
19	0xbcf848e9	-0.030308204
20	0xbd14ea28	-0.03635612
21	0x3e40ba81	0.18821146
22	0x3d8eca6e	0.06972204
23	0x3c527db6	0.012847355
24	0xbd5f4c10	-0.0545159
25	0xbc8824d6	-0.016619127
26	0xbdeae0bb	-0.11468645
27	0x3c8e6b64	0.017385192
28	0xbd3af5c8	-0.04564455
29	0xbc28357f	-0.010266661
30	0x3d4d3b4e	0.050105385
31	0xbdad0f55	-0.0845019
32	0x3d5b0531	0.053471748
33	0xbd8b79a3	-0.0681031
34	0xbe634e64	-0.22197872
35	0x3d144c31	0.036205474
36	0x3d4a46ea	0.049384035
37	0xbd924991	-0.07142938
38	0xbb3e2fcb	-0.0029020186
39	0xbdc91ffd	-0.098205544
40	0x3e2b722a	0.16742769
41	0xbd173ab3	-0.036921214
42	0x3db01b7d	0.08598993
43	0xbbcf528b	-0.0063269786
44	0xbcc20d80	-0.023688078
45	0x3b8cfc34	0.004302526
46	0x3d411d3c	0.04714702
47	0x3de4ba21	0.11168314
48	0x3dd63d89	0.10460956
49	0xbdbef0e3	-0.09323289
50	0xbe2ae1b4	-0.16687661
51	0x3ce91281	0.028451206
52	0x3d29a7f9	0.041419957
53	0x3d983d81	0.07433606
54	0xbd92cecc	-0.071683496
55	0x3c59d470	0.013295278
56	0xbdf1ea08	-0.11812216
57	0xbe2a7ae7	-0.16648446
58	0x3db4e68c	0.08833036
59	0xbda4f786	-0.08055024
60	0x3db4565e	0.08805536
61	0x3d0568fc	0.032570824
62	0xbc93d491	-0.018045695
63	0xbe12c880	-0.14334297
64	0x3cec9192	0.028878007
65	0xbd70e9b3	-0.058816623
66	0x3d919716	0.071088955
67	0xbbd9336a	-0.0066284435
68	0xbd21c4aa	-0.039494194
69	0x3c627904	0.013822798
70	0x3d5f4443	0.05450846
71	0xbd89e48f	-0.06733047
72	0xbd2103a2	-0.039310105
73	0x3df61bea	0.12017043
74	0x3b923990	0.0044624284
75	0x3d92e1ec	0.071719974
76	0xbd4eb812	-0.050468512
77	0x3dfd496c	0.1236752
78	0x3c9f560d	0.019450212
79	0x3c9dedb5	0.019278387
80	0xbdf4c2eb	-0.1195124
81	0xbd93d5aa	-0.072184876
82	0x3d1c4774	0.03815408
83	0xbd85ab67	-0.06526833
84	0x3b105dc4	0.0022028545
85	0x3c83d6a4	0.01609356
86	0x3dfb9f7a	0.12286277
87	0x3d1f53ff	0.038898464
88	0x3d0669fe	0.032815926
89	0xbcf21b19	-0.029553937
90	0x3e238095	0.15967019
91	0x3d80ff1e	0.0629866
92	0x3c525205	0.012836938
93	0x3b15df50	0.00228687
94	0x3d86884a	0.06568964
95	0x3da5a581	0.08088208
96	0x3d956a1d	0.0729563
97	0x3e1413fe	0.14460751
98	0xbd29fffd	-0.041503895
99	0xbcbafc18	-0.022825286
100	0xbd275f4a	-0.04086236
101	0xbdad3559	-0.08457441
102	0x3e27cf50	0.16387677
103	0xbd56e161	-0.05246103
104	0xbc94c7a6	-0.018161606
105	0x3d10dd3c	0.035367236
106	0xbc44dd0c	-0.012015592
107	0x3d2f50ca	0.042801656
108	0xbc9a43d8	-0.018831179
109	0xbe1dd834	-0.15414506
110	0xbcf4fd03	-0.029905802
111	0xbca31cc3	-0.019911176
112	0xbdb3c2ea	-0.08777411
113	0x3d26d024	0.040725842
114	0xbc00e049	-0.007865974
115	0xbe17eaa7	-0.14835607
116	0xbcb0237b	-0.021501293
117	0xba370417	-0.00069815054
118	0x3c9bdca6	0.019026112
119	0x3e5aa2b6	0.21351132
120	0xbb2abb56	-0.0026051602
121	0xbe008d10	-0.12553811
122	0x3ddb4e78	0.10708326
123	0x3d5251e8	0.051347643
124	0x3e238abb	0.1597089
125	0x3c1a111f	0.009403496
126	0xbcd59264	-0.026070781
127	0xbcc38ccd	-0.02387085
128	0xbe01da73	-0.12680988
129	0x3dd053cd	0.10172234
130	0x3d0813f2	0.033222146
131	0x3d9e48af	0.07728707
132	0x3dfcbb9c	0.12340471
133	0xbdaf6360	-0.08563876
134	0x3bad0bab	0.005280932
135	0x3c904903	0.01761294
136	0xbd128dde	-0.035779826
137	0xbce51459	-0.027963804
138	0xbe1e4cc3	-0.1545897
139	0x3d194f50	0.037429154
140	0x3dc2fbf0	0.095207095
141	0x3d88ac85	0.066735305
142	0x3d12fa04	0.035882965
143	0x3e41f193	0.1893981
144	0x3dcaf8de	0.09910749
145	0x3d2d7799	0.042350385
146	0xbba50520	-0.0050360113
147	0xbe9308b6	-0.28717583
148	0x3de27762	0.11057927
149	0xbdedb7ba	-0.11607309
150	0xbb938e14	-0.004503021
151	0xbe432795	-0.19058068
152	0x3d092769	0.03348485
153	0xbd93ec00	-0.07222748
154	0x3d1204a5	0.03564896
155	0xbd8e3054	-0.069428116
156	0x3d6a2102	0.057160385
157	0x3dbd105a	0.092316344
158	0x3e2886cd	0.16457672
159	0x3d8e1b16	0.0693876
160	0xbdab18d6	-0.083543465
161	0x3e3b7fa5	0.18310411
162	0xbc083b10	-0.008314863
163	0x3e65e926	0.2245222
164	0xbe56ab51	-0.2096379
165	0xbd313f03	-0.043272983
166	0x3e49b7f9	0.19699086
167	0x3cf235ce	0.029566672
168	0xbdf01032	-0.11721839
169	0x3deeed65	0.11666373
170	0xbd5b3891	-0.053520743
171	0xbd3e0207	-0.046388652
172	0xbce3e9a6	-0.027821373
173	0x3e0cdf1c	0.13756984
174	0x3e4fda42	0.20298102
175	0xbb73791a	-0.003715104
176	0xbd491ae8	-0.049097925
177	0xbd1af390	-0.037829936
178	0xbd8413ec	-0.06449112
179	0xbc85922e	-0.016305055
180	0x3da37ca8	0.07982761
181	0xbd8e3ef1	-0.06945599
182	0x3bccaa51	0.0062458892
183	0x3c56c65d	0.013108817
184	0x3dfd8f2d	0.12380824
185	0xba319de0	-0.00067755394
186	0xbc03fd07	-0.008055932
187	0xbd611c2e	-0.054958515
188	0xbc97289a	-0.018451978
189	0xbb800a71	-0.0039074947
190	0xbd560bdc	-0.052257404
191	0xbdcc1049	-0.09964044
192	0xbd33624e	-0.043794923
193	0x3d77717b	0.060410958
194	0xbe07b756	-0.13253531
195	0xbd754f13	-0.059889864
196	0x3e2795c5	0.16365726
197	0xbd312d54	-0.04325612
198	0x3d59c6d8	0.053168148
199	0x3b95fdb4	0.004577363
200	0x3d4a28a0	0.04935515
201	0x3d4a1d85	0.04934456
202	0xbd8a3036	-0.06747477
203	0x3c92d316	0.01792292
204	0xbd897a9e	-0.067128405
205	0x3d0c58f9	0.03426454
206	0xbd096e1c	-0.033552274
207	0x3c4a979d	0.012365249
208	0xbd3c1a0f	-0.04592329
209	0x3c7ea2da	0.0155417565
210	0xbe082c74	-0.13298208
211	0x3d2afc4c	0.041744515
212	0x3d842b28	0.06453544
213	0xbe0c40ef	-0.13696645
214	0xbd585c8c	-0.052822635
215	0x3de24bd9	0.11049623
216	0xbca880e1	-0.020569267
217	0xbdb33b2a	-0.08751519
218	0x3d6eab53	0.058268856
219	0xb83c94f3	-4.4961413e-05
220	0x3e467291	0.19379641
221	0x3d4f5d29	0.050625954
222	0xbc6b5b53	-0.014365035
223	0x3dcddbdd	0.10051701
224	0xbd3a093d	-0.045418967
225	0xbe4e1f2e	-0.20129082
226	0xbe05f3bd	-0.1308126
227	0x3ca34657	0.019931002
228	0xbe19e9e1	-0.15030624
229	0x3c702c0d	0.01465894
230	0x3cb54a2e	0.022130098
231	0x3d0fd863	0.03511847
232	0x3d4f8f3d	0.050673712
233	0xbd6797af	-0.05654114
234	0x3de4183e	0.11137436
235	0xbda652ab	-0.081212364
236	0xbcb43f2e	-0.022002783
237	0xbd358d5e	-0.04432427
238	0xbcaed4c8	-0.021341696
239	0x3c01c150	0.007919624
240	0x3d9aa5e3	0.07551172
241	0x3d331d9c	0.04372941
242	0xbd65877e	-0.05603742
243	0xbd674263	-0.056459796
244	0xbdcba8f4	-0.099443346
245	0x3de60508	0.112314284
246	0xbc7c0901	-0.015383006
247	0xbd697586	-0.056996845
248	0x3cdd19c8	0.026989833
249	0xbdc5bdfa	-0.09655376
250	0xbe2cb57d	-0.16866107
251	0xbe073ba8	-0.13206351
252	0xbc04b93c	-0.008100804
253	0xbd9f71b1	-0.07785357
254	0x3de511ab	0.111850105
255	0x3e5167fe	0.20449826

actor.0.bias f4 [256]
0	0xbd5cc36a	-0.0538973
1	0xbd1114d0	-0.03542024
2	0x3a8c0943	0.0010683913
3	0xbc20672f	-0.009790226
4	0xbcb53952	-0.022122059
5	0x3d75faac	0.060053512
6	0x3cfefd4b	0.031126639
7	0xbc175e8b	-0.009238849
8	0xbc8dcda5	-0.017309973
9	0xbc3caa2d	-0.011515182
10	0x3d6f8e0b	0.058485072
11	0xbd6ac9dd	-0.057321418
12	0x3d6644bf	0.056217905
13	0x3d163ce0	0.03667915
14	0xbd524af3	-0.05134101
15	0xbd673e31	-0.056455795
16	0xbd497b9a	-0.04919014
17	0xbd1c8810	-0.038215697
18	0x3c633911	0.013868586
19	0x3ccb52ff	0.024819849
20	0xbd14fe13	-0.036375117
21	0xbd6c0cae	-0.05762928
22	0x3d569f31	0.05239791
23	0xbcdb7b9e	-0.026792344
24	0x3bea3f53	0.007148662
25	0xbc5a5fe8	-0.01332853
26	0x3d13fe0b	0.036130946
27	0x3b8a28f5	0.0042163082
28	0xbd43a7e8	-0.04776755
29	0x3cd1fa3a	0.025632013
30	0x3c42d803	0.0118923215
31	0xbd7451a6	-0.05964818
32	0xbd3dc117	-0.046326723
33	0xbb90965a	-0.0044124546
34	0xbc482752	-0.012216406
35	0xbd3b036e	-0.045657568
36	0x3d0dad09	0.034588847
37	0xbd324d45	-0.04353072
38	0xbd562abf	-0.05228686
39	0x3c2d997e	0.010595677
40	0x3d0ab570	0.03386444
41	0xbca4b529	-0.020105915
42	0xbd70b4e4	-0.05876626
43	0xbbdd81b4	-0.0067598466
44	0x3d1339c3	0.035943758
45	0xbd036c0b	-0.03208546
46	0x3cb8d1f9	0.02256106
47	0x3b52141f	0.003205545
48	0x3cd50079	0.026001202
49	0x3d632a94	0.055460528
50	0xbc293cb2	-0.010329412
51	0xbcec3e0b	-0.028838178
52	0x3d20d2f5	0.039263684
53	0x3c323383	0.010876539
54	0xba8648b6	-0.0010245058
55	0x3c3ef465	0.011654948
56	0x3d0bd7a1	0.034141187
57	0x3d17a292	0.037020274
58	0x3d3b00e7	0.045655157
59	0xbc00dae0	-0.007864684
60	0x3d6f9f4d	0.05850153
61	0x3d265b40	0.040614367
62	0xbd664fb0	-0.05622834
63	0xbb018269	-0.0019761568
64	0xbd4c4ecc	-0.049879834
65	0x3ba87f4a	0.005142127
66	0x3d758a8c	0.05994658
67	0xbd635ebc	-0.055510268
68	0x3d3b99ab	0.045800846
69	0x3d6f1458	0.05836901
70	0xbd2e50a9	-0.042557392
71	0xbd07c527	-0.033147004
72	0xbcbba78f	-0.022907047
73	0xbd74f4aa	-0.059803642
74	0x3bd83edc	0.0065992903
75	0x3d1f46b3	0.038885783
76	0x3d438f0c	0.047743842
77	0x3d0930b6	0.03349372
78	0x3be51d0d	0.0069919885
79	0x3c9f78a6	0.01946671
80	0xbc2e32f9	-0.01063227
81	0x3ced830e	0.028993156
82	0x3c1cae9a	0.009563113
83	0xbc083d55	-0.008315404
84	0x3c3ce66f	0.011529549
85	0xbd182ba9	-0.037151013
86	0x3d544c67	0.051830675
87	0xbd21404a	-0.03936795
88	0x3cec296f	0.02882835
89	0xbd42af2f	-0.04753035
90	0x3d05b91a	0.03264723
91	0xbb5e2ff0	-0.0033903085
92	0x3cb210a7	0.021736456
93	0xbcefcd00	-0.029272556
94	0x3cbbb1bb	0.022911897
95	0xbc8012ea	-0.015634019
96	0x3d51e191	0.051240508
97	0xbcd185d2	-0.025576506
98	0x3cc07598	0.023493573
99	0xbd190505	-0.037358303
100	0x3d133457	0.035938587
101	0xbd7a231e	-0.061068647
102	0x3cfd4ecc	0.030921362
103	0x3d6f07b0	0.05835694
104	0xbd3e1f7f	-0.046416756
105	0xbc26fa14	-0.010191459
106	0x3b507d90	0.0031813122
107	0x3c0a16c8	0.008428283
108	0xbd58d9c3	-0.05294205
109	0x3c2ed6a5	0.010671292
110	0x3cfa10fd	0.030525679
111	0xbcd6dd8f	-0.026228694
112	0x3d0a5dce	0.033780865
113	0x3ce9f7cf	0.028560547
114	0xbd7aed24	-0.06126131
115	0x3d5d693d	0.05405544
116	0xbce05a1e	-0.027386721
117	0xbd3b0033	-0.045654487
118	0x3d637c79	0.05553863
119	0xbd75d395	-0.060016233
120	0x3cda3f2a	0.026641447
121	0x3d3ac9a7	0.045602467
122	0xbd42c648	-0.047552377
123	0xbcf31a1e	-0.02967554
124	0xbc97e7f9	-0.01854323
125	0x3b41b779	0.002955882
126	0x3bb7c269	0.0056078923
127	0xbcc61552	-0.024180088
128	0xbcb45d23	-0.022017067
129	0xbc768440	-0.015046179
130	0x3d5cd4a9	0.053913746
131	0x3b05a7d7	0.002039423
132	0xbc7efa1c	-0.01556256
133	0xbd484a94	-0.04889925
134	0xbd805032	-0.06265296
135	0xbcd487e6	-0.025943708
136	0x3d593c67	0.05303612
137	0x3d5f7dfa	0.0545635
138	0x3d522994	0.051309183
139	0xbcedd153	-0.029030478
140	0xbd5ebfae	-0.05438202
141	0x3c20f66f	0.009824379
142	0xba0b79d2	-0.0005320582
143	0xbcf6f5e0	-0.03014654
144	0x3c9e74d3	0.019342816
145	0x3d3dcbf1	0.04633707
146	0x3d3f1626	0.04665198
147	0xbd10fc54	-0.03539689
148	0x3cdf4837	0.027256114
149	0xbb8fd54c	-0.0043894406
150	0xbd52ad94	-0.05143507
151	0xbd7d9088	-0.061905414
152	0x39fa3c2d	0.0004772855
153	0xbcc8a807	-0.024494184
154	0xbc65ce25	-0.0140261995
155	0x3d61df20	0.05514443
156	0xbd2b12c9	-0.04176596
157	0xbc241fa6	-0.010017311
158	0x3bdc8c65	0.0067306035
159	0x3d113c82	0.035458095
160	0xbc861a90	-0.016370088
161	0xbd72b6ed	-0.059256483
162	0xbd3ccf5e	-0.0460962
163	0xbd21b573	-0.039479684
164	0xbc49c5d9	-0.012315237
165	0x3cc2ea1f	0.023793278
166	0x3cfd0545	0.030886302
167	0x3cf82b8f	0.030294208
168	0x3bceba9e	0.0063088676
169	0x3cf2d85a	0.02964418
170	0xbc918ea8	-0.01776822
171	0xbca912c6	-0.020638835
172	0x3c7807b8	0.015138559
173	0xbd1389d0	-0.0360201
174	0x3d078447	0.033085134
175	0x3cd64d6a	0.02615996
176	0xbcdafcba	-0.026731838
177	0xbb1bbc6e	-0.0023763436
178	0x3ceb4a32	0.028721903
179	0x3b34a653	0.0027564957
180	0x3d5ec3a1	0.054385785
181	0x3c9720f8	0.018448338
182	0x3d2b38a1	0.041802052
183	0xbd575890	-0.052574694
184	0xbd1b6667	-0.037939455
185	0xbb4aa52a	-0.00309212
186	0xbd3c8171	-0.046021882
187	0x3d5f0571	0.05444855
188	0x3d5784a4	0.05261673
189	0xbd042431	-0.032261077
190	0xbba17a9b	-0.004927946
191	0x3d2c1148	0.04200867
192	0x3d1e45b8	0.038640708
193	0xbcff9c12	-0.03120235
194	0xbd26bc21	-0.040706757
195	0x3d133ee3	0.035948645
196	0x3cb6f27a	0.022332419
197	0x3d22563d	0.039633024
198	0x3cea4342	0.028596524
199	0xbd36ae4f	-0.044599827
200	0x3bdf1d20	0.006808892
201	0x3c2897a4	0.01029006
202	0xbd6c26c1	-0.057654146
203	0xbd4180b2	-0.047241874
204	0xbc828f03	-0.015937334
205	0xbd801630	-0.06254232
206	0xbd21c817	-0.03949746
207	0xbc45609b	-0.012046958
208	0x3c3bc0ae	0.011459513
209	0xbb118881	-0.0022206607
210	0x3d64a24a	0.055818833
211	0xbc91a88b	-0.017780563
212	0x3d2d5bd8	0.042323917
213	0xbd682c65	-0.056682963
214	0xbd5df99b	-0.05419312
215	0x3d729f5e	0.059234016
216	0xbc3f8612	-0.01168968
217	0xba9b9fa0	-0.0011873133
218	0xbadd8f90	-0.0016903747
219	0xbb2320b8	-0.0024891328
220	0xbd553a25	-0.052057404
221	0xbbaafcf5	-0.005218143
222	0xbd14a184	-0.036286846
223	0xbd7ce1ce	-0.06173878
224	0xbcea951c	-0.028635554
225	0x3d51d936	0.05123254
226	0x3d320ceb	0.04346935
227	0x3c8f178b	0.01746728
228	0xbcf47e7b	-0.029845467
229	0xbd190e24	-0.037367
230	0xbd2661be	-0.040620558
231	0xbd289d8c	-0.041165873
232	0x3d471c3d	0.048610914
233	0xbd292d41	-0.041302923
234	0x3d6b137f	0.05739164
235	0x3a9710c5	0.0011525383
236	0xbcf020e0	-0.029312551
237	0xbd251451	-0.04030258
238	0xbcc023a3	-0.023454493
239	0x3cae5d07	0.021284593
240	0xbc9b877f	-0.018985508
241	0x3d30bb4e	0.043147378
242	0xbc0d5fd9	-0.008628809
243	0xbcfa0d0d	-0.030523801
244	0x3cf522e5	0.029923866
245	0xbd5ce77a	-0.05393169
246	0x3d5251a4	0.05134739
247	0xbd63ca90	-0.0556131
248	0xbd6610f3	-0.056168508
249	0xbd4a5d8f	-0.04940563
250	0xbd25687e	-0.040382855
251	0x3d599fdc	0.05313097
252	0xbcf39afc	-0.029736988
253	0x3d3ae3b7	0.045627322
254	0x3c5b4f25	0.013385569
255	0xbcd096b9	-0.025462495

actor.2.weight f4 [128, 256]
0	0xbbe81a8b	-0.0070832423
1	0xbc4d636d	-0.012535912
2	0x3e0e00df	0.1386752
3	0x3d74a991	0.059732024
4	0x3bcdaaa3	0.006276445
5	0xbd89d14e	-0.06729375
6	0xbd90061f	-0.070324175
7	0x3cb091d8	0.021553919
8	0x3d8afef0	0.06786907
9	0xbea9d739	-0.33172014
10	0xbdbeafaa	-0.09310849
11	0x3e723ffb	0.23657219
12	0xbbe77ad7	-0.007064204
13	0x3cb52257	0.022111101
14	0x3e2445b6	0.16042218
15	0xbe4352e1	-0.19074585
16	0xbd892197	-0.0669586
17	0x3d2b5e43	0.04183794
18	0xbd039683	-0.03212596
19	0x3b86efbb	0.0041179336
20	0xbe1ff7c1	-0.15621854
21	0xbc998bd6	-0.018743437
22	0x3e29e49f	0.16591118
23	0xbe3d419e	-0.18482062
24	0x3d8acac0	0.06776953
25	0x3cc39c40	0.023878217
26	0x3dbb4bcd	0.09145317
27	0xbd6c67c2	-0.05771614
28	0x3d2bad20	0.04191315
29	0x39ab8b0c	0.0003271926
30	0xbced1950	-0.028942734
31	0x3c43f8a2	0.011961134
32	0xbe2b0c61	-0.16703941
33	0xbd155629	-0.03645912
34	0x3d1b91ea	0.03798095
35	0xbb4a09d5	-0.0030828614
36	0x3d5dedd6	0.054181896
37	0x3d962539	0.073313184
38	0xbdec4c97	-0.11538046
39	0x3d04f0ca	0.032456197
40	0x3bcedcdb	0.006312949
41	0x3d25e2ee	0.04049962
42	0xbd918b23	-0.07106616
43	0xbc985da6	-0.018599343
44	0xbd899e4a	-0.06719644
45	0x3d87e524	0.06635502
46	0x3b16f23c	0.0023032567
47	0x3ce826d4	0.028338827
48	0x3cdc40f1	0.026886435
49	0x3dfcec4a	0.12349756
50	0xbb266485	-0.0025389504
51	0xbd288537	-0.04114267
52	0x3d9b6129	0.07586891
53	0x3d898b14	0.0671598
54	0xbd025108	-0.03181556
55	0x3dd31924	0.103075296
56	0x3c8d8019	0.017272996
57	0xbdcd7411	-0.100319035
58	0x3e0ab901	0.13547136
59	0x3e2235ab	0.15840785
60	0xbdaf8e2e	-0.085720405
61	0xbe1a17bc	-0.15048116
62	0xbd3afb38	-0.045649737
63	0xbc1d8e3a	-0.009616429
64	0xbd29f03a	-0.041488864
65	0xbcb153b4	-0.021646358
66	0x3dcf500d	0.1012269
67	0x3e52997e	0.20566365
68	0x3e51f4e7	0.20503579
69	0xbbe88ac8	-0.007096622
70	0x3d2d2b6a	0.04227773
71	0x3daa9347	0.08328872
72	0xbc3b1bc1	-0.011420191
73	0x3cfdf3f7	0.03100012
74	0x3d2d2225	0.04226889
75	0x3c5e5c23	0.013571772
76	0xbc58976e	-0.013219697
77	0xbd2e2383	-0.042514335
78	0xbe8c5c46	-0.2741415
79	0x3d9d0179	0.076662965
80	0x3b8932e0	0.004186973
81	0xbe00197c	-0.12509722
82	0x3d67c8bb	0.056587916
83	0x3da6e772	0.081496134
84	0x3cf35b4f	0.029706625
85	0xbde32392	-0.11090769
86	0xbe20972b	-0.15682666
87	0xbd5bb0fa	-0.053635575
88	0xbc352127	-0.011055267
89	0xbd82f7d6	-0.06394927
90	0x3e2c9901	0.16855241
91	0xbde2d5fe	-0.11075972
92	0x3dab2ce9	0.08358175
93	0xbd72ceac	-0.05927913
94	0xbdb810a8	-0.08987552
95	0x3c90cabd	0.017674798
96	0x3d14ed84	0.036359325
97	0x3c0c57c2	0.008565845
98	0xbdbbaf37	-0.09164279
99	0x3e02f2c8	0.12787926
100	0x3d0a00ee	0.033692293
101	0xba3756df	-0.0006993841
102	0x3da4f303	0.08054163
103	0x3da231c3	0.079196475
104	0x3d9d210e	0.0767232
105	0xbdceb51b	-0.10093137
106	0xbe8f3bfc	-0.27975452
107	0xbce01407	-0.0273533
108	0x3de87ce6	0.113519475
109	0xbd893fda	-0.06701632
110	0x3d873df6	0.06603615
111	0x3e46b12b	0.19403522
112	0x3db93bc3	0.09044602
113	0xbca57fdc	-0.02020257
114	0x3d5d2669	0.05399171
115	0x3d4aa9e9	0.049478445
116	0xbd558667	-0.05213013
117	0x3dcd9acf	0.10039293
118	0xbde7af88	-0.11312777
119	0x3cb9019f	0.02258378
120	0xbd03cfe6	-0.03218069
121	0x3ace1643	0.0015723187
122	0xbde4856f	-0.11158263
123	0xbe046402	-0.12928775
124	0xbd88d272	-0.06680764
125	0xbdacbc33	-0.08434334
126	0x3d43baa1	0.047785405
127	0x3d4ad9aa	0.049523987
128	0x3e2bb405	0.16767891
129	0xbc724348	-0.014786549
130	0x3dd1b174	0.102389246
131	0x3d32678a	0.043555774
132	0xbcfecfe7	-0.031104995
133	0xbce2df40	-0.027694345
134	0x3d8a304c	0.06747493
135	0xbdf4d71a	-0.1195509
136	0xbc5646a5	-0.013078366
137	0x3e3c59dc	0.18393654
138	0xbd82f70d	-0.063947774
139	0x3d8034a1	0.06260038
140	0xbd615f9b	-0.055022817
141	0xbd13d4ab	-0.036091488
142	0xbd786237	-0.06064054
143	0xbc6a9fd9	-0.014320337
144	0xbdf4defd	-0.11956594
145	0x3dc37d3c	0.09545371
146	0xbb3d2960	-0.0028863773
147	0x3dbb2e27	0.09139662
148	0x3d14236b	0.03616659
149	0xbd5a6685	-0.053320426
150	0x3ac2166c	0.0014807708
151	0x3c7dff74	0.015502799
152	0xbb7bd9e1	-0.0038429426
153	0xbd5c50fe	-0.053788178
154	0xbd908250	-0.07056105
155	0xbaa9bc95	-0.0012949879
156	0xbd904e94	-0.070462376
157	0xbba6a60d	-0.0050857128
158	0x3cd986b0	0.026553482
159	0x3da268f0	0.079301715
160	0xbdc7c224	-0.09753826
161	0x3d2414c0	0.04005885
162	0x3cf82741	0.030292155
163	0xbd06f2e4	-0.032946482
164	0x3c71e518	0.014764093
165	0xbe0a3d22	-0.13499883
166	0x3bf8add8	0.007589083
167	0x3d6c1ee8	0.057646662
168	0xbd8b3509	-0.06797225
169	0x3db7b3ac	0.089698166
170	0x3c616e8d	0.0137592675
171	0x3bc8470b	0.0061119846
172	0xbd51d9af	-0.05123299
173	0x3d794d70	0.060864866
174	0x3d1c0679	0.03809211
175	0xbdb0f127	-0.08639746
176	0xbd2f237e	-0.042758457
177	0x3b8f8161	0.004379437
178	0x3e19cf9d	0.15020604
179	0xbc5818ce	-0.013189508
180	0xbd73837e	-0.059451573
181	0x3d5f1a4b	0.054468434
182	0x3dd5e5e6	0.1044424
183	0x3def2905	0.11677746
184	0xbd808a3f	-0.06276368
185	0xbd390289	-0.045168433
186	0x3e01782f	0.12643503
187	0xbd5941d9	-0.053041313
188	0x3d0fe814	0.035133436
189	0xbc1ab070	-0.00944148
190	0x3bc4e0ec	0.006008258
191	0xbcbef502	-0.023310188
192	0xbd5342aa	-0.051577248
193	0xbd9170d9	-0.07101602
194	0xbe38b65e	-0.18038318
195	0xbd996b0d	-0.074911214
196	0xbcdbb03e	-0.026817437
197	0xbe181388	-0.148512
198	0xbd656324	-0.05600275
199	0x3db2b227	0.08725386
200	0xbe0454ef	-0.12923025
201	0x3b862fd1	0.0040950556
202	0xbe3e9100	-0.1861
203	0xbde8af7a	-0.113615945
204	0x3c9332b1	0.017968507
205	0x3c88282e	0.016620722
206	0x3d597249	0.053087506
207	0xbd778017	-0.06042489
208	0xbcf9c7ab	-0.030490717
209	0x3c3544f5	0.011063804
210	0xbdd26299	-0.10272712
211	0x3c767304	0.01504207
212	0xbe217cfa	-0.15770331
213	0xbe2c7e69	-0.16845097
214	0xbcde2a21	-0.027119698
215	0x3cc56eac	0.024100624
216	0x3e434afc	0.19071573
217	0x3e026499	0.12733687
218	0x3c530583	0.012879732
219	0xbe0172a5	-0.1264139
220	0xbd66861d	-0.056280244
221	0xbd00f17f	-0.03148031
222	0x3d85324d	0.06503735
223	0x3cef80b3	0.029236173
224	0x3dcaa80f	0.09895336
225	0xbc91d960	-0.017803848
226	0xbdeb8e16	-0.1150171
227	0xbd97f290	-0.07419312
228	0x3d0f536c	0.034991667
229	0x3e38fc23	0.18064933
230	0xbd4ea6ca	-0.05045203
231	0x3bade904	0.0053073186
232	0x3d12f3b6	0.035876952
233	0x3d8b8530	0.06812513
234	0x3c28e6b4	0.01030891
235	0xbe2ceb50	-0.1688664
236	0x3d00e07a	0.031464078
237	0xbde8698f	-0.11348259
238	0xbda4e06b	-0.08050617
239	0x3e15e5a4	0.14638382
240	0xbd2a59c3	-0.04158951
241	0xbdf98a05	-0.12184528
242	0xbdc9794d	-0.098375894
243	0x3d46bd96	0.048520647
244	0x3d64fc0a	0.055904426
245	0x3d1b4a68	0.037912756
246	0x3dbc2bc4	0.09188035
247	0xbd0f80b6	-0.035034858
248	0xbd682890	-0.05667931
249	0xbddb93bf	-0.1072154
250	0xbd029959	-0.031884525
251	0x3d48aabf	0.04899096
252	0x3c18343a	0.0092897955
253	0xbcb2fc18	-0.021848723
254	0x3d11957a	0.035542943
255	0xbd9282a3	-0.07153823

actor.2.bias f4 [128]
0	0xbd133f2b	-0.035948914
1	0x396a07f6	0.00022318945
2	0xbc29e165	-0.01036868
3	0x3d0caef6	0.034346543
4	0xbc32a4b3	-0.010903525
5	0x3bcf7b07	0.0063318047
6	0x3d33e400	0.04391861
7	0xbd41658b	-0.04721598
8	0xba424e5f	-0.0007412191
9	0xbcf5d477	-0.030008538
10	0x3d729eba	0.059233405
11	0xbd3ae63c	-0.045629725
12	0xbab008b5	-0.0013430329
13	0xbd437675	-0.04772039
14	0xbd68f019	-0.0568696
15	0xbd5a2cb9	-0.053265307
16	0xbcd99269	-0.026559072
17	0xbd478f4a	-0.048720635
18	0xbd1fb960	-0.038995147
19	0xbd75e842	-0.06003595
20	0x3d583a80	0.052790165
21	0xbab8cc72	-0.0014099015
22	0x3a9a1fc4	0.0011758734
23	0x3a46999c	0.000757599
24	0xbc20f610	-0.009824291
25	0xbd0044c1	-0.03131557
26	0x3d664bdb	0.056224685
27	0x3d223e72	0.039610334
28	0x3b7a8010	0.0038223304
29	0x3d5ad472	0.05342526
30	0xbd39567e	-0.0452485
31	0x3bb0d39a	0.0053963186
32	0x3d2ebc74	0.04266019
33	0xbcdf5ab0	-0.027264923
34	0xbc176196	-0.009239575
35	0xbd4fd21d	-0.05073749
36	0xbcef2272	-0.02919123
37	0x3ce157f5	0.027507761
38	0xbbcced86	-0.006253901
39	0xbc6be435	-0.0143976705
40	0xbced2e93	-0.028952872
41	0x3d54f51c	0.051991567
42	0x3bea8fe6	0.0071582673
43	0xbd14b135	-0.03630181
44	0x3d358480	0.044315815
45	0x3d10ccc2	0.035351522
46	0x3d37776b	0.04479162
47	0xbc896cdb	-0.01677554
48	0xbd52f1a6	-0.051499985
49	0x3ca4c88e	0.020115163
50	0x3d056c63	0.03257407
51	0x3c5690fe	0.013096092
52	0xbd497799	-0.049186323
53	0xbce05ff0	-0.027389497
54	0xbd6b33e7	-0.057422545
55	0x3d115caa	0.035488762
56	0x3d4c5a07	0.049890544
57	0xbd5ab768	-0.053397566
58	0xbc1b231d	-0.009468821
59	0x3c84f97b	0.016232243
60	0x3d2307d6	0.039802395
61	0xbd2bb264	-0.041918173
62	0x3c3b5e24	0.011436019
63	0xbd37a4b7	-0.04483482
64	0xbc729736	-0.014806559
65	0xbb9befb3	-0.004758799
66	0xbc8956b4	-0.016764976
67	0x3c1525e7	0.009103275
68	0xbd13e0fe	-0.03610324
69	0x3d80bf3e	0.062864766
70	0xbcc1ad23	-0.023642128
71	0xbd2a0435	-0.04150792
72	0xbd145c41	-0.036220793
73	0x3d28d512	0.041218825
74	0xbcb46cbd	-0.022024507
75	0x3c5fbb6e	0.013655527
76	0x3d464af3	0.04841132
77	0xbcda0d31	-0.026617618
78	0x3d368fce	0.044570737
79	0xbd0a0cfa	-0.03370378
80	0x3d1fe86c	0.039040014
81	0xbbb710c0	-0.0055867136
82	0xbcb9ed76	-0.022696238
83	0xbb4ea035	-0.0031528596
84	0x3d63d55b	0.055623394
85	0x3d2ff631	0.042959396
86	0x3c5c5c63	0.013449761
87	0xbd2f2f8c	-0.042769954
88	0xbbfe2d14	-0.0077568386
89	0xbb44245b	-0.0029928896
90	0x3d52310d	0.05131631
91	0x3d051d6d	0.032498766
92	0xbd042618	-0.03226289
93	0xbd0769ee	-0.033060007
94	0xbce58a48	-0.02802004
95	0x3d3065b2	0.043065734
96	0x3c09dcc3	0.00841445
97	0x3c4e4a92	0.012591021
98	0x3cd5cb74	0.02609799
99	0xbc0c886b	-0.008577446
100	0xbcfb5198	-0.030678555
101	0x3d2276fb	0.03966425
102	0xbcff351a	-0.03115325
103	0x3d69ac17	0.057048883
104	0xbd6e6127	-0.05819812
105	0x3ba4013f	0.0050050314
106	0x3c75cb69	0.01500211
107	0x3cbf1c63	0.023328966
108	0x3c4260e6	0.011863923
109	0xbd1dd2fd	-0.038531292
110	0x3d643f28	0.055724293
111	0xbbb7cb11	-0.005608924
112	0xbd2dccae	-0.042431526
113	0xbcb225ba	-0.021746505
114	0x3d08656c	0.03329985
115	0x3d6a195c	0.05715309
116	0xbc1e2cbc	-0.00965422
117	0x3d33b289	0.043871436
118	0x3cada812	0.021198306
119	0xbc5f9989	-0.0136474455
120	0x3d276c29	0.040874634
121	0xbd18e94e	-0.03733187
122	0xbd09a717	-0.033606615
123	0x3d3fdc05	0.046840686
124	0xbc484563	-0.012223574
125	0xbd008d46	-0.03138473
126	0x3d00672f	0.031348404
127	0xbbc9c48e	-0.0061574643

actor.4.weight f4 [64, 128]
0	0x3da40f3a	0.08010717
1	0x3def6b5e	0.116904005
2	0xbe1d61da	-0.15369359
3	0x3bf3e9af	0.0074436287
4	0xbba4ff79	-0.0050353375
5	0x3dc3a1f2	0.09552373
6	0xbd2d96ff	-0.04238033
7	0xbe5822ba	-0.21106997
8	0x3d6456a5	0.055746693
9	0x3e4cc67e	0.19997594
10	0x3ac9c57e	0.001539394
11	0xbdbab2b5	-0.09116117
12	0x3d74847f	0.05969667
13	0xbd23135a	-0.039813377
14	0x3e405371	0.1878183
15	0x3da17959	0.07884473
16	0x3d7a82ce	0.0611599
17	0xbe0702b4	-0.13184625
18	0xbc9ad662	-0.018901054
19	0x3e2fa477	0.17152582
20	0x3cb4fe6a	0.02209397
21	0xbe22c9f0	-0.15897346
22	0xbd6874e4	-0.0567521
23	0x3dd54c4b	0.10414942
24	0x3dbfe131	0.09369124
25	0x3e6ddd26	0.23228893
26	0x3e277f31	0.16357113
27	0x3d106803	0.035255443
28	0xbb5b5b5f	-0.003347121
29	0xbd30c941	-0.04316068
30	0xbc0ad11c	-0.008472707
31	0xbd280e15	-0.041029055
32	0x3e2ec3ce	0.17066881
33	0x3b54ff81	0.0032500925
34	0x3db99ac6	0.09062724
35	0x3d9cc855	0.07655398
36	0xbd7c9903	-0.06166936
37	0xbde1516e	-0.110018596
38	0x3e623668	0.22091067
39	0x3e020cff	0.1270027
40	0x3e37ba20	0.17942095
41	0xbdfdbd36	-0.12389605
42	0xbd3bb0b5	-0.045822818
43	0xbe982982	-0.29719168
44	0xbdfbf155	-0.1230189
45	0x3dccc155	0.09997813
46	0x3cfb5801	0.030681612
47	0xbe6540ac	-0.22387952
48	0xbd225a27	-0.039636757
49	0xbe2ca6ab	-0.16860454
50	0x3d858f2a	0.06521447
51	0xbe62cf76	-0.22149453
52	0x3e12c3a5	0.14332445
53	0x3e2d0d12	0.16899517
54	0x3e4895f1	0.19588448
55	0xba2e0520	-0.0006638337
56	0xbe4d9c10	-0.20079064
57	0xba3bca0b	-0.00071635906
58	0x3cd2e5d6	0.02574436
59	0xbc395c58	-0.01131352
60	0xbcc0902b	-0.023506245
61	0x3cd2100a	0.025642414
62	0x3d81eb66	0.06343727
63	0xbe04d1a1	-0.12970592
64	0x3e138db2	0.14409521
65	0x3dc31fa6	0.09527521
66	0x3dcc89f8	0.09987253
67	0xbd3fbc8c	-0.04681067
68	0xbca4cc39	-0.020116912
69	0xbcf5b8d7	-0.029995365
70	0xbea9c90e	-0.33161205
71	0x3d9c7ce7	0.07641011
72	0xbc806273	-0.015671944
73	0x3db07d34	0.086176306
74	0x3df1cff2	0.118072405
75	0x3d3c0485	0.045902748
76	0x3e0bbb61	0.13645698
77	0xbdb54924	-0.08851841
78	0xbd703bec	-0.058650896
79	0xbd1d5ddd	-0.038419593
80	0x3dba9b0c	0.09111604
81	0x3e3279ad	0.17429228
82	0x3d73e206	0.059541725
83	0x3e1051e6	0.14093742
84	0x3db475e2	0.08811547
85	0x3dcd3aca	0.10020979
86	0x3e362121	0.17786075
87	0x3e7fc5b9	0.24977769
88	0x3d7a6750	0.061133683
89	0xbd574763	-0.052558314
90	0x3c6d05af	0.014466687
91	0xbb9d6e8a	-0.004804437
92	0xbe758601	-0.239769
93	0x3d34e7bc	0.04416631
94	0xbc9867f8	-0.018604264
95	0x3ea61b4f	0.3244271
96	0xbe055b6f	-0.1302316
97	0xbd53a74d	-0.051673222
98	0x3da297f4	0.07939139
99	0xbda11166	-0.078646466
100	0x3ded2399	0.11579055
101	0x3e6a5101	0.22882463
102	0x3e2af94d	0.16696663
103	0x3e36fb05	0.17869194
104	0xbe21c709	-0.15798582
105	0x3e0b9768	0.13631976
106	0xbcaf8aab	-0.021428427
107	0xbab15198	-0.0013528345
108	0xbbf1bc25	-0.007377165
109	0xbdfed5d0	-0.12443125
110	0x3ba19e3e	0.004932194
111	0xbc44c612	-0.012010114
112	0xbdf26eff	-0.11837577
113	0xbd4919fb	-0.049097043
114	0xbc8bc80f	-0.017063169
115	0xbdbef009	-0.09323127
116	0xbd7c5a8d	-0.061609793
117	0x3de1845a	0.11011572
118	0x3bb4dedd	0.0055197314
119	0xbe2c3cc4	-0.16820055
120	0x3e632b0b	0.22184388
121	0xbde6f67f	-0.11277484
122	0x3da2184a	0.07914789
123	0xbdc691cf	-0.096957795
124	0xbdc64d79	-0.096827455
125	0xbe9a2d1f	-0.3011255
126	0xbc13da27	-0.00902418
127	0xbe2cf318	-0.16889608
128	0x3dd5d3f6	0.10440819
129	0xbe899354	-0.26870215
130	0x3c8fd780	0.017558813
131	0xbe483b57	-0.19553886
132	0xbd6122b2	-0.05496473
133	0x3de4afbd	0.11166332
134	0xbd04694f	-0.032326993
135	0xbe4924d5	-0.19642957
136	0x3caf970d	0.021434331
137	0x3c4d6d2e	0.0125382375
138	0x3d13809d	0.036011327
139	0xbdcc0dc8	-0.09963566
140	0xbd031a18	-0.032007307
141	0xbe76f759	-0.24117793
142	0x3d4a8d2a	0.04945103
143	0xbdbcac41	-0.09212542
144	0x3dabee3a	0.083950475
145	0x3d758e64	0.059950247
146	0xbde7366a	-0.112896755
147	0xbe410c16	-0.18852267
148	0x3dde40d0	0.10852206
149	0xbdc80ef3	-0.09768476
150	0x3d59e3f1	0.053195897
151	0x3ddb720d	0.10715113
152	0xbde3a1f3	-0.11114874
153	0x3d775df7	0.060392346
154	0x3d7e9048	0.062149316
155	0xbc3b6bed	-0.011439306
156	0x3e453a22	0.19260457
157	0x3e141fa0	0.14465189
158	0xbce253d5	-0.027627865
159	0x3e4fc9c2	0.20291808
160	0xbc3cda31	-0.01152663
161	0x3e94d9bc	0.29072368
162	0x3e0b9623	0.13631491
163	0x3c97a35a	0.01851051
164	0xbe3e4bce	-0.18583605
165	0xbd988e62	-0.07449032
166	0xbd452cd3	-0.04813845
167	0x3da2cfe8	0.07949811
168	0xbe372e32	-0.17888716
169	0xbe01381b	-0.12619059
170	0xbd8d259a	-0.068919376
171	0xbe09c8d8	-0.13455522
172	0x3d04d80a	0.032432593
173	0x3e71f65e	0.23629138
174	0x3dec0df2	0.11526097
175	0xbd50553f	-0.050862547
176	0x3dd0f5d6	0.102031395
177	0xbdc58f43	-0.09646466
178	0xbe1f94ee	-0.15584156
179	0x3e3145b3	0.17311744
180	0x3e52a2a5	0.20569856
181	0xbd8e4c30	-0.06948125
182	0x3dd1d9c4	0.102466136
183	0xbe1337b8	-0.14376724
184	0x3d55ae37	0.052168097
185	0xbda41ca3	-0.080132745
186	0xbe9e287c	-0.30890262
187	0xbd855cb8	-0.06511825
188	0xbe61c298	-0.22046888
189	0x3c0ec85b	0.008714761
190	0x3ddabd93	0.1068069
191	0x3c70862b	0.014680426
192	0x3d9d8804	0.076919585
193	0x3d320306	0.043459915
194	0x3db2d773	0.087325
195	0xbea3fd09	-0.32028988
196	0xbe1d3538	-0.15352333
197	0xbdec2b9e	-0.11531757
198	0x3d84e47c	0.064888924
199	0xbd7596bb	-0.0599582
200	0x3d5bc008	0.053649932
201	0xbe87efeb	-0.2655023
202	0xbe4e4f01	-0.20147325
203	0x3e30da6a	0.17270818
204	0xbdaff609	-0.08591849
205	0xbd48363d	-0.04887985
206	0x3e489205	0.19586952
207	0x3d8598ce	0.06523286
208	0x3d9d5e2e	0.07683979
209	0x3d68e934	0.056863025
210	0x3b0d801e	0.0021591256
211	0x3dccdce7	0.10003071
212	0xbd555372	-0.052081533
213	0x3d6edbaa	0.058314957
214	0xbde300ca	-0.11084135
215	0xbdcdd0c8	-0.100495875
216	0x3dcb45a2	0.09925391
217	0x3df53f74	0.11974993
218	0xbdf6d727	-0.12052756
219	0x3e43a276	0.19104943
220	0x3e159d4b	0.14610784
221	0x3e1c0dcf	0.15239643
222	0x3e0c5f2a	0.13708177
223	0x3d806474	0.0626916
224	0xbc302cfb	-0.010752912
225	0xbd734c4a	-0.059398927
226	0xbdfa00cd	-0.12207184
227	0x3e419d84	0.18907744
228	0x3e4616c9	0.1934463
229	0xbd24fa91	-0.04027802
230	0x3df7599c	0.120776385
231	0xbe02643a	-0.12733546
232	0x3db80e11	0.08987058
233	0x3e041adc	0.12900871
234	0x3dfb4ffe	0.12271117
235	0x3d5adc90	0.053433
236	0x3dea136b	0.11429485
237	0x3db8ea05	0.09029011
238	0x3d484bef	0.04890054
239	0xbd2fdbb8	-0.04293415
240	0xbd767f14	-0.060179785
241	0xbd69baff	-0.0570631
242	0x3d6ed26e	0.05830615
243	0xbd548ce6	-0.051892184
244	0xbe704dca	-0.23467174
245	0xbd3ad725	-0.045615334
246	0x3e04bb47	0.12962066
247	0x3ba60d45	0.0050675
248	0x3cd66be1	0.026174488
249	0x3d89e661	0.067333944
250	0xbbb0634b	-0.0053829304
251	0xbcf38b4c	-0.029729508
252	0x3e4a65a8	0.19765341
253	0x3d9fb7e9	0.0779875
254	0xbdb54880	-0.08851719
255	0x3e187917	0.14889942

actor.4.bias f4 [64]
0	0x3d2e35c1	0.042531732
1	0xbda7bbfb	-0.08190151
2	0xbce18867	-0.027530862
3	0xbd4a03e3	-0.049320113
4	0xbd8be0c9	-0.06829984
5	0x3d9fb6d9	0.07798547
6	0x3d4066d0	0.04697305
7	0x3cde7889	0.027157085
8	0x3da78a17	0.081806354
9	0xbd80e96f	-0.06294524
10	0x3d47c634	0.048773006
11	0x3ccf695d	0.025318796
12	0x3d869435	0.06571237
13	0x3d6f2e58	0.058393806
14	0xbc893b41	-0.016751887
15	0x3d745aed	0.059657026
16	0x3d8fae98	0.07015723
17	0xbd595cc1	-0.053066973
18	0xbd9de0e4	-0.0770891
19	0xbd767491	-0.06016976
20	0x3da80a5e	0.082051024
21	0xbd939c8f	-0.072075956
22	0xbd3820c4	-0.044953123
23	0xbdaf3377	-0.08554738
24	0xbcbe54fa	-0.02323388
25	0xbd8d06fa	-0.06886096
26	0x3c22acc0	0.009928882
27	0x3d0de452	0.03464157
28	0xbd86e6ff	-0.06587028
29	0x3d699db4	0.057035163
30	0x3d2920cf	0.041291054
31	0xbd95af38	-0.07308811
32	0x3cff002c	0.031128012
33	0xbd3de9c6	-0.04636552
34	0x3c949018	0.018135116
35	0xbce93cdc	-0.028471403
36	0x3bb139bb	0.0054084933
37	0xbd48bdf3	-0.049009275
38	0xbda12931	-0.07869185
39	0x3d92efcf	0.07174646
40	0xbda4e7a5	-0.08051995
41	0x3da1a3ce	0.078925714
42	0xbd0539e6	-0.03252592
43	0xbbe711ce	-0.007051683
44	0x3a3f3975	0.00072946335
45	0x3c87f824	0.016597815
46	0xbd22ff73	-0.039794397
47	0x3da6960e	0.081340894
48	0x3db1a2ac	0.08673605
49	0xbcea921a	-0.02863412
50	0xbc5a8304	-0.013336901
51	0xbd4122e4	-0.047152415
52	0xbc2a2884	-0.010385636
53	0x3ce6c73f	0.02817118
54	0xbd6441df	-0.055726882
55	0x3d214a9c	0.039377794
56	0xbd8a5c34	-0.067558676
57	0xbd860f88	-0.06545931
58	0xbd99e02a	-0.07513459
59	0xbd815d20	-0.0631659
60	0x3cbe2d54	0.023214974
61	0xbd15e417	-0.036594477
62	0x3bd794a4	0.0065789986
63	0xbdb429bb	-0.08797022

actor.6.weight f4 [3, 64]
0	0xbc612c71	-0.013743506
1	0x3c983059	0.018577741
2	0x3c85801f	0.016296444
3	0x3c18502f	0.009296461
4	0x3d1ff504	0.039052024
5	0xbc9d37d5	-0.019191662
6	0xbd557235	-0.05211087
7	0xbc0a5856	-0.0084439125
8	0x3d145635	0.036215026
9	0xbd7abedf	-0.061217185
10	0xbd108796	-0.035285555
11	0x3c8807d5	0.016605297
12	0xbc78e821	-0.015192063
13	0x3c888838	0.016666517
14	0x3dfb2a32	0.122639075
15	0x3d583407	0.052783992
16	0x3cea02f6	0.028565865
17	0x3c9a5d0a	0.018843193
18	0x3c42a994	0.011881251
19	0x3d8b9ea2	0.06817366
20	0x3c80a0d8	0.015701696
21	0x3c7c38b4	0.015394378
22	0x3d162fe6	0.036666773
23	0x3c851507	0.016245378
24	0x3d3e85ff	0.046514507
25	0xbc384551	-0.011246995
26	0xbb46522c	-0.003026138
27	0xbc9daed0	-0.019248396
28	0x3d52652c	0.051366016
29	0xbcf8001b	-0.030273488
30	0xbc9b1c8d	-0.018934513
31	0x3c4873db	0.012234653
32	0x3d98a798	0.07453841
33	0xbc262c5f	-0.010142415
34	0x3c87fd6e	0.016600337
35	0xbce2c99b	-0.027684024
36	0x3c30706f	0.010768994
37	0xbc56756a	-0.013089517
38	0x3bda5065	0.006662416
39	0xbc9ec19e	-0.019379433
40	0xbbc850bc	-0.00611314
41	0x3c6efbe9	0.014586427
42	0xbcdf84ec	-0.027285062
43	0xbdaf9e3b	-0.08575102
44	0xbc364384	-0.011124495
45	0x3c0f3b1a	0.008742118
46	0xbd92a5d6	-0.07160537
47	0x3b9efa33	0.0048516034
48	0xbc29d222	-0.010365041
49	0xbc81f25f	-0.015862642
50	0xbd9412d5	-0.072301544
51	0xbb8aacae	-0.004232011
52	0xbca16540	-0.0197016
53	0x3c79a270	0.015236482
54	0x3cdd770f	0.02703431
55	0x3ac799ce	0.0015228332
56	0x3d3ee16e	0.046601705
57	0x3c8b8775	0.017032364
58	0xbcdb0f82	-0.026740793
59	0xbc64bec0	-0.013961494
60	0xbca4f735	-0.020137409
61	0xbb48ea14	-0.00306571
62	0x3c1cfa75	0.009581198
63	0x3c7c4202	0.015396597
64	0xbd191655	-0.037374813
65	0x3b11cdc1	0.0022247883
66	0x3a342f07	0.00068734627
67	0xbcd603d1	-0.026124867
68	0xbce0a267	-0.02742119
69	0x3d81517e	0.063143715
70	0xbbfe5d76	-0.0077626063
71	0x3c45b54d	0.012067151
72	0x3cee84a5	0.029115984
73	0xbd9c4f36	-0.07632296
74	0x3c9df09d	0.019279772
75	0x3a8d2a52	0.0010770059
76	0xbc0cf897	-0.00860419
77	0xbb203740	-0.0024446994
78	0x3cf3828a	0.029725332
79	0xbcc5a10f	-0.02412465
80	0xbd93ad79	-0.07210822
81	0xba8ead34	-0.0010885359
82	0x3bca9a10	0.0061829165
83	0xbc97057b	-0.01843523
84	0xba8a8dac	-0.0010570786
85	0xbc443e7b	-0.011977787
86	0xbbd6249c	-0.006535126
87	0xbbbf5cc9	-0.0058399183
88	0x3d19fbdd	0.03759371
89	0x3d44c5f4	0.048040345
90	0x3b8d1a73	0.0043061315
91	0xbb18de8a	-0.0023326003
92	0xbc270873	-0.010194886
93	0xbc3a7c69	-0.011382201
94	0xbd3800be	-0.044922583
95	0xbbb95d18	-0.0056568496
96	0x3c5673de	0.013089148
97	0x3bdf85be	0.0068213632
98	0x3a3a1afa	0.0007099357
99	0x3c9a8b4a	0.018865246
100	0xbada5e01	-0.0016660095
101	0xbd07394e	-0.033013634
102	0x3b06b62c	0.002055536
103	0x3d0593e3	0.03261174
104	0xbd303026	-0.043014668
105	0x3baf6a0c	0.005353218
106	0x3b9938b3	0.0046759485
107	0xbd035137	-0.032059874
108	0xbb7ad871	-0.0038275982
109	0x3c526f65	0.012843941
110	0x3bde19fa	0.006777999
111	0x3caaba7c	0.020840876
112	0xbb031c38	-0.0020005833
113	0x3b567652	0.0032724333
114	0x3d375326	0.04475703
115	0x3c6ede73	0.014579403
116	0xbcd80733	-0.02637062
117	0xbab0e397	-0.0013495561
118	0x3cdcf6c4	0.026973136
119	0xbccc9969	-0.024975495
120	0xbd7c752c	-0.06163518
121	0xbad4feba	-0.0016250231
122	0x3d2b4c33	0.041820716
123	0xbc0c8586	-0.008576756
124	0xbd2f276a	-0.042762198
125	0xb6d936a7	-6.4734663e-06
126	0x3c3f9b2d	0.011694712
127	0x3bd38d54	0.0064560566
128	0x3b74cfaf	0.0037355234
129	0x3c2e802c	0.010650676
130	0x3c473b8c	0.012160193
131	0x3caaba34	0.020840742
132	0x3c411f2c	0.011787217
133	0xbc9f1584	-0.01941944
134	0xbc0d7d63	-0.008635852
135	0xbcce8e3f	-0.025214313
136	0xbc794eb1	-0.015216515
137	0x3be3cf0c	0.006952172
138	0xbc8f4291	-0.017487796
139	0x3c1cdbbd	0.009573874
140	0xbcc2c060	-0.023773372
141	0x3c552482	0.013009192
142	0xb9b5552b	-0.00034586465
143	0x3a872596	0.0010310884
144	0xba26de07	-0.0006365482
145	0x3c47bd99	0.0121912
146	0x3c470642	0.012147488
147	0xbb2753e6	-0.0025532185
148	0x3c497d5e	0.012297956
149	0x3c2ed504	0.010670904
150	0xbb6d3318	-0.0036193784
151	0x3c835738	0.0160328
152	0xbc8cbb97	-0.017179294
153	0xbcd4101e	-0.025886592
154	0x3c1036c7	0.008802122
155	0xbc6a28f5	-0.0142919915
156	0x3bb9170e	0.0056485003
157	0xbc6eabfa	-0.01456737
158	0x3ca8582f	0.020549862
159	0x3c363bfa	0.011122698
160	0xbc17432b	-0.009232323
161	0x3bbf9b6d	0.0058473856
162	0x3c21a9db	0.009867157
163	0xbc90f00f	-0.017692594
164	0x3c5bffd9	0.013427698
165	0x3c28513f	0.010273277
166	0xbc98469d	-0.018588359
167	0x3b7f7416	0.0038979105
168	0x3c576cb8	0.013148479
169	0x3bfbc544	0.007683428
170	0xbc8a78db	-0.016903332
171	0xbc2381b5	-0.009979655
172	0xbbec81af	-0.007217608
173	0x3c039325	0.008030687
174	0xbc23a34d	-0.009987664
175	0xbb1a7c98	-0.0023572799
176	0xbc38ed32	-0.0112870205
177	0xbcc291c0	-0.02375114
178	0xbbfca17d	-0.0077096806
179	0x3ba4b70c	0.0050267037
180	0xbb370dd2	-0.0027931822
181	0x3c50d86b	0.012746911
182	0xbc929e44	-0.017897733
183	0x3ca86b1d	0.020558888
184	0x397d636c	0.00024164998
185	0x3c41f249	0.01183755
186	0xbcbf8b46	-0.02338184
187	0xbc976bea	-0.018484075
188	0x3c55282b	0.013010065
189	0xbc349592	-0.0110219885
190	0x3c283c46	0.010268277
191	0x3b6bb941	0.0035968574

actor.6.bias f4 [3]
0	0xbced9b35	-0.029004673
1	0xbaa1d87c	-0.0012347843
2	0xbd7dd812	-0.06197364

critic.0.weight f4 [256, 259]
0	0xbe857ab0	-0.26070166
1	0x3c5035a4	0.012708101
2	0x3b5ffabf	0.0034176556
3	0xbcf52784	-0.02992607
4	0xbcd95199	-0.026528167
5	0xbe551d51	-0.20811965
6	0xbe99ba3f	-0.30024907
7	0xbdecb051	-0.11557067
8	0x3dc4ce88	0.09609705
9	0xbe4037f6	-0.18771347
10	0x3e0eed08	0.13957608
11	0xbee03dc0	-0.43797112
12	0x3ea465d8	0.3210895
13	0xbe99a4d6	-0.30008572
14	0x3d562131	0.052277748
15	0x3e8a9c00	0.27072144
16	0xba161479	-0.00057250966
17	0x3d81763b	0.06321379
18	0xbca43e14	-0.020049132
19	0x3da61963	0.08110311
20	0xbe131bd9	-0.14366092
21	0xbc9f8152	-0.019470844
22	0xbeb56418	-0.35427928
23	0xbd620492	-0.05518014
24	0x374c2098	1.2166936e-05
25	0x3d45e0ee	0.048310213
26	0xbdfc9aa5	-0.123341836
27	0xbeaebdaa	-0.34129077
28	0xbd8ddf9a	-0.06927414
29	0x3e63d95b	0.22250883
30	0xbe3f0f14	-0.18658096
31	0xbcfd3881	-0.030910732
32	0x3ea1d8ef	0.3161082
33	0x3d91e7a9	0.07124264
34	0xbdf67e33	-0.12035789
35	0x3d7c8b79	0.06165645
36	0xbeb0acd2	-0.3450685
37	0x3dd8ebf3	0.10591879
38	0x3d5ff2e2	0.05467499
39	0x3de26271	0.110539325
40	0xbd6596ff	-0.056052204
41	0xbd313f75	-0.043273408
42	0x3df444ff	0.119272225
43	0xbeac22cd	-0.336203
44	0xbeeeb6aa	-0.46623737
45	0xbe3905d4	-0.1806863
46	0x3e8fd33a	0.2809084
47	0x3e138ebb	0.14409916
48	0xbe1cf305	-0.1532708
49	0x3efcb401	0.49356082
50	0x3d30e73a	0.043189265
51	0xbede48c5	-0.43414894
52	0x3d1482b2	0.036257453
53	0x3e28c381	0.16480829
54	0xbe3d806b	-0.18506019
55	0xbea7252a	-0.3264554
56	0xbeb96c80	-0.3621559
57	0x3ca73e9f	0.020415602
58	0xbed02c77	-0.40658924
59	0xbc0b83ab	-0.008515279
60	0xbe03613f	-0.12830065
61	0xbe5cc34b	-0.21558873
62	0x3cbcf5a5	0.023066351
63	0x3c0fa315	0.008766909
64	0xbebd5120	-0.36975956
65	0x3ea99201	0.33119205
66	0xbea9d652	-0.33171326
67	0xbe1af169	-0.15131153
68	0x3ddd2d60	0.1079967
69	0x3c21cc58	0.0098753795
70	0xbd7d3a86	-0.06182339
71	0x3dae40c4	0.08508447
72	0xbd35d4d7	-0.044392433
73	0xbdcf866c	-0.10133061
74	0x3d3ea289	0.046541724
75	0x3d39549d	0.04524671
76	0xbed679f2	-0.41889912
77	0xbe3e4e5c	-0.18584579
78	0xbdd70781	-0.10499478
79	0x3d525c8f	0.051357802
80	0xbdcea641	-0.10090304
81	0x3e0e384c	0.13888663
82	0xbd865887	-0.06559854
83	0x3d9c0bf1	0.07619465
84	0x3de47628	0.11155349
85	0x3da39bfc	0.07988736
86	0xbe0753da	-0.1321558
87	0xbe13177b	-0.14364426
88	0x3d9dfd36	0.07714312
89	0xb8b62d68	-8.686894e-05
90	0xbe80f420	-0.25186253
91	0x3d28ecc0	0.041241407
92	0xbed44603	-0.41459665
93	0x3e610801	0.2197571
94	0xbe181f44	-0.14855677
95	0xbddd3983	-0.10801985
96	0xbb56de37	-0.003278626
97	0xbd878340	-0.06616831
98	0x3eb4632f	0.3523192
99	0xbd5d8a74	-0.054087117
100	0xbee33694	-0.44377577
101	0x3ed01dcd	0.40647736
102	0xbd6f110d	-0.05836587
103	0x3e2c365c	0.16817611
104	0xbe0b10ce	-0.13580629
105	0xbedf1506	-0.43570727
106	0x3e19985e	0.1499953
107	0x3c79ceb7	0.015247039
108	0xbd4e847e	-0.050419323
109	0x3e3d4806	0.18484506
110	0xbdc25200	-0.094882965
111	0x3ef39159	0.4757183
112	0xbdb19f55	-0.08672968
113	0xbe25bb21	-0.16184665
114	0x3d4cfa3a	0.050043322
115	0x3dd2fece	0.103025064
116	0xbe13bc41	-0.14427282
117	0xbdbf5f77	-0.0934438
118	0xbea1d82e	-0.31610245
119	0xbda4bf58	-0.080443084
120	0x3ee2dac8	0.44307542
121	0x3da8c7bf	0.082412235
122	0xbe1a4b40	-0.15067768
123	0xbd69bb49	-0.057063375
124	0x3d641c6a	0.05569116
125	0x3dcf3e3c	0.10119292
126	0x3d8bd5b3	0.06827869
127	0xbe6d2410	-0.23158288
128	0x3c009fb3	0.007850575
129	0x3e4f95b7	0.20271955
130	0xbec57f38	-0.38573623
131	0x3c76faa5	0.015074407
132	0xbdd141b9	-0.10217614
133	0xbec4dfb3	-0.3845192
134	0xbd1e756b	-0.038686197
135	0xbd84f55b	-0.0649211
136	0xbe586a1c	-0.21134228
137	0x3da00feb	0.07815536
138	0xbe910155	-0.2832133
139	0xbed4b13b	-0.41541466
140	0x3d240e38	0.040052623
141	0x3e6b5f1c	0.229855
142	0x3dd7f9d0	0.10545695
143	0x3e09085c	0.13382095
144	0xbd14e4a8	-0.036350876
145	0xbe6c49ed	-0.23075075
146	0xbd5b6a2e	-0.053568058
147	0x3e438cb9	0.1909665
148	0xbe4edeb0	-0.20202136
149	0x3dc69206	0.096958205
150	0x3d3c1e29	0.0459272
151	0xbe3d0fa1	-0.18462993
152	0xbe1c4e0e	-0.1526415
153	0xbdc00563	-0.093760274
154	0xbd86532e	-0.06558834
155	0xbe4185dc	-0.1889872
156	0x3e02d40e	0.12776205
157	0xbd965e92	-0.073422566
158	0xbeaf2ef8	-0.34215522
159	0x3e46682c	0.19375676
160	0x3e1b13cf	0.15144275
161	0x3e4aa80d	0.19790669
162	0xbea71b52	-0.3263803
163	0xbe81fd8d	-0.25388756
164	0xbe64b5b6	-0.22334942
165	0xbdf9ccf1	-0.121972926
166	0xbd8867b6	-0.06660406
167	0xbd58570d	-0.052817393
168	0x3d778dc1	0.06043792
169	0x3c942fc8	0.01808919
170	0x3e0551e7	0.13019525
171	0xbe627828	-0.22116148
172	0xbdedcc4d	-0.11611233
173	0x3df60d46	0.120142505
174	0x3d625527	0.05525699
175	0x3c0a1837	0.008428625
176	0xbe83399d	-0.25629893
177	0x3beb3028	0.0071773715
178	0xbcf982ab	-0.030457815
179	0xbc551ebb	-0.013007815
180	0xbe79bc40	-0.24388218
181	0xbe99499c	-0.29938972
182	0xbe8878f1	-0.2665477
183	0xbed9fdf2	-0.42576557
184	0xbccbc773	-0.024875378
185	0x3eb3b3c9	0.35098103
186	0xbc926cc1	-0.017874124
187	0xbed05033	-0.40686187
188	0x3eb96cca	0.36215812
189	0x3d217d6a	0.039426245
190	0x3dfc2222	0.12311198
191	0xbe3a3e3b	-0.18187802
192	0xbd755665	-0.059896845
193	0x3ec78d15	0.38974825
194	0xbe0dcdc9	-0.13848032
195	0xbea76c6f	-0.32699916
196	0xbe45a30c	-0.19300479
197	0xbdaf2091	-0.085511334
198	0xbe51a788	-0.20474064
199	0x3dac85fd	0.08423994
200	0x3d06d359	0.0329164
201	0xbeb5892a	-0.3545621
202	0xbe6f4cb0	-0.23369098
203	0x3e4d182d	0.20028754
204	0x3b12ecd0	0.0022418983
205	0x3d408847	0.047004964
206	0x3e761380	0.24030876
207	0xbdb01268	-0.08597261
208	0x3d41e3b4	0.047336295
209	0x3e2d4453	0.16920595
210	0xbcdc5c3c	-0.02689945
211	0xbe789fd3	-0.24279718
212	0xbcb918bc	-0.022594802
213	0xbdab1f18	-0.0835554
214	0x3d6614bc	0.056172118
215	0x3cdaad71	0.026694031
216	0xbea20fce	-0.31652683
217	0xbe5ddf8a	-0.21667305
218	0xbdb95b33	-0.09050598
219	0x3e1270e5	0.14300878
220	0x3dd71142	0.105013385
221	0x3e4dd243	0.2009974
222	0x3d83bae5	0.06432132
223	0xbc89c5ae	-0.016817894
224	0xbdd5ed7b	-0.104456864
225	0x3da17d70	0.078852534
226	0x3e40b904	0.18820578
227	0x3d36cc48	0.04462841
228	0xbe24086e	-0.1601884
229	0xbe6f7106	-0.23382959
230	0xbe9806fd	-0.29692832
231	0x3d852657	0.06501453
232	0x3ca30e1c	0.019904189
233	0xbea84a88	-0.32869363
234	0xbeda2dd1	-0.4261308
235	0xbe9d29af	-0.30695865
236	0x3e290126	0.16504344
237	0xbd12afd9	-0.035812233
238	0x3d9f74ed	0.07785974
239	0xbe034802	-0.12820438
240	0xbc993ed3	-0.018706715
241	0xbe4c6054	-0.19958621
242	0xbd2fa83b	-0.042885046
243	0xbe1477a2	-0.14498761
244	0xbe0f1f3c	-0.13976759
245	0xbed40a19	-0.41413954
246	0xbc9be811	-0.019031556
247	0x3da391ba	0.079867795
248	0x3deda9a7	0.11604624
249	0xbeb0277c	-0.34405124
250	0x3e4c8c25	0.19975336
251	0x3e292680	0.16518593
252	0xbcc391f4	-0.023873307
253	0xbed879ff	-0.42280576
254	0xbef2fe4a	-0.47459632
255	0x3eeb001d	0.45898524
