rlgpu/logs/pointReacher/model_1500.pt (torch, 360427 bytes, 16 tensors)

log_std f4 [3]
000000 cf ec c1 be db ea 3c bf cf 3c bd 3b
       -0.37875983 -0.7379586 0.005775071

actor.0.weight f4 [256, 11]
000000 18 c8 25 bc 00 41 0e 3e 1b 30 ab bc 7f f9 bd bd
       -0.010118507 0.13891983 -0.020896962 -0.09276103
000010 82 70 21 bd d2 0c 8d 3c 56 8a 21 3e 52 0e 95 3c
       -0.039413936 0.017218027 0.15775427 0.018195305
000020 59 f3 8b 3c 54 4d d1 3d 01 66 34 bd b0 23 d1 3c
       0.01708381 0.10219827 -0.04404259 0.025529712
000030 7f 07 11 3d b0 39 29 3e 62 c2 20 bd d7 c0 23 be
       0.03540754 0.16525912 -0.039247878 -0.15991531
000040 5b 3a 2e bc a2 bf c7 bc 66 3f 3e bd ce b5 1b be
       -0.01063403 -0.02438337 -0.04644718 -0.15206072
000050 0c 65 3a 3d b5 05 84 3d 85 c4 8f bc ce 71 67 bd
       0.045506522 0.06446401 -0.017549763 -0.056505017
000060 1e 85 5a bd d4 fc 0c bd 4f d6 5d bd 27 7b 56 3c
       -0.053349607 -0.034420803 -0.05415946 0.013090885
000070 dd 84 08 be 6f 6d 8e 3e 68 4a 3f 3c 27 e1 35 be
       -0.13331933 0.27817866 0.011675455 -0.1776167
000080 65 6c 00 3d 87 c2 8c bd b3 0a c3 3c 5a ef 2d 3e
       0.031353373 -0.06873041 0.023808813 0.16985837
000090 52 96 0a 3d 7e f4 78 3c 2a 56 12 3d 0b 3b 46 3e
       0.033834763 0.01519501 0.035726704 0.1935846
0000a0 7a 2a 9c bd 72 08 5d bd a7 14 96 bd 08 bc 07 be
       -0.07625289 -0.053963132 -0.07328158 -0.13255322
0000b0 23 d3 59 bd 6b 4b 00 bd 0c 39 bb 3c c8 2f 9d bd
       -0.05317987 -0.031321924 0.02285435 -0.07675129
0000c0 a0 96 85 bd a9 ec 1d 3e bd 3b 59 bd a2 4f 82 bd
       -0.0652287 0.1542231 -0.053035486 -0.06362845
0000d0 ad 48 a8 3d ec 37 62 3d 7e 35 00 bc f7 13 43 3c
       0.08216987 0.055229113 -0.0078252535 0.011906615
0000e0 14 65 75 3d 82 01 c9 3c 33 af c1 bd a6 36 0b 3e
       0.05991085 0.024536852 -0.09457245 0.13595065
0000f0 cf ec 66 3c bb 7e c9 3b 6e ff b3 bb b9 bf e8 3d
       0.0140945455 0.0061491407 -0.005493096 0.11364693
000100 ca 50 86 bd dc 44 ba bb 48 80 c7 bd 72 45 fa 3d
       -0.06558378 -0.005684478 -0.097412646 0.12220277
000110 b6 a3 18 be b5 c7 c2 3c 47 fe 12 3d a0 be c1 3b
       -0.14906201 0.023776868 0.03588703 0.005912617
000120 e4 c3 f1 bd bf ca cd bd bf da c0 bd 42 a5 b0 bd
       -0.11804941 -0.100484364 -0.094167225 -0.086252704
000130 d9 80 e6 3d 07 99 de bc a3 25 81 3d a5 6c 4b 3b
       0.112550445 -0.027172578 0.06306007 0.00310401
000140 f4 05 c2 bd da 41 37 3e f7 81 1f 3e 38 f6 c7 3c
       -0.09473792 0.17896214 0.15576921 0.024409398
000150 fb 1d 51 3c bb 39 3c be f8 e3 c8 bd b8 20 7d bb
       0.012763496 -0.18381397 -0.098091066 -0.0038624238
000160 1f e8 12 bc e5 77 02 bd c0 28 eb bd 90 e0 c2 3c
       -0.008966475 -0.03185262 -0.11482382 0.02378872
000170 19 d9 fe bd 30 1e 0f bd e2 95 60 3d 4f 26 9c 3d
       -0.12443752 -0.0349409 0.05483044 0.07624494
000180 ca 27 08 3d d2 3b ec 3d 30 50 f1 3d 35 c8 12 be
       0.03324107 0.11534847 0.11782873 -0.14334185
000190 25 3c 6a 3c d7 2e 13 3e 29 b8 48 bd d7 ba 9e 3d
       0.014296566 0.14373337 -0.049003754 0.077504806
0001a0 5c 4e fe bd 66 f5 23 be d7 e4 be 3d 7a b4 c6 3c
       -0.124172896 -0.16011581 0.093209915 0.02425598
0001b0 67 3e 5f 3c 20 bd de bd 9e 52 0f 3d b7 48 b7 bd
       0.013625718 -0.108759165 0.0349909 -0.08949416
0001c0 b4 6b 13 be d3 11 dd bc 4d e8 b6 bb 2f a4 02 3e
       -0.14396554 -0.026986038 -0.0055818916 0.12757944
0001d0 88 c8 a5 bd 7b 09 4c be 13 2a d3 3c 24 62 da 3d
       -0.08094889 -0.19925492 0.025776898 0.1066325
0001e0 0f 9f a3 3c 3c e3 42 bc 29 e1 4f 3e 0e df 36 3e
       0.019973306 -0.011894997 0.20300736 0.17858526
0001f0 d1 bc 1c bd 29 91 1a 3d 24 df 4c 3d d4 3f 77 3d
       -0.038266007 0.03773609 0.05001749 0.060363606
000200 ad e8 10 be 34 c1 b4 3d 1b bd ee 3c a9 b9 54 3d
       -0.14151259 0.08825913 0.029142907 0.05193487
000210 2b a3 d9 bc ff b7 53 3e 68 7c 15 be 47 be 51 3e
       -0.026567062 0.20675658 -0.14598238 0.20482741
000220 71 4d fc 3d b6 94 c7 3d 4f 1f e6 3a 02 87 c0 bd
       0.12319458 0.09745161 0.0017556938 -0.09400751
000230 69 b1 93 3c 33 3a af bc 68 5d 87 bd 88 5c e2 bd
       0.018028932 -0.021390056 -0.06609613 -0.11052805
000240 9d c3 f9 3d d9 b3 90 3b b0 a6 b6 3c 6b 66 3b 3e
       0.121955134 0.0044159708 0.02229628 0.18300788
000250 dd 81 50 3c 18 d0 d5 bd ed fa 0c bd 81 01 bb 3d
       0.012726274 -0.10440081 -0.03441899 0.09131146
000260 19 bc cc 3d a9 6e 9c bd b1 9a 38 3d df f8 96 ba
       0.09996814 -0.07638294 0.0450694 -0.0011518261
000270 bb d9 12 bd 89 03 a3 3c 25 21 90 be b6 9b 40 3d
       -0.035852175 0.019899147 -0.28150287 0.047023498
000280 dd e4 20 3e 18 0b c8 bd 9a 6f 77 3c c5 f5 87 bd
       0.15712304 -0.09767741 0.0151022915 -0.06638674
000290 d9 34 cf 3b 46 fd 94 bd d8 d4 08 3e 40 d4 12 be
       0.0063234386 -0.072748706 0.13362443 -0.1433878
0002a0 7e 8c cc bc 5e 77 3b 3c 4b 8d f9 3c 80 b7 e9 bd
       -0.024969336 0.011442034 0.030462882 -0.11411953
0002b0 82 bb fb 3d 06 46 58 bc 8d 5d 46 3d c1 0d 77 be
       0.12291624 -0.013200289 0.04842906 -0.2412634
0002c0 e5 d3 19 3e b4 1f 3a 3e ec 1c c3 3d 4b 33 3e bd
       0.15022238 0.18176156 0.09527001 -0.046435636
0002d0 48 be a0 3d e4 a3 b6 bc 55 c6 a8 3d e8 d9 d7 3c
       0.07848793 -0.022294946 0.08240954 0.026349023
0002e0 e7 cd 2e bd c6 1a c6 3d 55 75 48 be a5 b0 aa ba
       -0.042676833 0.096730754 -0.19576009 -0.0013022615
0002f0 bb c5 c3 3d 92 8c 94 3c 36 a4 31 bc 39 b4 ad 3c
       0.095591985 0.018133435 -0.010842374 0.0212041
000300 49 99 d6 bc 96 49 02 bc f9 b8 aa 3a f8 fb 9e bc
       -0.026196139 -0.007952115 0.0013025097 -0.019407257
000310 57 7a 18 3d e0 af dd 3c 77 b7 b1 bd 09 c7 09 3e
       0.037226047 0.027061403 -0.08677571 0.13454832
000320 75 c1 f1 3d d6 c6 ca bc 57 ce 9a 3d 32 30 d5 bc
       0.11804477 -0.024753015 0.075588875 -0.026023958
000330 3b 85 c2 bb 45 85 04 3c 12 d1 df bd c5 f6 55 3d
       -0.0059362925 0.008088415 -0.10928549 0.05223729
000340 33 26 0e be 07 17 87 bd 39 dc ab 3c 2a 1e 55 3e
       -0.1388176 -0.06596189 0.020979034 0.20812288
000350 bb 3f 31 3e 82 79 29 3e 17 f4 de bc 0f 90 0e 3d
       0.17309467 0.16550258 -0.027216 0.034805354
000360 f1 8d 96 bd 48 9f 1a 3e 60 6b 07 3e 8b 01 8e 3d
       -0.07351292 0.15099823 0.13224554 0.06933888
000370 6a c2 0e bd 64 f7 99 bd c4 f4 44 bd 05 22 b2 3a
       -0.034853376 -0.07517889 -0.04808499 0.0013590461
000380 37 47 0f 3d 4b 3d 6e bd 57 91 4e bd c9 b9 b4 bd
       0.034980025 -0.058163922 -0.050431576 -0.08824498
000390 9c 4f 3b 3e b1 7b 3a 3d ab 7d c5 3c 42 fa 3a bd
       0.18292087 0.045528118 0.024107775 -0.04564882
0003a0 9b 1f fa bd 8a 44 2a 3e d2 9d a1 bd 4b ee 38 be
       -0.122130595 0.16627708 -0.0789143 -0.18059652
0003b0 88 1b ef 3d d7 fd 33 be a7 f0 0a bd 0d fc 08 3d
       0.11675173 -0.17577301 -0.03392091 0.0334435
0003c0 0f 86 5b bd 70 d6 3b bd b6 49 61 be b7 0c 5a 3d
       -0.053594645 -0.0458588 -0.22000775 0.053234782
0003d0 a6 7d 89 bd e8 28 cd 3c 6e 35 de bc d5 02 bd 3d
       -0.06713419 0.02504392 -0.027125087 0.09229056
0003e0 d0 9a e6 bd ad 2f ec 3d e2 b8 f9 3d eb 23 b1 bd
       -0.11259997 0.11532531 0.12193467 -0.08649429
0003f0 62 b6 58 3d e5 46 17 be a2 c4 01 3e d6 1e 35 3d
       0.05290831 -0.14773138 0.12672666 0.04421886

actor.0.bias f4 [256]
000000 83 0f 6b be a6 c8 eb 3d e6 2f 02 3e 99 6b c6 3d
       -0.22955136 0.1151288 0.12713584 0.096884914
000010 ce 39 2e be 62 f1 53 3e b6 e3 96 bd 08 5c 80 be
       -0.17014238 0.20697549 -0.07367651 -0.25070214
000020 5f 2f 5a be 55 58 91 3e b8 e9 35 3e e6 ec 8c 3d
       -0.21307133 0.28387704 0.17764938 0.06881122
000030 fb ef c5 bc 66 cc 8c 3e be 2a 53 be 70 78 92 3e
       -0.024162283 0.27499694 -0.20621774 0.28607512
000040 01 c9 c9 3d 19 e4 92 bc 26 cc 85 3e 61 07 8e bd
       0.098527916 -0.017931031 0.26132315 -0.06935001
000050 cd 30 9d 3e 0d 83 80 3e 8a b9 94 be 78 12 9b 3e
       0.30701295 0.25099984 -0.29047805 0.30287528
000060 a2 ce 54 be 41 e4 6a 3d be 80 1e be b8 fe ce 3d
       -0.20781949 0.057346586 -0.15478799 0.101071775
000070 5a 17 d2 bd 38 6a 2f 3e f8 b3 87 3e f6 7d 45 be
       -0.1025836 0.17130363 0.26504493 -0.19286332
000080 0a 23 81 3e ad 36 0d be 0d f8 91 3d bd fc 89 be
       0.25222045 -0.13790388 0.0712739 -0.26950637
000090 5c 90 85 3d 4d 8c 7e be d7 8a 1a 3e f9 38 47 3d
       0.06521675 -0.24858208 0.15092026 0.048638318
0000a0 65 8a 1b 3e 5d 5a 59 bd b6 64 62 be 61 2a 94 bd
       0.15189512 -0.053064693 -0.2210873 -0.07234646
0000b0 7f 6e 1a 3c 83 31 52 3e b7 6d 9f bc 57 b6 db bd
       0.009425758 0.205267 -0.019461496 -0.10728138
0000c0 41 77 91 be 45 1e de 3c 04 ad 88 be 2f 36 e5 3b
       -0.28411296 0.027114043 -0.266945 0.0069949846
0000d0 1a 30 d4 bd bf 21 91 be de f8 3e bd b6 70 45 bc
       -0.10360737 -0.2834606 -0.046624057 -0.012050798
0000e0 ea b5 43 3e 09 03 6c be 7a 17 2f be e7 c0 7c 3d
       0.19112363 -0.23048033 -0.170988 0.061707404
0000f0 16 74 77 3e 63 df 36 be d5 ae ea bd 0a cb 4b be
       0.24165377 -0.17858653 -0.11459128 -0.19901672
000100 ac 79 19 3e 9a db 86 be a8 45 29 3e 51 ec c6 bd
       0.1498782 -0.26339418 0.16530478 -0.097130425
000110 05 92 88 be 67 7d 86 bd 31 15 55 3e e4 18 08 be
       -0.26673904 -0.06566887 0.20808865 -0.13290745
000120 2b bd 21 3e ac 76 8a be b1 63 8b be 22 0f 20 be
       0.15794818 -0.27043664 -0.27224496 -0.15630773
000130 be 2a 4b 3d d9 63 63 bd 6f 82 56 3e c0 ca 72 bd
       0.04960131 -0.055515144 0.20948194 -0.05927539
000140 7c f5 1c be 85 ec 29 3d d7 f1 32 be 4e e0 88 be
       -0.1532802 0.04148533 -0.17475067 -0.2673363
000150 b6 aa 80 3e ba 5c f5 bd 5f 28 a9 bd aa 2f de bd
       0.25130242 -0.11980577 -0.08259653 -0.10848935
000160 28 88 ba 3d 4e 79 24 be 29 d4 34 be 17 d3 19 3d
       0.09108001 -0.16061899 -0.17659058 0.037554827
000170 9f e9 c0 3c 68 8d 48 3d fe 6b 77 3d 2a 0b 91 be
       0.0235489 0.04896298 0.060405724 -0.2832883
000180 9f 92 d1 3d 81 5c c9 bd 42 f0 7b 3e 57 7e 41 bc
       0.10233044 -0.09832097 0.2460337 -0.011809907
000190 04 0e 83 3e 57 d7 47 3e 46 67 0b 3d 3b 22 8d bc
       0.2559663 0.1951574 0.034034036 -0.017228236
0001a0 f7 bb 4c 3e 18 f3 69 be 2a c6 85 bd 02 34 d8 bd
       0.19993578 -0.22846639 -0.065319374 -0.10556795
0001b0 3c 80 b0 bd c8 58 8b bd bf fa 54 be 84 d0 35 bd
       -0.08618209 -0.06804043 -0.20798777 -0.04438831
0001c0 4a 35 74 be 44 e3 65 3d c0 69 f6 3c ae 68 83 3d
       -0.23848453 0.05612494 0.030079722 0.064164504
0001d0 da 4e 17 3d 71 28 c9 bd 84 0e 0f 3d 98 28 ef bd
       0.036940433 -0.09822167 0.034925953 -0.116776645
0001e0 7e 5c 40 be bb ca 32 3e 0c 4b 3a be 7d 2d 4b 3e
       -0.18785283 0.17460148 -0.1819269 0.19841571
0001f0 5d 42 9d 3d dd 59 97 3d f1 04 93 3d 7a a2 40 3e
       0.076786734 0.07390187 0.07178677 0.1881198
000200 e6 9e 28 3e 73 32 73 3e 04 94 e1 3d 8d 5d a0 3d
       0.16466865 0.23749714 0.1101456 0.078303434
000210 4b 6e 53 be ff a7 11 be 12 0c 63 bd 81 f2 82 be
       -0.20647542 -0.14224242 -0.055431433 -0.2557564
000220 c5 dc 3a 3e 7d 43 84 3e f9 c7 bd 3c cd d0 2a 3e
       0.1824828 0.2583274 0.023166643 0.16681214
000230 d7 bc 8b 3e 67 cc 43 be 9f de f4 3d a5 8f 3c be
       0.2729251 -0.19120942 0.11956524 -0.18414171
000240 1e ff 2d 3e aa 19 80 3e 9f 8f 65 3e 74 b3 17 3d
       0.1699185 0.2501958 0.22418068 0.037036374
000250 71 36 88 be b4 83 5e 3e cd 33 26 be 96 cf e8 3d
       -0.26604035 0.21729928 -0.16230698 0.11367719
000260 1d 31 d2 bd db 1a 81 3e 30 dc 86 3e 4c 5a 79 3e
       -0.10263274 0.25215802 0.26339865 0.24350852
000270 af c4 2a be 18 e3 ba bd 78 7a d0 bd 55 38 df 3d
       -0.16676591 -0.09125346 -0.10179609 0.10899416
000280 95 ff 2c be 73 23 85 3d 8b 29 80 3e 50 14 9d bd
       -0.16894372 0.06500902 0.25031695 -0.0766989
000290 02 ee 6b 3e 8f 19 98 be b0 fa 63 be 89 d0 58 bd
       0.23040012 -0.29707 -0.22263598 -0.05293325
0002a0 ed 0b 7d 3e 12 32 20 3e bf d6 5e 3d 35 9e 84 3e
       0.2471158 0.156441 0.054404017 0.25901952
0002b0 68 7c da bd 57 42 80 3e b6 91 67 be bf 87 71 be
       -0.1066826 0.25050613 -0.22614178 -0.2358694
0002c0 d0 64 13 3d d5 27 26 3b 36 8b 64 be 0c 93 9a 3d
       0.035984814 0.0025353332 -0.2231873 0.07547578
0002d0 ee 6b 1a be 39 29 1f 3c 08 43 31 be 7c d3 83 3d
       -0.15080234 0.009714418 -0.17310727 0.06436822
0002e0 4d 78 8a bd da ec 3d be 95 e0 7b be d3 9e cd bd
       -0.06761227 -0.18547383 -0.2459739 -0.10040059
0002f0 4d fa 37 3e fd 00 74 bd 92 b8 32 be 53 a8 36 3b
       0.17966576 -0.059571255 -0.1745322 0.0027871325
000300 74 bc 0d 3e 27 43 86 be 73 c9 8e 3e 4b f3 ae 3d
       0.1384142 -0.26223108 0.2788807 0.08542498
000310 5d 85 89 3e 9e ed 40 3c d6 90 e8 bd d7 5a f6 bd
       0.2685956 0.011775402 -0.1135575 -0.12029045
000320 d4 47 00 3e a3 23 19 3e 6a ad 21 be 3d d2 ca bd
       0.125274 0.14955 -0.15788808 -0.09903381
000330 f6 db 34 be 35 d4 9b bd df 6a 5b 3e 7b a7 7d be
       -0.17662033 -0.07608835 0.21427487 -0.2477092
000340 06 2e 40 3e 86 3d a1 bd 04 16 50 bd f0 21 93 be
       0.18767557 -0.07873063 -0.050802246 -0.2873683
000350 99 34 b5 3d 1d 1d 2a 3e e5 c1 82 3e ac c6 de 3d
       0.08847923 0.16612668 0.25538555 0.108777374
000360 b4 90 73 be 72 37 87 3e d1 94 0e 3e 57 84 b0 bd
       -0.23785669 0.2640949 0.13923956 -0.08618992
000370 40 d7 87 3d 37 9f bb bd 3c 2d 0f 3e bd 5b eb bd
       0.066328526 -0.09161227 0.139821 -0.11492107
000380 6c 2f 37 3e 96 b1 7c 3d f2 41 02 be ee d0 8b be
       0.17889184 0.061692797 -0.12720469 -0.27307838
000390 1c d2 f0 3c de 60 d9 3d 1b f2 ae bd 43 03 a1 3d
       0.029397063 0.10614179 -0.08542272 0.0786195
0003a0 e6 25 43 3e 16 1e 3b be d2 58 ca 3c 56 5c 5d 3e
       0.19057426 -0.18273196 0.024700556 0.21617255
0003b0 71 b0 86 3d 59 6d 2a bd 15 83 b5 bd c9 f2 7c be
       0.06576622 -0.04160819 -0.088628925 -0.2470199
0003c0 1a 2d 7c be 93 4a 6f bd 93 09 8e be 8d 2e 41 bd
       -0.2462658 -0.05842073 -0.2774168 -0.047163535
0003d0 89 1a 66 3e cc 6c 2b be 18 8c 5f be 50 ba 96 3e
       0.2247106 -0.16740721 -0.21830785 0.2943902
0003e0 7d 1c 77 be 59 bb 89 be 99 cf 11 3d c7 ca 8b 3e
       -0.24131961 -0.26900747 0.03559837 0.27303144
0003f0 fd 69 35 bb fc d5 97 3e 41 a0 8c 3d d1 35 31 be
       -0.0027681582 0.29655445 0.068665035 -0.17305686

actor.2.weight f4 [128, 256]
000000 e1 f3 8d 3d 58 fe 06 3d b3 31 df 3d 6e 96 96 3e
       0.06931282 0.032957405 0.10898151 0.29411644
000010 d3 0f 4d be 61 3a 23 3d 27 98 06 3e 75 2e f5 bb
       -0.20025568 0.039850596 0.13143979 -0.0074823448
000020 88 3b 29 3d b4 80 58 bd 7e fb 6c bc ef a0 b5 b8
       0.04131654 -0.052857116 -0.014464257 -8.660729e-05
000030 a1 15 70 b9 60 af d6 bd e2 d8 3a 3d 88 cc f5 bc
       -0.00022896241 -0.10482669 0.04561699 -0.030004755
000040 89 5c b8 bd 84 bc 36 be 78 1f 5f 3d 37 b6 cc bc
       -0.09002025 -0.1784535 0.05447337 -0.02498923
000050 91 e3 cc 3c 8d db 43 3d 46 9c 98 3d 24 5e bf bd
       0.025010856 0.0478168 0.07451682 -0.09344128
000060 94 1e 5a 3d 23 50 0b bd ec 96 87 bd 73 94 6b 3d
       0.053251818 -0.03401197 -0.06620583 0.05751462
000070 d9 5b fb bc 39 a9 17 bd 3e 7a 3f 3e 96 47 0c 3d
       -0.030683445 -0.037026618 0.18698975 0.034247957
000080 91 23 27 3e 50 62 d3 3d 18 6c 08 bc 38 ee 09 bd
       0.16322161 0.10321486 -0.008326553 -0.03367445
000090 b4 4f 45 3e f4 8a a8 bc 53 d6 37 bd 47 f1 d5 3c
       0.19268686 -0.02057407 -0.04488213 0.026116027
0000a0 5b 0b 35 be 71 4b 53 bc 89 08 8f 3d 52 b4 49 bd
       -0.17680113 -0.012896405 0.0698405 -0.049244232
0000b0 16 eb 14 be 8f 45 7e 3d c9 00 0b bd a1 98 15 bd
       -0.14542803 0.062078055 -0.033936296 -0.03652251
0000c0 30 7c 94 bd c2 83 ec bc 24 f2 e9 bd 0d 3f 00 be
       -0.072502494 -0.02887142 -0.11423138 -0.12524052
0000d0 3e 8c 73 be 10 77 84 3d 36 af b0 bc fc 6b 80 bd
       -0.23783967 0.06468022 -0.021567922 -0.062705964
0000e0 f1 2d 23 bd 77 12 a8 3d 4e 65 16 3d e4 e1 f9 3d
       -0.039838735 0.08206647 0.036717705 0.12201288
0000f0 be e5 6c 3d 75 d5 e9 bd 8c 22 a0 bb af 78 47 be
       0.057836287 -0.11417667 -0.004886931 -0.19479631
000100 59 d2 10 be 4f 2b bf bd 1b 1a 29 3c bc f8 86 3d
       -0.14142741 -0.09334432 0.010321165 0.06590411
000110 61 25 a8 3d 06 05 e4 bd 6d 19 a5 3d 06 76 d1 bd
       0.082102545 -0.11133771 0.0806149 -0.10227589
000120 78 fb 75 3d 1c 9d db 3d 2d b9 5c 3d 1e 0d 7f 3d
       0.060054272 0.107233256 0.053887535 0.06226837
000130 db 7e 07 ba ca 88 71 bd f0 bf 42 bc 93 bc 03 be
       -0.0005168744 -0.058968343 -0.011886582 -0.12864904
000140 a6 ff 9c 3d e0 52 71 3c 2e 7b d4 bd cd 1f 4e bd
       0.076659486 0.014729232 -0.10375057 -0.050323296
000150 ee 16 19 be 9e 15 03 3d b1 ec 7c bd 43 bf 5b bd
       -0.14950153 0.032003038 -0.061749164 -0.0536492
000160 a7 a0 de bc 9f a5 c2 3d 7d b6 d6 3d 6e 9d d6 3d
       -0.027176214 0.09504246 0.104840256 0.10479246
000170 24 19 c0 bd a3 39 bf bc f4 aa ef b7 22 39 0d 3d
       -0.09379795 -0.023342913 -2.8570626e-05 0.034478314
000180 fb 05 80 bd b2 eb 64 bc c9 75 c9 bb 6f 0a 24 be
       -0.06251141 -0.01397221 -0.0061480743 -0.16019605
000190 0a 25 c8 bd 74 24 86 bd 63 6e b0 3c 64 fc b4 bd
       -0.0977269 -0.06549922 0.021537011 -0.08837202
0001a0 26 b1 45 3e dc ce 89 3c 02 f3 b7 3d 63 f4 10 3d
       0.19305858 0.016822271 0.08981897 0.035389315
0001b0 54 25 c3 bc 0e 54 b9 3d 11 57 46 bd 77 f6 b1 bd
       -0.02382151 0.09049235 -0.048422877 -0.086895876
0001c0 68 1f 95 bd bc 8e f9 bd b2 fc c3 3c 3d 3b 92 3c
       -0.07281381 -0.121854275 0.023924205 0.017850513
0001d0 b9 3b f1 3d a2 dc 54 bd f6 c1 0a 3c e8 5f 76 bd
       0.11778969 -0.051968224 0.008469095 -0.060150057
0001e0 d0 fc 4c 3e dc 28 5c bd d5 87 9a 3d b3 13 79 3d
       0.20018315 -0.053749904 0.07545439 0.060809802
0001f0 f0 10 cf 3c 1f 38 5a 3d 9d 97 07 bc 58 a6 37 3a
       0.025276631 0.053276177 -0.0082758935 0.0007005683
000200 28 c3 1f 3d 52 5b a9 3c 1f 16 72 bc 59 ba 49 3e
       0.039004475 0.020673428 -0.014775782 0.19699992
000210 eb 15 27 be 66 61 e2 3c d2 f0 18 3c e7 d1 76 3d
       -0.16316955 0.027634334 0.00933476 0.060258772
000220 87 5f a3 bd b9 79 ca bc 4a ad da 3d 99 05 a5 bc
       -0.07977205 -0.024716245 0.106775835 -0.02014427
000230 b2 ac 67 bd 6c 1a fa 3d 48 1f 36 3e 32 34 87 3d
       -0.05656118 0.12212071 0.1778537 0.06601752
000240 2f 05 b2 3d 74 3a 12 bd 0a 3e f5 bd b1 5e 90 3d
       0.08692395 -0.035700276 -0.11974724 0.07049311
000250 29 d0 0d 3d d8 fa 54 3e 31 f4 1b 3d 58 02 11 bd
       0.034622345 0.20798814 0.038074676 -0.035402626
000260 73 c7 3e be 25 a4 1e 3c a9 17 a3 3c 95 5e 57 bd
       -0.18630771 0.00968269 0.019908743 -0.052580435
000270 11 b2 44 bd e1 96 80 be 3a 6a 2c 3e 2a 94 08 bd
       -0.04802138 -0.2511511 0.16837397 -0.033344425
000280 db ff 86 bd 6e ca ad bd 8c 25 48 bd 67 b7 ba bb
       -0.06591769 -0.08485876 -0.048863932 -0.005698133
000290 5b 35 51 3d cb 82 59 3c 0a 5b 09 3b 33 48 70 bd
       0.051076274 0.013275812 0.0020958805 -0.058662605
0002a0 57 23 36 bc a1 9b 97 3d 78 e9 d5 3b 2b 5f cb bd
       -0.011116824 0.07402731 0.006528076 -0.09930261
0002b0 7d 97 bd bd b1 09 d3 bc 81 67 51 3d 67 e0 49 bd
       -0.0925741 -0.025761457 0.0511241 -0.049286272
0002c0 2c a2 ad bd 35 f5 c8 3c 91 f8 05 3d e6 bf 1c 3e
       -0.084781975 0.024530986 0.032707755 0.15307578
0002d0 17 cb 0a 3d 3e 6a ce bd 69 72 a0 3d fb 28 ce 3d
       0.033885088 -0.10078858 0.07834322 0.1006641
0002e0 e7 b9 61 3d 61 82 13 3e 05 c4 a2 3d 20 15 ec bd
       0.05510893 0.14405204 0.07947544 -0.11527467
0002f0 bd f3 e4 bc f6 b2 19 3c 70 07 0e bd 50 6d eb 39
       -0.027948255 0.0093810465 -0.03467506 0.00044904137
000300 ea b9 31 bc fb 84 a3 3d 39 45 26 3b bc 11 4f 3e
       -0.010847548 0.079843484 0.002537085 0.20221609
000310 5c bb 88 bc f8 8d 12 3d b6 8a 96 3d c7 d3 87 bc
       -0.016690902 0.035779923 0.07350676 -0.016580475
000320 93 8a fc bd ab bf 04 3e 46 1c d3 bd 9e c7 ff 3c
       -0.123311184 0.1296374 -0.10308127 0.031223115
000330 8f a1 b5 3d bb 3c d5 bd 49 9e b5 3c 58 cb 8c bd
       0.088687055 -0.10411974 0.022170203 -0.06874722
000340 a6 be d7 bc 92 dd 86 3c ba 3b 46 bd 1c f7 83 3d
       -0.026336025 0.016463075 -0.048396803 0.06443617
000350 8a 55 d0 bc af ae b4 3d b5 a4 05 bd 4a b2 11 bd
       -0.025431413 0.08822381 -0.03262778 -0.03557042
000360 3a de f5 3c ef ed 42 3d 25 aa 83 3c 75 a0 31 3e
       0.030013192 0.047590192 0.016072342 0.17346366
000370 98 1e 8b 3d 35 e8 f8 3c a1 15 b0 3d 4e 18 5e bc
       0.06792945 0.030384162 0.085978754 -0.013555599
000380 a9 de 48 be 59 59 84 bd 39 b0 14 bd a4 bc b6 3d
       -0.19616188 -0.06462354 -0.03630087 0.08922699
000390 2c a3 17 bb cc b3 53 bd dd 88 17 3d ca fe e7 bc
       -0.002313803 -0.05168514 0.036995757 -0.028319735
0003a0 e3 1b 94 3c ea 98 4d 3c b5 34 94 3d 0e d3 09 bb
       0.018079704 0.012548665 0.072366156 -0.002103034
0003b0 3d 38 d1 bd 8c 90 6a bd fc 64 26 bd 9a 13 2f be
       -0.10215805 -0.057266757 -0.04062365 -0.17097321
0003c0 62 79 17 3d 73 d9 9e bd 31 83 c3 bd d2 bd 5a 3d
       0.036980994 -0.07756319 -0.09546507 0.053403683
0003d0 16 07 9e bd 72 58 35 bd 89 37 47 bd 99 1e 3b 3d
       -0.07716195 -0.0442738 -0.048636947 0.045683477
0003e0 a8 b4 02 3e 01 bf 81 3c 09 05 52 be 75 08 39 be
       0.12764227 0.015838148 -0.20509733 -0.18069632
0003f0 82 41 04 3e 00 4e ed bc fe cc 00 be 7b 5b d7 bd
       0.12915614 -0.028967857 -0.12578198 -0.105154954

actor.2.bias f4 [128]
000000 3c c8 63 3d 07 b8 47 bd cd fe 75 bc f7 cf 7d bd
       0.05561088 -0.048759487 -0.0150143625 -0.06196591
000010 a5 37 5f bb 11 3d dc bc 07 d4 37 3d fc dc 60 3c
       -0.0034060266 -0.026884587 0.04487994 0.013724562
000020 4b 36 0e bd 3a 32 a2 3c bf ba fd 3c b0 09 3c 3d
       -0.034719747 0.01979934 0.030972837 0.045907676
000030 86 30 29 bd f6 41 f1 bc 7d 31 6a bc 40 6d 4f bd
       -0.04130604 -0.029450398 -0.0142940255 -0.0506413
000040 d6 15 00 37 ad 57 14 bd 61 84 2e 3d 5e 61 fa 3c
       7.634479e-06 -0.036216427 0.042606715 0.030564006
000050 76 4c 1e bc 29 84 56 bd 68 33 fc 3c 0d 75 66 3d
       -0.009661784 -0.05237213 0.030786231 0.056263972
000060 dc 2b 60 3d 28 9a 29 bc c9 23 45 3b 7e 30 da 3c
       0.054729328 -0.010351695 0.0030081144 0.026634451
000070 4c ba 1f 3d e2 f4 32 3c 2d 27 89 bd 3c 97 aa 3c
       0.038996026 0.010922642 -0.06696925 0.020824067
000080 00 75 ab bb 71 b7 ad bc c7 f4 38 3d 22 7c 46 bb
       -0.0052324533 -0.021205636 0.045155313 -0.0030286391
000090 04 cb 22 bd 31 51 4c bd 15 df d2 3c 6e 99 e3 3a
       -0.039744392 -0.049882118 0.02574114 0.0017364451
0000a0 2e 1a 47 bd e1 a2 35 3d 54 cf 2b 3d 78 5b ab bb
       -0.04860895 0.044344787 0.04194577 -0.00522941
0000b0 6a 5a a5 bc 3e 88 23 3d 41 94 23 3d 96 65 59 3d
       -0.020184714 0.039924853 0.039936308 0.053075396
0000c0 d3 ee 10 3d 65 7a aa 3a 48 8a 08 bd 90 ab 50 bd
       0.03538401 0.0013006447 -0.033335 -0.050944865
0000d0 eb 45 08 3d 24 d3 7a bd 84 2c a6 bb a0 d4 71 bd
       0.033269804 -0.061236516 -0.0050712246 -0.059040666
0000e0 7e c7 40 3d 2a 75 67 3d 34 2e 53 bd ab d7 2c 3d
       0.04706525 0.05650822 -0.051557735 0.042197865
0000f0 df 22 eb 3c 3f 9a 32 bd c5 07 e5 bc 7f e3 5f bc
       0.028703151 -0.04360413 -0.027957806 -0.013665079
000100 b1 22 8e 3c d6 e9 ed bc bc 2d 1d 3d 27 a8 21 3d
       0.017350527 -0.029042166 0.038373694 0.039467003
000110 12 8b 19 bd 6f e8 4a bd cb 14 5f 3d b1 5f 7e bc
       -0.037486143 -0.049538072 0.05446319 -0.015525744
000120 9c e7 6e bd 37 36 29 bd e7 96 82 bc 82 68 51 3b
       -0.05832635 -0.04131147 -0.015941096 0.003195316
000130 d5 e9 16 bb 45 d0 f2 bc 3a 5f 7a 3c 25 68 75 bd
       -0.0023027558 -0.029640326 0.015281493 -0.059913773
000140 40 7d 59 bd b5 6a 5a bd 8d 15 ed 3c db 6f 41 bc
       -0.053097963 -0.05332442 0.02894094 -0.011806454
000150 40 2e dd 3c 5d 80 3c bc 6e 67 0a bd d9 32 0d bd
       0.026999593 -0.011505214 -0.033790044 -0.03447232
000160 d4 80 62 3d 56 1a 54 3d 89 3b 1b bd 7b 57 2d bd
       0.05529864 0.05178293 -0.037898574 -0.042319756
000170 51 b7 71 3d 71 49 38 3d a3 ed fb bc 9f c1 63 3d
       0.059012715 0.044991914 -0.030752962 0.055604573
000180 5a 6e 30 bc a0 0f d4 bb 16 a0 f9 bc a7 fa 68 bd
       -0.010768497 -0.006471589 -0.030471843 -0.056879666
000190 f8 8c 57 3d 1b c1 0f 3c be 3e 2b bd e2 ef f9 3c
       0.052624673 0.008774067 -0.041807882 0.030509893
0001a0 d7 6c a4 3c 28 63 54 3d 2e 8d 00 3d d4 17 16 bd
       0.02007143 0.051852375 0.03138464 -0.036643818
0001b0 3c 5c 18 3d e2 ef 2a 3d 90 b8 81 bd 61 96 8f 3c
       0.037197337 0.041732676 -0.06334031 0.017527761
0001c0 5e 61 31 bd 1a 12 83 bd 35 05 a5 bc 8b cb 06 bd
       -0.043305747 -0.06399937 -0.020144084 -0.032908957
0001d0 f2 63 7a bd 20 41 1f 3c d9 99 7c bc f4 c8 6e 3d
       -0.06113047 0.009720117 -0.0154175395 0.058297113
0001e0 62 c4 51 bc 80 5e 22 bd 36 e2 55 3d c6 5b 23 3c
       -0.012803169 -0.039640903 0.052217685 0.009970611
0001f0 54 97 7f bd 8a db 7a bc fa 53 2c 3d fd f6 41 3d
       -0.062400177 -0.015311131 0.042072274 0.047354687

actor.4.weight f4 [64, 128]
000000 eb 44 81 bd 1f 3c 22 be 3d f6 1a 3e 8c 00 60 3b
       -0.06311973 -0.15843247 0.15132995 0.0034180013
000010 ac f9 12 be 25 06 5c bd 90 68 56 bc 1e 5a 11 3c
       -0.14353055 -0.053716797 -0.013086453 0.008871583
000020 8c 75 19 3c f3 c6 d0 bd 64 65 35 be 6e ca 1a bd
       0.009366404 -0.101941966 -0.17714459 -0.03779071
000030 22 db 43 3e 2c c7 22 be 19 cb 90 bd a7 ab 62 3e
       0.19126561 -0.1589629 -0.07069988 0.22135793
000040 8c 3a a0 bd 28 d1 21 be 45 9e 64 bd d9 a5 d5 3d
       -0.07823667 -0.15802443 -0.055815 0.104320236
000050 cc cf 8c 3d 6c f0 2f 3d cf 5e 3d 3d 86 0a 0d 3e
       0.068755716 0.042953894 0.046232995 0.13773546
000060 54 02 26 3d fb d1 8b 3d 67 52 82 3a 0c f6 bc bc
       0.040529564 0.0682716 0.0009942771 -0.023066543
000070 3f d1 f4 bc a6 5a d0 3d b5 3c 2d 3e c8 00 d1 bd
       -0.029884933 0.1017354 0.16917689 -0.10205227
000080 12 b4 3e bd 43 eb 60 3c f7 7f 8f be 60 55 f1 3d
       -0.046558447 0.013727966 -0.28027317 0.11783862
000090 b8 0b 77 3d c7 ea cf bd 00 65 1d be 82 33 f1 bd
       0.06031391 -0.10152202 -0.1537056 -0.117774025
0000a0 a4 f0 00 3e 55 9a 58 be 26 99 1f 3d 1b cb 5b bd
       0.12591797 -0.21152623 0.038964413 -0.053660493
0000b0 1a f7 60 3d 39 e3 bc 3d a7 65 90 3e 33 09 91 bd
       0.054923154 0.09223027 0.28202555 -0.07081833
0000c0 a9 5c 2d 3e 48 b1 ce bd f8 71 61 3d b6 6f 68 3e
       0.16929878 -0.100924075 0.05504033 0.22698864
0000d0 cb a7 81 be 59 e8 2d 3e 1f 49 05 be 15 3a b1 bd
       -0.25323328 0.16983165 -0.13016175 -0.086536564
0000e0 10 d0 5b be d4 09 0b be 56 df c4 3d 9c ec e1 3d
       -0.21466088 -0.13577968 0.096129104 0.11031458
0000f0 87 83 e3 bc 39 f9 14 bd 37 17 1a bd 78 28 b0 bc
       -0.027772678 -0.03637049 -0.037619796 -0.021503672
000100 ce 01 b5 3c 78 40 c6 bd c8 9f 26 be ae 15 33 bd
       0.022095587 -0.09680265 -0.16271889 -0.043721847
000110 e7 ab 77 be 76 86 94 3d 90 4d 89 bd 5f 55 1a be
       -0.2418667 0.07252209 -0.06704247 -0.15071629
000120 09 11 9a bd b2 22 a3 bd e7 2f 2d 3e 92 ae 86 be
       -0.075227804 -0.07965602 0.16912805 -0.26305062
000130 6e c2 c6 bd 87 81 ad 3d cd fb 4c bb 44 a1 f4 3c
       -0.09705053 0.08471971 -0.0031278015 0.029862054
000140 97 14 a4 bd e4 8e c4 3c fb f3 04 3e bb b5 00 be
       -0.0801174 0.023993917 0.12983696 -0.12569325
000150 96 3c a6 bd d2 e4 a6 3d b2 27 32 bd ed b3 90 3d
       -0.081170246 0.08149113 -0.043494888 0.07065568
000160 bf 5c e6 3d 04 db 03 3e 35 d9 92 bd 66 46 10 be
       0.11248159 0.12876517 -0.07170335 -0.14089355
000170 f3 6e 5d be e9 a6 6b bc c4 25 0b 3e ee af 9c 3d
       -0.21624355 -0.014383056 0.13588625 0.076507434
000180 fb e1 ae 3d 5c 64 bb 3d 4a 18 30 bd 3c 51 e3 bc
       0.08539196 0.091500014 -0.042991914 -0.027748697
000190 63 d2 20 be d6 38 04 bc 06 f6 1d be 29 12 d6 bd
       -0.15705256 -0.008070191 -0.15425882 -0.104526825
0001a0 f8 8e 0a 3e fd f4 9a 3c 15 5c 41 be 68 8f e8 bc
       0.13531101 0.018915648 -0.18882783 -0.028388694
0001b0 56 37 01 be 4a 70 06 3e c7 e6 ba bb 36 c9 47 3e
       -0.12618765 0.13128772 -0.0057037803 0.1951035
0001c0 0b 7a f4 3c c1 39 b1 3c a2 00 91 3d 42 7a 87 3e
       0.02984335 0.021633985 0.07080199 0.26460463
0001d0 fa 91 29 3e 06 7b a8 bd 38 c9 c9 3d de a0 54 3d
       0.16559592 -0.0822659 0.098528326 0.051911227
0001e0 8a 47 d6 be 68 e0 a3 3d c5 96 86 3e 3f 39 7d bc
       -0.41851455 0.080017865 0.26286903 -0.015455543
0001f0 e3 be 96 bc 12 71 4d bc 5f 72 1e 3e 95 d5 64 bb
       -0.018401569 -0.012539165 0.15473317 -0.0034917344
000200 fe 89 6b bd 2a 3f e5 3d b9 39 89 bd 50 69 ff 3d
       -0.057504646 0.11193688 -0.06700463 0.12471259
000210 2f 06 35 3e a9 9a 1b be 12 43 c8 bd a7 21 8a bd
       0.1767814 -0.15195717 -0.09778418 -0.067447
000220 c4 71 f4 3d 24 ed b7 3c 29 01 49 bd 00 3c 6c bd
       0.119357616 0.022451945 -0.049073372 -0.057674408
000230 d3 fb 94 3c cd 4d 2c 3d 51 2d 0f bd 41 74 ce 3d
       0.018186485 0.042066384 -0.034955326 0.100807674
000240 3e 78 0a bd ea 00 7f 3e 89 7c 3b 3e 53 68 18 3e
       -0.033806078 0.24902692 0.18309225 0.14883547
000250 64 5f 3b bd 5c 4b 9a 3d b0 77 0a 3b 78 57 6f be
       -0.04574527 0.07533905 0.0021128468 -0.2337321
000260 d3 d6 ae 3d 2a ee 71 3d 55 c9 66 3d 3a f0 34 3c
       0.08537068 0.05906502 0.05634435 0.011043603
000270 d9 09 0d 3d 0f 16 0d 3d c7 36 fc 3c 98 65 0b bd
       0.03443322 0.034444865 0.030787839 -0.034032434
000280 42 ab 89 bd a5 ab d0 3d 06 48 ea 3d 0e 76 5a 3e
       -0.06722118 0.101889886 0.11439519 0.21334097
000290 9b 01 0a 3e 77 36 27 3d b4 12 34 3e 1c 3b f8 3b
       0.13477175 0.040823426 0.1758526 0.0075754058
0002a0 0e 9d d8 3d 65 e1 e0 bd a5 17 01 3e 79 52 4b be
       0.10576831 -0.109804906 0.12606676 -0.1985568
0002b0 63 1c 2a 3e 83 a7 38 bc b6 50 09 3e 36 a6 23 3e
       0.16612391 -0.011270407 0.13409695 0.15981373
0002c0 74 f5 53 bd 35 df 1c 3e 01 04 04 be 19 16 b4 3d
       -0.051747754 0.15319522 -0.12892152 0.08793277
0002d0 ef 89 ec bd 5f d9 7e 3e c0 8b 5e 3e 3a a1 a3 3c
       -0.11549746 0.24887608 0.21732998 0.01997434
0002e0 d8 74 d7 bc c5 cb 9a 3d 4b 97 10 3e 76 90 8f 3e
       -0.026300833 0.07558397 0.14120214 0.28039902
0002f0 14 2f 8c bd 15 00 97 3e 23 54 25 3e 87 0d 06 be
       -0.06844917 0.2949225 0.16145377 -0.13091098
000300 ff 85 9a bd c5 25 7e bd 45 d6 d4 bd 87 24 b2 bd
       -0.07545089 -0.06204774 -0.10392431 -0.08698373
000310 5c a7 1d bc 55 7f ed 3b ea 21 9e bd 84 a3 04 bd
       -0.009622421 0.007247845 -0.07721312 -0.032382503
000320 1e 8a 2c 3d 8f d5 03 bd 6e 74 17 3e 46 4f 23 3e
       0.042123906 -0.032186087 0.14790508 0.15948209
000330 57 9e 9a bd 76 f3 09 bd 20 76 05 be 62 a2 0d be
       -0.07549732 -0.033679448 -0.13033342 -0.13831475
000340 51 08 a6 bc 1f 6f 69 3e ad 8e 49 3e 22 5a 80 bd
       -0.020267637 0.22796296 0.19683333 -0.062671915
000350 43 6a d2 3d 09 a5 61 3c be 9f c4 bc b9 22 9e bd
       0.10274174 0.013772258 -0.024001952 -0.077214666
000360 a0 28 4e 3e 09 fd b5 3d fe 06 a7 3b 6b 51 15 3d
       0.20132685 0.08886153 0.005097269 0.0364546
000370 3a 12 49 3e f9 26 84 3e 9c 85 b0 bd bc d0 51 3b
       0.19635859 0.25810984 -0.08619234 0.0032015285
000380 3c f6 30 bd f8 39 5a 3e 23 59 96 3d 16 dd 96 3d
       -0.043203577 0.21311176 0.0734122 0.073663875
000390 10 b3 86 bd 5a 6d a4 be 4e b7 0a 3e 7b 3a 49 bd
       -0.06577122 -0.3211468 0.13546488 -0.049128037
0003a0 91 4a 3e be 7d 04 17 be c8 69 17 be dc c2 b1 3d
       -0.18583132 -0.14747806 -0.14786446 0.086797446
0003b0 a2 59 82 3d a1 2c 99 bd a3 c9 ac 3d c7 80 04 bd
       0.06364752 -0.074792154 0.08436897 -0.032349374
0003c0 65 71 9e bd 5d 2f 82 3e 5c 07 e2 3d 74 61 e1 3d
       -0.07736472 0.2542676 0.1103656 0.11004916
0003d0 03 f1 c2 3d 4c 4f dd bb f9 89 48 3d d3 d4 db bc
       0.095186256 -0.0067538377 0.048959706 -0.026834881
0003e0 d0 48 71 3e 39 39 29 be 31 ef 9f bd 68 a7 68 3e
       0.23562932 -0.16525735 -0.07809294 0.2272011
0003f0 ab 52 2c 3d f0 df e3 3d c3 21 5a 3d a2 1a 17 3e
       0.042071026 0.11126697 0.053254854 0.14756253

actor.4.bias f4 [64]
000000 b0 2c 61 bd 12 c7 85 3c 41 ad 8c bd d1 c1 0c 3d
       -0.054974258 0.016330276 -0.06868983 0.034364525
000010 47 6e 9e 3d ba 35 dc bc ec 78 f4 bc f3 6d c5 bc
       0.077358775 -0.026881088 -0.029842816 -0.02410028
000020 c0 ac a8 bd f8 c0 60 bd b7 ff 9e bb f0 51 8e bd
       -0.082360744 -0.05487153 -0.004852261 -0.06949222
000030 c0 94 1f bd 4b 69 af 3d e2 be 35 3c 9b 72 14 bc
       -0.03896022 0.08565005 0.011092873 -0.009060527
000040 65 71 ed 3b 5c 81 98 bd 47 12 a7 3d 10 f8 27 bd
       0.0072461837 -0.07446548 0.08157783 -0.041008055
000050 a9 1c 88 bd e7 61 ae 3d 87 b3 3b 3d 51 35 d4 3c
       -0.066460915 0.08514767 0.045825507 0.02590433
000060 51 6a 96 3c 4f d1 97 bd d3 81 b5 3c 61 6a 6e bd
       0.018361242 -0.07412969 0.022156632 -0.05820692
000070 09 78 8f 3d c0 07 1a 3d aa d9 39 bd c3 eb 86 3d
       0.07005317 0.037605047 -0.045373596 0.06587937
000080 87 f8 72 bc f9 a3 89 3d 3d ff 29 bd 40 f6 93 3c
       -0.014829761 0.067207284 -0.04150318 0.018061757
000090 18 aa 49 3d 4d 83 7e bd 47 75 30 3d b9 03 9f 3d
       0.04923448 -0.062136937 0.043080594 0.07764382
0000a0 c9 b5 bc bc 23 dc 59 bb fb 73 ac bd e0 17 ab bd
       -0.0230359 -0.0033242784 -0.08420559 -0.08354163
0000b0 5d 1c 8a 3d ca 96 95 bd 3e 60 43 3d e4 f7 bc 3d
       0.06743691 -0.07304151 0.047699206 0.09226969
0000c0 2f e5 9b 3a 8c 4b af bc 56 08 24 bc 0b 95 98 3d
       0.0011893864 -0.021398328 -0.010011753 0.07450303
0000d0 5e d6 a2 bd ac 46 37 3d 82 76 79 bc ca a7 16 bd
       -0.079510435 0.044745132 -0.015226008 -0.03678111
0000e0 3d 91 92 3c 2d a8 24 3d 31 4a 71 3c 08 af a1 bd
       0.01789152 0.040199447 0.014727161 -0.07894713
0000f0 46 be 9b 3d b7 2e 86 3a bd 2e 9f bc 52 a9 95 3c
       0.07604651 0.0010237311 -0.019431466 0.018269215

actor.6.weight f4 [3, 64]
000000 78 0a fe bd 62 11 07 3d 81 0f 8a 3d 7c 54 1a bd
       -0.124043405 0.032975562 0.067412384 -0.037678227
000010 67 17 2d bd 7d d6 99 3c fa c9 26 3d 9a 2b 9a 3c
       -0.042258646 0.018779034 0.040719964 0.018819619
000020 51 61 c9 bd 6d d8 65 3d 3a 2d c0 3d a6 18 b5 3d
       -0.09833015 0.056114603 0.09383626 0.08842592
000030 f2 90 e3 3d 78 c4 49 3d aa ac 1c bd e8 68 88 3b
       0.111116305 0.049259633 -0.038250603 0.0041628964
000040 ef e2 5b 3d 63 75 08 3e 6e 70 97 3d 13 cd 9a bc
       0.053683218 0.1332603 0.07394491 -0.018896615
000050 b4 8c ba bd 3a 37 81 3c 1e 2b 83 3c 65 e4 78 3c
       -0.09108868 0.015773404 0.01601177 0.015191172
000060 e1 1d 61 bd b7 c4 8f bd 98 1e ec 3c b0 c3 5d 3c
       -0.054960135 -0.07019942 0.028823182 0.013535425
000070 15 b8 1c 3d 73 6c aa bd e0 78 6e 3d 7f 54 d9 3d
       0.03826149 -0.08321466 0.058220744 0.106118195
000080 35 f0 66 bc 6d 74 be bd 05 dc 0d bc 76 a7 cf bd
       -0.014095356 -0.0929955 -0.008658414 -0.101393625
000090 bb 1a 1a bd 1f 75 e0 3d 4e d4 bd bc 5b 9c cf 3c
       -0.03762315 0.10959839 -0.023172524 0.02534311
0000a0 f2 28 7a 3d e0 14 1d 3d 21 ea e1 3c 23 83 2f bd
       0.061074205 0.038349986 0.027577462 -0.04284967
0000b0 4e 06 4e bc e5 cd 2e bc cf 2b 3d bd 33 88 94 bd
       -0.012574745 -0.010669206 -0.046184357 -0.072525404
0000c0 be 3a 15 bd 17 b9 ca 3c 71 be 9b bc 71 1d 74 3c
       -0.036432974 0.02474646 -0.019011708 0.0148995975
0000d0 50 1b a7 3c 12 72 8a 3d d0 c3 83 3d 90 68 3e bd
       0.020398766 0.067600384 0.06433833 -0.046486437
0000e0 94 8b 8d bd 73 71 68 3c 35 69 ae bd 26 84 91 3c
       -0.06911388 0.014187205 -0.085161604 0.017763209
0000f0 26 16 ce 3a b1 71 99 bd 37 fa 56 bb 30 24 e2 bd
       0.0015723153 -0.07492388 -0.0032802948 -0.110420585
000100 85 4f 92 3c 4b 2d c0 bc 60 4d e7 bd 72 3f 87 3c
       0.017860183 -0.023459097 -0.11294055 0.016509745
000110 40 de 92 3e 01 bb c5 3c 10 56 68 bd 42 a8 cf 3d
       0.28685188 0.024137022 -0.0567227 0.101395145
000120 c3 9f a6 3c f2 83 89 3c 8f 4d 74 3c e7 bf 7d be
       0.020339852 0.01678655 0.01491107 -0.24780236
000130 cd e6 b5 3d d2 89 85 3c bc 34 31 bd a9 07 5a 3c
       0.088819124 0.01630107 -0.043263182 0.01330749
000140 34 cd 48 bc a0 50 49 3d 96 89 1c bc 9d c9 35 bd
       -0.0122559555 0.049149156 -0.009554287 -0.044381727
000150 de d5 5f bd 93 7b 4a bc 9a bc 84 bd 16 61 72 3d
       -0.05464732 -0.012358564 -0.064812854 0.05917462
000160 eb b2 23 3b f2 24 ef 3d 84 0b 4a bd 02 ba fd 3d
       0.002497847 0.11676969 -0.04932739 0.12388994
000170 7d 7b 85 bc 89 99 5f bc 5c 3d 68 bc 88 d8 4d bb
       -0.016294235 -0.0136474455 -0.014174785 -0.003140958
000180 56 14 14 3e 0d 08 f6 3d 96 68 f7 bd 4f e1 91 3d
       0.14460883 0.12013254 -0.12080495 0.07123052
000190 9f 45 60 be 96 32 23 bd fe fc ef bd db c7 ad bc
       -0.21901558 -0.039843164 -0.11718176 -0.021213463
0001a0 4c ea 03 3e 67 d5 c7 3e a8 ff e5 3c 89 35 b7 3d
       0.12882346 0.3903 0.028076008 0.08945758
0001b0 63 a6 c7 3d 9b 13 04 bd 08 43 68 bd f6 fb d9 3c
       0.097485326 -0.03224526 -0.05670455 0.026609402
0001c0 bc bf a1 3d 54 03 00 bd 25 2c 81 bc 05 ff 15 bd
       0.078978986 -0.031253174 -0.01576812 -0.03662016
0001d0 c6 25 24 be 68 93 da bd a3 9b 69 bd 1c 38 e9 bd
       -0.16030034 -0.10672647 -0.057033192 -0.11387655
0001e0 ac 8f 59 3d 88 69 38 bb 81 ef bc bd 54 5a 9a bd
       0.05311553 -0.0028139073 -0.09225369 -0.0753676
0001f0 bf c8 30 bc 93 b0 70 be 9b 2c 64 3d 0e 5f c7 bc
       -0.010790049 -0.23504858 0.0557066 -0.024337318
000200 01 d2 46 bc 24 44 9e 3d b3 df 60 3d be 6c a8 bd
       -0.01213503 0.077278405 0.054900836 -0.08223866
000210 ea 6f 79 3b db 5f af 3d 88 b4 10 3c ef 29 21 3d
       0.003806109 0.08563205 0.0088321045 0.03934663
000220 1b fe dd 3c d9 4c 8c 3d 5e a2 7c 3b 11 90 7c bc
       0.027098706 0.06850595 0.0038548927 -0.0154152075
000230 d4 d3 a4 bb 1d 09 62 3d 15 fa 92 bb d8 08 a8 3d
       -0.0050301347 0.055184472 -0.0044853785 0.08204812
000240 aa ec 37 bd 1e 67 13 3d 77 64 2e 3d 8a 6f ca bc
       -0.044903435 0.035987012 0.04257628 -0.02471139
000250 d0 10 d3 3c ad b8 b4 3d a2 01 b9 3d c7 d2 8d 3d
       0.025764853 0.088242866 0.090335146 0.06924968
000260 cd 6d 73 bd b4 e3 fb bc 5c 0d d4 bd 4c 9c 47 3b
       -0.059430886 -0.030748226 -0.103541106 0.003045815
000270 29 e2 b2 3d 2e e6 92 bd 5a 04 2e 3d 40 59 2b 3d
       0.08734543 -0.071728095 0.04248462 0.041833162
000280 0b 2e c8 bd 6c 47 22 bd 80 51 ea 3c e4 91 f9 3c
       -0.09774407 -0.039618894 0.028603315 0.030465074
000290 0f ae 45 bd 96 af 94 3b e4 aa e9 bc 41 36 c4 3d
       -0.0482617 0.004537533 -0.02852387 0.095806606
0002a0 ef 8e 9a bc 7a fb 3f 3c 4f 20 95 3d 56 9a 74 bd
       -0.018866984 0.0117176715 0.07281553 -0.0597175
0002b0 0d 67 b8 bd 2c ec 0b bd 0c 75 6b bd 7d 72 d4 bd
       -0.090040304 -0.034160778 -0.05748467 -0.103733994
0002c0 57 64 04 3c a2 76 23 bd 93 ac 73 3d f5 43 6e bd
       0.0080805635 -0.03990806 0.05949075 -0.058170278
0002d0 0b 60 ac 3c 73 0d 6b bd d5 65 5a 3d 2f 6f e7 3c
       0.02104189 -0.057385873 0.05331977 0.028251259
0002e0 34 e9 23 bd 78 85 73 3d 25 b5 93 bd 8b bb 78 3d
       -0.04001732 0.059453458 -0.07212285 0.06072573
0002f0 c4 11 b8 3d 97 50 30 bd 4b a0 86 bd 9d fe d5 bc
       0.089877635 -0.043045606 -0.06573542 -0.026122386

actor.6.bias f4 [3]
000000 46 1d b0 bd 37 2a 28 3d 28 f1 e1 bc
       -0.085993335 0.041055884 -0.027580813

critic.0.weight f4 [256, 11]
000000 f7 12 31 bf 96 7c 06 be af c3 96 3e 02 bf 82 3f
       -0.69169563 -0.13133463 0.2944617 1.0214541
000010 5d 61 49 be 85 15 79 3e e7 16 a1 3f c5 5f 77 be
       -0.19666047 0.24324615 1.2585114 -0.24157627
000020 d7 82 4e 3e 5b 85 46 3f 56 06 0a 3e 8b 1c 2e c0
       0.20167099 0.77547234 0.1347898 -2.7204921
000030 48 2b 07 be b1 2a fb 3d b8 e9 cb 3f db 9f 80 bd
       -0.13200104 0.12264002 1.59307 -0.0628049
000040 32 59 12 3d 7a 8a 88 3f 1a 90 4e be 42 57 2e 3e
       0.035729595 1.066726 -0.20172158 0.17025474
000050 f8 a2 c8 3e 9a a9 1d 3f ef f0 2b bf f6 b4 0a be
       0.39186835 0.61586916 -0.6716451 -0.13545594
000060 ad 38 58 3e 48 14 3d 3f bb 88 9d be 11 54 50 3e
       0.2111537 0.7385907 -0.3076838 0.20344569
000070 3e ea cd 3e 0b 2d ea be 52 01 3d 3e 29 2d 28 bd
       0.40217775 -0.4573749 0.18457535 -0.041058693
000080 1e 7c ed 3d 31 05 ad bf 50 10 80 be 1d 36 dd 3e
       0.11595939 -1.3517209 -0.25012445 0.43205348
000090 9e f4 bd 3f 9d 7d 78 be 52 3e 65 3e 4e 7b fd 3f
       1.4840276 -0.24266668 0.22387055 1.9803255
0000a0 57 61 84 be 40 52 aa 3e 60 ad a1 3e c3 83 35 3d
       -0.25855514 0.33265877 0.31577587 0.04431511
0000b0 22 6f fb 3f cd 6f cf 3d 38 46 de bd 2b 21 9d bf
       1.964329 0.10128746 -0.10853237 -1.2275747
0000c0 c3 ea 5f 3d 93 78 f0 bd 59 26 b7 be 4f d1 26 3e
       0.054667246 -0.11741748 -0.35771444 0.16290782
0000d0 97 63 4c be 7d 6d 12 bf 20 25 1d bf 23 ae 74 bd
       -0.19959866 -0.57198316 -0.61384773 -0.059736382
0000e0 aa 35 95 be 34 12 83 3e 13 43 09 3e 15 48 ab be
       -0.29142505 0.25599825 0.13404493 -0.33453432
0000f0 92 78 87 3e e4 0c 11 bf 73 c2 2e be 8a 33 d6 3d
       0.26459175 -0.56660295 -0.17066364 0.10459049
000100 59 6a 85 3e e1 01 99 3d 86 e3 33 bf b5 b0 84 be
       0.260577 0.074710615 -0.7026905 -0.25916067
000110 08 ea 8f 3e a6 0f 8c 3f 7c 0e b5 be c5 ba 23 3e
       0.2810824 1.0942276 -0.35362613 0.15989216
000120 92 33 91 3f f8 3d b7 be ca 6b 06 3e 12 45 43 3f
       1.1343863 -0.35789466 0.13127056 0.7627727
000130 bd c3 70 3e 15 cb 6d bf 31 1e 6f 3e 18 b3 0d be
       0.23512168 -0.92888004 0.23351361 -0.1383785
000140 90 9a 36 bf 62 10 a6 3e 59 7c 22 be 19 ad 27 bf
       -0.71329594 0.32434374 -0.15867747 -0.654985
000150 34 33 dd 3d a0 66 0b be af 4f 02 bf 59 3e a9 3e
       0.10800782 -0.13613367 -0.5090284 0.3305538
000160 85 08 84 be 9e be 2b 3e 90 86 07 be bf 3c 19 bf
       -0.2578775 0.16771933 -0.13234925 -0.59858316
000170 8a 8d 8b 3e db 10 78 bd 53 30 39 bd 7e 8f 9f 3e
       0.27256423 -0.06056295 -0.0452121 0.31164163
000180 7a a8 2d be 0d 15 34 be ec 8a 7a 3d 28 5a 0d bf
       -0.169588 -0.17586155 0.061167642 -0.5521569
000190 82 27 a0 3e f2 96 b7 be 9f 4a c7 be 67 57 23 3e
       0.31280142 -0.3585735 -0.3892412 0.1595131
0001a0 d3 d6 6b be 24 a5 05 bf e2 8d ee 3d 23 7c 2f be
       -0.23031168 -0.5220511 0.11648156 -0.17137198
0001b0 01 be ce be 66 ad 8c 3e 30 e6 75 3f 24 cb 8e bc
       -0.40379336 0.27476043 0.96054363 -0.01743085
0001c0 05 56 f7 3c a0 fa 3c 3f ba dc e6 bc 8f 9c 3e 3d
       0.030192384 0.73819923 -0.028181423 0.046536025
0001d0 8e ec 15 41 c1 35 cb 3d 0f fa d2 3d 90 aa 7e 3e
       9.370253 0.09922362 0.10301601 0.24869752
0001e0 0d 73 24 be 77 b7 a0 bd 2d 81 b5 3c be df 83 be
       -0.16059513 -0.07847493 0.022156322 -0.2575664
0001f0 22 b0 17 be ad 8a 0b 3e 7a 76 c7 bd 8c e0 a6 3f
       -0.14813283 0.1362712 -0.097393945 1.3037276
000200 31 4c 75 3e 72 10 be bd ef 0d 3d 3d 01 1d 0a 3d
       0.23954846 -0.092804804 0.046155866 0.033719067
000210 7a 7c f4 be cc 0f 1f be 10 68 bf 3e fc 07 ff 3e
       -0.47751218 -0.1553337 0.3738408 0.4981078
000220 f3 3f 90 be ff fc a8 3e ae d6 f0 3e 36 20 b2 be
       -0.2817379 0.3300552 0.47038788 -0.347902
000230 c0 1e 50 3e 7b f3 e4 3d af f5 69 bc bc e6 d0 3f
       0.2032423 0.11179253 -0.014279767 1.6320415
000240 e4 4d 10 3c 09 26 db bd 54 2e 5f 3e 8c 70 4c 3e
       0.008807633 -0.10700614 0.21795017 0.19964808
000250 a3 22 8b be b5 36 41 41 f4 f2 be bb 6a 36 a7 3c
       -0.27174863 12.075856 -0.005827302 0.020411689
000260 d4 05 e1 3d a0 6f 20 bf 01 e7 21 be 2f 65 26 be
       0.1098744 -0.62670326 -0.15810777 -0.16249536
000270 80 2a 97 bd 70 4b 82 3e a6 5f 92 3d 4a bf 75 bd
       -0.07381153 0.2544818 0.0714715 -0.05999688
000280 c9 77 41 40 e7 c6 12 be ac 9f 51 bc 36 ec 9d 3e
       3.022936 -0.14333688 -0.012794416 0.30844277
000290 39 99 79 3e 4b dc 71 bb e3 03 41 3d b1 01 61 be
       0.24374856 -0.0036904986 0.047122847 -0.21973301
0002a0 1b f6 98 bd 4d 8b 43 3d 8a 54 c5 bd c6 ba 34 40
       -0.07468816 0.04774027 -0.09635265 2.8238997
0002b0 8f ac 90 bd 3d 19 69 bd 7b f5 75 3e 78 26 70 3e
       -0.07064163 -0.056908835 0.24019425 0.23452175
0002c0 57 5e 7d be 79 ba 1b be ec 22 61 3e b8 5e e4 3e
       -0.24743019 -0.15207852 0.21985978 0.44603515
0002d0 27 fe 1c be ae ff 0e 3e f2 96 0a 3f 21 f2 e4 bd
       -0.15331326 0.13964722 0.54136574 -0.11178995
0002e0 45 ee 99 3e a8 43 9e 3d 91 1d c7 bd ed 51 03 bf
       0.30064598 0.07727748 -0.09722436 -0.51296884
0002f0 a0 41 72 be a3 ef 7f 3e 67 6f 92 3f a1 32 76 be
       -0.23657846 0.24993758 1.1440247 -0.24042751
000300 48 2e ab 3e 6a d0 de 3f 11 4f c2 be e9 81 ea 3e
       0.33433747 1.7407353 -0.37950948 0.4580224
000310 28 ba 05 3f 0c e1 17 3e 85 f7 92 bf b6 ee 86 bd
       0.52237177 0.14831942 -1.1481787 -0.06588499
000320 c0 b6 9d 3e 50 cd 96 3f 87 89 90 be 38 7b c7 3d
       0.3080349 1.1781406 -0.28229925 0.09740299
000330 7b a2 b6 3f 24 d6 0b be ab 79 2d 3e b5 e9 20 3f
       1.4268335 -0.13655907 0.16940944 0.6285661
000340 7e e3 f0 3e 1d 0e 3e bf 39 6b c9 be ce 4a 83 3e
       0.47048563 -0.74240285 -0.39339617 0.2564301
000350 4c f9 1d 3f 36 a1 c3 be a5 ff 05 3f 4e fe 51 3e
       0.6170852 -0.38208932 0.5234321 0.20507166
000360 73 96 5e be 5a bd 0c 3e 49 47 cf 3c 3d 7e e9 3d
       -0.2173708 0.13744107 0.025302546 0.11401031
000370 62 a0 1d 3f 07 3a 84 3d dd 90 50 be 9c da 14 3f
       0.6157285 0.0645638 -0.20367761 0.5814607
000380 6d 00 20 3e 81 af 90 be 9a 86 8f 40 71 d9 a6 3e
       0.15625162 -0.282589 4.485181 0.3258777
000390 11 b1 16 be b7 c2 8d 3e 42 5b 8e bd af fb bf be
       -0.14715983 0.27687618 -0.06951 -0.37496707
0003a0 4f fd 80 be a8 71 e7 3d 83 41 46 3e ff 9c 63 be
       -0.2519326 0.11300975 0.19360928 -0.22227858
0003b0 2b 34 0c 3e e3 64 93 be 28 84 87 be 8b 0b 7c 3e
       0.13691776 -0.28787908 -0.26468015 0.24613778
0003c0 03 b9 3f 3e 33 65 d2 3d 16 6f 35 bf ce a6 95 be
       0.1872292 0.102732085 -0.7087263 -0.29228824
0003d0 df d9 90 3e 12 e1 7f 3f 89 b1 0e be cd a0 ce 3e
       0.28291222 0.99952805 -0.13934912 0.40357056
0003e0 a8 a7 df 3e fa fc 12 be 50 e4 1f 3e 85 6c 13 3f
       0.436826 -0.14354315 0.15614438 0.5758746
0003f0 45 49 a4 3e 78 fd 66 bf 09 5f b3 be 49 f2 77 3e
       0.3208715 -0.9023051 -0.35033444 0.24213518
