rlgpu/logs/cut_normalized/model_285.pt (torch, 868312 bytes, 16 tensors)

log_std f4 [3]
0	0xbf2c8da4	-0.67403626
1	0xbec74fdc	-0.38928115
2	0x3dc2329d	0.0948231

actor.0.weight f4 [256, 259]
0	0x3d0886ba	0.03333161
1	0x3d51e740	0.051245928
2	0x3d5bf5d1	0.053701226
3	0xbcd82c3f	-0.026388286
4	0xbd893271	-0.06699074
5	0x3d8a570f	0.06754886
6	0x3d5d3e57	0.05401453
7	0xbd99f289	-0.07516963
8	0x3cfd2e43	0.030905848
9	0x3d0487f2	0.03235621
10	0x3c99223d	0.018693084
11	0xbdb8caa0	-0.09023023
12	0x3d8f6ee3	0.07003572
13	0xbdcf2114	-0.10113731
14	0xbcc34468	-0.02383633
15	0xbdba29f4	-0.09090033
16	0xbd0c00aa	-0.03418032
17	0xbd0b83d1	-0.034061257
18	0xbe1fb859	-0.15597667
19	0x3d08b436	0.033374988
20	0x3d78392c	0.0606014
21	0xbdb41ac2	-0.08794166
22	0xbdc659bb	-0.096850835
23	0x3c87da1a	0.016583491
24	0x3dd723fa	0.10504909
25	0xbbb82b78	-0.0056204163
26	0x3d88eaa7	0.066853814
27	0xbc5fbb1e	-0.013655452
28	0xbbb62ba3	-0.005559401
29	0xbd4c95ec	-0.049947664
30	0x3bcd1df4	0.006259674
31	0xbdb33ce4	-0.08751848
32	0x3cdf1320	0.0272308
33	0x3dda48f4	0.10658446
34	0x3daa74b0	0.083230376
35	0xbd24bb82	-0.040217884
36	0x3d473b55	0.048640568
37	0xbc9c0822	-0.019046847
38	0xbd66d163	-0.05635203
39	0x3bad25ad	0.0052840323
40	0xbc699dd3	-0.01425882
41	0xbd00b8ab	-0.031426113
42	0x3e303c01	0.1721039
43	0x3e1bb3f3	0.15205364
44	0xbddd756d	-0.10813413
45	0x3e17e195	0.14832146
46	0x3d9cbace	0.07652818
47	0xbda12df6	-0.078700945
48	0x3c892183	0.016739612
49	0xbda56d4c	-0.08077487
50	0xbd1b55e3	-0.037923705
51	0xbe0fb2c0	-0.14033031
52	0xbd289534	-0.041157916
53	0x3dc5e768	0.09663278
54	0xbd87048a	-0.06592663
55	0x3d681930	0.056664646
56	0x3e5ba5e9	0.21450008
57	0x3db0975a	0.08622618
58	0x3bf12e5f	0.007360264
59	0xbe229622	-0.15877584
60	0x3c88be15	0.0166922
61	0xbd3e5ffd	-0.04647826
62	0xbbc450ad	-0.0059910626
63	0x3c193cb9	0.009352856
64	0xbd4dd868	-0.05025521
65	0x3d0050d7	0.031327095
66	0xbdce7aaf	-0.10081994
67	0x3d9abebd	0.07555912
68	0xbcd6a88f	-0.026203422
69	0xbd2156b9	-0.039389346
70	0xbda1089b	-0.078629695
71	0x3d92f8bb	0.07176348
72	0xbdac88bf	-0.0842452
73	0xbcc687b5	-0.024234632
74	0xbce1ec98	-0.027578637
75	0xbd32f7fe	-0.043693535
76	0xbe84e45d	-0.25955477
77	0xbc76849b	-0.015046264
78	0x3d0e0441	0.034672026
79	0xbcc29f6b	-0.023757657
80	0x3d200ed6	0.03907665
81	0x3dff5744	0.124678165
82	0xbddcc45f	-0.10779642
83	0x3bf9f172	0.0076276595
84	0xbd5e8570	-0.054326475
85	0x3e0afbf4	0.13572675
86	0xbd873e87	-0.06603723
87	0xbe05cfcc	-0.1306755
88	0xbdbdea04	-0.092731506
89	0xbde1f40a	-0.11032875
90	0x3d8dcd42	0.069239154
91	0x3d716a63	0.05893935
92	0x3c1406c4	0.009034816
93	0x3d0c72c3	0.034289133
94	0x3e2a95ab	0.16658656
95	0x3dfa33d5	0.122169174
96	0xbd014d42	-0.03156782
97	0xbd920b93	-0.07131114
98	0xbca4b706	-0.020106804
99	0x3db12cd9	0.08651132
100	0x3d80e367	0.062933736
101	0xbdc832bd	-0.097753026
102	0xbc6aff20	-0.014343053
103	0xbc2d916d	-0.010593754
104	0x3dd9f9ba	0.10643335
105	0xbd4cf774	-0.050040677
106	0xbd4d8af2	-0.050181337
107	0x3dd24329	0.10266716
108	0xbc53e0f1	-0.012932048
109	0x3e516948	0.20450318
110	0xbd05058a	-0.032475986
111	0x3df0aeaf	0.11752068
112	0x3c87e687	0.016589416
113	0xbd45b2f4	-0.048266366
114	0xbdef621c	-0.11688635
115	0xbdd65018	-0.104644954
116	0xbd72e9e7	-0.059305098
117	0x3dc0640f	0.09394085
118	0xbdabe926	-0.08394079
119	0xbc762fc8	-0.01502604
120	0xbd95d13d	-0.073153
121	0x3e1e0c9c	0.15434498
122	0xbdd1d0ed	-0.102449276
123	0x3b58e214	0.0033093737
124	0x3d3fd139	0.04683039
125	0x3de17b05	0.11009792
126	0x3c86324b	0.016381403
127	0xbd42de3f	-0.04757523
128	0x3d53aeda	0.051680423
129	0x3ddde094	0.108338505
130	0x3d8cdd66	0.06878166
131	0x3d81c8ec	0.06337151
132	0xbd91122d	-0.07083545
133	0xbd724b54	-0.05915387
134	0xbd905475	-0.07047359
135	0x3e3ed600	0.18636322
136	0xbd8ff718	-0.07029551
137	0xbdc080c9	-0.09399564
138	0x3d91bf40	0.07116556
139	0xbdd74f53	-0.10513177
140	0x3d0da692	0.034582682
141	0xbe405448	-0.18782151
142	0xbc87215d	-0.016495401
143	0xbc715bef	-0.014731391
144	0xbdbff97a	-0.09373756
145	0x3c08997d	0.008337376
146	0x3e07b230	0.13251567
147	0xbbbb441e	-0.0057149073
148	0xbd9cc4eb	-0.076547466
149	0xbdacc1c9	-0.08435399
150	0xbe07f11e	-0.13275573
151	0x3dad16bf	0.08451604
152	0xbe266af1	-0.16251732
153	0x3c75775e	0.014982073
154	0xbca18694	-0.019717492
155	0x3e018616	0.12648806
156	0x3e1fd1d6	0.1560739
157	0x3d83c33f	0.064337246
158	0xbd5a4d27	-0.053296234
159	0x3e00e23a	0.12586299
160	0x3dea65b9	0.11445183
161	0x3d35aeff	0.044356342
162	0xbe08c29c	-0.13355488
163	0xbdaa2609	-0.08308036
164	0xbbe4a638	-0.0069778226
165	0x3d3ca6cf	0.04605752
166	0xbd6fc9dc	-0.058542117
167	0xbce8605e	-0.028366264
168	0xbe43a8bf	-0.1910734
169	0xbd86b231	-0.06576956
170	0x3d8202f7	0.06348222
171	0xbe21ddca	-0.15807262
172	0x3d7d9e88	0.061918765
173	0x3dd65e6f	0.104672305
174	0x3d841397	0.06449049
175	0xbd31a3a8	-0.043368965
176	0x3df5f4e3	0.12009599
177	0xbda2dafc	-0.07951924
178	0xbdb3b729	-0.087751694
179	0xbc7b0659	-0.015321338
180	0x3e0ab0e6	0.13544044
181	0x3cf93e5b	0.030425241
182	0xbdafa9bf	-0.085772984
183	0x3cc7f500	0.024408817
184	0xbe4d1621	-0.20027973
185	0xbcb8c647	-0.022555484
186	0x3d17a6b6	0.037024222
187	0xbd39252b	-0.04520146
188	0xbdea4eaf	-0.11440789
189	0xbd9d5486	-0.07682137
190	0xbe21bc97	-0.15794598
191	0xbd745050	-0.059646904
192	0xbcce4a74	-0.025181986
193	0xbd31322e	-0.043260746
194	0x3e28719b	0.16449587
195	0x3d3afee9	0.045653258
196	0x3df17f28	0.11791831
197	0xbcb68895	-0.022281924
198	0xbcd1a3b5	-0.025590757
199	0x3e1845b6	0.14870343
200	0xbd15120a	-0.036394157
201	0xbe69af8e	-0.22820875
202	0x3c73ede8	0.014888264
203	0x3dc2e073	0.095154665
204	0x3dadea2c	0.0849193
205	0xbd362faf	-0.04447907
206	0x3db9ae2b	0.09066423
207	0xbcb6b0cc	-0.0223011
208	0xbdc4c6e8	-0.09608251
209	0xbe44f447	-0.1923381
210	0xbd6f9a67	-0.05849686
211	0x3d3b0a8d	0.04566436
212	0xbd5a4208	-0.05328563
213	0xbdabbcae	-0.08385597
214	0xbcabaaaa	-0.020955402
215	0x3e52cdbd	0.20586295
216	0x3d957199	0.07297058
217	0x3d301a95	0.0429941
218	0xbd863ab9	-0.06554169
219	0x3da6b520	0.081400156
220	0x3d882baf	0.06648957
221	0xbc1e715e	-0.0096705835
222	0xbb4d24eb	-0.0031302522
223	0xbc1ae1ad	-0.009453219
224	0xbe02fdd7	-0.12792145
225	0x3d75cd4e	0.060010247
226	0xbd2dc50d	-0.04242425
227	0xbde83816	-0.113388225
228	0x3dbc9e18	0.092098415
229	0x3d3a1aee	0.04543584
230	0x3d914e68	0.07095033
231	0x3ccb1f77	0.024795277
232	0x3dc6ea99	0.09712715
233	0x3d8cb4eb	0.06870445
234	0xbdc42b3e	-0.0957856
235	0x3c985b50	0.018598229
236	0xbdebf3ce	-0.115211114
237	0xbe2989d4	-0.16556484
238	0x3ce8d93a	0.028423894
239	0xbd892f61	-0.0669849
240	0xbcdcbd16	-0.026945632
241	0xbe2464b5	-0.16054042
242	0x3e06a88a	0.1315023
243	0xbc757734	-0.0149820335
244	0x3dddd004	0.108306915
245	0x3d9fb482	0.07798101
246	0x3c04c993	0.0081047
247	0x3c97ac5b	0.018514803
248	0x3e1a085d	0.15042253
249	0xbd082833	-0.033241462
250	0x3dd0cca4	0.10195282
251	0xbc751bd5	-0.014960249
252	0xbdbbc26c	-0.091679424
253	0x3daeac6a	0.08528979
254	0xbc9b3ad1	-0.018948944
255	0x3d22e71e	0.03977119

actor.0.bias f4 [256]
0	0xbcdf19d9	-0.027234005
1	0xbd584f59	-0.052810047
2	0xbc8664d6	-0.016405504
3	0xbceb724f	-0.02874103
4	0xbcacf1b6	-0.02111135
5	0x3c8d5415	0.017252007
6	0x3d73a4d4	0.059483364
7	0x3c47f380	0.012204051
8	0xbc19cada	-0.0093867425
9	0x3d409119	0.047013376
10	0x3d3fea06	0.04685404
11	0x3cc15d7d	0.023604149
12	0x3d6fe028	0.05856338
13	0x3c8f25e2	0.017474119
14	0xbd02d9f2	-0.03194613
15	0x3cabfc91	0.020994456
16	0x3cd29156	0.025704067
17	0x3bd8e9ad	0.006619653
18	0x3bb9d809	0.0056715054
19	0xbd229953	-0.039697003
20	0x3b9ef5e1	0.0048510884
21	0xbc6007a0	-0.013673693
22	0x3d2165f1	0.03940386
23	0xbd742f45	-0.059615392
24	0x3c8b0d0d	0.016973997
25	0xbd313ffd	-0.043273915
26	0xbcb6ba96	-0.022305768
27	0x3cc69376	0.024240237
28	0xbd71691c	-0.05893813
29	0xbcb768fe	-0.022388931
30	0x3cd7bebb	0.026336065
31	0xbcb28a92	-0.021794591
32	0x3b807b3e	0.0039209416
33	0x3d4aba7b	0.049494248
34	0x3ba85948	0.0051375963
35	0xbd1633fd	-0.036670674
36	0xbd60a756	-0.054847084
37	0x3d1aa570	0.03775543
38	0x3d25f2c4	0.040514722
39	0xbd014b9d	-0.03156625
40	0x3d772389	0.060336623
41	0xba8c5fb4	-0.0010709674
42	0x3d526fbf	0.0513761
43	0x3ccc6a73	0.024953103
44	0xbd9cd93d	-0.076586224
45	0x3d5b652f	0.053563293
46	0xbd3b8f24	-0.045790806
47	0x3d7f0ee3	0.062270056
48	0x3d1a43b4	0.037662223
49	0xbce610ee	-0.028084245
50	0xbd281922	-0.041039594
51	0x3d52272a	0.05130688
52	0x3cdf65f0	0.027270287
53	0x3d198e0f	0.037488993
54	0xbd18c108	-0.037293464
55	0xbd2c9318	-0.042132467
56	0xbb975649	-0.0046184403
57	0xbb53cad6	-0.0032316945
58	0xbc71a4e7	-0.014748788
59	0x3be18d23	0.00688328
60	0x3ccfa8fe	0.025349136
61	0xbd37e743	-0.044898283
62	0xbd40dbea	-0.047084726
63	0x3d9d02ac	0.07666525
64	0xbd76baf6	-0.060236894
65	0xbd7953a9	-0.0608708
66	0xbc582be3	-0.013194057
67	0x3c309779	0.010778301
68	0x3d0c9116	0.034318052
69	0xbcd48286	-0.025941145
70	0xbcc3e631	-0.023913475
71	0xbc2a2e4d	-0.0103870155
72	0x3d0d74f0	0.03453535
73	0xbd0d9b30	-0.034571826
74	0x3a68cc95	0.0008880583
75	0xbd5e1fa2	-0.054229386
76	0xbc8f546b	-0.017496308
77	0x3cff4395	0.031160155
78	0xbd06972e	-0.03285902
79	0xbd454e69	-0.04817048
80	0x3d0826c2	0.033240087
81	0xbd6820c7	-0.056671884
82	0xbd7a9f8b	-0.06118731
83	0x3d0b7dfa	0.034055687
84	0x3d1c803f	0.038208243
85	0xbd6e93cc	-0.05824642
86	0xbd85c9dd	-0.06532643
87	0xbd479c7a	-0.048733212
88	0x3cd2be6d	0.025725568
89	0xbc9ff0a2	-0.019523922
90	0xbd6f614a	-0.05844239
91	0x3d2495b8	0.040181845
92	0xbc70a00f	-0.014686598
93	0xbad8b2b2	-0.0016532748
94	0xbd04a3cf	-0.032382783
95	0x3c8e8f3f	0.01740229
96	0x3d11b72e	0.035575084
97	0x3d1920f0	0.037384927
98	0xbcd73404	-0.02626992
99	0x3c9342b6	0.017976146
100	0xbcf7ea35	-0.030263046
101	0xbb7b4aeb	-0.0038344215
102	0xbd328b66	-0.043589972
103	0xbd939b40	-0.07207346
104	0x3afe398f	0.0019395816
105	0xbd48b87d	-0.049004067
106	0x3cd3dfa3	0.025863474
107	0x3c131de5	0.008979295
108	0x3c470c98	0.012148999
109	0x3cef2031	0.029190155
110	0xbc0584ce	-0.008149339
111	0x3cef20f8	0.029190525
112	0x3d308911	0.043099467
113	0xbd410eff	-0.047133442
114	0xbb3862f5	-0.0028135155
115	0x3c2fe5ef	0.010735973
116	0xbd13daee	-0.03609746
117	0xbd1b59b9	-0.037927363
118	0xbd19ea34	-0.03757687
119	0xbd723d2c	-0.05914037
120	0xbc79af61	-0.0152395675
121	0xbd12578d	-0.035728026
122	0xbca3fbad	-0.02001747
123	0xbd8599e8	-0.06523496
124	0x3c66b0de	0.014080254
125	0x3d2df5a9	0.042470608
126	0xbd25f835	-0.04051991
127	0xbd4836b5	-0.048880298
128	0xbc180e43	-0.009280744
129	0xbd4bf9f0	-0.049798906
130	0x3cfc62ab	0.030808767
131	0x3c6e2d83	0.014537218
132	0xbd819861	-0.06327892
133	0xbb3afae3	-0.0028530888
134	0xbbc437e1	-0.0059881066
135	0xbd17033b	-0.036868315
136	0xbd5a1563	-0.053243052
137	0xbd7fda80	-0.062464237
138	0xbd1cd2ec	-0.03828709
139	0x3c196eff	0.009364842
140	0xbd6f7ecd	-0.058470536
141	0x3cab1d9d	0.020888144
142	0x3ca5033b	0.020143142
143	0x3d0b4e9c	0.034010515
144	0x3d97a3fb	0.07404324
145	0xbc4e7e35	-0.012603332
146	0x3c95b9fb	0.018277159
147	0x3ce5a8ce	0.028034594
148	0xbbf797eb	-0.007555952
149	0x3d07b00d	0.03312688
150	0x3cc63e76	0.024199706
151	0x3d7319c2	0.059350736
152	0xbcd23f1f	-0.025664864
153	0x3cfe1330	0.031015009
154	0x3d075f61	0.033049945
155	0x3d21a73e	0.039466135
156	0xbd4827d2	-0.0488661
157	0x3d2e6b9a	0.042583086
158	0xbc61e7af	-0.013788148
159	0xbd0dea74	-0.03464742
160	0xbd96791d	-0.07347319
161	0x3ce822ea	0.02833696
162	0x3ca92752	0.020648632
163	0x3bb39888	0.0054808296
164	0xbcf18106	-0.029480468
165	0xbd61bbba	-0.05511067
166	0x3db623c5	0.08893541
167	0xbbbfda83	-0.005854906
168	0x3cee3248	0.02907671
169	0xbcad7bd5	-0.021177212
170	0xbd489fed	-0.048980642
171	0x3d14aba2	0.036296494
172	0xbafe0b54	-0.0019382038
173	0x3d4e65a5	0.050389905
174	0xbd4e08ce	-0.050301366
175	0xba95e5c4	-0.0011436273
176	0x3caec874	0.021335818
177	0x3d4c37bb	0.049857836
178	0x3c7de94b	0.015497516
179	0x3d93cf1a	0.07217236
180	0xbd3f5511	-0.046711985
181	0xbd744ed3	-0.059645485
182	0xbd49ea3e	-0.049295656
183	0x3d8a8fe6	0.06765728
184	0x3c4c1484	0.012456063
185	0xbad7a8c9	-0.00164535
186	0x3d5a01c3	0.053224336
187	0xbc8a36dc	-0.016871862
188	0xbd808f3c	-0.0627732
189	0xbcfe6920	-0.031055987
190	0x3b3a0a2d	0.0028387413
191	0xbcbae662	-0.022814933
192	0xbcf8e5d2	-0.030383024
193	0xbd867d6d	-0.06566892
194	0xbd4ca707	-0.049963977
195	0xbc1da592	-0.009621995
196	0x3d4d215a	0.050080635
197	0x3d97e66b	0.074169956
198	0x3c4b8c60	0.012423605
199	0x3d7d5f51	0.06185848
200	0xbd61705a	-0.055038787
201	0x3cb174f1	0.021662207
202	0x3d34c312	0.044131346
203	0xbc2bf4db	-0.01049539
204	0xbd8e6632	-0.06953086
205	0x3a8fd6eb	0.0010974085
206	0xbc437ed1	-0.011932091
207	0xbcf78bc3	-0.03021801
208	0x3ce49c23	0.027906483
209	0xbcafc1ed	-0.021454776
210	0xbd0eeb5d	-0.03489243
211	0xbcbe31c8	-0.023217097
212	0x3d1ef8dd	0.038811553
213	0xbca10824	-0.019657202
214	0x3d4354ba	0.047688223
215	0x3cbf5c68	0.023359492
216	0x3c1e8d91	0.009677307
217	0xbc4f9110	-0.012668863
218	0xbb4da00f	-0.003137592
219	0xbd193065	-0.03739967
220	0xbd03a59d	-0.032140363
221	0xbd445a27	-0.04793754
222	0xbc9c90e7	-0.019112064
223	0xb9a3a2c0	-0.0003121104
224	0x3d4e900e	0.05043035
225	0x3d3e3044	0.04643275
226	0x3c8eb02a	0.017417986
227	0x3cfe32aa	0.031030018
228	0x3d6e26a8	0.058142334
229	0x3d6f13d6	0.058368526
230	0xbd55eff8	-0.052230805
231	0xbd34e7b8	-0.044166297
232	0x3c163d5b	0.009169902
233	0xbcbcc6e8	-0.023044065
234	0x3ae6ccfb	0.0017608696
235	0xbd43bbdd	-0.047786582
236	0xbcbaf48f	-0.022821693
237	0x3c75e438	0.015008025
238	0xbd7a0c64	-0.061046973
239	0xbd77d917	-0.060509767
240	0xbb398179	-0.0028305931
241	0x3cf09e5a	0.029372383
242	0xbd46f9f2	-0.04857821
243	0xbbb10c32	-0.005403065
244	0xbd9dcf19	-0.07705516
245	0x3d2a45a5	0.041570324
246	0x3d18628d	0.03720336
247	0xbd111efe	-0.035429947
248	0x3ca49bd3	0.020093834
249	0xbc48d46e	-0.012257678
250	0x3d2d6687	0.042334106
251	0x3d0a048d	0.033695746
252	0x3d24a51c	0.040196523
253	0x3d052efe	0.03251552
254	0x3aed8cf8	0.0018123677
255	0x3d33cb91	0.043895308

actor.2.weight f4 [128, 256]
0	0xbd40e1a3	-0.047090184
1	0x3e2cac39	0.16862573
2	0xbe33215d	-0.17493196
3	0x3c650e6e	0.013980491
4	0xbd743624	-0.059621945
5	0xbe344c43	-0.17607217
6	0x3cf7954a	0.030222554
7	0x3e054bae	0.13017151
8	0x3cd72228	0.026261404
9	0x3e322363	0.17396311
10	0xbd82eafd	-0.06392477
11	0xbdf3f291	-0.119115
12	0xbd8bc218	-0.0682413
13	0x3daf595d	0.085619666
14	0x3cf3d134	0.029762842
15	0x3cf588c1	0.029972436
16	0xbe49ed81	-0.19719507
17	0xbd8e782f	-0.06956517
18	0xbd77305e	-0.06034886
19	0x3dc5330c	0.09628877
20	0x3e883507	0.26602957
21	0xbcb816e7	-0.022471858
22	0xbe0913d4	-0.1338647
23	0x3da3c334	0.079962164
24	0xbe2319ab	-0.1592776
25	0xbe19c587	-0.15016757
26	0x3c91bed5	0.017791191
27	0x3cf364cc	0.02971115
28	0xbd761f6f	-0.06008857
29	0x3c0c6f8d	0.008571518
30	0xbd3bd24e	-0.04585486
31	0xbc81177e	-0.015758272
32	0x3d2ca80e	0.042152457
33	0xba65db9d	-0.00087683817
34	0x3d9b32b4	0.0757803
35	0x3d8322cb	0.064031206
36	0xbe3a74aa	-0.18208566
37	0x3c7de9f8	0.015497677
38	0x3de14d1f	0.11001038
39	0xba90a8f6	-0.0011036682
40	0x3d8465fb	0.06464764
41	0x3e08d5f9	0.13362874
42	0xbd7d6184	-0.061860576
43	0x3d6f1b73	0.058375787
44	0x3d6f5fdd	0.05844103
45	0xbdbf18fd	-0.09330938
46	0x3d82c776	0.063857004
47	0xb9288a15	-0.00016073168
48	0x3d0723be	0.03299307
49	0xbe4522c5	-0.19251545
50	0xbb3aeb4d	-0.0028521598
51	0x3d9c0553	0.07618203
52	0xbd17a3cd	-0.037021447
53	0xbd8a6042	-0.06756641
54	0x3cf2759b	0.029597094
55	0xbcd21089	-0.02564265
56	0xbe437a0c	-0.19089526
57	0x3b87536d	0.004129818
58	0x3d0fa46b	0.03506891
59	0xbcb5d95e	-0.022198375
60	0xbd128ffc	-0.035781845
61	0x3e0f98ad	0.14023085
62	0x3da88fa7	0.082305245
63	0xbe63a648	-0.222314
64	0x3d9d3fe7	0.07678204
65	0xbde4f95e	-0.111803755
66	0x3d117d2c	0.035519764
67	0xbd8c6c0a	-0.06856544
68	0xbc7ea4e7	-0.0155422455
69	0xbda0b70e	-0.07847415
70	0xbdb75c91	-0.089532025
71	0xbd253fdc	-0.040344104
72	0xbd970c89	-0.07375438
73	0xbbd7a0be	-0.0065804413
74	0xbcfeb8e6	-0.031094026
75	0x3dff9c4e	0.12480985
76	0xbe04fe8a	-0.12987724
77	0xbc9224aa	-0.017839748
78	0xbc747a30	-0.01492171
79	0x3da35585	0.07975296
80	0x3ce6fcb5	0.028196672
81	0x3c681c02	0.014166834
82	0x3dcd509a	0.10025139
83	0xbe2670cd	-0.16253968
84	0x3d8c98a7	0.068650536
85	0xbd3d3a7e	-0.04619836
86	0xbdc50823	-0.096206926
87	0x3e85aace	0.26106876
88	0xbc6b9823	-0.014379534
89	0xbde1f925	-0.11033849
90	0x3cccafc7	0.02498616
91	0x3bc3c35c	0.0059742164
92	0x3c137b3c	0.009001549
93	0x3d1ca54c	0.038243577
94	0xbc4a8469	-0.012360671
95	0x3db1dac5	0.08684305
96	0x3c11a644	0.0088897385
97	0x3c88ecc1	0.016714456
98	0xbd5d5539	-0.054036353
99	0x3c568d55	0.01309522
100	0xbddd8724	-0.10816792
101	0x3e2042ca	0.15650478
102	0x3d97df76	0.07415669
103	0x3e3dfe76	0.185541
104	0x3d15f588	0.03661111
105	0xbd34007f	-0.043945786
106	0x3d4f57d6	0.050620876
107	0x3d8a46de	0.06751798
108	0xbdbff4ae	-0.09372841
109	0x3bfe872e	0.0077675795
110	0x3d882616	0.06647889
111	0x3d007711	0.03136355
112	0xbda236ec	-0.07920632
113	0x3ca4fc0c	0.020139717
114	0xbde00192	-0.109377995
115	0xbdb125b7	-0.08649772
116	0x3daa7232	0.08322562
117	0xbcae1049	-0.021248
118	0xbd3bc037	-0.045837607
119	0x3b981fd6	0.004642467
120	0xbd0fff37	-0.0351555
121	0x3e1c0e26	0.15239772
122	0x3d1502a3	0.036379468
123	0xbd679fd1	-0.056548897
124	0xbd8fa9fd	-0.070148446
125	0x3d97987e	0.074021325
126	0x3d3b04a7	0.045658734
127	0x3e047218	0.12934148
128	0x3daf879a	0.08570786
129	0x3d09f2bb	0.03367875
130	0x3d749a59	0.05971751
131	0x3d0958c4	0.03353192
132	0xbd9c0972	-0.07618989
133	0x3e19d3cb	0.15022199
134	0xbd2097b4	-0.039207175
135	0x3d3ab4c1	0.045582537
136	0xbd12a374	-0.035800412
137	0x3df329a4	0.11873177
138	0xbe07e07e	-0.1326923
139	0xbe0b95f5	-0.13631423
140	0x3daa9ff0	0.08331287
141	0x3c502dcc	0.012706231
142	0x3bb22f00	0.0054377317
143	0xbe285702	-0.16439441
144	0xbc980b48	-0.018560067
145	0xbd9a2e14	-0.0752832
146	0x3da730da	0.081636146
147	0xbb83b3b4	-0.004019225
148	0x3d8e856d	0.06959043
149	0x3d9f599a	0.07780762
150	0x3d9bf280	0.076146126
151	0x3d6c9816	0.057762228
152	0xbcf7707a	-0.030205
153	0x3e101a30	0.1407249
154	0xbc2e2329	-0.0106285
155	0x3cff650d	0.031176114
156	0x3cfdaf90	0.030967504
157	0xbdaa8aa9	-0.083272286
158	0x39da54cf	0.00041643388
159	0xbd9242a3	-0.07141616
160	0x3e8a5182	0.2701531
161	0xbe234fd6	-0.15948424
162	0xbbb63084	-0.0055599827
163	0xbc3eb958	-0.011640869
164	0xbc9a73d5	-0.018854061
165	0xbe5a8265	-0.21338804
166	0xba8bfde2	-0.0010680521
167	0xbe06f0a9	-0.13177742
168	0x3d8b1209	0.06790549
169	0xbca7dbaf	-0.020490495
170	0x3d02465f	0.031805392
171	0x3d88e2f3	0.06683912
172	0xbddbf29c	-0.107396334
173	0x3d904340	0.07044077
174	0x3c9d7402	0.019220356
175	0x3c806cd3	0.015676891
176	0xbdb83e7e	-0.089962944
177	0x3e3000f6	0.17187867
178	0x3df6b6d1	0.12046588
179	0x3cc0ca41	0.023533942
180	0xbd48a6f6	-0.04898735
181	0xbd7c6cdd	-0.061627258
182	0xbdd84f45	-0.105619945
183	0x3df9ea22	0.122028604
184	0x3d5c5499	0.053791616
185	0x3d8749bd	0.06605861
186	0xbc6a0c0c	-0.014285099
187	0x3da990e9	0.082795925
188	0xbd2770d4	-0.040879086
189	0x3c4d4262	0.012528034
190	0x3c90fb3d	0.017697925
191	0x3dfee3b4	0.12445775
192	0x3d606fb8	0.054794043
193	0x3d8fcaef	0.070211284
194	0x3ca6df25	0.020370075
195	0xbcd5c560	-0.026095092
196	0xbb2a4c7e	-0.0025985534
197	0xbd3cf857	-0.046135273
198	0x3df96509	0.12177474
199	0x3c1c8f5f	0.009555667
200	0x3d8042d3	0.06262746
201	0xbafb4ab3	-0.0019172042
202	0xbde9f73c	-0.11424109
203	0xbd09c047	-0.033630636
204	0x3cacc8d6	0.02109186
205	0xbd837651	-0.064190514
206	0x3a9dd6a1	0.0012042114
207	0x3dc74528	0.097299874
208	0x3dd8c88a	0.10585125
209	0xbcff8d7e	-0.031195398
210	0x3c53d2ed	0.012928707
211	0xbe1b61b5	-0.15173991
212	0x3dd5e916	0.10444848
213	0xbdf2a845	-0.11848501
214	0x3cd99bc6	0.026563536
215	0xbdd60a74	-0.104512125
216	0x3d1bb9ec	0.038019106
217	0xbe1961b9	-0.14978684
218	0x3d8b19cc	0.0679203
219	0xbdc5cefd	-0.096586205
220	0x3d7a67ad	0.06113403
221	0xbd3ff0d2	-0.046860524
222	0xbca34ae4	-0.019933172
223	0x3dc982c6	0.09839396
224	0x3d8d1657	0.068890266
225	0xbde270ef	-0.110566966
226	0x3dc97346	0.0983644
227	0xbd8985c9	-0.067149706
228	0x3dd5f3fa	0.104469255
229	0xbd93484d	-0.07191525
230	0x3de127ed	0.10993943
231	0xbdd78137	-0.10522693
232	0x3d063dc6	0.032773755
233	0xbbf6799b	-0.0075218207
234	0xbd60c096	-0.054871164
235	0x3bc44e2a	0.005990763
236	0xbde892e3	-0.113561414
237	0x3d5e9fd3	0.05435164
238	0xbd035866	-0.032066725
239	0xbd940674	-0.07227793
240	0x3d89cb8d	0.06728277
241	0xbc9abea0	-0.018889725
242	0x3caa74d3	0.02080766
243	0xbe2e2c99	-0.170092
244	0x3d3e8b9e	0.046519868
245	0x3e6053a6	0.2190691
246	0xbde1ece0	-0.110315084
247	0xbe0d72a5	-0.13813265
248	0x3de51e29	0.11187393
249	0x3cf412e7	0.02979417
250	0xbcbd3c8a	-0.023100156
251	0xbe176c87	-0.14787494
252	0xbda1f85b	-0.07908698
253	0xbac64e1b	-0.0015129478
254	0x3e01f9a5	0.12692888
255	0xbd91e7fe	-0.07124327

actor.2.bias f4 [128]
0	0xbd18d7d1	-0.037315194
1	0x3c286436	0.010277798
2	0xbd445356	-0.047931038
3	0xbca74230	-0.020417303
4	0xbcd7c3e0	-0.026338518
5	0x3cafd103	0.02146197
6	0x3c3aa737	0.011392406
7	0xbca271a5	-0.01982958
8	0xbba2cbc6	-0.0049681393
9	0x3cffa9e6	0.031208944
10	0x3af638ea	0.0018785272
11	0x3d6588a5	0.056038518
12	0xbd7df865	-0.062004466
13	0xbda03663	-0.078228734
14	0xbcbe889e	-0.023258504
15	0xbd8a39c2	-0.06749298
16	0x3be7a2fd	0.0070689903
17	0xbd0b4c72	-0.03400845
18	0xbd14342b	-0.036182564
19	0x3c80af4b	0.015708586
20	0x3cd5e73f	0.026111243
21	0xbd3597c7	-0.0443342
22	0xbd886ea6	-0.066617295
23	0x3d5b404d	0.05352812
24	0xbd6b0cf5	-0.057385404
25	0xbd2985c3	-0.04138733
26	0xbc8afec6	-0.016967189
27	0x3d2f401a	0.04278574
28	0xbc6dcb51	-0.014513806
29	0xbc3480da	-0.011017049
30	0x3cb3fbdf	0.021970687
31	0x3d29627d	0.04135369
32	0xbd0c8ff5	-0.034316976
33	0xbd4244b7	-0.047428813
34	0x3d3f5c50	0.046718895
35	0xbcc2f714	-0.023799457
36	0xbc8f6656	-0.017504852
37	0x3d031f21	0.03201211
38	0x3b63b0c1	0.0034742805
39	0xbd51d781	-0.05123091
40	0x3c1a13fc	0.009404179
41	0x3cc4b0b8	0.024010047
42	0xbc1f06a3	-0.009706172
43	0xbc33cef0	-0.010974631
44	0xba8315ac	-0.0010000966
45	0xbd97864f	-0.07398664
46	0x3bcdbdf1	0.0062787463
47	0xbd8476ef	-0.06467997
48	0xbceb7ade	-0.028745111
49	0x3cfd94c5	0.030954728
50	0xbd892c3c	-0.0669789
51	0xbc9c2ed1	-0.019065293
52	0xbccbbe96	-0.024871152
53	0xbcda7cb2	-0.026670787
54	0x3cc44821	0.023960175
55	0x3d4f7db8	0.050657004
56	0xbccc7332	-0.024957273
57	0x3d1ef000	0.0388031
58	0xbd166608	-0.0367184
59	0x3b94f57e	0.0045458665
60	0x3d19a0ac	0.037506744
61	0x3aa79d73	0.0012788012
62	0x3cddc0ab	0.02706941
63	0x3cc1beca	0.023650546
64	0xbb8a9768	-0.004229475
65	0x3d1eac33	0.03873844
66	0xbc8ed6a6	-0.017436337
67	0x3bdcaa38	0.006734159
68	0x3ca26a6a	0.019826133
69	0xbd041dca	-0.03225497
70	0x3cd58aba	0.026067127
71	0xbd3e898c	-0.046517894
72	0x3ae75611	0.0017649551
73	0xbc80297e	-0.015644785
74	0xbd987372	-0.074438944
75	0x3d1d2a5f	0.038370486
76	0xbbc515e1	-0.006014571
77	0x3ccabf89	0.024749534
78	0xbcdd951f	-0.027048646
79	0xbcdd139e	-0.026986893
80	0xbcf8520c	-0.03031256
81	0xbd9088bc	-0.0705733
82	0x3ce11ff3	0.027481055
83	0xbc36e23a	-0.011162335
84	0xbd62d3a3	-0.055377614
85	0x3d245d39	0.040127967
86	0x3d316f68	0.043319136
87	0xbd75556e	-0.059895925
88	0x3cefb690	0.029261857
89	0xbd3c6b6b	-0.04600088
90	0xbd8886df	-0.066663496
91	0xbd04d207	-0.03242686
92	0xbd960800	-0.07325745
93	0xbd362163	-0.044465434
94	0x3d25ef59	0.040511463
95	0x3afc82a6	0.001926501
96	0xbd73a0cb	-0.059479516
97	0xbc3605a7	-0.011109746
98	0x3a846fc0	0.0010104105
99	0x3a8ce8fb	0.0010750586
100	0x3ba9b8f2	0.005179518
101	0xbbb6e158	-0.0055810623
102	0xbda64042	-0.08117725
103	0xbd26ecea	-0.040753283
104	0xbd05be0f	-0.032651957
105	0xbce904a2	-0.028444592
106	0x3d60b69a	0.054861642
107	0x3b53b1fb	0.003230213
108	0xbd1c1830	-0.038109004
109	0xbda912f1	-0.08255566
110	0x3cec9b2f	0.028882591
111	0xbd090ae7	-0.033457663
112	0xbd2c2846	-0.042030595
113	0xbd5cb513	-0.053883623
114	0x3cbd00d2	0.02307168
115	0x3ce57c46	0.02801336
116	0xbd0d1600	-0.03444481
117	0x3bf35812	0.0074262703
118	0x3d4aab37	0.04947969
119	0xbd77eecc	-0.06053047
120	0xbd24bf56	-0.040221535
121	0xbce6755b	-0.028132131
122	0xbcd2ba55	-0.025723616
123	0xbda18997	-0.07887571
124	0xbd905535	-0.07047502
125	0xbd0a4e57	-0.033766117
126	0xbc558e54	-0.013034422
127	0x3c8819d7	0.016613884

actor.4.weight f4 [64, 128]
0	0xbd944714	-0.072401196
1	0xbcb4ab02	-0.0220542
2	0x3dda0d4d	0.10647068
3	0xbdd363ea	-0.103217915
4	0xbdfac790	-0.12245095
5	0x3c89d869	0.016826825
6	0x3d3395d3	0.043844055
7	0xbe8ce216	-0.2751624
8	0x3d101dde	0.035184734
9	0xbe7ca0cd	-0.24670716
10	0x3e135398	0.14387357
11	0x3e28c42a	0.1648108
12	0xbddc060d	-0.107433416
13	0x3ccccc8e	0.024999883
14	0x3d48e707	0.04904845
15	0xbddfa6a8	-0.10920459
16	0x3e1a1002	0.15045169
17	0xbd4d10bf	-0.0500648
18	0x3e31f09d	0.17376943
19	0xbd7100d0	-0.058838665
20	0xbd90ba18	-0.070667446
21	0x3bf8c51c	0.0075918566
22	0x3dfe6412	0.12421431
23	0xbc000a6f	-0.007814988
24	0xbdef79c9	-0.116931506
25	0x3d22e866	0.039772414
26	0x3da4991e	0.08037017
27	0xbe58eeb5	-0.2118481
28	0x3d9fcd65	0.07802848
29	0xbcb30dad	-0.021857107
30	0x3cd4034c	0.025880478
31	0x3dd3541d	0.10318778
32	0xbc2b2abe	-0.010447202
33	0x3e78e7ba	0.24307147
34	0xbd4bd897	-0.049767103
35	0x3cffffce	0.031249907
36	0x3cb3ce31	0.021948906
37	0x3bad4033	0.005287194
38	0x3b5c1049	0.0033579043
39	0xbdc18c59	-0.09450597
40	0xbd1998df	-0.037499305
41	0xbcd61a8b	-0.026135704
42	0xbe5b16d5	-0.21395428
43	0xbe538fb5	-0.20660289
44	0xbd23558f	-0.039876517
45	0x3d6f451f	0.05841553
46	0x3d201633	0.03908367
47	0xbdac1a9a	-0.08403511
48	0xbd466ccf	-0.04844361
49	0x3d861b19	0.06548137
50	0x3df3e446	0.11908774
51	0x3d67a2ec	0.05655186
52	0x3e99d959	0.30048636
53	0xbde134fe	-0.109964356
54	0xbc5c6de8	-0.013453938
55	0xbd656ca6	-0.05601182
56	0x3e0b8ee5	0.13628729
57	0xbe924eb5	-0.28575674
58	0x3d1ad442	0.03780008
59	0xbddda7fb	-0.10823055
60	0xba377e31	-0.00069997
61	0xbbad45e2	-0.0052878717
62	0x3e3e045f	0.18556355
63	0x3d9bf727	0.076155
64	0x3e86d88f	0.26337096
65	0x3d0594e2	0.03261269
66	0xbec48c29	-0.38388184
67	0x3da8c7ac	0.082412094
68	0xbdce6e9e	-0.10079692
69	0xbda7e03d	-0.08197067
70	0xbda71b72	-0.08159532
71	0x3e1786a6	0.14797458
72	0x3e611eb7	0.21984373
73	0x3ea00cb6	0.31259698
74	0x3e62f35b	0.22163145
75	0x3d3398cb	0.043846887
76	0xbdcc0b15	-0.09963051
77	0x3ad76ec3	0.0016436208
78	0x3e0fdbeb	0.14048736
79	0xbe15db5f	-0.14634465
80	0xbdcb280e	-0.09919749
81	0x3bf3d98a	0.007441704
82	0x3ddd926e	0.10818945
83	0xbc534187	-0.012894041
84	0xbe80d994	-0.25166
85	0xbde30e31	-0.11086691
86	0xbdc7d4d2	-0.09757389
87	0xbdb34e9b	-0.08755227
88	0x3e0e3e60	0.13890982
89	0xbe2690eb	-0.1626622
90	0xbd027207	-0.031847026
91	0xbdfd64cf	-0.12372743
92	0x3ca14a5b	0.019688776
93	0x3d75ccec	0.06000988
94	0x3d805de7	0.062679105
95	0xbced7a96	-0.028989118
96	0x3d83e3f4	0.06439963
97	0xbd8847f0	-0.06654346
98	0x3ce8d6f3	0.028422808
99	0xbd9b35b5	-0.07578603
100	0x3aa02442	0.0012217837
101	0xbd3a52cc	-0.045489118
102	0xbbbd76b6	-0.0057819737
103	0x3d6ff505	0.05858328
104	0xbd855fe4	-0.0651243
105	0xbd8f9367	-0.07010537
106	0xbd897afe	-0.06712912
107	0xbd630aa4	-0.05543007
108	0x3cda8173	0.026673054
109	0x3e0d8521	0.13820316
110	0x3e1a75e2	0.15084031
111	0x3dde9a3e	0.10869263
112	0x3e0268c4	0.12735277
113	0x3dc03ed7	0.09386986
114	0xbe5f7fbd	-0.21826072
115	0x3d9b3c40	0.07579851
116	0x3d8af282	0.06784536
117	0xbd67a213	-0.05655105
118	0xbe1432c4	-0.1447249
119	0xbe1648a5	-0.14676149
120	0xbe62cc4a	-0.22148243
121	0x3e1b2d06	0.15153894
122	0xbdc7d456	-0.09757297
123	0x3b9d8b47	0.004807863
124	0x3e10a21a	0.14124337
125	0x3e2ba5c6	0.16762456
126	0xbcc730ac	-0.0243152
127	0x3d7c4d10	0.06159693
128	0x3cc52147	0.02406372
129	0xbd25333e	-0.04033207
130	0x3e4d53b2	0.20051458
131	0x3d6e7952	0.05822117
132	0x3d92852a	0.07154305
133	0xbe25efa7	-0.16204701
134	0xbe3380f2	-0.17529657
135	0xbdb7f175	-0.08981601
136	0x3e55ad67	0.20866929
137	0x3e13cb63	0.14433055
138	0x3dccfe1b	0.10009404
139	0xbe203e2f	-0.15648721
140	0x3e35166f	0.17684339
141	0x3e4667f5	0.19375594
142	0xbdbe6ee1	-0.09298492
143	0xbd5db0e0	-0.05412376
144	0x3eb81c57	0.35959122
145	0x3dff4071	0.12463463
146	0x3e0f4285	0.13990219
147	0xbe72f615	-0.23726685
148	0xbd0e6486	-0.034763835
149	0x3d10b165	0.035325427
150	0xbd5de651	-0.054174725
151	0xbe9baab1	-0.30403665
152	0x3d8937fb	0.067001306
153	0x3d43f99d	0.04784547
154	0x3bafcf51	0.00536529
155	0xbc1c7611	-0.009549634
156	0x3dc4fa45	0.096180476
157	0x3d79e893	0.061012816
158	0xbe2423d1	-0.16029288
159	0x3bf6c0c3	0.007530303
160	0x3df769a6	0.12080698
161	0x3e1d22fa	0.15345374
162	0x3ce88745	0.028384814
163	0x3e3b1461	0.18269493
164	0x3dd1c4a7	0.102425866
165	0x3daf7d11	0.085687764
166	0x3dc5d8a9	0.09660465
167	0x3e436d09	0.19084562
168	0xbdd4dc84	-0.103936225
169	0xbe2171e8	-0.15766108
170	0xbc9e1ae6	-0.019299936
171	0x3e2f9d41	0.17149831
172	0x3e83cc16	0.25741643
173	0x3cab524d	0.020913268
174	0xbd770918	-0.060311407
175	0x3d9664d1	0.07343448
176	0x3e497657	0.1967405
177	0x3e05db9f	0.1307206
178	0xbda97749	-0.08274705
179	0xbde7e7e5	-0.11323527
180	0x3d5135ef	0.051076826
181	0xbe601db0	-0.21886325
182	0xbb2b9ddd	-0.0026186623
183	0x3da1baa4	0.07896927
184	0xbd00231e	-0.03128349
185	0x3dc8b2c5	0.097997226
186	0xbd6f6a47	-0.058450963
187	0x3e425e97	0.18981396
188	0xbd07974b	-0.03310327
189	0xbe321949	-0.17392458
190	0xbe524cae	-0.20537063
191	0xbcd48fab	-0.025947412
192	0x3ceeefd5	0.029167095
193	0xbde4b757	-0.11167782
194	0x3e5da3cd	0.21644516
195	0xbd48763e	-0.04894089
196	0x3c3f229e	0.011665968
197	0xbe0d9f8c	-0.13830394
198	0xbdac06e3	-0.08399751
199	0x3e3742b3	0.17896537
200	0xbd85b6f5	-0.06529037
201	0x3e087a5d	0.13327928
202	0xbe20ec98	-0.15715253
203	0xbea17a4b	-0.31538615
204	0x3d00c08c	0.031433627
205	0xbd797779	-0.060904954
206	0x3e2a745f	0.16645955
207	0x3d634346	0.05548408
208	0xbd5b0acb	-0.05347709
209	0xbe258a6e	-0.16166088
210	0x3d163323	0.03666986
211	0x3dc8c28b	0.09802731
212	0xbc1a11d6	-0.0094036665
213	0xbe30f117	-0.17279468
214	0xbc5b5af7	-0.013388387
215	0x3eb31073	0.34973487
216	0x3e10dd66	0.14146957
217	0xbd1069c8	-0.03525713
218	0xbdbd6bda	-0.09249087
219	0xbcd038ca	-0.025417704
220	0xbc258115	-0.010101576
221	0x3cb20856	0.02173249
222	0xbe0b6740	-0.13613605
223	0x3d1837fb	0.037162762
224	0x3ca09c66	0.019605827
225	0x3d919d5e	0.071100935
226	0x3da40e6c	0.08010563
227	0xbe0e5bc6	-0.13902196
228	0xbcad45ec	-0.021151505
229	0xbe31934d	-0.17341347
230	0x3de1dd6c	0.11028561
231	0x3e55f769	0.2089516
232	0xbe63d564	-0.22249371
233	0x3deb38b4	0.11485425
234	0xbd206fd5	-0.03916915
235	0xbdab59c4	-0.08366731
236	0x3e15993e	0.14609239
237	0xbdd3cb9a	-0.10341568
238	0xbb8e7ff5	-0.0043487498
239	0x3dec6cff	0.11544227
240	0x3da253b0	0.079261184
241	0x3e22ff50	0.15917706
242	0x3ddcee2b	0.107876144
243	0x3e373276	0.17890343
244	0xbdd808a7	-0.10548525
245	0xbcb3a44a	-0.021928925
246	0xbdb9ce57	-0.09072559
247	0xbd2dee31	-0.042463485
248	0x3becb1ea	0.0072233574
249	0xbdc9cc9f	-0.098534815
250	0xbd5f9b27	-0.054591324
251	0x3e6a3feb	0.22875945
252	0x3cec2703	0.028827196
253	0xbdf54ebf	-0.1197791
254	0xbe2109f9	-0.1572646
255	0x3c103ce5	0.008803581

actor.4.bias f4 [64]
0	0x3c0b387f	0.008497356
1	0xbd1f020a	-0.038820304
2	0xbd3de8ca	-0.046364583
3	0xbd0d7618	-0.03453645
4	0xbde84ce5	-0.113427915
5	0x3d1fb690	0.038992465
6	0x3d0d3fb2	0.034484573
7	0x3d25e60b	0.04050259
8	0xbdacb3e2	-0.084327474
9	0x3bd90949	0.0066234213
10	0x3bb08321	0.0053867255
11	0xbd0bb1d6	-0.034105144
12	0x3d2cf3cc	0.04222469
13	0xbcc9e36a	-0.024644572
14	0xbd03bbaa	-0.032161392
15	0x3c7e9f48	0.015540905
16	0x3cc7ebe0	0.024404466
17	0xbcc0a353	-0.023515379
18	0x3c89907f	0.016792534
19	0xbd887675	-0.06663219
20	0x3c909aa9	0.017651873
21	0xbda7e31e	-0.08197616
22	0xbce5d34d	-0.028054858
23	0x3cb7f452	0.022455368
24	0x3d379730	0.044821918
25	0x3d87aee3	0.06625154
26	0x3d6782ee	0.05652135
27	0xbc72f656	-0.014829239
28	0x3da6d766	0.08146553
29	0x3d967dad	0.073481895
30	0xbd219747	-0.03945091
31	0xbde531f4	-0.111911684
32	0xbdc54b56	-0.0963351
33	0x3d5ecc8d	0.054394294
34	0xbd858ed9	-0.06521387
35	0xbcd24d95	-0.02567176
36	0x3d392a13	0.04520614
37	0xbc2a30d8	-0.010387622
38	0x3ac7cd8c	0.0015243753
39	0x3daccd5f	0.08437609
40	0xbd70f9db	-0.05883203
41	0x3bb3cdfc	0.0054872017
42	0xbd99a400	-0.07501984
43	0xbd85c91b	-0.065324984
44	0xbccd99f8	-0.025097832
45	0xbd12e930	-0.035866916
46	0x3d494802	0.049140938
47	0xbdacc140	-0.08435297
48	0xbca9cc21	-0.020727219
49	0xbcbac522	-0.022799078
50	0x3bac45e7	0.0052573564
51	0x3da0212e	0.078188285
52	0xbb8b0dd7	-0.004243593
53	0xbdcea631	-0.10090292
54	0x3d5d0854	0.05396302
55	0x3bc6b50c	0.006064063
56	0x3d219a7a	0.03945396
57	0xbd50e0c4	-0.050995603
58	0xbce9e849	-0.028553145
59	0xbd686986	-0.05674126
60	0xbd9953c4	-0.0748668
61	0x3d5367b1	0.05161256
62	0x3cc6e699	0.02427988
63	0xbda2a2a2	-0.07941176

actor.6.weight f4 [3, 64]
0	0xba84624b	-0.0010100094
1	0x39995b19	0.00029250307
2	0x3c37ddb8	0.011222295
3	0xbb059d2c	-0.0020387871
4	0xbb03f3bc	-0.002013429
5	0x3c4d8dcc	0.012546014
6	0xbb14ca0f	-0.0022703444
7	0xbabfb133	-0.0014624953
8	0x3c195899	0.009359502
9	0xbbb22a76	-0.0054371906
10	0xbc3e2bea	-0.01160715
11	0xbb82c68a	-0.003990953
12	0xbad326ad	-0.0016109549
13	0xbb1d45ec	-0.0023997976
14	0xba9b3c39	-0.0011843509
15	0xbc031ef4	-0.008002985
16	0x3ae01e15	0.0017098809
17	0xbc40f660	-0.01177749
18	0xbbc235df	-0.005926832
19	0xb992335c	-0.00027885556
20	0xbb3be7bc	-0.002867206
21	0xbb87852d	-0.004135749
22	0xbab6d305	-0.0013948387
23	0xbc3dc258	-0.01158198
24	0xbb15e645	-0.0022872847
25	0xbb50ed77	-0.0031879821
26	0xbaf08763	-0.0018350895
27	0xbb7d91dd	-0.0038691678
28	0xba6e1531	-0.0009082137
29	0x3af610a5	0.0018773271
30	0xbbc8c579	-0.006127056
31	0x3b3dc5ab	0.002895693
32	0xbb0501b7	-0.0020295212
33	0x3afebabd	0.0019434314
34	0xbb005a2a	-0.0019584992
35	0xbb4695f8	-0.003030179
36	0xbb65169e	-0.0034956108
37	0xbb55d681	-0.0032629075
38	0xbba97f13	-0.005172619
39	0xbc4026c4	-0.011727992
40	0xbb3e26ce	-0.0029014829
41	0x3bc01b6d	0.0058626444
42	0xbaae0b64	-0.0013278541
43	0xbb4447b4	-0.0029949965
44	0xbb96cc61	-0.0046020006
45	0x3b7b86ce	0.003837991
46	0xba6b1bac	-0.0008968662
47	0xbc787df3	-0.015166747
48	0xbbe1babf	-0.006888717
49	0x3b47220c	0.0030385284
50	0xbb0ed373	-0.0021793514
51	0x3c2be476	0.010491481
52	0xbc1234ee	-0.008923752
53	0xbb2491d6	-0.002511134
54	0xbc5e3d68	-0.013564445
55	0xbb6084fd	-0.0034258955
56	0xbaefeb25	-0.0018304331
57	0xbac3a6a6	-0.0014926984
58	0x3a2066e3	0.0006118847
59	0x3b1be378	0.0023786705
60	0xbb3dd67d	-0.0028966956
61	0x3c2771af	0.010219975
62	0xbaeeb749	-0.0018212582
63	0xbac1570f	-0.0014750677
64	0xb9e53c21	-0.00043723083
65	0xbbf09561	-0.007342026
66	0x3b82f320	0.003996268
67	0xbba5cf67	-0.0050601247
68	0xbba5c1fb	-0.0050585247
69	0x3b9be9c6	0.0047580926
70	0xbbb19005	-0.00541878
71	0xbbb0b62c	-0.0053928103
72	0xbbc5324d	-0.006017959
73	0xbb5fb39a	-0.003413415
74	0xbca0024a	-0.019532342
75	0xbc0620ba	-0.008186514
76	0xbbbd2d0b	-0.005773192
77	0xbbc2dd94	-0.0059468243
78	0xbbf5c383	-0.0075001135
79	0xbc004db4	-0.007831026
80	0xbc1e5e89	-0.009666094
81	0xba8085a4	-0.0009805453
82	0xbbeafcc2	-0.0071712444
83	0xbb0895de	-0.002084128
84	0xbc09c3cc	-0.008408498
85	0xbbc78f8d	-0.0060901106
86	0xbbe61bc4	-0.007022353
87	0xbbe3f359	-0.0069564995
88	0xbbcd40a9	-0.0062638116
89	0xbbe52f6e	-0.0069941794
90	0xbbcb2fe5	-0.006200778
91	0xbbb3053d	-0.005463271
92	0xbbfd80c1	-0.007736296
93	0x3a3b37c4	0.00071417936
94	0xbc30bcfa	-0.010787243
95	0xbbb9f76f	-0.0056752483
96	0xbbd70bc0	-0.00656268
97	0x3c52f550	0.01287587
98	0xbbd91b22	-0.006625549
99	0xbbb53ac3	-0.0055306866
100	0xbbae5a7f	-0.0053208466
101	0xbbc5d7e0	-0.006037697
102	0xbc951b0b	-0.018201372
103	0xbbfc97d3	-0.0077085285
104	0xbbca99f8	-0.0061829053
105	0x3c854909	0.016270177
106	0xbb72ddac	-0.0037058396
107	0xbbb9cfbb	-0.0056705154
108	0xbbc1e324	-0.00591697
109	0xbc47cf11	-0.012195365
110	0xbbe8eb65	-0.0071081393
111	0xbc0efa9a	-0.00872674
112	0xbbd68b1d	-0.0065473453
113	0xbb545661	-0.0032400119
114	0xbbbc1019	-0.0057392237
115	0x3c12609d	0.008934167
116	0xbbc6e3e2	-0.006069646
117	0xbbfb100b	-0.0076618246
118	0x3b285d2f	0.0025690307
119	0xbbe3408a	-0.006935184
120	0xbbcdc2e6	-0.006279337
121	0xbbcd1cfa	-0.006259558
122	0xbc0437e5	-0.008069967
123	0xb9effde3	-0.00045774793
124	0xbb061972	-0.0020461944
125	0x3b525312	0.003209297
126	0xbc1936fc	-0.009351488
127	0xbbdb07e6	-0.006684291
128	0xbb455b44	-0.0030114213
129	0x3d3914b9	0.04518578
130	0xbd7f7dd4	-0.06237586
131	0x3d2d186f	0.04225963
132	0x3d26f436	0.04076024
133	0xbadca07d	-0.0016832497
134	0x3d2d7d47	0.042355802
135	0x3d182572	0.037145086
136	0x3cf700bc	0.030151717
137	0x3d2b4f0c	0.04182343
138	0x3cb37161	0.02190465
139	0x3d2f3a29	0.042780075
140	0x3d21eecd	0.03953438
141	0x3d2cb455	0.042164166
142	0x3d35475f	0.044257518
143	0x3cedd398	0.02903156
144	0x3c92c2b6	0.017915111
145	0x3cfee6fa	0.031115998
146	0x3cf0d50a	0.02939846
147	0xbd02bfce	-0.0319212
148	0x3d222747	0.03958824
149	0x3d029f5f	0.03189027
150	0x3d2f04e2	0.042729266
151	0xbc515ac9	-0.0127779925
152	0x3d29d211	0.0414601
153	0x3d28a6dd	0.04117476
154	0x3d3850ba	0.04499886
155	0x3d175f5f	0.036956187
156	0x3c0f863b	0.00876003
157	0xbd10396b	-0.035211008
158	0xbcaecdc1	-0.021338345
159	0x3d4051cd	0.04695301
160	0x3d2a7c2f	0.041622337
161	0x3bbb3a24	0.005713718
162	0x3d3b5bcd	0.045741845
163	0x3d2fdd03	0.042935383
164	0x3d278f86	0.04090836
165	0x3d2c674c	0.0420907
166	0x3cc7f697	0.024409575
167	0xbcb197b5	-0.021678785
168	0x3d2e9f91	0.042632643
169	0xbd702315	-0.058627207
170	0x3acdd7eb	0.0015704607
171	0x3d21082e	0.03931444
172	0x3d0b506e	0.03401225
173	0x3ce16141	0.027512195
174	0x3d3ae51e	0.04562866
175	0x3ce3384f	0.027736811
176	0x3d246071	0.040131036
177	0x3ce1fdbc	0.02758681
178	0x3d22fae7	0.03979006
179	0x3b9e5922	0.004832403
180	0xbc9e78b2	-0.019344661
181	0x3d411e0b	0.04714779
182	0x3d12ae6e	0.03581088
183	0x3d2b1bfd	0.04177474
184	0x3d1dc009	0.038513217
185	0x3d42cd77	0.047559228
186	0x3d3edbb1	0.046596233
187	0xbcebb1cf	-0.02877131
188	0xbca9ad65	-0.020712564
189	0x3b57a545	0.0032904905
190	0x3d48804e	0.048950486
191	0x3d2b568a	0.041830577

actor.6.bias f4 [3]
0	0xbccf0b4f	-0.025273947
1	0x3d8b3603	0.06797411
2	0x3d3d502b	0.046219032

critic.0.weight f4 [256, 259]
0	0x3c884db7	0.01663862
1	0x3dc5bc54	0.09655061
2	0xbc7f0a34	-0.015566397
3	0xbc39877f	-0.011323809
4	0xbbc5f0a3	-0.006040649
5	0xbdc3c7f8	-0.095596254
6	0x3d91569f	0.070966
7	0xbd5adfe6	-0.053436182
8	0x3d1297d3	0.035789322
9	0x3b4bfcb1	0.0031125958
10	0x3d2d6320	0.04233086
11	0xbda0b6b5	-0.078473486
12	0x3db2a558	0.08722943
13	0x3df28cfc	0.11843297
14	0x3dfc0c1e	0.12306999
15	0xbd6d8480	-0.05798769
16	0x3e28339f	0.16425942
17	0xbd9d1e1e	-0.0767176
18	0xbdd63fc1	-0.10461379
19	0xbd995b71	-0.07488144
20	0x3dd69d8b	0.10479268
21	0xbe0afc69	-0.1357285
22	0xbef45d8e	-0.47727627
23	0x3df2e6b4	0.118604094
24	0xbde84558	-0.11341351
25	0x3ddb7cb6	0.10717146
26	0x3cf4d9e0	0.029889047
27	0xbd70d437	-0.058796134
28	0x3eb4f5d0	0.3534379
29	0x3e3faf49	0.1871921
30	0x3e085a86	0.13315782
31	0x3d8102bd	0.062993504
32	0x3b8e0b1f	0.004334822
33	0x3dfa5ab4	0.122243315
34	0xbe027673	-0.12740497
35	0xbd333b55	-0.043757755
36	0x3ba7c57d	0.005119978
37	0x3daa2eb9	0.08309693
38	0xbd96bb47	-0.07359939
39	0x3daf8af5	0.08571426
40	0x3d38ef27	0.04514995
41	0xbc9bfc57	-0.019041223
42	0xbd102e5e	-0.03520047
43	0x3dc4fc65	0.09618453
44	0xbc97f931	-0.01855144
45	0x3e3a147c	0.18171877
46	0x3e613d27	0.21995984
47	0x3e175469	0.14778294
48	0xbe3bd8dc	-0.18344444
49	0x3e7062c1	0.23475172
50	0xbd275aa6	-0.040857933
51	0x3cca4c56	0.024694603
52	0x3d537daa	0.051633514
53	0x3d37586c	0.04476206
54	0xbc2b8490	-0.010468617
55	0x3d82ec73	0.06392755
56	0xbd48449d	-0.04889356
57	0x3c0d00a7	0.008606113
58	0x3e3a334f	0.18183635
59	0xbc1baf10	-0.009502187
60	0x3d9995b1	0.074992545
61	0x3c59ca7b	0.013292904
62	0xbb9bb9ec	-0.004752388
63	0x3cfd36a8	0.030909851
64	0xbd16f165	-0.036851306
65	0xbcbf2cec	-0.02333685
66	0x3dfca3d9	0.12335939
67	0x3cfd15ed	0.030894244
68	0xbd2babf1	-0.041912023
69	0x3de8700e	0.11349498
70	0xbdce0017	-0.10058611
71	0x3d974c94	0.07387653
72	0xbe18f276	-0.14936242
73	0xbd882365	-0.06647376
74	0x3e16fde1	0.14745285
75	0xbe2baa5f	-0.1676421
76	0x3d2b776a	0.04186193
77	0xbcad927e	-0.021188017
78	0x3d9d0e5c	0.076687545
79	0x3e60c5b2	0.21950415
80	0xbc0b7f33	-0.008514213
81	0x3e312636	0.17299733
82	0x3d943856	0.07237308
83	0xbd0c6edd	-0.034285415
84	0x3dea23d0	0.11432612
85	0x3eb4985b	0.35272488
86	0x3e4d7709	0.2006494
87	0xbe03dd20	-0.12877321
88	0xbce8d6f9	-0.02842282
89	0xbd7fbdb9	-0.062436793
90	0x3e259f4a	0.16174045
91	0x3dda54e8	0.10660726
92	0x3d3da266	0.046297453
93	0xbdc05538	-0.09391254
94	0xbde02bdd	-0.10945866
95	0x3d7dd9e6	0.061975382
96	0x3a4e2fa4	0.00078653754
97	0xbd0a4317	-0.033755388
98	0x3d2d6a6c	0.04233782
99	0x3d9a134d	0.075232126
100	0xbd64a890	-0.055824816
101	0x3e9514ae	0.2911734
102	0xbcdc3dff	-0.02688503
103	0x3d2f2bee	0.042766504
104	0x3ce8a941	0.028401019
105	0x3daa0b62	0.08302952
106	0xbe38206f	-0.17981122
107	0x3d94cbe2	0.0726545
108	0x3dd40742	0.10352947
109	0x3c646f04	0.013942484
110	0x3d9d3542	0.07676174
111	0xbe0f6e58	-0.14006937
112	0x3b83d6b0	0.0040233955
113	0xbc63cf93	-0.01390447
114	0xbd503ecc	-0.050841138
115	0xbbd15909	-0.0063887876
116	0xbccbd56d	-0.024882043
117	0xbe07cf42	-0.13262656
118	0x3bb7295f	0.0055896486
119	0xbd9bfad1	-0.07616199
120	0xbc4a8584	-0.012360934
121	0xbd10cc76	-0.03535124
122	0x3cd2d672	0.025737021
123	0x3d9ad03d	0.075592496
124	0x3d44dbbd	0.04806112
125	0x3e51f18d	0.205023
126	0xbcd67e6a	-0.026183326
127	0x3d53091e	0.051522367
128	0x3c8774e2	0.016535226
129	0x3d96691b	0.07344266
130	0x3d90f387	0.07077699
131	0xbce63134	-0.028099634
132	0x3d91c6fa	0.0711803
133	0xbccad31d	-0.02475887
134	0xbc739813	-0.0148678
135	0x3d7dd1e1	0.061967734
136	0x395297e5	0.00020083746
137	0xbdeaab9d	-0.11458514
138	0x3c8b8252	0.017029915
139	0x3e7b2d84	0.24529082
140	0x3e1518d2	0.1456025
141	0x3dc13240	0.094334126
142	0xbd66cb25	-0.056346077
143	0x3dea4810	0.11439526
144	0xbdb00f88	-0.08596712
145	0xbdac922f	-0.0842632
146	0x3d5aff1f	0.05346596
147	0xbc854d46	-0.016272198
148	0x3e32cafe	0.17460248
149	0x3d4df7dc	0.050285205
150	0xbda66c06	-0.081260726
151	0x3d325ec0	0.043547392
152	0xbb6171cd	-0.0034400106
153	0xbe0d7d11	-0.1381724
154	0xbcc4d714	-0.024028338
155	0x3e9eb5ff	0.30998227
156	0xbce438e4	-0.027859159
157	0x3e87bb94	0.26510298
158	0x3db054f4	0.086099535
159	0xbc16930a	-0.00919033
160	0xbc89c093	-0.01681546
161	0xbdbf917d	-0.093539216
162	0x3d91bd8f	0.071162336
163	0xbcd916c8	-0.02650012
164	0x3cb4b2a8	0.022057846
165	0xbb958c73	-0.004563862
166	0xbd87d215	-0.06631867
167	0x3da5b3f5	0.08090965
168	0xbd15e0e7	-0.036591437
169	0x3d12a717	0.03580388
170	0xbd3baa42	-0.045816667
171	0x3daa6e20	0.08321786
172	0x3e361890	0.17782807
173	0x3cdaf34c	0.026727341
174	0xbd600e20	-0.05470097
175	0x3dd91654	0.10599962
176	0xbe02583a	-0.12728968
177	0x3dce13ad	0.100623466
178	0xbdde9045	-0.10867361
179	0x3bfb6188	0.0076715387
180	0xb9d0fd58	-0.00039861607
181	0x3d73016b	0.059327524
182	0xbd1934f1	-0.037404004
183	0xbd03ef5a	-0.032210685
184	0x3d19232f	0.03738707
185	0x3e3ddffc	0.18542475
186	0xbe843984	-0.2582513
187	0xbcc79f65	-0.024367997
188	0xbd275fe4	-0.040862933
189	0x3d44c7c9	0.048042092
190	0xbdadf946	-0.08494811
191	0xbd6254eb	-0.055256765
192	0x3e41d758	0.18929803
193	0xbc10ecd9	-0.008845531
194	0xbd3d0613	-0.04614837
195	0xbd400de9	-0.046888266
196	0x3dd27b52	0.10277428
197	0xbc731415	-0.014836331
198	0xbd9a028e	-0.075200185
199	0xbac979f8	-0.0015371433
200	0x3dee463a	0.116344884
201	0x3df46dae	0.11934982
202	0xbc7fe6e9	-0.015619018
203	0x3da14044	0.07873586
204	0xbc2aca4f	-0.010424211
205	0x3d2ac74e	0.041693978
206	0xbd64956d	-0.055806566
207	0x3e5030c4	0.20331103
208	0xbdafb59e	-0.085795626
209	0xbb28180a	-0.0025649094
210	0xbcfcad30	-0.030844301
211	0x3e0d0d1f	0.13774537
212	0x3cf8af9a	0.03035717
213	0x3d57d34a	0.052691735
214	0x3c490b93	0.012270826
215	0x3c892657	0.016741915
216	0x3d37fea4	0.04492058
217	0xbdd3f73c	-0.103498906
218	0xbd816340	-0.063177586
219	0xbdbd03c1	-0.092292316
220	0xbda7eb43	-0.081991695
221	0xbdc474b3	-0.09592571
222	0xbdcaa5cd	-0.09894905
223	0xbb5b0741	-0.0033421072
224	0x3da77f8e	0.08178626
225	0xbdde0f97	-0.10842817
226	0x3e5e479a	0.21707001
227	0xbcb02e1a	-0.021506358
228	0x3db1dd87	0.08684831
229	0x3e547d3e	0.20750901
230	0x3d1c268f	0.03812271
231	0xbe0ee665	-0.13955076
232	0x3d52c35a	0.051455833
233	0x3d81d3f2	0.063392535
234	0x3cef7632	0.029231165
235	0xbce3a618	-0.02778916
236	0xbdbfbdff	-0.09362411
237	0xbe17fd5a	-0.1484274
238	0xbd04898f	-0.03235775
239	0x3dd7e989	0.1054259
240	0xbd1e1954	-0.038598374
241	0x3de5183b	0.11186262
242	0x3e170fd7	0.14752136
243	0x3e37148d	0.17878933
244	0xbd0b6d48	-0.034039766
245	0xbda92c91	-0.082604535
246	0xbca07352	-0.019586239
247	0x3d919eba	0.07110353
248	0x3d174a88	0.036936313
249	0x3d116419	0.03549585
250	0x3dcdbb4a	0.10045488
251	0x3d3afc6d	0.04565089
252	0x3d881c03	0.06645968
253	0x3daab8b2	0.08336009
254	0xbca9f6ee	-0.020747628
255	0xbc280dd0	-0.010257199
