rlgpu/logs/cut_normalized/model_440.pt (torch, 868312 bytes, 16 tensors)

log_std f4 [3]
00000000: 31aa 4ebf 845a 0ebf a775 173e
-0.8072844 -0.55606866 0.14790975

actor.0.weight f4 [256, 259]
00000000: a1c7 063d 8bc7 553d 9beb 5b3d 3f2c d8bc
00000010: 0ca2 8abd fa17 863d 573e 5d3d 89f2 99bd
00000020: 432e fd3c f287 043d 3d22 993c ea47 bcbd
00000030: e36e 8f3d 2a29 d4bd 6844 c3bc 8d88 bfbd
00000040: 8ef0 0fbd d183 0bbd 59b8 1fbe 36b4 083d
00000050: 2c39 783d 64b4 b4bd eb59 c6bd 1ada 873c
00000060: fa23 d73d cff0 c1bb 6605 863d 1ebb 5fbc
00000070: 2c51 f1bb 06df 59bd 9ee0 ad3b e43c b3bd
00000080: 2013 df3c f448 da3d bddd a73d 0d38 30bd
00000090: ff0f 443d b3cb 9bbc 63d1 66bd cb09 8a3b
000000a0: d39d 69bc fb7f 04bd 013c 303e f3b3 1b3e
000000b0: df44 e0bd 6adb 163e 4735 9b3d f62d a1bd
000000c0: a917 683c 35d5 a7bd 9602 22bd c0b2 0fbe
000000d0: 3495 28bd a5e5 c53d 6035 8dbd 3019 683d
000000e0: 58af 593e a5be ab3d 7760 c43b 7131 25be
000000f0: 15be 883c 1b54 49bd ad50 c4bb ab22 e83b
00000100: dddd 5fbd d750 003d fc8d d2bd c4da 943d
00000110: 8fa8 d6bc b956 21bd 9b08 a1bd bbf8 923d
00000120: bf88 acbd b587 c6bc f8ab f2bc fef7 32bd
00000130: d0e9 85be 5d00 8dbc 4104 0e3d b431 c6bc
00000140: d60e 203d eecc fe3d 5027 ddbd 72f1 f93b
00000150: 7085 5ebd bce1 0a3e d451 8abd cccf 05be
00000160: 04ea bdbd 4b8f e9bd 42cd 8d3d 530b 663d
00000170: c406 143c c372 0c3d 901b 293e 57bc f13d
00000180: 424d 01bd 930b 92bd 06b7 a4bc d92c b13d
00000190: 68da 7b3d 7dfb c7bd 20ff 6abc 6d91 2dbc
000001a0: baf9 d93d 74f7 4cbd f28a 4dbd 2943 d23d
000001b0: a6e9 59bc 4869 513e 8a05 05bd afae f03d
000001c0: 66fc 863c 69cb 52bd 3ceb f3bd 1850 d6bd
000001d0: cdee 7abd fb79 c03d a492 adbd c82f 76bc
000001e0: 3dd1 95bd 9c0c 1e3e d1b3 d5bd d533 da3a
000001f0: 39d1 3f3d 057b e13d 4b32 863c 3fde 42bd
00000200: ebca 523d 94e0 dd3d 66dd 8c3d 665e 763d
00000210: 2d12 91bd 544b 72bd c5d9 93bd e4c8 3b3e
00000220: 31bc 90bd c980 c0bd 40bf 913d 692b d8bd
00000230: 6ac9 023d 4854 40be 5d21 87bc ef5b 71bc
00000240: 7af9 bfbd 66ca a33b 30b2 073e 1e44 bbbb
00000250: ebc4 9cbd c5f1 b0bd 1ef1 07be bf16 ad3d
00000260: f16a 26be 13b3 603c 7ab6 bbbc 5420 fa3d
00000270: d6d1 1f3e 09ce 7f3d 8c5f 62bd 3ae2 003e
00000280: 5dc7 e93d ffae 353d 6882 08be 0926 aabd
00000290: d1c5 0fbc cfa6 3c3d dcc9 6fbd 5e60 e8bc
000002a0: bfa8 43be e673 8abd 442c 793d cadd 21be
000002b0: 889e 7d3d 6f5e d63d 9713 843d a8a3 31bd
000002c0: bc79 f03d 7c0a a3bd 29b7 b3bd 5906 7bbc
000002d0: e6b0 0a3e 2467 f53c bfa9 afbd 00f5 c73c
000002e0: 2116 4dbe 47c6 b8bc 8830 173d ed34 42bd
000002f0: af4e eabd 8654 9dbd 97bc 21be 15e9 7cbd
00000300: 744a cebc 2e32 31bd 9b71 283e 5a65 333d
00000310: 5790 ec3d 9588 b6bc 6488 ebbc e98e 173e
00000320: 0a12 15bd 8eaf 69be 1573 4c3c 73e0 c23d
00000330: edec ab3d cae3 37bd 2bae b93d ccb0 b6bc
00000340: e8c6 c4bd 47f4 44be bdcb 73bd a5f9 353d
00000350: 0842 5abd aebc abbd aaaa abbc bdcd 523e
00000360: 9971 953d 951a 303d b93a 86bd 20b5 a63d
00000370: af2b 883d 5e71 1ebc eb24 4dbb ad4d 3abc
00000380: 7e77 05be af7b 703d 1ef8 2dbd 1638 e8bd
00000390: 018a b83d ce80 373d aedf 8d3d 3300 b93c
000003a0: 99ea c63d 8e05 8c3d 3e2b c4bd dc76 903c
000003b0: 1ebd f1bd e203 2cbe 5899 e03c a409 8ebd
000003c0: e1d6 f0bc 5a2a 25be 208d 053e 3324 8dbc
000003d0: 27b5 d83d 92f7 973d 93c9 043c 5bac 973c
000003e0: 4b8a 183e 429a 18bd a4cc d03d 9164 8fbc
000003f0: 6cc2 bbbd 6aac ae3d 0a10 b1bc 1ee7 223d
0.032905225 0.052192252 0.053691488 -0.026388286 -0.06769189 0.06547542 0.05401453 -0.07516963
0.030905848 0.03235621 0.018693084 -0.09193404 0.07003572 -0.10359414 -0.02383633 -0.09352217
-0.03514152 -0.034061257 -0.15597667 0.033374988 0.0606014 -0.08823469 -0.09685119 0.016583491
0.10504909 -0.005918599 0.065439984 -0.013655452 -0.007364413 -0.053191207 0.0053063175 -0.08751848
0.0272308 0.10658446 0.0819659 -0.043022204 0.047866818 -0.01901803 -0.05635203 0.004212593
-0.01425882 -0.032348614 0.1721039 0.15205364 -0.10950636 0.14732137 0.07578521 -0.078700945
0.014165797 -0.08194963 -0.039553247 -0.14033031 -0.041157916 0.09662942 -0.06894946 0.056664646
0.21258295 0.08385972 0.005992945 -0.16132142 0.0166922 -0.049152475 -0.0059910626 0.007084211
-0.054654945 0.031327095 -0.102809876 0.07268289 -0.026203422 -0.039389346 -0.078629695 0.07176348
-0.0842452 -0.024234632 -0.029623017 -0.043693535 -0.26154947 -0.017212087 0.034672026 -0.024193622
0.03907665 0.12441431 -0.10798514 0.0076276595 -0.054326475 0.13562673 -0.06753889 -0.1306755
-0.092731506 -0.11404284 0.069239154 0.056163143 0.009034816 0.034289133 0.1651442 0.11803501
-0.03156782 -0.07131114 -0.020106804 0.08651132 0.061487585 -0.097647645 -0.014343053 -0.010593754
0.10643335 -0.050040677 -0.050181337 0.10266716 -0.013300335 0.20450318 -0.032475986 0.11752068
0.016477775 -0.05146352 -0.11910102 -0.104644954 -0.061262894 0.09398266 -0.08475235 -0.01502604
-0.073153 0.15434498 -0.10434688 0.0016647527 0.04683039 0.11009792 0.016381403 -0.04757523
0.05146305 0.108338505 0.06878166 0.06014862 -0.07083545 -0.05915387 -0.072192706 0.18338352
-0.07067145 -0.09399564 0.07116556 -0.10555155 0.031930365 -0.18782151 -0.016495401 -0.014731391
-0.09373756 0.004998493 0.13251567 -0.0057149073 -0.076547466 -0.08639864 -0.13275573 0.08451604
-0.16251732 0.01371457 -0.02291416 0.12213197 0.1560739 0.06245235 -0.0552669 0.12586299
0.11414979 0.044356342 -0.13330996 -0.08308036 -0.00877519 0.04605752 -0.058542117 -0.028366264
-0.1910734 -0.06760387 0.06083323 -0.15807262 0.061918765 0.104672305 0.06449049 -0.043368965
0.11741969 -0.07960984 -0.087751694 -0.015321338 0.13544044 0.029956408 -0.085772984 0.024408817
-0.20027973 -0.022555484 0.036911517 -0.047413755 -0.11440789 -0.07682137 -0.15794598 -0.06174572
-0.025181986 -0.043260746 0.16449587 0.04379783 0.11550968 -0.022281924 -0.02875156 0.1480061
-0.036394157 -0.22820875 0.01247861 0.095154665 0.083947994 -0.04489497 0.09066423 -0.0223011
-0.09608251 -0.1923381 -0.05952047 0.044427533 -0.05328563 -0.08385597 -0.020955402 0.20586295
0.07297058 0.0429941 -0.06554169 0.081400156 0.06648957 -0.0096705835 -0.0031302522 -0.011371058
-0.13033864 0.058711704 -0.04247295 -0.113388225 0.09010697 0.044800572 0.06927429 0.022583103
0.09712715 0.06836997 -0.0957856 0.017634802 -0.11803649 -0.16798356 0.02741687 -0.069354326
-0.029399337 -0.16129437 0.13042116 -0.017229175 0.10581427 0.07420267 0.0081047 0.018514803
0.14896505 -0.037256487 0.10195282 -0.017504008 -0.091679424 0.08528979 -0.021614093 0.03977119

actor.0.bias f4 [256]
00000000: 6612 eebc e3ed 4fbd 4702 aebc d94b eabc
00000010: d602 7ebc 44ad 7f3c d4c2 753d 14d7 593c
00000020: 5932 55bb 26c6 3e3d efa2 343d 94e6 7b3c
00000030: 6577 793d c0d7 de3c 65cb 06bd c792 4c3c
00000040: 1ffd ab3c 3eb3 e53b 43f9 013c 33a7 2bbd
00000050: ae87 d83b 79df 03bc 0b78 3c3d e249 73bd
00000060: 47f6 993c bd19 3dbd f114 c8bc 9261 ec3c
00000070: 9cde 54bd 6b18 f4bc 43e9 dc3c f983 cebc
00000080: 4369 e33b 06d6 343d 86fe eb3b d534 14bd
00000090: 2ad4 6ebd 2e78 113d 67bb 3a3d 7856 06bd
000000a0: 9ac2 7e3d 766a 83b9 5178 4b3d e894 df3c
000000b0: 90ca 9abd d34b 473d 9e26 3ebd 7183 823d
000000c0: 6418 313d 09be e1bc ce83 18bd de97 4c3d
000000d0: b169 c43c fa94 1e3d 76fc 2ebd 40c3 41bd
000000e0: c719 05bc ba83 79b9 a30b 8dbc 4242 0c3c
000000f0: 7025 c83c 9078 50bd 9f1e 5bbd 5c66 9f3d
00000100: 856b 80bd 5019 7cbd f096 70bc 76a5 283c
00000110: e301 ea3c 244f d1bc 3844 bbbc c1fb 5abc
00000120: 2736 103d 2c2f 03bd c1ac 8bbb 158c 5dbd
00000130: 633e aebc e27e d73c d01f 06bd c5ea 3fbd
00000140: f79f f03c a6f9 67bd ef64 75bd 164b 143d
00000150: d44a 093d 47cb 5dbd 709e 8abd 4ad5 4dbd
00000160: 50c3 d23c 9109 eabc add8 69bd ed81 193d
00000170: 69b9 a4bc 17cd 00bb dd30 0cbd 85d4 b13c
00000180: 97fd 0f3d 125a 253d 81ee dcbc d126 633c
00000190: 7f88 e4bc af09 99bb 3b65 27bd 58cb 8fbd
000001a0: f7f4 d03a df9b 3cbd 3626 043d d3a0 e43b
000001b0: 7f79 593c 84cc c33c 9258 54bc 0196 f23c
000001c0: 638d 133d 1dfe 38bd 9e4d adba 2f1d 553c
000001d0: 9243 12bd 4629 30bd 46d9 1fbd 9e50 73bd
000001e0: 52d5 9dbc 3130 16bd 520d b3bc c3d8 82bd
000001f0: f3ce 853c 39eb 1e3d a31f 20bd 6be0 36bd
00000200: 7d50 31bc b2ac 3bbd 3ae7 023d 79d6 2d3c
00000210: 1d6e 84bd 73fa 03bc 22e0 e5bb 7b93 0ebd
00000220: 6512 62bd b733 84bd 8df2 17bd 467a e23b
00000230: 7e35 6fbd 7fa7 ae3c 8745 963c 4225 163d
00000240: 5424 9b3d 1ae9 1ebc 1187 ad3c 671d cc3c
00000250: bcbc 19bc 37f9 0a3d a951 c73c 7c23 6d3d
00000260: 2e44 c8bc cbe4 033d 0009 173d c0f5 1d3d
00000270: bdfe 49bd 2ad1 433d 5467 52bc 2d7a 14bd
00000280: 8f68 8ebd 7ec9 ae3c 156a 5c3c 63b4 153c
00000290: 7cdd efbc 3d43 80bd 41fa a63d 73f5 8cbb
000002a0: 60fd f33c 54df 91bc 5378 2ebd ce19 1a3d
000002b0: f435 76bb 8f5d 4a3d 5254 35bd 4dc2 013b
000002c0: 2bf5 d03c ab28 483d cbfb aa3c e92f 893d
000002d0: 8bfe 20bd a5eb 73bd 2619 46bd 5629 803d
000002e0: 03d7 6c3c 75c1 713a 07f6 423d cdf2 91bc
000002f0: dbbb 79bd 4530 e7bc 0db1 c9bb 5edc e8bc
00000300: 8532 c8bc d6bf 8fbd cc40 4dbd c658 6ebc
00000310: ce1f 3b3d 1631 953d a9a7 5a3c edcd 813d
00000320: 8861 78bd e21c 953c 4980 313d 6220 f6bb
00000330: 779a 8cbd 0694 a33a 178b 86bc 813b fcbc
00000340: 057d e33c 7d9a 90bc 4f50 10bd 16f2 bcbc
00000350: 33fb 143d d43d 9dbc 3af6 3d3d 5127 bf3c
00000360: 9870 c83b f2fb a3bc fe53 1cbc dd14 31bd
00000370: 0d80 1dbd 8d7b 3cbd a241 8abc f397 5c3b
00000380: caa0 2d3d 0e6d 3b3d d003 903c 4440 d03c
00000390: cb08 7f3d 4e06 813d 91cd 64bd 91f3 38bd
000003a0: 56fe 523c 8835 d0bc 92e7 103b b281 61bd
000003b0: 8d02 ebbc 4f52 923c b823 74bd 8151 82bd
000003c0: b3a3 febb 00bf b53c 9657 3ebd 9825 b4bb
000003d0: 2da0 92bd f4e7 323d 741f 133d 3e02 0dbd
000003e0: 456f 743c ccc3 36bc 8aa4 113d 8d37 df3c
000003f0: 0ffa 393d 5f65 dd3c b1a8 213b 49e3 2a3d
-0.029061507 -0.050763976 -0.02124132 -0.02860062 -0.015503606 0.015605275 0.060000256 0.0132959075
-0.003253123 0.046575688 0.044100698 0.015374798 0.06090488 0.027202487 -0.032908816 0.012486166
0.020994721 0.0070098927 0.007932964 -0.0419075 0.006607971 -0.0080488855 0.04601292 -0.059396632
0.018794192 -0.046167124 -0.024424048 0.028855119 -0.05197011 -0.0297968 0.026966697 -0.025209414
0.0069400384 0.04414942 0.0072019724 -0.036183197 -0.058307804 0.035515003 0.045588877 -0.032797307
0.062197305 -0.00025065587 0.04967529 0.027292684 -0.07558167 0.048656296 -0.046423547 0.06372727
0.04323615 -0.027556436 -0.037235074 0.04994952 0.023976179 0.038716294 -0.042721234 -0.047305346
-0.008123822 -0.00023795562 -0.017217463 0.008560719 0.024431914 -0.050896227 -0.053496 0.077831954
-0.06270508 -0.061547577 -0.014684424 0.010293355 0.028565353 -0.025550433 -0.022859678 -0.013365687
0.035207894 -0.03202741 -0.004262537 -0.05408867 -0.021269983 0.02630562 -0.032745183 -0.046854753
0.029373152 -0.056634568 -0.05991071 0.03620442 0.033518627 -0.05414894 -0.06768501 -0.050252236
0.025727898 -0.028569015 -0.057091404 0.037477423 -0.020107942 -0.0019653493 -0.034226287 0.021707783
0.03515395 0.0403691 -0.026969196 0.013864235 -0.027897118 -0.004670344 -0.040868025 -0.070212066
0.0015942146 -0.046047088 0.032263003 0.0069771796 0.013273596 0.023901232 -0.01296057 0.029612543
0.03602351 -0.045164216 -0.0013221984 0.013007446 -0.03570897 -0.04300811 -0.039025567 -0.059403054
-0.019266758 -0.036667053 -0.021856938 -0.06389 0.016334033 0.038798545 -0.03909267 -0.044647615
-0.010822413 -0.045818992 0.031958796 0.010610216 -0.06466315 -0.008055317 -0.007015244 -0.034808617
-0.055193324 -0.06455176 -0.03709655 0.006911549 -0.058400624 0.021320103 0.0183437 0.036656626
0.075752884 -0.00969913 0.021182569 0.024916364 -0.009383377 0.033929076 0.02433093 0.05789517
-0.024446573 0.032200616 0.036873817 0.038564444 -0.049315203 0.047806896 -0.012842018 -0.03624933
-0.06953537 0.021336313 0.013453026 0.009137246 -0.029280417 -0.06262825 0.08153201 -0.0043017208
0.029783905 -0.017806686 -0.04259522 0.037622266 -0.003756878 0.04940563 -0.044269867 0.001979965
0.02550753 0.04886691 0.020872017 0.06698591 -0.03930525 -0.0595509 -0.048363827 0.06257884
0.01445556 0.0009222248 0.04759791 -0.017815972 -0.06097017 -0.028221259 -0.0061551393 -0.028425392
-0.024438152 -0.07019012 -0.050110623 -0.014547532 0.04568463 0.07284753 0.013345637 0.06338105
-0.060639888 0.018202249 0.043335233 -0.0075111846 -0.06865399 0.0012480028 -0.016423745 -0.030790092
0.027769575 -0.01765179 -0.03523284 -0.023064654 0.036372375 -0.019194521 0.046377398 0.023334177
0.006116938 -0.020017598 -0.00954151 -0.043232787 -0.038452197 -0.046016265 -0.016877 0.0033659905
0.04238967 0.0457583 0.017579943 0.02542127 0.062264245 0.06300031 -0.055860106 -0.045154158
0.012878021 -0.02541615 0.0022110683 -0.055055328 -0.02868774 0.017861513 -0.059604377 -0.06363202
-0.0077709793 0.022185802 -0.046470247 -0.0054976456 -0.07159457 0.04367824 0.035918668 -0.034425966
0.014919107 -0.01115508 0.035557307 0.027248168 0.04540449 0.027025877 0.0024667198 0.041720662

actor.2.weight f4 [128, 256]
00000000: 91ff 41bd eac0 2b3e 9454 33be af72 5e3c
00000010: 9947 72bd 8441 34be 0010 fd3c ff8f 043e
00000020: ba02 d33c 837d 313e 2df9 83bd 63f8 f4bd
00000030: 9a24 8abd d170 b03d 6d81 ec3c 3710 fd3c
00000040: 610a 4abe f365 90bd 7aed 7abd 0ab4 c43d
00000050: e7c2 873e 43ed babc 5c92 09be 4602 a23d
00000060: 40e3 23be 4602 19be 8f82 8e3c 3377 ec3c
00000070: 4751 75bd be10 143c 1ca0 3abd 9614 85bc
00000080: d4d1 283d 99d8 66b9 3697 993d 037d 813d
00000090: 8a0d 3bbe ad55 7c3c 30e0 df3d e735 2dba
000000a0: 52f5 833d 49c2 083e bf9f 7bbd 1eb7 6b3d
000000b0: 9279 6b3d 1cdb bfbd f502 813d 8408 2039
000000c0: f423 043d 7224 43be a141 71bb aeba 9d3d
000000d0: d51a 14bd f3c2 8abd e012 ee3c 2ec0 cfbc
000000e0: b5f8 42be ee44 8b3b 9503 0c3d 910b bdbc
000000f0: 4a5e 13bd efde 103e 2278 a93d ed77 63be
00000100: 53f5 9b3d 3aaf e4bd 411a 0e3d fc5e 8ebd
00000110: 4b7f 72bc 6cbf a0bd c002 b8bd 4ec7 25bd
00000120: dff4 98bd 42bb f3bb 20a0 f8bc 26cd fd3d
00000130: 7705 04be 08ed 8bbc 8832 7ebc f79f a13d
00000140: 4334 e33c ae74 683c bea5 cb3d 6b3d 27be
00000150: 513a 8d3d b25d 3dbd 6730 c6bd 7f84 853e
00000160: 0b66 6abc 9b4e debd 64b0 ca3c 51ea b63b
00000170: bb3c 1c3c 36e0 193d 6b14 48bc a32d b23d
00000180: 691b 103c 225f 813c e1b8 5dbd 7992 643c
00000190: 0f4f dfbd 6b94 203e 2af6 993d d211 3d3e
000001a0: 399c 143d 5ad6 36bd 9eac 4e3d 7f83 8b3d
000001b0: c201 bfbd 56c7 123c 616d 893d e276 013d
000001c0: 3c3d a0bd 924c a33c 619f dfbd 5d03 b3bd
000001d0: e193 a83d 3b0f aabc 58c4 3ebd ea30 9c3b
000001e0: a316 0bbd c8ab 1b3e e5cb 123d 7c35 6bbd
000001f0: f28a 91bd e6a9 973d 387d 3b3d 58df 033e
00000200: ae06 af3d 668e 063d e1bc 703d dad9 0a3d
00000210: 0b45 9dbd 1a1e 1a3e cdc0 20bd 852b 383d
00000220: 584d 16bd 35f3 f13d 7d43 08be e050 0bbe
00000230: 1460 a93d ec89 413c b2ac 953b 7abe 28be
00000240: ca1d 98bc 5504 9cbd c7bf a53d ce16 73bb
00000250: cda7 8c3d ac55 a03d 7afc 993d d1d3 6b3d
00000260: d4e7 f5bc b222 0f3e 8853 33bc e3aa 003d
00000270: 4f6e fa3c 1099 aabd f36e dfb9 f977 90bd
00000280: 4ae3 893e 6bcd 23be 7040 a9bb b500 4cbc
00000290: e7b6 97bc 5fef 59be a9a7 3bb9 34d9 07be
000002a0: 3567 8a3d def8 aebc 3e41 ff3c 241c 873d
000002b0: e777 ddbd 5859 8f3d f5aa 9a3c a05e 723c
000002c0: fcbc b7bd 78b2 303e ad33 f53d deea bb3c
000002d0: 5eb6 49bd f214 80bd 5d75 d9bd 389e fa3d
000002e0: b597 593d bb3b 883d 63ce 61bc e92f aa3d
000002f0: 9d44 2bbd d845 3e3c c086 993c 6a23 013e
00000300: c07e 633d 2e0f 8e3d ee4a ab3c eb46 c6bc
00000310: 9cb5 26bb bea1 39bd fde6 f73d b4f7 113c
00000320: 384f 833d 4e94 04bb cce6 ebbd 6769 0dbd
00000330: f1e6 a43c ea73 85bd ca51 e93a cc39 c73d
00000340: 66ab d73d 363d 03bd 30c7 563c 8f5c 1bbe
00000350: 5b16 d43d fd6e f3bd 500e d23c 9e9b d7bd
00000360: 32ed 193d 5331 19be 4657 8d3d 9887 c3bd
00000370: a69b 783d d1f4 3ebd fac1 a1bc 6b04 c83d
00000380: 98fb 8e3d 89ce e1bd 6c74 c93d bc61 86bd
00000390: 80a2 d63d 3324 95bd 2de7 e03d c954 d9bd
000003a0: 0998 023d 7ffc e4bb 386c 60bd d58d d53b
000003b0: 0b58 e8bd 46f9 5a3d c57e 06bd ca08 93bd
000003c0: a307 8c3d 039c 93bc 412a a33c 2640 2ebe
000003d0: cb82 3d3d 2d71 5f3e 5073 e2bd 02f3 0cbe
000003e0: 5dbc e73d da48 ec3c ad1e b5bc a70b 17be
000003f0: 5f30 a2bd eaed eeba 6700 013e 2f9a 90bd
-0.047362868 0.1677281 -0.17512733 0.013577147 -0.059150312 -0.17603117 0.030891418 0.12945555
0.025758136 0.17333035 -0.06444011 -0.119614385 -0.067452624 0.08615268 0.028870309 0.03089152
-0.19730522 -0.07050695 -0.06126163 0.09604652 0.26515886 -0.022818213 -0.13434738 0.0791059
-0.16004658 -0.14942273 0.01739624 0.028865432 -0.059891965 0.009037195 -0.04556285 -0.016245168
0.041215733 -0.00022015198 0.07499544 0.06322672 -0.18266883 0.015401286 0.10931432 -0.00066074583
0.064432755 0.13355364 -0.061431643 0.05754768 0.057488985 -0.09367964 0.06299392 0.00015261961
0.03226085 -0.19056872 -0.00368128 0.07701622 -0.0361584 -0.06775465 0.029061735 -0.025360193
-0.19040187 0.0042501604 0.034183104 -0.023076804 -0.035978593 0.14147542 0.08274867 -0.22213717
0.07615151 -0.11166234 0.034693006 -0.069517106 -0.014800857 -0.07849011 -0.089848995 -0.040473275
-0.074685805 -0.0074380944 -0.030349791 0.123926446 -0.1289271 -0.017080799 -0.015514977 0.07891839
0.027734881 0.014187975 0.09943722 -0.16332023 0.068958886 -0.046231933 -0.09677201 0.2607765
-0.0143065555 -0.108548366 0.024742313 0.005582132 0.009535964 0.03756734 -0.012211899 0.08700111
0.008795598 0.015792433 -0.054131392 0.013950937 -0.10903751 0.15681617 0.07517655 0.18463829
0.036281798 -0.044638015 0.05045759 0.0681219 -0.09326507 0.008958658 0.067103155 0.031607516
-0.078241795 0.019933973 -0.10919071 -0.08740876 0.08231331 -0.020759216 -0.046573967 0.004766573
-0.033957135 0.15202248 0.03583898 -0.057424054 -0.0710658 0.074054524 0.045773715 0.12878168
0.08546196 0.032850645 0.05877388 0.033899166 -0.076791845 0.15050545 -0.03924637 0.04496338
-0.036694854 0.11813966 -0.13306995 -0.1360507 0.082702786 0.011812668 0.004567706 -0.16478911
-0.018568892 -0.07618014 0.08093219 -0.003709245 0.06867943 0.078288406 0.07518859 0.05757505
-0.03001777 0.13978079 -0.010945208 0.03141297 0.030570177 -0.083299756 -0.00042616538 -0.07054133
0.2693122 -0.1599633 -0.0051651523 -0.01245134 -0.018519832 -0.21282719 -0.00017896168 -0.1326645
0.067579664 -0.021358903 0.03115904 0.06597164 -0.10813885 0.06999463 0.018880347 0.014793068
-0.08971593 0.1725558 0.11972747 0.022939142 -0.049246185 -0.06253995 -0.106180884 0.12237209
0.053123195 0.06652018 -0.013782117 0.083099194 -0.04181348 0.011613332 0.018741012 0.12611166
0.0555408 0.06936489 0.020909753 -0.024203738 -0.0025437837 -0.045320265 0.121046044 0.008909155
0.06411594 -0.0020229998 -0.115186304 -0.034524348 0.020129653 -0.065162495 0.0017800864 0.09727821
0.105307385 -0.032040797 0.013109013 -0.15172027 0.103558265 -0.11886404 0.02564159 -0.105277285
0.037579723 -0.14960222 0.06901412 -0.09547347 0.060695313 -0.046620194 -0.019745816 0.09766468
0.069815814 -0.110257216 0.09836659 -0.0656161 0.10480213 -0.07282295 0.10981593 -0.106118746
0.031883273 -0.0069881077 -0.054790705 0.006517152 -0.11344918 0.053460382 -0.03283574 -0.07179411
0.06837394 -0.018018728 0.01991761 -0.17016658 0.046267312 0.21820517 -0.1105715 -0.13764575
0.11315224 0.028843332 -0.022109354 -0.14750539 -0.07919382 -0.0018228863 0.1259781 -0.07060658

actor.2.bias f4 [128]
00000000: 0971 16bd 900a 043c 435e 44bd 3bba a0bc
00000010: 1c5a dbbc 4962 a63c 9ae1 b13b 7f3d a5bc
00000020: 9cb1 acbb 75dd fe3c 6d3e f539 6c5f 613d
00000030: 7f72 81bd b914 9fbd 3ad5 b1bc 326e 8abd
00000040: c53e d83b 0021 23bd 8914 1dbd 0228 8e3c
00000050: bc6f c13c 4dce 32bd 4ec1 8cbd 94ce 463d
00000060: 3f46 63bd 207e 2cbd c79f 84bc 5f66 153d
00000070: 634e 8cbc 4ce5 35bc b924 bc3c 2a5b 0a3d
00000080: fd33 0bbd dac8 46bd 491d 1d3d 7b1d c2bc
00000090: 02bd 97bc 70d2 033d c353 553b 9ecf 72bd
000000a0: 6598 143c bf4a be3c c670 88bc f377 4cbc
000000b0: 1b32 e7b9 a8d0 9bbd 909c c33b 1667 87bd
000000c0: e3ad f1bc 8576 f63c ad71 8fbd 2590 9abc
000000d0: bf9c e1bc f323 d1bc a371 bf3c 32af 3f3d
000000e0: 259a 0ebd b040 1b3d 539e 16bd 08ba 75ba
000000f0: faa7 163d 5875 953a e462 dc3c 230b 823c
00000100: 32e0 95bb 8438 163d 206b 89bc c089 d43a
00000110: 345f 9d3c 252c 04bd c028 d93c 5a84 44bd
00000120: 5e73 db3a 25a3 babc e852 96bd 1dfd 213d
00000130: 7bec 52bc 19e8 bc3c 0038 f0bc 53cf debc
00000140: fb7b f3bc 188e 8fbd 736e d23c b329 1bbc
00000150: 047e 61bd 4dba 293d a5bc 313d 9ce9 70bd
00000160: 8817 f13c 09e2 48bd 7013 77bd 55ee 0bbd
00000170: 619b 97bd 2dcd 33bd 3799 0e3d 1c68 ae3b
00000180: b53b 72bd ce67 3dbc 37bf 4b3a dadf f83a
00000190: 5688 9e3b 2b0f afbb ffc7 a9bd b5dd 45bd
000001a0: 8bfd 34bd de20 01bd a79b 603d 0358 af39
000001b0: 94aa 24bd 8c25 acbd 4b9b df3c b15b 0cbd
000001c0: 0b98 38bd fb24 5bbd 0ac9 ca3c f453 f43c
000001d0: 9aa8 0bbd ec99 1a3c 52f7 423d e9de 7bbd
000001e0: 4945 2cbd c433 f0bc 5ed3 b5bc 6dac a1bd
000001f0: ff50 96bd c17c 0cbd ce88 36bc 851c a33c
-0.036728892 0.008059159 -0.047941457 -0.019620052 -0.026776366 0.020310538 0.005428505 -0.020170925
-0.005270196 0.031111458 0.00046776552 0.055022642 -0.063206665 -0.077676244 -0.02170812 -0.06759299
0.0065992796 -0.039826393 -0.038349662 0.017353062 0.02361285 -0.043653775 -0.068728074 0.048536852
-0.055486914 -0.04211247 -0.016189469 0.03647458 -0.017127221 -0.011102032 0.02296673 0.033778347
-0.033985127 -0.04853139 0.038358007 -0.023695698 -0.018522743 0.03218311 0.0032551147 -0.05928003
0.009069537 0.023229001 -0.016655337 -0.01247977 -0.00044097085 -0.076081574 0.0059695914 -0.06611459
-0.029501861 0.030085811 -0.07004104 -0.018867562 -0.027540563 -0.025529837 0.023369616 0.04679794
-0.034814972 0.037903488 -0.036772083 -0.0009373729 0.03678129 0.0011402769 0.026902623 0.015874451
-0.0045738453 0.03667499 -0.016774714 0.0016215369 0.019210435 -0.032268662 0.026508689 -0.047977783
0.0016742756 -0.022782871 -0.07340032 0.03954803 -0.012873764 0.023059892 -0.029323578 -0.02719847
-0.029722204 -0.07009524 0.025687432 -0.009470391 -0.05505182 0.041437436 0.043392796 -0.058816537
0.029430166 -0.04904369 -0.06032127 -0.034162838 -0.07402683 -0.043896843 0.034814086 0.0053224694
-0.059138972 -0.0115603935 0.00077723287 0.0018987611 0.00483803 -0.0053423843 -0.08290099 -0.04830714
-0.04418711 -0.031525485 0.05483594 0.00033444175 -0.04020174 -0.08405599 0.02729573 -0.03426713
-0.045066874 -0.053502064 0.024754066 0.029825188 -0.034096338 0.009436112 0.047599144 -0.06149188
-0.042058263 -0.029321559 -0.022195514 -0.07894216 -0.073396675 -0.034298662 -0.011141015 0.01991106

actor.4.weight f4 [64, 128]
00000000: ef46 91bd 84af a8bc a214 dd3d d655 c8bd
00000010: acab f7bd 4400 973c e40c 383d 6c07 8cbe
00000020: 0539 163d 5d14 7bbe 7822 0f3e eaaa 273e
00000030: 51bb d8bd 394b d93c 0788 4a3d 05ab dcbd
00000040: 8c91 1b3e 2dfe 2cbd 4872 333e 2eec 5dbd
00000050: a623 87bd 7e4c 133c f174 003e bd49 85bc
00000060: 859a ecbd bdce 283d dbbb a73d 099f 59be
00000070: 6a1b 903d 54b7 b6bc 8106 e03c 2a28 c63d
00000080: 8cae 12bc f912 703e 2f5e 48bd 9d3d 063d
00000090: f3fe bf3c c788 de3b 2a65 8c3b 840b b9bd
000000a0: 6e30 13bd 5f96 c3bc 76b7 53be 72fd 51be
000000b0: 002b 1dbd 741c 753d dbcd 253d 1f0f a9bd
000000c0: 6e43 40bd c421 893d 56e7 f53d 3293 6d3d
000000d0: a287 9a3e 414d debd 59bf 43bc 5fa1 41bd
000000e0: 4a0c 0b3e 7483 91be f2b7 203d 0ecb cfbd
000000f0: 4f81 8b3a ca42 79bb d193 3f3e 02d6 993d
00000100: c99b 873e 9b07 0d3d efc7 c3be 5cdd a23d
00000110: ef64 cbbd 96ef a4bd 881e a4bd 640b 193e
00000120: 1fa1 623e 5ea6 9c3e ac7b 643e 8515 273d
00000130: 6a54 c4bd bb02 443b 823c 113e 8b15 14be
00000140: be44 c8bd e188 123c dc32 e13d e7ae 3abc
00000150: dcf6 7fbe 6006 e0bd d5b5 c4bd 846d b0bd
00000160: 4ccb 0f3e 64d4 24be 0343 fcbc 988c fabd
00000170: 5d67 ad3c 4dee 7a3d 0f5d 823d d27f debc
00000180: 02fd 863d a721 85bd 44da f23c 0115 98bd
00000190: e43a 2f3b 1d24 34bd 0c77 8ebb 15a7 6a3d
000001a0: e2a1 84bd 332b 71bd c9e7 85bd f643 5bbd
000001b0: cbbf e43c 63ff 0e3e ba5a 0d3e d053 df3d
000001c0: 8edc 033e 4161 c33d 2216 5ebe 5c48 9e3d
000001d0: 35fd 8d3d 047f 61bd 4ede 12be 44c1 14be
000001e0: 8d36 4ebe 6fa0 1c3e 6891 c5bd 9d24 cf3b
000001f0: b7f1 113e 492c 2d3e 70dd bebc f6b3 813d
00000200: af06 c43c cdbf 25bd b531 4d3e 4d86 6f3d
00000210: 8d40 923d 600f 26be 1f15 33be 1b3e b8bd
00000220: c98b 553e 44aa 133e 5f99 cc3d f23b 20be
00000230: d3f1 343e 6247 463e d0e9 bebd 2d3b 5ebd
00000240: 300c b83e cf9b 003e 641f 0f3e e4e3 72be
00000250: bb11 0dbd 1584 103d de49 5ebd f986 9bbe
00000260: 22e3 883d 3e8a 433d 75c0 ab3b c4c6 16bc
00000270: d84e c53d df34 7a3d 7747 24be c69b f73b
00000280: e626 f73d 6d6f 1d3e 8cbf ea3c e1f0 3a3e
00000290: 3880 d13d 2e3a af3d cf6b c73d 0d83 433e
000002a0: e41b d5bd be54 21be 1f1b 9dbc 5b7d 2f3e
000002b0: bebb 833e b331 aa3c 959f 77bd 1222 963d
000002c0: 7453 493e e2b9 053e 64d1 a9bd 9f2a e8bd
000002d0: 2dc0 503d be3d 60be 82f8 33bb 9c01 a23d
000002e0: 20a3 ffbc b76f c83d 33f1 6fbd 32bb 423e
000002f0: 631e 08bd a23a 32be 026d 52be de51 cfbc
00000300: 8bdf ed3c dcd7 e2bd de81 5d3e c9bd 46bd
00000310: 77fe 3c3c 23c4 0dbe 1a4c acbd 4d20 373e
00000320: c3fc 85bd 0c4d 093e 5b0f 21be e046 a1be
00000330: 5ae2 033d 1615 7abd 0941 2a3e 36be 623d
00000340: 6eca 5bbd 46ac 25be 25b4 153d 7f7f c83d
00000350: e245 1cbc 9b16 31be 916a 5dbc 13fd b23e
00000360: 6cbc 103e 21e3 10bd 3040 bcbd bc67 d1bc
00000370: 4e9d 27bc 07b5 b03c 2062 0abe 8c20 173d
00000380: 2b95 9f3c e64c 913d c0ab a33d 027c 0ebe
00000390: b263 aebc f9b3 31be 2a95 e13d 2e94 563e
000003a0: a724 62be 16bb ea3d 02ff 20bd 568a abbd
000003b0: 6a74 153e 6914 d4bd 00b3 82bb 0bd9 eb3d
000003c0: 4613 a23d 83de 223e f498 dc3d d110 373e
000003d0: 0d4c d8bd 12b0 b4bc 771d babd 3d74 2ebd
000003e0: eafb f43b 9814 cabd 7945 60bd d41e 6a3e
000003f0: 96e4 ea3c e29f f5bd c136 21be e239 0e3c
-0.07093608 -0.020591505 0.10794951 -0.09781997 -0.12093291 0.018432744 0.04493417 -0.27349412
0.03667547 -0.24519487 0.13977993 0.16373792 -0.10582603 0.026525127 0.049446132 -0.10774807
0.1519224 -0.04223459 0.17524064 -0.054180317 -0.06598596 0.008990405 0.1254461 -0.016270513
-0.1155291 0.041212786 0.081901275 -0.21252073 0.07036479 -0.022304215 0.027346851 0.096756294
-0.008952748 0.23444737 -0.048917945 0.032773603 0.023436999 0.0067912075 0.0042845206 -0.090353996
-0.035934858 -0.023875413 -0.20675454 -0.20506838 -0.038371086 0.05984159 0.040479522 -0.08254837
-0.046939306 0.066958934 0.120070145 0.058001705 0.30181605 -0.10854579 -0.011947476 -0.047273036
0.13578907 -0.28420603 0.039237924 -0.101461515 0.0010643395 -0.0038034194 0.18708731 0.07511522
0.26486042 0.03443108 -0.38238475 0.07952377 -0.09931361 -0.0805351 -0.08013636 0.14945751
0.22131775 0.30595678 0.22312802 0.040792007 -0.09586413 0.0029908854 0.14183238 -0.14461343
-0.097787365 0.008943767 0.10996029 -0.011394239 -0.24996513 -0.10938716 -0.09604994 -0.086146384
0.14042395 -0.16096646 -0.030793672 -0.122338474 0.021167452 0.061262418 0.06365406 -0.027160559
0.06591226 -0.06500559 0.029645093 -0.07425881 0.0026737982 -0.043979753 -0.0043476876 0.057288248
-0.06476189 -0.05887909 -0.0653835 -0.05353161 0.027923485 0.1396461 0.1380414 0.10904658
0.12877104 0.09540034 -0.2168813 0.07728645 0.06933061 -0.055052772 -0.14342615 -0.1452685
-0.20137997 0.15295576 -0.09646875 0.0063215033 0.14252363 0.16911425 -0.023298949 0.06333153
0.023928968 -0.04046612 0.20038493 0.05847769 0.07141218 -0.16216803 -0.17488526 -0.08996221
0.20854105 0.1442042 0.09990191 -0.15647867 0.17670374 0.19363168 -0.0932194 -0.054255653
0.35946798 0.12559436 0.13976818 -0.23719746 -0.034440737 0.035282213 -0.054269664 -0.30376413
0.06683947 0.04773926 0.0052414485 -0.009202663 0.09634179 0.061085578 -0.16042887 0.0075564114
0.12067966 0.15374537 0.02865579 0.1825595 0.10229534 0.08556019 0.0973736 0.1909296
-0.1040571 -0.15754983 -0.019177971 0.17137663 0.25729173 0.020775652 -0.060454924 0.07330717
0.19660741 0.1305919 -0.08291891 -0.11336254 0.050964523 -0.21898553 -0.0027461355 0.07910463
-0.031205714 0.09786933 -0.058579635 0.19016722 -0.033232104 -0.17405179 -0.20549396 -0.025307592
0.029037258 -0.11076328 0.21631572 -0.048520837 0.0115352785 -0.13844351 -0.08412953 0.17883416
-0.06542351 0.13408297 -0.15728514 -0.31499386 0.032198288 -0.061055265 0.16626371 0.05535718
-0.05365985 -0.16178998 0.036548752 0.09789943 -0.009538146 -0.1729378 -0.013514177 0.34958705
0.14134377 -0.035372857 -0.0919193 -0.02556216 -0.010230375 0.021570696 -0.13513994 0.036896273
0.019480309 0.07094745 0.07991743 -0.13914493 -0.021287773 -0.1735381 0.11014779 0.20954964
-0.22084294 0.11461465 -0.039305694 -0.08375995 0.1459519 -0.103554554 -0.0039886236 0.11516007
0.07913832 0.15905194 0.10771361 0.17877509 -0.105613805 -0.022056613 -0.09087651 -0.042591322
0.0074763196 -0.09867209 -0.054753754 0.22863322 0.028673451 -0.11993386 -0.15743543 0.0086807925

actor.4.bias f4 [64]
00000000: d73a e73b 95b5 1ebd 77ff 58bd d9f8 0cbd
00000010: 974a e8bd 0bf6 223d b35c 0d3d 683d 1f3d
00000020: cb72 b4bd 3831 d83b 431c 4fbb 2b40 0abd
00000030: 5a9f 2b3d 719f e4bc d1a3 03bd 0476 833c
00000040: 5596 d43c b932 c1bc b375 9f3c 37ed 99bd
00000050: d30e 8f3c 84dd 9dbd c3f9 f3bc e4bb 6a3c
00000060: c488 393d 3195 883d 18a6 673d b707 87bc
00000070: e530 a83d 9019 8a3d 56de 24bd 29f0 e4bd
00000080: 7e06 c5bd 6352 6e3d 4d5a 86bd 01e7 dabc
00000090: bec8 233d d091 45bc ca84 89bb b7f5 993d
000000a0: 4bb7 70bd 0a22 e1ba 626c a1bd a59f 84bd
000000b0: fcdd d1bc f88f 1bbd 0cf3 443d 7cd0 b5bd
000000c0: 0275 a9bc bc38 a6bc cad1 0f3c 0f47 923d
000000d0: 6e68 22bc 769b cfbd 0427 553d 2313 ad3b
000000e0: b88e 1a3d ac0c 4bbd 98e3 fbbc 0d8e 68bd
000000f0: eb03 aabd b01f 543d 5f1b c03c a57f a2bd
0.007056575 -0.03874739 -0.052978005 -0.034417007 -0.11342352 0.039785426 0.034512233 0.03887692
-0.088109575 0.006597664 -0.0031602539 -0.0337526 0.041900016 -0.027908059 -0.03213865 0.016047485
0.02595059 -0.023583757 0.019465303 -0.07515948 0.017463123 -0.077082664 -0.029782182 0.014327023
0.045296445 0.06669081 0.056554884 -0.01648317 0.08212451 0.06743157 -0.0402511 -0.111786194
-0.09620379 0.05818404 -0.06560192 -0.02672148 0.039986365 -0.01205869 -0.004196738 0.075175695
-0.05876855 -0.0017176282 -0.078820005 -0.06475762 -0.025618546 -0.037979096 0.04808335 -0.08877656
-0.020685676 -0.020290725 0.008778045 0.071424596 -0.009912593 -0.10137074 0.05203916 0.0052818223
0.037733763 -0.04957263 -0.030748174 -0.056776095 -0.083015285 0.051788032 0.023450552 -0.079345025

actor.6.weight f4 [3, 64]
00000000: 68ec 86ba 2aa5 ea3a 99c5 9b3b c2af 07ba
00000010: 81e4 01ba f891 533c b051 43ba 1c42 793a
00000020: 2bdb 293c 1c4f 80bb 2799 1dbc 140d 23bb
00000030: 2d75 19b7 04bd 15ba 279a af39 fae1 cbbb
00000040: f4b7 4a3b 3d21 24bc 896b 0dbb 55d4 07ba
00000050: a484 aeba 81ed 27bb 90b9 f339 29d7 60ba
00000060: 6eba 4eba 4c17 daba 1084 a2b9 523c 0dbb
00000070: e76a 19ba 1de0 1bb9 0e92 1f37 df6b 913b
00000080: b8e4 11ba 158b 4c3b 442a cab9 d4b2 b9ba
00000090: a66b c5ba 7197 d6ba e0b8 54bb d765 40bb
000000a0: 3cc1 b1ba be29 4a3b 64c6 1ab9 430e b0ba
000000b0: 0679 39bb 9e65 ad3b 099b 3c3a 75e0 5abc
000000c0: c5d0 afbb a968 7e3b 3c26 98ba 6a93 203c
000000d0: 36af 7537 2c47 72ba ee5b 43bc fe01 f3ba
000000e0: d1a8 58b8 ff12 1b38 ea7a 123b 94d7 0839
000000f0: 1631 d9b9 ff82 373c e1a0 8cb9 cd3c db38
00000100: 649b f1ba 73b3 eebb 0ae8 8c3a deff a2bb
00000110: ca6e a4bb a435 7b3b 0d01 b0bb a157 80bb
00000120: 3b57 aabb 2e46 5cbb 793c 9bbc 5e8c 04bc
00000130: 2817 9abb 9cfc aebb cd81 f4bb 92bc e0bb
00000140: fb29 f6bb e942 1eba ca15 b7bb f4a7 88b9
00000150: 7ddc 08bc 1271 cbbb 42af dbbb ce79 7ebb
00000160: 8fb4 cabb e872 e4bb 34a6 c9bb 02d6 84bb
00000170: d428 f639 fa0f fb3a a612 1cbb 961d b8bb
00000180: bfb3 cfbb 5774 4a3c 385d d3bb 1a29 9dbb
00000190: b7eb 99bb 0c8e b8bb 5fae 88bc 377d dfbb
000001a0: b354 c7bb 80ce 4b3c 6824 b4b9 e369 b4bb
000001b0: 848f b7bb 5b32 42bc aa5b e2bb 5e59 09bc
000001c0: b80f d5bb 2000 59bb 7cd3 adbb 721c 1a3c
000001d0: e288 83bb 93d6 f7bb a741 2d3b ecde debb
000001e0: c51b b7bb 091d c8bb df69 fcbb 7774 a1ba
000001f0: c714 46ba 11c6 593b daed 16bc 9698 d8bb
00000200: df9c 893b 2e62 823d 9974 92bd 4bad 783d
00000210: 14c2 723d 9479 943c 5c4b 793d 4a6c 593d
00000220: 281d 423d 060c 773d aa48 213d 7370 7a3d
00000230: fc25 683d c8ff 753d 348d 803d 7802 403d
00000240: 2824 0e3d 38d1 483d 11d7 3a3d 2a3b 3bbc
00000250: 1bcd 6d3d f797 4d3d d7d0 783d 5704 82bc
00000260: 862d 753d 5f53 743d 3410 823d 21a5 5c3d
00000270: 10f1 d83a 94c0 1cbc ecec cbbb 0ffe 853d
00000280: cd53 753d 34c1 c73c 5d49 833d a5a2 783d
00000290: 91cb 6f3d 4e88 763d 729d 283d 57b5 02bd
000002a0: 63e5 793d ecb9 94bd bbf6 85bb 6804 6b3d
000002b0: c3a8 543d 89bc 3a3d 60e7 823d 14fc 3a3d
000002c0: 7a19 703d b4dc 393d fd3d 6c3d f410 aa3c
000002d0: f760 a0bb d42a 863d ef1b 5e3d c558 763d
000002e0: 7ef8 643d 2a1e 873d c02c 843d 0e01 9dbb
000002f0: a3f4 49bc 1e08 b33c 64cf 893d 7cc3 763d
-0.0010293843 0.0017902006 0.00475378 -0.0005176031 -0.0004955009 0.01291322 -0.0007450832 0.0009508447
0.010367195 -0.0039156806 -0.009619034 -0.0024879621 -9.146793e-06 -0.00057120644 0.00033493454 -0.006222007
0.0030932399 -0.01001769 -0.0021578989 -0.0005181481 -0.0013314676 -0.002562374 0.00046486827 -0.0008576983
-0.00078860566 -0.0016639023 -0.00030997442 -0.0021550846 -0.00058524165 -0.0001486544 9.5111445e-06 0.004437908
-0.0005565393 0.003121083 -0.00038559933 -0.0014167675 -0.0015061989 -0.0016372037 -0.0032458827 -0.0029357576
-0.0013561617 0.0030847634 -0.00014760491 -0.0013431985 -0.0028300895 0.0052916547 0.0007194733 -0.013359179
-0.0053654634 0.0038819707 -0.0011608074 0.009800771 1.4643932e-05 -0.0009242173 -0.011923773 -0.0018540022
-5.1655636e-05 3.697257e-05 0.0022351095 0.0001305028 -0.00041426037 0.0112006655 -0.00026822745 0.00010454059
-0.0018433151 -0.0072845756 0.0010750305 -0.0049743494 -0.00501809 0.0038331533 -0.005371219 -0.003916696
-0.005198387 -0.0033611166 -0.018949734 -0.008090107 -0.0047024675 -0.005340172 -0.0074617625 -0.006858417
-0.0075123287 -0.0006037192 -0.0055873143 -0.00026065076 -0.00835335 -0.0062085474 -0.006704242 -0.0038829925
-0.006186075 -0.0069717057 -0.006153846 -0.004053832 0.00046951196 0.0019154542 -0.0023814826 -0.0056187613
-0.006338566 0.012356839 -0.0064503215 -0.0047961595 -0.004697289 -0.0056321677 -0.01668471 -0.0068203467
-0.006083095 0.01243937 -0.000343594 -0.0055057867 -0.005601825 -0.011852826 -0.0069079 -0.008383123
-0.006502118 -0.0033111647 -0.005304752 0.009406196 -0.0040141204 -0.007563421 0.0026436837 -0.0068014767
-0.005588027 -0.006106977 -0.0077030505 -0.0012318034 -0.00075561967 0.003322963 -0.009211982 -0.0066099865
0.0041996087 0.063663825 -0.071511455 0.06071214 0.05926712 0.01812438 0.060862884 0.053081788
0.047391087 0.0603142 0.03937594 0.061142396 0.05667685 0.060058385 0.06276932 0.046877354
0.03470245 0.04902765 0.04561526 -0.01142768 0.058056932 0.050193753 0.06074604 -0.01587121
0.059857868 0.05964982 0.06350747 0.053868417 0.0016551334 -0.009567399 -0.0062233116 0.065425985
0.05989437 0.024384119 0.06410477 0.060701985 0.058543745 0.060188584 0.041165777 -0.03191122
0.061009776 -0.07262024 -0.0040882505 0.05737725 0.051918756 0.045589957 0.063917875 0.045650557
0.058618046 0.045376495 0.057676304 0.020760037 -0.0048943716 0.065511376 0.05422586 0.06014325
0.055901043 0.0659755 0.06453848 -0.0047913855 -0.012326392 0.021854457 0.0672901 0.060245022

actor.6.bias f4 [3]
00000000: 2678 dbbc 2223 8b3d c1be e33c
-0.02679069 0.067938104 0.02780092

critic.0.weight f4 [256, 259]
00000000: fb8b d5bd b65e 893e a0fb bb3e 7f87 39bc
00000010: 2b64 18be 94d7 c3bd 9f56 913d e6df 5abd
00000020: d397 123d b1fc 4b3b 2063 2d3d 494a a1bd
00000030: 58a5 b23d 153d f63d 1e0c fc3d a7b1 57bd
00000040: 5521 353e 1e1e 9dbd c13f d6bd 715b 99bd
00000050: 8b9d d63d 80b6 cbbd 04fd 67be b4e6 f23d
00000060: 5845 e8bd 63c4 ae3d d870 963c 37d4 70bd
00000070: f68f a13e a45c 623e 3fab 103e bd02 813d
00000080: 1f0b 8e3b b45a fa3d ece3 08be 9e8f 43bd
00000090: 0a03 8a3c 4505 3e3e 47bb 96bd 5e1f ce3d
000000a0: 27ef 383d cceb 3abc 5e2e 10bd 65fc c43d
000000b0: 68ab 52bc 2518 483e 2f00 0c3e 6954 173e
000000c0: 1bcd 3bbe ed27 7e3e 4546 1fbd 564c ca3c
000000d0: aa7d 533d 6f09 5c3d 4358 9fbc 73ec 823d
000000e0: 1f14 49bd 3513 a03b d572 463e 4e83 1abc
000000f0: b195 993d 53b8 003c ecb9 9bbb b1ca f73c
00000100: 8680 1bbd ec2c bfbc ffa2 ee3d 653d 033d
00000110: f1ab 2bbd 0e70 e83d 1700 cebd 944c 973d
00000120: 76f2 18be 6523 88bd 48fd 033e 5faa 2bbe
00000130: e776 363d 0ed7 c6bc 5c0e 9d3d f503 803e
00000140: 337f 0bbc bc1c 843e 43a2 9c3d dd6e 0cbd
00000150: d023 ea3d 56f6 a33f ac0c 753d 20dd 03be
00000160: f9d6 e8bc 8421 83bd 4a9f 253e c0d8 d53d
00000170: 66a2 3d3d 3855 c0bd 2d1c d4bd 6667 7a3d
00000180: a42f 4e3a 1743 0abd 6c6a 2d3d 4d13 9a3d
00000190: bbe5 64bd 6117 ac3e ff3d dcbc ee2b 2f3d
000001a0: 41a9 e83c 620b aa3d 6f20 38be e2cb 943d
000001b0: 636b f43d 046f 643c 4235 9d3d 586e 0fbe
000001c0: 99be 80bb 5408 bbbc 8aac 6abd 0959 d1bb
000001d0: fa32 b7bc f74a cabd 61d2 993c d1fa 9bbd
000001e0: 8485 4abc 76cc 10bd 0b13 d03c 6101 a03d
000001f0: bddb 443d 8df1 513e 6a7e d6bc 1e09 533d
00000200: 4f01 afbc 1b69 963d 87f3 903d 06f1 f3bc
00000210: fac6 913d 1dd3 cabc be98 49bc b37b 603d
00000220: 1fce 8d3c 9dab eabd 5282 8b3c 0f70 a03e
00000230: 0246 0e3e 4032 c13d 25cb 66bd 1048 ea3d
00000240: 880f b0bd 78c1 aebd 1fff 5a3d 464d 85bc
00000250: feca 323e 69ba 413d 066c a6bd c05e 323d
00000260: cd71 61bb ee93 05be fdb8 e1bc a255 9a3e
00000270: e438 e4bc 9aff 543e b86c c03d 0a93 16bc
00000280: 4eca d6ba 7d91 bfbd 3345 ed3d c816 d9bc
00000290: 189a 9f3c 738c 95bb 15d2 87bd f5b3 a53d
000002a0: e7e0 15bd 8ccd 1b3d 6202 4ebd 206e aa3d
000002b0: 9018 363e 4cf3 da3c 200e 60bd 5416 d93d
000002c0: d6da febd 64c9 e13d 4590 debd 8861 fb3b
000002d0: 58fd d0b9 6299 a43d f134 19bd 5aef 03bd
000002e0: 2f23 193d fcdf 3d3e 46e5 3bbe be92 b5bc
000002f0: e45f 27bd c9c7 443d 46f9 adbd 9eab 66bd
00000300: 58d7 413e d9ec 10bc 1306 3dbd 4c24 6abd
00000310: eb98 c83d 1514 73bc 9cfb a5bd b20f 45bc
00000320: 3a46 ee3d ae6d f43d 90e5 55bb 4440 a13d
00000330: 5b8c fb3b fdd9 703d 6d95 64bd c430 503e
00000340: 9eb5 afbd 0a18 28bb a20c ffbc a80b 173e
00000350: 9aaf f83c 4ad3 573d 930b 493c 5726 893c
00000360: a4fe 373d 3cf7 d3bd 4063 81bd c103 bdbd
00000370: 43eb a7bd b374 c4bd cda5 cabd 8ca1 9ab8
00000380: 81ef a33d 9eef d0bd ab50 243f 1a2e b0bc
00000390: 8fb4 c03d 5913 8c3e 8c39 023d b528 10be
000003a0: 5ac3 523d 5fde aa3d 3276 ef3c b8cf b1bc
000003b0: 809d c0bd 9ba8 1ebe e05a c2bc fc1a d43d
000003c0: c239 1abd 1f0a 093e dafa 1e3e c746 323e
000003d0: 5069 11bd e1cb afbd 5273 a0bc ba9e 913d
000003e0: ca65 183d 593b 003d 4abb cd3d 3719 323d
000003f0: 031c 883d b2b8 aa3d 6585 c3bc d00d 28bc
-0.1042709 0.2683007 0.36715412 -0.011323809 -0.14881961 -0.09562603 0.070966 -0.053436182
0.035789322 0.0031125958 0.04233086 -0.07875497 0.08722943 0.12023369 0.12306999 -0.052659657
0.17688496 -0.0767176 -0.10461379 -0.07488144 0.10479268 -0.099469185 -0.22655112 0.118604094
-0.11341351 0.085335515 0.018364355 -0.058796134 0.31555146 0.22105652 0.14127825 0.062993504
0.004334822 0.122243315 -0.13368195 -0.047744386 0.016847152 0.18556698 -0.07359939 0.100645766
0.04514995 -0.011408757 -0.03520047 0.09618453 -0.012858249 0.1954046 0.13671945 0.14778294
-0.1833996 0.24819918 -0.038885374 0.024694603 0.051633514 0.053719934 -0.019451266 0.06392755
-0.049091455 0.004885102 0.19379742 -0.00943072 0.074992545 0.007856446 -0.004752388 0.030248018
-0.037964366 -0.02333685 0.11652183 0.032040972 -0.041912023 0.11349498 -0.10058611 0.07387653
-0.14936242 -0.06647376 0.12889588 -0.1676421 0.044546988 -0.024272468 0.076687545 0.2500302
-0.008514213 0.25803173 0.076481365 -0.034285415 0.11432612 1.2809551 0.059826538 -0.12877321
-0.02842282 -0.06402877 0.16174045 0.104417324 0.046297453 -0.09391254 -0.103569366 0.061133765
0.00078653754 -0.033755388 0.04233782 0.075232126 -0.05588315 0.33611587 -0.02688503 0.042766504
0.028401019 0.08302952 -0.17981122 0.0726545 0.11934545 0.013942484 0.07676174 -0.14006937
-0.003928971 -0.02283112 -0.057293452 -0.0063887876 -0.022363175 -0.0987758 0.018777074 -0.07616199
-0.012360934 -0.03535124 0.025399705 0.07812763 0.04806112 0.205023 -0.026183326 0.051522367
-0.021362929 0.07344266 0.07077699 -0.029778015 0.0711803 -0.02475887 -0.012304483 0.05480547
0.0173102 -0.11458514 0.017029915 0.31335494 0.13893893 0.094334126 -0.056346077 0.11439526
-0.08596712 -0.08532995 0.05346596 -0.016272198 0.17460248 0.047296915 -0.081260726 0.043547392
-0.0034400106 -0.13044712 -0.02755403 0.30143458 -0.027859159 0.2080063 0.093957365 -0.00919033
-0.0016387196 -0.093539216 0.11585464 -0.02650012 0.019482657 -0.004563862 -0.06631867 0.08090965
-0.036591437 0.03803782 -0.05029524 0.08321786 0.17782807 0.026727341 -0.05470097 0.10599962
-0.124440834 0.1102474 -0.10867361 0.0076715387 -0.00039861607 0.08037068 -0.037404004 -0.032210685
0.03738707 0.18542475 -0.1834918 -0.022164699 -0.040862933 0.048042092 -0.08494811 -0.05631601
0.18929803 -0.008845531 -0.04614837 -0.05716352 0.09794792 -0.014836331 -0.08104631 -0.012027668
0.116344884 0.11934982 -0.003263805 0.07873586 0.007676644 0.05880164 -0.055806566 0.20331103
-0.085795626 -0.0025649094 -0.031133953 0.1475054 0.03035717 0.052691735 0.012270826 0.016741915
0.04492058 -0.103498906 -0.063177586 -0.092292316 -0.081991695 -0.09592571 -0.09894905 -7.373383e-05
0.08004666 -0.10201953 0.6418559 -0.021506358 0.09409439 0.2735851 0.031793162 -0.14078029
0.051455833 0.08343195 0.029231165 -0.021705493 -0.09405041 -0.15494005 -0.023724973 0.10356709
-0.03765274 0.13382767 0.1552538 0.17409812 -0.035500824 -0.08583809 -0.019586239 0.07110353
0.03720645 0.0313066 0.10045488 0.043481078 0.06645968 0.08336009 -0.023867318 -0.010257199

critic.0.bias f4 [256]
00000000: ec08 bdbc b56a b73c e402 183d 3320 2ebc
00000010: 0864 e13c bab9 f3bc 6015 893d fdf5 3fbd
00000020: 6626 7dbd 09bc 0ebd dfde d8bc df93 c23c
00000030: c2f0 653d 20d1 5a3d a32a 783c 04d5 9a3c
00000040: f7b6 da3c b346 b9bc db4c bdbc ede0 313d
00000050: df18 d538 6942 793d fddd d53c b945 22bd
00000060: 8b11 0cbd 86af b3bc 0e8a f53c f5bd a13c
00000070: d124 4c3d e5d6 8cbd 2376 91bc c266 dabc
00000080: 01e0 79bd e304 9d3c a7a0 74bd 4980 04bd
00000090: c8e0 6abc 7f94 39bd 8c94 993b b6e5 4ebd
000000a0: 6bb2 eebc 0bca 46bd 73a3 923c d424 54bd
000000b0: 2e19 eb3c 62b2 0a3d a8af c9bc ef53 e9bc
000000c0: c1a9 5abd d598 963c 26a9 53bd 9d7e 3ebd
000000d0: d474 383d 3b83 10bd 838e 503d 16b4 14bd
000000e0: f882 05bd a553 2bbd 52c2 23bc be44 0dbd
000000f0: 0009 833c f5b4 923d f9e4 713d 2d42 553d
00000100: 9a4b ed3b 088a 96bc 237b 67bd f111 72bc
00000110: d88d ffbc 786b 25bc a34e 633c d541 6bbc
00000120: 69e0 1d3c f3cc eabb eb02 d3ba 693b ea3b
00000130: 3af4 1bbd 2afd 273d 4e5e e2bc 8d8d 51bd
00000140: 71a6 fe3c 6350 723d 6133 4cbd 4138 443d
00000150: 956d 5d3c a3db b6bb 0c8d 8a3c c9fb 93bc
00000160: 8b2b 78ba f60a 2abd e7aa 5237 799e 923c
00000170: 8a3b 17bd 2042 ab3c cb5e 9a3c eba5 22bb
00000180: a5ba 383d 7ec1 91bc e1b3 4c3d 6d63 573c
00000190: 47dc 2dbc 5023 5abd a578 5abd 149e 243d
000001a0: 1615 083c b485 f9bc b0ed 823c b805 78bc
000001b0: f273 72bc 640e 243d 1031 133d 3a48 3d3d
000001c0: 51d1 1ebd bac1 0b3c 0aef 0fbd ece8 61bd
000001d0: 87f3 b83c 0878 9ab9 33af 5dbc 67ce e8bc
000001e0: c94a b43c dcfc 2bbd fe5e 84bc 2329 e83c
000001f0: f177 6abd 9c94 05bd 99d2 a43b 5448 d73c
00000200: 260c 01bc 9e2e 793b 8541 48bd e4d3 4c3d
00000210: 7e50 673d 7a10 83bc 83d4 993c b04e 00bc
00000220: 57dc bf3c 4e48 53bd 8d11 e33c 22de 1cbc
00000230: 46d6 8dbd 6e2e 04bd ddc1 58bd 99d3 abbc
00000240: 54d1 a0bc c60a 883d c741 01bd abd5 f2bc
00000250: cdf0 28bd e4b3 773b 26c6 5abd 4946 a03c
00000260: c964 88bc 61d4 9a3d 6275 683c 785c 723d
00000270: a3d0 4abd 1f49 5abd b50e 8c3b 6e51 0dbb
00000280: 39af 44bd e38b 533c ce3d 16bc c0b2 7cbd
00000290: 1613 92bc cc4e 54bd 1d40 0b3c aae8 b3bc
000002a0: 198e 913d 8722 153c fd15 e73c 73af 7a3c
000002b0: d9db 3e3d 3a12 1cbd 82cc 85bc e4e3 82bd
000002c0: e540 95ba 0649 6fbd 34b7 38bd 80e3 7c3d
000002d0: 9c1e 39bd 4025 863c 4be6 29bd ba83 63bd
000002e0: f750 0fbd 2ffc 963c 68f4 40bd 630a 6abd
000002f0: 2140 78bd ddb6 3cbc 568f 07bd 02fe 2bbd
00000300: cd79 66bc 70a1 26bd 89d5 7c3d 4ef2 59bc
00000310: 9fcf b03c a885 013d 0ce4 44bc 563f 56bc
00000320: 60f5 50bc 49c2 a93c d1b3 1d3d 287b 2ebd
00000330: 4f63 5dbd 69be 9d3c e550 9dbc bcd9 f43c
00000340: 43a8 c6bc 3bcb 1bbd 306d b73c c96f 363d
00000350: 71ad 8f3c 124a eb3c 335f 1ebb e91e 3f3d
00000360: dc85 0a3a 4317 1bba 2862 433d 95ac 44bc
00000370: 2b9a 3f3d e161 73bc 2128 18bd 6558 a13c
00000380: aebe f4bb 65a3 56bd 4253 0cbd cbcd 34bd
00000390: f149 c3bc 9490 2abd 6176 54bd 367f 26bd
000003a0: 8d00 58bc 3095 ee3a 416c c5bc 8547 f7bb
000003b0: ab68 273d 3481 1d3d de99 9bbc 3753 18bc
000003c0: 7b0c b63c 084a 783d 79c5 6abd aec2 8fbc
000003d0: b1bf 9bbb 9315 313d 063f babd 8993 4839
000003e0: 41cd 41bd c613 23bd 0d3a b3bc 0650 813c
000003f0: ab0e 853b de17 25bd 778a 0f3b 432b 3c3d
-0.023075543 0.022389749 0.03711213 -0.010627794 0.027513519 -0.029751647 0.0669353 -0.046865452
-0.061804198 -0.034847293 -0.02647346 0.023752151 0.056137808 0.053422093 0.015146884 0.018900402
0.026698573 -0.02261672 -0.023107937 0.043427397 0.00010161264 0.06085435 0.026106829 -0.039617274
-0.034196418 -0.021934282 0.029973056 0.019743899 0.0498398 -0.068769254 -0.017756527 -0.026660327
-0.061004642 0.01916737 -0.059723523 -0.032348905 -0.014335819 -0.045307633 0.0046868976 -0.05051204
-0.02913781 -0.048532527 0.017900204 -0.051792935 0.02869853 0.033861525 -0.024619892 -0.028482405
-0.053384546 0.018383423 -0.051674984 -0.046507467 0.04503329 -0.0352814 0.05091716 -0.036304556
-0.032595605 -0.041827817 -0.00999506 -0.034489386 0.015995502 0.07163421 0.059056256 0.052065063
0.0072416784 -0.018376365 -0.056513917 -0.014774785 -0.031195566 -0.010096423 0.013873729 -0.014358957
0.009636023 -0.007165545 -0.0016098892 0.0071481955 -0.03807471 0.04101292 -0.027632859 -0.051160384
0.031085225 0.059158694 -0.049853686 0.04790521 0.013514896 -0.005580382 0.01691296 -0.018064396
-0.00094669376 -0.04151436 1.2556767e-05 0.017897831 -0.036922015 0.020905554 0.018844029 -0.0024818133
0.045099873 -0.01779246 0.049976233 0.013146264 -0.0106116 -0.053256333 -0.05333771 0.040189818
0.0083058085 -0.030459262 0.015982479 -0.015138082 -0.014798151 0.040052786 0.03593546 0.04621146
-0.03877384 0.008530075 -0.035140075 -0.055153772 0.02257706 -0.000294626 -0.01353054 -0.028418733
0.022008317 -0.041989192 -0.016158577 0.028339928 -0.05724329 -0.032612428 0.005029988 0.026279606
-0.007876432 0.003802217 -0.04889061 0.050006762 0.056473248 -0.015999068 0.018778091 -0.007831261
0.023420496 -0.051582627 0.02771833 -0.009574445 -0.06925635 -0.03227084 -0.052919257 -0.020974921
-0.019631065 0.0664268 -0.03155687 -0.0296429 -0.04124527 0.0037796432 -0.053411625 0.019564765
-0.01664962 0.07560039 0.0141881425 0.059170216 -0.049515378 -0.05329239 0.004274214 -0.0021563428
-0.048018668 0.01291177 -0.009170009 -0.061693907 -0.017831367 -0.05183296 0.0084991725 -0.021961529
0.07107181 0.00910247 0.028208727 0.015300619 0.04659638 -0.03810332 -0.016332868 -0.06391123
-0.0011387138 -0.05841925 -0.04509659 0.0617404 -0.045195207 0.016375184 -0.04147939 -0.055545546
-0.034989323 0.018430797 -0.047108084 -0.05713881 -0.060608033 -0.011518207 -0.03309568 -0.041990288
-0.0140671255 -0.040681303 0.06172708 -0.013302399 0.021583376 0.031621605 -0.012017261 -0.013076624
-0.012753814 0.020722525 0.038501564 -0.04259792 -0.054049786 0.019255834 -0.019203613 0.02988898
-0.024250155 -0.038035613 0.022390932 0.0445402 0.017538758 0.028721843 -0.002416563 0.046660338
0.0005284229 -0.0005916247 0.04770103 -0.012004037 0.046777885 -0.014854879 -0.037147645 0.01969547
-0.00746902 -0.05240192 -0.03425909 -0.044141572 -0.023838969 -0.041641787 -0.051870707 -0.04064866
-0.013183725 0.001820242 -0.024099471 -0.0075463676 0.040871304 0.038453296 -0.018994268 -0.009297184
0.022222748 0.060617477 -0.05731723 -0.017548885 -0.004753076 0.043233465 -0.09094052 0.00019128447
-0.047314886 -0.03981378 -0.021878267 0.015785228 0.0040605864 -0.040305965 0.00219026 0.045939695
