rlgpu/logs/cut_normalized/model_305.pt (torch, 868312 bytes, 16 tensors)

log_std f4 [3]
00000000: 95b2 36bf 4c5e cfbe 17c1 ba3d
-0.71366245 -0.4050163 0.0911886

actor.0.weight f4 [256, 259]
00000000: 6ff5 083d 8b8b 523d b4f0 5b3d 3f2c d8bc
00000010: 1528 89bd a6f5 893d 573e 5d3d 89f2 99bd
00000020: 432e fd3c f287 043d 3d22 993c 1326 b9bd
00000030: e36e 8f3d 51a1 cfbd 6844 c3bc 450b bbbd
00000040: 8953 0cbd d183 0bbd 59b8 1fbe 36b4 083d
00000050: 2c39 783d 3e17 b4bd 6959 c6bd 1ada 873c
00000060: fa23 d73d 7987 b8bb 92bf 883d 1ebb 5fbc
00000070: 2d22 babb 8c6f 4fbd 39fd ca3b e43c b3bd
00000080: 2013 df3c f448 da3d 2848 aa3d ebe4 25bd
00000090: 4ef6 463d 629b 9bbc 63d1 66bd 1b78 a93b
000000a0: d39d 69bc f61b 01bd 013c 303e f3b3 1b3e
000000b0: 06c0 ddbd 42cf 173e ccbe 9c3d f62d a1bd
000000c0: 060f 873c a38e a5bd 65d0 1bbd c0b2 0fbe
000000d0: 3495 28bd 9de6 c53d ee66 87bd 3019 683d
000000e0: ad72 5b3e 0745 b03d 70fe ee3b b4d0 22be
000000f0: 15be 883c 4ada 3fbd ad50 c4bb 6e17 173c
00000100: ac06 4fbd d750 003d aad6 cebd ec32 9a3d
00000110: 8fa8 d6bc b956 21bd 9b08 a1bd bbf8 923d
00000120: bf88 acbd b587 c6bc ad5d e3bc fef7 32bd
00000130: e8fd 84be 2873 79bc 4104 0e3d 74e0 c3bc
00000140: d60e 203d ed81 ff3d c590 dcbd 72f1 f93b
00000150: 7085 5ebd a0f7 0a3e ae71 87bd cccf 05be
00000160: 04ea bdbd a590 e2bd 42cd 8d3d 646b 703d
00000170: c406 143c c372 0c3d db68 2a3e 00b3 f93d
00000180: 424d 01bd 930b 92bd 06b7 a4bc d92c b13d
00000190: 5791 803d a306 c8bd 20ff 6abc 6d91 2dbc
000001a0: baf9 d93d 74f7 4cbd f28a 4dbd 2943 d23d
000001b0: b339 54bc 4869 513e 8a05 05bd afae f03d
000001c0: 54a4 883c bdc2 46bd 58d3 efbd 1850 d6bd
000001d0: 19c3 73bd 295d c03d 4623 acbd c82f 76bc
000001e0: 3dd1 95bd 9c0c 1e3e ba39 d2bd 5657 493b
000001f0: 39d1 3f3d 057b e13d 4b32 863c 3fde 42bd
00000200: 16f8 533d 94e0 dd3d 66dd 8c3d e108 813d
00000210: 2d12 91bd 544b 72bd 9ae0 90bd 37a6 3e3e
00000220: e9f8 8fbd c980 c0bd 40bf 913d 421e d7bd
00000230: 5eb0 0c3d 4854 40be 5d21 87bc ef5b 71bc
00000240: 7af9 bfbd 22f8 033c 30b2 073e 1e44 bbbb
00000250: ebc4 9cbd b22f adbd 1ef1 07be bf16 ad3d
00000260: f16a 26be bc3c 743c 83bb a3bc 9a0e 013e
00000270: d6d1 1f3e a081 833d 65de 5bbd 3ae2 003e
00000280: 1d6a ea3d ffae 353d 0d95 08be 0926 aabd
00000290: 49aa e9bb cfa6 3c3d dcc9 6fbd 5e60 e8bc
000002a0: bfa8 43be 2610 87bd 3a97 813d cadd 21be
000002b0: 889e 7d3d 6f5e d63d 9713 843d a8a3 31bd
000002c0: f97e f53d 04a2 a2bd 29b7 b3bd 5906 7bbc
000002d0: e6b0 0a3e 338a f83c bfa9 afbd 00f5 c73c
000002e0: 2116 4dbe 47c6 b8bc 0d70 163d 0c0a 3abd
000002f0: af4e eabd 8654 9dbd 97bc 21be 5a24 75bd
00000300: 744a cebc 2e32 31bd 9b71 283e 7542 3a3d
00000310: 4e1f f13d 9588 b6bc 338d d3bc e048 183e
00000320: 0a12 15bd 8eaf 69be 5bf2 713c 73e0 c23d
00000330: 48bc ad3d 3fe0 36bd 2bae b93d ccb0 b6bc
00000340: e8c6 c4bd 47f4 44be dd5f 6fbd 1670 3a3d
00000350: 0842 5abd aebc abbd aaaa abbc bdcd 523e
00000360: 9971 953d 951a 303d b93a 86bd 20b5 a63d
00000370: af2b 883d 5e71 1ebc eb24 4dbb 5c99 1dbc
00000380: c138 03be 386c 753d 6fcc 2dbd 1638 e8bd
00000390: 1717 bc3d 034f 3a3d 1709 913d cfc0 c93c
000003a0: 99ea c63d d0c6 8c3d 3e2b c4bd 461c 983c
000003b0: 0c53 ecbd f8bb 29be da21 e83c 8b8e 89bd
000003c0: 4775 debc 8a7e 24be 168d 063e ef25 79bc
000003d0: 5d62 dd3d 7423 9f3d 93c9 043c 5bac 973c
000003e0: 4dfc 193e bdb8 09bd a4cc d03d 0de1 78bc
000003f0: 6cc2 bbbd 6aac ae3d 50b9 9dbc 1ee7 223d
0.03343719 0.05140261 0.05369635 -0.026388286 -0.06697098 0.06736307 0.05401453 -0.07516963
0.030905848 0.03235621 0.018693084 -0.09040465 0.07003572 -0.101381905 -0.02383633 -0.09133009
-0.034259353 -0.034061257 -0.15597667 0.033374988 0.0606014 -0.087934956 -0.096850224 0.016583491
0.10504909 -0.005631384 0.06677164 -0.013655452 -0.0056803436 -0.05064349 0.0061947373 -0.08751848
0.0272308 0.10658446 0.08314544 -0.040501516 0.04857474 -0.01899499 -0.05635203 0.0051717884
-0.01425882 -0.031520806 0.1721039 0.15205364 -0.10827641 0.14825156 0.07653579 -0.078700945
0.016486656 -0.080838464 -0.038040537 -0.14033031 -0.041157916 0.096631266 -0.06611429 0.056664646
0.21430464 0.08606916 0.007293515 -0.15899926 0.0166922 -0.046839036 -0.0059910626 0.009221895
-0.050543472 0.031327095 -0.10099538 0.07529244 -0.026203422 -0.039389346 -0.078629695 0.07176348
-0.0842452 -0.024234632 -0.027754629 -0.043693535 -0.25974965 -0.015225209 0.034672026 -0.023910739
0.03907665 0.12475953 -0.107698 0.0076276595 -0.054326475 0.13571024 -0.066134796 -0.1306755
-0.092731506 -0.11062745 0.069239154 0.058696166 0.009034816 0.034289133 0.16641562 0.12192345
-0.03156782 -0.07131114 -0.020106804 0.08651132 0.062777214 -0.09766891 -0.014343053 -0.010593754
0.10643335 -0.050040677 -0.050181337 0.10266716 -0.01295321 0.20450318 -0.032475986 0.11752068
0.01667992 -0.04852556 -0.117102325 -0.104644954 -0.05951223 0.09392769 -0.084051654 -0.01502604
-0.073153 0.15434498 -0.10264917 0.0030722222 0.04683039 0.11009792 0.016381403 -0.04757523
0.051750265 0.108338505 0.06878166 0.06300522 -0.07083545 -0.05915387 -0.07074089 0.18618093
-0.07029898 -0.09399564 0.07116556 -0.10503818 0.034347884 -0.18782151 -0.016495401 -0.014731391
-0.09373756 0.008054765 0.13251567 -0.0057149073 -0.076547466 -0.08456363 -0.13275573 0.08451604
-0.16251732 0.014907058 -0.019986873 0.12603226 0.1560739 0.064212084 -0.05367889 0.12586299
0.11446021 0.044356342 -0.13338108 -0.08308036 -0.0071308953 0.04605752 -0.058542117 -0.028366264
-0.1910734 -0.06594877 0.06327672 -0.15807262 0.061918765 0.104672305 0.06449049 -0.043368965
0.11987109 -0.07941058 -0.087751694 -0.015321338 0.13544044 0.030339336 -0.085772984 0.024408817
-0.20027973 -0.022555484 0.036727954 -0.045419738 -0.11440789 -0.07682137 -0.15794598 -0.05984912
-0.025181986 -0.043260746 0.16449587 0.045473535 0.11773549 -0.022281924 -0.025824165 0.1487155
-0.036394157 -0.22820875 0.014767255 0.095154665 0.084831774 -0.04464745 0.09066423 -0.0223011
-0.09608251 -0.1923381 -0.05844103 0.04551705 -0.05328563 -0.08385597 -0.020955402 0.20586295
0.07297058 0.0429941 -0.06554169 0.081400156 0.06648957 -0.0096705835 -0.0031302522 -0.009619083
-0.12814619 0.05991766 -0.04243129 -0.113388225 0.091840915 0.045485508 0.07081812 0.024628071
0.09712715 0.06873858 -0.0957856 0.01856817 -0.115392774 -0.1657561 0.028336454 -0.06716641
-0.027155532 -0.16063896 0.13139758 -0.015206798 0.10809777 0.07770434 0.0081047 0.018514803
0.15037651 -0.033623446 0.10195282 -0.015190375 -0.091679424 0.08528979 -0.019253403 0.03977119

actor.0.bias f4 [256]
00000000: 017c e0bc 1c6a 55bd 3ea6 87bc be04 eebc
00000010: df3c a0bc 67b8 853c 71f3 743d 4dd2 463c
00000020: cc37 f8bb d678 403d 7e9b 423d ab12 b53c
00000030: f418 6e3d 9c8c a73c 870b 05bd e1ad 983c
00000040: 70c5 c73c 43fd d73b b801 c13b 68af 26bd
00000050: 7d53 be3b 5b0f 5bbc ce47 2b3d 7794 71bd
00000060: d610 8f3c 1e6b 37bd b389 a8bc 4668 cc3c
00000070: f936 66bd d6a7 c2bc 1916 d53c b698 afbc
00000080: bece 9b3b 8cee 453d 8d66 9a3b 9517 17bd
00000090: 1b72 67bd 0c7e 173d ff7c 293d 3968 01bd
000000a0: 41fa 793d 234f 50ba 8455 4d3d 0e0d d03c
000000b0: 3033 9cbd bb21 5d3d ec31 3cbd 5181 803d
000000c0: 3f14 203d b7a8 dfbc c514 24bd 2fe5 493d
000000d0: 9cdc d73c 134b 1b3d 3e2d 1dbd 0906 29bd
000000e0: 9fe8 cdbb 9687 d0ba a946 74bc 1309 f23b
000000f0: a5fe d13c b2fc 3cbd 5e6c 48bd 06cf 9c3d
00000100: 2ac6 76bd f382 74bd 8336 59bc 94be 2e3c
00000110: db94 063d 4592 d2bc 7729 b8bc 7ac4 31bc
00000120: 7f8b 0d3d 6fbc 0cbd da68 bdb9 a940 5cbd
00000130: eeb2 93bc e68e f83c 6f50 05bd 37ea 42bd
00000140: 6893 013d b042 65bd 26aa 75bd 9d9b 0c3d
00000150: 3008 193d 1ec9 69bd a3a2 87bd 6514 4dbd
00000160: f64d cd3c a0a9 b0bc e870 6dbd 7cd8 243d
00000170: d41e 82bc f748 0dbb a625 08bd a949 9a3c
00000180: 8840 0d3d af7a 1c3d 271b dfbc 4a3b 913c
00000190: d614 f2bc d75f a1bb ec9c 32bd 7423 92bd
000001a0: 3f46 ca3a c8cb 45bd 3538 df3c e517 0b3c
000001b0: 7987 3c3c 3adf e93c 43c7 1fbc aa9e f03c
000001c0: 7fcd 2a3d 3b2e 3ebd c55d c0ba 5207 3e3c
000001d0: d3fe 11bd 6655 22bd 2c56 1bbd 93a4 71bd
000001e0: 7626 86bc 1208 13bd fe72 a9bc 0e34 84bd
000001f0: 46a0 723c 85c6 273d ed85 22bd c5fa 43bd
00000200: 8501 18bc a365 49bd fba0 ff3c 9922 483c
00000210: 6d8c 82bd 0b6a 99bb 9c4e d0bb 74ee 11bd
00000220: db70 5dbd e8b3 82bd 6a17 1cbd 9a9c 203c
00000230: d000 6ebd 6b29 b23c 3a6e a23c aebc 0b3d
00000240: f2cd 963d 4788 41bc 4df4 993c 49b7 e13c
00000250: 7314 05bc a768 093d 7797 c73c 8cf3 713d
00000260: 6e85 d4bc ad5c 003d 6396 0b3d a670 253d
00000270: 6d64 42bd f5cd 363d 5671 43bc 7a2a 0fbd
00000280: 74bd 94bd 7638 e03c 4387 a23c d65f df3b
00000290: 1b51 ebbc b996 69bd e0df b23d 0b5e 9fbb
000002a0: fdc3 f93c 99f2 a5bc fc06 45bd a23c 163d
000002b0: 54d9 24bb 4272 4d3d 4787 4ebd 72c2 3fba
000002c0: d267 bb3c c53c 4a3d bb71 883c 8a72 903d
000002d0: e1fe 38bd c48c 73bd bb60 48bd aa01 883d
000002e0: 07e2 523c 83b8 6aba b592 533d 43e4 8dbc
000002f0: 3d19 80bd f9e3 f9bc c19a db39 b506 c3bc
00000300: 5edc f5bc eba3 88bd 61f4 4bbd bf71 31bc
00000310: 555b 4a3d 95de 953d e1e3 5a3c dfee 7f3d
00000320: bbcd 64bd fa36 a53c e928 353d f088 29bc
00000330: 6cb5 8ebd 29e5 963a 7086 5abc d6de f6bc
00000340: 3cf7 e13c b4fd a3bc efc0 10bd 3fa9 cebc
00000350: d23b 1e3d 8833 a3bc 349b 3f3d 4a8e bd3c
00000360: 55dc 173c dfd0 63bc a10f a5bb 8342 1ebd
00000370: 3a9f 0bbd 66c8 43bd 03a3 98bc 0dfe 093a
00000380: ff82 473d 8092 3a3d c840 903c e7c5 f63c
00000390: bafc 783d afe8 733d 778c 59bd f215 38bd
000003a0: 6dc9 233c 3024 c4bc 2ef5 f23a 4985 4abd
000003b0: 1230 c5bc 9a2b 793c 32f4 79bd e179 7abd
000003c0: deda 8bbb 6706 dd3c 8290 44bd c347 d3bb
000003d0: b3b7 9cbd f27e 2c3d 72b9 1a3d 2781 0ebd
000003e0: efba 9e3c 1a6b 45bc 2546 273d 5be1 033d
000003f0: ebce 283d b336 043d 8c46 fe3a c013 2e3d
-0.02740288 -0.052103147 -0.016558763 -0.029054996 -0.019560276 0.016323281 0.059802476 0.012135101
-0.007575011 0.046990238 0.04751157 0.022103628 0.058129266 0.02045279 -0.032481696 0.0186376
0.024386138 0.0065914704 0.0058900975 -0.040694624 0.0058082924 -0.01337036 0.041816525 -0.058979478
0.017464083 -0.04477989 -0.020573473 0.024952065 -0.05620477 -0.023761671 0.026011514 -0.021435123
0.00475487 0.0483232 0.004711932 -0.036887724 -0.056505304 0.036985442 0.04137897 -0.031593535
0.061029676 -0.00079463626 0.050130382 0.02539685 -0.07626951 0.053987246 -0.045946047 0.06274665
0.03908181 -0.02730213 -0.04005887 0.049290832 0.026350312 0.037913393 -0.038373224 -0.04126552
-0.006283834 -0.0015909548 -0.014909425 0.0073863356 0.02563412 -0.046139427 -0.048931472 0.07656674
-0.060247578 -0.059695195 -0.0132576255 0.010665555 0.032856803 -0.025704512 -0.02248071 -0.010850066
0.034556862 -0.03435939 -0.0003612701 -0.053772602 -0.018029656 0.030341577 -0.03254741 -0.047586646
0.03163472 -0.0559718 -0.05997672 0.034328092 0.037361324 -0.057076566 -0.06622817 -0.050068278
0.025061589 -0.021565259 -0.057969004 0.040245518 -0.01588384 -0.0021558383 -0.03323903 0.018833952
0.03448537 0.038202938 -0.027234627 0.017728467 -0.029550951 -0.004924755 -0.043606684 -0.071356684
0.0015432312 -0.048290044 0.027248481 0.008489584 0.011506909 0.028548826 -0.009752098 0.029372532
0.041699883 -0.046430808 -0.0014676383 0.011598425 -0.03564341 -0.039632224 -0.037923977 -0.05899484
-0.016375761 -0.03589637 -0.020684715 -0.06455241 0.01480872 0.040960807 -0.039678503 -0.047846574
-0.009277706 -0.049169194 0.031204691 0.01221528 -0.0637444 -0.0046818308 -0.006357027 -0.035627797
-0.054062705 -0.06381971 -0.038108267 0.009802962 -0.058106244 0.021748265 0.01982795 0.034115486
0.073635 -0.011812276 0.01879325 0.027553217 -0.008122551 0.03354707 0.024364216 0.059070155
-0.02594253 0.031338383 0.034078967 0.040390633 -0.047459055 0.04463001 -0.011928877 -0.03495262
-0.07262698 0.027370673 0.019839888 0.0068168445 -0.028725198 -0.057028506 0.08734107 -0.0048635057
0.030488962 -0.020257281 -0.048102364 0.036678918 -0.0025153952 0.050157793 -0.05042198 -0.00073150464
0.022876654 0.04937436 0.016655793 0.070530966 -0.045164946 -0.059460416 -0.048920374 0.066409424
0.012871272 -0.0008953886 0.051653583 -0.017320758 -0.06254814 -0.030504214 0.00041886236 -0.02380691
-0.030012306 -0.0667189 -0.049793605 -0.010830342 0.049403507 0.07317845 0.013359995 0.062483665
-0.055860262 0.020167816 0.044228468 -0.01034759 -0.06968197 0.0011512387 -0.013337716 -0.030135553
0.02758371 -0.020018436 -0.035340246 -0.025227187 0.038631268 -0.019922033 0.046778873 0.023139138
0.00926884 -0.013904779 -0.0050372635 -0.03863765 -0.034087397 -0.047798537 -0.018632418 0.0005263992
0.048708912 0.04554987 0.017609015 0.030123664 0.060787894 0.059548076 -0.053112473 -0.044942804
0.009996754 -0.023943037 0.0018536204 -0.049443517 -0.024070773 0.015208149 -0.0610239 -0.06115139
-0.0042680344 0.026980592 -0.047989376 -0.0064477636 -0.07652225 0.042113252 0.03777451 -0.034791138
0.019376246 -0.012049461 0.04083838 0.032197338 0.041212957 0.032278728 0.0019399687 0.042499304

actor.2.weight f4 [128, 256]
00000000: c0df 40bd 9887 2c3e 3045 33be a4d3 633c
00000010: 5925 74bd ea5c 34be 4db0 f83c d432 053e
00000020: e528 d63c c014 323e a7ed 82bd 5504 f4bd
00000030: 6673 8bbd 7e97 af3d b5aa f23c 3b3a f73c
00000040: ead3 49be 53c1 8ebd 84c9 77bd c33b c53d
00000050: 2d23 883e bf4d b9bc 1626 09be 9080 a33d
00000060: df33 23be 669c 19be 289b 903c 4b24 f23c
00000070: 6fc3 75bd 2988 0f3c b8bb 3bbd 6745 81bc
00000080: a4d5 2b3d 6e77 3eba aad7 9a3d cfd9 823d
00000090: a48b 3abe 6946 7c3c 7f20 e13d 405f 53ba
000000a0: 4b20 843d eec8 083e 5b9e 7cbd 3872 6e3d
000000b0: 82d1 6e3d ca33 bfbd ca84 823d 28c4 8e37
000000c0: e4a8 063d 30c2 44be 3c81 44bb 5678 9c3d
000000d0: a66c 16bd 56a1 8abd 1fef f13c 56da d1bc
000000e0: 844d 43be 4535 873b 3400 0f3d 51d9 b6bc
000000f0: 48ae 12bd c5eb 0f3e 129b a83d 969d 63be
00000100: aa05 9d3d fbf5 e4bd 8de0 103d e2b2 8cbd
00000110: 15ff 7dbc 85be a0bd 8989 b7bd 3e9a 25bd
00000120: 4151 97bd 024f dcbb 8ccb fcbc 1945 ff3d
00000130: d5ba 04be f0e2 90bc 5c66 76bc 3ff7 a23d
00000140: 98ea e63c 1d00 683c f4f2 cc3d 7c95 26be
00000150: f6ce 8c3d f845 3dbd ee2b c5bd b49a 853e
00000160: a04f 6cbc c75f e1bd d322 cc3c 50ad c33b
00000170: 3251 163c ab4b 1c3d 498b 49bc 9f0c b23d
00000180: b6d0 103c 10bc 873c 1fac 5dbd 032d 5a3c
00000190: d4c9 ddbd 355f 203e 833f 983d fad9 3d3e
000001a0: 0f29 153d ea49 34bd 4d31 4f3d 7cb5 8a3d
000001b0: b795 bfbd 4c54 043c e9a1 883d 34a5 003d
000001c0: d2b5 a1bd 7da6 a53c d6f8 dfbd 9a6d b1bd
000001d0: c424 aa3d 5a00 adbc 7815 3cbd c6c4 973b
000001e0: 121d 0fbd 5014 1c3e 5bcf 143d e429 68bd
000001f0: 2af1 8fbd 1a7e 973d cfd1 3a3d 575e 043e
00000200: 5651 af3d 9f6b 093d 0503 743d 53ca 093d
00000210: 752b 9cbd 59e5 193e edde 20bd 4716 3a3d
00000220: 6e66 13bd 9ef1 f23d c4ea 07be f772 0bbe
00000230: 5638 aa3d 8092 4d3c d8b3 ad3b 025f 28be
00000240: 0c66 98bc bd77 9abd 2e03 a73d 032f 85bb
00000250: 6633 8e3d 2f8c 9f3d 4dab 9b3d 4df4 6c3d
00000260: db8b f6bc 0df7 0f3e 8df3 2ebc f24d 003d
00000270: 89dc fc3c f68d aabd a9c3 8c39 4fdb 91bd
00000280: ca40 8a3e 6686 23be 96f4 b5bb e5ce 40bc
00000290: f173 99bc da5f 5abe f3e8 7bba dc12 07be
000002a0: 67c5 8a3d f7e5 a8bc 4f70 013d e69d 883d
000002b0: 8222 dcbd 8441 903d 9050 9d3c 339b 7e3c
000002c0: b22f b8bd a933 303e 5160 f63d b9ea bf3c
000002d0: 12f9 48bd 520b 7dbd 946d d8bd f803 fa3d
000002e0: 8201 5c3d 4eb2 873d 1e29 68bc a3b0 a93d
000002f0: 0406 28bd 92fb 4a3c c59c 923c 928d ff3d
00000300: 0c23 613d cd86 8f3d fe4e a83c 72de d2bc
00000310: 9df6 2bbb 5b12 3cbd d019 f93d 77fd 1a3c
00000320: 8c8c 803d 777a 01bb e448 eabd 8e55 0abd
00000330: c15c ab3c 46bd 83bd df3e b33a 655c c73d
00000340: daac d83d e565 00bd 72a1 553c 8e63 1bbe
00000350: 3297 d53d d322 f3bd f512 d83c 5a51 d6bd
00000360: 8c9d 1b3d ee64 19be 8671 8b3d 303a c5bd
00000370: 6409 7a3d 12a7 3fbd deb9 a3bc ff4d c93d
00000380: c496 8d3d 1e4b e2bd 8e35 c93d 4cd1 88bd
00000390: 5f65 d63d ceaa 93bd 3c03 e13d dc0a d8bd
000003a0: d7b3 053d 88b4 f1bb 188b 60bd c209 c73b
000003b0: 6bab e8bd 67e3 5d3d 12bd 03bd eccf 93bd
000003c0: 8648 8a3d f32b 99bc 784b a93c 013c 2ebe
000003d0: 1673 3e3d 9e33 603e 4e44 e2bd 975b 0dbe
000003e0: 1eb5 e53d 59fc f23c 4c80 bbbc f75b 17be
000003f0: ddfd a1bd 0b23 bcba 7ad5 013e d683 91bd
-0.047088385 0.168486 -0.17506862 0.0139054395 -0.05960593 -0.17613569 0.030357504 0.1300767
0.026142547 0.17390728 -0.06392985 -0.11914889 -0.0680912 0.08573817 0.029622415 0.030179134
-0.19709745 -0.069704674 -0.060494915 0.09630539 0.26589337 -0.02262008 -0.13393435 0.07983506
-0.15937756 -0.15001068 0.01765211 0.029558321 -0.060000833 0.00876049 -0.04583332 -0.015780164
0.04195179 -0.0007265721 0.07560666 0.063892 -0.18217331 0.015397646 0.10992526 -0.00080632046
0.06451472 0.13357899 -0.061674457 0.058214396 0.05830527 -0.0933605 0.06372984 1.7019061e-05
0.03287591 -0.19214702 -0.0029984256 0.0764014 -0.03672471 -0.06769054 0.029532967 -0.025616806
-0.19072539 0.0041262233 0.034912303 -0.022320421 -0.03581074 0.14054783 0.08232702 -0.22228083
0.07667096 -0.111797296 0.0353704 -0.06870057 -0.015502711 -0.07848839 -0.089617796 -0.0404303
-0.07388545 -0.0067232857 -0.030858777 0.12464351 -0.12961896 -0.017686337 -0.015039053 0.07957315
0.028188035 0.014160183 0.10007277 -0.16267961 0.06875412 -0.046209306 -0.096275195 0.26094592
-0.014423281 -0.11004596 0.02491895 0.005971588 0.009174632 0.0381581 -0.012301275 0.086938135
0.008838823 0.016569167 -0.054119226 0.013316396 -0.10829511 0.15661319 0.07433989 0.18540183
0.03641611 -0.044015802 0.050584126 0.06772897 -0.09354728 0.008076739 0.06671507 0.03140755
-0.078960076 0.02022099 -0.109361336 -0.08663483 0.08307794 -0.021118332 -0.04591891 0.0046316115
-0.034939833 0.15242124 0.036330562 -0.056680575 -0.0702842 0.07397099 0.045610245 0.12926613
0.085604355 0.0335499 0.059573192 0.033640217 -0.07625476 0.15028895 -0.0392751 0.0454314
-0.035986356 0.11862491 -0.1327315 -0.13618074 0.083115265 0.012547135 0.00530098 -0.16442493
-0.018603347 -0.075423695 0.08154903 -0.004064442 0.06943397 0.0779041 0.076010324 0.05785017
-0.030095985 0.14059086 -0.010678184 0.031324334 0.030866878 -0.08327858 0.0002684866 -0.07121908
0.27002555 -0.15969238 -0.0055528386 -0.0117680775 -0.018732043 -0.21325627 -0.0009609602 -0.13190788
0.06775933 -0.020617468 0.031601246 0.06670742 -0.10748769 0.07043746 0.019203454 0.015539932
-0.08993472 0.17207207 0.1203009 0.023427354 -0.049065657 -0.061778374 -0.10567775 0.12207788
0.053712375 0.06625806 -0.014169959 0.08285644 -0.041021362 0.012389081 0.01789702 0.12478174
0.054965064 0.07008133 0.020545479 -0.025740836 -0.0026239522 -0.045915943 0.121631265 0.009459845
0.06276807 -0.0019756833 -0.11439684 -0.033772998 0.020918252 -0.064325854 0.0013675353 0.0973442
0.10579844 -0.031347174 0.01303898 -0.15174696 0.10429229 -0.118718766 0.026376227 -0.10464735
0.037992045 -0.14979908 0.06808762 -0.09630239 0.06104411 -0.04679019 -0.01998609 0.0982933
0.06913522 -0.11049484 0.09824668 -0.06680545 0.10468554 -0.07210313 0.10986945 -0.10548946
0.03264221 -0.0073762573 -0.05482015 0.0060741613 -0.113608204 0.054171946 -0.032162733 -0.07217392
0.06752114 -0.018697714 0.02066587 -0.17015077 0.046496473 0.2189469 -0.11048184 -0.1380447
0.11216186 0.029661344 -0.022888325 -0.14781176 -0.07909749 -0.0014353705 0.12679091 -0.07105224

actor.2.bias f4 [128]
00000000: 3f7d 18bd 79c9 223c 6031 44bd 1150 a2bc
00000010: 074a d8bc 24d5 ac3c 30cc 213c f673 a1bc
00000020: 0b05 a4bb f759 ff3c dd2e 573b 86f6 603d
00000030: c5ff 7ebd 450f a0bd 8bfb bcbc eb14 8abd
00000040: 6bcc e73b 970c 13bd 81c3 15bd 2f93 803c
00000050: 5979 d53c 2809 38bd 4ba3 89bd 2c4c 583d
00000060: be41 6bbd f5b7 29bd 92e1 8cbc dbcc 2a3d
00000070: a640 68bc 89a5 37bc 457c b43c 8611 293d
00000080: f858 0cbd 33b0 45bd 2e12 393d b9ed c4bc
00000090: eeab 90bc 5ae5 023d be5c 623b 9348 54bd
000000a0: bc52 1b3c 12d3 cd3c 8d0b 37bc 7b24 3abc
000000b0: 80da 6eba 6154 98bd 6cb8 cb3b f10f 85bd
000000c0: c545 ebbc 8978 fc3c 0651 8abd 818f 9cbc
000000d0: 7d2b d1bc d77d d7bc 3395 c33c 5eb5 4d3d
000000e0: 4f67 d6bc a815 1e3d f4c7 16bd e9d9 493b
000000f0: 186d 183d ab86 a53a 39ae de3c 43d3 bc3c
00000100: 022a 8bbb 6654 1d3d e22c 8ebc 01c9 dc3b
00000110: 10e8 a13c fd3f 04bd 45c7 d53c 390e 3fbd
00000120: 0c08 db3a 2229 90bc 273c 98bd 997f 1c3d
00000130: 9c13 00bc f28a c83c 702b e3bc 0265 dfbc
00000140: 6286 f9bc 9874 90bd 4788 dc3c 3e29 33bc
00000150: ce0a 63bd 950d 253d a28b 313d f8f5 74bd
00000160: 5b10 f03c ea01 3ebd c911 87bd 237e 06bd
00000170: 7355 96bd 9c24 35bd c3c4 213d 2393 0b3b
00000180: 7759 73bd 5e75 33bc d963 0c3a 6185 983a
00000190: f011 a63b dc9c b6bb 7cc3 a6bd 55be 2dbd
000001a0: 5779 0ebd d741 e4bc 5c6e 603d f5ee 103b
000001b0: d1d8 1dbd cecf a9bd 3950 ed3c b337 0bbd
000001c0: 903d 2fbd 852b 5cbd a56e be3c 8b80 e63c
000001d0: 2e23 0dbd 3247 fb3b a232 4b3d ca1e 79bd
000001e0: cf35 27bd d948 e9bc 07d2 cebc 728e a1bd
000001f0: 1000 91bd 8fd0 0bbd 59d6 54bc 7086 883c
-0.03722882 0.00993573 -0.04789865 -0.01981357 -0.026402486 0.021097727 0.009875342 -0.019708615
-0.005005484 0.031170828 0.003283433 0.054922603 -0.06225564 -0.078154124 -0.023069164 -0.06742271
0.007073929 -0.03590068 -0.0365634 0.015695183 0.02605884 -0.044930607 -0.06720599 0.05280702
-0.057435744 -0.0414352 -0.017197404 0.04169927 -0.01417557 -0.0112089 0.022031913 0.041276477
-0.034264535 -0.04826374 0.045183353 -0.024039136 -0.017660107 0.031957008 0.0034540142 -0.051827025
0.009480175 0.02512506 -0.0111721875 -0.011361237 -0.00091115385 -0.07437969 0.006217053 -0.06497181
-0.028719792 0.030819194 -0.06753735 -0.019111397 -0.025533432 -0.026305122 0.023874855 0.050221793
-0.026172308 0.03859487 -0.036811784 0.003080005 0.037213415 0.0012628635 0.027182685 0.023049956
-0.004246951 0.038410567 -0.017355386 0.0067378287 0.019763976 -0.032287586 0.026095996 -0.046644423
0.0016710772 -0.017597739 -0.07433348 0.038207624 -0.007817175 0.024480317 -0.027730674 -0.027269844
-0.030459587 -0.070534885 0.02692045 -0.010935126 -0.055430226 0.040296156 0.043346055 -0.059804887
0.029304674 -0.046388544 -0.06595189 -0.032835137 -0.07340517 -0.044224367 0.039494287 0.0021297417
-0.059411492 -0.0109532755 0.00053554546 0.001163643 0.0050680563 -0.0055728983 -0.081427544 -0.042417843
-0.034783687 -0.027863426 0.054792747 0.0022115086 -0.03853685 -0.08291589 0.028968917 -0.033988666
-0.04278332 -0.05375244 0.023246119 0.028137466 -0.034457378 0.0076683993 0.049608834 -0.06082038
-0.0408228 -0.02847712 -0.025246633 -0.078884974 -0.0708009 -0.034134444 -0.012990558 0.016665667

actor.4.weight f4 [64, 128]
00000000: 96c3 92bd 3684 aebc 2097 db3d 0429 ccbd
00000010: 9a44 f9bd 8329 903c 4b59 2e3d 6c7d 8cbe
00000020: a02f 133d 48dc 7bbe aaaa 143e 2555 273e
00000030: ec99 dabd b0f7 d23c da09 4c3d 6720 debd
00000040: 94ce 1a3e 9b7e 51bd 03b5 323e ec9a 6abd
00000050: 6352 91bd 7c8b 053c 8bcb ff3d 3691 15bc
00000060: aae4 edbd b601 263d 6f27 a63d d51d 5abe
00000070: 4d7f 993d a560 acbc b820 da3c fab3 c53d
00000080: 7de6 1ebc cc74 753e 108f 4cbd 2515 033d
00000090: 30f0 b93c d9d5 c53b cf04 443b c7f1 bdbd
000000a0: 6877 16bd 4089 d3bc 62e9 58be c2c8 52be
000000b0: 9c43 20bd cf4b 723d a024 233d e597 aabd
000000c0: 486d 43bd 52a2 873d db36 f53d 269a 6a3d
000000d0: 272e 9a3e 6aae dfbd cc33 50bc 039d 5cbd
000000e0: a33f 0a3e b0eb 91be eede 1d3d 1fe3 dbbd
000000f0: aa12 f138 5bb1 94bb 83c7 3e3e 9bd4 983d
00000100: a43a 873e a1ab 053d 852a c4be 91c2 a83d
00000110: b0e4 ccbd f15c a6bd 4993 a5bd f04a 183e
00000120: c7e2 613e c558 9f3e 1eb9 633e 61c4 333d
00000130: 41cc ccbd b694 1a3b ada3 103e 700b 15be
00000140: f7a1 c9bd 4c36 063c 0342 df3d 74fa 46bc
00000150: 8772 80be 9488 e1bd 524b c6bd 65c5 b1bd
00000160: 2d03 0f3e 27cb 25be f652 00bd 15e1 fbbd
00000170: d964 a73c 44de 783d cc73 7e3d 431c e7bc
00000180: f76c 853d 94c1 86bd a9ea ee3c baac 99bd
00000190: 0184 003b 0c40 37bd 3e34 a5bb 4753 6c3d
000001a0: a5da 86bd 9fc9 82bd 20e4 87bd 1411 61bd
000001b0: 2312 e03c 0e48 0e3e 8780 183e bb1b e03d
000001c0: 6126 033e c0cb c13d 8db9 5ebe 41c4 9c3d
000001d0: 747b 8c3d 209a 64bd 4e72 13be 0e85 15be
000001e0: ab5e 5cbe c1ed 1b3e b949 c6bd b225 b63b
000001f0: 455d 113e 476d 2c3e ed2d c1bc 904b 7f3d
00000200: e511 c53c 6b3a 25bd 0952 4d3e 7d94 6e3d
00000210: 5481 923d 23f1 25be 1d6e 33be 94f5 b7bd
00000220: bbab 553e c5c9 133e c4d9 cc3d 9334 20be
00000230: 4514 353e 6b66 463e 0e75 bebd 4bb8 5dbd
00000240: 901b b83e 1989 ff3d c340 0f3e c6f0 72be
00000250: 3816 0ebd f5b1 103d 05e8 5dbd a6a5 9bbe
00000260: 9233 893d 6bf3 433d c0a0 af3b c2ef 1abc
00000270: e01b c53d 0307 7a3d 8425 24be 3ac0 f93b
00000280: 8266 f73d 0131 1d3e c6e2 e83c 7b12 3b3e
00000290: 5fc1 d13d df79 af3d eef7 c53d f97b 433e
000002a0: 32df d4bd 6279 21be 135a 9dbc e19b 2f3e
000002b0: 57cb 833e 9342 ab3c 9b10 77bd b661 963d
000002c0: c974 493e fed9 053e b67c a9bd b6eb e7bd
000002d0: 2032 513d ce1e 60be 2702 2cbb 46de a13d
000002e0: 8673 ffbc 29af c83d e470 6fbd f167 423e
000002f0: 25a0 07bd e61a 32be 5a4e 52be 7854 d3bc
00000300: c9e2 ee3c b191 e4bd 0da2 5d3e ea1c 48bd
00000310: 2008 3f3c 66a1 0dbe 8c0a acbd 0841 373e
00000320: 6eba 85bd c394 083e 52ee 20be 3d72 a1be
00000330: c627 013d de7f 79bd de6e 2a3e 5c3a 633d
00000340: d818 5bbd 1c8c 25be b22c 163d 1bbf c83d
00000350: fb31 1abc e8f2 30be f673 5bbc 9b0f b33e
00000360: cedb 103e 7f6e 10bd 475f bdbd 8849 d0bc
00000370: 199b 25bc bef8 b13c e345 0bbe 822b 183d
00000380: 3a90 a03c 5199 913d 1c09 a43d 415d 0ebe
00000390: 2254 adbc df94 31be c1d9 e13d c614 563e
000003a0: 5fa3 63be 3e2b eb3d 3778 20bd 095b abbd
000003b0: f597 153e 3fcf d3bd e773 8dbb df65 ec3d
000003c0: c950 a23d b9fd 223e 31ea dc3d d230 373e
000003d0: da0b d8bd 46b2 b3bc c2d2 b9bd 6df4 2dbd
000003e0: 1527 ee3b 28d0 c9bd 8ca3 5fbd 4f3e 6a3e
000003f0: 7716 ec3c 2953 f5bd 3c0c 21be 8f24 103c
-0.07166211 -0.021303277 0.10722184 -0.099687606 -0.12171288 0.01759792 0.042565625 -0.2743944
0.03593409 -0.2459575 0.14518228 0.16341074 -0.106738895 0.025752872 0.049814083 -0.10846024
0.15117866 -0.05114613 0.17451863 -0.05727665 -0.07095792 0.008150931 0.124899946 -0.009128859
-0.1161588 0.040528975 0.0811299 -0.21300443 0.07494984 -0.021042177 0.02662693 0.096534684
-0.009698507 0.23970336 -0.049941123 0.032002587 0.022697538 0.0060374555 0.0029910093 -0.09274631
-0.03673497 -0.025822282 -0.21182778 -0.20584396 -0.039126977 0.059154328 0.03982985 -0.08329753
-0.04771164 0.06622757 0.119733535 0.057275914 0.30113336 -0.10921939 -0.012707662 -0.053860676
0.13500838 -0.28500128 0.03854268 -0.10736679 0.00011495252 -0.004537744 0.18630795 0.07462426
0.26411927 0.03263438 -0.3831369 0.082402356 -0.10004556 -0.08123196 -0.08084733 0.14872336
0.22059165 0.31122413 0.22238585 0.043888453 -0.09999896 0.0023587174 0.14124937 -0.14555144
-0.098453455 0.008191656 0.109012626 -0.012144674 -0.25087377 -0.11012378 -0.09682335 -0.08680228
0.13966055 -0.16190778 -0.031329118 -0.1229879 0.02043383 0.060758844 0.06212215 -0.028211718
0.06514924 -0.06579891 0.029164629 -0.07503648 0.001960993 -0.044738814 -0.005041628 0.057696607
-0.06584672 -0.063861124 -0.06635308 -0.054947928 0.027352398 0.13894674 0.1489278 0.10942789
0.12807609 0.0946269 -0.2175047 0.0765462 0.06859484 -0.055811048 -0.14399073 -0.14601538
-0.21520488 0.15227415 -0.0968203 0.005558693 0.14195736 0.16838561 -0.02358147 0.06232792
0.024056384 -0.040338915 0.20050825 0.05824708 0.07153574 -0.16205268 -0.17522474 -0.08982387
0.20866291 0.14432438 0.10002473 -0.15645055 0.17683513 0.19375007 -0.0929967 -0.054130834
0.3595853 0.12477321 0.13989548 -0.2372466 -0.03468916 0.035325963 -0.05417635 -0.30399817
0.066992894 0.047839563 0.005359739 -0.009456577 0.09624457 0.061041843 -0.16029936 0.007621792
0.12080099 0.15350725 0.028428447 0.18268768 0.10241961 0.08568167 0.096664295 0.1909026
-0.103941336 -0.1576896 -0.01920799 0.17149307 0.25741073 0.020905768 -0.06031857 0.07342856
0.19673456 0.13071439 -0.0827574 -0.11324255 0.051073194 -0.21886751 -0.00262464 0.079037234
-0.031183016 0.09799034 -0.05845727 0.18984963 -0.03311171 -0.17393073 -0.20537701 -0.025797114
0.029160874 -0.11160601 0.21643849 -0.0488557 0.011659652 -0.138311 -0.08400449 0.17895901
-0.06529699 0.13337998 -0.15715912 -0.3153247 0.03153207 -0.06091296 0.16643855 0.055475578
-0.05349049 -0.16166729 0.03666372 0.098020755 -0.00941133 -0.17280161 -0.013394346 0.34972844
0.14146349 -0.035261627 -0.09246688 -0.025425687 -0.010107779 0.021725055 -0.13600878 0.037150867
0.019600023 0.07109321 0.0800955 -0.13902761 -0.021158282 -0.17341946 0.110278614 0.20906362
-0.2223029 0.11482857 -0.039177146 -0.08366973 0.14608748 -0.103422634 -0.004316795 0.11542868
0.07925565 0.159171 0.10786856 0.17889717 -0.105491355 -0.021935593 -0.09073402 -0.04246943
0.0072678425 -0.09854156 -0.05459933 0.22875331 0.028819306 -0.11978752 -0.15727323 0.008797779

actor.4.bias f4 [64]
00000000: 6936 003c 89fe 1ebd c99e 40bd 054b 0dbd
00000010: d44b e8bd 4871 1e3d 8a56 0d3d 08d4 223d
00000020: 98db afbd f300 d93b 3f62 923b d26c 0bbd
00000030: a034 2d3d 71d7 cebc efb0 03bd 4573 813c
00000040: 30cb c33c 6004 bdbc d72c 8c3c 7a3d 8ebd
00000050: 7d9b 903c 3f09 a7bd 6a78 ebbc d8d1 b03c
00000060: 6ca0 373d 55ba 873d a08a 673d 6f83 70bc
00000070: 7b9c a83d 63f7 933d 179e 24bd 8c41 e5bd
00000080: ce86 c5bd 758b 603d 3b92 85bd 029b d2bc
00000090: 9cd3 363d 59b9 2bbc 8884 e43a 230b ab3d
000000a0: af1f 71bd 53b0 9a3b b194 9bbd 65da 85bd
000000b0: dd91 cebc ed9e 14bd 4e49 483d 6d8e acbd
000000c0: 1ab7 a9bc 766d bdbc 36b7 ad3b 1e07 9b3d
000000d0: e6f2 abbb 49ad cebd 2879 5b3d 39cf c53b
000000e0: f38b 203d 5b60 50bd b725 eabc 6575 6abd
000000f0: b861 9dbd adab 543d 2a6c c43c fdbe a2bd
0.007825472 -0.038816962 -0.04702643 -0.034495372 -0.11342588 0.038682252 0.03450636 0.03975299
-0.08586806 0.0066224276 0.0044672783 -0.034039326 0.042286515 -0.025249215 -0.03215116 0.015802035
0.023900598 -0.023073375 0.017111225 -0.069453195 0.017652268 -0.081560604 -0.028743941 0.021584436
0.044830725 0.06627337 0.056528687 -0.014679774 0.08232971 0.0722492 -0.04018983 -0.11194143
-0.096448526 0.054820497 -0.06522032 -0.02570868 0.0446354 -0.010481202 0.0017434517 0.083517335
-0.058868106 0.0047207265 -0.0759672 -0.06535796 -0.025216037 -0.036284376 0.048898034 -0.08425603
-0.020717192 -0.023123484 0.0053013815 0.07569717 -0.0052474616 -0.10091645 0.05358234 0.0060366658
0.039195966 -0.05087314 -0.028582437 -0.057240862 -0.07684654 0.051921535 0.023977358 -0.079465844

actor.6.weight f4 [3, 64]
00000000: 5104 183a f851 2e3a b5fe 2b3c ba78 daba
00000010: 3c83 d6ba 1429 4d3c 1be5 f7ba 2d78 8aba
00000020: a5cf 1c3c 77d0 a5bb bc5b 37bc f062 6dbb
00000030: 5b36 a3ba c714 03bb 9373 53ba c942 f9bb
00000040: 9012 083b bdc4 3abc 1299 aebb a977 26ba
00000050: 4b30 23bb d40f 77bb 3795 80ba a2b5 2bbc
00000060: 5a6a fbba 6b3a 38bb 06e4 beba a4a1 6bbb
00000070: abe9 08ba fd1c ac3a 8186 94bb be8f 563b
00000080: 6f31 d9ba 66f3 153b eb48 cfba 6080 2ebb
00000090: de58 4abb 1e1f 3dbb 5eda 9ebb 83ee 31bc
000000a0: b79e 25bb b7d0 b03b f5e0 46ba a9a6 2bbb
000000b0: 6854 8abb 8272 893b 7f43 05ba 4569 72bc
000000c0: 3f61 d5bb 26c4 5c3b 566d f5ba a256 2d3c
000000d0: 2e91 fdbb 4ace 0bbb b1c8 57bc b4c3 47bb
000000e0: a0f1 bcba f3b7 90ba d069 813a 79bf 1f3b
000000f0: 070d fcba f209 2d3c 6cf9 bcba 1a40 8fba
00000100: 90e9 bc3b f989 f2bb fefd 7d3b d69b a7bb
00000110: cbb8 a7bb c636 943b f372 b3bb bac0 afbb
00000120: be8b c4bb 41a1 63bb bf30 a0bc 7e1a 07bc
00000130: aeff bebb a96d c3bb 1cb9 f7bb ac9e febb
00000140: 7efe 19bc 8104 85ba 2328 edbb 4f30 21bb
00000150: 58c1 0abc f725 cabb 5bdd e6bb 0be4 d5bb
00000160: 3812 cfbb c42c e7bb 551b cdbb 2678 b1bb
00000170: 0a9d fdbb c7f3 7c39 32ac 1fbc 0be6 bbbb
00000180: 1d91 d8bb afe5 503c d102 dbbb f6c2 b6bb
00000190: c163 afbb 7939 c7bb ced6 94bc e023 f3bb
000001a0: b871 ccbb 34c0 823c bce5 0eb6 b8d8 bbbb
000001b0: 7161 c3bb 7c78 48bc d085 eabb c4ab 0fbc
000001c0: 2a86 d8bb 150d 59bb 5cec bcbb 2b8d 123c
000001d0: 5df6 b8bb 820c fdbb 28b4 243b 172f e5bb
000001e0: c670 cebb 7335 cebb f232 05bc de76 2439
000001f0: acb1 63bb 1ba0 4f3b edf9 19bc 1ce7 dcbb
00000200: 22d4 353a f8ca 443d 0c4d 83bd 90c9 383d
00000210: e7ac 323d 71f6 d43a 7937 393d 6189 223d
00000220: b35e 063d 5307 373d 98cd c93c 60e7 3a3d
00000230: e19d 2d3d c625 383d 1702 413d cb30 023d
00000240: 500f a73c 630f 0b3d 9254 033d 63ea 01bd
00000250: 27de 2d3d a3f7 0d3d 8956 3a3d 88f5 69bc
00000260: e879 353d 095f 343d 770a 443d 3f22 223d
00000270: b3d0 3b3c c122 0fbd 912d a7bc b305 4c3d
00000280: ee0d 363d b92e 0d3c db10 473d c96c 3b3d
00000290: 370d 333d cdfe 373d 03f6 dd3c 47a2 c1bc
000002a0: 8547 3a3d 8325 79bd 73c1 e5ba c791 2c3d
000002b0: dbb8 163d 7161 f83c 8d7f 463d 2731 fa3c
000002c0: 9718 303d c7ed f83c 9c59 2e3d 2457 f43b
000002d0: 1b2c a7bc bdd1 4c3d c651 1e3d e2d1 363d
000002e0: f12f 293d 9b6c 4e3d 5c91 4a3d 937d bbbc
000002f0: cbc7 a6bc b35d c93b 8511 543d 9e02 373d
0.0005798983 0.00066497875 0.010497739 -0.0016668059 -0.0016366015 0.012522001 -0.0018912883 -0.001056438
0.009570991 -0.0050602513 -0.011191305 -0.0036222301 -0.0012452112 -0.0020001398 -0.0008066233 -0.0076068384
0.0020763017 -0.011399445 -0.005328306 -0.0006350228 -0.002490061 -0.0037698643 -0.0009810094 -0.010480316
-0.0019181476 -0.0028110992 -0.0014563806 -0.00359545 -0.00052228075 0.0013131198 -0.0045326357 0.0032739486
-0.0016570518 0.0022880672 -0.0015814578 -0.002662681 -0.0030875723 -0.0028857659 -0.0048478087 -0.010860088
-0.0025271603 0.0053959745 -0.0007586622 -0.0026191866 -0.004221488 0.0041945586 -0.0005083605 -0.014795606
-0.006511837 0.003368625 -0.0018724601 0.010579737 -0.007738254 -0.0021332675 -0.013170407 -0.0030481638
-0.0014415272 -0.0011041149 0.0009873454 0.0024375601 -0.0019229957 0.010561453 -0.0014417595 -0.0010929138
0.0057651475 -0.0074017015 0.0038756127 -0.0051150126 -0.0051184646 0.004523131 -0.0054763495 -0.005363551
-0.005998104 -0.0034733566 -0.019554494 -0.008246062 -0.0058288192 -0.0059640002 -0.0075599086 -0.00777038
-0.009399055 -0.0010148437 -0.0072374507 -0.0024595445 -0.008468948 -0.0061690765 -0.0070454306 -0.006527429
-0.0063193105 -0.007054897 -0.0062593617 -0.005415934 -0.007739668 0.00024123407 -0.009745644 -0.0057342104
-0.0066090957 0.012750073 -0.0066836854 -0.0055774404 -0.0053524678 -0.0060798493 -0.018168833 -0.007420048
-0.0062391423 0.01596079 -2.1293372e-06 -0.005732622 -0.0059625437 -0.012235757 -0.007157065 -0.008768979
-0.0066077905 -0.003311937 -0.005765481 0.00894479 -0.005644603 -0.0077224383 0.0025131796 -0.006994139
-0.0063000647 -0.0062929927 -0.008129822 0.0001568454 -0.0034743352 0.0031681124 -0.009397966 -0.0067414176
0.00069362123 0.04804513 -0.0641118 0.0451141 0.043621924 0.0016247762 0.04521892 0.039681796
0.032805156 0.04468472 0.024634168 0.045630813 0.042386893 0.0449579 0.047121134 0.031784814
0.020393044 0.03395022 0.032063074 -0.03171767 0.04244819 0.034659993 0.045492683 -0.014279731
0.044305712 0.044035945 0.047861543 0.03958344 0.011463332 -0.034945253 -0.02040747 0.049810123
0.044446878 0.008617097 0.04860006 0.045758042 0.043713775 0.04492073 0.027094847 -0.02363695
0.045478363 -0.06082679 -0.0017528966 0.04213121 0.036797386 0.030319901 0.048461486 0.030541016
0.0429922 0.030386819 0.042565927 0.007456677 -0.020406773 0.05000471 0.038652204 0.044633754
0.041305486 0.050396543 0.04945503 -0.022887027 -0.02035894 0.006145203 0.05177452 0.04468023

actor.6.bias f4 [3]
00000000: 5221 d2bc 9755 8b3d 32a1 313d
-0.025650654 0.06803434 0.04336662

critic.0.weight f4 [256, 259]
00000000: 37a1 70bb 8df6 e03d 6e31 833c 7f87 39bc
00000010: b49f cebc 7fa1 c3bd 9f56 913d e6df 5abd
00000020: d397 123d b1fc 4b3b 2063 2d3d fc9a a0bd
00000030: 58a5 b23d 9bc4 f23d 1e0c fc3d f8e4 6dbd
00000040: d561 2a3e 1e1e 9dbd c13f d6bd 715b 99bd
00000050: 8b9d d63d 2529 05be 2da6 dfbe b4e6 f23d
00000060: 5845 e8bd 40c6 da3d 6e63 103d 37d4 70bd
00000070: ae51 b63e b5fc 433e 6d9f 083e bd02 813d
00000080: 1f0b 8e3b b45a fa3d f3e7 02be e4b8 34bd
00000090: 7ed4 e53b 5ba6 ce3d 47bb 96bd 223e b33d
000000a0: 27ef 383d 2787 91bc 5e2e 10bd 65fc c43d
000000b0: a5e1 8fbc fc5b 3e3e 71f4 573e 6954 173e
000000c0: 7df6 3bbe 5dd6 723e d350 28bd 564c ca3c
000000d0: aa7d 533d 4395 3b3d 1777 3dbc 73ec 823d
000000e0: d924 48bd 412c 093c 3d6d 3c3e b61c 1cbc
000000f0: b195 993d a700 5a3c ecb9 9bbb 4344 fd3c
00000100: 7b4f 18bd ec2c bfbc 7755 fb3d 4018 fd3c
00000110: f1ab 2bbd 0e70 e83d 1700 cebd 944c 973d
00000120: 76f2 18be 6523 88bd 8e49 143e 5faa 2bbe
00000130: acb4 2c3d d402 afbc 5c0e 9d3d 2550 643e
00000140: 337f 0bbc 8636 443e 7f6f 9a3d dd6e 0cbd
00000150: d023 ea3d 80b3 d93e c4cd 3f3e 20dd 03be
00000160: f9d6 e8bc 0980 80bd 4a9f 253e a2b9 d93d
00000170: 66a2 3d3d 3855 c0bd 9ca0 debd 2412 7d3d
00000180: a42f 4e3a 1743 0abd 6c6a 2d3d 4d13 9a3d
00000190: d211 64bd 1e03 9c3e ff3d dcbc ee2b 2f3d
000001a0: 41a9 e83c 620b aa3d 6f20 38be e2cb 943d
000001b0: b3bc d93d 046f 643c 4235 9d3d 586e 0fbe
000001c0: 6af1 c73b a82b 7cbc 52c1 52bd 0959 d1bb
000001d0: cbf0 cabc 9bbc 02be 3020 f43b d1fa 9bbd
000001e0: 8485 4abc 76cc 10bd 9dec d23c 6ed3 9b3d
000001f0: bddb 443d 8df1 513e 6a7e d6bc 1e09 533d
00000200: dbf7 4e3c 1b69 963d 87f3 903d 37b3 eabc
00000210: fac6 913d 1dd3 cabc 9680 75bc af69 7a3d
00000220: 825c 503b 9dab eabd 5282 8b3c 7586 853e
00000230: d8bd 133e 4032 c13d 25cb 66bd 1048 ea3d
00000240: 880f b0bd 702d adbd 1fff 5a3d 464d 85bc
00000250: feca 323e 665b 4c3d 066c a6bd c05e 323d
00000260: cd71 61bb 457f 0cbe 08ed c7bc f793 a03e
00000270: e438 e4bc 4300 883e b860 b03d 0a93 16bc
00000280: fe37 79bc 7d91 bfbd 9169 ae3d c816 d9bc
00000290: 18dd b43c 738c 95bb 15d2 87bd f5b3 a53d
000002a0: e7e0 15bd 0c43 143d 35a8 3dbd 206e aa3d
000002b0: 9018 363e 4cf3 da3c 200e 60bd 5416 d93d
000002c0: a7de 01be f32e d83d 4590 debd 8861 fb3b
000002d0: 58fd d0b9 cc2a 7f3d f134 19bd 5aef 03bd
000002e0: 2f23 193d fcdf 3d3e d6f1 81be 81b2 c5bc
000002f0: e45f 27bd c9c7 443d 46f9 adbd db32 61bd
00000300: 58d7 413e d9ec 10bc 1306 3dbd 04a5 46bd
00000310: 5682 d03d 1514 73bc 9fc8 9bbd 6144 48bb
00000320: 3a46 ee3d ae6d f43d dc5b 5fbc 4440 a13d
00000330: 869e fdbb a124 2f3d 6d95 64bd c430 503e
00000340: 9eb5 afbd 0a18 28bb e289 fabc 0666 0e3e
00000350: 9aaf f83c 4ad3 573d 930b 493c 5726 893c
00000360: a4fe 373d 3cf7 d3bd 4063 81bd c103 bdbd
00000370: 43eb a7bd b374 c4bd cda5 cabd 76cd 3dbb
00000380: 7f16 a73d 6db0 dbbd 72aa 893e 1a2e b0bc
00000390: ea5c b33d 2344 603e e4cf 193d f9ea 0ebe
000003a0: 5ac3 523d cd09 923d 3276 ef3c babe d7bc
000003b0: c23c c0bd ecb6 18be 9826 00bd df9e d73d
000003c0: c648 1dbd 92f4 e93d 0b6a 183e b49f 363e
000003d0: 751e 0ebd 2851 aabd 5273 a0bc ba9e 913d
000003e0: f8bb 193d 2625 0f3d 4abb cd3d 86f3 393d
000003f0: 031c 883d b2b8 aa3d 8a99 a7bc d00d 28bc
-0.0036717185 0.10984526 0.01601478 -0.011323809 -0.025222637 -0.09552287 0.070966 -0.053436182
0.035789322 0.0031125958 0.04233086 -0.07842061 0.08722943 0.11853906 0.12306999 -0.05807969
0.16638882 -0.0767176 -0.10461379 -0.07488144 0.10479268 -0.13003977 -0.4368147 0.118604094
-0.11341351 0.106823444 0.035251074 -0.058796134 0.35609192 0.19139369 0.13342066 0.062993504
0.004334822 0.122243315 -0.12783794 -0.044121638 0.0070138564 0.100903235 -0.07359939 0.08752085
0.04514995 -0.017764641 -0.03520047 0.09618453 -0.01756365 0.18589777 0.21089341 0.14778294
-0.18355747 0.23714586 -0.041092705 0.024694603 0.051633514 0.045796644 -0.011564038 0.06392755
-0.048863266 0.008372367 0.18401046 -0.00952833 0.074992545 0.01330582 -0.004752388 0.030916339
-0.037185173 -0.02333685 0.122721605 0.030895352 -0.041912023 0.11349498 -0.10058611 0.07387653
-0.14936242 -0.06647376 0.14481184 -0.1676421 0.04216449 -0.021363653 0.076687545 0.22296198
-0.008514213 0.19161424 0.075407974 -0.034285415 0.11432612 0.4251976 0.18730837 -0.12877321
-0.02842282 -0.06274421 0.16174045 0.1063111 0.046297453 -0.09391254 -0.108704776 0.06178488
0.00078653754 -0.033755388 0.04233782 0.075232126 -0.055681057 0.30471128 -0.02688503 0.042766504
0.028401019 0.08302952 -0.17981122 0.0726545 0.10631695 0.013942484 0.07676174 -0.14006937
0.006101777 -0.015391268 -0.051453896 -0.0063887876 -0.024773022 -0.1276726 0.007450126 -0.07616199
-0.012360934 -0.03535124 0.025747592 0.076086864 0.04806112 0.205023 -0.026183326 0.051522367
0.012632336 0.07344266 0.07077699 -0.02864991 0.0711803 -0.02475887 -0.014984271 0.061135944
0.003179342 -0.11458514 0.017029915 0.26079145 0.14427888 0.094334126 -0.056346077 0.11439526
-0.08596712 -0.08455932 0.05346596 -0.016272198 0.17460248 0.04989185 -0.081260726 0.043547392
-0.0034400106 -0.13720424 -0.024405017 0.31362888 -0.027859159 0.265627 0.08612198 -0.00919033
-0.0152111035 -0.093539216 0.08516229 -0.02650012 0.022078082 -0.004563862 -0.06631867 0.08090965
-0.036591437 0.036196753 -0.046302993 0.08321786 0.17782807 0.026727341 -0.05470097 0.10599962
-0.12682591 0.1055583 -0.10867361 0.0076715387 -0.00039861607 0.062296674 -0.037404004 -0.032210685
0.03738707 0.18542475 -0.2537982 -0.024132969 -0.040862933 0.048042092 -0.08494811 -0.05498014
0.18929803 -0.008845531 -0.04614837 -0.048497215 0.101811096 -0.014836331 -0.07606625 -0.0030558335
0.116344884 0.11934982 -0.013632741 0.07873586 -0.0077398447 0.04275954 -0.055806566 0.20331103
-0.085795626 -0.0025649094 -0.030583326 0.13906106 0.03035717 0.052691735 0.012270826 0.016741915
0.04492058 -0.103498906 -0.063177586 -0.092292316 -0.081991695 -0.09592571 -0.09894905 -0.0028961576
0.08158588 -0.1072701 0.26887852 -0.021506358 0.08757956 0.21900992 0.037551776 -0.13956822
0.051455833 0.071307756 0.029231165 -0.026336063 -0.09386589 -0.14913529 -0.031286806 0.10528349
-0.03839948 0.11423601 0.14884202 0.1783436 -0.034697015 -0.083162606 -0.019586239 0.07110353
0.037532777 0.034947537 0.10045488 0.045398258 0.06645968 0.08336009 -0.020458955 -0.010257199

critic.0.bias f4 [256]
00000000: 512d b6bc 1f71 973c de63 203d ead6 2abc
00000010: 280f db3c f735 10bd 9ba8 873d a912 43bd
00000020: 92e9 7abd 488d fbbc 42a7 cabc c1ed 9d3c
00000030: b087 653d c205 523d 4299 553c 6908 963c
00000040: a0f4 993c 3b74 92bc 9f32 a8bc df6e 2b3d
00000050: 42d3 babb e9f1 753d 8651 d63c 34d7 17bd
00000060: aaa6 0abd ba37 e1bc f079 ef3c ad0f b23c
00000070: 7f26 493d ff73 8dbd 9c78 e2bc 8f0d d4bc
00000080: 3ec9 6ebd 0914 a33c af94 75bd d4de 01bd
00000090: 434d 58bc e474 28bd 26a0 953b 47f5 50bd
000000a0: 5755 11bd 2627 40bd 77a4 8c3c 4cd6 50bd
000000b0: 5d3a f83c 7b4a 163d 9d37 d5bc b404 e3bc
000000c0: 65d5 60bd a81b 993c f120 4ebd c902 42bd
000000d0: aa13 3d3d 0fe5 dabc 072a 4e3d ea15 23bd
000000e0: 5329 09bd 3e8c 31bd 597c 37bc 7aa3 0fbd
000000f0: 1ce5 823c 902b 913d 09e2 6e3d 3f60 523d
00000100: d811 0d3c 7849 9dbc 81d2 6ebd 7d90 4abc
00000110: 12f5 ffbc ba26 fabb b3cb 6d3c 5350 61bc
00000120: e819 353c f86c 01bc 107f 6cbb 1045 d13b
00000130: 0c9d 1abd e736 313d 4a36 bfbc 7b56 4ebd
00000140: 9865 0c3d 4a8c 753d df61 4abd fa6b 473d
00000150: 00ba 713c 9d6c 6dbb 751b 053d a6c2 62bc
00000160: 7169 2f39 b4af 23bd acba b93b 5e6a 983c
00000170: 0161 1abd 5f85 a43c 04d4 a13c ff5c a5bb
00000180: ba82 3f3d 34e0 9fbc 6abb 513d 820d 643c
00000190: a2e1 2dbc 8da2 60bd d21b 4ebd dae9 293d
000001a0: 0183 043c d7af f2bc dc2e 8c3c 84a7 80bc
000001b0: acc8 14bc 9f5b 203d 2965 e93c a6ac 373d
000001c0: 831d 24bd 82b3 0c3c 0776 f3bc 7b31 5ebd
000001d0: 6418 b33c 4642 98ba 5f0e 5fbc b417 25bd
000001e0: 7090 b53c 6961 29bd 0ea1 8abc 3aa0 bb3c
000001f0: 8c1c 6abd b9cf f1bc 3e81 8b3b dba1 f13c
00000200: 975b 87bb 0c71 4d3b bd39 49bd 7021 4e3d
00000210: 8afc 573d 07ca 80bc 8546 913c c74b 41bb
00000220: 3b8f bd3c 2d20 43bd 9665 ca3c 49e0 c0bb
00000230: f45d 86bd 7607 02bd ac1e 5dbd 9694 a5bc
00000240: e013 9dbc 2397 863d 51ee fbbc 6410 1dbd
00000250: ec80 4dbd 5b18 9c3b 57f6 8dbd de7f bb3c
00000260: b181 8ebc 7ded 953d 2743 293c bc50 6f3d
00000270: 8821 4cbd 53eb 5bbd 87f6 a43b 6518 3cbb
00000280: 823f 49bd 2af9 353c a0df 0dbc f63e 79bd
00000290: adab 9abc 5387 5bbd dab3 333c 1a06 08bd
000002a0: 8201 903d a398 f43b a38a 073d 799e 773c
000002b0: e266 433d ab77 12bd a3a9 8dbc ecc9 84bd
000002c0: d282 55ba 5874 6abd 8ff2 3abd 1d3c 813d
000002d0: cdc6 39bd 2e3e 8a3c f65c 27bd e05e 60bd
000002e0: 9cbe 1fbd 2535 a03c 281f 4abd aeca 66bd
000002f0: df3d 79bd cdfa 48bc 72a3 0abd 6c16 2fbd
00000300: db23 27bc a62c 21bd f5db 793d 2acb 4ebc
00000310: 99e1 a93c 86d9 043d f311 abbc 73a1 60bc
00000320: 41dc 5dbc ce9b b53c 7658 363d 1727 2abd
00000330: 15da 58bd 8434 ac3c ac22 97bc 7023 003d
00000340: ee67 ccbc 329c 17bd dc2d c13c ce89 3a3d
00000350: 7948 363c 6075 f63c a912 0ebb 8639 3d3d
00000360: db36 ec3a 357a 0b3a 3aef 293d 74f8 0cbc
00000370: 2688 623d 5471 48bc 3f97 11bd d1ff 9a3c
00000380: 3fde 02bc 5eb0 51bd c8e2 0ebd f4ed 2bbd
00000390: 41d7 bbbc 032a 2bbd d666 57bd 59cd 1fbd
000003a0: 24ac 05bc 6717 293b 9ebb bfbc 19bf c1bb
000003b0: a53c 203d 3305 143d ec7e 84bc 148a 29bc
000003c0: 6dd5 a83c a3f1 7b3d 4de3 4ebd a95c 93bc
000003d0: e1ff 90bb f099 2a3d d296 b0bd 5a6b 52b9
000003e0: 9f6b 50bd d460 20bd 031e c2bc 47f3 903c
000003f0: dff6 593b 4ff3 27bd a211 033a 9ca6 423d
-0.022238405 0.018486558 0.03915774 -0.010427216 0.026740626 -0.035207715 0.06623956 -0.047625218
-0.061257906 -0.030707017 -0.024737958 0.019278409 0.056037605 0.051275022 0.013037028 0.018314557
0.018793404 -0.017877689 -0.02053195 0.04185378 -0.0057014534 0.060045157 0.02616192 -0.037070468
-0.03385035 -0.027492393 0.029232949 0.02173599 0.04910898 -0.0690689 -0.027645402 -0.025885371
-0.05829739 0.019907014 -0.05995625 -0.031706646 -0.013202014 -0.0411271 0.0045662103 -0.051015165
-0.035481777 -0.046912335 0.017168267 -0.05098562 0.030301267 0.036692124 -0.026027495 -0.027712204
-0.05489101 0.018689945 -0.050324384 -0.047365937 0.04616133 -0.026720552 0.05033305 -0.03981582
-0.033486675 -0.043346636 -0.01119908 -0.035068013 0.015978388 0.07088387 0.058321033 0.05136132
0.008610211 -0.019200072 -0.05830622 -0.01236355 -0.031244788 -0.007634011 0.014513898 -0.013752061
0.01105354 -0.007899515 -0.0036086477 0.0063864067 -0.037747428 0.04326525 -0.023341317 -0.050375443
0.034276575 0.059948243 -0.049409743 0.04868696 0.0147538185 -0.0036228069 0.03249689 -0.013840353
0.0001672858 -0.039962485 0.005668005 0.018605407 -0.037690166 0.020083128 0.019754417 -0.0050464864
0.04675553 -0.019516088 0.051204123 0.013919236 -0.010612877 -0.05484252 -0.0503195 0.041482784
0.008087874 -0.029624863 0.017112188 -0.015704878 -0.009081047 0.039149877 0.02849062 0.044842385
-0.040067207 0.00858772 -0.029719366 -0.054246407 0.021862216 -0.0011616431 -0.013614266 -0.04030581
0.0221636 -0.041352663 -0.0169225 0.02290355 -0.05715613 -0.029517995 0.00425735 0.029496124
-0.0041307914 0.0031347899 -0.04912733 0.050324857 0.052731074 -0.015721334 0.017733822 -0.002949463
0.023139587 -0.047638107 0.024706643 -0.005886112 -0.06560889 -0.031745397 -0.05398433 -0.020212453
-0.019174516 0.06571796 -0.030753287 -0.03834571 -0.050171778 0.0047636456 -0.06931751 0.02288812
-0.017395826 0.07320688 0.010330952 0.058426604 -0.049836665 -0.05369122 0.005034271 -0.0028701064
-0.04913283 0.011106769 -0.008659273 -0.06085106 -0.01888069 -0.053595852 0.010968173 -0.033208944
0.070315376 0.007464485 0.0330912 0.015113466 0.04770554 -0.035758656 -0.017292803 -0.06483826
-0.0008144799 -0.05723986 -0.04564148 0.06310294 -0.045355607 0.016875353 -0.04086014 -0.05477798
-0.03900014 0.019556591 -0.04934612 -0.056345634 -0.06085002 -0.012266827 -0.03384728 -0.042745993
-0.01020142 -0.03934922 0.061000783 -0.01262168 0.020737456 0.03243401 -0.020882582 -0.0137103675
-0.013541282 0.02216902 0.044517957 -0.041541185 -0.052942354 0.021021135 -0.01844915 0.031283796
-0.024951901 -0.037014194 0.023581438 0.045541577 0.011125677 0.030085266 -0.0021678603 0.046197437
0.0018021719 0.00053206395 0.04148791 -0.008604158 0.055305623 -0.012234051 -0.03554463 0.01892081
-0.007987558 -0.051193587 -0.034884244 -0.041974977 -0.02292979 -0.041788112 -0.052588306 -0.039014194
-0.008158717 0.0025801302 -0.023404893 -0.005912673 0.039120335 0.03613777 -0.016173802 -0.010347862
0.020609582 0.06150974 -0.05050974 -0.01798852 -0.0044250344 0.041650712 -0.08622517 -0.00020067152
-0.050883885 -0.039154842 -0.023695951 0.017694129 0.003325872 -0.04100352 0.0004999881 0.047522172
