rlgpu/logs/cut_small_delta/model_180.pt (torch, 868312 bytes, 16 tensors)

log_std f4 [3]
-0.3009324 -0.12189113 -0.016838169
00000000: d013 9abe 0fa2 f9bd 33f0 89bc

actor.0.weight f4 [256, 259]
0.039239515 0.028729746 0.06404074 -0.026388286 -0.06378233 0.09492655 0.05401453 -0.07516963
0.030905848 0.03235621 0.018693084 -0.0631587 0.07003572 -0.071666434 -0.02383633 -0.06488596
-0.010455289 -0.034061257 -0.15597667 0.033374988 0.0606014 -0.06765692 -0.09679498 0.016583491
0.10504909 0.012547641 0.074582204 -0.013655452 -0.0018969638 -0.043606017 0.029321713 -0.08751848
0.0272308 0.10658446 0.108774856 -0.013508531 0.072679885 -0.0030648152 -0.05635203 0.02883115
-0.01425882 -0.006830308 0.1721039 0.15205364 -0.08157488 0.16352792 0.081545584 -0.078700945
0.045958795 -0.058614157 -0.011469122 -0.14033031 -0.041157916 0.096635126 -0.035997797 0.056664646
0.24172002 0.11431745 0.030131048 -0.13032253 0.0166922 -0.030543769 -0.0059910626 0.035893127
-0.02051077 0.031327095 -0.07361212 0.105709836 -0.026203422 -0.039389346 -0.078629695 0.07176348
-0.0842452 -0.024234632 -0.00209849 -0.043693535 -0.23150194 0.0123769585 0.034672026 -0.0013653366
0.03907665 0.13392092 -0.08765364 0.0076276595 -0.054326475 0.13514304 -0.06562032 -0.1306755
-0.092731506 -0.07994028 0.069239154 0.087657325 0.009034816 0.034289133 0.19411622 0.15096541
-0.03156782 -0.07131114 -0.020106804 0.08651132 0.088479504 -0.08782025 -0.014343053 -0.010593754
0.10643335 -0.050040677 -0.050181337 0.10266716 0.007983477 0.20450318 -0.032475986 0.11752068
0.03429027 -0.020089617 -0.092611074 -0.104644954 -0.03143605 0.115216784 -0.05789682 -0.01502604
-0.073153 0.15434498 -0.07519069 0.024048872 0.04683039 0.11009792 0.016381403 -0.04757523
0.06231181 0.108338505 0.06878166 0.09260341 -0.07083545 -0.05915387 -0.042971373 0.21555835
-0.05383 -0.09399564 0.07116556 -0.09335646 0.06270525 -0.18782151 -0.016495401 -0.014731391
-0.09373756 0.037069574 0.13251567 -0.0057149073 -0.076547466 -0.057035502 -0.13275573 0.08451604
-0.16251732 0.037286635 0.008778124 0.12920175 0.1560739 0.06661549 -0.026239296 0.12586299
0.13378727 0.044356342 -0.1172954 -0.08308036 0.019461192 0.04605752 -0.058542117 -0.028366264
-0.1910734 -0.037786525 0.092267536 -0.15807262 0.061918765 0.104672305 0.06449049 -0.043368965
0.14746541 -0.06173456 -0.087751694 -0.015321338 0.13544044 0.0565644 -0.085772984 0.024408817
-0.20027973 -0.022555484 0.05150236 -0.016637947 -0.11440789 -0.07682137 -0.15794598 -0.034737628
-0.025181986 -0.043260746 0.16449587 0.07155671 0.14598525 -0.022281924 0.0031609896 0.17234612
-0.036394157 -0.22820875 0.04015063 0.095154665 0.10949165 -0.021635782 0.09066423 -0.0223011
-0.09608251 -0.1923381 -0.031972546 0.072774954 -0.05328563 -0.08385597 -0.020955402 0.20586295
0.07297058 0.0429941 -0.06554169 0.081400156 0.06648957 -0.0096705835 -0.0031302522 0.017578106
-0.09990905 0.08623742 -0.042753894 -0.113388225 0.12239925 0.06036956 0.09750203 0.051408757
0.09712715 0.07922032 -0.0957856 0.04333237 -0.086941026 -0.13722596 0.05147933 -0.03847904
0.00040006105 -0.13727678 0.15721898 0.010651759 0.13446602 0.10721032 0.0081047 0.018514803
0.17722377 -0.0048151594 0.10195282 0.01293245 -0.091679424 0.08528979 0.0033000004 0.03977119
00000000: 9db9 203d a55a eb3c cb27 833d 3f2c d8bc
00000010: 4fa0 82bd da68 c23d 573e 5d3d 89f2 99bd
00000020: 432e fd3c f287 043d 3d22 993c 5959 81bd
00000030: e36e 8f3d dac5 92bd 6844 c3bc eee2 84bd
00000040: a94c 2bbc d183 0bbd 59b8 1fbe 36b4 083d
00000050: 2c39 783d b68f 8abd 723c c6bd 1ada 873c
00000060: fa23 d73d 9f94 4d3c 8ebe 983d 1ebb 5fbc
00000070: 8ba3 f8ba 399c 32bd 1734 f03c e43c b3bd
00000080: 2013 df3c f448 da3d 5ac5 de3d e352 5dbc
00000090: 31d9 943d 11db 48bb 63d1 66bd 4e2f ec3c
000000a0: d39d 69bc c7d0 dfbb 013c 303e f3b3 1b3e
000000b0: bb10 a7bd dd73 273e 5f01 a73d f62d a1bd
000000c0: 4a3f 3c3d 6615 70bd fce8 3bbc c0b2 0fbe
000000d0: 3495 28bd a3e8 c53d 6d72 13bd 3019 683d
000000e0: 7485 773e 441f ea3d 63d5 f63c 4573 05be
000000f0: 15be 883c ed36 fabc ad50 c4bb ac04 133d
00000100: 3406 a8bc d750 003d f3c1 96bd 667e d83d
00000110: 8fa8 d6bc b956 21bd 9b08 a1bd bbf8 923d
00000120: bf88 acbd b587 c6bc d286 09bb fef7 32bd
00000130: d80e 6dbe bac8 4a3c 4104 0e3d 18f5 b2ba
00000140: d60e 203d 9122 093e c083 b3bd 72f1 f93b
00000150: 7085 5ebd f062 0a3e f263 86bd cccf 05be
00000160: 04ea bdbd bbb7 a3bd 42cd 8d3d af85 b33d
00000170: c406 143c c372 0c3d 67c6 463e ad96 1a3e
00000180: 424d 01bd 930b 92bd 06b7 a4bc d92c b13d
00000190: be34 b53d 1adb b3bd 20ff 6abc 6d91 2dbc
000001a0: baf9 d93d 74f7 4cbd f28a 4dbd 2943 d23d
000001b0: 21cd 023c 4869 513e 8a05 05bd afae f03d
000001c0: f473 0c3d fb92 a4bc e0aa bdbd 1850 d6bd
000001d0: 16c3 00bd c7f6 eb3d 3725 6dbd c82f 76bc
000001e0: 3dd1 95bd 9c0c 1e3e 94fd 99bd 2402 c53c
000001f0: 39d1 3f3d 057b e13d 4b32 863c 3fde 42bd
00000200: ab3a 7f3d 94e0 dd3d 66dd 8c3d dba6 bd3d
00000210: 2d12 91bd 544b 72bd c002 30bd 54bb 5c3e
00000220: d97c 5cbd c980 c0bd 40bf 913d ac31 bfbd
00000230: 9c6b 803d 4854 40be 5d21 87bc ef5b 71bc
00000240: 7af9 bfbd 44d6 173d 30b2 073e 1e44 bbbb
00000250: ebc4 9cbd 0f9e 69bd 1ef1 07be bf16 ad3d
00000260: f16a 26be dfb9 183d 1fd2 0f3c 774d 043e
00000270: d6d1 1f3e b46d 883d cbf3 d6bc 3ae2 003e
00000280: 88ff 083e ffae 353d 9238 f0bd 0926 aabd
00000290: 146d 9f3c cfa6 3c3d dcc9 6fbd 5e60 e8bc
000002a0: bfa8 43be 0bc6 1abd c3f6 bc3d cadd 21be
000002b0: 889e 7d3d 6f5e d63d 9713 843d a8a3 31bd
000002c0: 2c01 173e 61dd 7cbd 29b7 b3bd 5906 7bbc
000002d0: e6b0 0a3e 13b0 673d bfa9 afbd 00f5 c73c
000002e0: 2116 4dbe 47c6 b8bc 23f4 523d 4e4c 88bc
000002f0: af4e eabd 8654 9dbd 97bc 21be 0b49 0ebd
00000300: 744a cebc 2e32 31bd 9b71 283e 538c 923d
00000310: 287d 153e 9588 b6bc 9b28 4f3b 807b 303e
00000320: 0a12 15bd 8eaf 69be fd74 243d 73e0 c23d
00000330: 283d e03d 863d b1bc 2bae b93d ccb0 b6bc
00000340: e8c6 c4bd 47f4 44be a5f5 02bd 090b 953d
00000350: 0842 5abd aebc abbd aaaa abbc bdcd 523e
00000360: 9971 953d 951a 303d b93a 86bd 20b5 a63d
00000370: af2b 883d 5e71 1ebc eb24 4dbb f6ff 8f3c
00000380: 1e9d ccbd 3f9d b03d b51e 2fbd 1638 e8bd
00000390: 75ac fa3d 1246 773d 25af c73d fd91 523d
000003a0: 99ea c63d 433e a23d 3e2b c4bd 497d 313d
000003b0: 230e b2bd f684 0cbe fddb 523d 339c 1dbd
000003c0: 49bf d139 4992 0cbe 03fe 203e b784 2e3c
000003d0: 76b1 093e 1691 db3d 93c9 043c 5bac 973c
000003e0: 267a 353e 7cc8 9dbb a4cc d03d a0e2 533c
000003f0: 6cc2 bbbd 6aac ae3d d244 583b 1ee7 223d

actor.0.bias f4 [256]
-0.00047713963 -0.035778742 -0.03763277 -0.011894247 -0.01920519 -0.0027537101 0.06559458 0.016647104
0.0019031784 0.05461732 0.027139952 0.00061519723 0.059681423 0.012559933 -0.008794788 -0.008368701
0.0035348816 0.0065700826 0.032889258 -0.061237637 0.027543478 0.0033683442 0.035864726 -0.063606344
0.010437264 -0.06777989 -0.037007898 0.022123482 -0.049839366 -0.050861094 0.050789546 -0.042778626
0.011618628 0.05422378 0.027998507 -0.019339433 -0.07072341 0.048522133 0.06276018 -0.016219335
0.043913923 0.0069491877 0.039362445 0.04319071 -0.05337354 0.058918703 -0.02249361 0.06341832
0.040404644 -0.05184932 -0.05313905 0.054363895 0.000106205225 0.031763844 -0.050888285 -0.029963039
-0.024242373 -0.02156675 -0.0131098125 0.026498305 0.0075569567 -0.038022537 -0.063371696 0.060669605
-0.07684846 -0.05079547 -0.010561646 0.005277603 0.043486293 -0.014226921 -0.029182445 0.001482309
0.03760966 -0.031030498 0.02004853 -0.015040396 -0.009419248 0.008315622 -0.019171624 -0.05217921
0.033208188 -0.058336355 -0.06918692 0.043819375 0.022219997 -0.06694003 -0.06451397 -0.040222526
0.025086276 -0.04975069 -0.05207785 0.047985993 -0.0148827685 -0.014866957 -0.040382024 0.029563624
0.030959161 0.06558328 -0.034707513 0.0141433915 -0.025627462 -0.024651391 -0.042265587 -0.06983809
-0.0075706965 -0.029559549 0.019595144 0.0052075135 0.005750433 -0.0038568596 -0.009360159 0.03542256
0.022228366 -0.03251159 -0.0033700787 0.020856151 -0.022619119 -0.014526861 -0.023358637 -0.048976243
-0.011958722 -0.027164435 -0.021030098 -0.071212076 0.011448666 0.0665425 -0.040278167 -0.024096284
-0.021939028 -0.022332167 0.043933686 0.022655457 -0.063616164 -0.0064091156 -0.02116397 -0.050338667
-0.030342925 -0.061159287 -0.05527913 -0.02350218 -0.06854203 0.024364352 0.02302625 0.03634761
0.05923781 -7.297531e-05 0.016221024 -0.0042705345 0.0084424075 0.031108893 0.03529634 0.031561576
-0.0052378676 0.043167666 0.06667596 0.048561953 -0.033379734 0.03608423 -0.018260192 -0.053591076
-0.05524504 0.013018049 0.01864455 0.039388843 -0.022813218 -0.071539745 0.070200495 -0.008479416
0.014042156 -0.025142463 -0.062904745 0.06347007 0.019733211 0.029003756 -0.0517746 0.01618915
0.02802277 0.062091026 0.009474409 0.074870184 -0.03386599 -0.04060055 -0.039190203 0.050320704
0.024079751 -4.6820172e-05 0.05332326 -0.03537756 -0.05960683 -0.005258607 -0.015314282 -0.01794063
-0.023965439 -0.06680669 -0.05630721 -0.015640182 0.033077445 0.055846605 0.031984467 0.085471466
-0.0763916 0.034134626 0.04398942 0.008187371 -0.044779208 0.020409284 -0.0346306 -0.025570028
0.024457235 -0.021902751 -0.046830643 -0.009869318 0.029420085 -0.044796824 0.044174146 0.011672415
0.015796728 -0.026960345 -0.008534534 -0.047279593 -0.030660154 -0.06542651 -0.0252019 0.00176928
0.03468011 0.031255767 -0.017516293 0.010417645 0.045690607 0.06590707 -0.039948802 -0.056516428
0.01184833 -0.044182792 -0.015713055 -0.07287998 -0.04030645 0.016861878 -0.032137327 -0.065376006
-0.0012264029 0.030889653 -0.034620717 -0.012139737 -0.04768985 0.059035555 0.047405194 -0.021454455
0.0035873041 -0.0033064971 0.028827962 0.044112995 0.065996826 0.03127268 0.022111401 0.03424982
00000000: 9928 fab9 bb8c 12bd d224 1abd 16e0 42bc
00000010: 3454 9dbc 9777 34bb 7356 863d 825f 883c
00000020: 1274 f93a 69b6 5f3d 9b54 de3c 3045 213a
00000030: 8274 743d 2dc8 4d3c 0418 10bc e01c 09bc
00000040: 79a9 673b d949 d73b e3b6 063d 51d4 7abd
00000050: dca2 e13c 70bf 5c3b e4e6 123d 0b44 82bd
00000060: 0f01 2b3c 2fd0 8abd 9895 17bd 4e3c b53c
00000070: 5d24 4cbd b953 50bd b308 503d a438 2fbd
00000080: 0f5c 3e3c c119 5e3d 205d e53c bb6d 9ebc
00000090: 6fd7 90bd 25bf 463d 6988 803d 69de 84bc
000000a0: 16df 333d 03b6 e33b 843a 213d bee8 303d
000000b0: 379e 5abd bd54 713d 8544 b8bc 77e1 813d
000000c0: 577f 253d f45f 54bd 55a8 59bd adac 5e3d
000000d0: 7fba de38 ce1a 023d 3c70 50bd 0c75 f5bc
000000e0: f197 c6bc c1ac b0bc 8aca 56bc f912 d93c
000000f0: 59a0 f73b 85bd 1bbd 05c9 81bd b180 783d
00000100: ba62 9dbd e90e 50bd c10a 2dbc beef ac3b
00000110: af1e 323d 0818 69bc 0610 efbc 094a c23a
00000120: 960c 1a3d ac33 febc d13c a43c fe6b 76bc
00000130: 3153 1abc 3f3e 083c cf0d 9dbc deb9 55bd
00000140: 4f05 083d 1af2 6ebd dfb1 8dbd f27b 333d
00000150: b606 b63c db17 89bd e61f 84bd 60c0 24bd
00000160: bc81 cd3c 61c7 4bbd 954f 55bd f68c 443d
00000170: dbd6 73bc 8a94 73bc 9f67 25bd 6a2f f23c
00000180: 119e fd3c 8750 863d 7729 0ebd afb9 673c
00000190: aff0 d1bc b7f1 c9bc ae1e 2dbd 4607 8fbd
000001a0: 9b13 f8bb de26 f2bc ff85 a03c caa3 aa3b
000001b0: 216e bc3b 5ec3 7cbb 5a5b 19bc 3f17 113d
000001c0: 4318 b63c df2a 05bd 8adc 5cbb 85da aa3c
000001d0: bb4b b9bc 1202 6ebc 9d5a bfbc 509b 48bd
000001e0: 84ee 43bc f387 debc 5047 acbc a3d7 91bd
000001f0: 3093 3b3c 6f47 883d b8fa 24bd 9265 c5bc
00000200: 7ab9 b3bc f3f1 b6bc cff3 333d f097 b93c
00000210: 3149 82bd 8f03 d2bb 1060 adbc eb2f 4ebd
00000220: ba91 f8bc 2982 7abd 5e6c 62bd a587 c0bc
00000230: c45f 8cbd c097 c73c 8ca1 bc3c 3be1 143d
00000240: 59a3 723d 520a 99b8 f4e1 843c d7ef 8bbb
00000250: 0652 0a3c 14d8 fe3c e592 103d b646 013d
00000260: 6ba2 abbb 94d0 303d 688d 883d e6e8 463d
00000270: 30b9 08bd 0fcd 133d 6696 95bc 5182 5bbd
00000280: a048 62bd a849 553c 75bc 983c 3256 213d
00000290: c9e2 babc 6e83 92bd 47c5 8f3d 40ed 0abc
000002a0: 1211 663c 91f7 cdbc 34d4 80bd 99fc 813d
000002b0: 8ba7 a13c 4999 ed3c 9a11 54bd 1c9f 843c
000002c0: 0290 e53c 2953 7e3d 8d3a 1b3c 8a55 993d
000002d0: 10b7 0abd c34c 26bd e885 20bd 151d 4e3d
000002e0: e642 c53c c760 44b8 7e69 5a3d 0fe8 10bd
000002f0: 4b26 74bd 6550 acbb c1e8 7abc 3af8 92bc
00000300: 2b53 c4bc f2d1 88bd 64a2 66bd d71f 80bc
00000310: 377c 073d 69bf 643d 2502 033d aa0b af3d
00000320: 3373 9cbd c0d0 0b3d 402e 343d 5324 063c
00000330: 676a 37bd 5f31 a73c d1d8 0dbd 3c78 d1bc
00000340: 8a5a c83c 666d b3bc 7dd1 3fbd ecb2 21bc
00000350: 6402 f13c e07c 37bd f3ef 343d a83d 3f3c
00000360: 2468 813c f1db dcbc 6ed4 0bbc 3fa8 41bd
00000370: 012b fbbc 56fe 85bd 3774 cebc 2fe7 e73a
00000380: bb0c 0e3d 0c06 003d 547e 8fbc c5ae 2a3c
00000390: 1326 3b3d 49fa 863d 5ba1 23bd c57d 67bd
000003a0: 7f1f 423c 04f9 34bd aab8 80bc 1942 95bd
000003b0: 6018 25bd ec21 8a3c 6ea2 03bd dbe3 85bd
000003c0: 41bf a0ba 4c0c fd3c 74ce 0dbd bfe5 46bc
000003d0: 6f56 43bd 44cf 713d f32b 423d 41c1 afbc
000003e0: fa18 6b3b d1b1 58bb 9e28 ec3c d4af 343d
000003f0: 5829 873d c817 003d f822 b53c 8a49 0c3d

actor.2.weight f4 [128, 256]
-0.031036396 0.14999527 -0.15342863 -0.023815159 -0.05178412 -0.152614 0.047388326 0.091757536
0.0038021621 0.15105507 -0.08316788 -0.09059695 -0.05225566 0.12105164 -0.0048217676 0.042455748
-0.16420731 -0.08724091 -0.09549046 0.12217817 0.23316564 -0.017053563 -0.14329138 0.06465488
-0.18304215 -0.15671918 0.015128932 0.01610562 -0.07244242 0.012050064 -0.028566657 -0.03358994
0.017914983 0.017203802 0.08318168 0.013691028 -0.20843402 0.0035898776 0.064695984 -0.056413103
0.08810581 0.11140246 -0.03915897 0.030746792 0.036465935 -0.10063998 0.007737968 0.0077434937
0.045425702 -0.16964501 -0.019773213 0.08720049 -0.035643984 -0.11238366 0.03808718 -0.039041862
-0.16652532 0.021446528 0.007920236 -0.054605268 -0.03305729 0.14987098 0.102414906 -0.21806116
0.04178182 -0.112965524 0.015835693 -0.08778571 0.004578747 -0.056605104 -0.06559959 -0.06661508
-0.09335023 0.018644616 -0.020195276 0.12389134 -0.1019877 0.014169683 -0.016372016 0.036889847
0.025463058 0.005583328 0.08087013 -0.16004889 0.057011124 -0.026246859 -0.092796266 0.24511883
-0.023502737 -0.06750435 -0.04037877 0.0012921934 0.05143864 0.0166036 -0.0026687894 0.06339267
-0.006583825 -0.006448614 -0.023018913 0.034066357 -0.13854305 0.14721166 0.054817148 0.14149004
0.058068395 -0.05062303 0.058370635 0.038722657 -0.09951377 0.011856677 0.04213966 0.0009096919
-0.09123059 0.020925684 -0.09311247 -0.114856414 0.052133698 -0.00068625435 -0.058515362 -0.018036889
-0.022030074 0.1774724 0.05022724 -0.1112371 -0.091831066 0.09002383 0.07272162 0.10132675
0.05079676 0.02655614 0.05307702 0.081017636 -0.07520648 0.14381672 -0.07618792 0.0076621026
-0.03474423 0.14977218 -0.13418704 -0.17498548 0.08778416 0.01835453 0.0051032933 -0.15606451
-0.005404393 -0.110497154 0.060134165 0.02293435 0.0127744945 0.056010805 0.049685884 0.036965344
-0.019316236 0.104184665 -0.0013118883 0.0048516067 0.011395385 -0.0994472 -0.046403382 -0.05909005
0.23336267 -0.15710288 0.017351437 -0.010467775 0.004452125 -0.1620154 0.03290366 -0.14076757
0.055968203 -0.03312735 0.017360607 0.03265695 -0.120920286 0.045413747 0.025380176 -0.008264073
-0.06852413 0.17585695 0.09767616 0.007059755 -0.06354181 -0.09662393 -0.1474079 0.09366238
0.0071938816 0.080568865 -0.006983841 0.082648635 -0.06111815 0.0010764254 0.05026095 0.14851795
0.02233903 0.049584858 0.06996846 0.009045445 0.018841181 -0.029276572 0.09453457 -0.0065640775
0.08128715 0.035274696 -0.13337995 -0.052722834 -0.008624153 -0.08506351 0.0019680571 0.08930066
0.0624515 -0.07918014 -0.01645753 -0.15264441 0.047188904 -0.12552655 0.058266077 -0.13972178
-0.0050370037 -0.13203353 0.0915545 -0.076523736 0.038256034 -0.054295402 0.037804507 0.06789043
0.086256616 -0.089005284 0.08626787 -0.042778723 0.07074705 -0.08016383 0.17152135 -0.13511051
0.0070760776 0.0022941974 -0.098457 -0.017318988 -0.10541337 0.0397757 -0.044763524 -0.053306647
0.09621797 -0.0023333055 0.0047572237 -0.12839176 0.034421515 0.19588749 -0.13257472 -0.12533154
0.13185944 0.010699469 0.0023969382 -0.111609586 -0.12691545 -0.053968042 0.10695164 -0.048495147
00000000: 0a40 febc 5c98 193e 651c 1dbe 0218 c3bc
00000010: 961b 54bd d846 1cbe 431a 423d 60eb bb3d
00000020: b22d 793b 2eae 1a3e ec53 aabd e58a b9bd
00000030: 080a 56bd ece9 f73d ebff 9dbb 14e6 2d3d
00000040: f625 28be 5dab b2bd 8190 c3bd 8c38 fa3d
00000050: f9c2 6e3e eab3 8bbc faba 12be c769 843d
00000060: 676f 3bbe fe7a 20be 57df 773c efef 833c
00000070: b15c 94bd a26d 453c 9f04 eabc 9b95 09bd
00000080: 71c2 923c fdee 8c3c 285b aa3d 5550 603c
00000090: ba6f 55be 2744 6b3b 547f 843d 6d11 67bd
000000a0: d270 b43d f926 e43d 2865 20bd b2e0 fb3c
000000b0: 4e5d 153d 551c cebd c88e fd3b 22bd fd3b
000000c0: 4d10 3a3d 6cb7 2dbe 6ffb a1bc 2c96 b23d
000000d0: 6dff 11bd 6829 e6bd 4e01 1c3d 5cea 1fbd
000000e0: 9d85 2abe a1b0 af3c e1c3 013c c6a9 5fbd
000000f0: 1567 07bd c777 193e e8be d13d 6d4b 5fbe
00000100: 6a23 2b3d 785a e7bd dbb9 813c ffc8 b3bd
00000110: 5009 963b c1da 67bd 1459 86bd 7d6d 88bd
00000120: 682e bfbd 98bc 983c 9070 a5bc beba fd3d
00000130: edde d0bd f527 683c 9b1e 86bc cf19 173d
00000140: e797 d03c 5af4 b63b 3d9f a53d dbe3 23be
00000150: 7f84 693d a703 d7bc f80b bebd 6e00 7b3e
00000160: d088 c0bc b83f 8abd 3664 25bd d15e a93a
00000170: 53b1 523d 4604 883c dbe6 2ebb 04d4 813d
00000180: 21bd d7bb e54e d3bb 2992 bcbc 2a89 0b3d
00000190: 3bde 0dbe a7be 163e f287 603d c4e2 103e
000001a0: 20d9 6d3d 185a 4fbd 0c16 6f3d a69b 1e3d
000001b0: e0cd cbbd 8242 423c a39a 2c3d 6478 6e3a
000001c0: 1bd7 babd 576c ab3c c0b1 bebd d739 ebbd
000001d0: 258a 553d c0e5 33ba cead 6fbd 19c2 93bc
000001e0: 6a78 b4bc 53bb 353e 14bb 4d3d 47d0 e3bd
000001f0: ed11 bcbd 6a5e b83d 13ef 943d 6684 cf3d
00000200: 4310 503d 438c d93c 4a67 593d 93ec a53d
00000210: db05 9abd b144 133e 6a08 9cbd 6012 fb3b
00000220: f74f 0ebd e15d 193e 5468 09be 652f 33be
00000230: 2fc8 b33d 3d5c 963c 8739 a73b 60cf 1fbe
00000240: 5617 b1bb 554c e2bd 3e4f 763d d1e0 bb3c
00000250: 1d4c 513c 966b 653d 6d83 4b3d f968 173d
00000260: 153d 9ebc c55e d53d abf3 abba 3afa 9e3b
00000270: b5b3 3a3c f9aa cbbd 7911 3ebd 6908 72bd
00000280: a0f6 6e3e 94df 20be 9a24 8e3c 0881 2bbc
00000290: 22e3 913b 5de7 25be fdc5 063d 6025 10be
000002a0: ea3e 653d 8bb0 07bd d537 8e3c 4bc3 053d
000002b0: 0ea5 f7bd c403 3a3d 16ea cf3c 0966 07bc
000002c0: 6156 8cbd d813 343e 700a c83d 8455 e73b
000002d0: 3522 82bd c4e2 c5bd 19f2 16be 10d2 bf3d
000002e0: a7ba eb3b 4a01 a53d b4d8 e4bb b043 a93d
000002f0: 0657 7abd d816 8d3a 6dde 4d3d 1715 183e
00000300: 5700 b73c 7e19 4b3d a04b 8f3d 5933 143c
00000310: d258 9a3c 6cd5 efbc 579b c13d 7917 d7bb
00000320: e179 a63d 337c 103d c194 08be e6f3 57bd
00000330: 524c 0dbc c735 aebd 85fa 003b 44e3 b63d
00000340: 25cd 7f3d 3229 a2bd f1d1 86bc d14e 1cbe
00000350: 2749 413d 088a 00be 69a8 6e3d 3a13 0fbe
00000360: 730d a5bb cc33 07be ed80 bb3d 7ab8 9cbd
00000370: 5cb2 1c3d db64 5ebd e6d8 1a3d 230a 8b3d
00000380: 4fa7 b03d 6748 b6bd 36ad b03d be38 2fbd
00000390: d4e3 903d ef2c a4bd 4ba3 2f3e 695a 0abe
000003a0: 71de e73b 3f5a 163b d3a3 c9bd 8de0 8dbc
000003b0: f7e2 d7bd d8eb 223d f559 37bd 1258 5abd
000003c0: ed0d c53d 5fea 18bb 7ce2 9b3b 2179 03be
000003d0: 93fd 0c3d bb96 483e abc1 07be e956 00be
000003e0: 2906 073e d34c 2f3c f315 1d3b 9193 e4bd
000003f0: 20f6 01be 980d 5dbd 7609 db3d d9a2 46bd

actor.2.bias f4 [128]
-0.017308947 0.029339315 -0.0491292 -0.039762422 -0.018797064 0.031472072 -0.011337743 -0.038696438
0.0031700996 0.044802953 -0.003942016 0.046402592 -0.04323198 -0.06717292 -0.013912735 -0.048122372
0.017191261 -0.033480957 -0.023806905 0.0015883762 0.030428901 -0.0322623 -0.05412235 0.058502708
-0.059923608 -0.037782963 -0.03106902 0.042628642 -0.045841705 -0.022032455 0.03087318 0.044125948
-0.0079306085 -0.039085817 0.047134787 -0.0069163777 -0.016220836 0.043442424 0.015252889 -0.06748898
0.006716261 0.0092173945 -0.041298117 -0.012167581 0.01093714 -0.042076003 0.01355128 -0.06785184
-0.041584216 0.040294934 -0.0683919 -0.010941672 -0.03768188 -0.029027328 0.014930088 0.021198913
-0.04376976 0.04709917 -0.007347362 -0.020302722 0.03412054 0.029373517 0.032302614 0.03661568
0.026325969 0.033205107 -0.01715203 -0.0043287673 0.028105073 0.002440611 0.035110503 -0.05416005
0.00087578216 -0.044261426 -0.045468733 0.036173735 -0.03648844 0.029979428 -0.032455176 -0.008307667
0.015130787 -0.06392906 0.022171874 -0.00091742596 -0.034982335 0.03938436 0.042548683 -0.06190289
0.030118434 -0.06767944 -0.05033595 -0.036778733 -0.05999026 -0.039001826 0.027224688 0.016256733
-0.05152325 0.011894453 -0.012923859 -0.0112076 0.047159877 0.024800347 -0.045831412 -0.059774112
-0.067367226 -0.036694396 0.045918155 0.008398362 -0.026351498 -0.058743894 0.05017104 -0.01035667
-0.061574988 -0.017200664 0.05303733 0.020231739 -0.007822692 0.012358739 0.04830768 -0.03424178
-0.061859217 -0.026914658 -0.024296911 -0.048038393 -0.07036599 -0.038926013 0.009968653 0.00045316195
00000000: 7ecb 8dbc 0159 f03c b33b 49bd ecdd 22bd
00000010: 4dfc 99bc dce8 003d f1c1 39bc 2880 1ebd
00000020: 72c1 4f3b 4d83 373d 072c 81bb a510 3e3d
00000030: 0414 31bd f591 89bd 3df2 63bc f71b 45bd
00000040: b0d4 8c3c 5423 09bd b306 c3bc 1031 d03a
00000050: 0846 f93c 7925 04bd 66af 5dbd 89a0 6f3d
00000060: 7572 75bd 4fc2 1abd 7584 febc 5f9b 2e3d
00000070: 83c4 3bbd 687d b4bc c0e9 fc3c 69bd 343d
00000080: 62ef 01bc 7318 20bd 6810 413d c8a2 e2bb
00000090: 8fe1 84bc aff0 313d 41e7 793c aa37 8abd
000000a0: 1514 dc3b 8e04 173c 3728 29bd 895a 47bc
000000b0: b131 333c e357 2cbd 3006 5e3c e8f5 8abd
000000c0: 3654 2abd 4d0c 253d 0d11 8cbd b344 33bc
000000d0: 5158 1abd b8ca edbc 549d 743c 58a9 ad3c
000000e0: eb47 33bd 0feb 403d 24c2 f0bb e551 a6bc
000000f0: fbc1 0b3d bba0 f03c bf4f 043d 53fa 153d
00000100: 8fa9 d73c 1402 083d 6a82 8cbc 55d8 8dbb
00000110: 9c3c e63c a8f2 1f3b 08d0 0f3d eed6 5dbd
00000120: bf94 653a 784b 35bd 6c3d 3abd e92a 143d
00000130: e774 15bd 6b97 f53c b8ef 04bd e21c 08bc
00000140: 1fe7 773c 3ded 82bd caa1 b53c 6a7f 70ba
00000150: a349 0fbd 7f51 213d 8747 2e3d e38d 7dbd
00000160: efba f63c 859b 8abd 122d 4ebd 4ca5 16bd
00000170: 59b8 75bd 61c0 1fbd 4f06 df3c d72c 853c
00000180: 0b0a 53bd f4e0 423c 98be 53bc 15a0 37bc
00000190: b72a 413d 192a cb3c b8b9 3bbd b3d5 74bd
000001a0: d4f7 89bd dd4c 16bd ad14 3c3d 4999 093c
000001b0: 19df d7bc 709d 70bd 2680 4d3d 06af 29bc
000001c0: 0e36 7cbd 68e8 8cbc ac3d 593d 08bd a53c
000001d0: c02a 00bc 4f7c 4a3c 46de 453d 1c41 0cbd
000001e0: 1760 7dbd 217c dcbc 510a c7bc e8c3 44bd
000001f0: 0b1c 90bd e270 1fbd 9053 233c 5e96 ed39

actor.4.weight f4 [64, 128]
-0.08243839 -0.0009952517 0.11364127 -0.105040215 -0.09152767 -0.026379297 0.08827565 -0.25733358
0.0633003 -0.27998748 0.13916075 0.17412257 -0.08437016 0.043965004 0.023069263 -0.07496537
0.14760728 -0.08180873 0.21091256 -0.0987614 -0.046439476 -0.012411153 0.14476687 -0.033705585
-0.08730168 0.04838699 0.11021788 -0.2081995 0.07059924 -0.062979475 0.013544624 0.14018148
0.0024170694 0.27605662 -0.047992017 0.06431028 0.04444284 0.02864024 -0.035520934 -0.08341275
-0.0056450386 0.00029239207 -0.18694346 -0.1724359 0.019709103 0.096033186 0.06585193 -0.057307575
-0.039024264 0.094235376 0.12054766 0.096274994 0.33527964 -0.13674748 0.019984907 -0.012063265
0.15433319 -0.25271225 0.027366871 -0.049756926 -0.03741379 -0.022882218 0.22822379 0.11716
0.30383304 0.0074994033 -0.3374277 0.08594039 -0.08385694 -0.07146859 -0.070652105 0.17579974
0.25225225 0.34405237 0.20614967 0.021445712 -0.104359314 0.02864305 0.1769118 -0.14928603
-0.13271609 0.024691371 0.10346479 -0.018532306 -0.22047615 -0.10035051 -0.06496351 -0.07311379
0.17184916 -0.21069591 -0.054575894 -0.08182453 -0.03188309 0.07966336 0.05906673 0.019713053
0.009068945 -0.10878056 0.063587196 -0.056225054 -0.009741896 -0.05771669 -0.023330482 0.046937928
-0.07065729 -0.06069581 -0.036352504 -0.03899252 0.06501791 0.14713548 0.1270758 0.10397717
0.16006316 0.075382024 -0.22298802 0.10843473 0.053365413 -0.04550594 -0.110593036 -0.14647561
-0.18773936 0.18732776 -0.11800091 0.01684329 0.16745007 0.19273882 -0.020047829 0.084737495
0.017744374 -0.02734956 0.18079074 0.07902141 0.05777115 -0.21715209 -0.15958032 -0.07971523
0.20206209 0.059366435 0.14191826 -0.10519444 0.17792605 0.19914769 -0.10744466 -0.0690817
0.32757527 0.14895041 0.123015255 -0.2101992 -0.018739041 0.03419488 -0.070041284 -0.33035257
0.0539278 0.011136435 0.02117097 -0.019865386 0.12570973 0.0672085 -0.20097095 0.012674585
0.10563434 0.15733372 0.08632993 0.16775133 0.09524454 0.06597109 0.11449762 0.20029157
-0.12071914 -0.17132212 0.043505482 0.15627407 0.24301605 0.011709584 -0.07229114 0.062385883
0.19532655 0.13585374 -0.041714337 -0.10777461 0.038379416 -0.23157331 -0.018447872 0.088020205
-0.010620082 0.082328476 -0.11453936 0.20677029 0.0048367237 -0.18012021 -0.22257489 -0.00807064
0.015267042 -0.10613549 0.21442772 -0.0145343095 -0.00828769 -0.1490105 -0.11809661 0.1656288
-0.07949262 0.16443184 -0.15072545 -0.2918157 0.107932664 -0.05934166 0.14650403 0.013802743
-0.09704671 -0.18297648 0.04733241 0.032881405 -0.037473314 -0.19390088 -0.027000215 0.33091804
0.12627935 0.005862601 -0.06392357 -0.019765804 -0.032256868 0.0054295855 -0.083729476 0.062223766
-0.0053162016 0.06486796 0.06297777 -0.1287106 -0.057643045 -0.22139186 0.08496564 0.18564214
-0.169317 0.12921743 -0.053914346 -0.10881364 0.13081026 -0.112723134 -0.03576638 0.06871862
0.06830333 0.09578837 0.04738641 0.16318727 -0.14494947 -0.06425399 -0.070308276 -0.034054838
-0.0069019296 -0.11197552 -0.04112229 0.17800003 0.031405438 -0.12756354 -0.2052094 0.07111644
00000000: 75d5 a8bd 1b73 82ba c1bc e83d 531f d7bd
00000010: dc72 bbbd 6519 d8bc ddc9 b43d 3ac1 83be
00000020: 96a3 813d 855a 8fbe 2880 0e3e 304d 323e
00000030: 43ca acbd a614 343d c0fb bc3c 7287 99bd
00000040: 5d26 173e 568b a7bd 76f9 573e 6b43 cabd
00000050: 5237 3ebd 2658 4bbc c43d 143e de0e 0abd
00000060: 39cb b2bd 7031 463d e9b9 e13d 4032 55be
00000070: 5696 903d 62fb 80bd 45ea 5d3c bc8b 0f3e
00000080: b267 1e3b 4b57 8d3e 4793 44bd 1cb5 833d
00000090: b209 363d f09e ea3c 667e 11bd 4ed4 aabd
000000a0: 04fa b8bb 334c 9939 1b6e 3fbe 0993 30be
000000b0: fc74 a13c 0cad c43d 60dd 863d 59bb 6abd
000000c0: e8d7 1fbd 7afe c03d b1e1 f63d d32b c53d
000000d0: c6a9 ab3e 8807 0cbe 63b7 a33c 00a5 45bc
000000e0: 8509 1e3e 8063 81be 7d30 e03c ebcd 4bbd
000000f0: 343f 19bd 7d73 bbbc 7fb3 693e 95f1 ef3d
00000100: 0190 9b3e 8ebd f53b 53c3 acbe 8401 b03d
00000110: 30bd abbd 205e 92bd 0db2 90bd d904 343e
00000120: 3527 813e a227 b03e e618 533e ebae af3c
00000130: 56ba d5bd d4a4 ea3c 5e28 353e 70de 18be
00000140: bae6 07be 8f45 ca3c 59e5 d33d 10d1 97bc
00000150: 80c4 61be 9184 cdbd 970b 85bd afbc 95bd
00000160: 3af9 2f3e abc0 57be f98a 5fbd 9f93 a7bd
00000170: d897 02bd 8b26 a33d f5ef 713d 457d a13c
00000180: ea95 143c 58c8 debd 013a 823d 3e4c 66bd
00000190: 799c 1fbc 5668 6cbd 911f bfbc fc41 403d
000001a0: c5b4 90bd 2b9c 78bd 5de6 14bd 9fb6 1fbd
000001b0: 1c28 853d afaa 163e 2920 023e fcf1 d43d
000001c0: 99e7 233e e461 9a3d f956 64be 0713 de3d
000001d0: b195 5a3d 7064 3abd 9a7e e2bd b4fd 15be
000001e0: bf3e 40be d9d2 3f3e 76aa f1bd f0fa 893c
000001f0: 0878 2b3e 535d 453e 583b a4bc da8a ad3d
00000200: a65c 913c 2f0c e0bc 3521 393e fad5 a13d
00000210: 71a1 6c3d 1e5d 5ebe 0669 23be bd41 a3bd
00000220: 5de9 4e3e 382a 733d 0553 113e 2f70 d7bd
00000230: 3f32 363e 5fed 4b3e f20b dcbd b57a 8dbd
00000240: f2b7 a73e 7586 183e 6cef fb3d 763e 57be
00000250: 9e82 99bc ee0f 0c3d ce71 8fbd f923 a9be
00000260: 66e3 5c3d 9875 363c be6e ad3c bcbc a2bc
00000270: 0dba 003e 9ca4 893d 54cb 4dbe 10a9 4f3c
00000280: d156 d83d 171c 213e bfcd b03d 01c7 2b3e
00000290: 920f c33d da1b 873d ba7d ea3d 3c19 4d3e
000002a0: 993b f7bd 116f 2fbe ce32 323d 4f06 203e
000002b0: 33d9 783e 8ed9 3f3c 610d 94bd 5788 7f3d
000002c0: af03 483e 3e1d 0b3e a7dc 2abd efb8 dcbd
000002d0: bc33 1d3d 8e21 6dbe fe1f 97bc f043 b43d
000002e0: daff 2dbc d59b a83d 9d93 eabd 97bb 533e
000002f0: 617d 9e3b 6f71 38be acea 63be b83a 04bc
00000300: 9e22 7a3c 905d d9bd f192 5b3e 5021 6ebc
00000310: 17c9 07bc 3596 18be a3dc f1bd 999a 293e
00000320: 07cd a2bd d260 283e c657 1abe de68 95be
00000330: cd0b dd3d 3e10 73bd 2705 163e e624 623c
00000340: 6dc0 c6bd 305e 3bbe a1df 413d a7ae 063d
00000350: 9e7d 19bd f48d 46be 8e2f ddbc 176e a93e
00000360: 604f 013e 101b c03b 5cea 82bd e5eb a1bc
00000370: c71f 04bd aaea b13b 5c7a abbd 59de 7e3d
00000380: 8833 aebb 7ed9 843d 7dfa 803d b6cc 03be
00000390: 1d1b 6cbd 8cb4 62be 7702 ae3d f918 3e3e
000003a0: 7061 2dbe 9351 043e 4ad5 5cbd b0d9 debd
000003b0: 20f3 053e 63db e6bd c57f 12bd 59bc 8c3d
000003c0: 9ee2 8b3d b12c c43d 4118 423d 901a 273e
000003d0: a26d 14be 9997 83bd c9fd 8fbd 167d 0bbd
000003e0: 9529 e2bb 6c53 e5bd d96f 28bd a445 363e
000003f0: fda2 003d 04a0 02be 6a22 52be 7fa5 913d

actor.4.bias f4 [64]
-0.022399725 -0.025889102 -0.08126316 -0.016652176 -0.11134378 0.059709806 0.027110092 0.033813488
-0.099389724 0.010971257 -0.0011641035 -0.0545269 0.03561508 0.015596337 -0.011503115 0.000870144
0.043503523 -0.0345422 0.01980998 -0.07836038 0.02825304 -0.10559251 -0.026826942 -0.027274435
0.099986486 0.057770748 0.040508218 -0.01132517 0.09400003 0.043545347 -0.07139582 -0.1096352
-0.08902312 0.04857298 -0.044088095 -0.021828895 0.040783532 -0.025306463 -0.005875895 0.03954232
-0.042458713 -0.049306285 -0.042572968 -0.065817475 -0.049114846 -0.028434772 0.036257476 -0.10123433
-0.033924747 -0.043083962 0.02027191 0.095756896 -0.0017506145 -0.10400391 0.051519264 0.024022935
0.03473116 -0.068416014 -0.036770824 -0.0699187 -0.078975864 0.07389168 0.018797578 -0.091425374
00000000: a17f b7bc 6215 d4bc 4d6d a6bd 256a 88bc
00000010: 3508 e4bd 4592 743d fc15 de3c 0380 0a3d
00000020: d78c cbbd cac0 333c d594 98ba 9957 5fbd
00000030: 1ee1 113d c787 7f3c 9077 3cbc 601a 643a
00000040: c030 323d 1f7c 0dbd 8a48 a23c 687b a0bd
00000050: eb72 e73c e340 d8bd 2dc4 dbbc a36e dfbc
00000060: b7c5 cc3d 05a1 6c3d f2eb 253d 358d 39bc
00000070: 1683 c03d 9b5c 323d f937 92bd 6b88 e0bd
00000080: c151 b6bd 76f4 463d b895 34bd 83d2 b2bc
00000090: a20c 273d 804f cfbc 948a c0bb 21f7 213d
000000a0: 30e9 2dbd 63f5 49bd fe60 2ebd 50cb 86bd
000000b0: a62c 49bd 0af0 e8bc b882 143d f253 cfbd
000000c0: adf4 0abd cf78 30bd 4711 a63c 311c c43d
000000d0: e074 e5ba 0100 d5bd dd05 533d bfcb c43c
000000e0: 4342 0e3d b21d 8cbd 019d 16bd 8931 8fbd
000000f0: 19be a1bd 8554 973d 61fd 993c 3a3d bbbd

actor.6.weight f4 [3, 64]
0.003985148 0.0019090326 0.0028839638 0.005116179 0.0035869358 0.017486265 0.0029274153 0.005153245
0.0052106874 0.0004220587 0.0038907756 0.0023951882 0.003927644 -0.010704302 0.016504293 0.004109738
-0.0055809594 0.0019792472 -0.00795985 0.013638482 0.0030910878 0.0033382927 0.0056080436 0.0017043193
-0.0047723386 0.0038820058 -2.5373943e-06 0.0033727468 0.0151317995 0.0035908148 0.005571715 0.003263341
0.0037035344 0.008709873 -0.008319948 0.014989669 0.0023666667 0.0025448438 0.0031733115 0.0027794437
0.0023979049 0.0006693278 -0.0024837116 0.0031632995 0.0031808433 0.009658922 -0.003713595 0.0014757079
-0.0010200451 0.0032013382 0.003965552 -0.0029585375 -0.0017713277 0.004141784 0.004214666 0.0025289457
0.0038097878 0.0031491648 0.0046984325 0.016897708 0.005748493 -0.010545028 0.006595102 0.0036528362
-0.014178906 -0.018386802 -0.015277448 -0.011851769 -0.013048561 -0.012411604 -0.013725561 -0.014805651
-0.014149434 -0.0114040775 -0.013349965 -0.015310816 -0.014061148 0.012889537 -0.020692289 -0.015078069
0.00370083 -0.01344407 0.012081168 -0.02019825 -0.016064119 -0.013667364 -0.015639246 -0.011757336
0.0075919447 -0.014822596 -0.016300349 -0.012940877 -0.021700518 -0.01595331 -0.013111569 -0.014712785
-0.014584814 -0.009808793 0.012520873 -0.020028092 -0.01296135 -0.013713334 -0.010378335 -0.011383003
-0.011797595 -0.01268699 0.007201526 -0.013466957 -0.011588271 -0.008476338 -0.014326467 -0.013820189
-0.014152984 -0.012428978 -0.013322608 0.003209001 0.004083368 -0.01287695 -0.015644643 -0.014446696
-0.014411935 -0.014552646 -0.016182767 -0.025410326 -0.0125625795 0.0063051893 -0.016801922 -0.015053614
0.044431157 0.05006276 0.04424149 0.048853062 0.04776917 0.011283314 0.047030266 0.0477769
0.053810567 0.04946195 0.043551356 0.04891567 0.047034875 -0.007346367 0.014738184 0.04968052
-0.021083206 0.041868873 -0.0048940405 0.029076315 0.045667835 0.04449027 0.04929667 0.03976707
-0.034175254 0.04717997 0.047991212 0.04488362 -0.0010079958 0.049489763 0.0500087 0.04934481
0.048519216 0.02149456 -0.0102008255 0.029048214 0.04738723 0.04824097 0.037970107 0.03728418
0.038777772 0.047512203 -0.034665953 0.04666249 0.04982084 0.009517393 0.031945605 0.046607193
0.044734742 0.04667251 0.04602771 -0.022256404 -0.014487903 0.053066827 0.048936002 0.048202075
0.04555471 0.05043652 0.0507335 0.0183973 0.019433528 -0.014468928 0.05084469 0.049775504
00000000: d895 823b 8138 fa3a e200 3d3b 9fa5 a73b
00000010: cc12 6b3b 5b3f 8f3c e1d9 3f3b 8ddc a83b
00000020: 6abe aa3b c347 dd39 62fc 7e3b 97f8 1c3b
00000030: 77b3 803b 1961 2fbc 0334 873c fbaa 863b
00000040: 7be0 b6bb 42b6 013b 086a 02bc f173 5f3c
00000050: d993 4a3b 42c7 5a3b aec3 b73b 7763 df3a
00000060: 4761 9cbb 4069 7e3b 1a48 2ab6 4d09 5d3b
00000070: 5eeb 773c e053 6b3b ef92 b63b c7dd 553b
00000080: ffb6 723b dbb3 0e3c 6450 08bc 3b97 753c
00000090: 141a 1b3b 65c7 263b 55f7 4f3b 5427 363b
000000a0: 2b26 1d3b d475 2f3a c4c5 22bb 5c4f 4f3b
000000b0: b275 503b 7540 1e3c c95f 73bb 8a6c c13a
000000c0: 09b3 85ba 8bcd 513b 76f1 813b 06e4 41bb
000000d0: e52b e8ba cdb7 873b 2e1b 8a3b abbc 253b
000000e0: a2ad 793b 3862 4e3b 4ff5 993b 106d 8a3c
000000f0: db5d bc3b 0ec5 2cbc ba1b d83b 6c64 6f3b
00000100: a44e 68bc eb9f 96bc 434e 7abc ec2d 42bc
00000110: a2c9 55bc 0a5a 4bbc 2de1 60bc 6793 72bc
00000120: 07d3 67bc 2bd8 3abc d0b9 5abc 37da 7abc
00000130: bb60 66bc a32e 533c e082 a9bc 010a 77bc
00000140: a089 723b 8444 5cbc 17f0 453c cd76 a5bc
00000150: e698 83bc 14ed 5fbc e01d 80bc d7a1 40bc
00000160: d9c5 f83b 79da 72bc 4f88 85bc f905 54bc
00000170: 49c5 b1bc 84b0 82bc e8d1 56bc e50d 71bc
00000180: 25f5 6ebc 0fb5 20bc 5924 4d3c f411 a4bc
00000190: d85b 54bc e4ad 60bc e409 2abc c67f 3abc
000001a0: b34a 41bc 18dd 4fbc c7fa eb3b 83a4 5cbc
000001b0: bbdc 3dbc 57e0 0abc 8fb9 6abc 136e 62bc
000001c0: ebe1 67bc eaa2 4bbc 1147 5abc 1a4e 523b
000001d0: c6cd 853b d8f9 52bc 3229 80bc d6b1 6cbc
000001e0: 0920 6cbc 396e 6ebc b991 84bc 5129 d0bc
000001f0: 47d3 4dbc c39b ce3b 2fa4 89bc 6fa3 76bc
00000200: 72fd 353d 9c0e 4d3d 9136 353d 261a 483d
00000210: 9ba9 433d a6dd 383c cfa2 403d b6b1 433d
00000220: 7868 5c3d 9d98 4a3d e862 323d cc5b 483d
00000230: a4a7 403d cbb9 f0bb 6d78 713c cd7d 4b3d
00000240: b0b6 acbc b27e 2b3d 305e a0bb 7431 ee3c
00000250: 320e 3b3d 6e3b 363d 4eeb 493d cce2 223d
00000260: 5afb 0bbd c93f 413d 6f92 443d e3d7 373d
00000270: ba1e 84ba c7b5 4a3d ecd5 4c3d c91d 4a3d
00000280: 16bc 463d 5c15 b03c 5d21 27bc 85f6 ed3c
00000290: 1d19 423d 5398 453d 8b86 1b3d 4cb7 183d
000002a0: 71d5 1e3d 289c 423d e3fd 0dbd 2b21 3f3d
000002b0: f010 4c3d d7ee 1b3c 65d9 023d 2fe7 3e3d
000002c0: c73b 373d ad2b 3f3d 8d87 3c3d 1053 b6bc
000002d0: ab5e 6dbc 9a5c 593d 1e71 483d 8a6f 453d
000002e0: 9397 3a3d 8696 4e3d eecd 4f3d efb5 963c
000002f0: 1033 9f3c 150f 6dbc 8642 503d 66e1 4b3d

actor.6.bias f4 [3]
-0.031104429 0.075297944 0.039968185
00000000: b7ce febc cf35 9a3d aeb5 233d

critic.0.weight f4 [256, 259]
0.10512902 0.15467077 0.05575193 -0.011323809 -0.019035354 -0.08574385 0.070966 -0.053436182
0.035789322 0.0031125958 0.04233086 -0.06577792 0.08722943 0.12418528 0.12306999 -0.032055352
0.14079297 -0.0767176 -0.10461379 -0.07488144 0.10479268 -0.10550566 0.5309178 0.118604094
-0.11341351 0.10289581 -0.10597479 -0.058796134 0.14992256 0.17229652 0.109486006 0.062993504
0.004334822 0.122243315 -0.11579779 -0.037149556 0.008263796 -0.016984163 -0.07359939 0.07957412
0.04514995 -0.013973235 -0.03520047 0.09618453 -0.012529299 0.16376728 0.19973505 0.14778294
-0.17599931 0.24597254 -0.049549572 0.024694603 0.051633514 0.19259049 0.0008977975 0.06392755
-0.03941352 0.02060901 0.1934452 -0.00029031374 0.074992545 -0.027652422 -0.004752388 0.050477788
-0.029438125 -0.02333685 0.122868955 0.037308726 -0.041912023 0.11349498 -0.10058611 0.07387653
-0.14936242 -0.06647376 0.16108112 -0.1676421 0.047051657 -0.008266952 0.076687545 0.21857303
-0.008514213 0.152392 0.010709664 -0.034285415 0.11432612 0.23920712 0.06601151 -0.12877321
-0.02842282 -0.052993115 0.16174045 0.11871509 0.046297453 -0.09391254 -0.10660537 0.07316946
0.00078653754 -0.033755388 0.04233782 0.075232126 -0.04638571 0.21123475 -0.02688503 0.042766504
0.028401019 0.08302952 -0.17981122 0.0726545 0.10138455 0.013942484 0.07676174 -0.14006937
-0.12394726 -0.003484792 -0.044346485 -0.0063887876 -0.019907642 -0.15552872 0.0045871143 -0.07616199
-0.012360934 -0.03535124 0.03437439 0.08463867 0.04806112 0.205023 -0.026183326 0.051522367
0.10057095 0.07344266 0.07077699 -0.011565377 0.0711803 -0.02475887 0.0008722209 0.076188885
-0.009332939 -0.11458514 0.017029915 0.27374044 0.15697283 0.094334126 -0.056346077 0.11439526
-0.08596712 -0.07901186 0.05346596 -0.016272198 0.17460248 0.06147403 -0.081260726 0.043547392
-0.0034400106 -0.14298889 -0.013546788 0.059226982 -0.027859159 0.04707267 0.11373824 -0.00919033
-0.02954642 -0.093539216 0.08397007 -0.02650012 0.03215991 -0.004563862 -0.06631867 0.08090965
-0.036591437 0.043485355 -0.03683921 0.08321786 0.17782807 0.026727341 -0.05470097 0.10599962
-0.11465961 0.023724569 -0.10867361 0.0076715387 -0.00039861607 0.043975174 -0.037404004 -0.032210685
0.03738707 0.18542475 -0.05554929 -0.018109174 -0.040862933 0.048042092 -0.08494811 -0.04916131
0.18929803 -0.008845531 -0.04614837 -0.03464501 0.095095925 -0.014836331 -0.06491462 -0.04972303
0.116344884 0.11934982 -0.0027835818 0.07873586 -0.028144756 0.04921331 -0.055806566 0.20331103
-0.085795626 -0.0025649094 -0.052405365 0.13883184 0.03035717 0.052691735 0.012270826 0.016741915
0.04492058 -0.103498906 -0.063177586 -0.092292316 -0.081991695 -0.09592571 -0.09894905 0.00601723
0.09230844 -0.10093083 0.34929478 -0.021506358 0.08548845 0.2127407 0.0373936 -0.12694882
0.051455833 0.07930272 0.029231165 -0.018125199 -0.09116166 -0.1489127 -0.029597132 0.11467093
-0.027874747 0.14465393 0.1462396 0.18708214 -0.03784303 -0.07008713 -0.019586239 0.07110353
0.03169955 0.043860685 0.10045488 0.057680923 0.06645968 0.08336009 -0.02654119 -0.010257199
00000000: e24d d73d 0462 1e3e 235c 643d 7f87 39bc
00000010: 08f0 9bbc 799a afbd 9f56 913d e6df 5abd
00000020: d397 123d b1fc 4b3b 2063 2d3d 93b6 86bd
00000030: 58a5 b23d da54 fe3d 1e0c fc3d 794c 03bd
00000040: 082c 103e 1e1e 9dbd c13f d6bd 715b 99bd
00000050: 8b9d d63d 5a13 d8bd 3bea 073f b4e6 f23d
00000060: 5845 e8bd 0abb d23d 5009 d9bd 37d4 70bd
00000070: 4d85 193e 806e 303e 333a e03d bd02 813d
00000080: 1f0b 8e3b b45a fa3d 6427 edbd 222a 18bd
00000090: df64 073c 5f22 8bbc 47bb 96bd c2f7 a23d
000000a0: 27ef 383d ffef 64bc 5e2e 10bd 65fc c43d
000000b0: b047 4dbc 9cb2 273e 5887 4c3e 6954 173e
000000c0: 2a39 34be 3ae0 7b3e 7ef4 4abd 564c ca3c
000000d0: aa7d 533d 7136 453e 2c5a 6b3a 73ec 823d
000000e0: 1270 21bd 3ad4 a83c 8016 463e 4035 98b9
000000f0: b195 993d 5587 e2bc ecb9 9bbb ccc1 4e3d
00000100: 3928 f1bc ec2c bfbc b8a2 fb3d 09d1 183d
00000110: f1ab 2bbd 0e70 e83d 1700 cebd 944c 973d
00000120: 76f2 18be 6523 88bd 73f2 243e 5faa 2bbe
00000130: 3db9 403d 1c72 07bc 5c0e 9d3d 9cd1 5f3e
00000140: 337f 0bbc a60c 1c3e 9677 2f3c dd6e 0cbd
00000150: d023 ea3d b6f2 743e 0b31 873d 20dd 03be
00000160: f9d6 e8bc 4f0f 59bd 4a9f 253e e620 f33d
00000170: 66a2 3d3d 3855 c0bd eb53 dabd dfd9 953d
00000180: a42f 4e3a 1743 0abd 6c6a 2d3d 4d13 9a3d
00000190: f1fe 3dbd ec4d 583e ff3d dcbc ee2b 2f3d
000001a0: 41a9 e83c 620b aa3d 6f20 38be e2cb 943d
000001b0: b4a2 cf3d 046f 643c 4235 9d3d 586e 0fbe
000001c0: 10d8 fdbd 1c61 64bb a9a4 35bd 0959 d1bb
000001d0: 5a15 a3bc ec42 1fbe 814f 963b d1fa 9bbd
000001e0: 8485 4abc 76cc 10bd 29cc 0c3d 0a57 ad3d
000001f0: bddb 443d 8df1 513e 6a7e d6bc 1e09 533d
00000200: 24f8 cd3d 1b69 963d 87f3 903d b57c 3dbc
00000210: fac6 913d 1dd3 cabc c1a5 643a eb08 9c3d
00000220: 2fe9 18bc 9dab eabd 5282 8b3c b527 8c3e
00000230: 7cbd 203e 4032 c13d 25cb 66bd 1048 ea3d
00000240: 880f b0bd f8d0 a1bd 1fff 5a3d 464d 85bc
00000250: feca 323e 31cc 7b3d 066c a6bd c05e 323d
00000260: cd71 61bb ae6b 12be 59f3 5dbc fe97 723d
00000270: e438 e4bc 46cf 403d 98ef e83d 0a93 16bc
00000280: 550b f2bc 7d91 bfbd 80f8 ab3d c816 d9bc
00000290: 1cba 033d 738c 95bb 15d2 87bd f5b3 a53d
000002a0: e7e0 15bd b31d 323d b6e4 16bd 206e aa3d
000002b0: 9018 363e 4cf3 da3c 200e 60bd 5416 d93d
000002c0: a8d2 eabd 075a c23c 4590 debd 8861 fb3b
000002d0: 58fd d0b9 501f 343d f134 19bd 5aef 03bd
000002e0: 2f23 193d fcdf 3d3e a787 63bd b159 94bc
000002f0: e45f 27bd c9c7 443d 46f9 adbd 5f5d 49bd
00000300: 58d7 413e d9ec 10bc 1306 3dbd ede7 0dbd
00000310: a7c1 c23d 1514 73bc f5f1 84bd 60aa 4bbd
00000320: 3a46 ee3d ae6d f43d c16c 36bb 4440 a13d
00000330: d58f e6bc e593 493d 6d95 64bd c430 503e
00000340: 9eb5 afbd 0a18 28bb 02a7 56bd ef29 0e3e
00000350: 9aaf f83c 4ad3 573d 930b 493c 5726 893c
00000360: a4fe 373d 3cf7 d3bd 4063 81bd c103 bdbd
00000370: 43eb a7bd b374 c4bd cda5 cabd 2f2c c53b
00000380: 350c bd3d d3b4 cebd c4d6 b23e 1a2e b0bc
00000390: 9214 af3d b3d8 593e 082a 193d dffe 01be
000003a0: 5ac3 523d 7769 a23d 3276 ef3c 4c7b 94bc
000003b0: f7b2 babd 927c 18be af75 f2bc 98d8 ea3d
000003c0: 9559 e4bc 2920 143e d5bf 153e 7692 3f3e
000003d0: 4b01 1bbd d789 8fbd 5273 a0bc ba9e 913d
000003e0: 63d7 013d 43a7 333d 4abb cd3d d542 6c3d
000003f0: 031c 883d b2b8 aa3d e96c d9bc d00d 28bc

critic.0.bias f4 [256]
-0.009518387 0.019358974 0.02608769 -0.0069247927 0.026504105 -0.034293503 0.0655875 -0.04938038
-0.06481234 -0.02613167 -0.022526 0.009994695 0.055499837 0.037204113 0.024649955 0.017513664
0.012089504 -0.010102833 -0.032318547 0.053855833 0.0002926522 0.05887512 0.011921725 -0.028737023
-0.034175593 -0.030726384 0.025542872 0.022773985 0.073135346 -0.074979596 -0.055292357 -0.02436753
-0.0450686 0.020011213 -0.05586477 -0.027400523 -0.014860937 -0.035418894 0.0053808377 -0.05240139
-0.03552543 -0.04420446 0.015463038 -0.052201547 0.033480298 0.04630256 -0.041935768 -0.014898156
-0.063812345 0.016995847 -0.045752574 -0.047944717 0.04574481 -0.019515743 0.05300639 -0.052689172
-0.038629655 -0.04163092 -0.01084093 -0.04878306 0.015024454 0.07046984 0.061295416 0.048842244
0.009414523 -0.016366241 -0.06151039 -0.01336088 -0.040049806 0.00019733464 0.013654279 -0.010542094
0.011877545 -0.0061266683 -0.0012597251 0.0061773728 -0.037392974 0.04640167 -0.014908339 -0.047916323
0.037746664 0.040944602 -0.050629772 0.0484102 0.01268298 -0.0053998544 0.055369083 -0.020110132
0.0024370116 -0.045732487 0.0033137978 0.018376945 -0.038503103 0.028594734 0.01646971 -0.008065091
0.050298277 -0.019799571 0.042277604 0.011940213 -0.0043905783 -0.07281881 -0.043103456 0.04982233
0.0074346806 -0.02747764 0.02505066 -0.015827175 -0.0012692675 0.045029044 0.014798213 0.044261713
-0.041579675 -4.489698e-05 -0.02245984 -0.042717267 0.018792534 -0.0053457725 -0.012572684 -0.04278042
0.020607166 -0.033700492 -0.017972367 0.02515926 -0.05954512 -0.018139701 0.0036629161 0.031835854
0.0004218909 0.0019735391 -0.05343261 0.041845776 0.051111728 -0.01624615 0.0085931895 0.0017119087
0.021670083 -0.04725101 0.032458324 0.004143182 -0.07021438 -0.025880732 -0.059457127 -0.019065363
-0.018879494 0.06829936 -0.029789442 -0.06026204 -0.05547705 0.0055381972 -0.061526947 0.014044978
-0.016192565 0.074224435 0.006012309 0.037550963 -0.050790638 -0.05795763 0.004546824 -3.2865963e-05
-0.050580326 0.0171859 -0.0022075938 -0.057153825 -0.028514737 -0.045607723 0.024051122 -0.058361642
0.07195848 -0.0010685092 0.045192372 0.013932549 0.04994784 -0.024771148 -0.01697757 -0.056338955
0.002376502 -0.056765657 -0.043533143 0.060501784 -0.03688882 0.021001535 -0.036114603 -0.05228329
-0.045368977 0.016736373 -0.052328214 -0.055728838 -0.060838368 -0.013519033 -0.03787693 -0.04516497
-0.0015064252 -0.032540403 0.06036943 -0.011805008 0.01928918 0.027404225 -0.022354629 -0.033310626
-0.014450268 0.026661318 0.05182036 -0.0388122 -0.047409642 0.019811278 -0.014581692 0.033787485
-0.023324488 -0.03559394 0.021560863 0.04819422 0.007035703 0.032006897 -0.0007783258 0.044444244
0.0047032745 0.0030459017 0.03478992 -0.007257964 0.06173018 -0.014018992 -0.029252589 0.01864133
-0.008778732 -0.05438684 -0.03706773 -0.03469135 -0.016471699 -0.041684825 -0.04936428 -0.042462215
0.0018309607 0.0016863104 -0.022627378 -0.0017885466 0.03910779 0.039542172 -0.013107223 -0.011869459
0.029479733 0.06641506 -0.043312524 -0.02237516 -0.003368146 0.038834736 -0.06829637 0.00033083028
-0.047516298 -0.037487138 -0.04438715 0.021091223 0.0037789338 -0.04573977 -0.00021948329 0.0460186
00000000: 02f3 1bbc b696 9e3c dab5 d53c 5fe9 e2bb
00000010: 231f d93c 5877 0cbd bd52 863d 1543 4abd
00000020: 55bc 84bd 1612 d6bc 7288 b8bc cac0 233c
00000030: cc53 633d 5763 183d b4ee c93c d178 8f3c
00000040: 0e13 463c 5a86 25bc 7460 04bd ef97 5c3d
00000050: 1d6f 9939 0a27 713d 5753 433c e869 ebbc
00000060: b5fb 0bbd e6b5 fbbc 493f d13c 8290 ba3c
00000070: fcc7 953d e78e 99bd 3d7a 62bd 6a9e c7bc
00000080: da99 38bd 8eee a33c 75d2 64bd 1077 e0bc
00000090: 4a7b 73bc 6713 11bd bd51 b03b d7a2 56bd
000000a0: 1d83 11bd bc0f 35bd af58 7d3c 4ad1 55bd
000000b0: a322 093d c1a7 3d3d d7c4 2bbd 6517 74bc
000000c0: 0cb0 82bd e03a 8b3c 0d67 3bbd ae61 44bd
000000d0: e95e 3b3d 7bdf 9fbc 3a1d 593d 9ad0 57bd
000000e0: 213a 1ebd 2f85 2abd 289e 31bc bfd0 47bd
000000f0: 2129 763c 7e52 903d e710 7b3d ce0e 483d
00000100: 5f3f 1a3c 7f12 86bc 52f2 7bbd 98e7 5abc
00000110: 440b 24bd 9deb 4e39 32b6 5f3c bfb8 2cbc
00000120: 099a 423c 38c2 c8bb 5c1d a5ba 8f6b ca3b
00000130: 6029 19bd ad0f 3e3d 1b42 74bc e843 44bd
00000140: 3f9c 1a3d 87b5 273d 2a61 4fbd c649 463d
00000150: 46cc 4f3c 43f1 b0bb b1ca 623d 01be a4bc
00000160: 45b6 1f3b fd51 3bbd 4d2c 593b 3f8b 963c
00000170: 6eb5 1dbd 813f ea3c 7ceb 863c 7223 04bc
00000180: 9105 4e3d b632 a2bc 482b 2d3d e2a0 433c
00000190: d7de 8fbb 0722 95bd 408d 30bd 8012 4c3d
000001a0: 9f9e f33b ca18 e1bc 0b37 cd3c fea7 81bc
000001b0: 8d5d a6ba 6070 383d 3474 723c c54b 353d
000001c0: 734f 2abd c44f 3cb8 b3fd b7bc 4df8 2ebd
000001d0: cdf2 993c 972b afbb a9fd 4dbc 863a 2fbd
000001e0: 5cd0 a83c 8709 0abd c93a 93bc cb1a ce3c
000001f0: 95e5 73bd b699 94bc 890d 703b 5066 023d
00000200: 3d31 dd39 7e56 013b 27dc 5abd 7a66 2b3d
00000210: 885a 513d a516 85bc 73ca 0c3c 2062 e03a
00000220: 7585 b13c 468a 41bd 05f3 043d 88c3 873b
00000230: 8fcc 8fbd d403 d4bc 5189 73bd f72e 9cbc
00000240: 2ba9 9abc 89e0 8b3d fd08 f4bc 54d5 76bd
00000250: e73b 63bd c479 b53b ae03 7cbd e81c 663c
00000260: 45a6 84bc fb02 983d e702 c53b 0acf 193d
00000270: d809 50bd fb64 6dbd 86fd 943b 8fd9 09b8
00000280: 512d 4fbd 72c9 8c3c 47ad 10bb 211a 6abd
00000290: bd97 e9bc 2acf 3abd dc06 c53c 9e0c 6fbd
000002a0: f85e 933d 380d 8cba a31b 393d 5945 643c
000002b0: 1b96 4c3d ddec cabc 8b14 8bbc adc3 66bd
000002c0: 16bf 1b3b 1b83 68bd cf4f 32bd b8d0 773d
000002d0: bb18 17bd 690b ac3c e8ec 13bd 0127 56bd
000002e0: d2d4 39bd b81a 893c 1c56 56bd ec43 64bd
000002f0: a731 79bd ef7e 5dbc d724 1bbd e7fe 38bd
00000300: 3e73 c5ba 1649 05bd ef45 773d cb69 41bc
00000310: 5804 9e3c d37e e03c 0e21 b7bc b970 08bd
00000320: d1c0 6cbc d668 da3c 9641 543d 8bf9 1ebd
00000330: 9d30 42bd 434b a23c 0de8 6ebc bf64 0a3d
00000340: ff12 bfbc f4ca 11bd 68a0 b03c 4d67 453d
00000350: c18b e63b aa19 033d 8f08 4cba 2b0b 363d
00000360: ed1d 9a3b c09d 473b e07f 0e3d 37d4 edbb
00000370: c9d8 7c3d eaaf 65bc 20a3 efbc b4b5 983c
00000380: acd4 0fbc bcc4 5ebd 55d4 17bd 8418 0ebd
00000390: a8ef 86bc b5bd 2abd 3332 4abd dcec 2dbd
000003a0: d9fc ef3a 3007 dd3a 0d5d b9bc aa6d eaba
000003b0: 7d2f 203d f9f6 213d aebf 56bc 1f78 42bc
000003c0: 7b7f f13c 9e04 883d 7968 31bd 1d4c b7bc
000003d0: 1dbc 5cbb 2c11 1f3d f8de 8bbd 4a73 ad39
000003e0: 73a0 42bd 1d8c 19bd 4dcf 35bd 80c7 ac3c
000003f0: fda7 773b a059 3bbd 1925 66b9 007e 3c3d
