rlgpu/logs/cut_small_delta/model_60.pt (torch, 868293 bytes, 16 tensors)

log_std f4 [3]
-0.058414306 -0.029370788 -0.019746283
00000000: d743 6fbd 029b f0bc f5c2 a1bc

actor.0.weight f4 [256, 259]
0.03497265 0.04559797 0.05746347 -0.026388286 -0.067676604 0.06959146 0.05401453 -0.07516963
0.030905848 0.03235621 0.018693084 -0.087691925 0.07003572 -0.0993366 -0.02383633 -0.0884059
-0.03000664 -0.034061257 -0.15597667 0.033374988 0.0606014 -0.08213541 -0.09680156 0.016583491
0.10504909 0.0006961407 0.06850117 -0.013655452 -0.0066099204 -0.051453277 0.009043035 -0.08751848
0.0272308 0.10658446 0.08735263 -0.03860097 0.05305497 -0.012218409 -0.05635203 0.008458238
-0.01425882 -0.02725535 0.1721039 0.15205364 -0.104968496 0.15282276 0.07727397 -0.078700945
0.018400656 -0.076985225 -0.035978958 -0.14033031 -0.041157916 0.09662805 -0.064157516 0.056664646
0.21682996 0.08781809 0.0107291285 -0.15719904 0.0166922 -0.043942146 -0.0059910626 0.011191377
-0.050337635 0.031327095 -0.09840108 0.077010676 -0.026203422 -0.039389346 -0.078629695 0.07176348
-0.0842452 -0.024234632 -0.025847787 -0.043693535 -0.25696245 -0.0131904865 0.034672026 -0.018403096
0.03907665 0.12920663 -0.10102901 0.0076276595 -0.054326475 0.13500695 -0.06882446 -0.1306755
-0.092731506 -0.109593675 0.069239154 0.06030361 0.009034816 0.034289133 0.16969013 0.122221954
-0.03156782 -0.07131114 -0.020106804 0.08651132 0.066041715 -0.09285531 -0.014343053 -0.010593754
0.10643335 -0.050040677 -0.050181337 0.10266716 -0.007088812 0.20450318 -0.032475986 0.11752068
0.02324478 -0.04796069 -0.11463512 -0.104644954 -0.05691126 0.101031855 -0.07961225 -0.01502604
-0.073153 0.15434498 -0.100146316 0.0073559023 0.04683039 0.11009792 0.016381403 -0.04757523
0.056905977 0.108338505 0.06878166 0.06456097 -0.07083545 -0.05915387 -0.06769499 0.18754134
-0.06469271 -0.09399564 0.07116556 -0.100043796 0.035687424 -0.18782151 -0.016495401 -0.014731391
-0.09373756 0.008899305 0.13251567 -0.0057149073 -0.076547466 -0.08213272 -0.13275573 0.08451604
-0.16251732 0.018085934 -0.018703056 0.12255975 0.1560739 0.06251783 -0.05041649 0.12586299
0.119306415 0.044356342 -0.12507883 -0.08308036 -0.004680229 0.04605752 -0.058542117 -0.028366264
-0.1910734 -0.063311994 0.06518032 -0.15807262 0.061918765 0.104672305 0.06449049 -0.043368965
0.12145944 -0.07247794 -0.087751694 -0.015321338 0.13544044 0.036186058 -0.085772984 0.024408817
-0.20027973 -0.022555484 0.043361317 -0.043258633 -0.11440789 -0.07682137 -0.15794598 -0.057204187
-0.025181986 -0.043260746 0.16449587 0.047328424 0.11920268 -0.022281924 -0.025074996 0.15326458
-0.036394157 -0.22820875 0.016463494 0.095154665 0.088967346 -0.03880894 0.09066423 -0.0223011
-0.09608251 -0.1923381 -0.05371701 0.049353804 -0.05328563 -0.08385597 -0.020955402 0.20586295
0.07297058 0.0429941 -0.06554169 0.081400156 0.06648957 -0.0096705835 -0.0031302522 -0.0072017065
-0.12628692 0.06385416 -0.042841073 -0.113388225 0.09477236 0.05028663 0.0737571 0.026611516
0.09712715 0.07367619 -0.0957856 0.022989232 -0.11464337 -0.1635518 0.03173134 -0.06499648
-0.025292858 -0.15600112 0.13557622 -0.012830904 0.10917435 0.078414984 0.0081047 0.018514803
0.15405028 -0.032615338 0.10195282 -0.013389323 -0.091679424 0.08528979 -0.01667867 0.03977119
00000000: 7b3f 0f3d f0c4 3a3d d15e 6b3d 3f2c d8bc
00000010: 089a 8abd f885 8e3d 573e 5d3d 89f2 99bd
00000020: 432e fd3c f287 043d 3d22 993c d397 b3bd
00000030: e36e 8f3d fd70 cbbd 6844 c3bc 270e b5bd
00000040: 7cd0 f5bc d183 0bbd 59b8 1fbe 36b4 083d
00000050: 2c39 783d 9c36 a8bd e53f c6bd 1ada 873c
00000060: fa23 d73d 367d 363a 574a 8c3d 1ebb 5fbc
00000070: 0898 d8bb acc0 52bd 3d29 143c e43c b3bd
00000080: 2013 df3c f448 da3d f0e5 b23d 0d1c 1ebd
00000090: 2b50 593d b92f 48bc 63d1 66bd 6c94 0a3c
000000a0: d39d 69bc 9d46 dfbc 013c 303e f3b3 1b3e
000000b0: b9f9 d6bd 927d 1c3e d141 9e3d f62d a1bd
000000c0: f9bc 963c 6eaa 9dbd ac5e 13bd c0b2 0fbe
000000d0: 3495 28bd ede4 c53d 0465 83bd 3019 683d
000000e0: ac08 5e3e f9d9 b33d 3ac9 2f3c c9f8 20be
000000f0: 15be 883c aefc 33bd ad50 c4bb 0a5c 373c
00000100: d62e 4ebd d750 003d 8186 c9bd c6b7 9d3d
00000110: 8fa8 d6bc b956 21bd 9b08 a1bd bbf8 923d
00000120: bf88 acbd b587 c6bc bdbe d3bc fef7 32bd
00000130: 9590 83be e91c 58bc 4104 0e3d 17c2 96bc
00000140: d60e 203d be4e 043e 4ce8 cebd 72f1 f93b
00000150: 7085 5ebd 433f 0a3e d7f3 8cbd cccf 05be
00000160: 04ea bdbd a672 e0bd 42cd 8d3d eb00 773d
00000170: c406 143c c372 0c3d 40c3 2d3e 814f fa3d
00000180: 424d 01bd 930b 92bd 06b7 a4bc d92c b13d
00000190: e140 873d ed2a bebd 20ff 6abc 6d91 2dbc
000001a0: baf9 d93d 74f7 4cbd f28a 4dbd 2943 d23d
000001b0: 4449 e8bb 4869 513e 8a05 05bd afae f03d
000001c0: d66b be3c 6e72 44bd d1c5 eabd 1850 d6bd
000001d0: c81b 69bd cae9 ce3d bf0b a3bd c82f 76bc
000001e0: 3dd1 95bd 9c0c 1e3e 8319 cdbd c809 f13b
000001f0: 39d1 3f3d 057b e13d 4b32 863c 3fde 42bd
00000200: 3e16 693d 94e0 dd3d 66dd 8c3d 8b38 843d
00000210: 2d12 91bd 544b 72bd aca3 8abd d60a 403e
00000220: 9d7d 84bd c980 c0bd 40bf 913d c3e3 ccbd
00000230: fa2c 123d 4854 40be 5d21 87bc ef5b 71bc
00000240: 7af9 bfbd 64ce 113c 30b2 073e 1e44 bbbb
00000250: ebc4 9cbd 3335 a8bd 1ef1 07be bf16 ad3d
00000260: f16a 26be f428 943c 2737 99bc 9b00 fb3d
00000270: d6d1 1f3e 5909 803d 8581 4ebd 3ae2 003e
00000280: ec56 f43d ffae 353d aa14 00be 0926 aabd
00000290: 9b5c 99bb cfa6 3c3d dcc9 6fbd 5e60 e8bc
000002a0: bfa8 43be b8a9 81bd 427d 853d cadd 21be
000002b0: 889e 7d3d 6f5e d63d 9713 843d a8a3 31bd
000002c0: babf f83d 506f 94bd 29b7 b3bd 5906 7bbc
000002d0: e6b0 0a3e d537 143d bfa9 afbd 00f5 c73c
000002e0: 2116 4dbe 47c6 b8bc a39b 313d f72f 31bd
000002f0: af4e eabd 8654 9dbd 97bc 21be f04e 6abd
00000300: 744a cebc 2e32 31bd 9b71 283e 73db 413d
00000310: 8920 f43d 9588 b6bc 146a cdbc 64f1 1c3e
00000320: 0a12 15bd 8eaf 69be 73de 863c 73e0 c23d
00000330: 8334 b63d 20f6 1ebd 2bae b93d ccb0 b6bc
00000340: e8c6 c4bd 47f4 44be 5e06 5cbd 3727 4a3d
00000350: 0842 5abd aebc abbd aaaa abbc bdcd 523e
00000360: 9971 953d 951a 303d b93a 86bd 20b5 a63d
00000370: af2b 883d 5e71 1ebc eb24 4dbb 4bfc ebbb
00000380: 5c51 01be f8c5 823d 1f7a 2fbd 1638 e8bd
00000390: 0318 c23d 5af9 4d3d f60d 973d 6500 da3c
000003a0: 99ea c63d 8be3 963d 3e2b c4bd ea53 bc3c
000003b0: 25ca eabd 207a 27be b9f8 013d e01c 85bd
000003c0: f832 cfbc c2be 1fbe 7ed4 0a3e b638 52bc
000003d0: cd96 df3d 0998 a03d 93c9 043c 5bac 973c
000003e0: 5bbf 1d3e a997 05bd a4cc d03d e45e 5bbc
000003f0: 6cc2 bbbd 6aac ae3d b5a1 88bc 1ee7 223d

actor.0.bias f4 [256]
-0.024834428 -0.050308973 -0.021383844 -0.022315651 -0.011079379 0.013252612 0.046587158 0.038504303
-0.0029906 0.04673135 0.046167634 0.022597939 0.06565457 0.016893053 -0.019904543 0.017566025
0.014340134 0.01164155 0.023423802 -0.041707486 0.025751773 0.0033639632 0.050753504 -0.045350637
0.01579339 -0.05694748 -0.022281798 0.03871218 -0.059625596 -0.037996914 0.03231452 -0.033290315
0.02171274 0.052142996 0.02844527 -0.030664526 -0.058611766 0.044159003 0.06285583 -0.02282402
0.057493776 -0.0085747745 0.056315653 0.04758768 -0.0514234 0.060916603 -0.026639702 0.056416236
0.047044132 -0.032713752 -0.04179829 0.063819274 0.0075664273 0.034101993 -0.04406249 -0.035941888
-0.005999573 -0.0020901053 -0.012368793 0.023650602 0.021335721 -0.04798843 -0.05496431 0.06019732
-0.05925662 -0.054827448 -0.013015783 0.013551452 0.038815897 -0.016390862 -0.015469768 -0.015011136
0.034909137 -0.019770745 0.02397148 -0.047283355 -0.01148153 0.026388662 -0.03600877 -0.03398737
0.027619237 -0.049539536 -0.0603099 0.0551043 0.032595705 -0.056426622 -0.050776917 -0.048784886
0.036126878 -0.042241924 -0.05220387 0.048200138 -0.021146476 0.0030975637 -0.045027874 0.0239025
0.038576804 0.051714126 -0.034639467 0.015609492 -0.0054695755 -0.0092189815 -0.06039555 -0.04698116
0.002108088 -0.038794298 0.02878053 -0.00035505267 0.0067091957 0.0028366032 -0.0092842085 0.021444997
0.03565445 -0.049857393 0.010961383 0.03166956 -0.018552544 -0.027331872 -0.02217209 -0.057488237
-0.022781696 -0.011150727 -0.010373591 -0.045401257 0.022434274 0.058326755 -0.04541374 -0.031306215
-0.0013018661 -0.027285611 0.04294087 0.010637307 -0.048608296 0.002269509 -0.01050519 -0.038663752
-0.037855726 -0.05141396 -0.035278846 -0.0062945676 -0.061357316 0.030346537 0.0375684 0.037703905
0.06350413 0.011618575 0.034887478 0.015592956 0.007944081 0.019636868 0.048724152 0.035872735
-0.008299941 0.058398675 0.061757196 0.051096845 -0.041216325 0.036506236 0.0028902553 -0.045640577
-0.05580131 0.01745552 0.027907072 0.0200481 -0.026172422 -0.06168793 0.067080356 0.001688851
0.032986823 -0.009486473 -0.05630903 0.038682926 0.025335947 0.04361492 -0.042313967 0.0031308401
0.034406643 0.057430957 0.026765494 0.056337994 -0.050599206 -0.052364822 -0.039944123 0.052414026
0.02287922 -0.0069970028 0.037856404 -0.023879947 -0.060241275 -0.008863616 -0.007036547 -0.030408738
-0.02644981 -0.055258468 -0.050688278 -0.023825606 0.040779505 0.051221896 0.025206402 0.057394568
-0.051903717 0.018447382 0.051273298 -0.0065398854 -0.049626898 0.01796755 -0.02389193 -0.017497418
0.040301688 -0.016848322 -0.028910695 -0.0065243803 0.036622085 -0.028049368 0.06062672 0.021118289
0.017878829 0.0027258152 -0.006326483 -0.026371595 -0.036699455 -0.05530125 -0.019704433 0.016336508
0.048291206 0.039963692 -0.01348281 0.033071626 0.057965424 0.06179749 -0.05622755 -0.038329184
0.018793607 -0.024396973 -0.003638445 -0.054184552 -0.047895856 0.009256396 -0.050748594 -0.0580878
-0.010111696 0.026450086 -0.037030686 -0.011719308 -0.058236323 0.042637385 0.043352816 -0.030851364
0.022196868 8.7475215e-05 0.038010012 0.04774688 0.05232854 0.038329307 0.012723125 0.045893494
00000000: 9271 cbbc c810 4ebd 2c2d afbc 50cf b6bc
00000010: 4986 35bc 7c21 593c 2dd2 3e3d b0b6 1d3d
00000020: f1fd 43bb 5f69 3f3d 461a 3d3d 501f b93c
00000030: e775 863d 4d63 8a3c da0e a3bc a0e6 8f3c
00000040: e2f2 6a3c 33bc 3e3c 46e3 bf3c 78d5 2abd
00000050: 62f5 d23c f075 5c3b e8e2 4f3d 97c1 39bd
00000060: 2461 813c c341 69bd 5188 b6bc aa90 1e3d
00000070: f839 74bd a7a2 1bbd 3b5c 043d 6d5b 08bd
00000080: ebde b13c e593 553d 0e06 e93c 2c34 fbbc
00000090: e412 70bd 12e0 343d 8fba 803d 70f9 babc
000000a0: 987e 6b3d 367d 0cbc 3eab 663d 4deb 423d
000000b0: 58a1 52bd b083 793d 813b dabc b614 673d
000000c0: 59b1 403d dbfe 05bd af34 2bbd aeb3 823d
000000d0: cbef f73b 88ae 0b3d df7a 34bd cd37 13bd
000000e0: 1198 c4bb 26fa 08bb 7aa6 4abc e8be c13c
000000f0: 40c8 ae3c 848f 44bd 4222 61bd 7791 763d
00000100: 12b7 72bd bf92 60bd 2740 55bc e906 5e3c
00000110: 6bfd 1e3d 2146 86bc e974 7dbc 45f1 75bc
00000120: e2fc 0e3d 42f6 a1bc d65f c43c 31ac 41bd
00000130: 071d 3cbc 092d d83c ef7d 13bd 5736 0bbd
00000140: bd41 e23c f8e9 4abd 8407 77bd 0cb5 613d
00000150: 1383 053d 9a1f 67bd 75fb 4fbd a9d2 47bd
00000160: c7f9 133d de05 2dbd bad3 55bd 826d 453d
00000170: 603b adbc 7f00 4b3b 266f 38bd 2dcf c33c
00000180: b602 1e3d 31d2 533d 1de2 0dbd f4be 7f3c
00000190: 203a b3bb 360b 17bc 5361 77bd 516f 40bd
000001a0: d927 0a3b c5e6 1ebd 25c5 eb3c 5d26 bab9
000001b0: d0d8 db3b 4ee6 393b cb1c 18bc 6bad af3c
000001c0: 670a 123d 4437 4cbd 5f97 333c f1b7 013d
000001d0: 81fb 97bc 17e7 dfbc 3ea2 b5bc c978 6bbd
000001e0: aea0 babc 8ab1 36bc fff5 29bc abf6 39bd
000001f0: 15c8 b73c 09e8 6e3d c203 3abd f23a 00bd
00000200: 61a3 aaba 1386 dfbc c4e2 2f3d 1948 2e3c
00000210: 7e19 47bd 0bbc 143b f61d 2cbc e25d 1ebd
00000220: 9b0e 1bbd 7297 52bd 8d80 10bd a942 cebb
00000230: cf51 7bbd 4d99 f83c 53e1 193d 696f 1a3d
00000240: 740e 823d d65b 3e3c 2ce6 0e3d 9979 7f3c
00000250: e427 023c 7fdd a03c fa92 473d 4aef 123d
00000260: 7afc 07bc 7333 6f3d 1df5 7c3d ed4a 513d
00000270: 73d2 28bd 9087 153d 706a 3d3b 9df1 3abd
00000280: ea8f 64bd e1fe 8e3c 5f9d e43c ea3b a43c
00000290: 8c67 d6bc 7cac 7cbd 6d61 893d 705c dd3a
000002a0: 311d 073d 276d 1bbc 4ca4 66bd fd71 1e3d
000002b0: 558d cf3c 8fa5 323d 6951 2dbd c82e 4d3b
000002c0: fbed 0c3d b93c 6b3d 4f43 db3c abc2 663d
000002d0: 1d41 4fbd 7f7c 56bd 739c 23bd 17b0 563d
000002e0: 346d bb3c 1d47 e5bb 510f 1b3d e19f c3bc
000002f0: 8ebf 76bd b338 11bc d692 e6bb bf1b f9bc
00000300: 46ad d8bc b456 62bd 839e 4fbd eb2d c3bc
00000310: 6908 273d 0dce 513d a87d ce3c 9116 6b3d
00000320: fe98 54bd f71e 973c f303 523d 894c d6bb
00000330: 9345 4bbd af30 933c 02b9 c3bc bf56 8fbc
00000340: 6213 253d 7e05 8abc 1fd6 ecbc 78ca d5bb
00000350: 0a01 163d cac7 e5bc b953 783d 4300 ad3c
00000360: 9f76 923c 97a3 323b 634e cfbb 3e09 d8bc
00000370: 2b52 16bd 9083 62bd 316b a1bc 24d4 853c
00000380: 00cd 453d f8b0 233d 01e7 5cbc 1d76 073d
00000390: 276d 6d3d 5d1f 7d3d dc4e 66bd 10ff 1cbd
000003a0: 0df5 993c 29dc c7bc fa72 6ebb 9ff0 5dbd
000003b0: 722e 44bd 24a8 173c c2dd 4fbd 79ed 6dbd
000003c0: 87ab 25bc daad d83c 7dad 17bd 5702 40bc
000003d0: 3689 6ebd 8aa4 2e3d b992 313d 00bc fcbc
000003e0: 35d6 b53c e672 b738 63b0 1b3d 3c92 433d
000003f0: 7356 563d 31ff 1c3d a774 503c d1fa 3b3d

actor.2.weight f4 [128, 256]
-0.04018004 0.15604371 -0.15373738 0.014725864 -0.05969356 -0.13013202 0.027057422 0.10340006
0.020800203 0.15762815 -0.07735319 -0.08666728 -0.058832318 0.10481542 0.016339734 0.062399402
-0.16226636 -0.08265622 -0.11250179 0.1284085 0.25094 -0.011786233 -0.13047805 0.06804547
-0.17502989 -0.15204316 0.01467608 0.042336456 -0.07217207 0.01725781 -0.03128619 -0.026963897
0.027547324 0.0106233 0.08583903 0.020477077 -0.20650247 0.007463288 0.07637534 -0.04222376
0.087558016 0.12033275 -0.061066255 0.03303732 0.045983076 -0.08237406 0.036364123 0.025006386
0.023918364 -0.1819496 -0.013848399 0.08738536 -0.030789316 -0.10607291 0.035929132 -0.032723747
-0.15102556 0.038580768 0.013136023 -0.05648459 -0.025612626 0.15089877 0.09575978 -0.23013605
0.056647666 -0.10684366 0.02192096 -0.08182444 0.0032004379 -0.064014256 -0.08519831 -0.069122925
-0.08716536 -0.01465817 -0.022778217 0.11857715 -0.110648856 0.013045406 -0.03159164 0.06512608
0.03564746 0.0049408996 0.08586375 -0.1882064 0.06295099 -0.0151465135 -0.08964565 0.25132316
-0.020463543 -0.0857346 -0.0043268143 0.0059386655 0.056558073 0.029292142 -0.02124022 0.04868588
0.014952923 0.004305172 -0.04315178 0.023548229 -0.118874796 0.16250597 0.06951 0.14906159
0.048991956 -0.05019865 0.055687565 0.049247183 -0.08904485 0.018143982 0.07353379 0.020547122
-0.07365409 0.012140417 -0.09679493 -0.12994829 0.07664778 -0.0060188947 -0.09889427 -0.016056353
-0.021960929 0.17425892 0.041260283 -0.09499943 -0.0842349 0.086636186 0.052683476 0.10645012
0.058780685 0.021487242 0.037971262 0.070154704 -0.048762735 0.17133428 -0.064100295 0.01563741
-0.030406209 0.14286529 -0.124906175 -0.1696364 0.087415785 0.0031908145 0.0036770955 -0.16886553
-0.021275803 -0.09154434 0.06845568 0.03529855 0.033236165 0.07032529 0.062021993 0.04367413
-0.01900699 0.12745124 -0.00355284 0.016182046 0.03481072 -0.105037354 -0.025209857 -0.063127704
0.23891844 -0.16634351 0.013599031 -0.019695219 0.029321348 -0.19153042 0.01367166 -0.13719429
0.06436378 -0.030143732 0.021241454 0.053513326 -0.09925319 0.051369883 0.0027639617 0.0025810716
-0.07152788 0.17851879 0.110348344 0.016393412 -0.061132737 -0.088734314 -0.13956584 0.12245708
0.0035789919 0.07632281 -0.00037065247 0.10284549 -0.05365923 -0.004869533 0.035521038 0.13765985
0.046693984 0.063338555 0.042213455 -0.0007032376 0.01970253 -0.028664399 0.09353232 -0.0059295096
0.07665103 0.016297264 -0.12689513 -0.04489923 0.0020327738 -0.07849994 0.0031939165 0.085798435
0.08999075 -0.07410646 0.005511301 -0.15245485 0.05140259 -0.11900177 0.056107376 -0.13620572
0.0135275135 -0.13770434 0.09159278 -0.081259295 0.051286943 -0.053757172 0.019435897 0.07931005
0.08005584 -0.093310304 0.09240358 -0.05634329 0.075198784 -0.08534969 0.16285181 -0.12920316
0.0118619 0.008475182 -0.09345877 0.003992576 -0.09911717 0.045663897 -0.041888475 -0.04705321
0.0861409 -0.010232901 0.011394636 -0.16739962 0.036139686 0.20648932 -0.10573769 -0.13290983
0.13167785 0.01571293 -0.001859921 -0.11281828 -0.11578094 -0.038424034 0.11438913 -0.05957661
00000000: d393 24bd ecc9 1f3e 556d 1dbe c044 713c
00000010: 3c81 74bd 5441 05be 87a7 dd3c 69c3 d33d
00000020: 3065 aa3c 4669 213e 596b 9ebd 9d7e b1bd
00000030: 28fa 70bd 78a9 d63d e8da 853c 8496 7f3d
00000040: 2729 26be aa47 a9bd 5767 e6bd 857d 033e
00000050: 357b 803e 0b1b 41bc 0a9c 05be 6c5b 8b3d
00000060: 093b 33be 34b1 1bbe f173 703c fe68 2d3d
00000070: f3ce 93bd 4060 8d3c f325 00bd 64e3 dcbc
00000080: edaa e13c 5a0d 2e3c 60cc af3d 8bbf a73c
00000090: 6275 53be 998e f43b ad6a 9c3d d2f2 2cbd
000000a0: 9e51 b33d 0471 f63d 9c20 7abd 2452 073d
000000b0: c058 3c3d bbb3 a8bd 8cf2 143d 31da cc3c
000000c0: 72f0 c33c ff50 3abe 65e4 62bc 18f7 b23d
000000d0: e039 fcbc c13c d9bd 6d2a 133d 5609 06bd
000000e0: 72a6 1abe de06 1e3d 7938 573c 635c 67bd
000000f0: 92d1 d1bc 3585 1a3e b41d c43d c9a8 6bbe
00000100: 6207 683d d9d0 dabd 9693 b33c 9293 a7bd
00000110: 70be 513b e819 83bd 747c aebd 5290 8dbd
00000120: c183 b2bd d228 70bc 6299 babc 94d8 f23d
00000130: de9b e2bd 66bc 553c 3c66 01bd d260 853d
00000140: 1203 123d 45e7 a13b 55d9 af3d 2eb9 40be
00000150: 73ec 803d 1529 78bc 2398 b7bd 6ead 803e
00000160: 29a3 a7bc 9f95 afbd f3c7 8dbb 2399 c23b
00000170: 70a9 673d 13f6 ef3c f8ff adbc d86a 473d
00000180: 1bfd 743c 6612 8d3b ecbf 30bd 37e8 c03c
00000190: a174 f3bd f767 263e 425b 8e3d 9aa3 183e
000001a0: caab 483d 1a9d 4dbd a518 643d 6ab7 493d
000001b0: 255d b6bd b0a2 943c e298 963d 7052 a83c
000001c0: f5d7 96bd 99e8 463c 6c3c c6bd 2a11 05be
000001d0: 83f9 9c3d 263a c5bb 1489 cabd 9d88 83bc
000001e0: 68e7 b3bc ee70 323e 8b00 293d 108f c2bd
000001f0: 5983 acbd 506e b13d a1ca 573d 8502 da3d
00000200: 04c4 703d 0306 b03c c187 1b3d 45ad 8f3d
00000210: 6fbb 47bd 4172 2f3e 0447 83bd 071a 803c
00000220: 7116 f9bc 474b 123e cfce ffbd 2ab5 2dbe
00000230: 0c07 b33d fc1c 513b 6dfb 703b 16eb 2cbe
00000240: 984a aebc 997b bbbd 7e32 8c3d 3695 103d
00000250: a522 083d b506 903d c60a 7e3d a5e3 323d
00000260: 8cb4 9bbc 9482 023e c4d6 68bb 3690 843c
00000270: af95 0e3d d31d d7bd e784 cebc 1949 81bd
00000280: 09a7 743e f455 2abe 78ce 5e3c de57 a1bc
00000290: 5333 f03c 8d20 44be 19ff 5f3c a97c 0cbe
000002a0: 28d1 833d fdef f6bc 8f02 ae3c ca30 5b3d
000002b0: 4245 cbbd 3a69 523d 9523 353b 3227 293b
000002c0: 367d 92bd a1cd 363e 50fe e13d 7a4b 863c
000002d0: 5266 7abd 56ba b5bd 59ea 0ebe c7ca fa3d
000002e0: 858d 6a3b 224f 9c3d 2254 c2b9 a8a0 d23d
000002f0: c8c9 5bbd 9a90 9fbb 827e 113d b4f6 0c3e
00000300: 3142 3f3d a5b7 813d 04e8 2c3d 7a59 38ba
00000310: 3367 a13c 9ad1 eabc df8d bf3d 554c c2bb
00000320: 37fb 9c3d d781 853c ccf0 01be 41e8 37bd
00000330: 4938 053b 94c4 a0bd 0751 513b 17b7 af3d
00000340: 124d b83d 21c5 97bd 2598 b43b 201d 1cbe
00000350: 868b 523d 33b7 f3bd d9d0 653d 8379 0bbe
00000360: 81a2 5d3c 5e02 0dbe ff94 bb3d 466b a6bd
00000370: 4212 523d 7b30 5cbd 0838 9f3c 4f6d a23d
00000380: 51f4 a33d 7919 bfbd 173e bd3d 39c8 66bd
00000390: d201 9a3d d1cb aebd a0c2 263e d54d 04be
000003a0: 6a58 423c 7ddb 0a3c 5067 bfbd 28d4 823b
000003b0: f1fd cabd 110a 3b3d 4093 2bbd deba 40bd
000003c0: a46a b03d e6a7 27bc 91b0 3a3c ce6a 2bbe
000003d0: 3507 143d f071 533e 018d d8bd 8419 08be
000003e0: 8fd6 063e 67b8 803c 98c8 f3ba 450d e7bd
000003f0: 8f1e edbd 8562 1dbd d944 ea3d 9a06 74bd

actor.2.bias f4 [128]
-0.023975836 0.039449517 -0.034296755 -0.024903253 -0.020861266 0.026181893 0.0046439194 -0.015000408
0.006261671 0.050252326 0.002923587 0.059117682 -0.06001194 -0.05697157 -0.00523755 -0.047534693
0.0133908605 -0.03920756 -0.017501071 0.0137010915 0.035289418 -0.03835192 -0.053853225 0.05189138
-0.040420916 -0.03200094 -0.016868075 0.040534116 -0.030940088 -0.013608003 0.044505883 0.04875902
-0.0020292131 -0.044230092 0.0403506 -0.0073174485 0.00025995 0.05084475 -0.0024246736 -0.049488913
0.011621274 0.016319817 -0.027807621 -0.0059018848 0.011928184 -0.040932786 0.020677252 -0.05047775
-0.021323297 0.052257102 -0.056452032 -0.0049765655 -0.019458927 -0.023051236 0.02848395 0.041354146
-0.029057482 0.047964312 -0.022099268 -0.009588055 0.04187131 0.012685958 0.03221293 0.031180937
0.021416834 0.034720182 -0.006845045 0.0074769147 0.039735153 -0.001802694 0.04820502 -0.034192853
0.014453202 -0.031561438 -0.0537465 0.044718515 -0.01623792 0.045302313 -0.011784976 -0.010817615
-0.011563122 -0.046266973 0.034766804 0.002935839 -0.042454954 0.05673857 0.059120383 -0.052360557
0.04902541 -0.04691082 -0.052701775 -0.020161282 -0.05020367 -0.0249458 0.034747936 0.016422551
-0.045917775 0.0036434338 0.0062356745 0.004716704 0.03331087 0.0058000637 -0.05094908 -0.051056527
-0.053531993 -0.01768412 0.06059712 0.009516563 -0.027926512 -0.05766054 0.02654217 -0.016030444
-0.040356904 -0.037919875 0.03869696 0.038199056 -0.017146146 0.01823295 0.06233619 -0.040652554
-0.04814074 -0.01926293 -0.014400986 -0.056715753 -0.04945061 -0.017233629 0.010933921 0.020816654
00000000: f968 c4bc d195 213d c17a 0cbd e801 ccbc
00000010: 3fe5 aabc 697b d63c 052c 983b 45c4 75bc
00000020: b42e cd3b 62d5 4d3d a799 3f3b 6225 723d
00000030: 14cf 75bd 055b 69bd c19f abbb bdb3 42bd
00000040: 5765 5b3c 1b98 20bd 685e 8fbc 8b7a 603c
00000050: a38b 103d e716 1dbd 3395 5cbd 0e8c 543d
00000060: 6790 25bd 6b13 03bd eb2e 8abc 1a07 263d
00000070: 1176 fdbc 1af4 5ebc cd4b 363d 8ab7 473d
00000080: 8cfc 04bb 9d2a 35bd ac46 253d 35c7 efbb
00000090: e649 8839 9642 503d 46e7 1ebb e3b4 4abd
000000a0: 2867 3e3c 23b1 853c cfcc e3bc 9964 c1bb
000000b0: 6e6e 433c 23a9 27bd 5763 a93c c2c1 4ebd
000000c0: 32ae aebc 8b0b 563d 3f3a 67bd 7512 a3bb
000000d0: 5468 9fbc f2d5 bcbc 2c57 e93c f762 293d
000000e0: f509 eebc 3a76 443d 8609 b5bc 3817 1dbc
000000f0: 4081 2b3d c4d8 4f3c b5f1 033d 2a6f ff3c
00000100: 5b72 af3c c036 0e3d 664c e0bb e800 f53b
00000110: 54c1 223d 6048 ecba a172 453d ce0d 0cbd
00000120: 1fcd 6c3c 9146 01bd 4a25 5cbd c32a 373d
00000130: 6305 85bc eb8e 393d c615 41bc 5e3c 31bc
00000140: 4073 3dbc 7082 3dbd a367 0e3d 3467 403b
00000150: 3fe5 2dbd b466 683d 3728 723d 0678 56bd
00000160: dece 483d 8f25 40bd d1dd 57bd 4629 a5bc
00000170: 5da2 4dbd 225b ccbc da53 0e3d 9688 863c
00000180: 4714 3cbd adc6 6e3b a154 cc3b 958e 9a3b
00000190: fb70 083d 760e be3b fcaf 50bd a620 51bd
000001a0: 5d44 5bbd 4ade 90bc b034 783d 5ceb 1b3c
000001b0: 24c6 e4bc 752d 6cbd f76e d93c 4752 83bc
000001c0: 484d 25bd df51 1bbd b480 1e3d 9d76 1c3d
000001d0: 1376 8cbc 445d 953c 3c54 7f3d 4b83 26bd
000001e0: 392f 45bd 4bcd 9dbc 1df2 6bbc c74e 68bd
000001f0: b98c 4abd 8a2d 8dbc 3024 333c b087 aa3c

actor.4.weight f4 [64, 128]
-0.073999725 -0.019770203 0.10332684 -0.11656129 -0.11330444 -0.009309815 0.065689564 -0.2724759
0.04049599 -0.25627252 0.12682182 0.16282995 -0.10026795 0.029280974 0.03879893 -0.09731631
0.15092514 -0.058623403 0.1885126 -0.08104196 -0.05859763 0.00094892766 0.1322628 -0.014970263
-0.107563466 0.04159575 0.088347614 -0.2029653 0.048666913 -0.03972142 0.021382764 0.12284358
-0.021080747 0.2822405 -0.050400183 0.04186083 0.022526214 0.014652875 -0.013587779 -0.08828718
-0.027008524 -0.024683366 -0.20861031 -0.1956054 -0.007783847 0.08111786 0.047460057 -0.07914525
-0.05921852 0.06490371 0.10238289 0.06680856 0.31293443 -0.12382667 -0.0022517487 -0.03319896
0.15357086 -0.27511695 0.03400983 -0.071911864 -0.021842234 -0.0037475377 0.20245649 0.10626625
0.284445 0.027713507 -0.35870644 0.09890109 -0.09608607 -0.08313057 -0.06995076 0.15394214
0.23049214 0.32193303 0.21737018 0.04103335 -0.11971197 0.011465502 0.15670213 -0.14117588
-0.109512426 0.013635308 0.09723468 -0.015257123 -0.23929346 -0.113233805 -0.088709794 -0.0957874
0.14992307 -0.2241612 -0.04057743 -0.1051846 -0.014740386 0.060786594 0.050327215 -0.006672921
0.030382931 -0.088029526 0.041676886 -0.07875687 0.0059310966 -0.048914414 -0.012132065 0.055813152
-0.06593554 -0.08083431 -0.058028094 -0.047340967 0.041849885 0.1427464 0.14023314 0.11130019
0.13777249 0.090600714 -0.20704915 0.08683144 0.056392487 -0.041469894 -0.13102369 -0.15647323
-0.2093776 0.16410224 -0.120786466 0.0023155652 0.15150847 0.1706831 -0.03027114 0.06864174
0.040826183 -0.044092752 0.15574357 0.061521363 0.029049076 -0.18590906 -0.18422152 -0.10352837
0.17390317 0.09765625 0.1190109 -0.117040016 0.15076672 0.17819752 -0.0912172 -0.09810442
0.32986137 0.18372802 0.09390533 -0.18276148 -0.036925226 0.05682458 -0.08945262 -0.29590335
0.025659643 0.0030086942 -0.007568212 0.0026174872 0.09612529 0.092165865 -0.18351243 -0.011248201
0.08207289 0.16664076 0.066070855 0.13953954 0.066548504 0.04140229 0.14911103 0.17978671
-0.14776383 -0.19983724 0.015964651 0.12757175 0.22115584 -0.013372038 -0.10003921 0.0316942
0.17033404 0.11519508 -0.06283366 -0.13363434 0.0078513045 -0.20234467 -0.04655272 0.05947502
-0.031122467 0.05441946 -0.09147203 0.17978859 0.028030891 -0.16392738 -0.24995369 -0.025603436
-0.014449837 -0.073635586 0.18702407 -0.0023932436 -0.030072093 -0.16792707 -0.12623197 0.1351783
-0.10684786 0.1361437 -0.15389608 -0.2760572 0.08374323 -0.082658134 0.11654265 0.032577705
-0.06136822 -0.20567982 0.035946377 0.051181 -0.05337657 -0.21747907 -0.055922356 0.30204204
0.09860847 -0.020136856 -0.040157 -0.05093151 -0.037347376 -0.01814608 -0.09884089 0.03337795
0.031159496 0.096734114 0.035112664 -0.15865415 -0.03253037 -0.21586868 0.0931502 0.20500235
-0.17848012 0.107835874 -0.08183651 -0.10044979 0.10231081 -0.1169963 -0.005205009 0.08990924
0.03755489 0.10523211 0.06717738 0.13503502 -0.14088802 -0.069915116 -0.09833723 -0.03974143
-0.036509942 -0.14181875 -0.057196505 0.17566612 0.0056538414 -0.16032945 -0.20207812 0.04798473
00000000: 2b8d 97bd 1ff5 a1bc 069d d33d b0b7 eebd
00000010: 290c e8bd 3288 18bc 4088 863d f681 8bbe
00000020: 20df 253d 2736 83be 94dd 013e e5bc 263e
00000030: 4859 cdbd a7de ef3c a0eb 1e3d c64d c7bd
00000040: 1f8c 1a3e 181f 70bd 7209 413e 54f9 a5bd
00000050: 1204 70bd 75c1 783a e66f 073e d545 75bc
00000060: 3c4a dcbd 4e60 2a3d 98ef b43d 23d6 4fbe
00000070: f556 473d edb2 22bd e82a af3c 6a95 fb3d
00000080: 88b1 acbc d481 903e 6c70 4ebd 4376 2b3d
00000090: e588 b83c 9d12 703c 479f 5ebc e9cf b4bd
000000a0: fb40 ddbc c534 cabc f19d 55be c84c 48be
000000b0: a40f ffbb 1f21 a63d 7a65 423d e816 a2bd
000000c0: 1e8f 72bd 3cec 843d 1fae d13d edd2 883d
000000d0: f138 a03e d698 fdbd 1392 13bb a2fb 07bd
000000e0: ae41 1d3e 21dc 8cbe e44d 0b3d 8746 93bd
000000f0: 7cee b2bc 4099 75bb c150 4f3e 1fa2 d93d
00000100: c6a2 913e 7007 e33c 5fa8 b7be a88c ca3d
00000110: c6c8 c4bd 5c40 aabd 5842 8fbd 02a3 1d3e
00000120: 2206 6c3e 68d4 a43e 4a96 5e3e 9612 283d
00000130: 8d2b f5bd cdd9 3b3c 8676 203e 6990 10be
00000140: 0d48 e0bd a066 5f3c fa22 c73d 03f9 79bc
00000150: 5809 75be 20e7 e7bd 7bad b5bd 2f2c c4bd
00000160: 6f85 193e 838a 65be 8534 26bd 066b d7bd
00000170: a981 71bc 5dfb 783d e923 4e3d 85a8 dabb
00000180: a0e5 f83c d348 b4bd 62b5 2a3d 484b a1bd
00000190: a559 c23b 7b5a 48bd 92c5 46bc 559c 643d
000001a0: 3609 87bd 758c a5bd deae 6dbd 9ae8 41bd
000001b0: c96a 2b3d 1d2c 123e 4799 0f3e 5bf1 e33d
000001c0: 3b14 0d3e de8c b93d b104 54be afd4 b13d
000001d0: cffb 663d 56dc 29bd 132b 06be 853a 20be
000001e0: 1567 56be 6b0a 283e e55e f7bd bdc0 173b
000001f0: 0925 1b3e 8dc7 2e3e 2ffb f7bc 0a94 8c3d
00000200: 5b39 273d 9a9a 34bd 3e7b 1f3e d3fd 7b3d
00000210: 54f8 ed3c f25e 3ebe 91a4 3cbe af06 d4bd
00000220: ac13 323e 0000 c83d fdbb f33d adb2 efbd
00000230: 9762 1a3e 6979 363e 15d0 babd f8ea c8bd
00000240: 97e3 a83e 3323 3c3e 7051 c03d d325 3bbe
00000250: e83e 17bd e4c0 683d ef32 b7bd a580 97be
00000260: 2c34 d23c 832d 453b c4fe f7bb 268a 2b3b
00000270: 56dd c43d 75c1 bc3d afea 3bbe 604a 38bc
00000280: d515 a83d e0a3 2a3e 2850 873d 74e3 0e3e
00000290: 954a 883d 7395 293d 90b0 183e 021a 383e
000002a0: 674f 17be 22a2 4cbe 4dc8 823c 2ba2 023e
000002b0: ad76 623e 6416 5bbc 5be1 ccbd c7d1 013d
000002c0: 0c6c 2e3e 66eb eb3d efae 80bd 71d7 08be
000002d0: c2a2 003c 7133 4fbe 11ae 3ebd 149c 733d
000002e0: 8bf4 febc f1e6 5e3d b055 bbbd 801a 383e
000002f0: 0aa1 e53c 94dc 27be dcf3 7fbe 4cbe d1bc
00000300: 02bf 6cbc 41ce 96bd 3d83 3f3e f7d7 1cbb
00000310: c059 f6bc 13f5 2bbe f442 01be 2e6c 0a3e
00000320: 0dd3 dabd 4169 0b3e ef96 1dbe 5f57 8dbe
00000330: 9281 ab3d ab48 a9bd eaad ee3d 3370 053d
00000340: 3e5d 7bbd bb9d 52be 823c 133d 2ba3 513d
00000350: 64a1 5abd d5b2 5ebe d70e 65bd 41a5 9a3e
00000360: 3df3 c93d 0cf6 a4bc ab7b 24bd 8f9d 50bd
00000370: 90f9 18bd 17a7 94bc 186d cabd 51b7 083d
00000380: 3342 ff3c 891c c63d 4cd2 0f3d 3c76 22be
00000390: 913e 05bd ae0c 5dbe 88c5 be3d 23ec 513e
000003a0: 7ec3 36be 0ed9 dc3d e699 a7bd 9fb8 cdbd
000003b0: 5488 d13d c29b efbd c88e aabb 5622 b83d
000003c0: 28d3 193d ef83 d73d 4b94 893d 9f46 0a3e
000003d0: f344 10be a82f 8fbd 0865 c9bd e9c7 22bd
000003e0: 738b 15bd ef38 11be e246 6abd d2e1 333e
000003f0: dc43 b93b 672d 24be 91ed 4ebe a38b 443d

actor.4.bias f4 [64]
-0.0019298039 -0.001725377 -0.05509934 -0.0026906058 -0.09217333 0.044717334 0.039232656 0.068224326
-0.07732325 0.035003822 0.018934082 -0.030677762 0.05248627 0.019563304 0.0036825226 0.035894707
0.03913025 -0.011426425 0.025228687 -0.06242375 0.03717466 -0.08072701 -0.0133098215 -0.00031605506
0.08725269 0.071649946 0.0616038 0.00457416 0.0829878 0.071503915 -0.054289404 -0.08651934
-0.07506643 0.06544181 -0.040737547 0.000740919 0.062428236 -0.0023517727 0.021310799 0.067335494
-0.012789862 -0.027668692 -0.06303124 -0.039824057 -0.025423596 -0.026600352 0.06603273 -0.08279985
-0.011320207 -0.02827358 0.028151335 0.08772039 -0.011830155 -0.09049977 0.06080763 0.037083738
0.052925505 -0.043056883 -0.004072159 -0.053875886 -0.060528412 0.07125527 0.03954834 -0.07169475
00000000: 79f1 fcba 0c26 e2ba d8af 61bd e054 30bb
00000010: 5fc5 bcbd 8629 373d 6cb2 203d 32b9 8b3d
00000020: a75b 9ebd 2b60 0f3d a61b 9b3c ee4f fbbc
00000030: d8fb 563d 3943 a03c 7a56 713b 5406 133d
00000040: 0b47 203d e635 3bbc 64ac ce3c 0cb0 7fbd
00000050: 7544 183d 3454 a5bd 7011 5abc 31b4 a5b9
00000060: 8ab1 b23d 35bd 923d 4454 7c3d d6e2 953b
00000070: 82f5 a93d a570 923d 915e 5ebd 0d31 b1bd
00000080: 6ebc 99bd 5b06 863d 6adc 26bd 3b3a 423a
00000090: c0b4 7f3d 3320 1abb fc93 ae3c 31e7 893d
000000a0: 928c 51bc 74a9 e2bc 8616 81bd 8d1e 23bd
000000b0: 2545 d0bc fbe8 d9bc 2b3c 873d f892 a9bd
000000c0: 6478 39bc ff9d e7bc a19d e63c bfa6 b33d
000000d0: 44d3 41bc f257 b9bd 6c11 793d 1ee5 173d
000000e0: 6ac8 583d 6a5c 30bd bf6f 85bb f6ac 5cbd
000000f0: a4ec 77bd 48ee 913d 71fd 213d b2d4 92bd

actor.6.weight f4 [3, 64]
0.0012292821 0.0009377759 0.0013946944 0.0024918034 0.00086275314 -0.00041488497 0.0005525118 0.0027907998
0.0040657255 -0.0022055965 0.00071677094 -0.00037465102 0.0013333522 0.0005232806 0.0013922332 0.0017547708
0.0010784315 -0.00055786414 0.0006200318 0.0009894902 0.00042029363 0.00036841343 0.0030003686 -5.267958e-05
0.0018833793 0.0011870816 -0.0015086409 0.00014792598 0.00084064674 0.002166422 0.004350951 0.0015709874
0.0011265791 0.0016820363 -0.00030457642 -7.3734627e-06 -0.00030624308 -2.2339658e-05 0.00029659664 0.00077142543
0.00018215572 -0.0016654071 -0.0003404339 0.00043652506 0.0018081914 0.00018697506 -0.00081245234 -0.0011191367
-0.0037243103 0.00052828237 0.0012049249 0.0005686314 0.0010530377 0.0030138856 0.002326734 -0.00015695117
0.0012063344 0.0010997123 0.0038625724 0.00020586776 8.30043e-05 0.0015391108 0.0051047704 0.0017831705
-0.0007815147 -0.0018546355 -0.00055856485 0.0012487525 -8.1428094e-05 -0.001077422 -0.0002450227 -0.0013728817
0.0012384014 0.0017716229 -0.0010581021 -0.0024928357 -0.0009028179 0.00067366177 0.0006346753 -0.0014872852
0.0015479474 -0.00012702207 -5.5840384e-05 0.0005339887 -0.0029587517 -0.0009413522 -0.0025771179 0.001057878
0.002186638 -0.0018544055 -0.0006248378 -0.00045312842 0.00029775387 -0.0011662509 0.0015133576 -0.00017644439
-0.0014449978 1.3210317e-05 0.00042089896 -0.00023218812 -0.000107651715 -0.0006048911 0.00089012587 0.00047591378
0.0004108486 0.0011289088 -0.0004533291 -0.00042822346 0.002757307 0.00036353234 0.00040984552 -0.0002503919
-0.0012111989 0.00051313895 -0.00034715683 0.0005977664 0.0021124766 0.002149479 -0.0011806387 -0.0014673845
-0.001449864 -0.00043004347 -0.00037473536 -0.0014281211 0.0004898843 0.00081494753 0.0004898477 -0.00062632316
0.0077868835 0.012743737 0.0077614845 0.012304489 0.011116477 0.0072503467 0.009562936 0.011332863
0.016896976 0.012893869 0.007406742 0.012616384 0.010026883 -0.0038328273 -0.00950557 0.012773709
-0.012064655 0.0054485453 -0.0039684516 -0.007832879 0.0092560435 0.0073302593 0.012597796 -0.002427717
-0.015953958 0.010544687 0.010936026 0.0079708295 -0.010587539 0.012993416 0.013290031 0.012498078
0.011774781 6.982009e-06 -0.004375464 -0.0028664854 0.010900809 0.011752228 -0.002385942 -0.004118746
-0.001712562 0.011005605 -0.0010302474 0.010027995 0.013771856 -0.00062732195 -0.004922103 0.009793136
0.008022634 0.009962817 0.0095535 -0.011179103 -0.010829268 0.01592922 0.011963595 0.011598119
0.00885365 0.013193311 0.013923941 -0.009839922 -0.0024012455 -0.008320882 0.014098877 0.012513181
00000000: dd1f a13a 13d5 753a 2ece b63a 864d 233b
00000010: 622a 623a eb84 d9b9 70d6 103a dae5 363b
00000020: c739 853b c58b 10bb afe5 3b3a cf6c c4b9
00000030: e0c3 ae3a c42c 093a 987b b63a 5600 e63a
00000040: 285a 8d3a a13d 12ba a189 223a c8b1 813a
00000050: db5a dc39 9d27 c139 d5a1 443b 45f4 5cb8
00000060: b9db f63a d997 9b3a 97bd c5ba 941c 1b39
00000070: d95e 5c3a 88fa 0d3b 6c92 8e3b 97e9 cd3a
00000080: b9a9 933a c677 dc3a 8eaf 9fb9 9069 f7b6
00000090: 408f a0b9 0d66 bbb7 8780 9b39 7c39 4a3a
000000a0: 0e01 3f39 ca49 daba 447c b2b9 67dd e439
000000b0: d600 ed3a bc0e 4439 c1fa 54ba ffaf 92ba
000000c0: 8f13 74bb 6e7c 0a3a 92ee 9d3a 3510 153a
000000d0: 1506 8a3a 9c84 453b 1e7c 183b 4293 24b9
000000e0: de1d 9e3a 3924 903a 3623 7d3b 35de 5739
000000f0: 9812 ae38 fdbb c93a eb45 a73b 46b9 e93a
00000100: 90de 4cba 3e17 f3ba a76c 12ba 2ead a33a
00000110: 60c4 aab8 4938 8dba 6476 80b9 44f2 b3ba
00000120: db51 a23a cd35 e83a 04b0 8aba d85e 23bb
00000130: 15ab 6cba ad98 303a 5760 263a 03f1 c2ba
00000140: 7fe4 ca3a 3a31 05b9 2836 6ab8 60fb 0b3a
00000150: 9ee7 41bb 14c5 76ba dde4 28bb 7fa8 8a3a
00000160: b34d 0f3b 860f f3ba 28cc 23ba de91 edb9
00000170: d91b 9c39 e3dc 98ba db5b c63a ee03 39b9
00000180: 1566 bdba e1a1 5d37 1aac dc39 8677 73b9
00000190: 13c3 e1b8 8e91 1eba 5657 693a 1184 f939
000001a0: 2a67 d739 e5f7 933a cdac edb9 2e83 e0b9
000001b0: efb3 343b 7c98 be39 89e0 d639 0847 83b9
000001c0: 17c1 9eba 2c84 063a 9a02 b6b9 6db3 1c3a
000001d0: 7a71 0a3b 46de 0c3b a9bf 9aba 4155 c0ba
000001e0: 5d09 beba 7577 e1b9 2178 c4b9 cb2f bbba
000001f0: 946b 003a 34a2 553a 1f69 003a d62f 24ba
00000200: 1d29 ff3b 1bcb 503c 0d54 fe3b c498 493c
00000210: e221 363c 5194 ed3b dcad 1c3c 79ad 393c
00000220: 876b 8a3c ce40 533c 41b4 f23b f3b4 4e3c
00000230: cc47 243c 2c30 7bbb 40bd 1bbc d248 513c
00000240: d5aa 45bc b689 b23b c909 82bb 7a55 00bc
00000250: a9a6 173c ac32 f03b fc66 4e3c 551a 1fbb
00000260: e0b1 82bc 9fc3 2c3c 052d 333c 1598 023c
00000270: 5b77 2dbc 56e2 543c 6ebe 593c bdc4 4c3c
00000280: 03eb 403c 0047 ea36 0d60 8fbb a5db 3bbb
00000290: 4f99 323c 6b8c 403c 775d 1cbb 8cf6 86bb
000002a0: 0c78 e0ba da50 343c 5e09 87ba 764c 243c
000002b0: 5aa3 613c dd72 24ba 9849 a1bb 6473 203c
000002c0: 5e71 033c 153b 233c 4986 1c3c 8e28 37bc
000002d0: 3e6d 31bc ff7d 823c f402 443c 0906 3e3c
000002e0: e60e 113c c228 583c 3e21 643c a037 21bc
000002f0: 375e 1dbb 4f54 08bc fafe 663c 1604 4d3c

actor.6.bias f4 [3]
-0.028420622 0.062378034 0.07662025
00000000: 5dd2 e8bc 1c80 7f3d 14eb 9c3d

critic.0.weight f4 [256, 259]
0.10386232 0.12820676 -0.006885365 -0.011323809 0.012744259 -0.092291914 0.070966 -0.053436182
0.035789322 0.0031125958 0.04233086 -0.07331447 0.08722943 0.117926866 0.12306999 -0.04142241
0.14012697 -0.0767176 -0.10461379 -0.07488144 0.10479268 -0.12085286 0.3461106 0.118604094
-0.11341351 0.09830664 -0.075003766 -0.058796134 0.20756051 0.19723935 0.10809893 0.062993504
0.004334822 0.122243315 -0.124561846 -0.042621177 0.0016211942 -0.0090425 -0.07359939 0.07570584
0.04514995 -0.020823127 -0.03520047 0.09618453 -0.01942078 0.16234456 0.21249764 0.14778294
-0.1823122 0.23915276 -0.05320934 0.024694603 0.051633514 0.17985184 -0.0071347244 0.06392755
-0.046067383 0.013391603 0.18677388 -0.006632429 0.074992545 -0.020131925 -0.004752388 0.040155992
-0.03492833 -0.02333685 0.11829283 0.030949209 -0.041912023 0.11349498 -0.10058611 0.07387653
-0.14936242 -0.06647376 0.15315711 -0.1676421 0.040493827 -0.015483357 0.076687545 0.2135288
-0.008514213 0.15264913 0.0134435715 -0.034285415 0.11432612 0.27404448 0.1181667 -0.12877321
-0.02842282 -0.05949014 0.16174045 0.111724354 0.046297453 -0.09391254 -0.112828285 0.066672735
0.00078653754 -0.033755388 0.04233782 0.075232126 -0.05299692 0.21209975 -0.02688503 0.042766504
0.028401019 0.08302952 -0.17981122 0.0726545 0.09500953 0.013942484 0.07676174 -0.14006937
-0.1040737 -0.010462316 -0.049567867 -0.0063887876 -0.025937542 -0.16055778 -0.0019396885 -0.07616199
-0.012360934 -0.03535124 0.02807663 0.07867542 0.04806112 0.205023 -0.026183326 0.051522367
0.060717147 0.07344266 0.07077699 -0.019128148 0.0711803 -0.02475887 -0.006558272 0.068681635
-0.014369819 -0.11458514 0.017029915 0.25918865 0.14997812 0.094334126 -0.056346077 0.11439526
-0.08596712 -0.08412067 0.05346596 -0.016272198 0.17460248 0.05470824 -0.081260726 0.043547392
-0.0034400106 -0.14823459 -0.02005194 0.12838836 -0.027859159 0.10997721 0.10388341 -0.00919033
-0.033117034 -0.093539216 0.04682209 -0.02650012 0.025366284 -0.004563862 -0.06631867 0.08090965
-0.036591437 0.036523785 -0.04356313 0.08321786 0.17782807 0.026727341 -0.05470097 0.10599962
-0.121472724 0.028084256 -0.10867361 0.0076715387 -0.00039861607 0.038202167 -0.037404004 -0.032210685
0.03738707 0.18542475 -0.09712829 -0.02426781 -0.040862933 0.048042092 -0.08494811 -0.054898325
0.18929803 -0.008845531 -0.04614837 -0.04254302 0.09188589 -0.014836331 -0.0718825 -0.046537228
0.116344884 0.11934982 -0.009532448 0.07873586 -0.030461356 0.04383927 -0.055806566 0.20331103
-0.085795626 -0.0025649094 -0.056499545 0.13221955 0.03035717 0.052691735 0.012270826 0.016741915
0.04492058 -0.103498906 -0.063177586 -0.092292316 -0.081991695 -0.09592571 -0.09894905 -0.0018390367
0.08581566 -0.10908047 0.32652053 -0.021506358 0.079580866 0.2068297 0.032381866 -0.13418636
0.051455833 0.052756302 0.029231165 -0.026927454 -0.09694558 -0.1533692 -0.035664752 0.10766687
-0.034339197 0.13110627 0.14004652 0.18120073 -0.04154152 -0.077067584 -0.019586239 0.07110353
0.026274249 0.038139515 0.10045488 0.050902646 0.06645968 0.08336009 -0.029191121 -0.010257199
00000000: c5b5 d43d a248 033e a19e e1bb 7f87 39bc
00000010: 4ccd 503c 8b03 bdbd 9f56 913d e6df 5abd
00000020: d397 123d b1fc 4b3b 2063 2d3d e625 96bd
00000030: 58a5 b23d a483 f13d 1e0c fc3d 8caa 29bd
00000040: 727d 0f3e 1e1e 9dbd c13f d6bd 715b 99bd
00000050: 8b9d d63d b481 f7bd 6935 b13e b4e6 f23d
00000060: 5845 e8bd fe54 c93d 939b 99bd 37d4 70bd
00000070: be8a 543e 1df9 493e f962 dd3d bd02 813d
00000080: 1f0b 8e3b b45a fa3d 481a ffbd 8b93 2ebd
00000090: 407e d43a fe26 14bc 47bb 96bd aa0b 9b3d
000000a0: 27ef 383d 4395 aabc 5e2e 10bd 65fc c43d
000000b0: 5418 9fbc a73d 263e fb98 593e 6954 173e
000000c0: 0db0 3abe 76e4 743e 09f2 59bd 564c ca3c
000000d0: aa7d 533d 152b 383e 68ca e9bb 73ec 823d
000000e0: 27b1 3cbd 7468 5b3c a741 3f3e d954 d9bb
000000f0: b195 993d b5eb a4bc ecb9 9bbb 9c7a 243d
00000100: 0211 0fbd ec2c bfbc 8343 f23d 3289 fd3c
00000110: f1ab 2bbd 0e70 e83d 1700 cebd 944c 973d
00000120: 76f2 18be 6523 88bd 38d5 1c3e 5faa 2bbe
00000130: dbdc 253d e8ad 7dbc 5c0e 9d3d 4ba7 5a3e
00000140: 337f 0bbc 0e50 1c3e 6d42 5c3c dd6e 0cbd
00000150: d023 ea3d 8f4f 8c3e 6201 f23d 20dd 03be
00000160: f9d6 e8bc efab 73bd 4a9f 253e bdcf e43d
00000170: 66a2 3d3d 3855 c0bd 8412 e7bd b78b 883d
00000180: a42f 4e3a 1743 0abd 6c6a 2d3d 4d13 9a3d
00000190: 4c13 59bd ad30 593e ff3d dcbc ee2b 2f3d
000001a0: 41a9 e83c 620b aa3d 6f20 38be e2cb 943d
000001b0: 5b94 c23d 046f 643c 4235 9d3d 586e 0fbe
000001c0: 9824 d5bd 226a 2bbc ad07 4bbd 0959 d1bb
000001d0: f87a d4bc 4269 24be 253d feba d1fa 9bbd
000001e0: 8485 4abc 76cc 10bd f600 e63c 9420 a13d
000001f0: bddb 443d 8df1 513e 6a7e d6bc 1e09 533d
00000200: 8bb2 783d 1b69 963d 87f3 903d a2b2 9cbc
00000210: fac6 913d 1dd3 cabc c6e6 d6bb f5a8 8c3d
00000220: 646f 6bbc 9dab eabd 5282 8b3c 60b4 843e
00000230: dd93 193e 4032 c13d 25cb 66bd 1048 ea3d
00000240: 880f b0bd 7547 acbd 1fff 5a3d 464d 85bc
00000250: feca 323e bf15 603d 066c a6bd c05e 323d
00000260: cd71 61bb cfca 17be f743 a4bc 3d78 033e
00000270: e438 e4bc bb3b e13d d3c0 d43d 0a93 16bc
00000280: baa5 07bd 7d91 bfbd 85c8 3f3d c816 d9bc
00000290: f4cc cf3c 738c 95bb 15d2 87bd f5b3 a53d
000002a0: e7e0 15bd f799 153d 416f 32bd 206e aa3d
000002b0: 9018 363e 4cf3 da3c 200e 60bd 5416 d93d
000002c0: b1c6 f8bd f410 e63c 4590 debd 8861 fb3b
000002d0: 58fd d0b9 e079 1c3d f134 19bd 5aef 03bd
000002e0: 2f23 193d fcdf 3d3e 32eb c6bd 49cd c6bc
000002f0: e45f 27bd c9c7 443d 46f9 adbd 11dd 60bd
00000300: 58d7 413e d9ec 10bc 1306 3dbd 9741 2ebd
00000310: ab2e bc3d 1514 73bc 2237 93bd d29d 3ebd
00000320: 3a46 ee3d ae6d f43d fc2d 1cbc 4440 a13d
00000330: 188a f9bc ce90 333d 6d95 64bd c430 503e
00000340: 9eb5 afbd 0a18 28bb 116c 67bd 9064 073e
00000350: 9aaf f83c 4ad3 573d 930b 493c 5726 893c
00000360: a4fe 373d 3cf7 d3bd 4063 81bd c103 bdbd
00000370: 43eb a7bd b374 c4bd cda5 cabd d50b f1ba
00000380: 1fc0 af3d 9565 dfbd b32d a73e 1a2e b0bc
00000390: 4bfb a23d 2acb 533e d9a2 043d 2668 09be
000003a0: 5ac3 523d fe16 583d 3276 ef3c f796 dcbc
000003b0: 678b c6bd d10c 1dbe 3415 12bd 7380 dc3d
000003c0: 42a7 0cbd b940 063e 5b68 0f3e af8c 393e
000003d0: 7127 2abd 9cd5 9dbd 5273 a0bc ba9e 913d
000003e0: 183d d73c 2e38 1c3d 4abb cd3d 4b7f 503d
000003f0: 031c 883d b2b8 aa3d 3822 efbc d00d 28bc

critic.0.bias f4 [256]
-0.01709297 0.018250328 0.031668853 -0.008842144 0.02751884 -0.046748273 0.064238206 -0.0515325
-0.05787155 -0.019869417 -0.019666899 0.012405489 0.05457177 0.042227667 0.014290581 0.015047855
0.01987839 -0.008969416 -0.027571747 0.049820054 -0.010573029 0.05909559 0.012146136 -0.026900074
-0.03125104 -0.03456298 0.023687527 0.029788699 0.06249596 -0.063211665 -0.050687995 -0.02363373
-0.04531918 0.02369544 -0.05889654 -0.027126458 -0.021152511 -0.027436623 0.006098149 -0.05735242
-0.033212475 -0.039539963 0.01301342 -0.04768886 0.040897597 0.050683588 -0.044479966 -0.031413145
-0.049031623 0.019650456 -0.044348378 -0.049967192 0.052597284 -0.01830746 0.05067117 -0.047543727
-0.033243608 -0.04182523 -0.011457168 -0.03595248 0.016223764 0.068234935 0.06312018 0.04880855
0.015667662 -0.018560367 -0.057065625 -0.006485868 -0.038021445 0.0019166431 0.01595583 -0.009030937
0.015440275 -0.0121119 0.0032431881 0.0038796575 -0.037765056 0.055116933 -0.014450714 -0.04775396
0.045394413 0.041224003 -0.048410848 0.050635517 0.025292628 -0.0050285235 0.051182207 -0.020573167
0.0031086188 -0.04660864 0.0038396132 0.020551434 -0.04041279 0.018045967 0.020023268 -0.0071972655
0.054611254 -0.031062812 0.04980789 0.017297827 6.237497e-05 -0.06462953 -0.0505569 0.044466577
0.005613853 -0.028539404 0.022484167 -0.009117373 0.0047016595 0.04152314 0.032489985 0.040898528
-0.040842067 0.00080150936 -0.016974727 -0.04784261 0.01518846 -0.013657268 -0.014401572 -0.045053795
0.022959096 -0.031872153 -0.018783808 0.022145532 -0.058992572 -0.026478032 0.00166604 0.038865983
0.010164645 5.9501956e-05 -0.05016585 0.046395663 0.05615883 -0.017009264 0.01758338 0.004776213
0.022081016 -0.036016162 0.026837986 0.0053710784 -0.061927624 -0.038853545 -0.054888867 -0.016684845
-0.018960228 0.06490659 -0.027603054 -0.061198242 -0.056071635 0.0063145654 -0.05730693 0.02110758
-0.018454611 0.06832044 0.0035371275 0.036691148 -0.052092023 -0.05407764 0.0061991834 0.0010280221
-0.054896392 0.01611712 -0.0032199724 -0.054068994 -0.015744068 -0.053082384 0.018230077 -0.05696055
0.06880545 0.0020914904 0.049215376 0.011616679 0.051008813 -0.03529728 -0.018333683 -0.057583656
0.0042409436 -0.051939066 -0.045656726 0.062023293 -0.04489621 0.022746665 -0.037384532 -0.05421146
-0.041816693 0.021848474 -0.049108867 -0.053508364 -0.062428005 -0.015480217 -0.04083681 -0.045049127
-0.0036238222 -0.02976485 0.058147 -0.006642367 0.018779455 0.032710604 -0.03214431 -0.029261705
-0.01643794 0.030708857 0.054357067 -0.03742374 -0.04672059 0.012120452 -0.008452892 0.031282317
-0.023141047 -0.03125558 0.023836918 0.051134925 0.010401901 0.03415578 0.00039618145 0.05208611
0.019376319 0.004074292 0.040832482 -0.0036300933 0.06183038 -0.012065849 -0.028715407 0.016638339
-0.010649272 -0.05235615 -0.03921238 -0.030908028 -0.014874234 -0.04322888 -0.044099133 -0.03755982
-0.001369736 0.004806061 -0.015778206 0.0005054047 0.037201043 0.049978554 -0.013531129 -0.014128666
0.026290992 0.06393633 -0.04182043 -0.019874018 -0.0031879533 0.034874994 -0.06439985 -0.0012335088
-0.047324806 -0.03623548 -0.048019096 0.026964901 -0.00032646887 -0.0424249 0.0006187081 0.051543858
00000000: 8e06 8cbc b681 953c 33b7 013d a4de 10bc
00000010: 316f e13c 1e7b 3fbd 528f 833d be13 53bd
00000020: b80a 6dbd 30c5 a2bc 7a1c a1bc 6440 4b3c
00000030: a686 5f3d ebf6 2c3d 0b23 6a3c 478b 763c
00000040: 01d8 a23c 75f4 12bc 25de e1bc 1d10 4c3d
00000050: 7f3a 2dbc 380e 723d 9600 473c 8b5d dcbc
00000060: 1701 00bd e991 0dbd 580c c23c 6e07 f43c
00000070: c4fb 7f3d 1e75 81bd 379e 4fbd 869b c1bc
00000080: 9ba0 39bd f01c c23c 803d 71bd 4e38 debc
00000090: 0848 adbc c5c2 e0bc fbd2 c73b 5fea 6abd
000000a0: ce09 08bd a8f4 21bd 3d36 553c 6555 43bd
000000b0: 3d84 273d 9899 4f3d a030 36bd 12ab 00bd
000000c0: 62d5 48bd fef9 a03c a5a6 35bd 66aa 4cbd
000000d0: 4070 573d 87f9 95bc 938c 4f3d 36bd 42bd
000000e0: 732a 08bd ef50 2bbd d8b6 3bbc e842 13bd
000000f0: b3e7 843c c2be 8b3d 2745 813d 79eb 473d
00000100: 7859 803c e90b 98bc a5bd 69bd 6787 d4bb
00000110: 60bc 1bbd df37 fb3a cdb5 823c 7ff6 13bc
00000120: 35f9 7c3c fe70 46bc ab8b 543b da41 7e3b
00000130: 88af 1abd 4bc2 613d b0c2 6cbc a899 43bd
00000140: 7eef 393d 80da 283d 744a 46bd 3067 4f3d
00000150: 7c32 cf3c 50c6 a4bb 6fa4 513d 0f89 a8bc
00000160: f8b9 4b3b b4e8 3ebd 05a2 7b3b 7b5b a83c
00000170: e287 25bd 23d5 933c d607 a43c 0ad7 ebbb
00000180: 0db0 5f3d 7077 febc 5c03 4c3d 2cb4 8d3c
00000190: 4fcf 8238 7d5c 84bd c114 4fbd 9622 363d
000001a0: 6af4 b73b 78cb e9bc b730 b83c 0961 15bc
000001b0: 6110 9a3b 2b14 2a3d 3814 053d 3785 273d
000001c0: 034a 27bd 621c 523a 950e 8bbc 9df6 43bd
000001d0: 05d9 783c bcc2 5fbc 92f4 6bbc 548a 38bd
000001e0: b714 bc3c 608c 02bd 80e0 99bc 8c6a b53c
000001f0: 32a2 71bd 75e8 d8bc 075f da3a f031 1f3d
00000200: 9c89 263c bd91 7938 b57a 4dbd 6109 3e3d
00000210: cd06 663d 0357 8bbc 050b 903c c781 9c3b
00000220: 3fe3 b43c af85 13bd 56db db3c dfff af3b
00000230: d2a7 7dbd e524 1fbd 26d3 60bd a8ae 88bc
00000240: 7b52 9bbc bfed 843d cd1f e2bc 02ab 7abd
00000250: 5fab 65bd 6aea ce3b acba 6abd cee9 ac3c
00000260: 202e 97bc 96eb 8b3d 27cf 673b 7549 163d
00000270: 725e 55bd 8480 5dbd 8522 cb3b b3be 863a
00000280: 0adb 60bd 0d08 843c 2c06 53bb 7377 5dbd
00000290: b4f9 80bc ea6c 59bd 3e57 953c 774f 69bd
000002a0: dfe9 8c3d 6311 093b 1096 493d e253 3e3c
000002b0: 9eee 503d e193 10bd 8530 96bc d7dc 6bbd
000002c0: 9df7 8a3b 0fbe 54bd 8c02 3bbd 230c 7e3d
000002d0: 17e5 37bd 3757 ba3c 8620 19bd d60c 5ebd
000002e0: fb47 2bbd 92fb b23c 6126 49bd 962b 5bbd
000002f0: 82b4 7fbd bca0 7dbc 8044 27bd 6f85 38bd
00000300: a67d 6dbb 6ad5 f3bc 8c2b 6e3d 37a8 d9bb
00000310: 5fd7 993c 8efb 053d c1a9 03bd 3eb6 efbc
00000320: dca8 86bc 2491 fb3c 84a5 5e3d a349 19bd
00000330: 175e 3fbd dc94 463c 007e 0abc e321 003d
00000340: 4b92 bdbc da05 00bd a445 c33c db72 513d
00000350: bc6c 2a3c eee6 0b3d 93b6 cf39 3f58 553d
00000360: 16bb 9e3c a381 853b f63f 273d dce6 6dbb
00000370: da41 7d3d d7af 45bc 933c ebbc 204d 883c
00000380: 497a 2ebc 6773 56bd 299d 20bd d532 fdbc
00000390: 0fb3 73bc c410 31bd 4ba1 34bd 53d8 19bd
000003a0: b788 b3ba 297c 9d3b 4c41 81bc 237d 043a
000003b0: 1f60 183d 50b6 4c3d abb1 5dbc ec7b 67bc
000003c0: 3560 d73c 0df1 823d e64b 2bbd d6ce a2bc
000003d0: fbec 50bb 15d9 0e3d 12e4 83bd b0ad a1ba
000003e0: a8d7 41bd a86b 14bd acaf 44bd 7fe5 dc3c
000003f0: e929 abb9 bbc5 2dbd cc30 223a a71f 533d
