rlgpu/logs/cut_small_delta/model_110.pt (torch, 868312 bytes, 16 tensors)

log_std f4 [3]
-0.19816096 -0.09768855 -0.027917726
00000000: b5ea 4abe ef10 c8bd b7b3 e4bc

actor.0.weight f4 [256, 259]
0.03753932 0.032279678 0.060326625 -0.026388286 -0.066458575 0.09137794 0.05401453 -0.07516963
0.030905848 0.03235621 0.018693084 -0.0667769 0.07003572 -0.07502985 -0.02383633 -0.06884142
-0.014398255 -0.034061257 -0.15597667 0.033374988 0.0606014 -0.071561754 -0.096803136 0.016583491
0.10504909 0.008411734 0.07142506 -0.013655452 -0.00459969 -0.04768146 0.025393683 -0.08751848
0.0272308 0.10658446 0.10476406 -0.016973304 0.06874788 -0.0070120953 -0.05635203 0.025005985
-0.01425882 -0.010741937 0.1721039 0.15205364 -0.08530378 0.1597193 0.07870914 -0.078700945
0.04258206 -0.062292848 -0.015165248 -0.14033031 -0.041157916 0.09662928 -0.039464414 0.056664646
0.23810889 0.110935956 0.026547516 -0.13374177 0.0166922 -0.034127798 -0.0059910626 0.032580685
-0.023331331 0.031327095 -0.07727304 0.10247246 -0.026203422 -0.039389346 -0.078629695 0.07176348
-0.0842452 -0.024234632 -0.0055181696 -0.043693535 -0.23512737 0.008868353 0.034672026 -0.0056574102
0.03907665 0.13102986 -0.091882296 0.0076276595 -0.054326475 0.13501678 -0.06785172 -0.1306755
-0.092731506 -0.08302393 0.069239154 0.08431093 0.009034816 0.034289133 0.19042203 0.148182
-0.03156782 -0.07131114 -0.020106804 0.08651132 0.084687926 -0.09104114 -0.014343053 -0.010593754
0.10643335 -0.050040677 -0.050181337 0.10266716 0.0039009748 0.20450318 -0.032475986 0.11752068
0.030096719 -0.02322548 -0.09624418 -0.104644954 -0.03505976 0.111058466 -0.06177848 -0.01502604
-0.073153 0.15434498 -0.07884215 0.020101719 0.04683039 0.11009792 0.016381403 -0.04757523
0.059143152 0.108338505 0.06878166 0.089167856 -0.07083545 -0.05915387 -0.04688666 0.21229392
-0.05769493 -0.09399564 0.07116556 -0.09652171 0.059314076 -0.18782151 -0.016495401 -0.014731391
-0.09373756 0.033929322 0.13251567 -0.0057149073 -0.076547466 -0.060639426 -0.13275573 0.08451604
-0.16251732 0.033767983 0.0055066654 0.12678787 0.1560739 0.06413627 -0.030324213 0.12586299
0.13001211 0.044356342 -0.12144779 -0.08308036 0.015867699 0.04605752 -0.058542117 -0.028366264
-0.1910734 -0.041345842 0.088802375 -0.15807262 0.061918765 0.104672305 0.06449049 -0.043368965
0.14417133 -0.0659197 -0.087751694 -0.015321338 0.13544044 0.052541338 -0.085772984 0.024408817
-0.20027973 -0.022555484 0.04642279 -0.02009341 -0.11440789 -0.07682137 -0.15794598 -0.038380496
-0.025181986 -0.043260746 0.16449587 0.06800347 0.14248908 -0.022281924 -1.190788e-05 0.16813815
-0.036394157 -0.22820875 0.037001804 0.095154665 0.10558794 -0.026106793 0.09066423 -0.0223011
-0.09608251 -0.1923381 -0.036309678 0.06900608 -0.05328563 -0.08385597 -0.020955402 0.20586295
0.07297058 0.0429941 -0.06554169 0.081400156 0.06648957 -0.0096705835 -0.0031302522 0.014064649
-0.10336747 0.08231907 -0.042817015 -0.113388225 0.11892771 0.056938984 0.09371536 0.048032165
0.09712715 0.076032296 -0.0957856 0.039285157 -0.09020983 -0.14076662 0.047690142 -0.042023253
-0.0030044871 -0.14111528 0.15332825 0.0070478227 0.13122368 0.10424065 0.0081047 0.018514803
0.1732423 -0.00801429 0.10195282 0.00952518 -0.091679424 0.08528979 -0.00026852568 0.03977119
00000000: d4c2 193d b237 043d 0d19 773d 3f2c d8bc
00000010: 6f1b 88bd 5b24 bb3d 573e 5d3d 89f2 99bd
00000020: 432e fd3c f287 043d 3d22 993c 54c2 88bd
00000030: e36e 8f3d 40a9 99bd 6844 c3bc bbfc 8cbd
00000040: a9e6 6bbc d183 0bbd 59b8 1fbe 36b4 083d
00000050: 2c39 783d f88e 92bd b940 c6bd 1ada 873c
00000060: fa23 d73d 5fd1 093c 4d47 923d 1ebb 5fbc
00000070: ffb8 96bb a24d 43bd 6a06 d03c e43c b3bd
00000080: 2013 df3c f448 da3d 8a8e d63d 990b 8bbc
00000090: b0cb 8c3d b8c5 e5bb 63d1 66bd 5ad9 cc3c
000000a0: d39d 69bc f3fe 2fbc 013c 303e f3b3 1b3e
000000b0: c0b3 aebd 758d 233e 4232 a13d f62d a1bd
000000c0: 876a 2e3d c926 7fbd a977 78bc c0b2 0fbe
000000d0: 3495 28bd 92e5 c53d 70a5 21bd 3019 683d
000000e0: d1d2 733e 6432 e33d 2d7a d93c 9af3 08be
000000f0: 15be 883c 97c9 0bbd ad50 c4bb 5373 053d
00000100: 5921 bfbc d750 003d 5441 9ebd 15dd d13d
00000110: 8fa8 d6bc b956 21bd 9b08 a1bd bbf8 923d
00000120: bf88 acbd b587 c6bc c3d1 b4bb fef7 32bd
00000130: 3bc5 70be 924c 113c 4104 0e3d cc61 b9bb
00000140: d60e 203d b12c 063e c92c bcbd 72f1 f93b
00000150: 7085 5ebd d741 0a3e d8f5 8abd cccf 05be
00000160: 04ea bdbd 7308 aabd 42cd 8d3d 35ab ac3d
00000170: c406 143c c372 0c3d fefd 423e 06bd 173e
00000180: 424d 01bd 930b 92bd 06b7 a4bc d92c b13d
00000190: dd70 ad3d c773 babd 20ff 6abc 6d91 2dbc
000001a0: baf9 d93d 74f7 4cbd f28a 4dbd 2943 d23d
000001b0: 7fa7 7f3b 4869 513e 8a05 05bd afae f03d
000001c0: 658d f63c 5d43 bebc ab1b c5bd 1850 d6bd
000001d0: d39a 0fbd 9f72 e33d 6e0b 7dbd c82f 76bc
000001e0: 3dd1 95bd 9c0c 1e3e fe77 a1bd 5cac a43c
000001f0: 39d1 3f3d 057b e13d 4b32 863c 3fde 42bd
00000200: 1740 723d 94e0 dd3d 66dd 8c3d a39d b63d
00000210: 2d12 91bd 544b 72bd 3a0c 40bd 9463 593e
00000220: 8551 6cbd c980 c0bd 40bf 913d 2dad c5bd
00000230: 51f3 723d 4854 40be 5d21 87bc ef5b 71bc
00000240: 7af9 bfbd 79f9 0a3d 30b2 073e 1e44 bbbb
00000250: ebc4 9cbd 0c61 78bd 1ef1 07be bf16 ad3d
00000260: f16a 26be 4c50 0a3d 4271 b43b aed4 013e
00000270: d6d1 1f3e e059 833d 7c6a f8bc 3ae2 003e
00000280: e521 053e ffae 353d 9eb9 f8bd 0926 aabd
00000290: fafc 813c cfa6 3c3d dcc9 6fbd 5e60 e8bc
000002a0: bfa8 43be 425a 29bd 05de b53d cadd 21be
000002b0: 889e 7d3d 6f5e d63d 9713 843d a8a3 31bd
000002c0: a6a1 133e e800 87bd 29b7 b3bd 5906 7bbc
000002d0: e6b0 0a3e 9635 573d bfa9 afbd 00f5 c73c
000002e0: 2116 4dbe 47c6 b8bc d325 3e3d ef9a a4bc
000002f0: af4e eabd 8654 9dbd 97bc 21be de34 1dbd
00000300: 744a cebc 2e32 31bd 9b71 283e 6745 8b3d
00000310: a8e8 113e 9588 b6bc f5c7 47b7 682c 2c3e
00000320: 0a12 15bd 8eaf 69be 348f 173d 73e0 c23d
00000330: 7d3e d83d eadd d5bc 2bae b93d ccb0 b6bc
00000340: e8c6 c4bd 47f4 44be 75b9 14bd 0f53 8d3d
00000350: 0842 5abd aebc abbd aaaa abbc bdcd 523e
00000360: 9971 953d 951a 303d b93a 86bd 20b5 a63d
00000370: af2b 883d 5e71 1ebc eb24 4dbb 6a6f 663c
00000380: 53b2 d3bd e796 a83d e560 2fbd 1638 e8bd
00000390: 5f90 f33d da38 693d d7ed bf3d 60bd 443d
000003a0: 99ea c63d d2b6 9b3d 3e2b c4bd 79e9 203d
000003b0: eebf b8bd 2025 10be bd56 433d 9320 2cbd
000003c0: eee6 44bb 8680 10be 1502 1d3e 6cf1 e63b
000003d0: 805f 063e 1f7c d53d 93c9 043c 5bac 973c
000003e0: 6e66 313e 5e4e 03bc a4cc d03d 800f 1c3c
000003f0: 6cc2 bbbd 6aac ae3d e8c8 8cb9 1ee7 223d

actor.0.bias f4 [256]
-0.004100894 -0.040645614 -0.028248714 -0.026206834 -0.012358896 0.006417561 0.057535835 0.028666724
-0.007323692 0.04663782 0.035894915 0.008643924 0.0703456 0.019761158 -0.015644556 0.0006369326
0.009677493 0.015022555 0.026452204 -0.056396946 0.02007618 -0.0018242664 0.039952382 -0.05625714
0.019004097 -0.05979384 -0.029463924 0.032259308 -0.05868111 -0.04467696 0.04479071 -0.034518786
0.011900546 0.05180925 0.023434225 -0.03310585 -0.060076885 0.043113235 0.059168354 -0.026861755
0.051997073 -0.014437971 0.050246038 0.04153104 -0.061584096 0.049239203 -0.03020495 0.053183597
0.052503686 -0.043716937 -0.04382419 0.049267698 0.0070261415 0.023311712 -0.040642742 -0.037840556
-0.01791404 -0.013529352 -0.015387284 0.024200043 0.016318293 -0.046922144 -0.05869552 0.069710545
-0.074679606 -0.05909264 -0.016358186 0.010627788 0.035003945 -0.022396056 -0.023710243 -0.006800965
0.0425274 -0.019119497 0.017209876 -0.023849925 -0.0026913485 0.01592501 -0.02449199 -0.04216319
0.029304044 -0.04783667 -0.061069544 0.049277753 0.029783284 -0.055365376 -0.05862956 -0.044803597
0.023874125 -0.050946243 -0.057926197 0.043141622 -0.02203442 -0.009093282 -0.03401982 0.023085762
0.029004822 0.057598755 -0.028643152 0.015549249 -0.015722774 -0.01492061 -0.050728764 -0.061659776
0.004669648 -0.04060231 0.02574833 -0.0017676135 0.001036827 0.00102547 -0.01485262 0.03152573
0.026360743 -0.040652797 0.0037640308 0.027979268 -0.029764209 -0.022408923 -0.023191117 -0.05570933
-0.018766424 -0.014956408 -0.004601052 -0.063539475 0.018701848 0.060262788 -0.0341642 -0.031215746
-0.018141937 -0.030518536 0.050782625 0.034018885 -0.058575537 -0.009363417 -0.010891464 -0.040449686
-0.040539633 -0.045774467 -0.045968227 -0.01655683 -0.06151326 0.031296838 0.031134628 0.04306537
0.06832186 -0.00069735973 0.021542875 0.0027754724 0.0051284195 0.024463797 0.04501599 0.035872705
-0.014935151 0.04977841 0.05906655 0.04107757 -0.04857702 0.04129898 -0.011651773 -0.0492397
-0.059237134 0.019566247 0.018159783 0.03147544 -0.026944138 -0.063949645 0.078175604 -0.0021124065
0.020250427 -0.01675672 -0.053831927 0.054662738 0.012109215 0.036562085 -0.040632598 0.0060274727
0.034161866 0.055026393 0.015520263 0.06631181 -0.04612609 -0.047146678 -0.04889272 0.058314923
0.026226798 0.0056410674 0.038412385 -0.026686609 -0.051363368 -0.009184403 -0.0055383174 -0.024539988
-0.031093681 -0.05821093 -0.044956245 -0.021187961 0.03373802 0.061325528 0.024398116 0.075137645
-0.06476301 0.027320577 0.052808836 -0.004258166 -0.04783662 0.021919027 -0.026596751 -0.024788948
0.034098074 -0.01748315 -0.04361271 -0.016604092 0.035184264 -0.03578471 0.05336643 0.019027071
-0.0003176118 -0.013373023 -0.01946645 -0.039634667 -0.042792156 -0.056559835 -0.01584427 0.01276962
0.046586696 0.038188852 -0.0074061607 0.021035071 0.052752282 0.07320067 -0.04786468 -0.052492693
0.019987436 -0.033752788 -0.0091582555 -0.06612585 -0.04670189 0.007682006 -0.038945187 -0.070005305
-0.008745297 0.021383058 -0.040205233 -0.004938009 -0.05616603 0.053867094 0.03552621 -0.030821709
0.008188387 0.0037974536 0.034872796 0.037300125 0.049925428 0.023770759 0.01627531 0.038562108
00000000: cb60 86bb 047c 26bd d969 e7bc b7af d6bc
00000010: f87c 4abc 674a d23b b2aa 6b3d 7ad6 ea3c
00000020: 95fb efbb 4c07 3f3d 8c06 133d 3f9f 0d3c
00000030: 5b11 903d 27e2 a13c 0329 80bc d3f7 263a
00000040: 598e 1e3c 2a21 763c 4bb2 d83c 7c00 67bd
00000050: cd76 a43c 391c efba 1ca5 233d e36d 66bd
00000060: 7bae 9b3c 63ea 74bd 545e f1bc 5622 043d
00000070: 9b5b 70bd 30ff 36bd 7776 373d 9263 0dbd
00000080: 82fa 423c f035 543d 22f9 bf3c 009a 07bd
00000090: 2e13 76bd 8197 303d 845a 723d 2f0d dcbc
000000a0: e2fa 543d 3d8d 6cbc cace 4d3d 741c 2a3d
000000b0: 9b3f 7cbd 0caf 493d 5f70 f7bc 0bd7 593d
000000c0: 1b0e 573d 8810 33bd fe80 33bd edcc 493d
000000d0: 8c3b e63b 34f8 be3c 0179 26bd b3fe 1abd
000000e0: 77c0 92bc 37aa 5dbc f21a 7cbc 2b3f c63c
000000f0: f1ad 853c 6f31 40bd b76a 70bd 67c4 8e3d
00000100: 9ff1 98bd 200b 72bd 9a01 86bc 2c20 2e3c
00000110: 4c60 0f3d ef77 b7bc fc3b c2bc a1da debb
00000120: 3631 2e3d 7ea0 9cbc bafb 8c3c eb60 c3bc
00000130: 5661 30bb 2b75 823c 6da3 c8bc 4fb3 2cbd
00000140: 090f f03c 62f0 43bd 0f24 7abd 78d7 493d
00000150: 13fc f33c cec6 62bd 8d25 70bd fa83 37bd
00000160: ab93 c33c 02ad 50bd 0544 6dbd 45b5 303d
00000170: 8781 b4bc fdfb 14bc 5e58 0bbd 5a1e bd3c
00000180: 859b ed3c acec 6b3d 0ba5 eabc 47c2 7e3c
00000190: 0ccd 80bc 9375 74bc f7c8 4fbd f68e 7cbd
000001a0: d903 993b 9c4e 26bd 29ee d23c 44af e7ba
000001b0: 24e6 873a 1069 863a 6758 73bc 2021 013d
000001c0: 7cf2 d73c 8c83 26bd f5ad 763b c734 e53c
000001d0: 12d4 f3bc eb92 b7bc 4cfb bdbc 772f 64bd
000001e0: 0bbc 99bc b90b 75bc 6cc4 96bb fc20 82bd
000001f0: 9e34 993c 1dd6 763d c3ef 0bbd 2ab8 ffbc
00000200: 669e 94bc 0202 fabc 7101 503d 6357 0b3d
00000210: e7ec 6fbd 0469 19bc 1c72 32bc 92ae 25bd
00000220: e30c 26bd 027e 3bbd 2e49 3cbd 30a2 87bc
00000230: 54f5 7bbd 1d31 003d 0c0e ff3c 5065 303d
00000240: 55ec 8b3d 05cf 36ba af7a b03c b3e4 353b
00000250: 4d0c a83b 4d68 c83c b062 383d 42ef 123d
00000260: 90b2 74bc 72e4 4b3d c4ef 713d f440 283d
00000270: b3f8 46bd 1f29 293d 14e7 3ebc 91af 49bd
00000280: a3a2 72bd 6549 a03c d3c3 943c 64ec 003d
00000290: f4b9 dcbc 08f8 82bd 881a a03d 4d70 0abb
000002a0: 39e4 a53c 6445 89bc de7e 5cbd 09e6 5f3d
000002b0: bb65 463c 20c2 153d 5e6e 26bd 1b82 c53b
000002c0: 50ed 0b3d 5b63 613d b448 7e3c 7cce 873d
000002d0: b6ee 3cbd e01c 41bd bc43 48bd a1db 6e3d
000002e0: 95d9 d63c b4d8 b83b 4e56 1d3d e09d dabc
000002f0: 6562 52bd 2e7a 16bc c67a b5bb 1608 c9bc
00000300: 2db8 febc 966e 6ebd 0a24 38bd 6092 adbc
00000310: e130 0a3d 7a30 7b3d 8fde c73c c4e1 993d
00000320: 78a2 84bd 67cf df3c 144e 583d 1688 8bbb
00000330: 55f0 43bd 888f b33c 6ee1 d9bc 3112 cbbc
00000340: 6caa 0b3d d338 8fbc 3ea3 32bd 4e05 88bc
00000350: 601d 103d fd92 12bd c296 5a3d a9de 9b3c
00000360: 2285 a6b9 861a 5bbc 1b78 9fbc f657 22bd
00000370: d446 2fbd 49ab 67bd d8cb 81bc ab37 513c
00000380: b1d1 3e3d ea6b 1c3d 61af f2bb be51 ac3c
00000390: c712 583d 3cea 953d c10d 44bd 9402 57bd
000003a0: b1bc a33c 5d40 0abd 820c 16bc fd6c 87bd
000003b0: 7b4a 3fbd 56b9 fb3b fd84 1fbd f15e 8fbd
000003c0: 6f48 0fbc 862b af3c 3eae 24bd 06cf a1bb
000003d0: 5a0e 66bd bea3 5c3d ee83 113d cf7d fcbc
000003e0: 9628 063c b3de 783b c7d6 0e3d 04c8 183d
000003f0: 9b7e 4c3d e5ba c23c cd53 853c 4df3 1d3d

actor.2.weight f4 [128, 256]
-0.03661497 0.15786403 -0.14701484 -0.015933167 -0.059276313 -0.14718162 0.04199517 0.08793947
0.012281913 0.158598 -0.076683536 -0.08396777 -0.059667837 0.11305187 0.013125643 0.04828545
-0.15769342 -0.080715895 -0.09675287 0.1289399 0.22871058 -0.021208698 -0.13822886 0.07160847
-0.17667645 -0.15050784 0.022141464 0.023135839 -0.06490016 0.018691102 -0.034573376 -0.027079504
0.026871251 0.013169275 0.07874208 0.021973196 -0.20165505 0.005202508 0.065232016 -0.059908703
0.09415971 0.11850185 -0.047580976 0.02935471 0.043762274 -0.08821561 0.014215911 0.016924724
0.03916521 -0.1780656 -0.013356468 0.083088845 -0.029304683 -0.10483271 0.044910464 -0.044336684
-0.1607441 0.027520409 0.014951973 -0.044344615 -0.026773589 0.14184071 0.08926267 -0.21946669
0.048678838 -0.11516587 0.022803778 -0.08106281 -0.0009778125 -0.06164836 -0.07660935 -0.06963573
-0.08693051 -0.0018911248 -0.02595573 0.11695568 -0.10929854 0.021628596 -0.018933212 0.045324124
0.03382558 -0.00017068417 0.08552099 -0.18078384 0.055067066 -0.03502515 -0.0995612 0.23931153
-0.02692116 -0.078415915 -0.031580824 0.009334464 0.07155961 0.023292476 -0.008637484 0.06276372
0.0019906117 0.0036106145 -0.03856758 0.025227005 -0.13144174 0.15335427 0.055004295 0.14718865
0.05340684 -0.04282205 0.06258857 0.04683401 -0.09219281 0.018398903 0.054903585 0.018111901
-0.08647964 0.015992587 -0.10220018 -0.11653485 0.06006164 -0.006725573 -0.066703975 -0.01921996
-0.02782674 0.17121899 0.04280533 -0.10443138 -0.08537037 0.08419018 0.06358149 0.099154174
0.056862194 0.02051144 0.056620926 0.074126236 -0.071428105 0.15433219 -0.07420931 0.014501707
-0.016099153 0.1429145 -0.12760119 -0.16830316 0.09364938 0.021930354 0.008725382 -0.16035745
0.0011555259 -0.10444975 0.066682085 0.0294506 0.01954907 0.06962824 0.055472344 0.043654907
-0.02444317 0.11079114 -0.00719513 0.012280875 0.018618695 -0.119448006 -0.039719675 -0.053723104
0.24180211 -0.15068269 0.012051952 -0.01680921 0.02051002 -0.17448108 0.027522659 -0.13438207
0.06363475 -0.02643451 0.02392042 0.05288446 -0.103586055 0.052078944 0.019961689 -0.00060630275
-0.07677642 0.17054647 0.1041038 0.017135313 -0.056136437 -0.07984326 -0.13966708 0.10402258
-0.0020885959 0.07124543 -0.00012013244 0.08887417 -0.05545035 -0.0014619537 0.04296151 0.14260472
0.024038553 0.056730766 0.062141243 0.0028751655 0.025154062 -0.024333272 0.089618035 -0.0033343001
0.07482524 0.02940168 -0.12802252 -0.045349777 -0.011718933 -0.078376435 0.0070682396 0.085728996
0.06703204 -0.07322396 -0.010399777 -0.15671776 0.053315207 -0.11885078 0.0628585 -0.13333435
0.002604941 -0.14162144 0.083183855 -0.08416036 0.04514572 -0.048443757 0.026491191 0.07341693
0.07769184 -0.08318637 0.09281524 -0.052854072 0.07593067 -0.08717162 0.16643336 -0.12817566
0.013276892 0.010821095 -0.09185927 -0.011583463 -0.09848909 0.046791404 -0.048493925 -0.046647772
0.089476466 -0.0066311094 0.012431938 -0.14338987 0.028231869 0.20353846 -0.11943817 -0.13212998
0.12510109 0.017251603 -0.0015441565 -0.11740407 -0.119060785 -0.046789955 0.11504466 -0.05850133
00000000: 94f9 15bd 1ca7 213e 0f8b 16be 4686 82bc
00000010: b8cb 72bd c7b6 16be 2103 2c3d 9c19 b43d
00000020: 143a 493c 8467 223e 420c 9dbd 4bf7 abbd
00000030: 4366 74bd bd87 e73d f00c 573c f7c6 453d
00000040: 627a 21be 604e a5bd 5e26 c6bd d208 043e
00000050: 1b33 6a3e ddbd adbc de8b 0dbe 76a7 923d
00000060: acea 34be ba1e 1abe 0462 b53c 5f87 bd3c
00000070: 60ea 84bd 151e 993c d09c 0dbd d6d5 ddbc
00000080: 1921 dc3c f1c3 573c 8743 a13d 2201 b43c
00000090: a97e 4ebe cd79 aa3b 5d98 853d d462 75bd
000000a0: ced6 c03d 19b1 f23d 45e4 42bd 4a79 f03c
000000b0: 1240 333d 63aa b4bd dae9 683c b8a5 8a3c
000000c0: b36b 203d d456 36be 16d5 5abc 7c2a aa3d
000000d0: 6010 f0bc 88b2 d6bd 09f4 373d 629a 35bd
000000e0: 1a9a 24be 7b72 e13c 1ff9 743c b3a2 35bd
000000f0: 4954 dbbc b13e 113e 59cf b63d e0bb 60be
00000100: 7663 473d 15dc ebbd fdce ba3c 4204 a6bd
00000110: f129 80ba fe82 7cbd 5de5 9cbd 2d9d 8ebd
00000120: a008 b2bd 9edf f7ba 1ca1 d4bc 7686 ef3d
00000130: ead7 dfbd 742e b13c d319 9bbc caa5 393d
00000140: b18c 0a3d aff9 32b9 a125 af3d 661f 39be
00000150: 018e 613d 8876 0fbd bee6 cbbd 150e 753e
00000160: c489 dcbc 8698 a0bd e55a 01bd 94ef 183c
00000170: d88d 923d ddcf be3c 3c84 0dbc 448a 803d
00000180: ec74 023b 0fa0 6c3b 0af9 1dbd dda8 ce3c
00000190: aa98 06be e708 1d3e 2f4c 613d 9fb8 163e
000001a0: 21c1 5a3d 2d66 2fbd 702e 803d 05d5 3f3d
000001b0: 95cf bcbd 4cb9 963c 95e2 603d 695f 943c
000001c0: 3d1c b1bd e302 833c 544e d1bd d3a9 eebd
000001d0: 3203 763d 3262 dcbb 189c 88bd 2d73 9dbc
000001e0: e7f4 e3bc 0854 2f3e a454 2f3d 1fe0 d5bd
000001f0: a9d6 aebd e76b ac3d 0337 823d 5811 cb3d
00000200: 55e8 683d 9b07 a83c 58eb 673d 7fcf 973d
00000210: e648 92bd 4209 1e3e 0dfb 97bd 9198 6d3c
00000220: 5fe2 83bc 2e58 123e e3a9 02be aa57 2cbe
00000230: 3fcb bf3d 49a7 b33c e8f4 0e3c be34 24be
00000240: 0475 973a c0e9 d5bd 9e90 883d 6242 f13c
00000250: 5f25 a03c 4099 8e3d f836 633d 7dcf 323d
00000260: 0b3d c8bc 77e6 e23d 20c5 ebbb b935 493c
00000270: 3c86 983c 28a1 f4bd 19b1 22bd c20c 5cbd
00000280: f99a 773e 904c 1abe 8d75 453c 78b3 89bc
00000290: a104 a83c 2bab 32be 3377 e13c 749b 09be
000002a0: f052 823d 2f8d d8bc c2f4 c33c 609d 583d
000002b0: ed24 d4bd bb50 553d b286 a33c 4af0 1eba
000002c0: f53c 9dbd bca3 2e3e 6034 d53d 5b5f 8c3c
000002d0: 52ef 65bd dd84 a3bd e304 0fbe ca09 d53d
000002e0: d3e0 08bb 20e9 913d 9def fbb8 a903 b63d
000002f0: e81f 63bd 079f bfba 69f8 2f3d f906 123e
00000300: 80ec c43c 855e 683d d187 7e3d 466d 3c3b
00000310: e40f ce3c 9256 c7bc a989 b73d 4684 5abb
00000320: fa3d 993d cbdb f03c 5618 03be b0c0 39bd
00000330: c400 40bc d383 a0bd b19c e73b af92 af3d
00000340: 1848 893d 72f6 95bd d463 2abc 9f7a 20be
00000350: 0c61 5a3d 0a68 f3bd f5bb 803d cd88 08be
00000360: a8b7 2a3b 3605 11be 4c5c aa3d 445c acbd
00000370: b8ea 383d f66c 46bd 0e04 d93c 9e5b 963d
00000380: e61c 9f3d 9e5d aabd eb15 be3d 837d 58bd
00000390: 8a81 9b3d 0987 b2bd 826d 2a3e 7b40 03be
000003a0: 5287 593c f64a 313c b720 bcbd 91c8 3dbc
000003b0: a6b4 c9bd 58a8 3f3d 91a1 46bd bc11 3fbd
000003c0: 703f b73d c749 d9bb 54af 4b3c cbd4 12be
000003d0: 8546 e73c 636c 503e 009c f4bd 154d 07be
000003e0: 801a 003e 3c53 8d3c 4b65 caba 8c71 f0bd
000003f0: 24d6 f3bd d3a6 3fbd 899c eb3d 179f 6fbd

actor.2.bias f4 [128]
-0.024076017 0.030403666 -0.041624244 -0.03348491 -0.02636877 0.042843066 -0.0016376075 -0.03196025
0.002520759 0.055914156 -0.008394648 0.04754605 -0.067027204 -0.06924199 -0.009891719 -0.053959608
0.006149175 -0.03993163 -0.025370168 0.01575705 0.026701638 -0.03848607 -0.058273822 0.05621059
-0.05664245 -0.035405632 -0.023413064 0.041022893 -0.038410254 -0.014524555 0.042716846 0.03853174
-0.011032186 -0.046386264 0.035149664 -0.012115337 -0.010635897 0.040807307 0.0055966615 -0.05857324
0.01414215 0.006726962 -0.03274778 -0.01351234 0.0057643186 -0.052548632 0.008966649 -0.060521804
-0.033104833 0.04884783 -0.069253944 -0.010885052 -0.03144079 -0.023390299 0.02157946 0.028480534
-0.03583615 0.042122368 -0.018849958 -0.010600721 0.03983794 0.02117472 0.029298937 0.024269724
0.01268064 0.039818205 -0.0119774835 0.0064459387 0.03671314 -0.008457556 0.044599213 -0.04651942
0.007162656 -0.036590334 -0.050326463 0.04841853 -0.028963797 0.033213224 -0.02464953 -0.016315894
0.0050938325 -0.056107983 0.030266281 0.0098307645 -0.045914043 0.046304654 0.049987864 -0.053328495
0.039298765 -0.059859507 -0.05176231 -0.030014392 -0.052382357 -0.035081048 0.02464304 0.00860706
-0.039411325 0.006357632 -0.004333195 -0.0037138483 0.03551828 0.016517485 -0.055346817 -0.053639937
-0.059397023 -0.028039452 0.05177461 0.007003179 -0.034293663 -0.06337117 0.038203154 -0.018081194
-0.05292531 -0.02983788 0.059627783 0.027016945 -0.017826773 0.020874249 0.052150294 -0.04501866
-0.054474246 -0.025312355 -0.024408154 -0.056312513 -0.060806707 -0.029080268 0.004158254 0.009243055
00000000: 113b c5bc 1c11 f93c 2f7e 2abd 7927 09bd
00000010: 5203 d8bc 367c 2f3d fda4 d6ba c0e8 02bd
00000020: 5133 253b 3e06 653d b589 09bc a6bf 423d
00000030: 8f45 89bd bfce 8dbd e010 22bc c004 5dbd
00000040: 057f c93b 598f 23bd 19d5 cfbc ee14 813c
00000050: 65bd da3c 92a3 1dbd 88b0 6ebd 133d 663d
00000060: ea01 68bd 7f05 11bd c1cc bfbc 9f07 283d
00000070: 1254 1dbd 66f8 6dbc dcf7 2e3d 75d3 1d3d
00000080: 58c0 34bc 86ff 3dbd 18f9 0f3d 687f 46bc
00000090: 2f42 2ebc 9025 273d 3364 b73b 7eea 6fbd
000000a0: 7ab4 673c d96d dc3b 8922 06bd dd62 5dbc
000000b0: 9ce2 bc3b 3c3d 57bd dae8 123c b6e5 77bd
000000c0: ef98 07bd aa14 483d 03d5 8dbd 3857 32bc
000000d0: 0fc8 00bd 039d bfbc 68c7 b03c 0250 e93c
000000e0: edc8 12bd 8188 2c3d 3a6b 9abc a6ae 2dbc
000000f0: 1c2d 233d 9b76 ad3c 5304 f03c 4dd1 c63c
00000100: 76c2 4f3c 6a18 233d 353d 44bc 7438 d33b
00000110: 8460 163d 9091 0abc aaad 363d 268b 3ebd
00000120: b7b4 ea3b bfdf 15bd 1f23 4ebd 8252 463d
00000130: 7c45 edbc 970a 083d d0ed c9bc e9a8 85bc
00000140: 2aea a63b 7cd1 65bd fef0 f73c 3711 213c
00000150: 5d10 3cbd f3a9 3d3d 13c0 4c3d fb6e 5abd
00000160: bef7 203d 3e2f 75bd b704 54bd bee0 f5bc
00000170: e28e 56bd 25b1 0fbd 33e0 c93c a004 0d3c
00000180: c56d 21bd af53 d03b 79fd 8dbb 0964 73bb
00000190: 9e7b 113d ad4f 873c 58b3 62bd 8db5 5bbd
000001a0: 4b4a 73bd feb2 e5bc 9d11 543d ec7a e53b
000001b0: 8377 0cbd bec8 81bd e97a 1c3d 031f 94bc
000001c0: 36c8 58bd 926e f4bc 433c 743d a452 dd3c
000001d0: 7409 92bc 7900 ab3c 8c9b 553d 7d65 38bd
000001e0: 6320 5fbd db5b cfbc 9cf3 c7bc f3a7 66bd
000001f0: 7410 79bd be39 eebc f641 883b 2f70 173c

actor.4.weight f4 [64, 128]
-0.07355164 -0.009811367 0.10456973 -0.114250556 -0.100551 -0.01794706 0.07926203 -0.26637942
0.054377828 -0.2729006 0.1303285 0.16567455 -0.08797186 0.034717493 0.0319229 -0.08316162
0.14582162 -0.07213053 0.2024049 -0.09113533 -0.055186085 -0.0027917789 0.13553157 -0.024418803
-0.09623266 0.04157577 0.101290904 -0.20234497 0.06166792 -0.0560535 0.019425131 0.13102967
-0.006781381 0.28541934 -0.052208275 0.055397324 0.035497718 0.019655798 -0.02591316 -0.09251358
-0.014356793 -0.008707718 -0.19580753 -0.18138286 0.01076527 0.089904375 0.0567767 -0.06622599
-0.047950357 0.08686561 0.111558124 0.08694567 0.32634985 -0.12672083 0.011076535 -0.020993723
0.14524339 -0.26160347 0.035704657 -0.058674544 -0.028835293 -0.014638256 0.21926099 0.11209363
0.29827538 0.016575519 -0.3463457 0.07814575 -0.09301127 -0.07684897 -0.079757065 0.1668785
0.2433886 0.3351546 0.20437011 0.014880031 -0.11330942 0.019674141 0.16796182 -0.13881606
-0.12250546 0.015928522 0.09524985 -0.011319937 -0.22649592 -0.10921082 -0.073912844 -0.0821788
0.16295096 -0.21967942 -0.047688078 -0.090775385 -0.041684207 0.07079502 0.05013095 0.010886207
0.016888265 -0.09905722 0.05464095 -0.06514129 0.00042892818 -0.047564577 -0.015634378 0.0547146
-0.07937725 -0.069682635 -0.045259316 -0.046392765 0.056212895 0.13830385 0.13737488 0.113081075
0.15114692 0.083940126 -0.21378976 0.09946466 0.060636755 -0.053199258 -0.119458206 -0.15200827
-0.19667585 0.17840293 -0.1270481 0.011176062 0.15849917 0.18382236 -0.028287556 0.075591885
0.023929676 -0.03495025 0.17325231 0.07151728 0.050128933 -0.20911762 -0.16715859 -0.08731186
0.19444072 0.06688155 0.13438663 -0.1127905 0.1709512 0.1915775 -0.09897417 -0.07645175
0.3295275 0.15591678 0.115514815 -0.20194294 -0.026417363 0.039560612 -0.077840924 -0.3228074
0.046329584 0.0042214696 0.013583691 -0.013272321 0.118112534 0.075174116 -0.1933115 0.005020242
0.0978508 0.16411233 0.07922202 0.1601009 0.087643676 0.058340874 0.12240189 0.19280808
-0.12815462 -0.1789847 0.035999928 0.14864734 0.23538722 0.0044040885 -0.07988999 0.054847445
0.18773355 0.12992425 -0.049346693 -0.11566607 0.030784652 -0.22283186 -0.026052644 0.08041712
-0.018183313 0.07473565 -0.107481934 0.19924046 0.013876141 -0.17293331 -0.23025455 -0.015196658
0.008298984 -0.09757915 0.20689534 -0.021736054 -0.015728937 -0.15609956 -0.12549068 0.15802693
-0.08702722 0.15686691 -0.15678753 -0.29870787 0.100381054 -0.06687075 0.13890736 0.019017765
-0.08917718 -0.19033258 0.040139858 0.040319923 -0.044674784 -0.20121181 -0.034553684 0.32334843
0.11870606 -0.0017197271 -0.056136727 -0.02735955 -0.039618835 -0.0020926772 -0.0914843 0.054409806
0.002767832 0.07234813 0.055398278 -0.13631803 -0.05071466 -0.21436934 0.09018741 0.194151
-0.17657338 0.121979326 -0.061506055 -0.11625979 0.12323213 -0.120290495 -0.028141608 0.074910164
0.06070633 0.10253366 0.055869132 0.15558949 -0.14013363 -0.07066059 -0.077871606 -0.041830625
-0.014498515 -0.119566694 -0.048728637 0.16937551 0.023889253 -0.13515018 -0.21409681 0.06352851
00000000: 3ea2 96bd dbbf 20bc a828 d63d 32fc e9bd
00000010: afed cdbd b605 93bc 2254 a23d e262 88be
00000020: 49bb 5e3d a1b9 8bbe d674 053e 97a6 293e
00000030: 972a b4bd ee33 0e3d 96c1 023d a450 aabd
00000040: 4352 153e 2cb9 93bd 3b43 4f3e 29a5 babd
00000050: ce0a 62bd 47f6 36bb cac8 0a3e f109 c8bc
00000060: a115 c5bd 5b4b 2a3d 9b71 cf3d 8533 4fbe
00000070: 8097 7c3d 5b98 65bd 7421 9f3c a42c 063e
00000080: 5936 debb 7c22 923e 58d8 55bd 4ee8 623d
00000090: 0e66 113d 3205 a13c d647 d4bc c377 bdbd
000000a0: c138 6bbc d1aa 0ebc c581 48be 6ebc 39be
000000b0: d160 303c c91f b83d af8e 683d 7ea1 87bd
000000c0: 9867 44bd 99e6 b13d 9678 e43d 9210 b23d
000000d0: 5417 a73e 1bc3 01be 5b7a 353c 07fb abbc
000000e0: afba 143e e4f0 85be 0c3f 123d b854 70bd
000000f0: fe37 ecbc 4cd5 6fbc f485 603e 5891 e53d
00000100: 8db7 983e 62c9 873c 3954 b1be e10a a03d
00000110: b17c bebd fe62 9dbd ac57 a3bd 33e2 2a3e
00000120: dc3a 793e 6299 ab3e 6646 513e 60cb 733c
00000130: c50e e8bd aa2b a13c 2ffe 2b3e cc25 0ebe
00000140: 25e4 fabd 887c 823c 5a12 c33d 4277 39bc
00000150: 8cee 67be eca9 dfbd 9e5f 97bd 5c4d a8bd
00000160: 9edc 263e a4f3 60be 9354 43bd 72e8 b9bd
00000170: 0fbd 2abd fbfc 903d 1c56 4d3d 105c 323c
00000180: 4259 8a3c 83de cabd 30cf 5f3d cc68 85bd
00000190: c4e1 e039 13d3 42bd ab13 80bc 6b1c 603d
000001a0: 8a90 a2bd c5b5 8ebd d561 39bd 5706 3ebd
000001b0: 7e3f 663d 869f 0d3e 00ac 0c3e 0d97 e73d
000001c0: 42c6 1a3e cde8 ab3d b4eb 5abe 21b4 cb3d
000001d0: 3f5e 783d 77e7 59bd 81a6 f4bd 0ea8 1bbe
000001e0: 6565 49be 42af 363e e618 02be cd1b 373c
000001f0: 9b4d 223e ee3b 3c3e 4ebb e7bc ebcf 9a3d
00000200: 2b08 c43c fe27 0fbd 0e69 313e a777 923d
00000210: ff53 4d3d ee22 56be 9f2b 2bbe 8fd0 b2bd
00000220: 781b 473e 32f9 883d a69c 093e b5fe e6bd
00000230: d50d 2f3e e42c 443e f8b2 cabd bc92 9cbd
00000240: d4b7 a83e a6a8 1f3e 0893 ec3d 21ca 4ebe
00000250: 3a69 d8bc 4f0a 223d 106b 9fbd 0347 a5be
00000260: 17c4 3d3d 4154 8a3b 218e 5e3c 2674 59bc
00000270: fce4 f13d e3f4 993d 73f3 45be d880 a43b
00000280: 0066 c83d 100d 283e 283f a23d 7ef1 233e
00000290: 877e b33d d7f6 6e3d d8ad fa3d 7b6f 453e
000002a0: f73a 03be c447 37be a974 133d 0237 183e
000002b0: 5909 713e 2c50 903b 5d9d a3bd b7a7 603d
000002c0: 393d 403e dd0a 053e c21f 4abd 55e2 ecbd
000002d0: 1830 fc3c 092e 64be 5b6c d5bc bbb1 a43d
000002e0: 2cf5 94bc 010f 993d 7d1f dcbd b105 4c3e
000002f0: c158 633c 6e15 31be d9c7 6bbe 67fb 78bc
00000300: 76f8 073c 94d7 c7bd 5fdc 533e cf0f b2bc
00000310: f9d9 80bc 90d8 1fbe a180 00be d0d1 213e
00000320: 543b b2bd b8a1 203e e98c 20be 3df0 98be
00000330: 9594 cd3d 88f3 88bd bb3d 0e3e 25cb 9b3c
00000340: 86a2 b6bd 8be6 42be b169 243d 8126 253d
00000350: e8fc 36bd 780a 4ebe 2a88 0dbd ed8d a53e
00000360: 2a1c f33d 7768 e1ba a0ef 65bd 2321 e0bc
00000370: 5c47 22bd 4c25 09bb 1f5c bbbd d1dc 5e3d
00000380: 8464 353b 422b 943d 4ee9 623d f496 0bbe
00000390: 2dba 4fbd a383 5bbe 2db4 b83d 85cf 463e
000003a0: a7cf 34be 4cd0 f93d c6ed 7bbd 9d19 eebd
000003b0: 2161 fc3d dd5a f6bd 3b89 e6bc 806a 993d
000003c0: 33a7 783d 2bfd d13d 08d7 643d da52 1f3e
000003d0: 317f 0fbe 80b6 90bd 267b 9fbd 9756 2bbd
000003e0: 2e8b 6dbc 62df f4bd ae97 47bd c670 2d3e
000003f0: 65b3 c33c cf64 0abe 323c 5bbe 3c1b 823d

actor.4.bias f4 [64]
-0.013839439 -0.018733032 -0.072949044 -0.012456335 -0.10570911 0.046753433 0.03434521 0.041879933
-0.09139527 0.013548693 0.0018241049 -0.047079027 0.041158244 0.025055623 -0.0063551823 0.011366344
0.037661884 -0.027115617 0.024134433 -0.07087234 0.029501697 -0.093383946 -0.023262773 -0.01983499
0.090717725 0.062212884 0.046350516 -0.0049397256 0.08353018 0.0532641 -0.06469334 -0.10575265
-0.084323265 0.055004403 -0.051209513 -0.013768433 0.04639059 -0.013097987 0.0016189326 0.042019088
-0.03117784 -0.043571692 -0.054995187 -0.05959316 -0.038708545 -0.02840189 0.04517142 -0.097401984
-0.024566244 -0.03482141 0.020521041 0.0881268 -0.007968006 -0.100046195 0.05517679 0.027786992
0.039018195 -0.057224322 -0.026417213 -0.06395246 -0.0715437 0.07059325 0.025979744 -0.08363862
00000000: d0be 62bc 0476 99bc 4f66 95bd a815 4cbc
00000010: 057e d8bd 8780 3f3d 90ad 0c3d 4b8a 2b3d
00000020: 712d bbbd 56fb 5d3c ce16 ef3a f0d5 40bd
00000030: 8c95 283d 7341 cd3c 223f d0bb e739 3a3c
00000040: 5943 1a3d 9221 debc 93b5 c53c 8425 91bd
00000050: 8bad f13c 1540 bfbd 9291 bebc fd7c a2bc
00000060: 37ca b93d f0d2 7e3d 0ada 3d3d 6cdd a1bb
00000070: df11 ab3d 752b 5a3d f17d 84bd d894 d8bd
00000080: adb1 acbd 4c4c 613d 11c1 51bd fe94 61bc
00000090: 0f04 3e3d f098 56bc 5d32 d43a 351c 2c3d
000000a0: ab68 ffbc 3b78 32bd a242 61bd f517 74bd
000000b0: da8c 1ebd 15ab e8bc ab05 393d b17a c7bd
000000c0: 263f c9bc e5a0 0ebd be1b a83c d37b b43d
000000d0: 3d8c 02bc 05e5 ccbd 0f01 623d 8ca1 e33c
000000e0: 8bd1 1f3d 0d64 6abd e968 d8bc 82f9 82bd
000000f0: 8185 92bd 3293 903d 79d3 d43c ba4a abbd

actor.6.weight f4 [3, 64]
-0.0026427163 -0.0047206366 -0.0037362839 -0.0015103719 -0.0030396325 -0.002440581 -0.0037047584 -0.0014730142
-0.001414915 -0.006205106 -0.002741683 -0.0042334027 -0.0026987134 -0.0027336166 0.00986218 -0.0024983864
0.00032878525 -0.004645263 0.0013651897 0.00694277 -0.0035356593 -0.0032741416 -0.0010194819 -0.0049212635
0.0016796495 -0.0027434768 -0.0066345427 -0.0032733022 0.005100282 -0.0030253292 -0.0010675663 -0.0033647427
-0.0029261806 0.00209169 0.0028305291 0.008290567 -0.004261433 -0.0041165245 -0.0034648983 -0.003854027
-0.0042148903 -0.0059576062 0.002632176 -0.0034622161 -0.0034530703 0.0044092755 -0.010354534 -0.005152157
-0.007629781 -0.003406083 -0.0026612298 0.0024777993 -0.0060024434 -0.002484969 -0.0024144433 -0.0040972354
-0.0028174373 -0.0033508446 -0.0019260389 0.010273666 -0.0009815998 0.0042389696 -0.00079426286 -0.0029686918
-0.006050364 -0.010269007 -0.0071617807 -0.0037395356 -0.00493556 0.00088827976 -0.005609714 -0.0066868905
-0.006036457 -0.003288643 -0.005223251 -0.0071969065 -0.0059480676 0.0005283521 -0.01256093 -0.0069798753
-0.004253257 -0.0053310813 0.0057920706 -0.012006897 -0.007951416 -0.005557692 -0.007525548 -0.003641339
-0.0001252575 -0.0067105815 -0.008181477 -0.004819492 -0.00783926 -0.0078474125 -0.0049852915 -0.0065884753
-0.006470453 -0.0017132916 0.00833666 -0.011840965 -0.0048455326 -0.0055750087 -0.0022592668 -0.0032558693
-0.0036770373 -0.00457071 0.0005853342 -0.0053540748 -0.0034728458 -0.0007074088 -0.006172979 -0.005701111
-0.006049328 -0.0043171607 -0.0052104588 -0.0025591468 0.006063914 -0.0047614067 -0.007528431 -0.006334842
-0.006297852 -0.0064561935 -0.008074203 -0.017302437 -0.0035114328 -0.0020591067 -0.008401092 -0.0069381543
0.031106777 0.03673476 0.03088739 0.03552831 0.034443878 0.007916454 0.033709563 0.03441949
0.040486414 0.036129463 0.030191934 0.035591986 0.033711348 0.0035368267 0.001395034 0.036363244
-0.009417008 0.028545683 -0.002654376 0.015662778 0.032345 0.031219393 0.035969265 0.02643215
-0.02000407 0.03385044 0.034670554 0.031565934 -0.0076474487 0.036162186 0.036680795 0.036000654
0.0351976 0.008160798 -0.0014475683 0.01561482 0.034053084 0.03497211 0.024620486 0.023914337
0.025418501 0.034184583 -0.0160363 0.033332337 0.036508214 -0.002689121 0.018489458 0.033266343
0.031392407 0.033248674 0.032705158 -0.010823928 -0.0065009412 0.03974143 0.03561507 0.034877896
0.03222844 0.037136972 0.037413854 0.0051341574 0.005090192 -0.006555087 0.03775702 0.03643743
00000000: 6c31 2dbb 92af 9abb 71dc 74bb acf7 c5ba
00000010: 9234 47bb 28f2 1fbb 88cb 72bb 2812 c1ba
00000020: ab74 b9ba 3454 cbbb cfad 33bb 5bb8 8abb
00000030: e6dc 30bb 7a26 33bb fb94 213c f8bb 23bb
00000040: cf60 ac39 4a37 98bb 2af0 b23a 2d80 e33b
00000050: 85b6 67bb fb92 56bb 23a0 85ba 8d42 a1bb
00000060: af27 dc3a e7cb 33bb 9466 d9bb e684 56bb
00000070: 4420 a73b 9a44 46bb 95ed 8bba 0483 5cbb
00000080: 2ac5 3fbb bc14 093b 6680 393b 29d5 073c
00000090: 7ea3 8bbb e9e3 86bb 5913 63bb d893 7cbb
000000a0: 101d 8abb 0638 c3bb 9680 2c3b 59e6 62bb
000000b0: e84c 62bb af7b 903b 10a6 29bc 6dd3 a8bb
000000c0: 3e03 fabb 9738 5fbb 0768 2ebb 9362 223b
000000d0: 25b0 c4bb ddda 22bb a33b 1ebb 1a42 86bb
000000e0: c1a4 38bb d899 5bbb 2473 fcba e152 283c
000000f0: 06a9 80ba 0ee7 8a3b 1436 50ba 628e 42bb
00000100: 2242 c6bb 563f 28bc 5fad eabb ff12 75bb
00000110: 7aba a1bb 72db 683a b1d1 b7bb b41d dbbb
00000120: 79cd c5bb 4686 57bb ce27 abbb 07d4 ebbb
00000130: 02e8 c2bb 1c81 0a3a 5ccc 4dbc 70b7 e4bb
00000140: e85e 8bbb 5ab0 aebb 69cb bd3b 93b8 44bc
00000150: a846 02bc 4d1d b6bb df98 f6bb 88a3 6ebb
00000160: 8e57 03b9 70e4 dbbb 9a0b 06bc d4ec 9dbb
00000170: 3d70 00bc 6f92 00bc a85b a3bb 23e4 d7bb
00000180: 1806 d4bb 8790 e0ba 7d96 083c 9b00 42bc
00000190: 46c7 9ebb 90ae b6bb 3510 14bb 6c60 55bb
000001a0: 73fa 70bb e5c5 95bb 1d71 193a 3c71 afbb
000001b0: af98 63bb 6771 39ba b346 cabb 63d0 babb
000001c0: 7139 c6bb f876 8dbb 7fbc aabb 5cb7 27bb
000001d0: ccb3 c63b 9305 9cbb 0eb1 f6bb 8294 cfbb
000001e0: 365e cebb 7a8e d3bb a949 04bc d7bd 8dbc
000001f0: 1120 66bb 14f2 06bb bca4 09bc 7559 e3bb
00000200: a4d3 fe3c 3077 163d 8d07 fd3c 2286 113d
00000210: 0615 0d3d 04b4 013c 0a13 0a3d 73fb 0c3d
00000220: 15d5 253d 7dfc 133d 1355 f73c e7c8 113d
00000230: e914 0a3d 1bca 673b 93d9 b63a a0f1 143d
00000240: cb49 1abc a3d8 e93c 0af5 2dbb 3a4f 803c
00000250: 317c 043d d0bf ff3c 8254 133d 3c88 d83c
00000260: 93df a3bc c2a6 0a3d b602 0e3d 484b 013d
00000270: 7397 fabb cd1e 143d 9a3e 163d 6c75 133d
00000280: 5c2b 103d deb4 053c 55bc bdba 4dd5 7f3c
00000290: 3f7b 0b3d ea3e 0f3d e7b0 c93c 00e8 c33c
000002a0: 763a d03c 2205 0c3d 8f5e 83bc 7d87 083d
000002b0: a389 153d f73b 30bb 3477 973c 4a42 083d
000002c0: 5395 003d c32f 083d d8f5 053d d856 31bc
000002d0: d905 d5bb e9c7 223d 1ce1 113d 20dc 0e3d
000002e0: f801 043d f01c 183d 453f 193d 6f3c a83b
000002f0: a0cb a63b 0ecc d6bb 1ba7 1a3d 6a3f 153d

actor.6.bias f4 [3]
-0.024477895 0.06718685 0.053288348
00000000: de85 c8bc 4299 893d e244 5a3d

critic.0.weight f4 [256, 259]
0.08110442 0.141988 -0.0030756383 -0.011323809 0.007753331 -0.09288725 0.070966 -0.053436182
0.035789322 0.0031125958 0.04233086 -0.07349366 0.08722943 0.11695734 0.12306999 -0.04053934
0.13637368 -0.0767176 -0.10461379 -0.07488144 0.10479268 -0.11689749 0.48959082 0.118604094
-0.11341351 0.09654277 -0.086517595 -0.058796134 0.1895028 0.19505303 0.10460908 0.062993504
0.004334822 0.122243315 -0.12469393 -0.043603733 0.0009384461 -0.016994413 -0.07359939 0.07389437
0.04514995 -0.021451894 -0.03520047 0.09618453 -0.020029634 0.16084437 0.21214546 0.14778294
-0.18319526 0.23942012 -0.055596225 0.024694603 0.051633514 0.1901622 -0.007554144 0.06392755
-0.046673357 0.013103004 0.18703185 -0.00736336 0.074992545 -0.02547811 -0.004752388 0.041367993
-0.03591139 -0.02333685 0.11642649 0.0300211 -0.041912023 0.11349498 -0.10058611 0.07387653
-0.14936242 -0.06647376 0.15344045 -0.1676421 0.039568122 -0.015727282 0.076687545 0.21183668
-0.008514213 0.15747638 0.0061735534 -0.034285415 0.11432612 0.29874325 0.10819258 -0.12877321
-0.02842282 -0.060231097 0.16174045 0.111302726 0.046297453 -0.09391254 -0.11388569 0.06634906
0.00078653754 -0.033755388 0.04233782 0.075232126 -0.05357376 0.20951442 -0.02688503 0.042766504
0.028401019 0.08302952 -0.17981122 0.0726545 0.094097905 0.013942484 0.07676174 -0.14006937
-0.11971456 -0.010770788 -0.050531395 -0.0063887876 -0.027004723 -0.16288099 -0.0029998862 -0.07616199
-0.012360934 -0.03535124 0.027253635 0.078290276 0.04806112 0.205023 -0.026183326 0.051522367
0.08025102 0.07344266 0.07077699 -0.019289773 0.0711803 -0.02475887 -0.0069096633 0.06849134
-0.014596589 -0.11458514 0.017029915 0.26908246 0.14957963 0.094334126 -0.056346077 0.11439526
-0.08596712 -0.085342646 0.05346596 -0.016272198 0.17460248 0.054157943 -0.081260726 0.043547392
-0.0034400106 -0.14910871 -0.020632293 0.10441779 -0.027859159 0.09226375 0.104761444 -0.00919033
-0.034877833 -0.093539216 0.05559228 -0.02650012 0.024903644 -0.004563862 -0.06631867 0.08090965
-0.036591437 0.035922866 -0.044313993 0.08321786 0.17782807 0.026727341 -0.05470097 0.10599962
-0.12166663 0.0197382 -0.10867361 0.0076715387 -0.00039861607 0.036116045 -0.037404004 -0.032210685
0.03738707 0.18542475 -0.08373715 -0.02519004 -0.040862933 0.048042092 -0.08494811 -0.05567129
0.18929803 -0.008845531 -0.04614837 -0.04246923 0.08930961 -0.014836331 -0.07230376 -0.053615842
0.116344884 0.11934982 -0.009207687 0.07873586 -0.033449028 0.042110205 -0.055806566 0.20331103
-0.085795626 -0.0025649094 -0.060130686 0.13122037 0.03035717 0.052691735 0.012270826 0.016741915
0.04492058 -0.103498906 -0.063177586 -0.092292316 -0.081991695 -0.09592571 -0.09894905 -0.002006228
0.08519924 -0.10935597 0.37534347 -0.021506358 0.07810126 0.20961724 0.030584482 -0.13423899
0.051455833 0.06684582 0.029231165 -0.026892036 -0.09805587 -0.15531565 -0.036219113 0.10702815
-0.034836646 0.13411854 0.1388099 0.18041946 -0.043151718 -0.077399254 -0.019586239 0.07110353
0.024302255 0.03725852 0.10045488 0.05048053 0.06645968 0.08336009 -0.031023065 -0.010257199
00000000: 131a a63d 4d65 113e a690 49bb 7f87 39bc
00000010: a80f fe3b ac3b bebd 9f56 913d e6df 5abd
00000020: d397 123d b1fc 4b3b 2063 2d3d d883 96bd
00000030: 58a5 b23d 5487 ef3d 1e0c fc3d 940c 26bd
00000040: 8ba5 0b3e 1e1e 9dbd c13f d6bd 715b 99bd
00000050: 8b9d d63d f467 efbd a6ab fa3e b4e6 f23d
00000060: 5845 e8bd 37b8 c53d 2330 b1bd 37d4 70bd
00000070: 060d 423e fbbb 473e 493d d63d bd02 813d
00000080: 1f0b 8e3b b45a fa3d 885f ffbd d499 32bd
00000090: 0d02 763a de37 8bbc 47bb 96bd ee55 973d
000000a0: 27ef 383d e2bb afbc 5e2e 10bd 65fc c43d
000000b0: 3015 a4bc 63b4 243e a93c 593e 6954 173e
000000c0: 8a97 3bbe 8c2a 753e deb8 63bd 564c ca3c
000000d0: aa7d 533d e1b9 423e c188 f7bb 73ec 823d
000000e0: 902c 3fbd fbad 563c 4785 3f3e 5748 f1bb
000000f0: b195 993d 78b7 d0bc ecb9 9bbb 7c71 293d
00000100: d217 13bd ec2c bfbc 0371 ee3d cfee f53c
00000110: f1ab 2bbd 0e70 e83d 1700 cebd 944c 973d
00000120: 76f2 18be 6523 88bd 7e1f 1d3e 5faa 2bbe
00000130: 2f12 223d 80d6 80bc 5c0e 9d3d b7eb 583e
00000140: 337f 0bbc 7d41 213e 854b ca3b dd6e 0cbd
00000150: d023 ea3d e0f4 983e 1294 dd3d 20dd 03be
00000160: f9d6 e8bc e2b4 76bd 4a9f 253e aff2 e33d
00000170: 66a2 3d3d 3855 c0bd e73c e9bd 04e2 873d
00000180: a42f 4e3a 1743 0abd 6c6a 2d3d 4d13 9a3d
00000190: 2970 5bbd f38a 563e ff3d dcbc ee2b 2f3d
000001a0: 41a9 e83c 620b aa3d 6f20 38be e2cb 943d
000001b0: 67b6 c03d 046f 643c 4235 9d3d 586e 0fbe
000001c0: e82c f5bd f677 30bc 02fa 4ebd 0959 d1bb
000001d0: 0239 ddbc 46ca 26be bd99 44bb d1fa 9bbd
000001e0: 8485 4abc 76cc 10bd 0443 df3c a756 a03d
000001f0: bddb 443d 8df1 513e 6a7e d6bc 1e09 533d
00000200: a65a a43d 1b69 963d 87f3 903d 9605 9ebc
00000210: fac6 913d 1dd3 cabc 756a e2bb 3045 8c3d
00000220: 8826 6fbc 9dab eabd 5282 8b3c 2dc5 893e
00000230: 672b 193e 4032 c13d 25cb 66bd 1048 ea3d
00000240: 880f b0bd 20c8 aebd 1fff 5a3d 464d 85bc
00000250: feca 323e b8d4 5d3d 066c a6bd c05e 323d
00000260: cd71 61bb f4af 18be 0e05 a9bc ffd8 d53d
00000270: e438 e4bc c7f4 bc3d 2b8d d63d 0a93 16bc
00000280: 0fdc 0ebd 7d91 bfbd bbb4 633d c816 d9bc
00000290: ba02 cc3c 738c 95bb 15d2 87bd f5b3 a53d
000002a0: e7e0 15bd db23 133d 9782 35bd 206e aa3d
000002b0: 9018 363e 4cf3 da3c 200e 60bd 5416 d93d
000002c0: 5b2c f9bd 01b2 a13c 4590 debd 8861 fb3b
000002d0: 58fd d0b9 6bee 133d f134 19bd 5aef 03bd
000002e0: 2f23 193d fcdf 3d3e 627e abbd 585b cebc
000002f0: e45f 27bd c9c7 443d 46f9 adbd 9407 64bd
00000300: 58d7 413e d9ec 10bc 1306 3dbd 37f4 2dbd
00000310: f5e7 b63d 1514 73bc fe13 94bd 499c 5bbd
00000320: 3a46 ee3d ae6d f43d d7db 16bc 4440 a13d
00000330: d901 09bd c07b 2c3d 6d95 64bd c430 503e
00000340: 9eb5 afbd 0a18 28bb 984b 76bd a25e 063e
00000350: 9aaf f83c 4ad3 573d 930b 493c 5726 893c
00000360: a4fe 373d 3cf7 d3bd 4063 81bd c103 bdbd
00000370: 43eb a7bd b374 c4bd cda5 cabd ec7a 03bb
00000380: f07c ae3d 06f6 dfbd 052d c03e 1a2e b0bc
00000390: 8ef3 9f3d e7a5 563e 4f8c fa3c f275 09be
000003a0: 5ac3 523d 76e6 883d 3276 ef3c b04c dcbc
000003b0: 84d1 c8bd 110b 1fbe 7e5a 14bd 9331 db3d
000003c0: dfb0 0ebd 5f56 093e 2f24 0e3e e1bf 383e
000003d0: dbbf 30bd 8083 9ebd 5273 a0bc ba9e 913d
000003e0: 8615 c73c 649c 183d 4abb cd3d acc4 4e3d
000003f0: 031c 883d b2b8 aa3d 1524 febc d00d 28bc

critic.0.bias f4 [256]
-0.017210653 0.015962435 0.029372912 -0.006720633 0.02723187 -0.049904004 0.06531297 -0.050168935
-0.061714463 -0.021035977 -0.020975782 0.0027351244 0.059067924 0.03936957 0.01005764 0.016288703
0.014579457 -0.017995909 -0.030881923 0.052577164 0.0010229348 0.05746288 0.013345236 -0.029005148
-0.034428388 -0.03402218 0.023919577 0.02519764 0.06647508 -0.072639905 -0.053104684 -0.024176678
-0.045042474 0.021555569 -0.05221004 -0.02749846 -0.019894822 -0.030739253 0.0053536864 -0.052412003
-0.03357825 -0.041726563 0.014471506 -0.049246237 0.03648657 0.049708564 -0.041844252 -0.030967116
-0.062360335 0.017899016 -0.04396308 -0.048826873 0.045512624 -0.02014343 0.051869225 -0.05589586
-0.03823984 -0.04140165 -0.010466984 -0.04075996 0.015936874 0.069290735 0.061840955 0.05481374
0.013485238 -0.012426844 -0.061995376 -0.008735407 -0.04013229 0.0009557017 0.014619791 -0.0098193465
0.0121675795 -0.008267969 0.0033998243 0.00502307 -0.036583398 0.047246106 -0.012627406 -0.045188293
0.046794515 0.042204637 -0.05024884 0.04847952 0.017292308 -0.005155338 0.05597934 -0.025775613
0.0024247922 -0.04436907 0.0055023544 0.018895555 -0.03922002 0.02812356 0.01791005 -0.0067534936
0.052328296 -0.028690888 0.045426976 0.012783518 -0.0029517948 -0.06977597 -0.04889295 0.0416181
0.006614853 -0.025433699 0.019589162 -0.011904681 0.00064085773 0.04374641 0.027872717 0.043250497
-0.040529337 -0.00096497923 -0.0236896 -0.04087641 0.019162342 -0.010582671 -0.01323328 -0.0427586
0.021837538 -0.034916114 -0.01759001 0.023351325 -0.058162548 -0.016493304 0.0027106227 0.03517872
0.003920721 0.0011616698 -0.05128058 0.042433355 0.05219475 -0.008013772 0.011632063 0.0024646882
0.022122158 -0.039198007 0.032478236 0.0045822444 -0.06390581 -0.03369719 -0.057614908 -0.017726695
-0.018061878 0.066978045 -0.0299355 -0.060802344 -0.055818435 0.0045790207 -0.05918096 0.01647265
-0.01667303 0.072099924 0.004037165 0.03447745 -0.050828047 -0.055562217 0.0056307456 0.00019535013
-0.05476761 0.017466554 0.000966669 -0.057768952 -0.025834156 -0.05461691 0.02325828 -0.05843816
0.06996478 0.000117465264 0.046960045 0.013533652 0.049442697 -0.023372566 -0.01707903 -0.056669883
0.0047103562 -0.05541494 -0.044516493 0.06329168 -0.041978348 0.02733174 -0.03917515 -0.05343462
-0.04625871 0.01875947 -0.05589245 -0.053841442 -0.06138372 -0.014406491 -0.031375404 -0.04372605
-0.0024581535 -0.03228376 0.059202008 -0.011853911 0.017776717 0.03100421 -0.02564739 -0.030438835
-0.015071789 0.027598778 0.05312351 -0.037829503 -0.046020944 0.018422691 -0.012789614 0.032302216
-0.021969719 -0.032997064 0.02316728 0.04932326 0.008374009 0.03185679 0.0027248538 0.04862199
0.015366323 0.0031466882 0.031318355 -0.0077037294 0.064666376 -0.01336966 -0.029322801 0.018108036
-0.009305255 -0.054481722 -0.037782546 -0.034105007 -0.014837523 -0.041914586 -0.041189633 -0.044342376
0.0001648454 0.002487695 -0.019624999 -0.0014079481 0.03930803 0.047026522 -0.013159934 -0.0097096795
0.024337996 0.0658628 -0.04299967 -0.020483429 -0.0028779584 0.035120346 -0.06504718 -3.1331903e-05
-0.04476624 -0.03705042 -0.048991073 0.02329078 0.0031877763 -0.04459229 0.00078467024 0.049908586
00000000: 5bfd 8cbc a7c3 823c 769f f03c c138 dcbb
00000010: 5f15 df3c 2468 4cbd cec2 853d f17d 4dbd
00000020: 4ec8 7cbd a453 acbc 67d5 abbc c63f 333b
00000030: 35f1 713d fc41 213d cdc8 243c e36f 853c
00000040: adde 6e3c 286c 93bc 16fc fcbc 275b 573d
00000050: ff13 863a 325e 6b3d faa5 5a3c 349c edbc
00000060: c804 0dbd d75a 0bbd fdf2 c33c 486b ce3c
00000070: 1624 883d 3bc4 94bd 4c84 59bd 2b0e c6bc
00000080: 757e 38bd 4e95 b03c 32da 55bd 7344 e1bc
00000090: 77fa a2bc e3d0 fbbc fa6d af3b f8ad 56bd
000000a0: 5989 09bd 79e9 2abd e519 6d3c 6cb6 49bd
000000b0: f172 153d 359b 4b3d e164 2bbd c0ae fdbc
000000c0: 8d6d 7fbd f5a0 923c a112 34bd b0fe 47bd
000000d0: 726b 3a3d d603 a5bc d374 543d 0ff3 64bd
000000e0: 61a1 1cbd c794 29bd b67d 2bbc eaf3 26bd
000000f0: 0c8e 823c 4de8 8d3d f14c 7d3d 5f84 603d
00000100: 30f1 5c3c f699 4bbc ddee 7dbd f41e 0fbc
00000110: c261 24bd 0e88 7a3a d987 6f3c 53e1 20bc
00000120: 875a 473c 6076 07bc 96cf 5e3b 9198 a43b
00000130: 79d8 15bd 2285 413d 2ee3 4ebc 5c17 39bd
00000140: 9bab 3f3d c5de 2c3d bad1 4dbd 7692 463d
00000150: 99a8 8d3c 1cee a8bb 984a 653d 6127 d3bc
00000160: 43e9 1e3b 58bc 35bd 184d b43b daca 9a3c
00000170: 2ca5 20bd 6163 e63c 19b8 923c 694c ddbb
00000180: 3256 563d 2709 ebbc a311 3a3d f671 513c
00000190: e672 41bb b4e6 8ebd f943 48bd be77 2a3d
000001a0: 69c1 d83b 555a d0bc 7379 a03c da0b 43bc
000001b0: 3cff 273a 702f 333d 5355 e43c 6f27 313d
000001c0: 1702 26bd a9f6 7cba b110 c2bc 066e 27bd
000001d0: 58fa 9c3c f062 2dbc 66d0 58bc a423 2fbd
000001e0: a3e4 b23c 3304 0fbd ed18 90bc 474b bf3c
000001f0: da3b 6ebd f71c 87bc b4a4 313b 9017 103d
00000200: 6479 803b 2c43 983a 960b 52bd 99ce 2d3d
00000210: 2aca 553d 324c 03bc 6994 3e3c 9b86 213b
00000220: 8739 b53c 178e 20bd e607 053d a726 963b
00000230: 0de1 82bd 1106 0abd 9cfd 6bbd 9337 91bc
00000240: 81f6 93bc c92b 893d 4b3b f5bc e10b 79bd
00000250: dfa1 64bd 9c0b 963b bc67 72bd a7f1 863c
00000260: e195 88bc 20a9 933d 324a 843b 3a38 0d3d
00000270: 1231 50bd 3595 63bd 1e82 b83b e7d6 4c39
00000280: 0054 60bd 0516 8f3c 0f68 7d3a 239f 6cbd
00000290: 27a2 d3bc fbb5 5fbd 2688 be3c da5c 6fbd
000002a0: b249 8f3d af57 f638 2d59 403d 40bc 5d3c
000002b0: 6d84 4a3d d377 bfbc 52e9 8bbc ae1e 68bd
000002c0: 5559 9a3b c7fa 62bd ed56 36bd 119f 813d
000002d0: 7df1 2bbd d0e6 df3c 1f76 20bd 43de 5abd
000002e0: c679 3dbd 76ad 993c 7bef 64bd d888 5cbd
000002f0: 7f6d 7bbd 3409 6cbc 7f83 00bd 161a 33bd
00000300: f918 21bb fa3b 04bd ce7d 723d e836 42bc
00000310: 7aa0 913c 8afc fd3c 7a1a d2bc dd5a f9bc
00000320: aaef 76bc d516 e23c 0a98 593d 1cf3 1abd
00000330: 7580 3cbd 2feb 963c 878b 51bc 544f 043d
00000340: d7f9 b3bc ee27 07bd 4fc9 bd3c 3007 4a3d
00000350: 2433 093c 447c 023d 7693 323b da27 473d
00000360: 08c3 7b3c ab38 4e3b ad47 003d 916f fcbb
00000370: ce6f 843d 6b0c 5bbc 5f36 f0bc 4e57 943c
00000380: 1175 18bc 3a28 5fbd dfc1 1abd b1b1 0bbd
00000390: 1519 73bc a1ae 2bbd 76b6 28bd 5aa0 35bd
000003a0: 5ada 2c39 9908 233b 9bc4 a0bc e68a b8ba
000003b0: 7501 213d e29e 403d c49c 57bc 5915 1fbc
000003c0: 7a60 c73c 13e3 863d 6c20 30bd ddcc a7bc
000003d0: 219c 3cbb 5ada 0f3d 7537 85bd 606a 03b8
000003e0: ce5c 37bd 2ec2 17bd ddaa 48bd 4ecc be3c
000003f0: 03ea 503b 68a6 36bd 54b2 4d3a f26c 4c3d
